weights2/ep_1882.pth (torch, 275655 bytes, 10 tensors)

lstm.weight_ih_l0 f4 [192, 7]
00000000: 18b5 b3bc 4da2 ee3d f305 0e3e f170 423d
00000010: d235 113d 2f85 033e a13c 1e3e cfbb 2c3e
00000020: 1f32 05be a814 0a3e 4582 dabd d692 8ebd
00000030: 8baa 0e3d 5eac 313d c050 823d c112 403d
00000040: 9e8b 79bd 3a77 54bd 5363 7ebd 1606 193e
00000050: f236 353d cf7c 3a3e 0a4d 213d d209 053e
00000060: a280 8e3d 13ce 06be 25cf 933d dd75 a0bd
00000070: 0a99 9cbd 0ec4 0f3e be26 013e 5f19 5f3c
00000080: 9393 ffbc 9f16 023e 6e8b bdbd ee35 1b3c
00000090: 2798 293c 276b ef3d 3c36 023e 4f0f fdbc
000000a0: fecf 0e3e cbee 07bd 92e6 bd3d 8a68 aebd
000000b0: 83ce 473d be82 1c3d e6a2 253c a074 933d
000000c0: b80a fd3d a0ed bebc c16f 06be 67c6 14bc
000000d0: c71d 10bc c529 f93d 58ce 2d3e f066 003e
000000e0: 4a39 3a3c 45c5 843d 95d6 62bd 7e70 ab3d
000000f0: e89c 85bd 39fb 253e f29b 65bd 82d2 abbd
00000100: e16a e3bd c69d 043d 2d07 0c3d 201d bebd
00000110: 7af1 d2bd 7f94 f03d b734 babd fe45 e73d
00000120: 0871 2ebc 66d9 333d 8334 0cbb 3f9f 57bd
00000130: 75df 51bd 55d4 ed3d d319 94bd 1c5e 0d3d
00000140: 412e 80bd 4b5d 0b3e 8ff7 f0bc 742d 6a3d
00000150: 9aae 1cbc 0185 04be 94cf 1dbe aa9b e3bd
00000160: fdd6 81bd e8ae debc 0c75 fc3d c266 373e
00000170: 1a44 c93d 31cc 1e3c 446f c7bc c979 433d
00000180: 2723 a4bd 0ac4 3f3e 5bc9 393d bc6c 92bd
00000190: 26b3 213b 3951 00be 277e 15bd 2f5f 83bb
000001a0: 7ec0 fb3d b931 b63d 8d1f 193c 6176 ec3d
000001b0: a0a6 d83b dce8 fe3d 043c 16bd 6e4d 143e
000001c0: 2ed2 fa3d f789 a9bd 6922 543d 7913 c8bd
000001d0: dd46 d03d 06f5 c53c 669b a1bd 0d43 3139
000001e0: ceac c6bd 8432 e63a 60ef e43a f1c8 3c3d
000001f0: 4d5d 833b 5fde 0e3e 1610 b83d df61 13be
00000200: c8f7 fd3b 4cf2 16be 5468 e7bd d6ef e4bd
00000210: 862b 2a3c a302 af3d d981 9d3c 2ddb 9cbc
00000220: 2385 bdbd cd37 e63b cf33 7fbb 59c1 8f3d
00000230: f41c b43c 4c82 f0bd e4f9 db3d 4b72 ce3d
00000240: de02 b0bd 444a 2f3e 4d25 0d3e 2f53 debd
00000250: b474 1e3d 4ac3 b2bd abf0 d7bb c5ef 3abd
00000260: 3604 91bd 4dfb fb3c cef7 e33d 5677 bdbd
00000270: 2b35 cabc fa92 453d bc7c 6fbc 998f dc3c
00000280: eac0 623d 9992 9c3c 83d5 f1bd f820 ef3d
00000290: e108 bd3d 33db 043e 7ccd 023e 1188 b73d
000002a0: df22 b83c a8dd b23d 7259 e9bc efa9 e1bd
000002b0: 257e d7bd a9da 5c3d 0453 1e3d 8419 593d
000002c0: 8d52 d43d 5514 61bc 28ac ac3c 344f f4bc
000002d0: 1a7f f4bc f271 29bd 3bb5 2d3e 3bde 0d3e
000002e0: 7ecd f93c b93b ce3a 40cc 31bd a5c2 25bd
000002f0: 496f 753d 41a5 c6bd c996 02be bf68 a73d
00000300: 9c72 a4bc c08c 193e 657d f53d bc00 013e
00000310: 2c4d dd3b 5461 9c3d be79 103e a30a fd3d
00000320: a30c 94bc deba 863b 793c eb3d 3e3a e1bd
00000330: 1854 3e3d 4929 49ba 9bda 43bc b8d4 183d
00000340: a00c ba3b 5938 eebb 5c3b a8bd ad55 ce3a
00000350: 5dbc 8b3c 67e7 21bd 7eec c1bd 46e9 973d
00000360: 2a1b 373e b03e 43bd 4257 103d 621a 9d3d
00000370: 7987 20bd df0f 4e3c 5711 2f3d 77a3 3c3d
00000380: d0cf 5fbd d41e bfbd 9d97 1e3c a982 fb3d
00000390: f0d0 d93d 6c34 fcbd f5ad 55bd 0e61 75bd
000003a0: bd33 2cbd dc16 d13d d943 e63c 0278 623d
000003b0: 9178 84bd 59c5 0e3e ca89 433d b7d1 e8bd
000003c0: 4e5b 69bd d9f7 56bd 5408 0dbd 99b3 a73d
000003d0: dabb c73c 948c ea3d 2768 433d fd03 923d
000003e0: 6142 b7bc 9928 913d 6dd3 f3bd 37af d2bd
000003f0: 7fb1 04bc a15f 72bd c951 063e 2d8c d2bd
-0.021936938 0.1165205 0.13869457 0.04747099 0.035451718 0.12843774 0.15452816 0.16868518
-0.13007401 0.13484442 -0.10669378 -0.069616005 0.03483061 0.043377273 0.06363058 0.046892885
-0.060924165 -0.051871516 -0.06210644 0.14943728 0.044241853 0.18211673 0.03938011 0.12992027
0.069581285 -0.13164549 0.07217244 -0.07834981 -0.076463774 0.14039633 0.12612435 0.013616889
-0.031198299 0.12703942 -0.0925511 0.009473307 0.010351217 0.116903596 0.12716001 -0.030891089
0.1394653 -0.033186715 0.092724934 -0.08516033 0.04878093 0.038210623 0.010109639 0.07199979
0.1235556 -0.023306668 -0.13128568 -0.009080506 -0.008796162 0.1216617 0.16973245 0.12539268
0.011366198 0.06482939 -0.055380423 0.083710656 -0.06524068 0.16209115 -0.056056924 -0.083897606
-0.1110437 0.032377027 0.03418653 -0.09282899 -0.10299964 0.117470734 -0.09092086 0.11292647
-0.010647066 0.0439085 -0.0021393604 -0.052642103 -0.051238496 0.11612765 -0.07231488 0.034513578
-0.06258822 0.13609807 -0.02941492 0.057172254 -0.009563113 -0.12941362 -0.15411216 -0.11113675
-0.06339834 -0.027183011 0.123270124 0.17910293 0.098274425 0.009692238 -0.024345048 0.047723565
-0.08014517 0.18727127 0.045358043 -0.07149646 0.0024673431 -0.12530984 -0.03649726 -0.0040091495
0.12292574 0.088962026 0.009345901 0.115460165 0.00661166 0.12446758 -0.03667833 0.14482662
0.1224712 -0.08278268 0.05179063 -0.09769339 0.10169766 0.024164688 -0.07890968 0.00016905014
-0.09700929 0.0017562662 0.0017466359 0.04609007 0.004008925 0.13952015 0.08987443 -0.14392804
0.007750485 -0.14740866 -0.11299196 -0.111785576 0.010386353 0.08545425 0.019226955 -0.01914748
-0.092539094 0.007025695 -0.0038940792 0.070193 0.021986462 -0.11743602 0.10741022 0.100803934
-0.08594297 0.17118174 0.1378376 -0.1085571 0.038685516 -0.08728655 -0.006589969 -0.04563882
-0.07080881 0.030759478 0.11131249 -0.09251277 -0.024683556 0.04823587 -0.014617141 0.026923941
0.05535976 0.019112872 -0.11808302 0.1167621 0.09230209 0.12974243 0.12773699 0.089614995
0.022477565 0.08733684 -0.028485034 -0.110187404 -0.10522107 0.053919468 0.03865339 0.05300285
0.10367308 -0.013737758 0.021078184 -0.029822923 -0.029845763 -0.041368432 0.16963665 0.13854305
0.030493494 0.0015734351 -0.04340768 -0.04046883 0.059920583 -0.096994884 -0.12752832 0.081742756
-0.020074181 0.14995098 0.11986808 0.12597936 0.0067535844 0.07635751 0.14108941 0.123555444
-0.018072432 0.004111632 0.114861436 -0.10997437 0.046466917 -0.00076736935 -0.011953975 0.03731224
0.0056777745 -0.0072699008 -0.08214447 0.0015742086 0.017057592 -0.039527323 -0.094689354 0.0741754
0.17881456 -0.047667205 0.035239466 0.07671048 -0.039191697 0.012577026 0.042741146 0.04605433
-0.054641545 -0.09332052 0.009679702 0.12280781 0.10635555 -0.12314686 -0.05216785 -0.05990701
-0.04204153 0.10209438 0.028108524 0.05529023 -0.06468309 0.1394247 0.047738828 -0.11368125
-0.05697184 -0.05248246 -0.03443177 0.081885524 0.024381567 0.114525944 0.04770675 0.07129667
-0.02237052 0.070878215 -0.11905561 -0.10287326 -0.008098959 -0.05917323 0.13117136 -0.10280643

lstm.weight_hh_l0 f4 [192, 48]
00000000: 7ed5 b5ba 34d6 f6bd d8df 843a 9bee 09be
00000010: e662 07bd 2c7c eabd be2b edbd e29d b23d
00000020: a1e7 bdbd 6924 ab3c cd9b 35be f2df 44be
00000030: d045 6abb ed70 963d de8d 0dbd bafc 66bd
00000040: 4e05 90bb 2b66 2c3e edaa 0f3c 69fb 52bd
00000050: ced2 153e 714b 4b3d 9d0c bcbd 6846 cfbd
00000060: 3b75 0dbd b811 963d 99b8 913d 134b de3d
00000070: 9148 c63b f850 6bbd 31c0 54bd 63e3 30bc
00000080: 6de5 a7bd 377f 20be 8afb b83d 575d cfbd
00000090: d737 26bd 83f9 c53d bd7c 9fbd afca 9b3c
000000a0: 48eb 943d ad41 c03d 1b8c 883a e7a9 bcbd
000000b0: 6830 273d f9b4 953b ab51 05be 0b51 cebd
000000c0: 6a3a d4bd a3a6 39bd bf63 b33d c7aa 233d
000000d0: c6a8 ab3d c0a3 073e 774b 2b3e d74b e3bd
000000e0: 9f5b cb3b 63b5 993c 973f 3abe 382b 2dbe
000000f0: 0d71 a83d 47f9 0a3e e1d4 063e ce66 edbd
00000100: b1ba 8fbd 33ce ab3c 2099 273e 9e85 1abd
00000110: 2891 10bd c6a3 72bb 0a0b 52be 4e51 073e
00000120: 301e 223e 4193 da3d 1f5b c43d c0d9 383e
00000130: 52dc f13d cfc3 9f3d b344 f43d 9e61 cb3d
00000140: 4f93 b7bd 2576 33be c55c a6bc 05a3 773d
00000150: 183c af3d 06c1 19bd 941e 0fbd 9048 98bd
00000160: 687a ecbd ece1 03bd 3ddb bbbd 8596 dc3d
00000170: 754e 563d c616 cb3d 2b17 b13d 0565 c0bd
00000180: 55f1 aa3c b2ae 1abe 09d5 12ba 5a82 dbbd
00000190: d787 083d 8071 2c3d 4ac0 d33d af4f 2f3d
000001a0: 00f3 3fbd fdc6 e7bc 7983 b5bd 5a93 b4bd
000001b0: 5efd 003d 5250 a53c 6ecb 67bd 7fe7 18bd
000001c0: b78e 683d f7fa 263e 7976 fc3d 616d 8dbd
000001d0: fbe6 0dbd a2d9 f4bd b893 d2bc f184 213e
000001e0: b50e 4a3d a8a4 9c3c 335e 26be c564 213d
000001f0: c418 10bb dcfb 73bd c957 8fbd 5d9b e03d
00000200: b339 183d 2592 8dbd ee1e cc3d a882 d03d
00000210: a44f ee3d 66c0 c5bd a5b4 253e 05b2 59bd
00000220: 23a0 f2bd fac7 913d fd29 67bd 7cdd fe3d
00000230: f6c8 28be 8ab6 2f3d 19aa 56bd 5fe2 f5bd
00000240: 1526 d3bd 2930 85bd 1b91 dbbd 9fb5 82bc
00000250: e072 e73b 0752 0e3e 2dc4 70bb 98fb 89bd
00000260: 3220 693d 22c4 e33b 00f5 f2bb 9ae9 ddbc
00000270: 01c1 963d 70a1 673d 6ac6 9c3d 82f6 923d
00000280: 9630 883d 8e6d 2a3e aacc 523d f4af 073d
00000290: 3cdf 6cba 39f9 ed3d 382a 1ebe a97a 193e
000002a0: 8d3e 1e3e 136c 8ebd 53bd d4bd d769 e43d
000002b0: 908c 2c3d cc1b d0bb 3af2 84bd b9c5 d03c
000002c0: 0763 f7bc ecff a5bd e069 02be 9056 d93d
000002d0: 8142 9dbc 6a72 143d 13d3 94bd e3b3 a83c
000002e0: a68a 37be b215 2a3e df01 fbbc 8c9c 153e
000002f0: 004f aabd f9f9 febd 545b 17be 91c4 8b3d
00000300: c83e 22be 90af a73d 3b92 a73d ca48 1bbb
00000310: ffed fa3d 5db5 0e3e 7ec9 263e e08f 01be
00000320: fbc2 f2bc 7b01 c83d 527c 9f3c 5f2f 29bd
00000330: 0fff 4e3c 77c9 483d 41db 41bd 4b1f 4cbd
00000340: 515b d03c 22e0 9e3d ddb5 62bd b0e4 84bd
00000350: dc9e c43b fcfe 4dbc 8142 0dbe 3767 9fbd
00000360: 3188 86ba 1d25 1c3e ddb3 d2bd 9b56 a63c
00000370: e5c9 26bc b94f 113e 809d 463e 0f54 bfbd
00000380: 7ea1 40be 509e 14be 6b96 683d 02a1 063e
00000390: 9c7e 1e3e 790c e33d 194b 1b3e f1de ab3d
000003a0: 2712 33bd 70b5 dc3d 6948 583b 48ad 97bd
000003b0: 2a4d 75bd 9053 5f3b a502 353d ea3f 90bc
000003c0: 3a52 0cbe a4ca d3bc 879a ccbd fcfa bfbd
000003d0: d5aa c63d decc 833d 3457 0d3e 3e0e 603d
000003e0: c0ac de3d 50fe 393d c4bb c7bd 3d21 34be
000003f0: d43b ad3d 0117 45bd d3c9 28bc 9db3 12bd
-0.001387283 -0.12052575 0.0010137511 -0.13469927 -0.0330533 -0.11449465 -0.11580609 0.0872152
-0.09272695 0.020891385 -0.17735215 -0.19226053 -0.0035747178 0.07345758 -0.034559123 -0.056393363
-0.0043951636 0.16835849 0.008768779 -0.051509295 0.14631197 0.049632493 -0.09182093 -0.10120851
-0.034535628 0.07327598 0.07115287 0.10854163 0.006051131 -0.057450265 -0.0519411 -0.010796401
-0.08198056 -0.15673529 0.09032352 -0.10125225 -0.040580597 0.09666731 -0.07787464 0.019017546
0.07271439 0.09387527 0.0010417731 -0.09212094 0.04081765 0.0045686928 -0.13019435 -0.100740515
-0.10362704 -0.045324933 0.087592594 0.039957788 0.083818 0.1324606 0.16728006 -0.1109845
0.0062059904 0.01876325 -0.1818832 -0.16911018 0.08224688 0.13571654 0.13167144 -0.11591874
-0.070180304 0.020972347 0.16367006 -0.037725084 -0.03529468 -0.0037023886 -0.20512024 0.13214609
0.15831828 0.10672618 0.095876925 0.18051815 0.11809601 0.078010194 0.11927166 0.099307284
-0.08963644 -0.17525537 -0.020307908 0.060458202 0.08556384 -0.037537597 -0.03494127 -0.07435715
-0.11546785 -0.032197878 -0.09172676 0.10770897 0.052320916 0.09916453 0.08646997 -0.09394268
0.02086703 -0.15105703 -0.0005601203 -0.10718222 0.033332672 0.04210043 0.103394106 0.0428006
-0.046862602 -0.028293127 -0.08862967 -0.088171676 0.03149163 0.020179901 -0.05659049 -0.037330147
0.05677673 0.16306673 0.12327284 -0.06905628 -0.03464411 -0.11955573 -0.025705203 0.1577337
0.049330432 0.019121483 -0.16246872 0.039402742 -0.0021987418 -0.059566364 -0.069991656 0.10967133
0.0371644 -0.069126405 0.09966837 0.10181171 0.11636284 -0.09655838 0.16182192 -0.05314829
-0.1184695 0.071182206 -0.056436528 0.124445885 -0.1648291 0.042898692 -0.05240831 -0.120060675
-0.10309998 -0.065033264 -0.10721036 -0.015955744 0.0070632547 0.13898478 -0.0036738024 -0.06737441
0.05691547 0.006950871 -0.00741446 -0.027088929 0.07361031 0.056550443 0.07655032 0.07175924
0.06649892 0.16643354 0.051464714 0.033126786 -0.000903595 0.11619801 -0.15445793 0.14988197
0.15453549 -0.06954207 -0.10387673 0.11153 0.04212624 -0.00635097 -0.064915136 0.025484907
-0.030198587 -0.08105454 -0.127357 0.106122136 -0.01919675 0.036241926 -0.07266822 0.02059359
-0.17923984 0.16609839 -0.03064054 0.14610499 -0.08315849 -0.12450022 -0.14780933 0.068246014
-0.15844262 0.08187783 0.08182188 -0.0023694509 0.122524254 0.13936372 0.162878 -0.1265254
-0.02963399 0.097659074 0.01946846 -0.041304942 0.012634053 0.049020257 -0.047328237 -0.04983453
0.025434168 0.07757594 -0.05534922 -0.06488931 0.006000383 -0.012573 -0.137949 -0.077833585
-0.0010263977 0.15248533 -0.102882124 0.020304969 -0.010179971 0.14190568 0.19396019 -0.09342205
-0.18811604 -0.14513516 0.056784075 0.13147357 0.15477985 0.11086363 0.15165366 0.08392132
-0.043718483 0.10776794 0.0033002144 -0.07406098 -0.059888043 0.0034076907 0.044191975 -0.017608602
-0.13703242 -0.025853463 -0.09990411 -0.09374043 0.097005524 0.0643556 0.13802797 0.054701082
0.10872793 0.045408547 -0.0975261 -0.17590804 0.08458677 -0.04811764 -0.010302025 -0.035815824

lstm.bias_ih_l0 f4 [192]
00000000: 81e5 3c3d 9bde 29bd 3477 033e e35f a8bd
00000010: 58ec 72bc 5bf1 79bc ba52 53bd 1e4a bc3c
00000020: a574 adbd 436f 033e 1086 223e 3ad9 413d
00000030: 7b82 cc3c aaee 643d 6d96 833d 96fb 64bd
00000040: dd8c b9bd ddc9 2c3e 377c 333b 630e 1bbd
00000050: 6369 1d3e 5702 3c3c 4503 a83d 1ec6 e53d
00000060: d335 883d a50f f53d 4669 d8bd ef5e b03d
00000070: 109e c93d 5a7d 9c3d 2495 82bd ed10 b23d
00000080: 7027 ba3d c3a3 d03d ca9d a3bd dfa0 26bd
00000090: db3d 3bbc f1c8 8bbd b4f5 9ebd 3b14 883d
000000a0: 3f3b 2e3e 0c4d a2bd ad1b b73d d0ef f3bc
000000b0: 24a8 753c 13cf db3b 6c7a 043e 6fe0 de3d
000000c0: 499d 07be 6212 223e 26eb 4dbd 40a0 073e
000000d0: 1066 633d cdfd 953d 4c47 eabd 973e 18bd
000000e0: 8a46 edbd 2e14 eabd a2a1 c1bd 591c dbbc
000000f0: bff8 a53c fa6b df3d 3afb aebb 3705 e83d
00000100: 0811 873d 69b8 ee3d bd90 b3bb 3c28 473d
00000110: c27e 093e 7fb6 0c3e 04d2 1f3e a72e 2a3d
00000120: 269e ffbd 0a39 cd3d e611 2fbd e84d db3d
00000130: 957d 14bd ace0 8a3d ef11 b5bd 8645 013d
00000140: cfa4 fc3d d28f d43c 9eac c2bd 16f4 74bd
00000150: ac15 b43c 1c08 843c 9c28 4abc ec79 86bd
00000160: 53d6 3b3d 6b62 7c3c 9181 5fbd 708b ce3c
00000170: ab1d e63d b7e2 293e 9249 80bd 8fc1 51bd
00000180: 541d cebd df42 5d3d 04de 753c ddaf f7bb
00000190: 6c4b 0fbd bae0 043d 8840 163e de69 803d
000001a0: c5d4 bb3d 37b9 c93d 833b 253e 114f 0a3e
000001b0: 0e17 99bd 1e5f c43d 04f4 5cbd 3320 433b
000001c0: f471 97bc 334a 853b c3b1 143c 5a39 febd
000001d0: c5f6 3a3e c168 953d 8a17 253e 97d7 11be
000001e0: db40 aa3d 77f5 943d 24cf fd3d 63e5 48bd
000001f0: 5e3a 47bc a07a a5bd 087a f43b 55ed 863c
00000200: 38c9 39bd 953a bc3d 9567 503d 991c df3d
00000210: 5cf8 483c 505d f03d 16e5 22be 8855 ddbd
00000220: 4fcb cb3d 3e02 1bbe bedc 173e 6623 683d
00000230: 3691 043e c427 fdbb 9b7b e9bd 158f abbd
00000240: 71f9 bebd c0e9 74bd cea1 fc3d e943 203e
00000250: c44a d5bd fd28 363c f39b bf3c dda9 e13d
00000260: 070c 153e e4ba e73d b138 87bd b1ae 9abd
00000270: b756 963c edbe 123d 530b d43b 1998 cdbc
00000280: 3188 b6bd 405d 403e aad0 37bd 1e0b 91bc
00000290: fcec 1c3e 076b f43d ab9d b63d 1a7a 06bd
000002a0: ba3f 633d 1555 34bd a42d 203e 0bad 09ba
000002b0: 096f 00bd b595 ad3d c8ba c0bd d04d a53d
000002c0: 4411 133e 7ea8 3b3d 94b3 b93d 6202 30bd
000002d0: e8e9 8c3d da3a e2bc be0c 583d 5bfb 93bd
000002e0: 749f 143c 0554 673d 8bc9 aa3c 17fc bbbd
000002f0: 7b1b 7a3d 167b e23d a651 ce3d 2331 ba3c
0.04611731 -0.04147206 0.12838441 -0.08221414 -0.014826857 -0.0152552975 -0.051592566 0.02298456
-0.08469514 0.12835412 0.15871453 0.047326304 0.024964562 0.05589167 0.06425176 -0.055903994
-0.09060071 0.1687388 0.002738727 -0.037855517 0.15372233 0.011475167 0.082037486 0.112194285
0.06650891 0.119658746 -0.10566954 0.08611857 0.09844601 0.076410964 -0.063761026 0.086946346
0.09089553 0.10187485 -0.0798908 -0.040680762 -0.011428322 -0.06825436 -0.07761708 0.06644484
0.17014788 -0.07924852 0.089408256 -0.029777437 0.014993701 0.006708035 0.12937325 0.10882651
-0.13243593 0.15827325 -0.050273083 0.13244724 0.055517256 0.07323799 -0.1143938 -0.037169065
-0.1158572 -0.1142963 -0.09454657 -0.026746916 0.020260213 0.10909267 -0.005340007 0.1132912
0.06595045 0.11656267 -0.0054799006 0.048622355 0.1342726 0.13741492 0.15607458 0.041548397
-0.12481336 0.10020645 -0.04274168 0.10708219 -0.036252577 0.06781134 -0.08841311 0.031560443
0.12336122 0.025947485 -0.0950558 -0.05980309 0.02198299 0.016117148 -0.012338784 -0.065662235
0.045858692 0.015404324 -0.054566924 0.025212973 0.112361275 0.16590391 -0.062640324 -0.051209982
-0.10064188 0.05401885 0.015006546 -0.0075588063 -0.034984037 0.03244088 0.14673054 0.062701926
0.09171442 0.0984978 0.16135983 0.13506724 -0.074751005 0.09588455 -0.05394365 0.002977383
-0.018486954 0.004067683 0.009075585 -0.12413283 0.18258198 0.07295371 0.1612226 -0.14242397
0.083131514 0.07273381 0.123930246 -0.049046885 -0.012159912 -0.080800295 0.0074608363 0.01647059
-0.045357913 0.09190861 0.050880034 0.108941264 0.012266245 0.11736548 -0.15907702 -0.108073294
0.099508874 -0.15137574 0.148303 0.056674384 0.12946019 -0.0077256877 -0.11400529 -0.083769
-0.09324921 -0.059793234 0.12335549 0.15650906 -0.10414651 0.011118171 0.023389792 0.11018727
0.1455537 0.113149434 -0.0660261 -0.07552851 0.018351896 0.035826612 0.0064710765 -0.02509694
-0.08912695 0.18785572 -0.044876732 -0.017705496 0.15324777 0.11934476 0.089167915 -0.03283129
0.055480696 -0.044026453 0.1564241 -0.00052519207 -0.03135589 0.0847582 -0.09410626 0.08071482
0.14362055 0.045814984 0.09067455 -0.042971022 0.068805516 -0.027615953 0.052746527 -0.072256766
0.00907122 0.05647661 0.020848056 -0.09178942 0.061061364 0.11058633 0.10074167 0.022728508

lstm.bias_hh_l0 f4 [192]
00000000: c093 ea3d a244 f43c 3c30 d4bd 7aaf 9bbd
00000010: 2ab5 d6bd 8f2c 2f3e 9026 113d 86cc cd3d
00000020: 395c ca3d 2426 cdbd 14da 993d 0fa1 1f3d
00000030: e344 fbbc 2579 8ebd 777d 723d d879 413e
00000040: 1d3c d9bd 0b88 5e3e 79b5 dcbd 9285 eabb
00000050: 78b8 7f3d 7914 96bd 178e 873d 3c6f 293e
00000060: 6c03 a53b 51c0 b83d d698 1d3d 90e2 b53d
00000070: be28 8f3d ab97 2f3e ca7e 68bc e3e7 563c
00000080: 12eb 103e 3b8d b1bd 1484 c13d a624 5e3d
00000090: 14a4 7cba 8bfd db3d 14e2 3f3e ea4e a9bd
000000a0: 3c9d 523e 0f00 8abc 3a56 083d 2f0e ec3d
000000b0: c1e3 4b3d 50ef a33d 842e f53d 7eab 403d
000000c0: 2744 0bbe fbdb 063c 9b36 073e c49b f2bd
000000d0: 78d6 c4bd 2100 63bd 0628 0c3e d3e8 96bd
000000e0: 36b0 ee3d 98e0 a0b9 ea78 36bc 2f1a ec3d
000000f0: b1c1 a1bd 1eec f33d 1553 43bd 7121 873d
00000100: 6d75 17be e55c b13d f5e1 ab3a a1bb 2b3e
00000110: c034 1c3e efb7 a93d 570c e0bd 5440 103e
00000120: cfa9 dc3c 6139 2abd e61f 6b3d ccde b73d
00000130: 41ec 0bbe ce66 6a3d 5697 a83d a5ba c33d
00000140: 9b4e b7bd 5892 063e 7aad ecbd 2182 efbd
00000150: 2d32 eb3d ae58 85bd af4b b83d 5d08 81bd
00000160: b7c8 a6bc cc73 3e3e d42b 6ebd adc8 2d3e
00000170: a20c 223e 821e 803d f2eb d93d 7dd8 94bd
00000180: f9d9 e43c c5b6 81bd 6e78 debb 13d4 05be
00000190: 7b42 9bbd 8e4d d3bc dacb a63d 3cc5 71bd
000001a0: ace0 573d 7f26 3cbd be1a a33d 5366 c93d
000001b0: 40b1 033d 5254 00be 3a94 25ba fea0 87bd
000001c0: 20d3 a7bd 3565 0abe 7ca8 c5bc 70d4 29be
000001d0: c901 2f3e c857 d13d dae2 373d 9772 b83d
000001e0: 309c 16bd 794e 773d ad4e 193c 6f44 c33d
000001f0: aa0c c33c c912 07be 0f72 83bc 9e57 7e3c
00000200: d4a9 46bd 2058 4ebc e14a a43b aab9 063e
00000210: 542a 32bd dadb 59bd b87c e7bd be9d ccbc
00000220: bca2 bb3d 39d0 633b ce4a 8f3c 1990 84bc
00000230: 8a13 d3bd 0161 02be 4beb 00be 721f fb3d
00000240: 2a20 d7bc eb98 083d be11 9dbd beed a23c
00000250: 7192 83bd df5a 9c3d f2bb 08bd ad23 adbd
00000260: f1cb af3d 685a 3a3d 8aec 963d 0795 0a3e
00000270: 9716 fc3d 2212 9dbd d3ea 3bbd ae27 813c
00000280: f130 13bd 18e0 e6bc 2173 9b3d d293 283e
00000290: fe99 ef3d 66c4 c33d 30fe 08bd aee2 fabc
000002a0: fb5d b3bd 2925 d0bc 1fa8 76bd cc65 76bc
000002b0: a0c1 073e 309b ff3d c5a2 0f3e 5929 9c3d
000002c0: dfde 933d 1c52 153e 8833 cf3c bfc5 0f3e
000002d0: 6625 ed3d 72e7 ba3d b942 433e 8c1e fbbc
000002e0: ca31 953d 0b10 4b3e 1571 463d c41b 553d
000002f0: 925d 243e bc66 a53d d32d 55bb 5474 c63d
0.11453962 0.029817883 -0.103607625 -0.07601829 -0.10483773 0.17106842 0.035437167 0.100487754
0.09880871 -0.1001704 0.07512298 0.038971957 -0.030672496 -0.069567 0.059201684 0.18894136
-0.10607169 0.21731584 -0.10776801 -0.007157036 0.062431782 -0.073281236 0.06618898 0.16546339
0.0050358083 0.090210564 0.038475834 0.08881104 0.06990193 0.171477 -0.014190385 0.01311681
0.14152172 -0.08669516 0.0944902 0.05423417 -0.00096374867 0.10741719 0.18738586 -0.08267005
0.20567793 -0.016845731 0.033285357 0.11526143 0.04977775 0.080046296 0.11971763 0.047038548
-0.13600217 0.008231158 0.13204424 -0.11846116 -0.09611219 -0.055420045 0.13687143 -0.073686264
0.11654703 -0.00030684914 -0.011137227 0.115284316 -0.07898272 0.1191027 -0.047686655 0.06598175
-0.14790888 0.08660296 0.0013113605 0.16770793 0.15254498 0.08287036 -0.10939854 0.14087039
0.02693644 -0.041558627 0.057403468 0.08978042 -0.13664342 0.05722695 0.0823199 0.09557084
-0.0895054 0.13141763 -0.115565255 -0.11694742 0.1148418 -0.06511055 0.089988105 -0.06300423
-0.02035938 0.1859886 -0.058147267 0.16971083 0.15825132 0.06255819 0.10640706 -0.07267854
0.027935969 -0.06333689 -0.0067892587 -0.13069181 -0.075810395 -0.025793817 0.0814435 -0.059025988
0.0527045 -0.04593515 0.07964085 0.0983397 0.03215146 -0.12532166 -0.0006316338 -0.06622504
-0.08194566 -0.1351517 -0.024128191 -0.16584945 0.17090525 0.10221821 0.044894077 0.09006231
-0.036770046 0.06037757 0.009357137 0.09534537 0.02380975 -0.1319076 -0.016045598 0.015523819
-0.048501804 -0.012594253 0.005013809 0.13156763 -0.0434974 -0.053188182 -0.11303085 -0.024977561
0.091618985 0.0034761562 0.017491724 -0.016181992 -0.10306461 -0.12732317 -0.12589757 0.12261857
-0.026260454 0.03334896 -0.076694 0.019888755 -0.06424416 0.0763452 -0.033382364 -0.0845407
0.085838206 0.045496374 0.07369335 0.13533412 0.12308996 -0.07669474 -0.045878243 0.015765991
-0.035935346 -0.028183028 0.075903185 0.16462639 0.116992936 0.095589444 -0.033445537 -0.030625667
-0.0875816 -0.025408344 -0.060218927 -0.015038919 0.13257456 0.124807715 0.14026935 0.07625074
0.07220244 0.14582103 0.025293127 0.14040278 0.11579399 0.09126176 0.19068421 -0.030654214
0.07284887 0.19830339 0.048447687 0.052028432 0.16051319 0.08076236 -0.0032528534 0.096901566

mlp.0.weight f4 [256, 54]
00000000: e9aa c6bd 1998 8c3d 9e66 b2bd ddc8 2bbd
00000010: c80f b2bb 4c91 ca3c e0d1 d73b b958 3e3c
00000020: 0a6d bfbb ee97 eabd 208a 093c 8ccf 42bc
00000030: 6ff0 85bd d81d d53d 89f5 983d eb35 e33d
00000040: a1a6 0bbd de94 4fba d4ae 8d3d 7c0e 5b3d
00000050: f897 06be 3c8c 5d3c 0714 b73c 28ce cf3b
00000060: fa57 b43d fe00 22bd b0b1 563d 998e d5bd
00000070: 3b91 ca3c 4a14 013e b165 9dbd 9292 833d
00000080: 73d4 523d 799a 053e 68e3 b8bd ef51 8bbd
00000090: 7c46 a1bd c5fb a2bd e008 d33d 791a 963c
000000a0: 5c74 553d d507 c0bd 39ba e73c 5b57 61bd
000000b0: bcc0 5ebd 8da9 4f3b fa44 9e3d 54d5 1239
000000c0: 72a4 eb3d ac67 f0bc 8af5 853d ed7c c8bd
000000d0: 8ff1 4a3d 9dcc 473b cd9f 9cbc b7c4 1cbb
000000e0: 2e46 9a3d 63b4 093e 3ad9 f8bd ac21 a1bd
000000f0: cf61 fdbd a152 9abc d60d a5bc 3f2a 0a3e
00000100: 0acd 443c 5448 0fbd 0832 d9bd f852 de3d
00000110: e18b 7ebd 899f 0e3d 0df4 c83d a5cf cf3d
00000120: fb40 a7bd e724 e7bd 4150 9c3d 1124 8a3c
00000130: bcee bb3d 9bae c13c 9378 16bd 0896 7dbd
00000140: 2cf1 00be f2fb 03be 3004 cbbc 3929 87bd
00000150: a7de febb 03ff e1bd a31c aabd 87b0 823d
00000160: 9222 fb3c b076 04be 674e e6bd cbe4 cbbc
00000170: bb78 6d3d 95f1 543d 6be4 6c3d c542 e03c
00000180: 253f 24bd 280e 04bc 9e5f ed3d be29 ccbd
00000190: 003c 903d 2094 e8bc 4340 353d 5e72 06be
000001a0: 300b 203d 875d 19bd 4c59 5ebd f635 7e3d
000001b0: 4934 973d 8a4c 90bd 38ac 6d3d 2363 0d3d
000001c0: e9b2 8d3d e0c6 023e 50cf 9cbd f8b8 8e3d
000001d0: 09dd d8bd 2007 db3d fe2a 513d 7680 a8bd
000001e0: 7576 4abd 1d41 b1bd 8d9d 583d bc8a 14bd
000001f0: 7478 033e 9a67 a03d 4f53 443d 7b23 c2bd
00000200: 0dfc b03c 87cd 2d3d 439c 6d3d 5764 bcbd
00000210: fe91 f4bc 9e9e 0cbe dbb2 c4bd 74b7 2d3d
00000220: d9d6 413d 38d3 f1bd ee93 173b 5f0c 21bc
00000230: 7dc8 fbbd db7d 55bd 0983 a9bd 90f3 d4bd
00000240: fcd1 863d a85e 64bd e0c7 e83d a6c4 f33c
00000250: 7b5f 0ebb 6b23 f33d f30e 56bd 9d3c 733d
00000260: 22fc 913d c5cb f1bc 4f33 ecbb eb86 383d
00000270: e2a9 173e 7c36 7f3d 1bb8 503b 0646 133d
00000280: afd3 59bd f302 853d 71db adbd ced3 e0bd
00000290: fa80 41bd 8358 8dbd 09c7 88bd 9741 f4bd
000002a0: 0225 1bbd 4abc b8bd 597d 7f3c b4cd ca3c
000002b0: 95fc 553d fa0f a0bd 759a fd3d 530a f1bd
000002c0: 4b6a dcbd 3ef1 4c3c 310c ce3d 440c b3bc
000002d0: 68c9 283d 8070 e1bd 2e98 8a3d 839c 043e
000002e0: 52c7 c93b 5d24 d33d 7b45 b9bd 2685 003e
000002f0: 2cae fe3d db07 35bd b764 043e 58f9 d83d
00000300: 7bbe 61bd 2e91 a73d 5499 cb3c 4fb0 593d
00000310: 45ff 8e3a 20da 0b3c 444b 2ebd 11dd 02be
00000320: 84af 8cbd b150 f6bd 06ec d43d 2b67 b83d
00000330: 96d6 b33d 60d1 8e3d e030 00be bf85 4ebc
00000340: 0c4f 5b3d 42b4 e73d 80f7 f5bd 7816 07bd
00000350: 8389 e6bc 1fc5 c83d 5ce8 84bd b05b 4238
00000360: bb3a ba3d 3d82 80bd 401d 9d3d 06e1 c6bd
00000370: 498f a6bd eb03 72bd 69e6 b93c 23f3 a23d
00000380: 5b61 713d c76d 1cbe 939d fd3d 782c b13d
00000390: 4cc7 3dbd c5a9 8d3c 0941 05be 1580 cfbd
000003a0: abd8 3b3d 718d fcbd d44f 643d 08bd 113d
000003b0: 2529 4f3d a491 07bd bf28 c2bd 5aab bfbd
000003c0: 3ca1 d4bd c890 c33d e539 efbd cdab b23d
000003d0: 1202 cc3d e2b5 f4bc f1b9 ed3c 5a45 6e3d
000003e0: 465b 6abd ccba fe3d 735c b63b 1cf1 e5bd
000003f0: 5e02 bfbc 895b f73d f72b fe3c 4981 633c
-0.09700567 0.06864948 -0.08710979 -0.041939605 -0.00543401 0.024727486 0.0065862983 0.011617833
-0.005841856 -0.114547595 0.008394748 -0.011890303 -0.0654 0.10406083 0.07468707 0.110942684
-0.034094457 -0.0007918606 0.069181114 0.05348061 -0.13143909 0.013522204 0.022348417 0.0063417144
0.08805843 -0.039551727 0.05241555 -0.10427589 0.024727454 0.12605396 -0.07685412 0.064244404
0.05147214 0.13047208 -0.09027749 -0.06802737 -0.07874772 -0.079581775 0.10304427 0.01832317
0.052112922 -0.09376494 0.02828704 -0.05501495 -0.054383025 0.0031686754 0.07728 0.00014003116
0.11505975 -0.02934631 0.065409735 -0.09789453 0.049546774 0.003048695 -0.019119168 -0.0023920962
0.07532917 0.13447718 -0.12150808 -0.078677505 -0.12372171 -0.018838229 -0.020148199 0.13492678
0.012011776 -0.034981087 -0.10605246 0.10855669 -0.062145118 0.034820113 0.09812174 0.10147027
-0.08166691 -0.112863354 0.07632495 0.0168629 0.09176394 0.023642829 -0.036736082 -0.06191066
-0.12592 -0.12889078 -0.02478227 -0.065996595 -0.007778007 -0.11034968 -0.08306243 0.06381326
0.030656133 -0.129359 -0.11245423 -0.02488937 0.057976466 0.051988203 0.057835024 0.027375588
-0.04009928 -0.008060016 0.11590503 -0.09968899 0.07042694 -0.028390944 0.044250738 -0.13129565
0.03907317 -0.03744271 -0.05428438 0.06206318 0.073830195 -0.07045849 0.05802557 0.034518372
0.0691889 0.12771177 -0.07656729 0.06968874 -0.10589034 0.10694718 0.05106639 -0.08227627
-0.049429376 -0.086549975 0.052884627 -0.03626512 0.12838918 0.078322604 0.04793101 -0.094794236
0.021604562 0.042432334 0.05801035 -0.09198826 -0.02985477 -0.13732383 -0.096044265 0.042411283
0.047324035 -0.11807865 0.0023128944 -0.00982961 -0.122940995 -0.05212198 -0.08276946 -0.10398018
0.0658302 -0.055754334 0.11366248 0.029756855 -0.0021724391 0.1187199 -0.05226035 0.059383977
0.07128169 -0.02951611 -0.007208265 0.045050543 0.14810899 0.06230782 0.0031848017 0.03595545
-0.053180393 0.06494703 -0.08489121 -0.109778985 -0.047242142 -0.06901648 -0.06678588 -0.11926573
-0.03787709 -0.09020288 0.01559385 0.02475629 0.052242834 -0.07815547 0.12382976 -0.11769547
-0.10762461 0.0125086885 0.10060919 -0.021856435 0.0412077 -0.11007786 0.06767307 0.1295033
0.006157794 0.1030967 -0.090464555 0.12550792 0.124355644 -0.044196945 0.12929045 0.105944335
-0.055113297 0.08181988 0.024853386 0.053146657 0.0010909816 0.008535892 -0.042552248 -0.12779643
-0.068694144 -0.120271094 0.103965804 0.09004053 0.087811634 0.06973529 -0.12518644 -0.01260513
0.05354218 0.11313678 -0.120100975 -0.032980412 -0.028141743 0.09803223 -0.064896315 4.6338595e-05
0.09093233 -0.06274841 0.076715946 -0.097108886 -0.08132798 -0.059085768 0.022692876 0.07956531
0.058930736 -0.15276252 0.123835705 0.0865106 -0.046332642 0.017292866 -0.1301309 -0.101318516
0.045860928 -0.12331665 0.055740193 0.035580665 0.050576348 -0.033097878 -0.09480428 -0.093588546
-0.103823155 0.09549099 -0.116809644 0.08724175 0.099613324 -0.029871885 0.029019328 0.058171608
-0.05721595 0.124379724 0.00556522 -0.112276286 -0.023316558 0.12078006 0.031026823 0.013885804

mlp.0.bias f4 [256]
00000000: e343 df3c ac9c 803d b09d b03d 9744 323d
00000010: 060a 00be a5a9 bd3d 8352 f0bd 27f9 703d
00000020: ebd9 063d 103c bfbd c2ed c43d 0dfd ea3d
00000030: c9a9 033e 5344 933d 3df4 ddbd 126f f0bd
00000040: b5aa 94bd 3029 f4bd d2cf 743d 0a70 cebd
00000050: c59d 013e 7fbe 0cbe b3a8 3bbd c866 a9bd
00000060: 4d9c 9abd cec5 53bb 2d95 b43d d331 843d
00000070: 9bc2 ff3d c0ec b2bd 4b4c f03d 106b 28b9
00000080: 7396 92bc c8b4 38bd 9084 ad3d b1c5 b33d
00000090: 618f 1f3d 905b cc3d e306 6fbd a882 ed3d
000000a0: 8518 20bd 8f69 b4bd 56b7 10be 763e 9fbd
000000b0: 12f4 293d 0640 893d b4e2 9fbd dfad 913b
000000c0: 068b 743d 0c87 a23d e72d e83d 890e c63c
000000d0: 6342 e6ba 0316 58bd 024c 553d b9bc 68bd
000000e0: 4b53 eabd dde2 dcbd 1398 b3bd 82de 07be
000000f0: 9faa ecbd edd2 04bd 9f93 163b 69bc a23d
00000100: 0c57 5fbd 1829 69bd 1729 7fbd 06ea 9dbd
00000110: 3534 423b 9a3f fe3d 6c83 e03d 92aa 2bbb
00000120: 25ec dbbd 02f4 fb3b 297c f4bd 25fd afbd
00000130: 1c93 1fbd 2074 023d dacf 433d aaf3 fabb
00000140: 1c1f 07be 2543 08be 1efe c5bd 3fe2 f23d
00000150: 979f da3d 2be5 ef3d 98d8 3e3d 4680 66bd
00000160: 2ede 72bd c38e ce3c 5ea2 bbbc d058 76bd
00000170: ba6c c13d b6b6 06be fba3 d2bd 409a 343d
00000180: 0b4a 933d 9bc1 26bd dd41 fdbd a7fa 523d
00000190: ae29 e03d 2ab2 f23d 19c9 57bd e998 0dbe
000001a0: 3988 5bbc c9cb d1bd ae42 7abb d7e2 8e3c
000001b0: ca89 0f3d 3774 6fbd a801 b13d 0fb0 d13c
000001c0: 6e00 aa3d 2585 09be 3f3c 05bd c023 83bd
000001d0: bf42 a23d e043 ccbb 5fc9 13bd fec4 c93d
000001e0: 3867 fdbd 113b 0bbc 9575 983d fb58 cab9
000001f0: 7ebe a8bd 8f13 b2bb 8923 843c 3d64 01be
00000200: af9d a23c 137c 06bd dfb6 7d3d 392d 553b
00000210: c602 8dbd d713 c43d 3bbb 803d 74f4 f23d
00000220: 507a ea3c 66da d73c d5ff 553d aa36 a23c
00000230: 10bd d1bd 818d b33d 2d8a 08bd a940 e8bd
00000240: 61aa ee3d a2bf 02bd d1a0 a1bc ed93 3b3d
00000250: 6306 6d3d 0999 85bd f4e3 bebd 2e73 bebc
00000260: a5a7 2ebd d5aa 05bd 7442 cf3d d8d7 9ebd
00000270: 1776 84bb 922b 8d3c b80b 30bd d1af 6ebd
00000280: 566f 713d 40dc 2d3d b475 f33c 69c7 b13d
00000290: 472e 82bd 92d8 0f3d 0ab6 a4ba 535e 14be
000002a0: 8f7d afbd 497a bbbc 975f 5f3d 34d2 99bc
000002b0: 881b f3bd 42c7 c13d c467 95b9 6c73 a73d
000002c0: 9904 2fbc ace6 2ebc 8ff8 7f3d 4ae4 7a3a
000002d0: 3523 d2bc fe95 c43d 2fd3 86bc 629c a4bd
000002e0: c6c5 c83b c5fb 8dbc 6ce8 a53d 24c4 0cbe
000002f0: 49f7 783d 4395 043e e30e 78bd c0e2 803d
00000300: 6b7b 8fbd bcdb ac3d cc44 7b3d 4100 0e3e
00000310: e3fe b93c a35e 5abd 2022 083e adcf 123e
00000320: b71a e7bd 4620 8f3d 2957 ad3c f620 c4bb
00000330: 5ba0 963d 67f1 dd3c 83e3 94bd cd7c 05be
00000340: 73cf c8bd d7a9 dc3d 34d1 a63d 692c de3d
00000350: fd02 b6bd 259e c13d 2bb7 f33d 38a8 793d
00000360: 7e8b e13d b3c2 d13d 9d44 573d 6640 6e3d
00000370: fd63 b63c 5781 54bd 5da1 133d 53f2 c4bc
00000380: ed00 183d 3dd6 f5bd 0cb8 02be 2cd9 3dbd
00000390: 9945 fb3d 61a0 acbd 2046 d93d c9c9 fd3d
000003a0: f89d 76bc d255 fdbb ec35 fdbc bed1 933d
000003b0: b4cd 23bc 3b3e 06ba f721 7c3d e8fa e6bd
000003c0: 6c59 5fbd 34d8 633c 41b4 17bd 4337 25bd
000003d0: a4b6 03be db86 07be d3cf 99bb 897e c0bd
000003e0: c71f f73c 94a0 c9bd 3e03 553d 71b7 43bd
000003f0: 92df be3d da5a 803d 87e2 c03d f128 eebd
0.02725405 0.06279883 0.086238265 0.043522444 -0.12503824 0.09260873 -0.11734488 0.05883136
0.032922667 -0.09337628 0.09615661 0.11474047 0.12857737 0.07190766 -0.108376004 -0.11739935
-0.07259122 -0.119219184 0.059768505 -0.100799635 0.1265784 -0.13744543 -0.04581518 -0.08271557
-0.07549343 -0.0032313946 0.088175155 0.06454816 0.1248829 -0.08736563 0.11733302 -0.00016061612
-0.017894005 -0.04509428 0.0847255 0.08777941 0.038955096 0.09978402 -0.058356177 0.11597186
-0.039085884 -0.08809196 -0.14132437 -0.07775585 0.04149253 0.067016646 -0.07806912 0.004445776
0.059702896 0.079359144 0.1133688 0.024176853 -0.0017567392 -0.052755367 0.05207444 -0.056820605
-0.11441668 -0.10785458 -0.0876924 -0.13268474 -0.11555981 -0.032427717 0.0022976173 0.07946093
-0.054526374 -0.056923956 -0.062295046 -0.07710652 0.0029633169 0.12414475 0.10962567 -0.0026194197
-0.107384 0.007689 -0.11937744 -0.08593205 -0.038958654 0.031849027 0.047805645 -0.0076584416
-0.13195461 -0.13306864 -0.0966761 0.11859559 0.106749706 0.11713632 0.04659328 -0.056274675
-0.05929392 0.025214558 -0.022904571 -0.060143292 0.09444566 -0.13155636 -0.10285183 0.044092417
0.07191857 -0.04071198 -0.12366078 0.051508572 0.1094545 0.11850388 -0.052682016 -0.13827862
-0.013399177 -0.10243947 -0.0038186717 0.01744215 0.035043515 -0.05846044 0.08642894 0.025596647
0.08300863 -0.13429697 -0.03252816 -0.06403303 0.07922887 -0.0062336773 -0.036080714 0.098520264
-0.12373203 -0.008497969 0.07444302 -0.00038594738 -0.082394585 -0.0054344605 0.016130226 -0.12635894
0.01985058 -0.03283317 0.061941978 0.0032528176 -0.068852946 0.09574097 0.062857114 0.11863032
0.028622776 0.026349258 0.052245934 0.019801456 -0.10241139 0.08767224 -0.0333349 -0.11340458
0.11653591 -0.031921037 -0.019730004 0.04579537 0.05786742 -0.0652333 -0.09320822 -0.023248281
-0.042640347 -0.03263362 0.10120097 -0.07756013 -0.0040423977 0.01723269 -0.042979926 -0.05827314
0.05894407 0.042446375 0.029719211 0.086806126 -0.06356483 0.035118647 -0.0012566459 -0.14489107
-0.0856887 -0.022885459 0.05453452 -0.01877699 -0.118704855 0.094618335 -0.00028496806 0.08176312
-0.0106822485 -0.010675114 0.062492903 0.0009570761 -0.025651554 0.09598921 -0.016458122 -0.0803764
0.006127092 -0.017331967 0.081009716 -0.13746697 0.060782705 0.12947564 -0.060561072 0.06293249
-0.07005962 0.084403485 0.061344907 0.13867284 0.022704547 -0.05331291 0.13294268 0.14337035
-0.11284392 0.069885775 0.021159725 -0.0059853746 0.07354804 0.027092649 -0.07269957 -0.13035889
-0.09805193 0.10774582 0.08145371 0.10848314 -0.08887289 0.09453992 0.11900171 0.06095144
0.11012934 0.10242214 0.05255567 0.058166884 0.022264475 -0.05188116 0.03604256 -0.02404133
0.037110258 -0.12003753 -0.12765521 -0.04634969 0.12269134 -0.08429027 0.106090784 0.12392003
-0.015052311 -0.007731178 -0.030909501 0.072177395 -0.009997774 -0.00051209674 0.06155583 -0.11278325
-0.05452864 0.013906527 -0.037037138 -0.040335905 -0.1286264 -0.13235037 -0.004693964 -0.09399135
0.03016652 -0.09845081 0.052005045 -0.047782365 0.093199864 0.062673286 0.09418207 -0.11628903

mlp.2.weight f4 [128, 256]
00000000: 4e7c 673d eaf6 1b3d 4389 053d 68f7 86bd
00000010: 14f3 31bd 0e6c 6d3d 2c14 2f3d bc83 f13c
00000020: 0fef 56bc 6d2e 3dbd d2ca f43c 90f3 ad3c
00000030: a85d 1a3c d38d f03c 2c0c f5bc 0027 393b
00000040: 7d14 37bd 96eb 063d 66f8 0ebd 2b17 24bd
00000050: fccf 4d3d 2b96 5dbc 0086 b03c 8b62 983c
00000060: 3430 61bd 8a17 3abd 0ba5 823d 2db8 f7bc
00000070: 71fb 463d dc0a 0e3c cdc3 81bc 1189 4b3d
00000080: 19da 093d 41a1 403c 75d7 e4bc 7f27 ba3b
00000090: 59cc b23c 6b6c c9bc 989f ecba 2cf6 8a3d
000000a0: 409b 8ebc d9f7 fd3a 99d8 9dbc 8a81 79bc
000000b0: 58fe 40bd c5ee ae3c 024e 5a3d a5cf 8cbb
000000c0: 90df 003d c5e9 343d f0da 0a3b 5baa e43b
000000d0: f80f 0c3d 4553 833d 75ce d43c 2376 3abd
000000e0: 904c 383d 39d2 6f3d 1000 953c 99db 02bd
000000f0: 2c30 a0bc 6828 023c e8c2 b9bc 614b 9fbc
00000100: bca4 80ba ef98 383d 1817 e9bc 84b8 29bd
00000110: 6ea2 5f3d 7ebf 3d3c 65bb c7bc e4af 12bd
00000120: 9180 003d 0516 4bbc 3e2c 15bd 22f9 3abd
00000130: eddc f7bc 49e1 1d3d 9a5f 11bc a072 b2bc
00000140: 4ae7 be3b 1d96 323d 32c2 bfbc e361 7c3d
00000150: ef4c 0b3d 9ca9 90bd 0a6a 22bc 6d39 bc3d
00000160: d52a 28bd 684b ed3c ec8d cbbc f7f3 1ebd
00000170: 5a42 cf3c 06ca f13c e8c6 78bd 4c15 42bd
00000180: c0c6 9abc c00b e3bb 405a e8bb 7d8e 373c
00000190: 9faa c4bb a396 a43c 6ac7 6c3d 6965 a2bb
000001a0: 8e07 0dbd d5a7 893d 6c3b 733d cfa8 32bc
000001b0: 2cb6 6c3d f876 2f3d 68a3 2f3c b896 753d
000001c0: ee30 823d 7864 023d 16d0 33bd bee1 c33c
000001d0: a588 7e3d 6590 a4bd 9cc9 2dbd 4205 5dbb
000001e0: 005a f73a 06ff 9cbb a322 c9bc 28b0 f03c
000001f0: 0490 5b3d 7042 7ebc aaff c23c 96c8 5ebd
00000200: 39b8 26bc 60a1 4b3c 143f 173d 68f3 193d
00000210: d956 90bc 4af3 0fbd e4e4 273d 521d 603d
00000220: 88c6 193c 78e8 553b 836e a5bc 5e0e 743d
00000230: 3e3f 77bd 9765 153c 07c6 a3bc a839 193c
00000240: 3cb1 1abd 54fc 8a3c 7003 5a3d 61c7 223d
00000250: 94f7 34bd 47cd 96bb 969c 1bbd cc15 b8bc
00000260: f06d 22bd a3e1 65bd e9c3 663d 7174 2a3d
00000270: 5a6a fc39 f06c 823c e568 bdbc 2ced 133d
00000280: 28c2 333d 009a 54ba aa2f 6c3d a3c9 923c
00000290: 5396 dabc 5e43 563d 2d92 7d3c 7cbc 053d
000002a0: c218 67bd 34de 9d3c cb17 9aba 80c2 62bd
000002b0: d014 613d ab4e 1b3d 2817 01bb dd61 de3c
000002c0: e19b 403d 90bf 8ebc e480 df38 5c09 18bd
000002d0: 4f91 813d 88e8 5c3d 3cce 05bd 6d61 173d
000002e0: 8a79 4abd a287 dd3c 5cec 7e3d 4007 61bd
000002f0: f4a6 bcbc 764a 2abd 7151 343d afd6 913a
00000300: 70e6 ad3c 9f2c 493d caa2 9cbc 37e8 fd3c
00000310: f34f 603d 5854 ba3b a8ef 40bd 09b7 333c
00000320: 4483 323d ffaf 083d 0e83 513d 08ae c7bc
00000330: 2723 353d ed64 fe3c 9248 88bd 35f6 15bd
00000340: 1beb 2b3d d833 6d3c 7fa7 473d 2ca8 883c
00000350: 4a6a 663c df3c 82bd 0a72 573c 35dd 8fbb
00000360: 257c 0f3d 5859 023d b054 90bb ebe0 0abd
00000370: bf53 85bc fe7a 83bc e954 ac3b 34ee 7a3d
00000380: 47e3 bebc f1ff 803c 5ad5 66bd 7000 223d
00000390: 7c3e 133d 1935 933d 543f 8bbc da23 a2ba
000003a0: f41a dc3c 1497 043d 7639 22bd acd6 c43c
000003b0: 7a60 a1bc 63ed 053d 7068 1fbc c23b 66bd
000003c0: 442b 41bd 6873 4fbc 80df 52ba 683e fabc
000003d0: 68c6 22bd c1d7 4abc 6bbb 9f3c e264 d8bc
000003e0: 06ff df3c 46c6 9cbb 5b5a 6cbd dc0b c8ba
000003f0: 2790 30bd 906f 0ebd c813 083d 0051 553b
0.05651503 0.038077272 0.032601606 -0.06590158 -0.043444708 0.057964377 0.042743847 0.029481761
-0.013118519 -0.046186853 0.029881869 0.021234304 0.009421743 0.029364502 -0.02991303 0.0028252006
-0.044697274 0.032939516 -0.03490486 -0.040061157 0.050247177 -0.013524572 0.021548271 0.018601676
-0.05497761 -0.045432605 0.06379136 -0.030239189 0.048579637 0.008669581 -0.015840435 0.049691264
0.03365526 0.011757196 -0.02793477 0.005680978 0.021825956 -0.02458783 -0.0018052934 0.06785235
-0.017408013 0.0019376233 -0.01926832 -0.015228638 -0.04711756 0.021354089 0.05329705 -0.004297214
0.031463206 0.044168252 0.0021187626 0.0069783158 0.034194916 0.06412367 0.025977353 -0.04552282
0.04499489 0.058550093 0.018188506 -0.031947706 -0.01955422 0.007944204 -0.022675946 -0.019445123
-0.000981472 0.045067724 -0.028453395 -0.041435733 0.054598264 0.0115813 -0.024381349 -0.035812274
0.03137261 -0.012395387 -0.036419146 -0.045647748 -0.030256713 0.038544927 -0.008872891 -0.021783173
0.0058259116 0.04360019 -0.02340803 0.06161679 0.034008916 -0.070636004 -0.009912977 0.091906406
-0.041056473 0.02896662 -0.024847947 -0.03880688 0.025300194 0.029515278 -0.060736567 -0.04738359
-0.0188936 -0.006928891 -0.0070908368 0.011203405 -0.006001785 0.02009136 0.057807364 -0.0049559367
-0.034431033 0.067214645 0.05938284 -0.010904505 0.05779092 0.042838067 0.010720111 0.05995819
0.06356989 0.031834096 -0.043899618 0.023911353 0.062142033 -0.080353536 -0.042428598 -0.0033725058
0.0018871427 -0.0047911434 -0.024552649 0.029380873 0.05360414 -0.01551877 0.02380355 -0.054390512
-0.010175758 0.0124286115 0.03692539 0.037585646 -0.017619537 -0.035144128 0.04098977 0.054715462
0.009385712 0.0032639783 -0.020194298 0.059584014 -0.060363047 0.009118459 -0.019991888 0.009352125
-0.03776668 0.016966023 0.053225935 0.039740924 -0.04418142 -0.0046021077 -0.03799113 -0.022471331
-0.039655626 -0.056123387 0.05633918 0.041614953 0.00048144424 0.015921086 -0.023121307 0.036114857
0.043886334 -0.0008110106 0.057662643 0.017918414 -0.026683008 0.05231034 0.015476746 0.032650456
-0.056420095 0.019270994 -0.0011756358 -0.05536127 0.05495149 0.03791682 -0.001969764 0.027146274
0.047023658 -0.017425328 0.000106574764 -0.0371183 0.063265435 0.053932697 -0.032667384 0.036958147
-0.049432315 0.027042214 0.06223713 -0.054938555 -0.023028828 -0.041574918 0.04402298 0.0011126603
0.021228045 0.04911482 -0.019120593 0.030994518 0.054763746 0.005686324 -0.047103554 0.010968932
0.043582216 0.033370968 0.051150374 -0.024374977 0.044222977 0.031053985 -0.06654467 -0.036611754
0.04197226 0.014477693 0.04874372 0.016681753 0.014063427 -0.063592665 0.013149748 -0.0043903836
0.035030503 0.031823486 -0.004404627 -0.033905905 -0.016275285 -0.016049858 0.0052591455 0.061262324
-0.023301734 0.015747042 -0.05635581 0.0395512 0.03594826 0.07187862 -0.01699797 -0.0012370304
0.026868321 0.03237064 -0.03960558 0.024028145 -0.019699324 0.032697093 -0.00972949 -0.056209333
-0.047160402 -0.012661792 -0.00080441684 -0.030547336 -0.039739996 -0.012380541 0.019498548 -0.026415292
0.027343284 -0.004784378 -0.057703357 -0.0015262323 -0.043106224 -0.034774363 0.03322199 0.00325495

mlp.2.bias f4 [128]
00000000: ce69 51bd e2f6 473d 5088 d6bb 3ce2 8abc
00000010: e28b ca3b 6624 9e3c 5838 26bd d457 d9bc
00000020: a0d4 15ba d9b7 a0bc 2fef 373d df05 e1bc
00000030: 4c6f c9bc 4efb 3cbc b606 993c e4eb 903c
00000040: 4d56 9b3c 412e 53bd 402b a93b 6fbb fa3c
00000050: 18b8 2d3c 02ef 3b3d 5b5d 063d 387a e9bc
00000060: 41e2 0e3b 6dd2 86bc 1ed8 593c 4aeb 04bb
00000070: 5809 1bbd 2e5b 6b3d 9cb1 673d 946c 063d
00000080: 1b2b 83bd 6c3a 023d 8aef 52bd cc26 14bd
00000090: 77d1 713c 16e5 7b3c 5f4b 64bd c71a 83bd
000000a0: a86a c43c a233 0abd 1250 1cbd 1c2d 5bbd
000000b0: fa23 81bc a854 683b dc48 1d3d bc3b 4e3c
000000c0: de59 303d e098 acbb efb3 eabc 7c2f 28bb
000000d0: 3e04 c53b 4d9b 8a3c daf9 70bc da77 9b3c
000000e0: a0d6 153d beb1 713d 5c60 573d 64ec 363d
000000f0: 0385 2e3c 9e74 563d 3650 4d3d f45c 8e3c
00000100: 0b58 afbc 6015 4e3d 5026 f13b 7840 36bc
00000110: 868c e63b 4eb2 febb c89e 0e3d d33c 213c
00000120: 182e 7bbd b4e0 febc 68c3 79bc 9443 21bd
00000130: eead 4dbd e8df f4bc 4c85 07bd 7262 18bd
00000140: 7c7c c0ba 5e38 b93c 5274 9ebc 1dd4 b03c
00000150: 16b5 3c3d 168b 8f3b 6ede 1b3c b362 173d
00000160: a0ed a43c b044 48bd 2dd2 0a3d 8c5d 51bd
00000170: 40ce 54bd 1916 523d 5232 62bd d549 283d
00000180: 0021 9d3c e839 dd3c 163f ea3c cad0 303d
00000190: 48cc 173d 726b 1d3c c27b 303c ac47 163d
000001a0: 54e6 a23c 9aca 473d e0ab a53b f63d f4bc
000001b0: 098a 36bd c5ea 8cbd cd86 56bb a2e8 f23b
000001c0: a584 0fbc b349 d1bc ed2e c93c ec2c 69bd
000001d0: 80b0 40ba da00 b83c 8495 c8bc 4a07 353d
000001e0: 6c8d dabc 7d7c fa3b 77af 63bd b5ac 2fbd
000001f0: 3b59 0ebb e339 2e3d a5e9 7d3c 66ff 09bd
-0.051126294 0.04881943 -0.0065470114 -0.01695358 0.006181226 0.019304466 -0.040581077 -0.026531138
-0.00057155825 -0.019618915 0.044905838 -0.02746862 -0.024589203 -0.011534525 0.018679958 0.017690606
0.01896205 -0.051557783 0.0051626265 0.030606953 0.010602973 0.045882232 0.032803874 -0.028500661
0.0021802338 -0.01645776 0.013296155 -0.0020281845 -0.037850708 0.057460003 0.056565866 0.032818392
-0.06404706 0.031793997 -0.051497974 -0.036169812 0.014759413 0.015374443 -0.055735942 -0.06401592
0.023976639 -0.033740647 -0.0381623 -0.053509817 -0.015764225 0.003545085 0.038399562 0.012587484
0.043054454 -0.0052672476 -0.028650252 -0.0025663069 0.0060124686 0.016919756 -0.014708007 0.018978048
0.036581635 0.0590074 0.05258213 0.044659033 0.01065183 0.05235731 0.050125323 0.017378308
-0.021404287 0.050313354 0.0073593035 -0.011123769 0.0070357947 -0.0077727204 0.034819394 0.009841162
-0.061323255 -0.031113006 -0.015244342 -0.03937109 -0.0502147 -0.029891923 -0.033086106 -0.03720326
-0.0014685537 0.022609886 -0.019342575 0.021585518 0.046071135 0.004380594 0.009513481 0.03695936
0.02013284 -0.04889363 0.033891845 -0.051114604 -0.051954508 0.051290605 -0.05522377 0.041086037
0.019180775 0.02700515 0.028594535 0.043167867 0.037060052 0.0096081365 0.010771694 0.036689445
0.01988522 0.0487772 0.0050558895 -0.029814702 -0.044565234 -0.06880716 -0.0032734156 0.007412986
-0.008759652 -0.025547838 0.024558509 -0.056927606 -0.00073505193 0.022461344 -0.024485357 0.044196405
-0.026678763 0.0076442347 -0.05558726 -0.042889316 -0.0021720666 0.042535674 0.0154976 -0.033690833
