weights2/ep_1393.pth (torch, 275655 bytes, 10 tensors)

lstm.weight_ih_l0 f4 [192, 7]
0	0x3e0f6a87	0.1400548
1	0xbe49ebf4	-0.19718915
2	0xbe800047	-0.25000212
3	0xbcf74d26	-0.030188154
4	0x3de55a3e	0.11198853
5	0xbc22e05b	-0.009941186
6	0x3cb989bf	0.02264869
7	0x3dceddcd	0.10100899
8	0xbdaf57ea	-0.0856169
9	0xbc9d57cc	-0.019206904
10	0x3cc4c51a	0.024019767
11	0x3de5c43c	0.11219069
12	0x3cf8da14	0.030377425
13	0x3dffd685	0.12492088
14	0xbc8e0e03	-0.017340666
15	0x3d4aa025	0.049469132
16	0xbe095f46	-0.1341525
17	0xbe81ea9e	-0.2537431
18	0x3e636381	0.22205926
19	0x3da22342	0.07916881
20	0x3c112c0f	0.008860602
21	0x3db5bdc8	0.088740885
22	0x3e348eee	0.17632648
23	0xbe102d20	-0.14079714
24	0xbe00c72d	-0.1257598
25	0x3e927f81	0.28612903
26	0x3d95a7c0	0.073073864
27	0x3eb373de	0.35049337
28	0xbd76da99	-0.060267065
29	0x3cd7f097	0.02635984
30	0xbd18b2d4	-0.03727992
31	0xbdae387d	-0.08506868
32	0x3e3203bc	0.17384237
33	0x3e82d8f1	0.25556138
34	0x3dee7466	0.11643295
35	0xbe185d0c	-0.14879245
36	0x3e587a66	0.21140441
37	0xbc1d55de	-0.009602992
38	0x3d1c5e75	0.03817602
39	0x3d8d23de	0.06891607
40	0xbe07b1f0	-0.13251472
41	0x3df025b6	0.11725943
42	0x3c4a3cf5	0.012343635
43	0x3e2ed109	0.17071928
44	0xbe3ab726	-0.18233928
45	0x3bb43abb	0.0055001653
46	0x3dbf1514	0.09330192
47	0x3d864abe	0.06557225
48	0x3c0a16ef	0.008428319
49	0x3d08cc33	0.033397865
50	0x3d3e18c4	0.046410337
51	0xbe1d9f85	-0.15392883
52	0xbcfa24a2	-0.030535046
53	0x3e145d25	0.14488657
54	0xbd7548e3	-0.059883963
55	0x3e197ea5	0.14989717
56	0x3cf2f69f	0.029658614
57	0x3e31eef9	0.17376317
58	0xbd95cd8c	-0.073145956
59	0xbe2d55e3	-0.16927294
60	0xbd6bb9d9	-0.057550285
61	0x3e0ee222	0.1395345
62	0xbd369467	-0.04457512
63	0xbddeab05	-0.10872463
64	0xbb9be472	-0.0047574574
65	0xbde7b790	-0.11314309
66	0xbe52b1bf	-0.20575617
67	0x3ddca41e	0.1077349
68	0x3e2b73aa	0.16743341
69	0x3e1cc0d1	0.15307929
70	0xbe3499e2	-0.17636827
71	0xbd6eb11d	-0.058274377
72	0xbe6ade82	-0.22936442
73	0xbc0a32f4	-0.008435
74	0x3d1ece8a	0.03877119
75	0xbe4ff74c	-0.2030918
76	0x3dbd4b9c	0.09242937
77	0xbe305ff0	-0.17224097
78	0xbe1c63ca	-0.15272442
79	0x3cff7eca	0.031188387
80	0x3cd41e56	0.025893372
81	0xbd402b3a	-0.046916224
82	0xbdd521c0	-0.10406828
83	0x3db08176	0.08618443
84	0xbd4a2cb4	-0.04935904
85	0x3e0f78d1	0.14010932
86	0x3e5f7041	0.21820165
87	0xbd6a5819	-0.057212923
88	0x3e37b62b	0.17940585
89	0x3e4e56f3	0.20150356
90	0xbd2f3de4	-0.042783633
91	0xbd81edab	-0.0634416
92	0x3e1df340	0.15424824
93	0xbe1d84ca	-0.15382686
94	0xbdf3fec4	-0.11913827
95	0xbadb47c5	-0.0016729763
96	0x3dd6523b	0.10464903
97	0x3db63086	0.08895974
98	0xbe265c00	-0.16246033
99	0xbc704e3a	-0.014667088
100	0x3b700bd3	0.0036628142
101	0x3bc00a64	0.0058606137
102	0x3df42bab	0.119223915
103	0x3c1cc763	0.009569022
104	0x3e13631a	0.14393273
105	0x3bc59581	0.006029785
106	0xbcb58a44	-0.022160657
107	0x39e0fa73	0.0004291121
108	0x3e2a060f	0.16603874
109	0x3dcbaf89	0.0994559
110	0x3ddb55bc	0.10709712
111	0x3c971833	0.018444156
112	0xbe0168a0	-0.12637568
113	0x3e1187c6	0.1421195
114	0xbd99e039	-0.0751347
115	0xbde1fd76	-0.11034672
116	0x3dfef5c0	0.12449217
117	0x3d7e4f2c	0.062087223
118	0x3e5ae909	0.21377958
119	0x3df5df42	0.12005474
120	0xbc0c0595	-0.008546253
121	0xbe58a763	-0.21157603
122	0xbe3e5195	-0.18585809
123	0x3e725d93	0.23668508
124	0xbaae57a2	-0.0013301263
125	0x3e55c74f	0.20876811
126	0x3db9c332	0.09070434
127	0x3d049278	0.032366246
128	0xbdccff42	-0.10009624
129	0x3c0090a3	0.007846984
130	0xbceb608e	-0.028732564
131	0x3dd81bcd	0.105521776
132	0xbc7751a5	-0.015095149
133	0xbe037549	-0.1283771
134	0x3b1fd881	0.002439052
135	0x3e9563e5	0.29177776
136	0x3e1d5964	0.15366131
137	0x3d8dbbab	0.069205604
138	0x3e0d3f75	0.13793738
139	0x3e235b64	0.15952832
140	0x3c2760c0	0.010215938
141	0xbc26ff77	-0.0101927435
142	0x3dd368eb	0.10322746
143	0x3da369c2	0.07979156
144	0x3e6aa232	0.22913435
145	0x3daeba3f	0.085316174
146	0x3cf8b627	0.030360295
147	0x3d167723	0.03673471
148	0x3e5a3751	0.21310164
149	0x3cbe31f4	0.023217179
150	0x3d94cf7d	0.07266138
151	0x3dc0ce6f	0.09414374
152	0x3e6cf210	0.23139215
153	0x3e27b537	0.16377722
154	0x3dec688d	0.11543379
155	0x3d379e86	0.044828914
156	0xbcd3ca78	-0.02585338
157	0xbb054fe0	-0.0020341799
158	0x3d8ffd5d	0.07030747
159	0x3ea6da71	0.32588533
160	0x3e198b93	0.1499465
161	0xbe3b65e2	-0.18300584
162	0x3c521f39	0.012824827
163	0xbe5a58ac	-0.21322888
164	0xbe40833d	-0.18800063
165	0x3e61d1c6	0.22052678
166	0x3e5cf87a	0.21579161
167	0x3e78fc3c	0.2431497
168	0x3d8a2eb6	0.06747191
169	0xbdf20555	-0.11817423
170	0xbe66f1bc	-0.22553152
171	0xbd9f786a	-0.07786639
172	0x3ccba3aa	0.024858315
173	0xba6cc8c5	-0.00090326025
174	0xbd71e1c3	-0.059053194
175	0xbd75f18b	-0.060044806
176	0x3d23a6c0	0.039953947
177	0x3e29780d	0.16549702
178	0x3c28df90	0.010307208
179	0x3e01a8a0	0.12661982
180	0x3da01bea	0.07817824
181	0xbd44c5dc	-0.048040256
182	0x3c87ed0c	0.016592525
183	0xbdd9da60	-0.10637355
184	0xbe41832b	-0.18897693
185	0xbdb25aae	-0.08708702
186	0x3dbfabc8	0.093589365
187	0xbe2e0466	-0.16993865
188	0x3dd835c0	0.10557127
189	0x3d9beefa	0.076139405
190	0x3e1aeab5	0.15128596
191	0xbde54ca7	-0.11196261
192	0xbd53d1d7	-0.05171379
193	0x3e0d9286	0.13825426
194	0x3e4d3f98	0.2004379
195	0xbd023e5b	-0.031797748
196	0x3e066ced	0.1312749
197	0xbd8d1742	-0.06889202
198	0x3d8a30f6	0.0674762
199	0x3e198073	0.14990406
200	0xbd928ad0	-0.07155383
201	0xbd9087aa	-0.07057126
202	0x3dd25c18	0.10271472
203	0xbe01f1c7	-0.12689887
204	0x3d7386be	0.059454672
205	0x3d644527	0.05573001
206	0x3df797c4	0.12089494
207	0x3e66f242	0.22553352
208	0x3e0d022f	0.13770364
209	0x3e91c5db	0.28471264
210	0x3e200c0c	0.15629596
211	0xbd557784	-0.052115932
212	0x3da6e3ae	0.08148895
213	0x3e188afa	0.14896765
214	0x3d1d1ab0	0.03835553
215	0x3d9b6d8e	0.07589255
216	0xbd14b16b	-0.03630201
217	0x3e538ac2	0.206584
218	0x3d9e50b7	0.07730239
219	0x3b9bc387	0.0047535333
220	0xbc4a53ea	-0.012349108
221	0x3cd0e8cf	0.025501637
222	0x3e29858e	0.16554853
223	0x3d4984ba	0.049198844
224	0x3e30c2b6	0.17261776
225	0xbd93fd84	-0.07226089
226	0x3e33f0ab	0.17572276
227	0x3de7f137	0.11325305
228	0x3e2ae117	0.16687427
229	0x3e4059b1	0.18784215
230	0x3d987544	0.07444242
231	0x3e456f54	0.1928075
232	0xbe068efc	-0.13140482
233	0x3c8919ec	0.016735993
234	0x3c1f1cc4	0.009711448
235	0x3dc72af4	0.097249895
236	0xbdf83cb1	-0.12120951
237	0xbd9c2274	-0.07623759
238	0xbc82c666	-0.015963744
239	0x3e5b5413	0.2141879
240	0xbd336171	-0.0437941
241	0xbccf4450	-0.025301129
242	0xbcc6cb70	-0.024266928
243	0xbceade76	-0.02867053
244	0x3d998e59	0.07497854
245	0xbdec0028	-0.11523467
246	0xbdf3d085	-0.11905006
247	0xbe7c97b3	-0.24667244
248	0xbd8a0a07	-0.06740194
249	0x3db25619	0.08707828
250	0xbd46dc84	-0.048550144
251	0x3ccc21c2	0.02491844
252	0x3e3a355b	0.18184416
253	0x3e5eb1d9	0.21747531
254	0x3d7ad939	0.061242316
255	0x3d063ce9	0.032772932

lstm.weight_hh_l0 f4 [192, 48]
0	0xbe65b48d	-0.22432156
1	0xbe6e0a7d	-0.23246188
2	0xbc9ad4d3	-0.01890031
3	0xbe607ea1	-0.21923305
4	0x3e74bc2c	0.23899907
5	0xbd2c2e12	-0.042036124
6	0xbe335607	-0.17513286
7	0xbd2c92f2	-0.042132325
8	0x3e2609fe	0.16214749
9	0x3d8bd606	0.06827931
10	0xbe2f8e66	-0.17144164
11	0x3e94f785	0.29095092
12	0x3cc08e9a	0.023505498
13	0x3e1fec4b	0.15617482
14	0xbe0f5180	-0.13995934
15	0xbc03db52	-0.0080478955
16	0x3db1af55	0.0867602
17	0xbb5907c2	-0.0033116196
18	0x3c7ff7bd	0.01562303
19	0x3d8de3b5	0.06928197
20	0xbc6f39c5	-0.014601176
21	0xbc7a9df1	-0.015296445
22	0x3d9ac43b	0.07556959
23	0xbd45b549	-0.04826859
24	0xbdbb8cf3	-0.09157743
25	0x3dccda34	0.100025564
26	0x3db64448	0.08899742
27	0x3c45851c	0.0120556615
28	0xbdfeb66c	-0.12437138
29	0x3de64935	0.11244432
30	0x3e2ebec2	0.17064956
31	0xbcda5316	-0.026650947
32	0x3e0f324e	0.13984033
33	0x3d26c6b8	0.040716857
34	0xbe78b73f	-0.24288653
35	0xbe22e1d1	-0.15906455
36	0x3d3d38cd	0.046196748
37	0xbd082cc6	-0.033245824
38	0x3e592db9	0.21208848
39	0x3d6da2ea	0.058016695
40	0xbd981596	-0.07425992
41	0xbd4f315d	-0.050584186
42	0x3e94c39b	0.29055485
43	0xbdc7cf00	-0.09756279
44	0xbe6208c6	-0.2207366
45	0x3e19f939	0.15036477
46	0xbd4c58e7	-0.04988947
47	0xbe1d0657	-0.1533445
48	0xbdaff1d4	-0.08591047
49	0xbd5b36b7	-0.053518977
50	0x3cc62c46	0.024191033
51	0xbe4358c5	-0.19076832
52	0x3e0b8b8c	0.13627452
53	0x3d646184	0.05575706
54	0xbbc8de4e	-0.0061300164
55	0xbdbb6400	-0.09149933
56	0x3e7c3c01	0.24632265
57	0x3d62630b	0.055270236
58	0xbe4c00dc	-0.19922203
59	0x3e2b458a	0.16725746
60	0xbd9fd207	-0.078037314
61	0x3d8a7cdf	0.067620985
62	0xbdee390c	-0.116319746
63	0x3e24cdd5	0.16094144
64	0x3ce4bf13	0.027923143
65	0xbdc3555a	-0.09537764
66	0xbdd520c6	-0.10406642
67	0xbdb77641	-0.08958102
68	0xbe0e9894	-0.13925391
69	0x3df0fbb4	0.117667586
70	0x3b6c60e1	0.0036068487
71	0x3d1a52c7	0.0376766
72	0xbd31f5ed	-0.043447424
73	0xbd7e167a	-0.062033154
74	0x3df17c06	0.11791234
75	0x3d681f93	0.056670737
76	0xbd59cc6a	-0.05317346
77	0xbe656cbb	-0.22404759
78	0xbd62d0df	-0.055374976
79	0xbd6c19e4	-0.05764188
80	0x3e24fb7a	0.16111556
81	0xbe10738a	-0.14106575
82	0xbdeb449b	-0.11487695
83	0xbe55dab5	-0.20884211
84	0xbe70785b	-0.23483412
85	0xbddcf916	-0.10789697
86	0x3e642748	0.2228061
87	0xbd169a7b	-0.036768418
88	0xbe3ffcec	-0.18748826
89	0xbd22c5ff	-0.039739605
90	0x3d910572	0.07081117
91	0xbeafb706	-0.34319323
92	0xbe3b0acd	-0.18265839
93	0x3e42e6d9	0.19033374
94	0xbd9b655d	-0.07587693
95	0xbce08d54	-0.02741114
96	0xbdb3e958	-0.08784741
97	0xbe6790a6	-0.22613773
98	0x3ea31c0e	0.31857342
99	0xbdfff90e	-0.12498675
100	0x3e225733	0.15853576
101	0x3dddac27	0.10823851
102	0xbd9ecaf2	-0.077535525
103	0xbd7b6588	-0.061376125
104	0x3db824cc	0.089913934
105	0xbe1dd3ad	-0.15412779
106	0xbe7c11a4	-0.24616104
107	0x3e232888	0.1593343
108	0xbd1a549b	-0.037678342
109	0x3dc5d8a7	0.09660464
110	0xbe40bb54	-0.1882146
111	0x3dac8154	0.08423105
112	0x3e0d52c1	0.138011
113	0x3c8a9d6c	0.016920768
114	0x3bb8ef20	0.0056437403
115	0xbc2cc271	-0.010544405
116	0xbd1977ef	-0.037467893
117	0x3e08e199	0.13367309
118	0x3e325782	0.17416194
119	0x3e136ffe	0.1439819
120	0xbd8fac89	-0.0701533
121	0x3d5cf755	0.05394681
122	0xbdd88d47	-0.105738215
123	0x3d6f70fe	0.058457367
124	0x3c8fb33f	0.017541526
125	0x3d9b7773	0.075911425
126	0xbe009ebd	-0.12560554
127	0x3d142f59	0.036177967
128	0x3dd3df59	0.103453346
129	0x3e1b560a	0.1516954
130	0xbbfad673	-0.007654959
131	0xbdc20532	-0.09473647
132	0x3b3cd250	0.002881188
133	0xbe9ca767	-0.30596468
134	0x3e652056	0.22375616
135	0x3e379e7a	0.17931548
136	0xbe141715	-0.1446193
137	0x3dc76ba8	0.09737331
138	0x3d354b17	0.044261064
139	0xbe9cb3da	-0.30605966
140	0xbdb7427b	-0.08948227
141	0x3e3946c9	0.18093409
142	0xbdb34b32	-0.08754577
143	0x3be4ce9e	0.0069826385
144	0xbe79945e	-0.24373004
145	0x3cf9df50	0.030501992
146	0x3e23c289	0.15992178
147	0xbe5f8718	-0.21828878
148	0x3e5a9dbe	0.21349236
149	0x3e252e15	0.1613086
150	0xbdd837af	-0.10557496
151	0xbe2e202c	-0.1700446
152	0x3d4adca1	0.049526814
153	0xbcf59239	-0.029976951
154	0xbdf023b1	-0.117255576
155	0x3eb856b9	0.36003664
156	0xbe458e2e	-0.19292518
157	0x3e15a861	0.14615013
158	0xbdafd330	-0.08585203
159	0x3e425d99	0.18981017
160	0x3e069945	0.13144405
161	0xbdf5b805	-0.119979896
162	0xbdbcdcea	-0.092218235
163	0x3d8ebf77	0.06970113
164	0xbd3e1680	-0.046408176
165	0x3da09353	0.078406
166	0x3ea7c06c	0.32763994
167	0xbb69570c	-0.0035604862
168	0xbe1ff06a	-0.15619054
169	0x3dbb1036	0.09133951
170	0x3e37e614	0.17958862
171	0x3d8af5d1	0.06785167
172	0xbc76c386	-0.015061265
173	0xbe0aa0ae	-0.13537857
174	0x3e479200	0.19489288
175	0x3e80fcb1	0.25192788
176	0x3e9856b4	0.2975365
177	0x3cd6aa8f	0.026204376
178	0xbda1f3d6	-0.07907836
179	0xbdbd173d	-0.09232948
180	0xbde41a68	-0.11137849
181	0xbe3cde16	-0.18444094
182	0x3e13325f	0.14374684
183	0x3e398e50	0.18120694
184	0xbe113388	-0.14179814
185	0xbe956915	-0.29181734
186	0x3ea5c6de	0.32378286
187	0xbc39d57c	-0.011342403
188	0xbe4eef85	-0.20208557
189	0x3eb87965	0.36030117
190	0xbe14c385	-0.1452771
191	0xbe22616e	-0.15857479
192	0xbeb993c3	-0.36245546
193	0xbe453915	-0.19260056
194	0x3e593914	0.2121318
195	0xbe9f6ffb	-0.31140122
196	0x3e6d9192	0.23200062
197	0x3c473feb	0.012161235
198	0xbe40be8a	-0.18822685
199	0x3c7e15c2	0.015508117
200	0x3e3b5b00	0.18296432
201	0x3c100467	0.008790112
202	0xbdeca198	-0.11554259
203	0x3e16db42	0.14732078
204	0x3cabb6e4	0.020961232
205	0x3ecec406	0.4038393
206	0xbe74444b	-0.23854177
207	0xbc87cbe0	-0.016576707
208	0x3e95d1e9	0.2926171
209	0xbc78e0ce	-0.015190316
210	0xbdae52ef	-0.08511912
211	0x3e288e9b	0.1646065
212	0xbd72e89d	-0.05930387
213	0x3da0efe4	0.078582555
214	0x3e59dd58	0.21275842
215	0xbda77065	-0.081757344
216	0xbe329ae0	-0.17441893
217	0x3d233e96	0.03985461
218	0x3d49ea63	0.049295794
219	0x3e914042	0.28369337
220	0xbd32eaf2	-0.043681093
221	0x3d41909a	0.047257043
222	0x3bacf98f	0.005278773
223	0x3c8fc656	0.017550629
224	0x3e7fa688	0.2496587
225	0xbd903b5c	-0.07042572
226	0xbe350b5f	-0.17680119
227	0xbe8b42d1	-0.27199414
228	0xbe8eace3	-0.27866277
229	0xbeb87000	-0.3602295
230	0x3da7b7a4	0.081893235
231	0x3e0a50f3	0.13507442
232	0xbddfdc35	-0.10930673
233	0x3d2fa5e9	0.042882834
234	0x3e981fdb	0.29711804
235	0xbe11a2a5	-0.142222
236	0xbeae641d	-0.34060755
237	0x3e8626e2	0.2620154
238	0x3d8aa68d	0.06770048
239	0xbdff3e43	-0.12463047
240	0xbe1c45d1	-0.15261008
241	0xbdb0a10c	-0.08624467
242	0xbce57077	-0.028007729
243	0xbe60c751	-0.21951033
244	0x3e87f2fd	0.26552573
245	0xbe725785	-0.23666199
246	0xbc172baa	-0.009226719
247	0xbe7675ce	-0.24068376
248	0x3e2fb17d	0.1715755
249	0xbe1491b9	-0.14508714
250	0xbd27391e	-0.040825956
251	0x3e788c9f	0.24272393
252	0x3d6ed60c	0.0583096
253	0x3da8c9c7	0.08241611
254	0xbe57b49c	-0.21064991
255	0x3e2f8f58	0.17144525

lstm.bias_ih_l0 f4 [192]
0	0x3da78970	0.08180511
1	0x3de0b9ab	0.10972913
2	0x3e2a33a8	0.16621268
3	0x3dc2cc16	0.095115826
4	0x3d9bdff2	0.076110736
5	0x3deb95b0	0.1150316
6	0x3cfc6fba	0.030814994
7	0x3e637730	0.22213435
8	0x3e31ba25	0.17356165
9	0x3e3256f4	0.17415982
10	0xbc7bab38	-0.015360646
11	0x3d8bbaee	0.068227634
12	0x3e43bb52	0.19114426
13	0x3d9bfa2f	0.07616078
14	0x3e222d65	0.15837629
15	0x3e1c70be	0.15277383
16	0x3ca74541	0.020418765
17	0x3e2285af	0.15871309
18	0x3e32a97d	0.17447467
19	0x3de4331e	0.11142562
20	0x3e73e1aa	0.23816553
21	0x3c6f33a9	0.014599719
22	0x3dbaba93	0.091176175
23	0x3c5290c1	0.012851895
24	0x3d9ff449	0.078102656
25	0xbac54ab0	-0.0015052166
26	0xbdd2483b	-0.10267683
27	0x3d9f9cfc	0.07793614
28	0xbbfe81f2	-0.0077669555
29	0x3e8ef48f	0.27920958
30	0xbbc75c34	-0.0060839895
31	0xbd882f06	-0.06649594
32	0x3e53c050	0.2067883
33	0x3dc39aa2	0.09550978
34	0xbd0de246	-0.03463962
35	0x3bf39153	0.0074330955
36	0x3d055458	0.03255114
37	0x3d957ac3	0.072988056
38	0xbcf2cdd2	-0.029639158
39	0x3d1d485b	0.03839908
40	0x3cdf6dd6	0.027274054
41	0x3d79fec4	0.06103398
42	0x3d1171c3	0.035508882
43	0x3da4efae	0.08053528
44	0x3d7aeb1c	0.061259374
45	0xbd6f672a	-0.058447994
46	0x3ddf2db2	0.108973876
47	0x3db4ae79	0.088223405
48	0x3e073a18	0.13205755
49	0x3c3fca76	0.011705985
50	0xbd89c869	-0.06727678
51	0x3dd663e6	0.10468273
52	0x3e0c8d10	0.13725686
53	0x3d23fb38	0.040034503
54	0xbca41fc8	-0.020034686
55	0x3e599841	0.21249487
56	0x3e02912f	0.12750696
57	0x3db15a5d	0.086598136
58	0x3e34f3b0	0.17671084
59	0xbd0c0336	-0.03418275
60	0x3e01aa4b	0.12662618
61	0x3d279704	0.040915504
62	0x3d9a8ada	0.07546015
63	0x3da48cdc	0.08034679
64	0x3d8c2a1a	0.06843968
65	0xbd214f21	-0.039382104
66	0x3e15a6c0	0.14614391
67	0xbcd20004	-0.025634773
68	0x3e153883	0.14572339
69	0x3bd5833e	0.0065158894
70	0xbcd5b76a	-0.026088435
71	0x3d8079d9	0.062732406
72	0xbcfaa941	-0.030598285
73	0x3d8d7665	0.069073476
74	0xb997f833	-0.00028985887
75	0x3df20394	0.11817089
76	0xbe1cc73a	-0.15310374
77	0xbd611bac	-0.05495803
78	0x3e1adde1	0.15123703
79	0xbc8d6151	-0.017258318
80	0xbd8c5bc1	-0.06853438
81	0xbda4ece2	-0.08052994
82	0x3e147710	0.14498544
83	0x3dbe9e8e	0.09307586
84	0x3def4641	0.11683322
85	0xbd1314e6	-0.035908602
86	0x3dfe5923	0.12419345
87	0x3e351345	0.17683132
88	0xbd971bce	-0.0737835
89	0xbcf80d91	-0.030279906
90	0x3d76b9a0	0.06023562
91	0x3e8ba744	0.2727605
92	0x3d570f47	0.052504804
93	0x3e04385e	0.12912127
94	0x3d523093	0.051315855
95	0x3d8a63e6	0.06757335
96	0x3b9fe8f6	0.004880066
97	0xbc0b7cf3	-0.008513677
98	0x3ddf7af2	0.10912122
99	0x3e138eaf	0.14409898
100	0xbd7413c4	-0.059589162
101	0x3cd8ae48	0.026450291
102	0x3dcb5097	0.09927481
103	0xbe8b44ac	-0.2720083
104	0xbcda001a	-0.026611377
105	0xbe0e4a06	-0.13895425
106	0x3de2c70c	0.110731214
107	0x3d967c97	0.073479824
108	0xbdc9eef3	-0.09860029
109	0xbd9bfedb	-0.07616969
110	0xbdf50892	-0.11964525
111	0xbd586e0d	-0.052839328
112	0xbb091b99	-0.002092099
113	0x3cb2fbdf	0.021848617
114	0xbc1c508d	-0.009540689
115	0x3dfe0caf	0.12404763
116	0x3dcff4aa	0.10154088
117	0x3d352cce	0.044232182
118	0x3e091a35	0.13388903
119	0x3e19286b	0.14956824
120	0x3cc4318e	0.02394941
121	0xbcdd2653	-0.026995813
122	0xbd61bffc	-0.05511473
123	0xbd5defb0	-0.054183662
124	0xbd5201e2	-0.051271327
125	0xbde177e1	-0.11009193
126	0x3df643a7	0.120246224
127	0x3e138719	0.14407004
128	0xbdd9fab3	-0.1064352
129	0xbd3434b5	-0.043995578
130	0x3d636db0	0.055524528
131	0xbbcb7c53	-0.006209889
132	0x3c90502b	0.017616352
133	0xbd54accc	-0.051922604
134	0xbe03b51a	-0.12862054
135	0xbd4da5b7	-0.050206866
136	0xbd943f57	-0.072386436
137	0x3d8af4e5	0.06784991
138	0xbde21e94	-0.110409886
139	0x3d97cde8	0.074123204
140	0x3e1f5661	0.15560295
141	0xbd07d500	-0.033162117
142	0xbcf3fd9e	-0.02978402
143	0xbd4e2691	-0.05032975
144	0x3ddebd12	0.10875906
145	0x3da115d0	0.078654885
146	0x3ab7dc34	0.0014027418
147	0x3e7f5e3e	0.24938294
148	0x3e90d145	0.2828466
149	0x3e54d1d4	0.20783168
150	0x3e26adb7	0.16277204
151	0x3cc5f9b1	0.024166914
152	0x3d7ee6c6	0.0622318
153	0x3e444236	0.19165882
154	0x3e9c21dc	0.30494583
155	0xbd013e68	-0.031553656
156	0x3ccc794a	0.024960179
157	0xbd02ee0c	-0.0319653
158	0xbac46e44	-0.0014986475
159	0x3cc3384d	0.023830557
160	0x3d255563	0.040364634
161	0x3d804d9a	0.06264801
162	0xbd3603b5	-0.04443713
163	0x3d4ef1b1	0.050523464
164	0x3dada79f	0.08479237
165	0xba94374d	-0.0011307985
166	0x3d42af97	0.047530737
167	0x3de7b3c3	0.11313584
168	0x3ddcdaab	0.10783895
169	0x3e4fc8e7	0.20291482
170	0x3d376c0f	0.044780787
171	0x3dacf699	0.08445472
172	0xbd37dacc	-0.044886395
173	0x3ca7ea23	0.020497387
174	0x3e22d875	0.15902884
175	0x3c5941e9	0.013260343
176	0xbbaeb344	-0.0053314287
177	0x3e24a89c	0.16079944
178	0x3dd0c21b	0.10193273
179	0x3c8951c3	0.01676262
180	0xbc4691af	-0.012119695
181	0xbd05bfa4	-0.032653466
182	0x3cdaadd8	0.026694223
183	0x3e09916a	0.13434377
184	0x3dad1044	0.08450368
185	0x3db5b3fb	0.08872219
186	0x3e1a201b	0.1505131
187	0x3eaba836	0.33526772
188	0x3e49f420	0.19722033
189	0xbcd8b202	-0.026452068
190	0x3e3f8180	0.18701744
191	0x3dcfa7ec	0.101394504

lstm.bias_hh_l0 f4 [192]
0	0x3def7095	0.11691395
1	0x3d67f938	0.056634158
2	0x3dd97b41	0.10619212
3	0x3e1e1fee	0.15441868
4	0x3e0cfa10	0.13767266
5	0x3e25432f	0.1613891
6	0x3e260e13	0.16216306
7	0x3df36138	0.118837774
8	0x3d360e1d	0.044447053
9	0x3e1bb509	0.15205778
10	0x3e3996a7	0.18123876
11	0x3e1bb27c	0.15204805
12	0x3d831ca2	0.06401946
13	0x3e294d8a	0.16533485
14	0x3d7a2c49	0.06107739
15	0x3d9c60f3	0.07635679
16	0x3e0745c1	0.13210203
17	0x3e056b1d	0.13029142
18	0xb9270896	-0.0001592956
19	0x3d6b3858	0.05742678
20	0x3c01be70	0.007918939
21	0x3e179d7a	0.14806166
22	0x3e386fb0	0.18011355
23	0x3dbf749f	0.093484156
24	0xbd7d18e7	-0.061791327
25	0xbcda6f8b	-0.026664516
26	0xbddb3978	-0.10704321
27	0xbd53f82c	-0.051750347
28	0x3e0a3d86	0.13500032
29	0x3e4a7ebd	0.1977491
30	0x3e2e3bd4	0.1701501
31	0x3d5e4076	0.054260693
32	0x3cf347c0	0.029697299
33	0x3d69491e	0.056954496
34	0x3e552e4e	0.20818445
35	0xbda6a3cc	-0.081367105
36	0x3be45ff6	0.0069694472
37	0xbcd78c1a	-0.026311923
38	0xbceeb480	-0.029138803
39	0x3dd3e2d8	0.103460014
40	0x3db15220	0.08658242
41	0x3e170d07	0.14751063
42	0x3da3a5da	0.07990618
43	0x3ca2eb3e	0.019887563
44	0x3a89d4fd	0.0010515746
45	0xbd85c8e7	-0.0653246
46	0x3d582087	0.052765395
47	0xbc238e8c	-0.009982716
48	0xbd71389c	-0.058891878
49	0x3cdb2216	0.026749652
50	0x3e202cd7	0.15642105
51	0xbe17fedf	-0.1484332
52	0x3d13ed5b	0.03611503
53	0xbd035ff9	-0.03207395
54	0xba2668ba	-0.0006348003
55	0x3da83bcd	0.08214531
56	0x3ddad1a5	0.10684518
57	0x3d6cff17	0.05786046
58	0x3e5de365	0.21668775
59	0x3cdb8c3e	0.026800271
60	0xbc8f5394	-0.017495908
61	0x3dc196fc	0.09452626
62	0x3e327eec	0.1743123
63	0x3e488b98	0.19584501
64	0x3d7f2e20	0.062299848
65	0x3c224cd1	0.00990601
66	0x3e002387	0.12513553
67	0x3e1f5a33	0.15561752
68	0x3d087a6c	0.033319876
69	0xbd89def1	-0.06731976
70	0x3e40b749	0.18819918
71	0xbc8c3873	-0.01711676
72	0x3dad1909	0.08452041
73	0x3ca972e2	0.020684663
74	0x3d252831	0.040321533
75	0xbda97101	-0.08273507
76	0xbd6045e3	-0.05475415
77	0xbd0a67ed	-0.033790518
78	0x3d8f56fa	0.06999011
79	0xbcb2aa5b	-0.021809747
80	0x3e07b4b2	0.13252524
81	0xbcfc9384	-0.03083206
82	0x3db3118e	0.08743583
83	0x3e094022	0.13403371
84	0x3d9dffad	0.07714782
85	0xbd3942af	-0.04522961
86	0x3bf449f8	0.007455107
87	0xbdcb86fe	-0.09937857
88	0x3d6f5992	0.05843503
89	0xbd9b0327	-0.07568961
90	0x3e266dc1	0.16252805
91	0x3c895bf5	0.016767481
92	0x3e34a28a	0.17640129
93	0x3db651b6	0.08902304
94	0x3e0393a2	0.12849286
95	0xbc979bfd	-0.018506998
96	0xbc7147c6	-0.014726585
97	0x3cde136b	0.027108869
98	0x3c97ec72	0.018545363
99	0x3d67cd75	0.056592423
100	0x3dd8327e	0.105565056
101	0xbc972126	-0.018448424
102	0xbde6b957	-0.112658195
103	0xbe21a82d	-0.1578681
104	0x3e0509e8	0.1299206
105	0xbe179432	-0.14802626
106	0x3e17d444	0.14827067
107	0x3d940831	0.07228125
108	0xbdcf72e7	-0.10129338
109	0xbd4f2915	-0.05057629
110	0x3c0a0e44	0.008426253
111	0x3e55ed62	0.20891336
112	0xbe076132	-0.13220671
113	0x3ddbbbc0	0.1072917
114	0xbdd3add6	-0.10335891
115	0xbdd8b4f4	-0.10581389
116	0x3dbfe517	0.09369867
117	0x3d284f17	0.04109105
118	0xbe08d094	-0.13360816
119	0x3da38862	0.07984997
120	0x3d64e1c4	0.05587937
121	0x3d5a05f5	0.053228337
122	0x3d7df232	0.061998554
123	0x3d739d60	0.059476256
124	0x3ae86562	0.001773041
125	0xbe1a689d	-0.1507897
126	0x3db87ba3	0.09007957
127	0x3e219fe4	0.1578365
128	0x3dbc9fe4	0.09210184
129	0x3d18f16d	0.037339617
130	0x3d23a4ba	0.039952017
131	0x3e1d531a	0.15363732
132	0xbde41fd8	-0.11138886
133	0xbdbd5107	-0.0924397
134	0xbd82ea95	-0.06392399
135	0x3dc466b8	0.095899045
136	0xbd02f74f	-0.031974133
137	0x3d465b8a	0.048427142
138	0xbdf27ac5	-0.11839823
139	0x3db3e330	0.08783567
140	0x3dbef90c	0.09324846
141	0xbd07d1da	-0.033159114
142	0xbd4ec266	-0.05047836
143	0x3dabcf87	0.08389192
144	0x3dcf4209	0.10120017
145	0xbcd86309	-0.026414411
146	0xb9826caa	-0.00024876493
147	0x3e12da71	0.14341141
148	0x3e69c457	0.22828804
149	0xbc71a82a	-0.014749566
150	0x3e3fe48f	0.18739532
151	0x3e562a85	0.20914657
152	0x3d14735c	0.036242828
153	0x3e708725	0.23489054
154	0x3e9980a2	0.29980952
155	0x3dd296bb	0.10282656
156	0x3e4ca739	0.19985665
157	0x3d350319	0.044192407
158	0x3dcd930c	0.100378126
159	0x3d3c2569	0.045934115
160	0x3d02af20	0.031905293
161	0x3e13639e	0.1439347
162	0x3d21ad47	0.03947189
163	0xbc1c8359	-0.0095528
164	0xbda44e72	-0.08022775
165	0x3c2fad3e	0.0107224565
166	0x3e0c81ec	0.13721436
167	0x3ca1e3a3	0.019761866
168	0x3ddb0a6e	0.10695349
169	0xbce2a3b6	-0.027665954
170	0x3e614a2f	0.22000955
171	0xbd89261b	-0.06696721
172	0x3e525d26	0.20543346
173	0x3e4b351b	0.19844477
174	0xbd87b97e	-0.06627177
175	0x3da7c750	0.08192313
176	0x3b334655	0.0027355154
177	0x3df052fc	0.11734578
178	0x3dd3929f	0.103307
179	0xbda228c6	-0.07917933
180	0x3d39fbb2	0.04540605
181	0x3e1215f3	0.14266185
182	0x3e365f07	0.17809688
183	0x3dc4178b	0.09574803
184	0x3d9b86f4	0.075941
185	0x3e01a821	0.12661792
186	0x3dfb30bb	0.12265154
187	0x3e8c47e3	0.27398595
188	0x3d797a0d	0.060907412
189	0x3dbf949f	0.09354519
190	0x3e37f781	0.17965509
191	0x3e28323d	0.16425414

mlp.0.weight f4 [256, 54]
0	0xbde0f4ff	-0.10984229
1	0xbd68aedc	-0.056807384
2	0x3d85c4eb	0.065317
3	0x3d114483	0.03546573
4	0x3cfa6e93	0.030570304
5	0xbe0cadca	-0.1373817
6	0xbe2923ed	-0.16517611
7	0x3db9ed27	0.09078436
8	0x3d68702b	0.056747597
9	0xbd5a15a6	-0.0532433
10	0x3e24e83e	0.16104218
11	0xba3c448f	-0.0007181847
12	0xbe1993cf	-0.14997791
13	0x3dd63dd6	0.10461013
14	0x3e05cf18	0.13067281
15	0x3d035f37	0.032073226
16	0xba2da5cd	-0.00066241325
17	0xbc3e2a84	-0.011606816
18	0xbe055b4b	-0.13023107
19	0xbd8ee205	-0.069767036
20	0xbdd02fec	-0.1016539
21	0xbe138f04	-0.14410025
22	0x3d0b053a	0.03394053
23	0xbd8d1e52	-0.06890549
24	0xbb95acc5	-0.004567715
25	0xbda52f1a	-0.080656245
26	0xbe20f97c	-0.1572017
27	0x3c55c7aa	0.013048092
28	0x3dc82a50	0.097736955
29	0xbdb62cef	-0.08895289
30	0xbe0edf9c	-0.13952488
31	0xbdfad0b3	-0.122468375
32	0x3daf1bc1	0.085502155
33	0x3d507cf4	0.050900415
34	0x3de2f13c	0.11081168
35	0xbe6c073d	-0.23049636
36	0x3e06d329	0.13166489
37	0x3dfb4556	0.12269084
38	0x3e177bf6	0.14793381
39	0xbbff65eb	-0.007794132
40	0xbd18f998	-0.037347406
41	0x3d57cec4	0.05268742
42	0xbde60bfa	-0.11232753
43	0x3d22d74a	0.039756097
44	0x3daa451c	0.08313963
45	0xbd978128	-0.073976815
46	0x3d9cfeb5	0.07665769
47	0xbe3f3494	-0.186724
48	0x3b5be849	0.00335552
49	0xbe316581	-0.17323877
50	0xbce2d3b6	-0.027688842
51	0xbd06cdfc	-0.032911286
52	0xbc590869	-0.013246634
53	0xbd51ed57	-0.051251736
54	0xbab5c258	-0.0013867123
55	0x3d99e49a	0.075143054
56	0x3d437be8	0.047725588
57	0x3c84306b	0.016136369
58	0x3c47785e	0.012174694
59	0x3ba332a9	0.0049804044
60	0xbdc355b8	-0.09537834
61	0x3d81907d	0.06326387
62	0x3dd8d60b	0.105877005
63	0xbe3b84de	-0.18312404
64	0x3bda7468	0.0066667087
65	0xbc89cdfe	-0.016821858
66	0x3bc05be2	0.0058703283
67	0xbcb63828	-0.022243574
68	0xbd3a904f	-0.04554778
69	0x3e2259ea	0.15854612
70	0xbaa52b85	-0.0012601471
71	0x3d7f7b64	0.062373534
72	0xbbe0bb22	-0.0068582455
73	0x3d404d26	0.046948574
74	0x3d677261	0.056505565
75	0xbe32d9b2	-0.17465857
76	0xbd6ed421	-0.05830777
77	0xbd887a24	-0.066639215
78	0x3a1b2c8f	0.00059194205
79	0x3e05e62e	0.13076088
80	0x3d3d8ddb	0.046277862
81	0x3e0fe200	0.14051056
82	0xbb876962	-0.0041324357
83	0x3c9b1181	0.018929245
84	0xbc6cc9fd	-0.014452455
85	0xbd5c9448	-0.05385235
86	0x3cde5845	0.0271417
87	0x3d1afe76	0.03784033
88	0xbd96ce97	-0.07363623
89	0x3d22de62	0.039762862
90	0xbb29af68	-0.0025891904
91	0xbdb7ff50	-0.08984244
92	0x3e314295	0.17310555
93	0xbce8e711	-0.028430494
94	0xbca5994d	-0.020214701
95	0xba5b10ab	-0.0008356671
96	0x3e058401	0.13038637
97	0xbd8c9490	-0.068642735
98	0x3e2098c2	0.15683272
99	0x3e095fb5	0.13415416
100	0xbd814305	-0.06311611
101	0xbd907c13	-0.07054915
102	0x3d313f32	0.04327316
103	0xbda39019	-0.07986469
104	0xbe0c8c81	-0.13725473
105	0x3dd1b5b1	0.10239733
106	0x3cac4170	0.021027297
107	0x3da41aa4	0.08012894
108	0x3d4360a5	0.04769959
109	0x3d4e368a	0.05034498
110	0xbd856690	-0.06513703
111	0x3dd25cca	0.10271604
112	0x3b7dd50f	0.003873173
113	0x3dcb8832	0.099380866
114	0x3d065b45	0.032801885
115	0xbc182053	-0.00928505
116	0xbdae8ede	-0.085233435
117	0xbe0ddf18	-0.13854635
118	0xbd1c00b0	-0.038086593
119	0x3dd9a85a	0.10627814
120	0xbdc6144e	-0.096718416
121	0x3e012714	0.12612563
122	0xbde2f998	-0.110827625
123	0xbddb11d2	-0.10696758
124	0xbdfe884e	-0.12428342
125	0x3db89fc2	0.090148464
126	0x3cba940a	0.022775669
127	0x3d98bf53	0.07458367
128	0x3db83424	0.0899432
129	0xbdc0de98	-0.094174564
130	0x3dd7c4be	0.105355725
131	0xbdc372c7	-0.095433764
132	0xbbb59129	-0.005540986
133	0x3c9acab1	0.018895479
134	0x3d4a8632	0.049444385
135	0xbdcdfe69	-0.100582905
136	0x3dc38ef5	0.09548751
137	0xbda88355	-0.082281746
138	0xbd7cd84d	-0.061729718
139	0xbd673818	-0.05644998
140	0x3d971084	0.07376197
141	0x3e12dd6a	0.14342275
142	0x3db054a8	0.08609897
143	0xbe1266e8	-0.14297068
144	0x3e2d21d6	0.16907439
145	0xbddff399	-0.109351344
146	0xba851d0d	-0.0010155753
147	0x3dc4d0ad	0.09610114
148	0x3c991422	0.018686358
149	0x3d47b557	0.048756924
150	0xbc66c8d2	-0.014085965
151	0x3cf35565	0.029703805
152	0x3b682247	0.0035420822
153	0xbd928309	-0.07153899
154	0xbe1699ee	-0.14707157
155	0x3df42d11	0.11922658
156	0x3da32146	0.07965331
157	0xbdaa2130	-0.08307111
158	0xbe3badd1	-0.18328024
159	0x3db0744f	0.08615934
160	0x3d852a74	0.06502238
161	0xbdd912f9	-0.10599322
162	0x3e18ab3a	0.14909068
163	0x3de98d3f	0.11403894
164	0x3cc289fd	0.023747439
165	0x3d8a0e91	0.067410596
166	0xbde82860	-0.11335826
167	0x3cecb6ff	0.028895853
168	0xbce0d5e8	-0.027445748
169	0xbd4a18df	-0.049340125
170	0x3d4b736f	0.049670633
171	0xbd285941	-0.041100744
172	0x3dcca8a9	0.09993107
173	0xbe044982	-0.12918666
174	0x3d400828	0.04688278
175	0xbdb2c6e7	-0.08729344
176	0x3e0490a4	0.12945801
177	0xbd0a23c4	-0.033725515
178	0xbd9235b6	-0.07139151
179	0xbdc165ae	-0.09443222
180	0x3d74ed39	0.059796546
181	0xbc969151	-0.01837984
182	0x3e0455a9	0.12923302
183	0xbc7fdb80	-0.015616298
184	0xbc2e6b74	-0.010645736
185	0x3d155b00	0.036463737
186	0xbce761d4	-0.02824489
187	0x3c26b209	0.010174283
188	0x3d670531	0.056401435
189	0xbdd5e385	-0.104437865
190	0xbd0ff539	-0.035145972
191	0x3d93eb27	0.07222586
192	0x3d32dcc4	0.04366757
193	0x3d3f1600	0.04665184
194	0xbd8cc0cd	-0.06872711
195	0xbcb7987b	-0.022411576
196	0xbdea0435	-0.11426584
197	0xbdccce9e	-0.100003466
198	0x3d95fa88	0.07323176
199	0xbe14321c	-0.1447224
200	0x3d6f4c43	0.05842234
201	0xbd41be87	-0.04730084
202	0x3d2309f7	0.039804425
203	0xbd261177	-0.040544
204	0x3c1056da	0.0088097695
205	0xbd8ab268	-0.067723095
206	0xbca991cc	-0.020699404
207	0x3e038197	0.12842403
208	0x3dbb9298	0.0915882
209	0x3d5deb1d	0.0541793
210	0x3dba8d1a	0.09108944
211	0xbd641eee	-0.05569356
212	0xbc8cead0	-0.017201811
213	0xbe030403	-0.12794499
214	0x3d54158c	0.05177836
215	0x3d43647a	0.047703244
216	0xbe020a71	-0.12699296
217	0x3c57e759	0.013177716
218	0x3c970912	0.018436942
219	0xbdd081ec	-0.10181031
220	0xbd60430e	-0.05475145
221	0x3d7958cf	0.06087571
222	0xbe39aafa	-0.18131629
223	0xbc7c3b21	-0.015394957
224	0x3e193137	0.1496018
225	0xbdc47aab	-0.095937096
226	0x3cdcd154	0.026955284
227	0xbcc167a6	-0.023608994
228	0xbd22b76d	-0.03972571
229	0xbe4fc045	-0.20288189
230	0xbdc19301	-0.09451867
231	0xbd1041f1	-0.035219137
232	0x3cab4c30	0.020910352
233	0xbd9d1945	-0.076708354
234	0xbdc9101b	-0.09817525
235	0x3e4cffab	0.20019405
236	0xbdd74dd7	-0.10512894
237	0x3e33d963	0.17563395
238	0x3db32016	0.08746354
239	0x3db3b1aa	0.08774121
240	0xbb9b0a5b	-0.004731459
241	0x3d5b4354	0.053531006
242	0x3cc01f65	0.02345247
243	0x3e28de79	0.16491117
244	0x3e27c85a	0.16385022
245	0x3e54029d	0.20704122
246	0x3d280f88	0.041030437
247	0x3d61ff27	0.055174973
248	0xbba34018	-0.004982006
249	0x3ded16b1	0.11576594
250	0x3e38eebc	0.1805982
251	0x3ae03014	0.0017104172
252	0xbba18f3b	-0.0049304045
253	0x3d85b6f7	0.065290384
254	0xbd358aff	-0.04432201
255	0x3e0e36e5	0.13888128

mlp.0.bias f4 [256]
0	0x3dbae83c	0.091263264
1	0xbdcce5b6	-0.100047514
2	0xbe1a4ab3	-0.15067558
3	0xbd606c8a	-0.05479101
4	0xbc85f83a	-0.016353715
5	0x3e03e355	0.12879689
6	0xbd30ad83	-0.043134224
7	0x3dc42123	0.09576633
8	0x3d26789d	0.04064237
9	0xbd303097	-0.04301509
10	0x3d59eb09	0.053202663
11	0x3dfb91dc	0.1228368
12	0xbdbe592b	-0.09294351
13	0xbc43bf6b	-0.011947493
14	0x3cf4a57a	0.029864062
15	0xbc1eac78	-0.009684674
16	0xbd98c40c	-0.07459268
17	0x3d1e4fb0	0.038650215
18	0x3c3c71cc	0.011501741
19	0x3baae32e	0.00521507
20	0xbe1df844	-0.15426737
21	0x3d2397dd	0.03993975
22	0x3d9aa76b	0.07551464
23	0xbd65759a	-0.056020357
24	0x3d9d9049	0.07693536
25	0xbbfe8468	-0.007767249
26	0xbcf43304	-0.029809482
27	0xbdac82c8	-0.08423382
28	0xbdc8f8b0	-0.098130584
29	0x3c97f39a	0.018548775
30	0x3bb346e5	0.005471098
31	0x3b7811f5	0.00378525
32	0xbde63e21	-0.11242319
33	0x3c1b3252	0.0094724465
34	0x3deb06ff	0.11475944
35	0xbaf1790f	-0.0018422919
36	0xbe278d68	-0.16362536
37	0x3d092ea1	0.033491734
38	0xbe13cf84	-0.1443463
39	0xbc3015c4	-0.010747377
40	0xbd67757d	-0.05650853
41	0xbdfa787d	-0.122300126
42	0xbd89c393	-0.06726756
43	0xbda17b74	-0.07884875
44	0xbdc028cb	-0.09382781
45	0x3d315f9e	0.04330408
46	0xbd54858d	-0.051885176
47	0x3db4bd31	0.08825148
48	0xbdbd4fe5	-0.09243754
49	0xbc8f7e20	-0.017516196
50	0xbcd49c45	-0.025953421
51	0x3d1230cb	0.035691064
52	0xbe38dc5f	-0.18052815
53	0x3d498bad	0.04920547
54	0x3daa4e8b	0.08315762
55	0xbc33d4ec	-0.0109760575
56	0xbe057b84	-0.13035399
57	0x3d8c2cdd	0.068444945
58	0x3aa6c4d7	0.0012723458
59	0xbe1863de	-0.14881846
60	0x3d7041ae	0.058656387
61	0xbd27e39e	-0.040988557
62	0x3beef16c	0.0072919633
63	0xbe0ab3da	-0.1354517
64	0x3d70af8e	0.058761172
65	0x3e2aeabc	0.16691107
66	0x3d8e80ff	0.06958198
67	0x3da8c15d	0.08240006
68	0x3e1b772b	0.15182178
69	0x3e0dd102	0.13849261
70	0x3cd27466	0.025690269
71	0xbd227705	-0.039664287
72	0x3cd2302b	0.025657734
73	0x3e079f12	0.13244274
74	0x3e0dae96	0.1383613
75	0x3cf0cbe6	0.029394101
76	0xbdc3ba57	-0.09557026
77	0x3e40214a	0.18762699
78	0x3d94113a	0.07229848
79	0xbca06c45	-0.019582877
80	0xbd06cc5c	-0.032909736
81	0xbd3a834a	-0.045535363
82	0x3d38f8e7	0.045159247
83	0x3d4218b0	0.047386825
84	0xbda5b3dc	-0.08090946
85	0x3da6b241	0.08139468
86	0xbd6a85ed	-0.057256628
87	0xbe16ee85	-0.14739425
88	0x3b9d072a	0.004792114
89	0x3e5274ce	0.2055237
90	0x3e22e001	0.15905763
91	0x3d91511a	0.07095547
92	0x3db2032f	0.086920135
93	0xbd6cd23b	-0.05781768
94	0x3db7155e	0.08939622
95	0xbd84d324	-0.064855844
96	0x3cadeb1c	0.021230273
97	0x3dac42e1	0.08411194
98	0x3e23cdda	0.15996495
99	0x3db7ea78	0.08980268
100	0xbd9c97d2	-0.07646145
101	0xbd49125c	-0.049089774
102	0xbd8a81c7	-0.06763034
103	0x3c8dae9f	0.01729518
104	0xbd98055d	-0.07422898
105	0xbd4899ae	-0.048974685
106	0xbc72a2a5	-0.014809285
107	0x3cdd79ef	0.027035682
108	0xbce4ad4d	-0.027914668
109	0x3c82203e	0.015884515
110	0xbe262755	-0.16225941
111	0xbda4ea72	-0.080525294
112	0x3e1cbdd2	0.15306786
113	0xbdf13e0b	-0.11779412
114	0xbc8845c0	-0.016634822
115	0xbdb30b1a	-0.08742352
116	0x3db570b4	0.08859387
117	0x3d0a8da4	0.033826485
118	0x3d80e916	0.062944576
119	0xbcd1e04f	-0.025619654
120	0xbe278885	-0.16360672
121	0x3cda7866	0.026668739
122	0x3e1631ad	0.14667387
123	0xbdac1690	-0.08402741
124	0xbdd5b9ad	-0.104358055
125	0x3d8387a2	0.06422354
126	0xbd8280fa	-0.063722566
127	0x3d251229	0.040300522
128	0xbda5ca8c	-0.080952734
129	0x3dc0ac45	0.09407858
130	0x3d1fb9c3	0.038995516
131	0x3ce4b463	0.027918046
132	0xbd491e60	-0.049101233
133	0xbd53698c	-0.05161433
134	0x3e1e7130	0.15472865
135	0xbdc008d0	-0.09376681
136	0xbdc0bfd1	-0.09411586
137	0xbdfcc5c6	-0.1234241
138	0xbd84dc13	-0.06487288
139	0x3e0ff6ac	0.14058942
140	0x3d6f6015	0.05844124
141	0x3d51e2d7	0.051241722
142	0xbe2de8ea	-0.16983381
143	0x3ddc0cce	0.1074463
144	0x3e2571c9	0.16156687
145	0xbe1e32eb	-0.15449111
146	0xbd8058dc	-0.062669486
147	0xbcee3c83	-0.029081589
148	0xbe232879	-0.15933408
149	0x3dd7b9e2	0.10533501
150	0xbe0d4946	-0.13797483
151	0xbc505ed4	-0.012717921
152	0xbd58bf1c	-0.05291663
153	0x3d06c3f7	0.03290173
154	0x3e180a60	0.14847708
155	0xbe2db5b5	-0.16963847
156	0x3df07e5c	0.11742851
157	0xbd130540	-0.03589368
158	0xbd30c869	-0.043159876
159	0xbc1fd198	-0.009754561
160	0xbccec67e	-0.025241133
161	0x3d87f1ee	0.06637941
162	0x3e2ea828	0.17056334
163	0x3de11b61	0.1099155
164	0xbe079bb5	-0.13242991
165	0xbca275a3	-0.019831484
166	0x3dafed0d	0.08590136
167	0x3cbaffb0	0.022827
168	0x3d66b653	0.05632622
169	0x3d703fbc	0.05865453
170	0x3cfa7d94	0.030577458
171	0xbe4227a8	-0.1896044
172	0x3e32d2e2	0.17463258
173	0x3db16634	0.08662072
174	0x3de6436d	0.11243329
175	0xbd368b7e	-0.044566624
176	0xbdcfa0e2	-0.10138108
177	0xbd52e5bc	-0.051488623
178	0xbe235a74	-0.15952474
179	0xbe02362b	-0.12715976
180	0xbd69b3ef	-0.057056364
181	0x3bc1edcd	0.0059182406
182	0x3c58c68c	0.013230931
183	0x3d80bc09	0.06285865
184	0xbd437d36	-0.047726832
185	0xbd152864	-0.036415473
186	0xbd9aa29b	-0.07550546
187	0x3e0a8dcd	0.13530655
188	0xbdb09171	-0.08621491
189	0xbd13522b	-0.035967033
190	0x3d6ab992	0.05730588
191	0xbd6b55e4	-0.05745496
192	0x3b7fc5c1	0.0039027783
193	0x3e28f426	0.16499385
194	0xbccbe736	-0.024890523
195	0x3debc965	0.11513022
196	0x3dedcebd	0.11611698
197	0xbdaf5ddf	-0.08562826
198	0xbe0b5b7c	-0.13609117
199	0xbe347fbd	-0.17626853
200	0x3d10cbb9	0.035350535
201	0x3dff9862	0.124802366
202	0xbdeb7f43	-0.114988826
203	0xbdadf19d	-0.0849335
204	0x3ddd6787	0.10810762
205	0xbe1b767e	-0.1518192
206	0x3d837fe7	0.0642088
207	0x3d824135	0.063600935
208	0xbdde0612	-0.108410016
209	0x3c738201	0.014862538
210	0x3e09ec28	0.13468993
211	0xbe19bbea	-0.1501309
212	0x3ac8cb29	0.0015319336
213	0xbd5ba4a4	-0.05362381
214	0x3dd3e73d	0.103468396
215	0x3d41fa64	0.04735793
216	0x3c799b63	0.015234801
217	0x3ce96e37	0.028494937
218	0xbd849740	-0.06474161
219	0xbc29c96f	-0.010362967
220	0xbcb43434	-0.021997549
221	0x3d50776d	0.050895143
222	0x3e019560	0.12654638
223	0xbc0429c9	-0.008066603
224	0x3db8ef46	0.09030013
225	0xbdc43327	-0.09580069
226	0xbc2f3f90	-0.010696307
227	0xbd0be558	-0.034154266
228	0xbcf71c77	-0.03016494
229	0xbe00064a	-0.12502399
230	0x3d8cde20	0.068783045
231	0xbe110577	-0.14162241
232	0xbe085d13	-0.13316755
233	0xbdf43694	-0.119244725
234	0x3e593d90	0.2121489
235	0xbe1a5ca1	-0.15074398
236	0x3c973abb	0.018460622
237	0xbb0eccda	-0.0021789582
238	0xbcb995f0	-0.022654504
239	0x3df0772a	0.11741479
240	0x3d23bda8	0.039975792
241	0xbdc671f7	-0.09689706
242	0xbe17cae3	-0.14823489
243	0x3e01aa1f	0.12662552
244	0xbd8173f3	-0.06320944
245	0x3d3c7a0e	0.046014838
246	0xbc81fc6b	-0.015867433
247	0x3d5ea243	0.054353964
248	0x3d85ccca	0.06533201
249	0x3e703335	0.23457034
250	0x3c3fcfec	0.011707287
251	0x3d55e013	0.052215647
252	0x3ddc52e5	0.107579984
253	0xbd8a2c2c	-0.06746706
254	0x3d8e94fe	0.06962012
255	0xbc358758	-0.011079632

mlp.2.weight f4 [128, 256]
0	0x3d9ecd80	0.0775404
1	0x3d584f80	0.052810192
2	0x3d426a2e	0.047464542
3	0x3dacf0da	0.08444376
4	0xbdda594a	-0.10661562
5	0xbd8f639d	-0.070014216
6	0xbc9d0432	-0.01916704
7	0xbd27aefd	-0.040938366
8	0xbb11d9de	-0.0022255103
9	0x3d79deff	0.06100368
10	0x3da0c6d5	0.07850424
11	0xbd32feb6	-0.043699943
12	0xbc14aff0	-0.00907515
13	0xbcb7d459	-0.022440122
14	0x3d830104	0.06396678
15	0x3b6b8dd1	0.0035942683
16	0xbda926f3	-0.08259382
17	0x3c00e747	0.007867641
18	0xbd0aa611	-0.03384978
19	0x3dd8dd69	0.10589106
20	0x3d032a72	0.0320229
21	0xbd88e3d1	-0.066840775
22	0x3db3c484	0.08777717
23	0xbdd34d94	-0.10317531
24	0x3d848ba1	0.064719446
25	0xbcb19833	-0.02167902
26	0xbdbdb7d6	-0.092635795
27	0x3d271670	0.040792882
28	0x3d8a9a36	0.06767695
29	0xbdb69f2e	-0.0891708
30	0xb9b5d543	-0.00034681903
31	0x3c32fd57	0.010924659
32	0x3cb3dff0	0.021957368
33	0xbd2bf0e5	-0.04197778
34	0x3d085910	0.03328806
35	0x3c80fc9c	0.015745454
36	0x3d5a6d23	0.053326737
37	0x3d444a23	0.047922265
38	0x3cc7948f	0.02436283
39	0x3dde54ea	0.1085604
40	0x3d9eb443	0.07749226
41	0x3d45c55f	0.04828393
42	0xbc55d57d	-0.013051388
43	0x3d679315	0.056536753
44	0xbc8f3615	-0.017481843
45	0x3d5a6383	0.053317558
46	0xbdcf76f5	-0.10130111
47	0xbe12249f	-0.14271782
48	0xbd052c55	-0.03251298
49	0x3d776ea3	0.060408246
50	0x3c3fffb6	0.011718681
51	0x3d6da9b1	0.05802316
52	0xbc785d9d	-0.015159038
53	0x3da4b84c	0.08042964
54	0xbe036180	-0.12830162
55	0xbd03043c	-0.03198646
56	0xbd2b7143	-0.04185606
57	0x3d65330c	0.055956885
58	0xbc98c335	-0.01864777
59	0xbaa69041	-0.0012707786
60	0xbe030b20	-0.12797213
61	0x3daa9317	0.083288364
62	0xbde35dd3	-0.1110188
63	0xbda2e758	-0.079542816
64	0x3d8f73a7	0.07004481
65	0xbdd56a0a	-0.10420616
66	0x3d237de7	0.03991499
67	0xbb770ba0	-0.0037696138
68	0x3c92405e	0.017852958
69	0xbd92a8c7	-0.07161098
70	0xbd23d37f	-0.03999662
71	0xbd7fa0da	-0.06240926
72	0x3d312061	0.04324377
73	0xbc425675	-0.011861433
74	0xbd86d150	-0.06582892
75	0x3d7b831f	0.061404344
76	0xbd74d5a9	-0.059774075
77	0x3db8647a	0.090035394
78	0xbc3bc486	-0.011460429
79	0x3d79c889	0.06098226
80	0xbe2b45a5	-0.16725786
81	0x3d02e25b	0.03195415
82	0x3d10345c	0.035206184
83	0xbd1565d8	-0.03647408
84	0xbdf85042	-0.12124683
85	0xb9ac14ed	-0.00032821987
86	0x3d327129	0.04356495
87	0xbd8a6df7	-0.067592554
88	0x3d240726	0.04004588
89	0x3d54848c	0.05188422
90	0x3d7f1d3e	0.062283747
91	0xbda7a59d	-0.08185885
92	0x3d205672	0.03914494
93	0xbc7342ee	-0.0148475
94	0xbdebb125	-0.11508397
95	0xbd6b6fca	-0.057479657
96	0x3c05e6ae	0.008172674
97	0x3d988af4	0.07448378
98	0x3d79c6d6	0.06098064
99	0xbce9671f	-0.028491555
100	0x3d3c98d3	0.046044182
101	0xbc0e194f	-0.008673026
102	0x3c9456a5	0.018107722
103	0xbe029bbe	-0.12754723
104	0x3a58e102	0.0008273275
105	0xbd9c5216	-0.07632844
106	0xbd2d6d8f	-0.04234081
107	0x3d1ddc23	0.038540017
108	0x3d830030	0.0639652
109	0x3c910860	0.017704189
110	0x3d88697f	0.06660747
111	0xbca2d4ed	-0.019876922
112	0x3d3514a8	0.044209152
113	0xbcf2176d	-0.029552186
114	0xbcb48b23	-0.022039002
115	0xbdace134	-0.084413916
116	0x3dbdb04b	0.09262141
117	0x3bcb77c4	0.0062093455
118	0xbe0bd117	-0.1365398
119	0x3c889e9c	0.016677193
120	0xbc97426e	-0.018464293
121	0xbe2e5312	-0.17023876
122	0x3c7d48be	0.015459238
123	0xbd48eda4	-0.049054757
124	0xbd58461f	-0.052801248
125	0xbc107047	-0.0088158315
126	0x3c40ad12	0.011760013
127	0xb9ad944b	-0.00033107618
128	0xbcc6cbf0	-0.024267167
129	0xbe2e028c	-0.16993159
130	0x3d88d1ad	0.066806175
131	0xbc55e45e	-0.013054935
132	0x3c83503b	0.016029468
133	0x3bda2e65	0.0066583627
134	0xbd3dda75	-0.046350915
135	0xbbfffb98	-0.0078119747
136	0xbd9ce83f	-0.07661485
137	0x3cbdd5bf	0.023173211
138	0xbd8f0d3c	-0.06984946
139	0x3d39e240	0.045381784
140	0xbc96f490	-0.018427163
141	0xbab0b592	-0.0013481847
142	0x3d8d297e	0.0689268
143	0x3d37d37a	0.044879414
144	0xbc81ff54	-0.01586882
145	0x3d90194e	0.070360765
146	0x3dad799b	0.0847046
147	0x3d276b5b	0.040873867
148	0x3d049c59	0.032375667
149	0xbd7ad6d7	-0.061240043
150	0x3d698599	0.057012174
151	0x3d023166	0.03178539
152	0xbdced910	-0.10099995
153	0xbd67fc21	-0.056636933
154	0x3d2a6b42	0.041606195
155	0x3cece3fa	0.028917301
156	0x3c9b96d8	0.018992826
157	0x3dd747b5	0.10511724
158	0x3db42fb4	0.08798161
159	0xbb6a9b5d	-0.003579817
160	0x3d3fd22f	0.046831306
161	0xbc275033	-0.010211992
162	0x3c0d5e80	0.008628488
163	0x3d745c3b	0.05965827
164	0x3cbea0d0	0.02327004
165	0xbd1b0b74	-0.03785272
166	0x3c90e2e4	0.017686315
167	0xbd0c1eaa	-0.03420893
168	0x3cd06c9d	0.025442416
169	0x3cfae889	0.03062846
170	0x3d868c78	0.06569761
171	0x3d0e422c	0.034731075
172	0xbd1ebe0b	-0.038755458
173	0x3d357e02	0.044309624
174	0xbd806cea	-0.06270774
175	0x3daece69	0.08535463
176	0x3cfed33e	0.031106587
177	0x3d94e39d	0.07269976
178	0x3d3e3924	0.046441212
179	0x3b10ecc6	0.0022113784
180	0xbd1062d2	-0.035250492
181	0xbc87331f	-0.016503869
182	0xbdae05f0	-0.08497226
183	0x3d1e683b	0.03867362
184	0xbd8b8f6e	-0.068144664
185	0xbe37283d	-0.17886443
186	0x3d1d8c8d	0.038464118
187	0xbcd8f4e8	-0.026483968
188	0xbd9525ef	-0.07282626
189	0xbe07ce04	-0.13262182
190	0xbd3318d2	-0.043724842
191	0xbcb325d9	-0.021868633
192	0xbd62c005	-0.055358905
193	0x3d1295bd	0.035787333
194	0xbc2af673	-0.010434735
195	0x3defd689	0.11710841
196	0xbc548bfb	-0.012972827
197	0xbd163376	-0.03667017
198	0xbd33d605	-0.043905277
199	0xbc0d11a6	-0.008610165
200	0x3d82444a	0.06360681
201	0x3c80f484	0.015741594
202	0xbd33f964	-0.04393901
203	0xba5af3a2	-0.0008352344
204	0x3c70b857	0.014692388
205	0x3d01aef5	0.031660993
206	0xbc459982	-0.012060525
207	0x3c8a99a2	0.016918961
208	0x3b9aa74a	0.0047196494
209	0x3c6e8502	0.014558079
210	0x3c75f1f1	0.015011297
211	0xbd5d3d03	-0.054013263
212	0xbe201a9a	-0.15635148
213	0x3dedea4a	0.11616953
214	0xbc6272f8	-0.013821356
215	0xbbcb3230	-0.006201051
216	0x3da52939	0.08064503
217	0x3dc08984	0.09401229
218	0xbb2ad632	-0.0026067612
219	0x3bc32a38	0.0059559606
220	0xbd12bcc6	-0.03582456
221	0xbab5d528	-0.001387273
222	0x3daf561f	0.08561348
223	0xbd02e009	-0.031951938
224	0x3dfee9f4	0.12446967
225	0x3ccceefb	0.025016299
226	0x3bb0e6c5	0.0053986036
227	0xbb9d4399	-0.004799318
228	0x3c8f3abb	0.01748406
229	0xbd4c3fa6	-0.049865387
230	0x3d3672b9	0.044543
231	0xbbeb72b6	-0.0071853055
232	0x3d897691	0.06712068
233	0xbc73c640	-0.014878809
234	0xbc800822	-0.015628878
235	0x3d6db017	0.05802926
236	0x3d534d6f	0.05158752
237	0x3d3c9957	0.046044674
238	0xbc870cda	-0.01648562
239	0x3d3013eb	0.042987745
240	0xbd96a76d	-0.07356153
241	0xbcc2c01e	-0.02377325
242	0x3ca6c78a	0.02035882
243	0x3c8f2e09	0.017478006
244	0xbd189894	-0.037254885
245	0x3d4f32b4	0.050585464
246	0xbc954300	-0.018220425
247	0x3c514c08	0.012774475
248	0x3c7ec52c	0.015549939
249	0xb97d0096	-0.00024128178
250	0x3d58e09f	0.05294859
251	0xbd061429	-0.03273407
252	0xbcb997b0	-0.022655338
253	0xbd1d65ed	-0.038427282
254	0xbd05ab7f	-0.032634255
255	0x3cb28159	0.021790193

mlp.2.bias f4 [128]
0	0x3d3853d2	0.045001812
1	0x3dc6cace	0.09706651
2	0xbd1d0c42	-0.038341768
3	0xbce978f3	-0.028500056
4	0xbd28e345	-0.041232366
5	0x3d6f0b4f	0.058360394
6	0xbdb993f8	-0.09061426
7	0x3bb93d19	0.0056530354
8	0x3c1c8707	0.009553677
9	0xbc607d9b	-0.013701822
10	0xbd076be4	-0.033061877
11	0xbd8c0670	-0.06837165
12	0xbd0b3364	-0.033984557
13	0x3d630b07	0.05543044
14	0xbd49c78d	-0.049262572
15	0x3ce65f5a	0.028121639
16	0x3c87b472	0.016565535
17	0xbd97d7a7	-0.07414179
18	0x3a913ff8	0.0011081686
19	0xbc929fbe	-0.017898437
20	0xba9be2bb	-0.0011893132
21	0xbc9348b5	-0.017979005
22	0xbd03d45e	-0.03218495
23	0xbc9e6d9f	-0.01933938
24	0x3d533235	0.051561553
25	0xbd1b5070	-0.037918508
26	0x3d38def2	0.045134492
27	0xbd574248	-0.052553445
28	0xbd9a16ae	-0.07523857
29	0xbbd9210a	-0.006626253
30	0xbcda7041	-0.026664855
31	0xbc3d9c7b	-0.011572952
32	0x3c1a6f13	0.009425896
33	0x3c2369c9	0.009973952
34	0xbc5048b7	-0.012712649
35	0x3b7f45d4	0.0038951533
36	0xbcc41176	-0.023934107
37	0xbd29256d	-0.041295458
38	0xbda33c98	-0.07970542
39	0xbc34d076	-0.011036029
40	0xbd806de9	-0.06270964
41	0x3cd214a8	0.025644615
42	0xbd4c4f70	-0.049880445
43	0x3d4ac4ce	0.049504094
44	0xbd3728ee	-0.044716768
45	0x3d7e85a9	0.062139187
46	0xbcf4feb9	-0.029906617
47	0xbc413828	-0.011793174
48	0x3d86717a	0.06564613
49	0x3c2a538f	0.0103958985
50	0xbd9f716f	-0.077853076
51	0x3c3319de	0.01093146
52	0xbd6fd14c	-0.05854921
53	0xbd141da0	-0.036161065
54	0x3cac114c	0.021004342
55	0xb9f65833	-0.0004698649
56	0x3c2e05e8	0.010621525
57	0x3c396635	0.011315872
58	0x3ca89a1a	0.020581294
59	0x3d5bbb1d	0.053645242
60	0xbc04b996	-0.008100888
61	0x3c81438d	0.015779281
62	0x3cd69e75	0.026198605
63	0xbd252b27	-0.040324356
64	0x3e267b31	0.16257931
65	0x3ceef995	0.029171744
66	0xbc93f1d6	-0.018059652
67	0x3d100b3f	0.035166975
68	0x3ca9bd25	0.020720074
69	0xbcb29292	-0.021798406
70	0x3c74f322	0.0149505455
71	0xbd5238c9	-0.051323686
72	0x3d5acb3a	0.05341647
73	0x3b3ffee4	0.0029296214
74	0xbccc6f0f	-0.0249553
75	0x3d21c340	0.039492846
76	0xbbc51407	-0.0060143503
77	0xbcb8c4f0	-0.022554845
78	0xbd1a026c	-0.037599966
79	0xbca4196b	-0.020031651
80	0x3cf36deb	0.029715499
81	0x3ce896db	0.028392246
82	0x3d8eeee8	0.069791615
83	0xbc88edb2	-0.016714904
84	0xbd61f3ec	-0.055164263
85	0x3d0ae116	0.033906065
86	0xbd4b7e81	-0.04968119
87	0xbc49b8a6	-0.01231209
88	0x3ca610d0	0.020271689
89	0xbd8c04fb	-0.068368874
90	0xbca144a5	-0.019686053
91	0xbbbc3417	-0.0057435143
92	0x3ce9a0dd	0.028519088
93	0x3c85595f	0.016277967
94	0x3ce027f2	0.027362797
95	0xbd22bd2c	-0.03973119
96	0x3dba75f5	0.0910453
97	0x3df8a309	0.121404715
98	0x3d3069d6	0.043069683
99	0xbc55d930	-0.01305227
100	0xbc4855a6	-0.012227451
101	0xbcf9e10a	-0.030502815
102	0x3d4fadd5	0.05070289
103	0xbd860438	-0.065437734
104	0xbd5b103a	-0.05348227
105	0xbd385135	-0.04499932
106	0xbb20b300	-0.0024520755
107	0xbb0257b9	-0.0019888713
108	0xbc953284	-0.018212564
109	0xbaab7fef	-0.0013084392
110	0x3cb65160	0.0222556
111	0x3d733bc0	0.059383154
112	0xbdb3fcda	-0.08788462
113	0xbd3a0474	-0.045414403
114	0x3cad9378	0.021188483
115	0xbd93e63a	-0.072216466
116	0xbd538e48	-0.05164936
117	0xbd722d19	-0.05912504
118	0xbcc0ee42	-0.02355111
119	0x3cf5e513	0.030016458
120	0x3c3ab008	0.011394508
121	0x3d00efd5	0.03147872
122	0xbd47805c	-0.048706397
123	0xbca67779	-0.02032064
124	0xbd90ea01	-0.07075883
125	0x3d35fa0b	0.044427913
126	0x3cc0a790	0.0235174
127	0x3cfc9151	0.030831011
