weights2/ep_1766.pth (torch, 275655 bytes, 10 tensors)

lstm.weight_ih_l0 f4 [192, 7]
0	0x3e26d03d	0.16290374
1	0xbe4c2c9f	-0.19938897
2	0xbe763f25	-0.24047525
3	0xbcecb27c	-0.028893702
4	0x3de0dea7	0.109799676
5	0xbc891039	-0.016731368
6	0x3ca79b0b	0.020459672
7	0x3dd5e14f	0.10443365
8	0xbdb2460e	-0.08704768
9	0xbbf27962	-0.007399724
10	0x3d5dda69	0.05416337
11	0x3df46640	0.11933565
12	0x3ccbd4a0	0.024881661
13	0x3e073c75	0.13206656
14	0xbce1a929	-0.027546482
15	0x3d010f17	0.03150853
16	0xbe0a288d	-0.13492031
17	0xbe86e318	-0.26345134
18	0x3e68f62d	0.22750159
19	0x3dd6a955	0.10481516
20	0x3c6a57ef	0.014303192
21	0x3d8e1b49	0.06938798
22	0x3e3526b5	0.17690547
23	0xbde1906c	-0.110138744
24	0xbde78804	-0.1130524
25	0x3eaed466	0.34146422
26	0x3dc994ba	0.098428205
27	0x3ecfc8cb	0.4058288
28	0xbd75f135	-0.060044486
29	0x3cbb7a18	0.022885367
30	0xbd0cbd88	-0.03436044
31	0xbdd05e34	-0.10174218
32	0x3e3e0ced	0.18559618
33	0x3e8636f3	0.26213798
34	0x3e03434c	0.1281864
35	0xbe25fb8d	-0.1620924
36	0x3e60dd30	0.21959376
37	0xbcb96cbd	-0.022634858
38	0x3d8544e8	0.065072834
39	0x3d70640e	0.05868917
40	0xbe2ac6e1	-0.16677429
41	0x3ddb33e1	0.107032545
42	0xbb942f59	-0.004522246
43	0x3e3bce3b	0.1834039
44	0xbe2880eb	-0.16455428
45	0x3cce61a9	0.025193052
46	0x3dd88854	0.105728775
47	0x3d91d982	0.071215644
48	0x3caad8ef	0.020855395
49	0x3d2329da	0.039834835
50	0x3d5bcd0f	0.053662356
51	0xbe151f70	-0.14562774
52	0xbd07c9a1	-0.033151273
53	0x3e2172ce	0.15766451
54	0xbd7e614d	-0.062104512
55	0x3e269450	0.16267514
56	0x3b6f07d9	0.0036473183
57	0x3e3e3c05	0.18577583
58	0xbd7550ab	-0.059891384
59	0xbe2ca32b	-0.16859119
60	0xbd27ed8e	-0.040998034
61	0x3e2373bb	0.15962116
62	0xbce5900e	-0.028022792
63	0xbdeedd9b	-0.11663362
64	0x38aa603a	8.124155e-05
65	0xbe0e4835	-0.13894732
66	0xbe472a52	-0.19449738
67	0x3dfd7489	0.12375743
68	0x3e3b1da1	0.18273021
69	0x3e2d28ff	0.1691017
70	0xbe3032e4	-0.17206913
71	0xbd91ae56	-0.0711333
72	0xbe5f456f	-0.2180383
73	0x3b52b07d	0.0032148652
74	0x3d09728c	0.033556506
75	0xbe58c235	-0.21167834
76	0x3db29db2	0.08721484
77	0xbe1f3965	-0.15549238
78	0xbe1dffaa	-0.1542956
79	0x3d47ca4e	0.048776917
80	0x3d048d9c	0.03236161
81	0xbd32e7d4	-0.04367812
82	0xbde746d9	-0.1129281
83	0x3db72340	0.0894227
84	0xbd4c74fb	-0.04991625
85	0x3e14d84e	0.14535639
86	0x3e64bb57	0.2233709
87	0xbd0f15b4	-0.034932807
88	0x3e455a95	0.19272836
89	0x3e558edc	0.20855278
90	0xbcf15713	-0.029460466
91	0xbdad7dc4	-0.084712535
92	0x3e204c43	0.15654092
93	0xbe047d97	-0.12938534
94	0xbdecdad0	-0.11565173
95	0x3d12eac7	0.035868432
96	0x3df3e5d8	0.119090736
97	0x3e01899a	0.12650147
98	0xbe299831	-0.16561963
99	0xbbdcae26	-0.0067346273
100	0x3adef1c3	0.0017009306
101	0x3c450789	0.012025722
102	0x3e083cfa	0.1330451
103	0x3c8298ac	0.01594194
104	0x3e218a31	0.15775372
105	0x39851d41	0.00025389533
106	0xbcc795df	-0.024363456
107	0xbb1707fd	-0.0023045533
108	0x3e243aa4	0.16037995
109	0x3dd0c819	0.101944156
110	0x3dde3e1a	0.10851689
111	0x3cab7a8b	0.020932456
112	0xbdf07811	-0.11741651
113	0x3e1a9be4	0.1509853
114	0xbd9d01f6	-0.0766639
115	0xbdd95978	-0.10612768
116	0x3e091c26	0.13389644
117	0x3d725fd1	0.05917341
118	0x3e648a50	0.22318387
119	0x3de3b669	0.11118776
120	0x3b9533fe	0.004553317
121	0xbe5f3c5e	-0.21800372
122	0xbe47375e	-0.19454715
123	0x3e7d956c	0.24764031
124	0xbb4e0623	-0.0031436763
125	0x3e60ff2d	0.21972342
126	0x3dc24ba5	0.09487084
127	0x3cb30ee2	0.021857683
128	0xbdc038b1	-0.09385813
129	0xbb01064c	-0.001968759
130	0xbba17ed9	-0.0049284515
131	0x3e01784d	0.12643547
132	0x3c0eb047	0.00870902
133	0xbe054b0f	-0.13016914
134	0xb778eb5c	-1.4836751e-05
135	0x3e9a1e09	0.3010104
136	0x3e240aad	0.16019697
137	0x3d9557ff	0.072921745
138	0x3e038582	0.12843898
139	0x3e2729be	0.16324517
140	0xbb70a0d2	-0.003671695
141	0xbca81113	-0.020515954
142	0x3dca2617	0.09870546
143	0x3dc145fb	0.09437176
144	0x3e718875	0.2358721
145	0x3da58415	0.08081833
146	0x3d17f3c4	0.037097707
147	0x3cb2c7f6	0.021823864
148	0x3e5ac981	0.2136593
149	0x3d0f45f6	0.03497883
150	0x3d7f6520	0.0623523
151	0x3de12564	0.1099346
152	0x3e844f56	0.2584178
153	0x3e37e0b6	0.17956814
154	0x3de287fd	0.11061094
155	0x3cbc952a	0.023020346
156	0x3cd770df	0.026298938
157	0xbc208a21	-0.0097985575
158	0x3da6e37c	0.08148858
159	0x3ebaf844	0.36517537
160	0x3e24fea8	0.16112769
161	0xbe3c1fb4	-0.18371469
162	0x3c8df41d	0.017328316
163	0xbe7b2784	-0.24526793
164	0xbe39a8d2	-0.18130806
165	0x3e628c04	0.22123724
166	0x3e7699ec	0.24082154
167	0x3e79b67b	0.24386017
168	0x3da76088	0.08172709
169	0xbddae7e5	-0.106887616
170	0xbe71da33	-0.23618393
171	0xbda28409	-0.0793534
172	0x3d1049dc	0.035226688
173	0xbc02acba	-0.0079757515
174	0xbd476987	-0.048684623
175	0xbd55a1ab	-0.05215613
176	0x3d6c4877	0.057686295
177	0x3e2fc2df	0.17164181
178	0x3b2fb045	0.0026807946
179	0x3e0fb8f1	0.14035393
180	0x3d8705cc	0.065929025
181	0xbd0c851e	-0.034306638
182	0x3c9a6f59	0.018851923
183	0xbdc9a2d3	-0.098455094
184	0xbe38f101	-0.18060686
185	0xbdae78eb	-0.08519157
186	0x3dbf317a	0.09335609
187	0xbe38000b	-0.17968766
188	0x3dd7bb70	0.10533798
189	0x3d929444	0.07157186
190	0x3e16e62d	0.14736243
191	0xbdb4566a	-0.08805545
192	0xbd0d03a2	-0.034427293
193	0x3e1ae9bd	0.15128227
194	0x3e650678	0.22365749
195	0xbc99c336	-0.018769842
196	0x3e2066cd	0.15664215
197	0xbd905f1a	-0.07049389
198	0x3d4ca235	0.04995938
199	0x3e212e63	0.15740351
200	0xbd859560	-0.06522632
201	0xbdc265bc	-0.094920605
202	0x3ddf5187	0.10904222
203	0xbe1edc5d	-0.1551375
204	0x3d424048	0.047424585
205	0x3d4a74b4	0.049427703
206	0x3dfe4cc0	0.12416983
207	0x3e6bc23f	0.23023318
208	0x3e0cad57	0.13737999
209	0x3e942df1	0.289413
210	0x3e4f7688	0.2026006
211	0xbd58fc2d	-0.05297487
212	0x3d8aa05d	0.06768868
213	0x3e272a9b	0.16324846
214	0x3d2b3002	0.04179383
215	0x3d79ea68	0.061014563
216	0xbd069c12	-0.032863684
217	0x3e5f6686	0.21816453
218	0x3d9079e5	0.070544995
219	0x3a10554b	0.00055058737
220	0xbce1f710	-0.027583629
221	0x3ce37905	0.027767668
222	0x3e31cf64	0.1736427
223	0x3d52ccd6	0.051464878
224	0x3e496de3	0.19670825
225	0xbda0f6c7	-0.07859569
226	0x3e2f2a7c	0.1710605
227	0x3df17a57	0.117909126
228	0x3e2f6e8a	0.17132011
229	0x3e332346	0.17493924
230	0x3da19025	0.078888215
231	0x3e4fd30c	0.20295352
232	0xbe0985ef	-0.13429998
233	0x3d17a267	0.037020113
234	0xbc3a23ac	-0.011361044
235	0x3dcf8a07	0.101337485
236	0xbe059822	-0.13046315
237	0xbd93c35c	-0.07214996
238	0x3c92a939	0.017902957
239	0x3e6938d0	0.22775578
240	0xbd5d0cb4	-0.053967193
241	0xbcd1eb83	-0.025624996
242	0xbb7cbf57	-0.0038566196
243	0xbc829c85	-0.015943775
244	0x3dc35b52	0.09538902
245	0xbdeae80e	-0.11470042
246	0xbddcc88c	-0.10780439
247	0xbe728c63	-0.23686366
248	0xbd858bb2	-0.065207854
249	0x3dbc3ed2	0.091916695
250	0xbd40c6d1	-0.047064606
251	0x3cf3c43a	0.029756654
252	0x3e35235c	0.1768927
253	0x3e6d2a9a	0.23160782
254	0x3dc090a9	0.09402592
255	0x3cfc129e	0.030770596

lstm.weight_hh_l0 f4 [192, 48]
0	0xbe807bd1	-0.25094464
1	0xbe78501a	-0.24249306
2	0xbcab7dbc	-0.020933978
3	0xbe6c2027	-0.2305914
4	0x3e7ec937	0.24881445
5	0xbcf4e456	-0.029894035
6	0xbe2fe271	-0.17176224
7	0xbd14767e	-0.036245815
8	0x3e2486f2	0.16067103
9	0x3da0181b	0.07817098
10	0xbe3f5f16	-0.18688616
11	0x3e9e45ba	0.30912572
12	0x3cceb8be	0.025234576
13	0x3e288a52	0.16459015
14	0xbe0a159c	-0.13484806
15	0xbc5a4a0e	-0.01332332
16	0x3dd015c3	0.10160401
17	0xbae6deb8	-0.0017613983
18	0x3c86c9f5	0.016453722
19	0x3d8df072	0.06930627
20	0xbcf44651	-0.029818686
21	0xbc70f616	-0.014707109
22	0x3da732e5	0.08164004
23	0xbd6923d4	-0.056918934
24	0xbdc67e47	-0.09692054
25	0x3dd7ab0a	0.1053067
26	0x3dc28aa2	0.09499098
27	0x3ca38d16	0.019964736
28	0xbe0e2631	-0.13881756
29	0x3e094918	0.1340679
30	0x3e2f0143	0.17090325
31	0xbd031f0e	-0.032012038
32	0x3e1d31d2	0.15351036
33	0x3d5422c8	0.051790982
34	0xbe7f33c2	-0.24922088
35	0xbe25b682	-0.16182902
36	0x3d496633	0.04916973
37	0xbd700399	-0.05859718
38	0x3e6dba57	0.23215614
39	0x3dc12f81	0.09432889
40	0xbdabe74b	-0.08393725
41	0xbd80832d	-0.0627502
42	0x3ea52fb4	0.32262957
43	0xbde5ec8a	-0.11226757
44	0xbe796d74	-0.2435816
45	0x3e30196f	0.17197202
46	0xbd1bc98a	-0.038034
47	0xbe21a6bd	-0.15786262
48	0xbdb24ecf	-0.08706438
49	0xbd7b525c	-0.06135784
50	0x3d0092de	0.031390063
51	0xbe454234	-0.19263536
52	0x3e0b1c16	0.13584933
53	0x3d745085	0.059647102
54	0xbae4cd0b	-0.0017456127
55	0xbdb3bfca	-0.08776815
56	0x3e80451c	0.25052726
57	0x3d40a644	0.047033563
58	0xbe56adfc	-0.20964807
59	0x3e29d6f6	0.16585907
60	0xbd8c8af6	-0.06862442
61	0x3d93f6ce	0.07224809
62	0xbdf448bb	-0.11927935
63	0x3e27e6d5	0.16396649
64	0x3d009516	0.03139218
65	0xbdcb797e	-0.09935282
66	0xbdc46538	-0.095896184
67	0xbddd8964	-0.10817221
68	0xbe141b1c	-0.14463466
69	0x3e007dbe	0.12547967
70	0x3bb1f19d	0.005430414
71	0x3d138058	0.03601107
72	0xbd2a17ac	-0.04152648
73	0xbd3b48cf	-0.045723733
74	0x3e04052c	0.12892598
75	0x3d34a9b6	0.04410716
76	0xbd65318c	-0.055955455
77	0xbe71e302	-0.23621753
78	0xbd1df191	-0.038560454
79	0xbd58dbf2	-0.05294413
80	0x3e269436	0.16267475
81	0xbe17312d	-0.14764853
82	0xbde008fa	-0.10939212
83	0xbe55a191	-0.20862414
84	0xbe72dd23	-0.2371717
85	0xbdfb8449	-0.12281091
86	0x3e6a4fa4	0.22881943
87	0xbce4ef41	-0.027946116
88	0xbe482399	-0.1954483
89	0xbd1400ea	-0.036133684
90	0x3d8df0aa	0.06930669
91	0xbeb737da	-0.357848
92	0xbe4ed95d	-0.20200105
93	0x3e64101d	0.22271772
94	0xbd484a13	-0.048898768
95	0xbc8fb534	-0.01754246
96	0xbda10c7e	-0.07863711
97	0xbe7a2795	-0.24429162
98	0x3eb066b9	0.3445337
99	0xbda9cea1	-0.082913645
100	0x3e1a36e4	0.15060002
101	0x3dce3c7a	0.10070129
102	0xbd9e6267	-0.077336125
103	0xbd952c5f	-0.07283854
104	0x3dceb5e9	0.1009329
105	0xbe359fa7	-0.17736684
106	0xbe84dac4	-0.25948155
107	0x3e216154	0.15759784
108	0xbcf156b8	-0.029460296
109	0x3db70c9c	0.08937952
110	0xbe46ced8	-0.19414842
111	0x3dd2b813	0.102890156
112	0x3e0991cb	0.13434522
113	0x3b9d0778	0.00479215
114	0x3a08150c	0.00051911245
115	0xbd2cc011	-0.042175356
116	0xbd2ac8a0	-0.041695237
117	0x3e08d58d	0.13362713
118	0x3e276cea	0.16350141
119	0x3e1e92de	0.15485713
120	0xbd6dc1fc	-0.058046326
121	0x3db12691	0.08649934
122	0xbdbee257	-0.09320515
123	0x3d2fcc64	0.04291953
124	0x3cf5705f	0.02996081
125	0x3d469926	0.048485897
126	0xbe00b61b	-0.12569468
127	0x3d6204ea	0.055180468
128	0x3da44fb0	0.08023012
129	0x3e03d9ab	0.12876002
130	0x3c92f6f5	0.017940024
131	0xbdcf4cf3	-0.10122099
132	0xbb90f865	-0.004424142
133	0xbe9b7b71	-0.30367616
134	0x3e6af294	0.22944099
135	0x3e23d757	0.16000114
136	0xbe1bf36c	-0.15229577
137	0x3ded255c	0.11579391
138	0xbbccee98	-0.0062540285
139	0xbead8ac0	-0.3389492
140	0xbde67bbf	-0.112540714
141	0x3e376df1	0.17913033
142	0xbd8f2218	-0.06988925
143	0x3d047450	0.032337487
144	0xbe9766ce	-0.2957062
145	0x3bd6b9d6	0.006552915
146	0x3e6599bb	0.22421925
147	0xbe70f2e0	-0.2353015
148	0x3e868bd8	0.26278567
149	0x3e344475	0.1760424
150	0xbe21ee8d	-0.15813656
151	0xbe702877	-0.23452936
152	0x3da91caa	0.0825742
153	0xbda49e97	-0.08038061
154	0xbdfa7141	-0.12228633
155	0x3ec8e22c	0.39235055
156	0xbe6218a7	-0.22079717
157	0x3e492f90	0.1964705
158	0xbe121e65	-0.14269407
159	0x3e891530	0.26773977
160	0x3e3dcece	0.18535921
161	0xbdfde2ee	-0.12396799
162	0xbe16f90d	-0.14743443
163	0x3d8d3c17	0.06896227
164	0xbdb259a8	-0.08708507
165	0x3e130734	0.14358217
166	0x3eb4be41	0.35301402
167	0x3d46af09	0.04850677
168	0xbe36a4d6	-0.17836317
169	0x3e0f9782	0.1402264
170	0x3e65224a	0.22376361
171	0x3d806208	0.06268698
172	0xbcf48176	-0.029846888
173	0xbe2e7132	-0.17035368
174	0x3e333899	0.17502059
175	0x3ea9c929	0.33161286
176	0x3e8e5053	0.27795658
177	0xbca2d454	-0.019876637
178	0xbdc7c4c5	-0.09754328
179	0xbdc8c090	-0.098023534
180	0xbe3712e9	-0.17878307
181	0xbe79afb8	-0.24383438
182	0x3e367724	0.17818886
183	0x3e5c59d4	0.21518642
184	0xbe560ccd	-0.2090332
185	0xbe947a04	-0.2899934
186	0x3ea91740	0.3302555
187	0xbc20fb97	-0.009825609
188	0xbe4decc4	-0.2010985
189	0x3ed3530d	0.412743
190	0xbddfe1ce	-0.10931741
191	0xbe241390	-0.16023088
192	0xbec47ec2	-0.3837796
193	0xbe544a2e	-0.20731422
194	0x3e57f363	0.21088938
195	0xbeac7036	-0.3367936
196	0x3e771fc6	0.24133214
197	0x3cbdd5e4	0.02317328
198	0xbe5379ba	-0.20651904
199	0x3be9e18f	0.0071374844
200	0x3e47733f	0.19477557
201	0x3d09e5c5	0.03366639
202	0xbdfd1aa2	-0.123585954
203	0x3e26e639	0.1629876
204	0x3c280b3b	0.010256584
205	0x3edda7b7	0.4329202
206	0xbe7c57a1	-0.24642803
207	0xbbe89c61	-0.00709872
208	0x3ea5a9f1	0.32356218
209	0xbcc9d1b6	-0.02463613
210	0xbdddbd26	-0.10827093
211	0x3e2744a9	0.16334786
212	0xbdacd354	-0.08438745
213	0x3dcdf6e1	0.10056854
214	0x3e5d27ed	0.21597262
215	0xbdc01acd	-0.09380112
216	0xbe445c5f	-0.19175862
217	0x3d2cb158	0.042161316
218	0x3d79a3b5	0.06094714
219	0x3e934e2b	0.28770575
220	0xbd67a666	-0.056555174
221	0x3d4065f5	0.046972234
222	0x3c0301e8	0.00799606
223	0x3d03ae91	0.0321489
224	0x3e7e143d	0.24812408
225	0xbda34f32	-0.0797409
226	0xbe49d556	-0.19710287
227	0xbe924fae	-0.28576416
228	0xbe9601da	-0.29298288
229	0xbec565a9	-0.38554123
230	0x3dc89dfa	0.09795757
231	0x3e1d03f1	0.15333535
232	0xbe002e47	-0.12517653
233	0x3cd6ae5b	0.026206186
234	0x3eb07f6e	0.3447222
235	0xbe17f8de	-0.14841029
236	0xbebb88fb	-0.36627945
237	0x3e8caa19	0.27473524
238	0x3dac5c88	0.084160864
239	0xbe034ea5	-0.1282297
240	0xbe1c1ac9	-0.15244593
241	0xbda9e38b	-0.082953535
242	0xbd152b11	-0.036418024
243	0xbe761581	-0.2403164
244	0x3e8317b5	0.25604025
245	0xbe793be5	-0.24339254
246	0xbbb27d18	-0.0054470412
247	0xbe66a624	-0.22524315
248	0x3e2364dc	0.15956444
249	0xbe17bbd9	-0.14817752
250	0xbd1e654e	-0.03867083
251	0x3e732929	0.2374617
252	0x3d8eb822	0.06968714
253	0x3da6eff9	0.0815124
254	0xbe4b69c3	-0.19864564
255	0x3e29775b	0.16549437

lstm.bias_ih_l0 f4 [192]
0	0x3da30dd9	0.079616256
1	0x3def5bbf	0.11687421
2	0x3e2fc64f	0.17165492
3	0x3e1a0f9c	0.15045017
4	0x3db3f231	0.08786429
5	0x3dd6a3d8	0.104804695
6	0x3d311ed3	0.043242287
7	0x3e708cdc	0.23491234
8	0x3e42ad30	0.19011378
9	0x3e42bf23	0.19018225
10	0xbca88d99	-0.020575332
11	0x3d925cbb	0.07146593
12	0x3e515fc4	0.20446688
13	0x3de8dcdb	0.1137025
14	0x3e30547c	0.17219728
15	0x3e1efcf4	0.15526181
16	0x3cf44ea5	0.029822657
17	0x3e2dbd8c	0.16966838
18	0x3e4b09ab	0.19827907
19	0x3debcf77	0.1151418
20	0x3e7ac7f1	0.24490334
21	0x3cf8f573	0.030390477
22	0x3dd1a0c2	0.1023574
23	0x3c5e362e	0.013562722
24	0x3db53032	0.08847083
25	0x3c485a33	0.012228536
26	0xbdd2c288	-0.1029101
27	0x3dba4b4d	0.09096394
28	0xbabca6c6	-0.0014392964
29	0x3e915ca9	0.28391007
30	0xbb2d6584	-0.0026458213
31	0xbd838ae1	-0.064229734
32	0x3e584dc1	0.21123411
33	0x3dcbf9bc	0.099597424
34	0xbc692266	-0.014229393
35	0x3c490e0b	0.0122714145
36	0x3d35a5b4	0.04434748
37	0x3da16345	0.07880262
38	0xbcefe024	-0.029281683
39	0x3d28c286	0.041201137
40	0x3d1022f1	0.035189573
41	0x3d857dd0	0.065181375
42	0x3d6a6c20	0.057232022
43	0x3d967f5e	0.07348512
44	0x3d6aa5ed	0.057287145
45	0xbd8017be	-0.062545285
46	0x3de093cb	0.10965689
47	0x3dd9d0f3	0.10635557
48	0x3e02b795	0.12765343
49	0x3b785d59	0.0037897436
50	0xbda6aad8	-0.081380546
51	0x3de3f911	0.1113149
52	0x3e1035a8	0.14082968
53	0x3d1cfec5	0.038328905
54	0xbcb862db	-0.022508075
55	0x3e6f506b	0.23370521
56	0x3e10b19c	0.14130253
57	0x3db1129d	0.08646128
58	0x3e29ec7b	0.16594116
59	0xbd1f8f13	-0.038954806
60	0x3e15f7a5	0.1464525
61	0x3cd5f1ef	0.02611634
62	0x3d957dba	0.07299371
63	0x3daa2439	0.0830769
64	0x3d743f7d	0.05963086
65	0xbd2462a3	-0.04013313
66	0x3e1a05ac	0.15041226
67	0xbcd92ed2	-0.026511583
68	0x3e170a52	0.1475003
69	0x3c44c6f6	0.012010327
70	0xbd04fa19	-0.032465074
71	0x3d7eadf0	0.0621776
72	0xbcd52091	-0.026016505
73	0x3d7d7122	0.06187547
74	0x3ae841c4	0.0017719795
75	0x3df9fd45	0.122065105
76	0xbe1b6e60	-0.15178823
77	0xbd25c926	-0.040475033
78	0x3e2229d7	0.15836273
79	0xbc7817b1	-0.015142367
80	0xbd92f901	-0.071764
81	0xbd94aafd	-0.07259176
82	0x3e20376a	0.15646139
83	0x3dbe3b28	0.09288627
84	0x3dffdb0a	0.1249295
85	0xbd158116	-0.03650006
86	0x3df67e25	0.12035779
87	0x3e32720f	0.17426322
88	0xbd9ac7b3	-0.07557621
89	0xbcde2be3	-0.027120536
90	0x3d5f77b2	0.05455751
91	0x3e8bd785	0.27312866
92	0x3d413146	0.04716613
93	0x3e07ff66	0.1328102
94	0x3d4cd760	0.050010085
95	0x3d92e114	0.071718365
96	0x3b61b353	0.003443916
97	0xbc422dd1	-0.011851744
98	0x3de2af3e	0.11068581
99	0x3e11c765	0.14236219
100	0xbd6e2531	-0.058140937
101	0x3cf0fa3d	0.029416198
102	0x3dba0bc5	0.09084276
103	0xbe8a098d	-0.26960412
104	0xbcc31411	-0.02381328
105	0xbe0ca3df	-0.13734387
106	0x3de28c0f	0.1106187
107	0x3d96ad87	0.073573165
108	0xbdd733d3	-0.105079316
109	0xbda6b30d	-0.0813962
110	0xbe0407a0	-0.12893534
111	0xbd3e4294	-0.046450213
112	0xbaed7cf7	-0.0018118907
113	0x3cadddd4	0.02122394
114	0xbc64d389	-0.01396645
115	0x3dfa2609	0.12214286
116	0x3dce9e37	0.10088771
117	0x3d4395f6	0.047750436
118	0x3e0e3818	0.13888586
119	0x3e19cdf4	0.15019971
120	0x3cd369c5	0.02580727
121	0xbcba8112	-0.022766624
122	0xbd5b786e	-0.053581648
123	0xbd48c629	-0.049017105
124	0xbd5dc531	-0.054143135
125	0xbdd95758	-0.106123626
126	0x3dfa0908	0.12208754
127	0x3e14e854	0.14541751
128	0xbddc56cc	-0.10758743
129	0xbd2bb19d	-0.041917432
130	0x3d683818	0.05669412
131	0xbbe1c322	-0.0068897167
132	0x3baa114a	0.0051900493
133	0xbd58cfd9	-0.052932594
134	0xbe02b6a2	-0.12764981
135	0xbd55f48a	-0.052235164
136	0xbd9f498e	-0.07777701
137	0x3d8d7190	0.06906426
138	0xbde213e9	-0.11038954
139	0x3d98172b	0.07426294
140	0x3e1e322c	0.15448827
141	0xbd00d5ce	-0.0314539
142	0xbcd70046	-0.026245248
143	0xbd135409	-0.035968814
144	0x3ded192d	0.115770675
145	0x3dacb817	0.0843355
146	0x3bc8d634	0.0061290506
147	0x3e9738c0	0.29535484
148	0x3e97b699	0.29631498
149	0x3e59fa9d	0.21287008
150	0x3e316ebb	0.17327397
151	0x3d327e34	0.043577388
152	0x3d955082	0.07290746
153	0x3e4c7ca0	0.19969416
154	0x3e9adb6c	0.3024553
155	0xbcbe01b4	-0.023194171
156	0x3cd8cb85	0.026464233
157	0x39709d31	0.00022946742
158	0x3c80e17b	0.015732517
159	0x3cdbce3b	0.026831737
160	0x3d49b41a	0.049244024
161	0x3d89f7b0	0.06736696
162	0xbc919b52	-0.017774258
163	0x3d50cbd0	0.05097562
164	0x3dba17eb	0.09086593
165	0x3c61d793	0.013784307
166	0x3d7845cc	0.06061344
167	0x3df46e96	0.11935155
168	0x3df842da	0.12122126
169	0x3e5cf41a	0.21577492
170	0x3d547557	0.051869716
171	0x3dbf0e67	0.09328919
172	0xbcd5298e	-0.026020791
173	0x3cdee3db	0.02720826
174	0x3e283781	0.16427423
175	0x3c9188e4	0.01776547
176	0x3b974ee8	0.0046175607
177	0x3e2ee165	0.17078169
178	0x3df9eb92	0.122031346
179	0x3c968bc7	0.018377198
180	0xbb0b18ef	-0.0021224578
181	0xbcc75076	-0.024330359
182	0x3d020990	0.0317474
183	0x3e127a80	0.14304543
184	0x3dc433d1	0.09580196
185	0x3dd8a88c	0.10579023
186	0x3e43aa98	0.19108045
187	0x3eac2fc7	0.336302
188	0x3e4f62ff	0.20252608
189	0xbc7baac7	-0.015360541
190	0x3e43fa25	0.19138391
191	0x3dfe8c44	0.12429097

lstm.bias_hh_l0 f4 [192]
0	0x3deaf4fe	0.1147251
1	0x3d829eb7	0.06377929
2	0x3de4a0b0	0.11163461
3	0x3e56c977	0.2097529
4	0x3e190344	0.14942652
5	0x3e1aca39	0.15116204
6	0x3e32c7ab	0.1745898
7	0x3e06c663	0.13161616
8	0x3d79da7d	0.060999382
9	0x3e2c1d37	0.1680802
10	0x3e343f85	0.17602356
11	0x3e1f034f	0.15528606
12	0x3d9e65d4	0.07734266
13	0x3e4fbed7	0.20287643
14	0x3d99646b	0.07489856
15	0x3da17983	0.07884505
16	0x3e10e709	0.14150633
17	0x3e10a2f8	0.14124668
18	0x3cc1b318	0.023644969
19	0x3d7a713c	0.061143145
20	0x3c702137	0.014656357
21	0x3e27c8f9	0.16385259
22	0x3e43e2c3	0.19129471
23	0x3dc0e94d	0.094194986
24	0xbd52a0ae	-0.051422767
25	0xbc53db65	-0.012930726
26	0xbddbb3c5	-0.10727648
27	0xbd1e9b4f	-0.038722333
28	0x3e10b85f	0.14132832
29	0x3e4f4eba	0.20244876
30	0x3e31c11f	0.17358826
31	0x3d67888e	0.056526713
32	0x3d0bd9ba	0.034143187
33	0x3d7a0723	0.061041962
34	0x3e6a14c4	0.22859484
35	0xbd9cbb0d	-0.076528646
36	0x3c99ba53	0.018765604
37	0xbca7e9e7	-0.020497276
38	0xbcebc6d5	-0.028781334
39	0x3dd99fda	0.106261924
40	0x3dc1882e	0.09449802
41	0x3e1b4c41	0.15165807
42	0x3dd022f5	0.101629175
43	0x3c525426	0.012837445
44	0xbb3f69f2	-0.0029207435
45	0xbd8e2ceb	-0.06942161
46	0x3d5aeccf	0.053448495
47	0x3c058460	0.008149236
48	0xbd81a1c7	-0.06329685
49	0x3c9a4871	0.01883337
50	0x3e11bb9a	0.1423172
51	0xbe113447	-0.14180098
52	0x3d228f66	0.039687537
53	0xbd0a5c6c	-0.033779547
54	0xbb4bb247	-0.0031081603
55	0x3dd3ac95	0.10335652
56	0x3df7122f	0.12064015
57	0x3d6c6f63	0.057723414
58	0x3e52dc2f	0.20591806
59	0x3cb4746f	0.022028176
60	0x3b18b479	0.002330093
61	0x3da347ef	0.079727046
62	0x3e2ff852	0.1718457
63	0x3e4b5720	0.19857454
64	0x3d5b194b	0.053490918
65	0x3c15feb7	0.009154967
66	0x3e048272	0.12940386
67	0x3e1e745c	0.15474075
68	0x3d0fc1f4	0.035097077
69	0xbd7d3ca6	-0.061825417
70	0x3e3a2fbf	0.18182276
71	0xbc90c469	-0.01767178
72	0x3db67b3a	0.08910222
73	0x3c5cf7ed	0.0134868445
74	0x3d2d9a28	0.042383343
75	0xbda1774f	-0.078840844
76	0xbd5ae2ad	-0.05343883
77	0xbc9e2a80	-0.019307375
78	0x3d9dee9d	0.077115275
79	0xbca154dc	-0.019693784
80	0x3e046645	0.12929638
81	0xbcbb8bfe	-0.022893902
82	0x3dca9200	0.098911285
83	0x3e090e5e	0.13384387
84	0x3dae9476	0.085244104
85	0xbd3baedc	-0.045821056
86	0x3b6d305d	0.0036192157
87	0xbdd0c985	-0.10194687
88	0x3d680161	0.05664194
89	0xbd948aa8	-0.07253009
90	0x3e209d72	0.1568506
91	0x3c8c5f31	0.017135235
92	0x3e2f2b21	0.17106296
93	0x3dbddf8f	0.09271156
94	0x3e023d76	0.12718758
95	0xbc6b4e51	-0.014361934
96	0xbc8467a8	-0.016162708
97	0x3cc2bb0e	0.023770835
98	0x3ca4bda4	0.020109959
99	0x3d60b0a8	0.054855973
100	0x3ddb29b1	0.107013114
101	0xbc7daa71	-0.015482531
102	0xbdf7fe28	-0.12109023
103	0xbe1f31b0	-0.15546298
104	0x3e07e76d	0.13271876
105	0xbe15ee0b	-0.14641587
106	0x3e17b68f	0.14815734
107	0x3d943921	0.07237459
108	0xbddcb7c8	-0.10777241
109	0xbd6491bd	-0.05580305
110	0xba6284fd	-0.00086410326
111	0x3e5c7865	0.21530302
112	0xbe0717a2	-0.13192609
113	0x3dda7441	0.10666705
114	0xbddcbe58	-0.10778493
115	0xbddc9b99	-0.107718654
116	0x3dbe8ea3	0.093045495
117	0x3d36b83f	0.044609305
118	0xbe03b2b1	-0.12861134
119	0x3da4d378	0.08048147
120	0x3d6c7ded	0.05773728
121	0x3d6b5880	0.057457447
122	0x3d821cc9	0.063531466
123	0x3d84637a	0.06464286
124	0xba90041c	-0.0010987553
125	0xbe165846	-0.14682111
126	0x3dbc4104	0.09192088
127	0x3e23011e	0.15918395
128	0x3dba43cc	0.090949625
129	0x3d217486	0.039417766
130	0x3d286f20	0.041121602
131	0x3e1ca0cb	0.15295713
132	0xbdfd92b4	-0.12381497
133	0xbdbf626a	-0.09344943
134	0xbd80ed7b	-0.06295296
135	0x3dc03f22	0.09387042
136	0xbd190bbd	-0.03736471
137	0x3d4b54d9	0.049641464
138	0xbdf27018	-0.118377864
139	0x3db42c73	0.087975405
140	0x3dbcb0a2	0.092133775
141	0xbd00d2a9	-0.0314509
142	0xbd4043d7	-0.046939697
143	0x3dc938f5	0.09825317
144	0x3ddd9e25	0.10821179
145	0xbca9da24	-0.0207339
146	0x3b92b868	0.0044775493
147	0x3e41ed6d	0.18938227
148	0x3e778f1a	0.24175683
149	0xbc1f1cb2	-0.009711431
150	0x3e4aa593	0.19789724
151	0x3e6a0adc	0.22855705
152	0x3d402d68	0.046918303
153	0x3e78c18f	0.24292587
154	0x3e983a32	0.297319
155	0x3de3b582	0.11118604
156	0x3e4e3189	0.20136084
157	0x3d9c70da	0.07638712
158	0x3df0dd15	0.11760918
159	0x3d487069	0.048935328
160	0x3d270dd5	0.040784676
161	0x3e183892	0.1486533
162	0x3d87719f	0.066134684
163	0xbc151b4e	-0.009100748
164	0xbd97de26	-0.07415418
165	0x3cd205dd	0.025637561
166	0x3e19e761	0.1502967
167	0x3cd4cf60	0.02597779
168	0x3df6729e	0.1203358
169	0xbc7290fb	-0.014805074
170	0x3e688c9c	0.22709888
171	0xbd6e1c65	-0.058132548
172	0x3e65aeb2	0.22429922
173	0x3e521470	0.20515609
174	0xbd79f6dc	-0.06102644
175	0x3db10148	0.086428225
176	0x3c4fd2aa	0.012684504
177	0x3e026251	0.12732817
178	0x3dfcbc18	0.123405635
179	0xbd9eda49	-0.07756478
180	0x3d62ee68	0.055403143
181	0x3e1a9bbd	0.15098472
182	0x3e3b8bcd	0.18315049
183	0x3dd5e998	0.10444945
184	0x3db2aa82	0.08723928
185	0x3e132257	0.14368568
186	0x3e2722de	0.16321895
187	0x3e8ccf73	0.2750202
188	0x3d879ab7	0.066213064
189	0x3dd64bdd	0.104636885
190	0x3e3c7026	0.18402156
191	0x3e3fa478	0.18715084

mlp.0.weight f4 [256, 54]
0	0xbdd9f019	-0.10641498
1	0xbd67fbd5	-0.05663665
2	0x3d7529f9	0.05985448
3	0x3c91ef04	0.017814167
4	0x3cde76e4	0.0271563
5	0xbe102cc9	-0.14079584
6	0xbe2ceb92	-0.16886738
7	0x3dc9f95d	0.098620154
8	0x3d7353a4	0.059405938
9	0xbd767fdd	-0.060180534
10	0x3e2dc689	0.16970266
11	0x3c0d0926	0.008608138
12	0xbe18e481	-0.14930917
13	0x3ddd2dc4	0.10799745
14	0x3e04c707	0.12966548
15	0x3d10fb74	0.035396054
16	0x3ba8031b	0.0051273233
17	0xbbc09300	-0.0058768988
18	0xbdfb7da9	-0.12279827
19	0xbd9434c3	-0.07236626
20	0xbdc39f54	-0.09551874
21	0xbe19a29a	-0.15003434
22	0x3d1dde0f	0.03854185
23	0xbd855186	-0.0650969
24	0xbc15f350	-0.0091522485
25	0xbda2eca9	-0.079552956
26	0xbe1a35ac	-0.15059537
27	0x3c1ca84c	0.0095616095
28	0x3dcbaa83	0.09944632
29	0xbdd39c85	-0.10332588
30	0xbe0e4c04	-0.13896185
31	0xbe01e5ea	-0.12685362
32	0x3daad3d9	0.08341188
33	0x3d618a61	0.05506361
34	0x3dcb1fed	0.09918199
35	0xbe656102	-0.22400287
36	0x3dfed54c	0.12443027
37	0x3ded2631	0.1157955
38	0x3e1c43df	0.15260266
39	0x3c3d4f99	0.011554622
40	0xbd0176ea	-0.031607546
41	0x3d68ea37	0.05686399
42	0xbddd0225	-0.10791425
43	0x3d1b895e	0.0379728
44	0x3dc0bbc0	0.094108105
45	0xbd4dfee6	-0.05029192
46	0x3d9728ae	0.07380806
47	0xbe3eb78a	-0.18624702
48	0x3bed7803	0.0072469725
49	0xbe2be984	-0.16788298
50	0xbca3767e	-0.019953962
51	0xbcf3c495	-0.029756824
52	0xbb59b3eb	-0.0033218812
53	0xbd63f1ab	-0.055650394
54	0x3b15d226	0.0022860854
55	0x3d9d1705	0.07670406
56	0x3d4bfc75	0.04980131
57	0x3cab811f	0.020935593
58	0x3c0b970e	0.008519901
59	0x3aadc067	0.0013256193
60	0xbdc15f82	-0.09442045
61	0x3d8bbcbc	0.068231076
62	0x3ddcd693	0.10783114
63	0xbe3ce2bf	-0.18445872
64	0x3adebba1	0.0016993174
65	0xbb2127a0	-0.0024590269
66	0x3c15442e	0.009110494
67	0xbcaf5af5	-0.021405676
68	0xbd4774ed	-0.048695493
69	0x3e24f034	0.16107255
70	0x3bf59453	0.0074944883
71	0x3d82a3f8	0.06378931
72	0xbbde0c26	-0.0067763506
73	0x3d310b99	0.04322395
74	0x3d778a24	0.060434476
75	0xbe3419ac	-0.17587918
76	0xbd73f340	-0.059558153
77	0xbd7f1e70	-0.062284887
78	0xbb0ffdd4	-0.0021971362
79	0x3dfd13dd	0.12357304
80	0x3d54e766	0.05197849
81	0x3e098fd1	0.13433768
82	0xbc2ea4e4	-0.01065943
83	0x3bf8ab95	0.0075888135
84	0xbc893aab	-0.016751608
85	0xbd76d81f	-0.060264703
86	0x3ce76a02	0.02824879
87	0x3d08ad45	0.033368368
88	0xbdcabcca	-0.0989929
89	0x3ceb95b2	0.028757904
90	0x394ce37a	0.00019539698
91	0xbdc3d19c	-0.09561464
92	0x3e2d8b16	0.16947588
93	0xbc9affc0	-0.01892078
94	0xbca596bd	-0.02021348
95	0x3c38be7d	0.011275885
96	0x3e0ac842	0.13552955
97	0xbd8ac0a3	-0.06775024
98	0x3e20f2f7	0.15717684
99	0x3e118862	0.14212182
100	0xbd89f7ad	-0.067366935
101	0xbd9d0389	-0.0766669
102	0x3d295672	0.041342206
103	0xbd97eb88	-0.07417971
104	0xbe03ba78	-0.12864101
105	0x3ddefc5a	0.10887976
106	0x3cd89706	0.026439201
107	0x3da329c9	0.07966954
108	0x3d5603e8	0.05224982
109	0x3d68c7ab	0.056831043
110	0xbd61a76e	-0.055091314
111	0x3de41e93	0.11138644
112	0x3af7876e	0.0018884966
113	0x3dc777b0	0.097396255
114	0x3cea8784	0.028629072
115	0xbc51056d	-0.012757641
116	0xbd9ba5b9	-0.075999685
117	0xbe185a94	-0.14878303
118	0xbd4091fe	-0.04701423
119	0x3dd8c5f8	0.105846345
120	0xbdc3d3d0	-0.095618844
121	0x3e00e1c6	0.12586126
122	0xbdda6904	-0.106645614
123	0xbdd13afd	-0.10216329
124	0xbe054fa9	-0.13018669
125	0x3db62b4f	0.08894979
126	0x3cbb5390	0.022866994
127	0x3d987b99	0.074454494
128	0x3db8aa8c	0.09016904
129	0xbdc02052	-0.093811646
130	0x3dce3470	0.100685954
131	0xbdc8c0f0	-0.09802425
132	0xbb886740	-0.004162699
133	0x3c121c59	0.008917891
134	0x3d60dbf8	0.05489728
135	0xbdd7c537	-0.105356626
136	0x3dbc6530	0.091989875
137	0xbdc390b3	-0.095490836
138	0xbd7bef28	-0.061507374
139	0xbd6ed6c8	-0.0583103
140	0x3d907b19	0.07054729
141	0x3e16169b	0.14657061
142	0x3da0d199	0.078524776
143	0xbe20d93b	-0.15707867
144	0x3e2f5030	0.17120433
145	0xbdec366f	-0.1153382
146	0xbbab31e3	-0.005224453
147	0x3dcdc8e2	0.10048081
148	0x3c5b5146	0.013386076
149	0x3d4f7a1a	0.050653554
150	0xbc5e1005	-0.013553624
151	0x3cc9e2f7	0.024644358
152	0x3a858b40	0.0010188594
153	0xbda08c4e	-0.07839261
154	0xbe158d06	-0.14604577
155	0x3df6f04b	0.12057551
156	0x3d9c6de3	0.07638147
157	0xbdb080af	-0.086182944
158	0xbe3f83d0	-0.18702626
159	0x3d9ad5de	0.07560323
160	0x3d859de1	0.06524254
161	0xbdd0eb97	-0.10201185
162	0x3e208477	0.15675531
163	0x3df31b88	0.118704855
164	0x3d16bc54	0.036800697
165	0x3d8e7d54	0.06957498
166	0xbde92616	-0.113842174
167	0x3ce8c087	0.028412117
168	0xbcee3da8	-0.029082134
169	0xbd314530	-0.043278873
170	0x3d654008	0.055969268
171	0xbcb722e4	-0.022355504
172	0x3dd88294	0.10571781
173	0xbde1d3b0	-0.11026704
174	0x3d49e0a2	0.049286492
175	0xbdae1c8b	-0.08501538
176	0x3e03d6a9	0.12874855
177	0xbd181abf	-0.037134882
178	0xbd811251	-0.06302322
179	0xbdbbc116	-0.091676876
180	0x3d56b3f9	0.05241773
181	0xbcaf2a69	-0.021382527
182	0x3e047cf2	0.12938288
183	0xbc83bb25	-0.016080448
184	0xbc0e9bc2	-0.008704128
185	0x3d1de12f	0.03854483
186	0xbcf359b7	-0.029705865
187	0x3bada0e8	0.0052987225
188	0x3d88f36f	0.06687056
189	0xbde8986e	-0.11357199
190	0xbd1f78a5	-0.038933415
191	0x3d7c20af	0.061554607
192	0x3d33526d	0.04377978
193	0x3d1f6a7c	0.03891991
194	0xbd974702	-0.073865905
195	0xbcdab250	-0.026696354
196	0xbe125958	-0.14291894
197	0xbdee8033	-0.11645546
198	0x3d9533cc	0.0728527
199	0xbe1c59fd	-0.15268703
200	0x3d688f17	0.056777086
201	0xbcfae76a	-0.030627925
202	0x3d3f68b5	0.046730716
203	0xbce075f9	-0.027400004
204	0x3c3ac49f	0.011399417
205	0xbd97ce89	-0.0741244
206	0xbca938db	-0.020656994
207	0x3e10aac9	0.1412765
208	0x3db54a39	0.088520475
209	0x3d5d11ca	0.053972043
210	0x3db099c6	0.0862308
211	0xbd10a3a8	-0.035312325
212	0x3b8b0490	0.0042424873
213	0xbe0fadef	-0.14031194
214	0x3d6b43ad	0.057437588
215	0x3d455291	0.048174445
216	0xbe09d53d	-0.1346025
217	0x3c186127	0.009300507
218	0x3c7b5e2f	0.015342279
219	0xbddeab91	-0.108725674
220	0xbd5e87f4	-0.054328874
221	0x3d7b13d7	0.061298218
222	0xbe3529ff	-0.17691801
223	0xbc474e2f	-0.0121646365
224	0x3e124428	0.14283812
225	0xbddf15e5	-0.10892848
226	0x3caa01d6	0.020752829
227	0xbd0542ca	-0.0325344
228	0xbd1b3c66	-0.037899397
229	0xbe4e1d38	-0.20128334
230	0xbdcafb67	-0.099112324
231	0xbd57d758	-0.052695602
232	0x3c82a863	0.015949434
233	0xbda33f98	-0.07971114
234	0xbdc4e9ac	-0.09614882
235	0x3e4f4cf3	0.20244198
236	0xbdd636a9	-0.10459644
237	0x3e334b4f	0.17509197
238	0x3daf5c37	0.085625105
239	0x3d9a00a3	0.07519653
240	0x3b709ac0	0.0036713332
241	0x3d585d65	0.052823443
242	0x3ce7561e	0.028239306
243	0x3e2f8d30	0.17143703
244	0x3e2d1d4d	0.16905709
245	0x3e6bcf51	0.23028304
246	0x3d320a57	0.043466892
247	0x3d6a2349	0.057162557
248	0x3b34d004	0.0027589807
249	0x3de80caa	0.113305405
250	0x3e467ecc	0.19384307
251	0x384262ba	4.634515e-05
252	0x3ac4a875	0.0015003817
253	0x3d8fd183	0.07022383
254	0xbd2c98fd	-0.04213809
255	0x3e042745	0.12905605

mlp.0.bias f4 [256]
0	0x3db3ea62	0.08784939
1	0xbdd461ee	-0.10370241
2	0xbe1c5317	-0.15266071
3	0xbd6267bf	-0.05527472
4	0xbc828212	-0.015931163
5	0x3e07bc17	0.13255344
6	0xbd24ccf7	-0.040234532
7	0x3dcc7366	0.09982948
8	0x3d0c2035	0.034210403
9	0xbd496ee7	-0.04917803
10	0x3d6305e6	0.055425547
11	0x3e045023	0.12921195
12	0xbdae8b1e	-0.08522628
13	0xbc29e6ff	-0.010370015
14	0x3cee589c	0.029094987
15	0xbc3100d2	-0.010803418
16	0xbda39e09	-0.07989127
17	0x3d11b717	0.035575
18	0x3c0b4fe4	0.008502934
19	0x3c2f4e1b	0.010699774
20	0xbe248747	-0.16067229
21	0x3d3236ea	0.0435094
22	0x3d99a601	0.07502366
23	0xbd571e74	-0.052519277
24	0x3d963bcc	0.07335624
25	0xbbfe8468	-0.007767249
26	0xbcf3aa92	-0.02974442
27	0xbdadb32a	-0.084814385
28	0xbdce7bde	-0.100822195
29	0x3cd2698d	0.025685096
30	0x3c09a313	0.008400696
31	0x39e43002	0.00043523317
32	0xbde1eb46	-0.11031203
33	0x3c80f86f	0.015743462
34	0x3de88215	0.11352936
35	0x3b11b009	0.002223017
36	0xbe2dcdeb	-0.16973083
37	0x3d3078de	0.043084018
38	0xbe176a52	-0.14786652
39	0x3b102e5f	0.0022000296
40	0xbd705bbb	-0.05868123
41	0xbe00fbcc	-0.12596053
42	0xbd92a949	-0.07161195
43	0xbda8bc3c	-0.08239028
44	0xbdc69c73	-0.09697809
45	0x3d41e434	0.047336772
46	0xbd5b21c4	-0.053499
47	0x3dafca39	0.08583493
48	0xbdc45c5a	-0.09587927
49	0xbbe6ba7a	-0.0070412727
50	0xbc88a1fb	-0.0166788
51	0x3d27bb9f	0.040950414
52	0xbe3bf8e0	-0.18356657
53	0x3d4f4139	0.05059931
54	0x3db243a6	0.08704309
55	0xb960ce64	-0.00021439191
56	0xbe08f196	-0.13373408
57	0x3d86b6e5	0.06577853
58	0xbb473165	-0.0030394432
59	0xbe1e19aa	-0.15439478
60	0x3d6ef754	0.05834134
61	0xbd31d2e9	-0.04341403
62	0x3bf825c1	0.00757286
63	0xbe0e7b52	-0.1391423
64	0x3d5d40be	0.05401682
65	0x3e2fbba1	0.17161418
66	0x3d84aed1	0.06478656
67	0x3d9ec2e1	0.07752014
68	0x3e253b7f	0.16135977
69	0x3e102078	0.14074886
70	0x3cbb14d8	0.022837088
71	0xbd184089	-0.03717092
72	0x3ce41c9d	0.027845675
73	0x3e06ffe8	0.13183558
74	0x3e11a9c8	0.14224923
75	0x3cff50f2	0.031166527
76	0xbdcbb30c	-0.0994626
77	0x3e48c6f9	0.19607152
78	0x3d8c911e	0.068636164
79	0xbc90844d	-0.01764121
80	0xbd02491a	-0.031807996
81	0xbd3cbcae	-0.046078376
82	0x3d2117f0	0.03932947
83	0x3d35a5c2	0.044347532
84	0xbda0adce	-0.078456506
85	0x3da3bd21	0.07995058
86	0xbd562370	-0.05227989
87	0xbe20bad5	-0.15696271
88	0x3c275899	0.010213994
89	0x3e683b09	0.2267877
90	0x3e2e00f1	0.16992547
91	0x3da71b31	0.08159483
92	0x3db31d00	0.08745766
93	0xbd59c7e3	-0.053169142
94	0x3daeb121	0.085298784
95	0xbd733601	-0.059377674
96	0x3c8cba36	0.017178636
97	0x3db58b98	0.08864516
98	0x3e31fa74	0.17380697
99	0x3dc58133	0.096437834
100	0xbda8248a	-0.08210094
101	0xbd5fbf06	-0.054625534
102	0xbd6ee581	-0.05832434
103	0x3caabd2d	0.02084216
104	0xbd9dc794	-0.07704082
105	0xbd30b6d2	-0.0431431
106	0xbc8d6d32	-0.017263982
107	0x3cf91f0e	0.030410316
108	0xbd0e3617	-0.034719553
109	0x3c4bc5c8	0.012437291
110	0xbe28dcd4	-0.16490489
111	0xbda549a9	-0.0807069
112	0x3e1cedae	0.15325043
113	0xbdf8e1ee	-0.12152468
114	0xbca4d18e	-0.020119455
115	0xbdb0144b	-0.085976206
116	0x3dbc3c00	0.091911316
117	0x3ce30a11	0.027714761
118	0x3d8784af	0.06617104
119	0xbcbd6112	-0.023117576
120	0xbe295b16	-0.16538653
121	0x3cb1f419	0.02172284
122	0x3e1bcbcc	0.15214461
123	0xbdb5550a	-0.088541105
124	0xbddcfcce	-0.10790406
125	0x3d771398	0.06032142
126	0xbd88fd6a	-0.0668896
127	0x3d14f3a4	0.036365166
128	0xbda5ca8c	-0.080952734
129	0x3dd45569	0.10367853
130	0x3d1e6c74	0.038677648
131	0x3cc73aca	0.024320025
132	0xbd57efbc	-0.052718863
133	0xbd4fb8e4	-0.050713435
134	0x3e234b52	0.15946701
135	0xbdc689b3	-0.09694233
136	0xbdb4b99e	-0.08824466
137	0xbe033d7c	-0.12816423
138	0xbd7ab614	-0.0612088
139	0x3e1822be	0.14857003
140	0x3d910c39	0.070824094
141	0x3d4ff0d7	0.050766792
142	0xbe32352e	-0.17403099
143	0x3de74e3c	0.11294219
144	0x3e35c387	0.17750369
145	0xbe2236e9	-0.15841259
146	0xbd75f03d	-0.060043562
147	0xbd057d1a	-0.03259001
148	0xbe277eae	-0.16356918
149	0x3dd57b92	0.1042396
150	0xbe12ed43	-0.1434832
151	0xbc2dfd62	-0.010619493
152	0xbd45c665	-0.048284907
153	0x3d1e851b	0.038701158
154	0x3e1c35ea	0.15254942
155	0xbe3436ec	-0.17599076
156	0x3dff58db	0.1246812
157	0xbcf86d69	-0.030325608
158	0xbd0657c5	-0.032798547
159	0xbc4dbfe8	-0.012557961
160	0xbcf5102b	-0.029914936
161	0x3d8f0013	0.06982436
162	0x3e36d28d	0.17853756
163	0x3dd9a31d	0.106268145
164	0xbe079bb5	-0.13242991
165	0xbcb2ac99	-0.021810817
166	0x3db45c3e	0.08806656
167	0x3c99b34a	0.01876225
168	0x3d6b9cdb	0.057522636
169	0x3d583d7a	0.052793004
170	0x3ce00d77	0.02735017
171	0xbe4673f3	-0.19380169
172	0x3e3923ca	0.18080059
173	0x3db87eb8	0.09008545
174	0x3df05dfe	0.117366776
175	0xbd319ffb	-0.04336546
176	0xbdd6598f	-0.10466301
177	0xbd66ae80	-0.05631876
178	0xbe224b6a	-0.1584908
179	0xbe03cb1c	-0.12870449
180	0xbd4c4dbd	-0.049878825
181	0x3bd25b23	0.0064195557
182	0x3c875d04	0.016523845
183	0x3da186fa	0.07887073
184	0xbd1b0f8b	-0.03785662
185	0xbd1904ae	-0.03735798
186	0xbda5e57f	-0.081004135
187	0x3e1159fd	0.14194484
188	0xbda7ec7c	-0.08199403
189	0xbd09c282	-0.033632763
190	0x3d4fb03b	0.050705176
191	0xbd5fe9a9	-0.054666195
192	0xbacdb2f8	-0.0015693596
193	0x3e3451ae	0.17609283
194	0xbca92e4f	-0.020651964
195	0x3df4e01a	0.119568065
196	0x3deb363e	0.11484955
197	0xbdaad2c2	-0.0834098
198	0xbe0f1121	-0.13971378
199	0xbe3b9cda	-0.18321553
200	0x3d314a40	0.0432837
201	0x3e014594	0.12624198
202	0xbdf5c882	-0.120011345
203	0xbdadf19d	-0.0849335
204	0x3ddd4f0f	0.10806095
205	0xbe2010a0	-0.15631342
206	0x3d725b99	0.059169386
207	0x3d8e9000	0.069610596
208	0xbde67826	-0.11253385
209	0x3ca17cc4	0.019712813
210	0x3e0fb0fa	0.14032355
211	0xbe1fe48a	-0.15614524
212	0xbb30b416	-0.0026962808
213	0xbd40426d	-0.04693835
214	0x3dcdcd14	0.10048881
215	0x3d2a9f8f	0.041656073
216	0x3cc3e9d8	0.023915216
217	0x3ce05658	0.027384922
218	0xbd8c2446	-0.06842856
219	0xbb80f460	-0.003935382
220	0xbcc8cce6	-0.024511766
221	0x3d57395a	0.05254493
222	0x3e06aee2	0.1315265
223	0x3a8571d6	0.001018102
224	0x3dbd3b5e	0.09239839
225	0xbdcb0d8c	-0.09914693
226	0xbc2f3f90	-0.010696307
227	0xbd235665	-0.039877314
228	0xbc984044	-0.018585332
229	0xbe033442	-0.12812904
230	0x3d854c05	0.0650864
231	0xbe15e1df	-0.14636944
232	0xbe0b80ad	-0.13623305
233	0xbdf15a1b	-0.117847644
234	0x3e5fe80a	0.2186586
235	0xbe1cd7af	-0.15316652
236	0x3c7b60b0	0.015342876
237	0xbbdcef77	-0.0067424136
238	0xbcddac0f	-0.027059583
239	0x3dff0917	0.124529056
240	0x3d42c368	0.047549635
241	0xbdca2f1e	-0.09872268
242	0xbe1c9872	-0.15292528
243	0x3e05cfb4	0.13067514
244	0xbd797d91	-0.060910765
245	0x3d2f4786	0.04279282
246	0xbc2a2cbb	-0.010386641
247	0x3d8da2cf	0.06915819
248	0x3d9e064b	0.07716044
249	0x3e77bb7e	0.24192616
250	0x3c355842	0.011068406
251	0x3d4d225a	0.05008159
252	0x3de5af6f	0.11215102
253	0xbd920cae	-0.07131325
254	0x3d97b798	0.074080646
255	0xbc6deb22	-0.014521392

mlp.2.weight f4 [128, 256]
0	0x3d9b9f10	0.07598698
1	0x3d5b74cf	0.053578194
2	0x3d7be027	0.061493065
3	0x3db634ea	0.08896811
4	0xbdf0b804	-0.11753848
5	0xbd9a2583	-0.07526686
6	0xbcce7584	-0.02520252
7	0xbd369f90	-0.044585764
8	0xba95787e	-0.0011403707
9	0x3d704f57	0.058669414
10	0x3dacdafe	0.08440207
11	0xbd4951bd	-0.049150217
12	0xbc07b573	-0.008283007
13	0xbca582ba	-0.020203937
14	0x3d9e8f6b	0.077421986
15	0x3b2cd81a	0.0026373924
16	0xbda61ccc	-0.08110961
17	0x3c5038ae	0.012708826
18	0xbd2c8d98	-0.04212722
19	0x3e0dab5b	0.13834898
20	0x3cf93f8c	0.03042581
21	0xbd8b1e3a	-0.06792875
22	0x3dd8431b	0.10559674
23	0xbdd1ed35	-0.10250322
24	0x3d8b8161	0.068117864
25	0xbcb19833	-0.02167902
26	0xbdf725f2	-0.12067784
27	0x3d3f9252	0.0467704
28	0x3d9bac27	0.07601195
29	0xbdcc8181	-0.099856384
30	0xbb1ec325	-0.0024225202
31	0x3c43791f	0.011930733
32	0x3c425396	0.011860749
33	0xbd524a13	-0.051340174
34	0x3d24316b	0.04008619
35	0x3d1d8523	0.038457047
36	0x3d54efdd	0.051986564
37	0x3d4e8e5b	0.05042873
38	0x3d19e61a	0.037572958
39	0x3df6a423	0.12043025
40	0x3dbd3692	0.09238924
41	0x3d43b9f2	0.047784753
42	0xbba4a633	-0.0050246953
43	0x3d8171ac	0.06320509
44	0xbc3756dd	-0.011190143
45	0x3d7c1c6b	0.06155054
46	0xbdce1002	-0.10061647
47	0xbe2f5514	-0.17122298
48	0xbd12cb0d	-0.035838176
49	0x3d857a7a	0.06517501
50	0x3c352871	0.011057005
51	0x3d6e5579	0.05818698
52	0xbce2f727	-0.027705742
53	0x3dbf5161	0.09341694
54	0xbdf3b7df	-0.11900305
55	0x3c83f116	0.01610617
56	0xbd2cb251	-0.042162243
57	0x3d68ce58	0.05683741
58	0xbcb59e73	-0.022170281
59	0x3b7ed653	0.0038885071
60	0xbe0b80bf	-0.13623331
61	0x3db6d3b3	0.08927097
62	0xbe006ea8	-0.12542212
63	0xbdb3723c	-0.08762023
64	0x3d9b299e	0.07576297
65	0xbdf0729c	-0.1174061
66	0x3d14cb56	0.03632673
67	0xba240040	-0.0006256141
68	0x3c7ad300	0.015309095
69	0xbd019136	-0.031632625
70	0xbd4a073a	-0.049323298
71	0xbd5bc8fb	-0.053658467
72	0x3d1591d0	0.03651601
73	0xbb89b06a	-0.0042019384
74	0xbd956ce2	-0.072961584
75	0x3d74589e	0.059654824
76	0xbd8a10cc	-0.06741485
77	0x3dba650d	0.09101305
78	0xbc9609ae	-0.018315163
79	0x3da39e55	0.07989184
80	0xbe3a1654	-0.1817258
81	0x3cf91d41	0.030409457
82	0x3d108324	0.035281315
83	0xbd12ff89	-0.03588823
84	0xbe0545ca	-0.13014904
85	0x3bd88309	0.0066074175
86	0x3d3bd091	0.0458532
87	0xbd8fdc95	-0.070244946
88	0x3d397982	0.045281895
89	0x3d5b0b94	0.05347784
90	0x3d91267a	0.07087417
91	0xbda8e92a	-0.082475975
92	0x3d22ee0b	0.039777797
93	0xbc6931f8	-0.014233105
94	0xbdf4e1fa	-0.11957164
95	0xbd45a3c9	-0.0482519
96	0xbc2376ab	-0.009977023
97	0x3d9d7e5b	0.07690116
98	0x3d6d9a41	0.058008436
99	0xbce6c8cb	-0.028171917
100	0x3d6b4787	0.05744126
101	0xbc0c48db	-0.008562292
102	0x3cf025dc	0.029314928
103	0xbe0a0401	-0.1347809
104	0xbb7e0bd4	-0.0038764374
105	0xbdc4f299	-0.09616584
106	0xbd37bbc3	-0.044856798
107	0x3d79f8c5	0.06102826
108	0x3d8b49f0	0.06801212
109	0x3cc94d2b	0.02457293
110	0x3da9f2aa	0.082982376
111	0xbcdb214a	-0.026749272
112	0x3d22e523	0.039769303
113	0xbd1f705c	-0.038925514
114	0xbd0e64ff	-0.034764286
115	0xbdb326ab	-0.0874761
116	0x3dd338ea	0.1031359
117	0x3c0b3ee8	0.008498885
118	0xbe15fa19	-0.14646186
119	0x3d026ccb	0.031842034
120	0xbc682249	-0.0141683305
121	0xbe31312c	-0.17303914
122	0x3c3e0385	0.011597519
123	0xbd4dec99	-0.050274465
124	0xbd1df3fd	-0.038562763
125	0xbc0c307f	-0.008556484
126	0x3c81d7d3	0.015849983
127	0xbb62fd60	-0.0034635887
128	0xbcc6cbf0	-0.024267167
129	0xbe3b17c9	-0.18270792
130	0x3d9a7f2a	0.07543786
131	0xbc03f347	-0.008053607
132	0x3c5cc6a3	0.013475093
133	0x3be56e1a	0.0070016505
134	0xbd3fe630	-0.046850383
135	0xbc4520ca	-0.012031743
136	0xbda070d6	-0.07834022
137	0x3cada4fb	0.021196833
138	0xbdad35c3	-0.0845752
139	0x3d2ad09a	0.041702844
140	0xbcbb3227	-0.022851063
141	0x3b444953	0.0029950931
142	0x3daf20c7	0.08551174
143	0x3d6bcb27	0.057566788
144	0xbc953963	-0.01821584
145	0x3d93391b	0.071886264
146	0x3dcb9a31	0.09941519
147	0x3d2f7797	0.04283866
148	0x3d0f2956	0.03495153
149	0xbd82fe97	-0.063962154
150	0x3d7d2e3e	0.061811678
151	0x3d46375b	0.048392635
152	0xbdfad259	-0.12247152
153	0xbd73373a	-0.05937884
154	0x3d295513	0.0413409
155	0x3d3fc38e	0.046817355
156	0x3d135fb8	0.035979956
157	0x3ddc6fa7	0.107634835
158	0x3dd1e4f8	0.102487504
159	0x3bbbd7a6	0.0057324944
160	0x3d3ae96d	0.04563277
161	0xbc87dee8	-0.016585782
162	0x3c0bfbfa	0.008543963
163	0x3d7da9be	0.061929457
164	0x3cbea0d0	0.02327004
165	0xbd22ba60	-0.039728522
166	0x3cca5e1e	0.024703082
167	0xbd0f3f40	-0.03497243
168	0x3ca256fc	0.019816868
169	0x3d25c158	0.04046759
170	0x3d7235aa	0.05913321
171	0x3d089f17	0.033354845
172	0xbd09e3a7	-0.03366437
173	0x3d5a4624	0.053289548
174	0xbd98bb6c	-0.07457623
175	0x3dc02559	0.093821235
176	0x3d079831	0.033104125
177	0x3da39ef0	0.07989299
178	0x3d58a187	0.05288842
179	0x3c34885e	0.011018841
180	0xbc974e4f	-0.018469958
181	0xbce2ad83	-0.027670627
182	0xbdb816fb	-0.08988758
183	0x3d1c4674	0.038153127
184	0xbd865765	-0.06559638
185	0xbe433428	-0.19062865
186	0x3d15e6ec	0.036597177
187	0xbcd70639	-0.026248084
188	0xbd59079d	-0.052985776
189	0xbe065e6a	-0.13121954
190	0xbd1e8c71	-0.038708154
191	0xbcc6213b	-0.024185767
192	0xbd55ea0f	-0.05222517
193	0x3d196f09	0.037459407
194	0x3b656c9a	0.0035007359
195	0x3e09585b	0.13412611
196	0xbc5350c4	-0.012897674
197	0xbd02a106	-0.031891845
198	0xbd258762	-0.040412314
199	0xbc08e455	-0.00835522
200	0x3d83ebe6	0.064414784
201	0x3c78814e	0.015167547
202	0xbd23de4a	-0.040006913
203	0xba5af3a2	-0.0008352344
204	0x3ca6d547	0.02036537
205	0x3cea2a8e	0.028584745
206	0xbc4a89fb	-0.012361999
207	0x3c1f3152	0.009716349
208	0x3bf3b7d4	0.0074376855
209	0x3cbb4f25	0.022864887
210	0x3cc7e74c	0.024402283
211	0xbd163d7c	-0.03667973
212	0xbe2074b6	-0.15669522
213	0x3e02507c	0.12726015
214	0xbc1d0f30	-0.0095861405
215	0xbc96c040	-0.018402219
216	0x3dab4214	0.08362213
217	0x3dc6d5ea	0.097087696
218	0xba997fe3	-0.0011711087
219	0x3b58e35c	0.00330945
220	0xbd2989a4	-0.04139103
221	0x3c92feca	0.017943759
222	0x3db6636a	0.089056805
223	0xbd0bff8c	-0.034179255
224	0x3e0b89fb	0.13626854
225	0x3d190dfb	0.03736685
226	0x3bb0e6c5	0.0053986036
227	0xbbea1b2f	-0.007144354
228	0x3c8bcc8f	0.017065315
229	0xbd6f2c19	-0.058391664
230	0x3d30f241	0.04319978
231	0xbc7126cc	-0.014718723
232	0x3d83e5f1	0.06440342
233	0x3bd3e6f3	0.0064667403
234	0xbc3919ce	-0.011297656
235	0x3d69c4dd	0.05707251
236	0x3d698030	0.057007015
237	0x3d48e874	0.04904981
238	0xbc1848ae	-0.009294672
239	0x3d242722	0.040076382
240	0xbd9c0162	-0.07617451
241	0xbcee3b20	-0.029080927
242	0x3cba8c34	0.022771932
243	0x3d2737e6	0.040824793
244	0xbc3a70cc	-0.011379432
245	0x3d606656	0.054785095
246	0xbc8fefac	-0.01757034
247	0x3c53d482	0.012929084
248	0x3cc947e3	0.024570411
249	0xbb4b89db	-0.003105751
250	0x3d79a5cc	0.06094913
251	0xbcf488f9	-0.02985047
252	0xbce4df6a	-0.027938563
253	0xbd29dfa8	-0.04147306
254	0xbd059cd7	-0.032620277
255	0x3c82908c	0.015938066

mlp.2.bias f4 [128]
0	0x3d34a126	0.044098996
1	0x3ddaad0d	0.10677538
2	0xbce86ad7	-0.028371258
3	0xbce978f3	-0.028500056
4	0xbd1fae71	-0.03898472
5	0x3d8fe24e	0.07025586
6	0xbdb35644	-0.08756688
7	0x3bf713f7	0.007540222
8	0x3c377811	0.01119806
9	0xbc991209	-0.018685358
10	0xbd0e1efd	-0.03469752
11	0xbd8c0670	-0.06837165
12	0xbd1b9dc0	-0.03799224
13	0x3d824c75	0.06362239
14	0xbd3719dc	-0.044702396
15	0x3ce65f5a	0.028121639
16	0x3c833953	0.016018545
17	0xbd9990ba	-0.074983075
18	0x3b050bfe	0.0020301337
19	0xbca05da9	-0.01957591
20	0xba9be2bb	-0.0011893132
21	0xbc98e2ae	-0.018662777
22	0xbcd7a806	-0.026325237
23	0xbcb5af3c	-0.022178285
24	0x3d3c24ca	0.045933522
25	0xbd1b5070	-0.037918508
26	0x3d3e4410	0.04645163
27	0xbd574248	-0.052553445
28	0xbd9c9992	-0.07646479
29	0xbc1b8b08	-0.009493597
30	0xbcc804b6	-0.024416309
31	0xbc35f30a	-0.011105308
32	0x3c1a6f13	0.009425896
33	0x3c378757	0.011201701
34	0xbc87d0a3	-0.016578978
35	0x3b7fb407	0.0039017217
36	0xbce41f01	-0.027846815
37	0xbd2c27db	-0.042030197
38	0xbdb197b8	-0.08671516
39	0xbc517242	-0.012783589
40	0xbd84aa6d	-0.06477819
41	0x3cbb75d0	0.022883326
42	0xbd4c4f70	-0.049880445
43	0x3d4cdb84	0.050014034
44	0xbd438dd2	-0.047742672
45	0x3d8dec83	0.06929877
46	0xbd01dbbe	-0.031703703
47	0xbcace3d8	-0.021104738
48	0x3d9f44cd	0.077767946
49	0x3c24dd69	0.010062554
50	0xbda7c29b	-0.08191415
51	0x3c00010e	0.007812751
52	0xbd59e535	-0.053197104
53	0xbd188f50	-0.03724605
54	0x3cac9705	0.021068105
55	0xbb5c6ee6	-0.0033635437
56	0x3c16a625	0.009194885
57	0x3c6002a5	0.0136725055
58	0x3c9ff2ae	0.019524898
59	0x3d732e8a	0.059370555
60	0xbc0f1104	-0.008732084
61	0x3c8ffee4	0.017577596
62	0x3cdf9ace	0.027295496
63	0xbd282337	-0.04104921
64	0x3e37f939	0.17966165
65	0x3d0dbcd6	0.034603916
66	0xbcb8d642	-0.022563104
67	0x3d0bef12	0.034163542
68	0x3c9d098f	0.019169597
69	0xbcd607d1	-0.026126774
70	0x3c635b19	0.0138767
71	0xbd5238c9	-0.051323686
72	0x3d69ac39	0.05704901
73	0x3aaa02f4	0.0012970851
74	0xbcd823cb	-0.026384255
75	0x3d3f9ed8	0.046782345
76	0xbc03d97a	-0.008047456
77	0xbcb6ab48	-0.02229847
78	0xbd1e9da2	-0.03872455
79	0xbca961bb	-0.020676484
80	0x3ce977eb	0.028499564
81	0x3ce896db	0.028392246
82	0x3d9603e8	0.07324964
83	0xbbfb9500	-0.0076776743
84	0xbd6273c3	-0.05528618
85	0x3d1b1896	0.037865244
86	0xbd4b7e81	-0.04968119
87	0xbc5c41d6	-0.013443431
88	0x3c63ff79	0.01391589
89	0xbd8e977b	-0.06962486
90	0xbcb39bb2	-0.021924827
91	0xbbf8e518	-0.0075956695
92	0x3ce9a0dd	0.028519088
93	0x3c97beef	0.018523661
94	0x3d14ccb2	0.036328025
95	0xbd22bd2c	-0.03973119
96	0x3dcc94ac	0.099892944
97	0x3e0fea94	0.14054328
98	0x3d29f4c8	0.041493207
99	0xbc55d930	-0.01305227
100	0xbc388349	-0.01126177
101	0xbd020f4b	-0.031752866
102	0x3d5085eb	0.050908964
103	0xbd83b6f4	-0.0643138
104	0xbd5b103a	-0.05348227
105	0xbd385135	-0.04499932
106	0xbb20b300	-0.0024520755
107	0xba25e079	-0.00063276995
108	0xbc9ea5e7	-0.019366218
109	0xb9ea39f8	-0.00044675148
110	0x3ca77689	0.020442264
111	0x3d733bc0	0.059383154
112	0xbdb7b3f7	-0.089698724
113	0xbd402477	-0.046909776
114	0x3cb4136f	0.021981923
115	0xbd931c5e	-0.07183145
116	0xbd414a3d	-0.04718994
117	0xbd7db770	-0.061942518
118	0xbcbf18c1	-0.023327233
119	0x3d2611b9	0.040544245
120	0x3c173f78	0.009231441
121	0x3d00623b	0.03134368
122	0xbd47805c	-0.048706397
123	0xbc966d15	-0.018362561
124	0xbd8ef921	-0.06981111
125	0x3d2b3832	0.04180164
126	0x3ca6af75	0.020347336
127	0x3cfc9151	0.030831011
