weights2/ep_1279.pth (torch, 275655 bytes, 10 tensors)

lstm.weight_ih_l0 f4 [192, 7]
0	0xbcaaf4d5	-0.020868698
1	0x3dd99bee	0.10625444
2	0x3e087273	0.13324909
3	0x3d402c1f	0.046917077
4	0x3d01624a	0.031587876
5	0x3e01f8c7	0.12692557
6	0x3e1a479e	0.15066382
7	0x3e203d1c	0.15648311
8	0xbdfc4b4e	-0.12319051
9	0x3e0a5fb0	0.13513064
10	0xbde9e244	-0.1142011
11	0xbd97fcbd	-0.07421253
12	0x3cc7d516	0.0243936
13	0x3d1ed85a	0.038780548
14	0x3d7c17e7	0.061546233
15	0x3d11e8e5	0.035622496
16	0xbd957ff8	-0.07299799
17	0xbd47218e	-0.048615985
18	0xbd879069	-0.06619341
19	0x3e149130	0.1450851
20	0x3d2479b7	0.04015514
21	0x3e2a192d	0.16611166
22	0x3cfe55e9	0.031046825
23	0x3deced1d	0.11568663
24	0x3d9db262	0.077000394
25	0xbe083046	-0.13299665
26	0x3d6cc74f	0.057807263
27	0xbda33a2e	-0.07970081
28	0xbd9729c3	-0.07381012
29	0x3e0d4a04	0.13797766
30	0x3df88fb0	0.12136781
31	0x3c4b1a16	0.012396356
32	0xbd06b15c	-0.032883987
33	0x3e033a24	0.12815148
34	0xbdc0ff1f	-0.094236605
35	0xbb182bfe	-0.002321958
36	0xbb0b3c0c	-0.0021245508
37	0x3def54d7	0.11686104
38	0x3dfc6139	0.12323231
39	0xbd3368c1	-0.043801073
40	0x3e01d694	0.12679511
41	0xbd3cd04b	-0.04609708
42	0x3daa8a90	0.0832721
43	0xbdb135a1	-0.08652807
44	0x3d721492	0.05910165
45	0x3d12e74a	0.035865106
46	0x3a79590d	0.0009511866
47	0x3d880fe7	0.06643658
48	0x3dea492e	0.11439739
49	0xbcd5d116	-0.026100677
50	0xbe0f465e	-0.13991687
51	0xbc98e598	-0.018664166
52	0xbb8d3cb4	-0.004310215
53	0x3debe22e	0.1151775
54	0x3e2930cd	0.16522522
55	0x3df3864a	0.11890848
56	0x3ba212ec	0.0049461033
57	0x3d8c29ac	0.06843886
58	0xbd8b44b0	-0.068002105
59	0x3dacfb9b	0.084464274
60	0xbd8ccee4	-0.06875399
61	0x3e1cb867	0.15304719
62	0xbd74002a	-0.05957047
63	0xbd94df52	-0.072691575
64	0xbdccb722	-0.09995867
65	0x3ce71b79	0.028211342
66	0x3d1ec35a	0.03876052
67	0xbdb50bab	-0.08840116
68	0xbdbc0d4d	-0.091822244
69	0x3df9a5f5	0.12189857
70	0xbda714c7	-0.0815826
71	0x3de56aa2	0.11201979
72	0xbc4ee3e8	-0.012627579
73	0x3d39af09	0.045332942
74	0xb89d5a9c	-7.503221e-05
75	0xbd31f831	-0.043449584
76	0xbd496b14	-0.049174383
77	0x3deba01a	0.11505146
78	0xbda7919d	-0.081820704
79	0x3d0a3d9c	0.03375016
80	0xbd6c5bda	-0.057704784
81	0x3e0386b2	0.12844351
82	0xbcf43175	-0.02980874
83	0x3d4ad2a1	0.049517278
84	0xbc1a75e7	-0.009427524
85	0xbdfbbd90	-0.122920156
86	0xbe155caf	-0.14586137
87	0xbde395f9	-0.111125894
88	0xbd7ab347	-0.06120613
89	0xbcbd7ba0	-0.023130238
90	0x3e007929	0.12546219
91	0x3e2cc4db	0.1687197
92	0x3dd0c83b	0.10194441
93	0x3c6af8e1	0.014341564
94	0xbce83a46	-0.0283481
95	0x3d2c7560	0.042104125
96	0xbdb4c3b2	-0.088263884
97	0x3e3a0329	0.18165268
98	0x3d2bc973	0.041940164
99	0xbd97e3e2	-0.07416512
100	0xbb82c09e	-0.003990247
101	0xbe013ce2	-0.12620881
102	0xbd2d83a4	-0.04236187
103	0xbc0a7726	-0.008451259
104	0x3defbddc	0.11706135
105	0x3d516fad	0.051131893
106	0xbb85807d	-0.004074155
107	0x3df69f69	0.12042124
108	0x3c6f57de	0.0146083515
109	0x3db7df8a	0.089781836
110	0xbd974087	-0.073853545
111	0x3de19112	0.11013998
112	0x3e006324	0.12537819
113	0xbd974e14	-0.07387939
114	0x3d35854e	0.044316582
115	0xbdba575f	-0.09098696
116	0x3dd6583d	0.10466049
117	0x3ce0d86b	0.027446946
118	0xbd9b89f6	-0.07594673
119	0x392be875	0.00016394428
120	0xbdcac4b2	-0.09900798
121	0xbac0ac85	-0.0014699852
122	0x3a5e9368	0.0008490593
123	0x3d1f73a9	0.03892866
124	0x3b6f570a	0.0036520385
125	0x3e078919	0.13235892
126	0x3dba25aa	0.09089215
127	0xbe0b34e1	-0.1359439
128	0xba5b4186	-0.0008363951
129	0xbe105ca7	-0.14097844
130	0xbdf03161	-0.11728168
131	0xbde6ab01	-0.11263085
132	0x3bc7c044	0.006095918
133	0x3db3aea5	0.08773545
134	0x3cfe7204	0.031060226
135	0xbca6a32c	-0.020341478
136	0xbdcb7cdd	-0.09935925
137	0x3b874f49	0.0041293246
138	0xbb063b6c	-0.0020482196
139	0x3d89d2b7	0.06729644
140	0x3c7f07ac	0.015565794
141	0xbdeb62ff	-0.114934914
142	0x3df3dfc9	0.11907918
143	0x3dc7e436	0.09760325
144	0xbdbed725	-0.09318379
145	0x3e2b977f	0.1675701
146	0x3e05bb1e	0.13059661
147	0xbdd26464	-0.10273054
148	0x3d01f09f	0.031723615
149	0xbdc12236	-0.09430353
150	0x3aea4f5b	0.0017876433
151	0xbd48d501	-0.04903126
152	0xbd844122	-0.064577356
153	0x3ce030cd	0.02736702
154	0x3debfc0e	0.11522685
155	0xbd9e8ce0	-0.077417135
156	0xbce354d0	-0.027750403
157	0x3d3f5e6c	0.046720907
158	0xbcaf40d8	-0.021393225
159	0x3cf5de1d	0.030013138
160	0x3d46ff7b	0.04858349
161	0x3c4b6c0f	0.0124159
162	0xbe0231a4	-0.12714249
163	0x3dc90fe8	0.09817487
164	0x3dc721ee	0.097232684
165	0x3df2a498	0.118478
166	0x3df2b166	0.11850242
167	0x3da075fc	0.07835004
168	0x3c8d646b	0.017259797
169	0x3da3b78b	0.079939924
170	0xbd199d9f	-0.037503835
171	0xbdd1a112	-0.102358
172	0xbdd9ad43	-0.1062875
173	0x3d4ac529	0.049504433
174	0x3d19f4c3	0.03758694
175	0x3d027f46	0.03185966
176	0x3dd7b530	0.10532606
177	0xbcaff4b4	-0.021478988
178	0x3d0db14b	0.034592908
179	0xbd1fa40c	-0.038974807
180	0xbd469e8a	-0.04849104
181	0xbd4eee83	-0.05052043
182	0x3e30f45b	0.17280714
183	0x3df2d321	0.11856676
184	0x3cbd5d07	0.023115648
185	0x3bc28ba1	0.005937055
186	0xbd359acc	-0.04433708
187	0xbd1dd042	-0.03852869
188	0x3d71a0b6	0.058991157
189	0xbdc4095a	-0.09572096
190	0xbdfd48ac	-0.12367377
191	0x3d9d4e3e	0.07680939
192	0xbca19ed4	-0.019729055
193	0x3e1a3832	0.150605
194	0x3df6c6f8	0.12049669
195	0x3e01ac2c	0.12663335
196	0x3c1a0114	0.009399671
197	0x3d8bdcf5	0.068292536
198	0x3e0dbcc7	0.13841544
199	0x3dfc7e49	0.123287745
200	0xbca25be6	-0.019819211
201	0x3bc73124	0.006078856
202	0x3de7a8eb	0.113115154
203	0xbddb3a51	-0.10704482
204	0x3d061ac0	0.032740355
205	0xbb92ddaf	-0.004481993
206	0xbba9f673	-0.0051868497
207	0x3d029730	0.031882465
208	0x3c0a65cd	0.008447123
209	0xbc5012eb	-0.012699823
210	0xbdb75bc4	-0.0895305
211	0xbb09144e	-0.0020916644
212	0x3c85fcff	0.01635599
213	0xbcf54faa	-0.029945213
214	0xbdd51ab2	-0.10405482
215	0x3d899f3e	0.06719826
216	0x3e2d83fd	0.16944881
217	0xbd624a62	-0.05524672
218	0x3cb5508f	0.02213314
219	0x3dab6dff	0.083705895
220	0xbd20d867	-0.039268877
221	0x3c18d930	0.009329125
222	0x3d1c8ee8	0.038222224
223	0x3d2f55d6	0.04280647
224	0xbd2831c3	-0.04106308
225	0xbdb07b8f	-0.08617317
226	0x3b942d6a	0.0045220153
227	0x3e02c29b	0.12769549
228	0x3de21a90	0.11040223
229	0xbde1458a	-0.10999592
230	0xbd451aca	-0.04812125
231	0xbd49ff8a	-0.049315967
232	0xbd0d7b6b	-0.03454153
233	0x3dc682f5	0.09692947
234	0x3cfc1be9	0.030775027
235	0x3d73ea72	0.059549756
236	0xbd5c48f9	-0.05378053
237	0x3e1321ea	0.14368406
238	0x3d38fa53	0.045160603
239	0xbdecdd2e	-0.11565624
240	0xbd82c49a	-0.06385155
241	0xbd5f08f8	-0.054451913
242	0xbd292c3a	-0.041301943
243	0x3d9cb252	0.076511994
244	0x3c8f73b5	0.017511228
245	0x3dedc4f4	0.116098315
246	0x3d175cbd	0.036953676
247	0x3d890211	0.06689847
248	0xbc893d50	-0.016752869
249	0x3d8ed737	0.06974643
250	0xbdf10ea6	-0.11770372
251	0xbdd50099	-0.104005046
252	0xbc046c86	-0.008082515
253	0xbd43ca09	-0.047800098
254	0x3e045f83	0.1292706
255	0xbdd564f2	-0.104196444

lstm.weight_hh_l0 f4 [192, 48]
0	0x3b5b564c	0.0033468185
1	0xbdf6e9b7	-0.12056296
2	0x3bd8267b	0.006596384
3	0xbdfcf6cb	-0.123517595
4	0xbd1384fa	-0.03601549
5	0xbdf0511b	-0.1173422
6	0xbdf409dc	-0.11915943
7	0x3dc3263b	0.09528776
8	0xbdc81b12	-0.09770788
9	0x3ca72130	0.020401567
10	0xbe31adad	-0.17351408
11	0xbe42067e	-0.18947789
12	0x3bbac1d9	0.005699378
13	0x3da8f14d	0.082491495
14	0xbd1d1771	-0.038352434
15	0xbd7bc936	-0.061471187
16	0xbb583564	-0.0032990808
17	0x3e2eb967	0.17062913
18	0x3b99d4bc	0.0046945494
19	0xbd5299ea	-0.051416315
20	0x3e11f33f	0.14252947
21	0x3d32de66	0.043669127
22	0xbdb4d028	-0.08828765
23	0xbddfbf6b	-0.10925182
24	0xbd1e5384	-0.038653865
25	0x3d869e76	0.06573193
26	0x3da32b21	0.079672106
27	0x3dd90644	0.10596898
28	0x3a9b27e1	0.0011837446
29	0xbd8ba516	-0.06818597
30	0xbd7aeea0	-0.061262727
31	0xbc7bfbd4	-0.015379865
32	0xbda1756a	-0.07883723
33	0xbe2321bb	-0.15930836
34	0x3dc06a5c	0.093952864
35	0xbdd95a54	-0.10612932
36	0xbd1e8b36	-0.03870698
37	0x3dbd9fce	0.09258996
38	0xbdaf6417	-0.085640125
39	0x3cbe6f1d	0.023246342
40	0x3dacbae3	0.08434083
41	0x3db27c43	0.08715107
42	0x3b014a34	0.0019728066
43	0xbdc6d4b7	-0.09708541
44	0x3d2b3f13	0.0418082
45	0x3b640872	0.0034795073
46	0xbdff4999	-0.124652095
47	0xbdcae863	-0.099076055
48	0xbdcdd926	-0.100511834
49	0xbd055b9a	-0.03255806
50	0x3db67611	0.08909238
51	0x3d1e1ae4	0.038599864
52	0x3d8d4c23	0.068992876
53	0x3dfd6f52	0.12374748
54	0x3e28abd9	0.16471805
55	0xbdd3e383	-0.10346129
56	0xba09fa21	-0.00052634074
57	0x3a88b597	0.0010430095
58	0xbe22bbf1	-0.15892006
59	0xbe2283ce	-0.15870592
60	0x3d9b4929	0.075823136
61	0x3e02e099	0.1278099
62	0x3dfe9328	0.124304116
63	0xbdec2742	-0.11530925
64	0xbd750210	-0.05981642
65	0xbad3dd7f	-0.0016164033
66	0x3e1d0fc9	0.15338053
67	0xbd837913	-0.064195774
68	0xbd0fec33	-0.035137367
69	0xb98e7a34	-0.000271754
70	0xbe359db5	-0.17735942
71	0x3e01fab8	0.12693298
72	0x3e1d761f	0.15377091
73	0x3dcfc879	0.10145659
74	0x3dd173e4	0.102271825
75	0x3e25a8a1	0.16177608
76	0x3de9e669	0.114209004
77	0x3d94aa4e	0.072590455
78	0x3de956d1	0.11393512
79	0x3dc2dd85	0.09514908
80	0xbdae7303	-0.085180305
81	0xbe1c103b	-0.15240566
82	0xbc224773	-0.00990473
83	0x3d68099f	0.0566498
84	0x3d82da02	0.06389238
85	0xbd334fec	-0.04377739
86	0xbd523616	-0.05132111
87	0xbd8a7ce4	-0.06762102
88	0xbdcfcf22	-0.10146929
89	0xbd30ab68	-0.043132216
90	0xbd9dcf20	-0.077055216
91	0x3de434f6	0.11142914
92	0x3da24806	0.07923894
93	0x3dd2a941	0.10286189
94	0x3db3408a	0.08752544
95	0xbda2be3f	-0.07946443
96	0x3cf4b5f0	0.02987191
97	0xbe167c1f	-0.14695786
98	0x3c087d9e	0.008330731
99	0xbdce12a5	-0.1006215
100	0x3cdb59f5	0.026776293
101	0x3d15e5b2	0.036596008
102	0x3dc6ea51	0.09712661
103	0x3d5dd165	0.054154772
104	0xbd5eb715	-0.05437382
105	0xbd001190	-0.03126675
106	0xbda52c8f	-0.080651395
107	0xbd92c378	-0.07166189
108	0x3d2910ed	0.041275907
109	0x3cd64c3c	0.026159398
110	0xbd8360fb	-0.06414982
111	0xbd35d9b0	-0.044397056
112	0x3d7b00ae	0.061279945
113	0x3e216004	0.15759283
114	0x3deafedd	0.114743926
115	0xbd9431ae	-0.07236038
116	0xbd2336a1	-0.03984702
117	0xbe01231b	-0.12611048
118	0xbc8de06a	-0.017318923
119	0x3e12de64	0.14342648
120	0x3d3240f8	0.04351899
121	0x3c4bc2ae	0.012436552
122	0xbe1a9367	-0.15095292
123	0x3d0a5eba	0.033781745
124	0xbc463c1c	-0.012099292
125	0xbd9e1be5	-0.07720164
126	0xbda97262	-0.0827377
127	0x3dd28c31	0.10280646
128	0x3d311cfb	0.04324053
129	0xbd875fc9	-0.066100664
130	0x3ddde01f	0.10833763
131	0x3dc36727	0.09541159
132	0x3decdca1	0.11565519
133	0xbdd6a081	-0.104798324
134	0x3e1ae403	0.15126042
135	0xbd39b546	-0.04533889
136	0xbdceabb6	-0.10091345
137	0x3d815571	0.06315125
138	0xbd3763ce	-0.044772916
139	0x3df0abc6	0.11751513
140	0xbe2270ac	-0.15863293
141	0x3d37b883	0.0448537
142	0xbd346ab2	-0.044047065
143	0xbdea532f	-0.11441647
144	0xbdc4cea5	-0.09609727
145	0xbd858ba3	-0.06520774
146	0xbdc6cf7e	-0.09707545
147	0xbc0c49fe	-0.008562563
148	0x3aefcee8	0.0018295916
149	0x3e0b7a85	0.13620956
150	0xbc056575	-0.008141865
151	0xbd5d851e	-0.05408203
152	0x3d4c1208	0.049821883
153	0x3c0ffda7	0.008788503
154	0xbbcaa3a9	-0.0061840606
155	0xbc25f0b7	-0.010128192
156	0x3da01bc7	0.07817798
157	0x3d820ac1	0.063497074
158	0x3d91ee12	0.071254864
159	0x3d821c01	0.063529976
160	0x3d8bd386	0.06827454
161	0x3e2097fe	0.1568298
162	0x3d4339f3	0.047662687
163	0x3d022521	0.03177369
164	0xbbb8c63a	-0.005638865
165	0x3de42e68	0.11141664
166	0xbe1ad8ad	-0.15121718
167	0x3e0d331a	0.13789025
168	0x3e150d07	0.14555751
169	0xbda2d3b3	-0.07950535
170	0xbdbd27af	-0.09236085
171	0x3de195cf	0.11014902
172	0x3d09b872	0.033623166
173	0xbcc304bb	-0.023805967
174	0xbda446b3	-0.08021297
175	0x3ca1ea05	0.01976491
176	0xbce7dcda	-0.028303552
177	0xbd9f762a	-0.0778621
178	0xbdf7603e	-0.120789036
179	0x3dcb8f7e	0.09939478
180	0xbc983992	-0.01858214
181	0x3cf9c27d	0.030488247
182	0xbd9d9eac	-0.0769628
183	0x3cece3f1	0.028917285
184	0xbe26526d	-0.1624238
185	0x3e1c8f76	0.15289101
186	0xbc898f41	-0.016791942
187	0x3e11cc83	0.14238171
188	0xbda5d60b	-0.08097466
189	0xbe01b335	-0.12666018
190	0xbe0d9dc0	-0.13829708
191	0x3d91bdb4	0.07116261
192	0xbe1ff247	-0.15619765
193	0x3dad7cfc	0.084711045
194	0x3da90bf0	0.0825423
195	0xb987a318	-0.0002587072
196	0x3df79b83	0.120902084
197	0x3e0d1cda	0.13780537
198	0x3e25c5aa	0.16188684
199	0xbdfb21ea	-0.12262328
200	0xbd02f5ee	-0.031972818
201	0x3dc2eea1	0.09518171
202	0x3cc44645	0.023959288
203	0xbd30285d	-0.043007243
204	0x3c9936fe	0.01870298
205	0x3d53baa7	0.051691677
206	0xbd49c968	-0.04926434
207	0xbd51bb06	-0.05120375
208	0x3cd76bb6	0.026296478
209	0x3da4782e	0.08030735
210	0xbd7798fe	-0.06044864
211	0xbd8aafb1	-0.06771792
212	0x3bbecd83	0.0058228387
213	0xbc7829fc	-0.015146729
214	0xbe083f2d	-0.1330535
215	0xbdafb608	-0.085796416
216	0x3aefa06d	0.0018282064
217	0x3e1db9f7	0.15402971
218	0xbdc9f4a4	-0.098611146
219	0x3c8b5606	0.017008793
220	0xbc47b91c	-0.01219013
221	0x3e0aecdb	0.13566916
222	0x3e455211	0.19269587
223	0xbdc37415	-0.09543625
224	0xbe3defe1	-0.18548538
225	0xbe1623de	-0.1466212
226	0x3d712216	0.058870398
227	0x3e068a5f	0.13138722
228	0x3e1d7a09	0.15378584
229	0x3ddd44bd	0.108041264
230	0x3e144776	0.14480385
231	0x3dae7dc8	0.085200846
232	0xbd0c72d8	-0.03428921
233	0x3ddc3c61	0.10753704
234	0x3b3d77e6	0.0028910576
235	0xbd9ceaba	-0.07661958
236	0xbd69d3f5	-0.057086904
237	0x3ba6f0d0	0.005094625
238	0x3d35a729	0.04434887
239	0xbc83dd4c	-0.016096734
240	0xbdfd83f0	-0.12378681
241	0xbcd56df1	-0.0260534
242	0xbdaff4a6	-0.08591585
243	0xbdaae568	-0.08344537
244	0x3daea522	0.0852759
245	0x3d650293	0.055910658
246	0x3e049108	0.1294595
247	0x3d984865	0.07435683
248	0x3dc15f04	0.09441951
249	0x3d2a8659	0.04163203
250	0xbdb6548c	-0.08902845
251	0xbe2ad8ad	-0.16684218
252	0x3dc23615	0.094829716
253	0xbd14d811	-0.03633887
254	0xbca80801	-0.020511629
255	0xbd2b8acd	-0.041880418

lstm.bias_ih_l0 f4 [192]
0	0x3d2d11f6	0.042253457
1	0xbd3cb2a2	-0.046068795
2	0x3dfe8fef	0.12429797
3	0xbdab2435	-0.08356515
4	0xbc87452f	-0.016512481
5	0xbce6bbd6	-0.028165739
6	0xbd78d62e	-0.060751133
7	0x3c872be3	0.016500419
8	0xbdb4a6b5	-0.08820859
9	0x3e07f81c	0.1327824
10	0x3e24a361	0.16077949
11	0x3d227e68	0.03967133
12	0x3cde76df	0.027156292
13	0x3d4dea2d	0.050272156
14	0x3d6f2744	0.058387056
15	0xbdb98785	-0.090590514
16	0xbdb37b6f	-0.087637775
17	0x3e257497	0.16157757
18	0xbacb6316	-0.0015517201
19	0xbd26eb93	-0.040752005
20	0x3e15ff32	0.1464813
21	0x3c046d56	0.008082708
22	0x3d9a22de	0.07526182
23	0x3dceb401	0.10092927
24	0x3d8606bc	0.06544253
25	0x3de2516e	0.11050688
26	0xbdda5087	-0.106598906
27	0x3db1b54a	0.08677156
28	0x3dc60a78	0.096699655
29	0x3d915e61	0.070980795
30	0xbd95c361	-0.07312656
31	0x3dab6a6f	0.0836991
32	0x3dc27115	0.09494225
33	0x3dd95d19	0.1061346
34	0xbdb1afc1	-0.086761005
35	0xbd2b43b7	-0.041812625
36	0xbc2629a7	-0.010141767
37	0xbd9992c6	-0.07498698
38	0xbd9fb398	-0.07797927
39	0x3d80c8ee	0.06288324
40	0x3e1b2848	0.15152085
41	0xbda825bc	-0.08210322
42	0x3d9ffe44	0.07812169
43	0xbd3b890f	-0.045785006
44	0x3c426348	0.011864491
45	0x3abdedbf	0.001449041
46	0x3e0284ce	0.12745973
47	0x3dd9b62d	0.106304504
48	0xbe0a10bb	-0.13482945
49	0x3e1833ad	0.14863463
50	0xbd5f336d	-0.054492403
51	0x3e014bab	0.12626521
52	0x3d5cfe36	0.053953372
53	0x3d95caa7	0.073140435
54	0xbe00cac2	-0.12577346
55	0xbd2b67ca	-0.041847028
56	0xbdf3f0dc	-0.11911175
57	0xbdee6932	-0.11641158
58	0xbdc64a2d	-0.09682117
59	0xbd02c42b	-0.03192536
60	0x3cb0ad16	0.021566909
61	0x3dc95962	0.098315015
62	0xbc3cf734	-0.011533547
63	0x3dcaadf0	0.09896457
64	0x3d8bee09	0.06832511
65	0x3dd6f1d3	0.10495343
66	0xbc362e88	-0.011119492
67	0x3d2de28e	0.042452388
68	0x3dfe83b8	0.12427467
69	0x3e07e728	0.13271773
70	0x3e17f45b	0.14839308
71	0x3ce86bc5	0.028371701
72	0xbdfccbf3	-0.12343588
73	0x3dc5daea	0.09660895
74	0xbd3a6533	-0.045506667
75	0x3ddebda7	0.10876017
76	0xbd14029f	-0.036135312
77	0x3d778310	0.060427725
78	0xbdc7a757	-0.097487144
79	0x3cd940da	0.026520181
80	0x3df5d4dc	0.1200349
81	0x3cdf19ac	0.027233921
82	0xbdd1cea4	-0.10244492
83	0xbd73fa6f	-0.059565004
84	0x3c877cb8	0.016538963
85	0x3c267451	0.010159568
86	0xbc6c6d4b	-0.014430354
87	0xbd913bdc	-0.070914954
88	0x3cd2cafa	0.025731552
89	0x3c2a9d51	0.010413484
90	0xbd7c0785	-0.06153061
91	0x3c03364f	0.008008554
92	0x3de13fd3	0.10998502
93	0x3e2046ae	0.15651962
94	0xbd808d36	-0.06276934
95	0xbd60b7fb	-0.054862957
96	0xbdd26eac	-0.10275015
97	0x3d4d879a	0.050178148
98	0x3c80b9c0	0.015713573
99	0xbc2936c4	-0.010327999
100	0xbd0be02e	-0.03414934
101	0x3cede25f	0.029038606
102	0x3e06df38	0.13171089
103	0x3d70e2f2	0.058810182
104	0x3db91d8e	0.0903884
105	0x3dccd259	0.10001058
106	0x3e254485	0.1613942
107	0x3e05b445	0.13057049
108	0xbd884380	-0.066534996
109	0x3dcec6e3	0.100965284
110	0xbd69eff2	-0.057113595
111	0x3c0a0969	0.008425095
112	0xbcaa9ab4	-0.020825721
113	0x3b2c2dcc	0.0026272414
114	0x3c4bba31	0.012434528
115	0xbdf6cd16	-0.12050836
116	0x3e324266	0.17408141
117	0x3d83627d	0.064152695
118	0x3e230480	0.15919685
119	0xbe0ed4aa	-0.13948312
120	0x3db3818d	0.08764944
121	0x3da07c7b	0.07836243
122	0x3df35939	0.11882252
123	0xbd436238	-0.04770109
124	0xbc24f2f7	-0.010067693
125	0xbd9bfb94	-0.07616344
126	0x3c44fe91	0.012023584
127	0x3c2ad350	0.010426357
128	0xbd32ab7d	-0.043620575
129	0x3db94902	0.09047128
130	0x3d5b243b	0.05350135
131	0x3de8e809	0.11372382
132	0x3c850f57	0.016242666
133	0x3dee29e1	0.116290815
134	0xbe22023f	-0.1582117
135	0xbde0ba93	-0.10973086
136	0x3dc6fe43	0.09716465
137	0xbe17fd54	-0.14842731
138	0x3e167342	0.14692405
139	0x3d27e7f0	0.040992677
140	0x3dfe6ed2	0.12423481
141	0xbc08aefa	-0.008342499
142	0xbdee3aa6	-0.1163228
143	0xbdabf548	-0.08396393
144	0xbdcc8498	-0.09986228
145	0xbd88a70b	-0.06672486
146	0x3df3ca52	0.11903824
147	0x3e1e50c8	0.15460503
148	0xbddb1bf7	-0.10698693
149	0x3baa532d	0.0051979036
150	0x3c766cd2	0.015040593
151	0x3dd36c83	0.10323431
152	0x3e0fac8e	0.14030668
153	0x3de61818	0.11235064
154	0xbd897153	-0.06711068
155	0xbd9d04de	-0.07666944
156	0x3ca89f7c	0.02058386
157	0x3d152366	0.03641071
158	0x3b851db1	0.0040623774
159	0xbd618450	-0.055057824
160	0xbdb1f40c	-0.08689126
161	0x3e38df58	0.18053949
162	0xbd456f33	-0.04820175
163	0xbcba4b10	-0.02274087
164	0x3e157653	0.14595918
165	0x3dec2b4a	0.11531694
166	0x3db2663f	0.08710908
167	0xbd1d6c1c	-0.03843318
168	0x3d66be6d	0.056333948
169	0xbd37bc9c	-0.044857606
170	0x3e1cd4bd	0.15315528
171	0xbb0f2c16	-0.0021846346
172	0xbd0076c9	-0.031363282
173	0x3d9d2325	0.07672719
174	0xbdcd9973	-0.10039034
175	0x3da1d8ac	0.07902655
176	0x3e10abd5	0.14128049
177	0x3d3cffd1	0.046142403
178	0x3daf1768	0.08549386
179	0xbd3c7610	-0.04601103
180	0x3d94b4de	0.0726106
181	0xbd08dcb6	-0.03341361
182	0x3d5b7357	0.053576794
183	0xbd9ee7f9	-0.07759089
184	0xbc2803ba	-0.010254795
185	0x3d5310b5	0.051529605
186	0x3c855289	0.016274707
187	0xbdcca421	-0.099922426
188	0x3d77cd3b	0.060498457
189	0x3ddb9c8d	0.10723219
190	0x3dc25da1	0.094905145
191	0x3c9f4a98	0.019444749

lstm.bias_hh_l0 f4 [192]
0	0x3de2a9be	0.11067532
1	0x3cce9cf4	0.025221325
2	0xbddc8ef6	-0.10769455
3	0xbd9e73cc	-0.0773693
4	0xbdda28d8	-0.106523216
5	0x3e21f3f6	0.1581572
6	0x3cd7464b	0.026278635
7	0x3dc084e2	0.094003454
8	0x3dc32a29	0.09529526
9	0xbdc414ad	-0.09574256
10	0x3d9e1487	0.07718759
11	0x3d00462d	0.031316925
12	0xbce9507d	-0.028480763
13	0xbd99fbdb	-0.07518741
14	0x3d5a77d9	0.053336952
15	0x3e1df4c0	0.15425396
16	0xbdd32ab0	-0.10310876
17	0x3e5732c5	0.21015461
18	0xbde57e8a	-0.11205776
19	0xbc24b72f	-0.01005344
20	0x3d620f7f	0.05519056
21	0xbd9d075c	-0.07667419
22	0x3d735af6	0.05941292
23	0x3e1de630	0.15419841
24	0x3b8211b4	0.0039693955
25	0x3da6021a	0.081058696
26	0x3d19ca45	0.037546415
27	0x3db738eb	0.08946403
28	0x3d8b9527	0.06815558
29	0x3e2a0813	0.16604643
30	0xbcc0f80d	-0.02355578
31	0x3c21b100	0.00986886
32	0x3e15100c	0.14556903
33	0xbda8d3e5	-0.08243541
34	0x3db3721d	0.08762
35	0x3d5981ce	0.053102307
36	0x39a943d0	0.00032284716
37	0x3dce33b6	0.10068457
38	0x3e3f8319	0.18702354
39	0xbdb09a37	-0.08623164
40	0x3e3f8a45	0.1870509
41	0xbca16425	-0.019701073
42	0x3cb43738	0.021998987
43	0x3dcb45c1	0.09925414
44	0x3d3f1263	0.046648394
45	0x3d992a3c	0.07478759
46	0x3df14334	0.11780396
47	0x3d365742	0.04451681
48	0xbe0db799	-0.13839568
49	0xbab886fe	-0.0014078317
50	0x3e02e476	0.12782463
51	0xbdff44de	-0.12464307
52	0xbdc80a56	-0.097675964
53	0xbd636680	-0.055517673
54	0x3e0080fc	0.12549204
55	0xbda07d45	-0.07836393
56	0x3de805e4	0.113292485
57	0xbb1ec198	-0.0024224278
58	0xbc5bbc72	-0.013411628
59	0x3de17f55	0.11010615
60	0xbd9f14b3	-0.0776762
61	0x3dddd986	0.10832505
62	0xbd5cb190	-0.053880274
63	0x3d5393ff	0.051654812
64	0xbe1506ed	-0.14553423
65	0x3d99964f	0.07499372
66	0xbb8dd3f3	-0.004328245
67	0x3e256a3f	0.16153811
68	0x3e11f7d8	0.14254701
69	0x3da018e5	0.07817248
70	0xbdefc73f	-0.11707925
71	0x3e02c254	0.12769443
72	0x3ce7f243	0.028313762
73	0xbd38f5a1	-0.045156125
74	0x3d5fcc99	0.05463848
75	0x3dbb4e8b	0.0914584
76	0xbe0bcd72	-0.1365259
77	0x3d4c289c	0.049843416
78	0x3d9601ec	0.07324585
79	0x3db9680e	0.0905305
80	0xbdbe1e8e	-0.092831716
81	0x3e07e389	0.13270392
82	0xbdfbcf80	-0.12295437
83	0xbdef04d8	-0.11670846
84	0x3de00bdf	0.10939764
85	0xbd918c3d	-0.071068265
86	0x3db40360	0.08789706
87	0xbd8bca4d	-0.06825695
88	0xbd25d514	-0.04048641
89	0x3e395795	0.18099816
90	0xbd8558ef	-0.06511103
91	0x3e1c2aa7	0.15250646
92	0x3e1f9df6	0.15587601
93	0x3d59cc97	0.053173628
94	0x3dd9a844	0.10627797
95	0xbd9c53ec	-0.07633194
96	0x3cd39551	0.025828036
97	0xbd89941e	-0.06717704
98	0xbbc74cbe	-0.0060821464
99	0xbe08aa55	-0.13346227
100	0xbd998cfe	-0.07497595
101	0xbcef2ca1	-0.029196085
102	0x3d8808d1	0.066423066
103	0xbd80dafd	-0.06291769
104	0x3d527248	0.05137852
105	0xbd35f3df	-0.044422027
106	0x3da32ce9	0.0796755
107	0x3dc0312e	0.0938438
108	0x3d25580d	0.040367175
109	0xbdf640b2	-0.120240584
110	0xbb79259f	-0.0038016809
111	0xbd78f186	-0.06077721
112	0xbdac9d4d	-0.0842844
113	0xbe0bdee3	-0.13659243
114	0xbcaa2431	-0.02076921
115	0xbe261e4c	-0.16222495
116	0x3e264d6a	0.16240469
117	0x3dbf5184	0.0934172
118	0x3d2f967e	0.04286813
119	0x3dbe78bc	0.09300372
120	0xbd041b69	-0.032252703
121	0x3d872e67	0.066006474
122	0x3b8b3bc3	0.0042490675
123	0x3dc60612	0.096691266
124	0x3cd43065	0.025901983
125	0xbe025340	-0.1272707
126	0xbc3c227d	-0.011482832
127	0x3c1b5082	0.009479644
128	0xbd3f8c19	-0.046764467
129	0xbc65e3af	-0.014031335
130	0x3bfa2f33	0.007635021
131	0x3e0b9f7b	0.13635056
132	0xbd21e098	-0.03952083
133	0xbd5e427a	-0.054262616
134	0xbde5b676	-0.11216442
135	0xbcda30ff	-0.026634691
136	0x3db6d5b0	0.089274764
137	0x3bd28904	0.006425025
138	0x3c83ff55	0.016112963
139	0xbd0283aa	-0.031863846
140	0xbdddc6cf	-0.10828935
141	0xbe030284	-0.12793928
142	0xbe034a81	-0.1282139
143	0x3dfab93f	0.12242364
144	0xbd06a644	-0.032873407
145	0x3cd86901	0.026417257
146	0xbda5e93a	-0.08101125
147	0x3c93555c	0.017985038
148	0xbd8963a3	-0.06708457
149	0x3d903aee	0.0704249
150	0xbd2aeea6	-0.0417315
151	0xbdbb6107	-0.09149366
152	0x3da50cd4	0.080590874
153	0x3d3714a5	0.044697423
154	0x3d94b3e8	0.07260877
155	0x3e0969c4	0.13419253
156	0x3e005427	0.12532102
157	0xbd9bdfca	-0.07611044
158	0xbd45c890	-0.048286974
159	0xbc6890cb	-0.014194678
160	0xbd0a08de	-0.033699863
161	0xbd1167a2	-0.035499223
162	0x3d94a408	0.07257849
163	0x3e236bf4	0.1595915
164	0x3de0ac32	0.10970344
165	0x3dbb84a9	0.09156162
166	0xbd116cb9	-0.035504077
167	0xbd146370	-0.036227643
168	0xbdb19e66	-0.0867279
169	0xbcd6f3fb	-0.026239386
170	0xbd8205d4	-0.06348768
171	0xbc88cb19	-0.016698407
172	0x3e07bf97	0.1325668
173	0x3def2885	0.1167765
174	0x3e093358	0.13398492
175	0x3d98b434	0.07456246
176	0x3d8f1414	0.069862515
177	0x3e15a7d9	0.1461481
178	0x3ca4c31c	0.020112567
179	0x3e0ca8e6	0.13736305
180	0x3df4f05c	0.119599074
181	0x3daf07e2	0.085464254
182	0x3e441c21	0.19151355
183	0xbd13686c	-0.035988256
184	0x3d5b3b5f	0.053523418
185	0x3e45ff4f	0.19335674
186	0x3d33b57b	0.043874245
187	0x3d33cb2b	0.043894928
188	0x3e23c9f8	0.15995014
189	0x3d9e8832	0.07740821
190	0xbc14ed26	-0.009089744
191	0x3dbfba8b	0.09361752

mlp.0.weight f4 [256, 54]
0	0xbdc6aae9	-0.09700567
1	0x3d8c9819	0.06864948
2	0xbdb2669e	-0.08710979
3	0xbd2bc8dd	-0.041939605
4	0xbbb20fc8	-0.00543401
5	0x3cca914c	0.024727486
6	0x3bd7d1e0	0.0065862983
7	0x3c3e58b9	0.011617833
8	0xbbbf6d0a	-0.005841856
9	0xbdea97ee	-0.114547595
10	0x3c098a20	0.008394748
11	0xbc42cf8c	-0.011890303
12	0xbd85f06f	-0.0654
13	0x3dd51dd8	0.10406083
14	0x3d98f589	0.07468707
15	0x3de335eb	0.110942684
16	0xbd0ba6a1	-0.034094457
17	0xba4f94de	-0.0007918606
18	0x3d8daed4	0.069181114
19	0x3d5b0e7c	0.05348061
20	0xbe0697f8	-0.13143909
21	0x3c5d8c3c	0.013522204
22	0x3cb71407	0.022348417
23	0x3bcfce28	0.0063417144
24	0x3db457fa	0.08805843
25	0xbd2200fe	-0.039551727
26	0x3d56b1b0	0.05241555
27	0xbdd58e99	-0.10427589
28	0x3cca913b	0.024727454
29	0x3e01144a	0.12605396
30	0xbd9d65b1	-0.07685412
31	0x3d839292	0.064244404
32	0x3d52d473	0.05147214
33	0x3e059a79	0.13047208
34	0xbdb8e368	-0.09027749
35	0xbd8b51ef	-0.06802737
36	0xbda1467c	-0.07874772
37	0xbda2fbc5	-0.079581775
38	0x3dd308e0	0.10304427
39	0x3c961a79	0.01832317
40	0x3d55745c	0.052112922
41	0xbdc007d5	-0.09376494
42	0x3ce7ba39	0.02828704
43	0xbd61575b	-0.05501495
44	0xbd5ec0bc	-0.054383025
45	0x3b4fa98d	0.0031686754
46	0x3d9e44fa	0.07728
47	0x3912d554	0.00014003116
48	0x3deba472	0.11505975
49	0xbcf067ac	-0.02934631
50	0x3d85f58a	0.065409735
51	0xbdc87ced	-0.09789453
52	0x3d4af18f	0.049546774
53	0x3b47cc9d	0.003048695
54	0xbc9c9fcd	-0.019119168
55	0xbb1cc4b7	-0.0023920962
56	0x3d9a462e	0.07532917
57	0x3e09b463	0.13447718
58	0xbdf8d93a	-0.12150808
59	0xbda121ac	-0.078677505
60	0xbdfd61cf	-0.12372171
61	0xbc9a52a1	-0.018838229
62	0xbca50dd6	-0.020148199
63	0x3e0a2a3f	0.13492678
64	0x3c44cd0a	0.012011776
65	0xbd0f4854	-0.034981087
66	0xbdd93208	-0.10605246
67	0x3dde52f8	0.10855669
68	0xbd7e8be1	-0.062145118
69	0x3d0e9f89	0.034820113
70	0x3dc8f40d	0.09812174
71	0x3dcfcfa5	0.10147027
72	0xbda740fb	-0.08166691
73	0xbde724e7	-0.112863354
74	0x3d9c5041	0.07632495
75	0x3c8a2411	0.0168629
76	0x3dbbeebc	0.09176394
77	0x3cc1ae9b	0.023642829
78	0xbd167893	-0.036736082
79	0xbd7d9608	-0.06191066
80	0xbe00f12c	-0.12592
81	0xbe03fbf2	-0.12889078
82	0xbccb0430	-0.02478227
83	0xbd872939	-0.065996595
84	0xbbfedea7	-0.007778007
85	0xbde1ff03	-0.11034968
86	0xbdaa1ca3	-0.08306243
87	0x3d82b087	0.06381326
88	0x3cfb2292	0.030656133
89	0xbe0476b0	-0.129359
90	0xbde64e67	-0.11245423
91	0xbccbe4cb	-0.02488937
92	0x3d6d78bb	0.057976466
93	0x3d54f195	0.051988203
94	0x3d6ce46b	0.057835024
95	0x3ce042c5	0.027375588
96	0xbd243f25	-0.04009928
97	0xbc040e28	-0.008060016
98	0x3ded5f9e	0.11590503
99	0xbdcc29be	-0.09968899
100	0x3d903c00	0.07042694
101	0xbce89420	-0.028390944
102	0x3d354043	0.044250738
103	0xbe06725e	-0.13129565
104	0x3d200b30	0.03907317
105	0xbd195d87	-0.03744271
106	0xbd5e594c	-0.05428438
107	0x3d7e35f6	0.06206318
108	0x3d908e6d	0.070584156
109	0xbd9c0a9e	-0.076192126
110	0x3d66bf6c	0.056334898
111	0x3d10a983	0.03531791
112	0x3d80f2fa	0.06296344
113	0x3df8ce1a	0.12148686
114	0xbd9ca2a6	-0.0764821
115	0x3d824091	0.06359971
116	0xbdd7fe54	-0.10546556
117	0x3ddd4e2d	0.108059265
118	0x3d554820	0.052070737
119	0xbda9bbc1	-0.08287764
120	0xbd5851b5	-0.052812297
121	0xbdb390d8	-0.08767861
122	0x3d534200	0.051576614
123	0xbd0f1709	-0.034934077
124	0x3e034fc5	0.12823398
125	0x3d9e19ce	0.077197656
126	0x3d59ea47	0.05320194
127	0xbdbdfcae	-0.092767105
128	0x3cb10f0b	0.021613618
129	0x3d2613cc	0.040546224
130	0x3d76c797	0.060248937
131	0xbdb80531	-0.08985365
132	0xbce71ce9	-0.028212028
133	0xbe0cbfd6	-0.13745055
134	0xbdcd21fd	-0.100162484
135	0x3d2b24b9	0.04178307
136	0x3d32c160	0.043641448
137	0xbdedb280	-0.11606312
138	0xba86853d	-0.0010263097
139	0xbc5392c6	-0.0129134115
140	0xbdfad884	-0.12248328
141	0xbd573d32	-0.052548595
142	0xbda7992f	-0.08183514
143	0xbdca55bf	-0.09879636
144	0x3d891792	0.06693949
145	0xbd6af1f0	-0.057359636
146	0x3debe847	0.11518913
147	0x3cfcac4d	0.030843878
148	0xbb654ee2	-0.0034989645
149	0x3dec76e5	0.11546115
150	0xbd572c4d	-0.052532483
151	0x3d71dc94	0.05904825
152	0x3d975de8	0.07390958
153	0xbcf46d93	-0.029837405
154	0xbc76ad39	-0.015055948
155	0x3d42a3c1	0.04751945
156	0x3e151c4f	0.1456158
157	0x3d6f6c7c	0.058453068
158	0xba88b52d	-0.0010429971
159	0x3cfa53e1	0.030557575
160	0xbd50cf8a	-0.050979175
161	0x3d82e739	0.063917585
162	0xbdb07ec0	-0.08617926
163	0xbddddb51	-0.10832847
164	0xbd436407	-0.047702815
165	0xbd8ef6e4	-0.069806844
166	0xbd8bc019	-0.06823749
167	0xbdf73912	-0.12071432
168	0xbd1559ff	-0.03646278
169	0xbdbf6a1e	-0.09346412
170	0x3c8bdf84	0.017074354
171	0x3cd6924c	0.026192807
172	0x3d50449a	0.050846674
173	0xbda2ffc2	-0.07958938
174	0x3dfab5dc	0.12241718
175	0xbdee1d7f	-0.1162672
176	0xbddf533f	-0.1090455
177	0x3c3b0cd8	0.011416636
178	0x3dd0e697	0.102002315
179	0xbca75d78	-0.020430312
180	0x3d2e4ac0	0.042551756
181	0xbdd83437	-0.10556834
182	0x3d87b0b6	0.06625502
183	0x3e02becf	0.127681
184	0x3bf36cac	0.007428726
185	0x3dd03402	0.1016617
186	0xbdbbfa64	-0.091786176
187	0x3dfe3ee2	0.12414338
188	0x3dfbbb90	0.12291634
189	0xbd3ae278	-0.045626134
190	0x3e05d51a	0.13069573
191	0x3dd6201f	0.10455345
192	0xbd676019	-0.05648813
193	0x3da4a232	0.08038749
194	0x3cd72cc7	0.026266469
195	0x3d54b0cb	0.051926415
196	0xb99f5c16	-0.00030395453
197	0x3be88f8d	0.0070971907
198	0xbd341f1c	-0.04397498
199	0xbe0451e8	-0.1292187
200	0xbd89da58	-0.06731099
201	0xbdf39095	-0.11892811
202	0x3dd7d969	0.105395146
203	0x3db58790	0.08863747
204	0x3db29c1b	0.08721181
205	0x3d8bfaac	0.06834921
206	0xbe01ac0b	-0.12663285
207	0xbc370704	-0.011171106
208	0x3d613a6f	0.054987367
209	0x3de4c300	0.11170006
210	0xbdf30696	-0.118664905
211	0xbd0d6231	-0.03451747
212	0xbce3e598	-0.02781944
213	0x3dc6073c	0.096693486
214	0xbd81f3a7	-0.06345301
215	0x3ac0a5d7	0.0014697862
216	0x3dbb89a0	0.09157109
217	0xbd7c772d	-0.061637092
218	0x3d942605	0.07233814
219	0xbdd61e50	-0.104550004
220	0xbda592c0	-0.08084631
221	0xbd700b52	-0.058604546
222	0x3cb9f601	0.022700312
223	0x3dac92b4	0.08426419
224	0x3d77bcf6	0.06048294
225	0xbe159ff2	-0.14611796
226	0x3dffdbd0	0.12493098
227	0x3db01dd3	0.085994385
228	0xbd3b308c	-0.045700595
229	0x3c8db0d7	0.017296238
230	0xbe046424	-0.12928826
231	0xbdd3a0f5	-0.103334345
232	0x3d3b6b00	0.04575634
233	0xbdfb37cf	-0.12266504
234	0x3d665eb8	0.056242675
235	0x3cf9439d	0.030427748
236	0x3d4cdc08	0.050014526
237	0xbcd10403	-0.025514608
238	0xbdc2f165	-0.095186986
239	0xbdc04ae4	-0.09389284
240	0xbdd7a006	-0.10528569
241	0x3dc78e7f	0.09743976
242	0xbdefbf3d	-0.11706398
243	0x3daccc89	0.084374495
244	0x3dc9c842	0.09852649
245	0xbd0ac002	-0.03387452
246	0x3cd1127a	0.025521506
247	0x3d5c713f	0.053818937
248	0xbd696d6c	-0.05698912
249	0x3e0001c6	0.12500677
250	0x3bc12095	0.0058937767
251	0xbde9b14f	-0.11410772
252	0xbce84325	-0.02835233
253	0x3df72b93	0.12068858
254	0x3d015927	0.031579163
255	0x3c5b4b38	0.013384633

mlp.0.bias f4 [256]
0	0x3cdf43e3	0.02725405
1	0x3d809cac	0.06279883
2	0x3da3ddc1	0.080012806
3	0x3d2c522b	0.04207055
4	0xbdff178f	-0.12455665
5	0x3dbda9a5	0.09260873
6	0xbdecfb60	-0.115713835
7	0x3d807a87	0.0627337
8	0x3d0c5f2f	0.03427046
9	0xbdc99c6e	-0.0984429
10	0x3db5ecf6	0.08883087
11	0x3df1d0ba	0.118073896
12	0x3e03a9c9	0.12857737
13	0x3d82f3cd	0.063941576
14	0xbdddf43d	-0.108376004
15	0xbdf06f12	-0.11739935
16	0xbd9568ff	-0.07295417
17	0xbde9d23d	-0.11417053
18	0x3d802ad8	0.06258172
19	0xbdc2cbfb	-0.095115624
20	0x3df6809a	0.120362476
21	0xbe0b02f8	-0.13575351
22	0xbd21674a	-0.039405145
23	0xbda31d21	-0.0796454
24	0xbd9a9c4d	-0.07549343
25	0xba87bd1d	-0.0010356043
26	0x3db64cd3	0.08901372
27	0x3d7d9ecb	0.061919015
28	0x3e01f65d	0.12691636
29	0xbda87df5	-0.082271494
30	0x3de7041a	0.11280079
31	0x3b9bc266	0.0047533987
32	0xbc8a056a	-0.016848285
33	0xbd1ebc29	-0.038753662
34	0x3db599e3	0.08867242
35	0x3dba163e	0.090862736
36	0x3d324483	0.04352237
37	0x3dcf45aa	0.10120709
38	0xbd8a3b26	-0.06749563
39	0x3df3fd28	0.1191352
40	0xbd2b00e8	-0.04174891
41	0xbdae25b1	-0.08503283
42	0xbe0f7e1c	-0.1401295
43	0xbd9b61fe	-0.0758705
44	0x3d25f850	0.040520012
45	0x3d90679a	0.070510104
46	0xbd9b24e9	-0.075753994
47	0x3be634b3	0.007025325
48	0x3d748b06	0.059702896
49	0x3da9c5ee	0.08289705
50	0x3df1ea5c	0.11812279
51	0x3c8fe1a1	0.017563643
52	0x3a57db89	0.00082343124
53	0xbd4bcf36	-0.04975816
54	0x3d6c43ec	0.057681963
55	0xbd7ab919	-0.06121168
56	0xbdde13cc	-0.1084362
57	0xbdd36ef9	-0.10323901
58	0xbdb39813	-0.0876924
59	0xbe06fee7	-0.13183175
60	0xbde445f8	-0.11146158
61	0xbd080375	-0.033206422
62	0x3b16939f	0.0022976173
63	0x3da9fb21	0.08299852
64	0xbd57811f	-0.052613374
65	0xbd681735	-0.056662757
66	0xbd7f2917	-0.062295046
67	0xbd9243e3	-0.071418546
68	0x3b423435	0.0029633169
69	0x3e0062a9	0.12537636
70	0x3de1f7d6	0.11033599
71	0xbb2baa92	-0.0026194197
72	0xbdde8800	-0.10865784
73	0x3b5e0326	0.0033876388
74	0xbdf0cea3	-0.11758163
75	0xbdaffd25	-0.08593205
76	0xbd1633f7	-0.03667065
77	0x3cf5a42c	0.02998551
78	0x3d50f49f	0.05101454
79	0xbbaa4dd0	-0.0051972643
80	0xbe021d1e	-0.1270642
81	0xbe029624	-0.12752587
82	0xbdbc8829	-0.09205658
83	0x3df9098f	0.12160026
84	0x3dea1eef	0.11431681
85	0x3de910a2	0.113801256
86	0x3d18c370	0.03729576
87	0xbd6b0177	-0.057374444
88	0xbd859eb3	-0.0652441
89	0x3cb5f79d	0.022212798
90	0xbce19808	-0.027538314
91	0xbd6e6c8f	-0.058209
92	0x3dc6854b	0.09693392
93	0xbe0228a5	-0.12710817
94	0xbdd2a3fb	-0.10285183
95	0x3d325f20	0.04354775
96	0x3d934a0b	0.07191857
97	0xbd26c19b	-0.04071198
98	0xbdfa91be	-0.12234829
99	0x3d3fd6fa	0.046835877
100	0x3de31342	0.110876575
101	0x3de65dd9	0.11248369
102	0xbd5ae014	-0.053436354
103	0xbe0a73d8	-0.13520753
104	0xbcae2928	-0.02125986
105	0xbdcbb5e1	-0.099468
106	0xbb7a42ae	-0.0038186717
107	0x3c9d04c2	0.019167308
108	0x3d225b27	0.03963771
109	0xbd737872	-0.059441037
110	0x3db42c01	0.087974556
111	0x3cd1b00f	0.025596647
112	0x3db42582	0.087962165
113	0xbe051d49	-0.12999453
114	0xbced2f67	-0.028953267
115	0xbd828ad0	-0.06374133
116	0x3da5902a	0.08084138
117	0xbc391af2	-0.011297928
118	0xbd050afa	-0.03248117
119	0x3dc83fc0	0.09777784
120	0xbdfd6738	-0.12373203
121	0xbc00b3fb	-0.007855411
122	0x3d96d10d	0.07364092
123	0x3b1521fd	0.0022755854
124	0xbda16ed0	-0.07882464
125	0xbbaae68a	-0.0052154707
126	0x3c5555a7	0.013020909
127	0xbe01643d	-0.12635894
128	0x3c579a56	0.013159355
129	0xbd067c13	-0.03283317
130	0x3d890bb5	0.06691686
131	0xba875040	-0.0010323599
132	0xbd916a22	-0.07100321
133	0x3dc413d7	0.09574097
134	0x3d80bb3b	0.062857114
135	0x3df7cf61	0.12100101
136	0x3cea7a50	0.028622776
137	0x3c896882	0.016773466
138	0x3d323446	0.043506883
139	0x3cb82fab	0.022483667
140	0xbddbc2f8	-0.10730547
141	0x3da56ef7	0.080778055
142	0xbd179da2	-0.037015565
143	0xbdf08ad1	-0.11745227
144	0x3de1723b	0.11008116
145	0xbd02bfa2	-0.031921037
146	0xbc78f5bb	-0.015195305
147	0x3d349464	0.04408683
148	0x3d6d0663	0.05786742
149	0xbd75e265	-0.06003036
150	0xbdbf2882	-0.09333898
151	0xbcab2929	-0.02089365
152	0xbd16d3bd	-0.036823023
153	0xbce026b4	-0.027362205
154	0x3dc53d2e	0.0963081
155	0xbdabe662	-0.083935514
156	0x3acbc69f	0.0015546865
157	0x3c8d2b92	0.01723269
158	0xbd282d8b	-0.04105906
159	0xbd6eafd1	-0.05827314
160	0x3d826187	0.06366258
161	0x3d2ddc40	0.042446375
162	0x3d12706c	0.035751745
163	0x3db724c2	0.08942558
164	0xbd74c7ca	-0.059760846
165	0x3d1e5192	0.03865201
166	0xbaeded96	-0.0018152471
167	0xbe1393ab	-0.144118
168	0xbdaf7d8f	-0.0856887
169	0xbc9745d6	-0.018465918
170	0x3d657ce8	0.056027323
171	0xbccf55da	-0.025309492
172	0xbdf31b88	-0.118704855
173	0x3dc34f19	0.09536571
174	0x3b287fdb	0.0025710973
175	0x3dad12b5	0.08450834
176	0xbc0791cd	-0.008274508
177	0xbc59d425	-0.013295208
178	0x3d8cabeb	0.06868728
179	0x3ba86e55	0.0051401057
180	0xbd0644e0	-0.032780528
181	0x3dc903f8	0.0981521
182	0xbc86d32f	-0.016458122
183	0xbda3a13c	-0.079897374
184	0x3c27b3cb	0.010235737
185	0xbc6b2eea	-0.014354447
186	0x3da9b9ff	0.08287429
187	0xbe0b5203	-0.13605504
188	0x3d779f78	0.060454816
189	0x3e049543	0.12947564
190	0xbd75bbf9	-0.059993718
191	0x3d745b34	0.05965729
192	0xbd8f7b6b	-0.07005962
193	0x3dafa107	0.085756354
194	0x3d7e64ae	0.062107734
195	0x3e0abe82	0.13549235
196	0x3cc4f029	0.024040299
197	0xbd53444d	-0.05157881
198	0x3e05e3d2	0.13075188
199	0x3e0a5b91	0.13511492
200	0xbde71ab7	-0.11284392
201	0x3d8f1afd	0.069875695
202	0x3cad5729	0.021159725
203	0xbbc420f6	-0.0059853746
204	0x3d92870f	0.07154667
205	0x3d0297b1	0.031882945
206	0xbd9d31b2	-0.07675494
207	0xbe01a015	-0.12658723
208	0xbdc40ab0	-0.09572351
209	0x3dd74373	0.10510912
210	0x3da2edf8	0.07955545
211	0x3de5d0c3	0.11221459
212	0xbdb3adf6	-0.08773415
213	0x3db69a47	0.08916145
214	0x3df11465	0.11771468
215	0x3d64bf41	0.055846456
216	0x3de8836a	0.1135319
217	0x3dc38c3f	0.09548234
218	0x3d29637a	0.041354634
219	0x3d71242f	0.058872398
220	0x3c9dd134	0.019264795
221	0xbd548157	-0.05188116
222	0x3ce2d413	0.027689015
223	0xbcc4f253	-0.02404133
224	0x3d1a20ff	0.037629124
225	0xbdfaebf9	-0.122520395
226	0xbe02b80c	-0.12765521
227	0xbd2cf78d	-0.04222827
228	0x3df25210	0.118320584
229	0xbda87bc2	-0.0822673
230	0x3dcdd794	0.10050884
231	0x3ded84fc	0.115976304
232	0xbc769df8	-0.015052311
233	0xbba926f0	-0.0051621124
234	0xbd1be91f	-0.03806412
235	0x3d93d1be	0.072177395
236	0xbc6aeb33	-0.014338302
237	0x3b2d1699	0.0026411174
238	0x3d878f22	0.06619097
239	0xbde6fae8	-0.11278325
240	0xbd5f596c	-0.05452864
241	0x3c63d834	0.013906527
242	0xbd17b441	-0.037037138
243	0xbd253743	-0.040335905
244	0xbe03b6a4	-0.1286264
245	0xbe074fad	-0.13213988
246	0xbb6238da	-0.003451875
247	0xbdbf3974	-0.0933713
248	0x3d10613d	0.035248984
249	0xbdc72307	-0.09723478
250	0x3d63ebcb	0.05564479
251	0xbd31bfc6	-0.04339578
252	0x3db15764	0.086592466
253	0x3d61d8c9	0.055138383
254	0x3dc0e287	0.09418207
255	0xbdee28f1	-0.11628903

mlp.2.weight f4 [128, 256]
0	0x3d677c4e	0.05651503
1	0x3d1bf6ea	0.038077272
2	0x3d04004a	0.03222684
3	0xbd718cc4	-0.058972135
4	0xbd39d51a	-0.045369245
5	0x3d6d6c0e	0.057964377
6	0x3d325976	0.043542348
7	0x3cf54d7b	0.029944172
8	0xbc52e61e	-0.012872247
9	0xbd3c7864	-0.04601325
10	0x3d28eeea	0.04124347
11	0x3caa6298	0.020798966
12	0x3c1a5da8	0.009421743
13	0x3cff6583	0.031176334
14	0xbcf50c2c	-0.02991303
15	0x3b392700	0.0028252006
16	0xbd237feb	-0.039916914
17	0x3d038ab1	0.03211469
18	0xbd0c9520	-0.034321904
19	0xbd28a6ab	-0.041174572
20	0x3d4978c5	0.04918744
21	0xbc5874ba	-0.0132114235
22	0x3ce136fe	0.027492043
23	0x3c90df0c	0.017684482
24	0xbd613034	-0.05497761
25	0xbd3095d6	-0.043111645
26	0x3d826993	0.06367793
27	0xbcc9cf56	-0.024634998
28	0x3d441fa5	0.04788174
29	0x3c18bf4c	0.0093229525
30	0xbc9bfcef	-0.019041507
31	0x3d4b83cc	0.04968624
32	0x3d094f68	0.033522993
33	0x3c14fb64	0.009093139
34	0xbce3a13a	-0.02778684
35	0x3ba8ca97	0.0051511037
36	0x3cb71353	0.022348082
37	0xbcd89981	-0.026440384
38	0x3c2c6a4e	0.010523392
39	0x3d8c1bd5	0.06841246
40	0xbc66a0df	-0.014076441
41	0x3b2fbae6	0.002681428
42	0xbc9c0718	-0.019046351
43	0xbc7bc68c	-0.0153671615
44	0xbd36574a	-0.04451684
45	0x3cad24cc	0.02113571
46	0x3d583aa9	0.052790318
47	0xbba5b707	-0.005057219
48	0x3d00df90	0.031463206
49	0x3d35d035	0.044388015
50	0x3ab67ab2	0.0013922064
51	0x3beca088	0.0072212853
52	0x3d0d1595	0.03444441
53	0x3d81e2e4	0.06342104
54	0x3cd21590	0.025645047
55	0xbd0562af	-0.032564815
56	0x3d366ae1	0.04453552
57	0x3d703884	0.058647648
58	0x3c950010	0.018188506
59	0xbd030fc6	-0.031997465
60	0xbc9d5b5a	-0.019208599
61	0x3bff6a6c	0.007794669
62	0xbcb9c2e8	-0.022675946
63	0xbca11c88	-0.019666925
64	0xba5551bd	-0.0008137485
65	0x3d4c170f	0.049826678
66	0xbce91718	-0.028453395
67	0xbd294fe3	-0.04133595
68	0x3d5fa26e	0.054598264
69	0x3c1f8000	0.009735107
70	0xbcca871f	-0.024722634
71	0xbd12afe4	-0.035812274
72	0x3cec2de2	0.028830472
73	0xbc411437	-0.011784605
74	0xbd1960d9	-0.037445877
75	0xbd3af922	-0.045647748
76	0xbcf5a2d4	-0.029984869
77	0x3d1bcde0	0.038038135
78	0xbc0ab097	-0.008464954
79	0xbcb434ff	-0.021997927
80	0x3ba768c3	0.005108924
81	0x3d3111a3	0.04322971
82	0xbca53255	-0.020165602
83	0x3d7cb144	0.06169249
84	0x3d0c12cd	0.034197617
85	0xbd8b2211	-0.06793607
86	0xb9ec31c0	-0.00045050494
87	0x3db956c3	0.090497516
88	0xbd3497f5	-0.04409023
89	0x3d2cfc28	0.042232662
90	0xbca7f6c0	-0.020503402
91	0xbd2a1103	-0.04152013
92	0x3cd189b9	0.025578367
93	0x3cec9aa2	0.028882328
94	0xbd78c6e8	-0.060736567
95	0xbd6d2ec8	-0.057905942
96	0xbc9ac6c0	-0.0188936
97	0xbbe30bc0	-0.006928891
98	0xbbef3c97	-0.007300924
99	0x3c3bc663	0.011460873
100	0xbbb5b560	-0.005545303
101	0x3cbad083	0.022804504
102	0x3d7d683c	0.061866984
103	0xbb1d820c	-0.0024033813
104	0xbd0e7257	-0.03477701
105	0x3d87cfbb	0.06631418
106	0x3d733b6c	0.05938284
107	0xbc2f6136	-0.010704329
108	0x3d7203f4	0.0590858
109	0x3d2dcc42	0.042431124
110	0x3c273f01	0.010207892
111	0x3d7596b8	0.05995819
112	0x3d82f4b5	0.063943304
113	0x3d02ae84	0.031904712
114	0xbd352295	-0.044222433
115	0x3cb3cacd	0.021947289
116	0x3d8318fd	0.064012505
117	0xbd8dc219	-0.06921787
118	0xbd30e1c4	-0.043184057
119	0x3ae5f61d	0.0017544661
120	0x3af75a00	0.0018871427
121	0xbb887009	-0.0041637463
122	0xbccb8396	-0.024843019
123	0x3cf74337	0.030183418
124	0x3d5669f2	0.05234713
125	0xbc8e554e	-0.01737466
126	0x3d214826	0.039375447
127	0xbd5ec896	-0.054390512
128	0xbb8ec3e4	-0.004356848
129	0x3c4ba160	0.0124286115
130	0x3d15e14c	0.036591813
131	0x3d132ddf	0.035932418
132	0xbc94db70	-0.018171042
133	0xbd0ff34a	-0.035144128
134	0x3d27e4e4	0.04098977
135	0x3d58ebbb	0.052959185
136	0x3c19c688	0.009385712
137	0x3b88c7e6	0.0041742204
138	0xbcb379ce	-0.021908667
139	0x3d71d164	0.05903758
140	0xbd800dfb	-0.062526666
141	0x3c2135a2	0.009839447
142	0xbc9dd4b4	-0.019266464
143	0x3c702126	0.014656341
144	0xbd1ca759	-0.038245533
145	0x3c8afc54	0.016966023
146	0x3d5b28ec	0.053505823
147	0x3d212bb1	0.039348308
148	0xbd34f794	-0.04418142
149	0xbba9ec20	-0.005185619
150	0xbd1cf2e2	-0.03831757
151	0xbcc74718	-0.024325892
152	0xbd21c799	-0.03949699
153	0xbd66cfbe	-0.056350462
154	0x3d103a0b	0.035211604
155	0x3d27bc7a	0.04095123
156	0x39816359	0.00024678817
157	0x3c826cf0	0.015921086
158	0xbcbcf9e1	-0.02306837
159	0x3d13ed2c	0.036114857
160	0x3d324451	0.043522183
161	0xba549a00	-0.0008110106
162	0x3d6c3b33	0.057673644
163	0x3c914442	0.017732743
164	0xbcdca4b8	-0.026934013
165	0x3d5570ed	0.052109648
166	0x3c7f98f2	0.01560043
167	0x3d0538bb	0.032524806
168	0xbd6718c2	-0.056420095
169	0x3c9a4ed8	0.018836424
170	0xbabaebde	-0.0014260968
171	0xbd67686e	-0.056496076
172	0x3d6114d0	0.05495149
173	0x3d1f325e	0.038866393
174	0xbb16bd6c	-0.0023001088
175	0x3ce12eb3	0.027488088
176	0x3d3fc887	0.046822097
177	0xbc66b1b3	-0.014080453
178	0xbaae25f1	-0.0013286454
179	0xbd187f42	-0.037230738
180	0x3d7acf83	0.061233055
181	0x3d5f4b9b	0.054515462
182	0xbd05ce3c	-0.032667384
183	0x3d192f63	0.037398707
184	0xbd4d7525	-0.050160546
185	0x3ce3af37	0.02779351
186	0x3d7fd680	0.062460423
187	0xbd6effe9	-0.058349524
188	0xbcf49eec	-0.029860936
189	0xbd2a4a76	-0.041574918
190	0x3d3033c6	0.043018125
191	0x3a278f4a	0.0006391896
192	0x3cade670	0.021228045
193	0x3d4e3169	0.05034009
194	0xbca86a9d	-0.02055865
195	0x3d124253	0.035707783
196	0x3d5ed594	0.054402903
197	0x3bbf2192	0.0058328593
198	0xbd31ee32	-0.04344005
199	0x3c479dec	0.012183648
200	0x3d328344	0.043582216
201	0x3cf7b97c	0.030239813
202	0x3d51830e	0.051150374
203	0xbcc7ae08	-0.024374977
204	0x3d312e3c	0.043256983
205	0x3cf5e3a2	0.03001577
206	0xbd659898	-0.056053728
207	0xbd187144	-0.037217394
208	0x3d28c4f4	0.041203454
209	0x3c37c2b6	0.011215856
210	0x3d463960	0.04839456
211	0x3c881a90	0.016614228
212	0x3c4a14cc	0.01233406
213	0xbd833e5c	-0.064083785
214	0x3c8313f6	0.016000729
215	0x3b00d7df	0.001965992
216	0x3d105303	0.035235416
217	0x3d06c67d	0.032904137
218	0x3ba5c346	0.005058679
219	0xbcea5874	-0.02860663
220	0xbc83926b	-0.016061028
221	0xbc837afe	-0.016049858
222	0x3ba4ae22	0.005025641
223	0x3d7aee34	0.061262324
224	0xbcbc56ec	-0.022990666
225	0x3c889d09	0.016676443
226	0xbd66d55a	-0.05635581
227	0x3d1d79aa	0.038446106
228	0x3d2c6e44	0.042097345
229	0x3d939665	0.0720642
230	0xbc32078e	-0.010866059
231	0xba069142	-0.00051333394
232	0x3cdc1af4	0.026868321
233	0x3d02a62a	0.031896748
234	0xbd246036	-0.040130816
235	0x3cc4d6ac	0.024028145
236	0xbc5dd8c5	-0.013540451
237	0x3d02b767	0.031913187
238	0xbc2b1446	-0.010441845
239	0xbd663bc2	-0.056209333
240	0xbd412b44	-0.047160402
241	0xbc4f7368	-0.012661792
242	0xba52df80	-0.00080441684
243	0xbcfa3e68	-0.030547336
244	0xbd22c668	-0.039739996
245	0xbc0c1554	-0.008550007
246	0x3c9bb918	0.019009158
247	0xbcd74e43	-0.026282435
248	0x3cdda8ba	0.027057994
249	0xbba24bc1	-0.004952878
250	0xbd5efa9c	-0.05443822
251	0xbae27076	-0.0017275948
252	0xbcfc11c3	-0.030770188
253	0xbd0c703c	-0.034286723
254	0x3d0813c8	0.03322199
255	0x3b555100	0.00325495

mlp.2.bias f4 [128]
0	0xbd4c813e	-0.049927942
1	0x3d555d6c	0.052091047
2	0xbbd68850	-0.0065470114
3	0xbc85119e	-0.016243752
4	0x3c02d8ac	0.007986229
5	0x3ca3588c	0.019939683
6	0xbd24eced	-0.040265013
7	0xbcc29bb9	-0.023755895
8	0x3bb63e09	0.0055615944
9	0xbc9fc259	-0.019501852
10	0x3d375a7a	0.04476402
11	0xbcb86118	-0.022507235
12	0xbcc96f4c	-0.024589203
13	0xbc28816a	-0.010284761
14	0x3c892b27	0.01674421
15	0x3c83b57b	0.016077748
16	0x3c92fbe0	0.017942369
17	0xbd49273c	-0.049109682
18	0x3ad44027	0.0016193435
19	0x3cfabb6f	0.030606953
20	0x3c2db818	0.010602973
21	0x3d3dc151	0.04632694
22	0x3d185415	0.037189562
23	0xbce97a38	-0.028500661
24	0xbb8e1ade	-0.004336699
25	0xbc66d914	-0.014089841
26	0x3c829eb4	0.015944816
27	0xbbde8800	-0.006791115
28	0xbd1b0958	-0.037850708
29	0x3d58aece	0.05290108
30	0x3d6846c4	0.056708112
31	0x3d159207	0.036516216
32	0xbd74a5d1	-0.059728447
33	0x3d023a6c	0.031793997
34	0xbd5603ee	-0.05224984
35	0xbd1426cc	-0.036169812
36	0x3c90100e	0.01758578
37	0x3c9bf63b	0.01903831
38	0xbd5e4394	-0.054263666
39	0xbd83ffc7	-0.0644527
40	0x3cbc327b	0.02297329
41	0xbd0f5820	-0.034996152
42	0xbd1c5012	-0.0381623
43	0xbd594422	-0.053043492
44	0xbc5e8655	-0.013581832
45	0x3c042456	0.008065304
46	0x3d026c0d	0.031841327
47	0x3c44040c	0.0119638555
48	0x3d30ba27	0.04314628
49	0xbbac98e0	-0.0052672476
50	0xbce2cdf7	-0.027686102
51	0xba4c59aa	-0.00077953434
52	0x3c0f84b5	0.008759667
53	0x3c0c0a44	0.008547369
54	0xbc9861b6	-0.01860128
55	0x3c906e27	0.01763065
56	0x3d1c84af	0.038212474
57	0x3d71b1be	0.0590074
58	0x3d58f894	0.052971438
59	0x3d25eac4	0.040507093
60	0x3c39fd46	0.011351889
61	0x3d5f3d7f	0.054502007
62	0x3d4d5036	0.050125323
63	0x3ca01974	0.019543387
64	0xbc90883f	-0.017643092
65	0x3d4e1560	0.050313354
66	0x3bf12650	0.0073593035
67	0xbc364078	-0.011123769
68	0x3c121b77	0.008917681
69	0xbc416578	-0.011803977
70	0x3d1042ff	0.035220142
71	0x3bfceb84	0.0077185053
72	0xbd7b2e18	-0.061323255
73	0xbd0c5cbe	-0.034268133
74	0xbc79c368	-0.015244342
75	0xbd214394	-0.03937109
76	0xbd4dadee	-0.0502147
77	0xbcf4dfe8	-0.029891923
78	0xbd07854c	-0.033086106
79	0xbd186272	-0.03720326
80	0x39d62d9c	0.00040851242
81	0x3cdab3bc	0.026697032
82	0xbcb1ff8c	-0.0217283
83	0x3cde619d	0.027146155
84	0x3d3cb516	0.046071135
85	0x3c095764	0.008382652
86	0x3c107417	0.0088167405
87	0x3d1c92f3	0.03822608
88	0x3cc10368	0.023561195
89	0xbd4844b0	-0.04889363
90	0x3d0a8537	0.03381845
91	0xbd515d8c	-0.051114604
92	0xbd54ce40	-0.051954508
93	0x3d5bc2d2	0.053652592
94	0xbd65f165	-0.056138415
95	0x3d275ea6	0.04086175
96	0x3c845f28	0.016158655
97	0x3cf96426	0.030443262
98	0x3cea0b40	0.028569818
99	0x3d3a4621	0.045477036
100	0x3d17cc48	0.037060052
101	0x3b7d4835	0.0038647775
102	0x3c7dafe1	0.015483827
103	0x3d1647ac	0.036689445
104	0x3c94270c	0.018085025
105	0x3d47ca9a	0.0487772
106	0x3ba5abe0	0.0050558895
107	0xbcf1ed11	-0.029531987
108	0xbd24b80c	-0.040214583
109	0xbd7e7820	-0.06212628
110	0xbbbdd5a0	-0.0057932884
111	0x3bea00f8	0.0071412288
112	0xbc0b7a6a	-0.0085130725
113	0xbccc3b7f	-0.024930714
114	0x3cf32d68	0.029684737
115	0xbd692cec	-0.056927606
116	0xba40b080	-0.00073505193
117	0x3cba7262	0.02275962
118	0xbcc89584	-0.024485357
119	0x3d455b4d	0.048182774
120	0xbcef51b9	-0.029213773
121	0x3c07e260	0.008293718
122	0xbd6724d2	-0.0564316
123	0xbd1d8db9	-0.038465235
124	0xbc01bc42	-0.007918419
125	0x3d2f8498	0.04285106
126	0x3c935bcd	0.01798811
127	0xbd078b3a	-0.03309176
