weights2/ep_2111.pth (torch, 275655 bytes, 10 tensors)

lstm.weight_ih_l0 f4 [192, 7]
0.17675023 -0.19833311 -0.24266972 -0.010778314 0.10783679 -0.021209307 0.018496588 0.1020067
-0.08701459 0.012705848 0.07995976 0.12694179 0.017327145 0.13967285 -0.043597914 0.019192167
-0.13942449 -0.25557923 0.23559333 0.13278836 0.022394719 0.05419521 0.16852063 -0.08440188
-0.12044239 0.37109372 0.09986873 0.4354584 -0.066931605 0.024077805 -0.032363284 -0.1096449
0.19015154 0.26497063 0.13274175 -0.17619403 0.22379842 -0.012634642 0.10378372 0.049148537
-0.20393649 0.09749209 -0.02360591 0.1977334 -0.15298185 0.009949788 0.113034405 0.06644465
0.028160911 0.045003302 0.05886027 -0.12495886 -0.030755473 0.17028831 -0.05501042 0.17529897
-0.02927868 0.19772339 -0.04767723 -0.15998192 -0.03158654 0.1839467 -0.018611295 -0.12311615
0.003568072 -0.15208101 -0.19266604 0.14502294 0.18891309 0.19036724 -0.16890723 -0.08107528
-0.21691386 0.029145658 0.033144865 -0.21610166 0.08680318 -0.14491811 -0.15292418 0.05203558
0.04584792 -0.04466163 -0.12064317 0.08843903 -0.040375285 0.1455376 0.24181291 -0.021871857
0.20654184 0.22928531 -0.01564722 -0.10834545 0.15288405 -0.117013685 -0.14031477 0.058447566
0.11634948 0.14908054 -0.16754149 -0.014674638 -0.0026061228 0.015109212 0.1492217 0.024607204
0.17393027 -0.006023884 -0.031176092 -0.00094569393 0.14209738 0.10349004 0.108942606 0.022478417
-0.11300139 0.15914416 -0.079784766 -0.08466232 0.1385552 0.052571952 0.22784254 0.10379511
0.015040686 -0.21696123 -0.20307392 0.25388032 -0.010086915 0.22596341 0.08795215 0.03395624
-0.10352902 -0.033192415 0.011449159 0.13943946 0.025086628 -0.12881954 0.007921808 0.30232933
0.16187291 0.073459655 0.121116616 0.16378357 -0.0059795477 -0.03496684 0.10481529 0.079021
0.23559156 0.068385966 0.03681716 0.0028246173 0.21261224 0.04262602 0.04046609 0.11939258
0.27644825 0.18902573 0.10879135 -0.0065404354 0.062631905 -0.0132346945 0.09721394 0.41081077
0.17685398 -0.18503617 0.02222412 -0.267226 -0.15689184 0.22495574 0.25834197 0.24757868
0.09695494 -0.09522668 -0.25376073 -0.066328004 0.043926664 -0.01620013 -0.03998462 -0.043089718
0.07282425 0.17831862 -0.026334602 0.14662203 0.054100655 -0.028038824 0.0185511 -0.09024688
-0.17198116 -0.07163888 0.09106303 -0.19029197 0.10304492 0.070428304 0.1396423 -0.060788408
-0.016401153 0.16672802 0.24218969 -0.003323372 0.18297487 -0.07255362 0.041872382 0.16297962
-0.06313442 -0.12318187 0.111134075 -0.16784418 0.046290353 0.064409465 0.14677884 0.2380416
0.14690526 0.29722187 0.23314358 -0.035687413 0.049015146 0.16347474 0.059157234 0.07106403
-0.015500252 0.22465695 0.06023284 -0.0054783104 -0.047973778 0.02943955 0.17980789 0.053136777
0.22191 -0.08264995 0.15806763 0.12576333 0.17440574 0.1644792 0.08197365 0.22043808
-0.14239575 0.051203866 -0.03283929 0.10365138 -0.13743596 -0.069836065 0.046503868 0.24810325
-0.07826861 -0.023998084 0.0078486325 -0.014657464 0.10709448 -0.11752895 -0.09304388 -0.22945864
-0.0581846 0.09489999 -0.044391923 0.032739937 0.16000897 0.23929998 0.12348241 0.017411176
00000000: 03fe 343e d617 4bbe 697e 78be 8797 30bc
00000010: 89d9 dc3d 24bf adbc 2886 973c e4e8 d03d
00000020: b534 b2bd 302c 503c f1c1 a33d 07fd 013e
00000030: a8f1 8d3c 6606 0f3e ba93 32bd e438 9d3c
00000040: 4bc5 0ebe 48db 82be 613f 713e acf9 073e
00000050: 2175 b73c ccfb 5d3d ac90 2c3e e5da acbd
00000060: 80aa f6bd ffff bd3e fa87 cc3d 67f4 de3e
00000070: 7013 89bd d13e c53c 5d8f 04bd 818d e0bd
00000080: 16b7 423e 3baa 873e 74ed 073e 356c 34be
00000090: 6a2b 653e 8801 4fbc 8f8c d43d fa4f 493d
000000a0: bad4 50be efa9 c73d 2e61 c1bc a07a 4a3e
000000b0: 46a7 1cbe 7004 233c 957e e73d 2214 883d
000000c0: b6b1 e63c 6255 383d 7717 713d 6eea ffbd
000000d0: e7f2 fbbc 0f60 2e3e 9b52 61bd 9381 333e
000000e0: d8d9 efbc 0078 4a3e 3349 43bd 4dd2 23be
000000f0: e360 01bd 865c 3c3e b776 98bc 5224 fcbd
00000100: 51d6 693b 20bb 1bbe 3f4a 45be e580 143e
00000110: 6f72 413e a1ef 423e 04f6 2cbe cc0a a6bd
00000120: ab1e 5ebe e0c2 ee3c e9c2 073d c149 5dbe
00000130: dec5 b13d 6a65 14be 2898 1cbe 4323 553d
00000140: 07cb 3b3d 1def 36bd c413 f7bd 861f b53d
00000150: 8e60 25bd cf07 153e ce9d 773e 9c2c b3bc
00000160: b47f 533e c5c9 6a3e 992e 80bc 38e4 ddbd
00000170: a38d 1c3e dfa4 efbd adae 0fbe b766 6f3d
00000180: a348 ee3d 92a8 183e ff8f 2bbe e56d 70bc
00000190: 7ccb 2abb a18c 773c 93cd 183e 0c95 c93c
000001a0: c71a 323e 0064 c5bb 0165 ffbc 72e8 77ba
000001b0: fa81 113e 96f2 d33d 4d1d df3d a824 b83c
000001c0: 466d e7bd b0f6 223e 3266 a3bd 7063 adbd
000001d0: 6ae1 0d3e b055 573d 8e4f 693e 8892 d43d
000001e0: 366d 763c 162b 5ebe 9cf2 4fbe 9afc 813e
000001f0: 9743 25bc f462 673e 4220 b43d b315 0b3d
00000200: 0607 d4bd c5f4 07bd 4195 3b3c 38c9 0e3e
00000210: 7982 cd3c 45e9 03be 79ca 013c e9ca 9a3e
00000220: 03c2 253e 0472 963d fd0b f83d e1b6 273e
00000230: 15f0 c3bb 6439 0fbd 66a9 d63d c3d5 a13d
00000240: ea3e 713e f10d 8c3d 97cd 163d 371d 393b
00000250: 06b7 593e 9f98 2e3d c5bf 253d 1984 f43d
00000260: a08a 8d3e f68f 413e 00ce de3d 2651 d6bb
00000270: 2845 803d 55d6 58bc 1a18 c73d ca55 d23e
00000280: 3619 353e 1f7a 3dbe 5c0f b63c d9d1 88be
00000290: 41a8 20be cc5a 663e 6645 843e 4485 7d3e
000002a0: 5090 c63d 3506 c3bd edec 81be fad6 87bd
000002b0: 72ec 333d 23b6 84bc eac6 23bd d87e 30bd
000002c0: e124 953d 2899 363e aabb d7bc 1624 163e
000002d0: a698 5d3d adb1 e5bc 7af8 973c 5bd3 b8bd
000002e0: d41b 30be 68b7 92bd 417f ba3d e6db 42be
000002f0: 3709 d33d b73c 903d 64fe 0e3e 44fd 78bd
00000300: b65b 86bc c0ba 2a3e 9300 783e eecc 59bb
00000310: c45d 3b3e fe96 94bd 6082 2b3d 21e4 263e
00000320: 9e4c 81bd c746 fcbd 439a e33d 58df 2bbe
00000330: f49a 3d3d 1ce9 833d 314d 163e 2dc1 733e
00000340: 556e 163e 772d 983e 31bd 6e3e f72c 12bd
00000350: 1bc4 483d ec65 273e db4e 723d 058a 913d
00000360: c5f4 7dbc 790c 663e b6b6 763d 6683 b3bb
00000370: 2780 44bd 362b f13c 8f1f 383e f3a5 593d
00000380: 603c 633e 6144 a9bd 7bdc 213e 1ac8 003e
00000390: 6b97 323e 3c6d 283e cde1 a73d 85ba 613e
000003a0: 31d0 11be 25bb 513d 7e82 06bd 2d47 d43d
000003b0: 03bc 0cbe 3606 8fbd d77a 3e3d c70e 7e3e
000003c0: 4b4b a0bd a197 c4bc 8d97 003c dc25 70bc
000003d0: 5a54 db3d 05b3 f0bd ca8d bebd 35f7 6abe
000003e0: fa52 6ebd ed5a c23d 4ed4 35bd 501a 063d
000003f0: 64d9 233e 0e0b 753e 59e4 fc3d e2a1 8e3c

lstm.weight_hh_l0 f4 [192, 48]
-0.26643258 -0.25172523 -0.024338486 -0.24186614 0.25043765 -0.0145321945 -0.16566303 -0.027774757
0.15541495 0.097488135 -0.19581738 0.3193212 0.025446486 0.1717007 -0.1255579 -0.022095459
0.10995335 -0.001493904 0.019958999 0.06825317 -0.042593915 -0.018320896 0.08340892 -0.068438865
-0.10235972 0.10355139 0.09832734 0.028522504 -0.15693863 0.16297074 0.17424333 -0.040877365
0.16339749 0.063033745 -0.25625068 -0.15853308 0.05489366 -0.070631154 0.24518217 0.12209056
-0.088144004 -0.07659487 0.36315274 -0.1218074 -0.26065525 0.19565442 -0.030666001 -0.15913588
-0.09730554 -0.06648692 0.04282805 -0.21035132 0.1506998 0.05003308 -0.0009244352 -0.080746084
0.24612667 0.014886155 -0.23802556 0.17070892 -0.058553867 0.0832471 -0.12721772 0.16317962
0.0432351 -0.0920611 -0.07656673 -0.11356224 -0.15669271 0.13847356 0.025245976 0.05554393
-0.03416802 -0.030855691 0.13343638 0.040164735 -0.047107685 -0.24186604 -0.028344605 -0.05120852
0.17922719 -0.14171842 -0.107499704 -0.20402423 -0.24133459 -0.14451282 0.25378242 -0.009058902
-0.20584218 -0.026619736 0.0730956 -0.37384263 -0.23558319 0.24804978 -0.031831898 -0.021382498
-0.06821699 -0.25356412 0.3699695 -0.052555803 0.14292395 0.09372767 -0.07971046 -0.08530624
0.11423321 -0.19353057 -0.26798576 0.15933949 -0.02668484 0.08349638 -0.20284292 0.117857374
0.13250092 -0.0009995898 -0.0068382104 -0.061516754 -0.037969466 0.13302311 0.1574064 0.15942743
-0.04867928 0.11353143 -0.0845143 0.033432927 0.035854455 0.02463712 -0.12683225 0.07009857
0.065101676 0.11319045 0.038173698 -0.10977722 -0.011190319 -0.3024429 0.22888072 0.14641629
-0.1584373 0.12842488 -0.04418234 -0.35523 -0.12171449 0.17231637 -0.060562387 0.047960125
-0.33737746 -0.027631763 0.28486884 -0.25480276 0.3029331 0.18224035 -0.20137538 -0.29650572
0.116365485 -0.12728868 -0.13554224 0.41594774 -0.23749422 0.23041582 -0.19330744 0.32855678
0.22710268 -0.12325459 -0.18725598 0.050466873 -0.12995458 0.18989381 0.37367254 0.094510004
-0.18646769 0.18936785 0.2647494 0.056688383 -0.029758394 -0.20136452 0.14433962 0.38803563
0.25732997 -0.05374168 -0.098358095 -0.116478674 -0.23408541 -0.28974968 0.21513389 0.23596384
-0.2645859 -0.2666774 0.32146737 -0.03211581 -0.2171423 0.45478866 -0.07402285 -0.13763237
-0.40155715 -0.20893288 0.19564514 -0.35794416 0.25250843 0.033300392 -0.21622615 0.00847603
0.19598718 0.046132762 -0.11538499 0.1803331 0.0017196614 0.45423347 -0.24339351 -0.008924864
0.3482813 -0.03290022 -0.11340715 0.17294988 -0.09836088 0.11233285 0.23012379 -0.08810789
-0.20540816 0.028485436 0.06605569 0.30564064 -0.069620095 0.048334017 0.007383308 0.033122156
0.25991628 -0.07207788 -0.21244699 -0.29287368 -0.29598105 -0.40298268 0.10464349 0.17695735
-0.13463604 0.010657039 0.386252 -0.14967644 -0.38360482 0.28851894 0.08319107 -0.13907513
-0.14697324 -0.08202273 -0.043412413 -0.2541491 0.2396752 -0.23907474 0.00037819662 -0.21674739
0.15256205 -0.1446152 -0.03478671 0.22884142 0.06287133 0.08060207 -0.19291052 0.16135181
00000000: da69 88be 21e2 80be 8161 c7bc c2ab 77be
00000010: 5d39 803e 7118 6ebc 92a3 29be e387 e3bc
00000020: 1925 1f3e dca7 c73d 5a84 48be 117e a33e
00000030: 2675 d03c 4fd2 2f3e 4092 00be 8901 b5bc
00000040: 392f e13d 1acf c3ba 0e81 a33c 51c8 8b3d
00000050: f576 2ebd b415 96bc 4cd2 aa3d ad29 8cbd
00000060: f9a1 d1bd c012 d43d d85f c93d 07a8 e93c
00000070: 85b4 20be cde1 263e d86c 323e 066f 27bd
00000080: ac51 273e d617 813d 4a33 83be 7f56 22be
00000090: 2dd8 603d 11a7 90bd 0911 7b3e 9e0a fa3d
000000a0: d884 b4bd c5dd 9cbd 28ef b93e 2876 f9bd
000000b0: 9b74 85be a259 483e 4437 fbbc 84f4 22be
000000c0: 2148 c7bd 4b2a 88bd 776c 2f3d 5666 57be
000000d0: 0c51 1a3e 7def 4c3d cc55 72ba 345e a5bd
000000e0: a108 7c3e 0fe5 733c f9bc 73be 52ce 2e3e
000000f0: 2ed6 6fbd 757d aa3d 5d45 02be 8f18 273e
00000100: 4a17 313d 888a bcbd 05cf 9cbd 5293 e8bd
00000110: 0e74 20be 03cc 0d3e a6d0 ce3c 0882 633d
00000120: c4f3 0bbd 13c5 fcbc 8ca3 083e c783 243d
00000130: fdf3 40bd bbab 77be f232 e8bc 06c0 51bd
00000140: 5587 373e a21e 11be ce28 dcbd baeb 50be
00000150: 6a20 77be 2bfb 13be c5ef 813e ca6b 14bc
00000160: 4bc8 52be a211 dabc 25b3 953d 4d68 bfbe
00000170: b83c 71be c300 7e3e 2a62 02bd 592a afbc
00000180: 59b5 8bbd 28d3 81be a46c bd3e c144 57bd
00000190: a85a 123e 4bf4 bf3d 3d3f a3bd 0ab5 aebd
000001a0: 1af3 e93d e12c 46be 6e35 89be e429 233e
000001b0: 2a9a dabc 2600 ab3d 0eb6 4fbe 355f f13d
000001c0: 52ae 073e ab04 83ba 1113 e0bb fef8 7bbd
000001d0: df85 1bbd 3637 083e 252f 213e f240 233e
000001e0: ed63 47bd 2b83 e83d d515 adbd f7f0 083d
000001f0: 1fdc 123d c9d3 c93c 50e0 01be d78f 8f3d
00000200: 0754 853d 65d0 e73d 065c 1c3d e1d2 e0bd
00000210: 9a57 37bc ccd9 9abe b55f 6a3e 27ee 153e
00000220: 633d 22be d081 033e 8bf8 34bd b5e0 b5be
00000230: 7245 f9bd b473 303e 4410 78bd d671 443d
00000240: bdbc acbe 025c e2bc 54da 913e 8275 82be
00000250: 0c1a 9b3e 379d 3a3e 5935 4ebe 99cf 97be
00000260: 0751 ee3d f757 02be 96cb 0abe 1af7 d43e
00000270: af31 73be 20f2 6b3e 63f2 45be 9838 a83e
00000280: 9b8d 683e e76c fcbd 08c0 3fbe 5ab6 4e3d
00000290: d012 05be 8673 423e 0252 bf3e 768e c13d
000002a0: 63f1 3ebe a5e9 413e 3c8d 873e 1432 683d
000002b0: e0c7 f3bc 8032 4ebe c4cd 133e 9bac c63e
000002c0: c1c0 833e 3c20 5cbd f86f c9bd 5f8c eebd
000002d0: 16b4 6fbe 125a 94be 0f4c 5c3e 81a0 713e
000002e0: ce77 87be f189 88be 5f97 a43e de8b 03bd
000002f0: 8d5a 5ebe 0fda e83e 4b99 97bd 80ef 0cbe
00000300: e698 cdbe 80f2 55be 3357 483e 7544 b7be
00000310: c948 813e fe65 083d 636a 5dbe 0cdf 0a3c
00000320: ddb0 483e b5f5 3c3d f74e ecbd 3da9 383e
00000330: 4366 e13a 4a91 e83e 263c 79be 9839 12bc
00000340: ed51 b23e 62c2 06bd 0242 e8bd c619 313e
00000350: 6e71 c9bd c40e e63d 92a5 6b3e e971 b4bd
00000360: 8456 52be 4a5a e93c 3548 873d ee7c 9c3e
00000370: fb94 8ebd e4f9 453d adef f13b 19ab 073d
00000380: bf13 853e 919d 93bd b48b 59be 8af3 95be
00000390: d48a 97be bf53 cebe 534f d63d 4f34 353e
000003a0: 08de 09be dc9a 2e3c d2c2 c53e c844 19be
000003b0: da67 c4be c1b8 933e 1460 aa3d b669 0ebe
000003c0: 2780 16be 88fb a7bd 37d1 31bd d51f 82be
000003d0: 6a6d 753e 02d0 74be b148 c639 07f3 5dbe
000003e0: 3a39 1c3e 0216 14be 827c 0ebd 6855 6a3e
000003f0: afc2 803d b312 a53d 568a 45be 6939 253e

lstm.bias_ih_l0 f4 [192]
0.0776534 0.12448027 0.17974672 0.18007874 0.09241942 0.09526424 0.050547794 0.24753617
0.19952518 0.21144782 -0.02098684 0.07048224 0.21828036 0.13628188 0.1883738 0.15680811
0.034481674 0.17590834 0.21465683 0.115679726 0.24462278 0.039848447 0.11808289 0.017281292
0.09717091 0.018496398 -0.10520314 0.10641075 0.00065272726 0.29171893 0.014717652 -0.06255795
0.21431968 0.101911314 -0.0025241214 0.015254859 0.054013092 0.08055072 -0.029741613 0.041198622
0.040804185 0.06583036 0.07734689 0.06820043 0.057657827 -0.06472337 0.10335707 0.11542619
0.123118974 0.0039218557 -0.0875476 0.10899345 0.13858639 0.037194803 -0.026858138 0.25286737
0.15276495 0.08557637 0.16154422 -0.04905309 0.16620724 0.013067419 0.07977205 0.085161
0.053881187 -0.043005653 0.14700116 -0.032495357 0.15002386 0.012670296 -0.032280184 0.06302261
-0.02064523 0.056914896 0.0009247998 0.122679174 -0.14549382 -0.023330789 0.179771 -0.014897759
-0.07161938 -0.062208574 0.16083775 0.09342215 0.1322197 -0.0382298 0.11795772 0.17183061
-0.0774304 -0.024372716 0.046479143 0.27248815 0.04695364 0.13860145 0.050190873 0.05846262
0.0027391177 -0.0143180145 0.11223402 0.1409307 -0.05779994 0.029927868 0.08849515 -0.28062898
-0.02045745 -0.13840511 0.111999385 0.072486885 -0.1145163 -0.08844481 -0.14075154 -0.040078145
-0.0011407797 0.019892178 -0.014437978 0.12175804 0.103235155 0.046362273 0.1421223 0.15141019
0.025646495 -0.020130822 -0.05277216 -0.049155645 -0.05564162 -0.101543605 0.122684866 0.14631465
-0.10693116 -0.041668385 0.06108552 -0.007011795 -0.002136751 -0.05465988 -0.12752737 -0.053828403
-0.08000229 0.06965566 -0.11304343 0.07503386 0.15454508 -0.030165007 -0.025757926 -0.03036643
0.12005896 0.09138875 0.013647715 0.32975796 0.30503052 0.21875316 0.17572866 0.057685465
0.07904412 0.20855044 0.30777255 -0.019076703 0.034964215 0.01798802 0.02924564 0.029073562
0.055113927 0.06990246 -0.0010212911 0.04835433 0.09258934 0.020943923 0.0734585 0.12471452
0.13308898 0.21998617 0.0561324 0.103574045 -0.013989585 0.030972457 0.16901183 0.02028527
0.010738998 0.18052112 0.1365142 0.019092333 0.00568119 -0.020827878 0.036858886 0.1482283
0.103551306 0.12154189 0.24536012 0.3375127 0.2121275 -0.0032990063 0.18944925 0.13945696
00000000: bf08 9f3d 83ef fe3d 860f 383e 9066 383e
00000010: 6546 bd3d e619 c33d 340b 4f3d 1f7a 7d3e
00000020: 5450 4c3e c785 583e 98ec abbc fe58 903d
00000030: e384 5f3e 7a8d 0b3e 10e5 403e 4e92 203e
00000040: a83c 0d3d 5121 343e 00cf 5b3e 7ee9 ec3d
00000050: 657e 7a3e 2038 233d 71d5 f13d 7f91 8d3c
00000060: 8b01 c73d c285 973c be74 d7bd e1ed d93d
00000070: c91b 2b3a 2f5c 953e 4f22 713c 621e 80bd
00000080: 9e76 5b3e e1b6 d03d bb6b 25bb 84ef 793c
00000090: d53c 5d3d c7f7 a43d afa4 f3bc e3bf 283d
000000a0: 4a22 273d 11d2 863d 0c68 9e3d abac 8b3d
000000b0: 9d2a 6c3d b08d 84bd dfac d33d 9164 ec3d
000000c0: cd25 fc3d e982 803b 284c b3bd f537 df3d
000000d0: 97e9 0d3e 9459 183d 9905 dcbc d577 813e
000000e0: 6a6e 1c3e aa42 af3d d96b 253e e5eb 48bd
000000f0: 3b32 2a3e ba18 563c 875f a33d e468 ae3d
00000100: 85b2 5c3d b226 30bd 7987 163e da19 05bd
00000110: db9f 193e 1397 4f3c 3a38 04bd 0012 813d
00000120: 2f20 a9bc 981f 693d 446e 723a 383f fb3d
00000130: 55fc 14be 3620 bfbc e415 383e bb15 74bc
00000140: 2ead 92bd 6bce 7ebd a7b2 243e 1d54 bf3d
00000150: 9a64 073e da96 1cbd d193 f13d 5df4 2f3e
00000160: d493 9ebd 4aa9 c7bc ea60 3e3d 9183 8b3e
00000170: 7652 403d 8aed 0d3e f294 4d3d 8076 6f3d
00000180: c582 333b 1b96 6abc f3da e53d 2350 103e
00000190: a1bf 6cbd 4a2b f53c f23c b53d 9aae 8fbe
000001a0: 6296 a7bc 12ba 0dbe ef5f e53d 0174 943d
000001b0: 8687 eabd 8d22 b5bd 2c21 10be fb28 24bd
000001c0: 3786 95ba ecf4 a23c 458d 6cbc 475c f93d
000001d0: f46c d33d 5ee6 3d3d 8288 113e 460b 1b3e
000001e0: 9918 d23c 65e9 a4bc 9f27 58bd 6e57 49bd
000001f0: 78e8 63bd 18f6 cfbd 3442 fb3d 82d3 153e
00000200: b9fe dabd 78ac 2abd cf34 7a3d 33c3 e5bb
00000210: bc08 0cbb 0ae3 5fbd 8996 02be 2c7b 5cbd
00000220: 3ed8 a3bd a0a7 8e3d 5083 e7bd 5aab 993d
00000230: 1141 1e3e 9b1c f7bc 4902 d3bc 05c3 f8bc
00000240: 79e1 f53d 062a bb3d aa9a 5f3c 09d6 a83e
00000250: f62c 9c3e d400 603e 37f2 333e 9847 6c3d
00000260: e2e1 a13d 3f8e 553e 5d94 9d3e bf46 9cbc
00000270: a336 0f3d 9d5b 933c 8d94 ef3c ae2b ee3c
00000280: 24bf 613d 0529 8f3d d8dc 85ba 310f 463d
00000290: 7b9f bd3d 9792 ab3c 6971 963d 546a ff3d
000002a0: 7a48 083e 0e44 613e 16eb 653d a11e d43d
000002b0: 9334 65bc f3b9 fd3c 7011 2d3e 4b2d a63c
000002c0: 9ff2 2f3c 87da 383e 61ca 0b3e 8667 9c3c
000002d0: 4729 ba3b 3a9f aabc 58f9 163d 29c9 173e
000002e0: b512 d43d f4ea f83d af3f 7b3e 77ce ac3e
000002f0: f437 593e 2434 58bb fcfe 413e cecd 0e3e

lstm.bias_hh_l0 f4 [192]
0.112762235 0.07138543 0.119726084 0.23938146 0.15398192 0.14162168 0.18189569 0.14423999
0.07041091 0.18934575 0.17561209 0.15430222 0.09115571 0.22545561 0.09107506 0.08039093
0.14616504 0.14748664 0.040022653 0.06168136 0.014375743 0.17331018 0.20702101 0.09791364
-0.04272278 -0.006662845 -0.10956951 -0.023275757 0.14342019 0.21025716 0.19095154 0.05819862
0.037228495 0.06335597 0.2402995 -0.0735454 0.02843114 -0.01874941 -0.02924126 0.10625955
0.10011293 0.15230738 0.12174386 0.0075528705 -0.002550064 -0.07159963 0.04714858 0.017219974
-0.06783153 0.018965438 0.13615043 -0.14412218 0.03744444 -0.03491365 -0.0074581425 0.122518405
0.13210255 0.056838866 0.2015211 0.011929921 0.022084309 0.06667822 0.17862415 0.20065829
0.047741245 0.0062825037 0.12599263 0.14875762 0.037621114 -0.061165497 0.18200758 -0.016826633
0.09447357 0.008526302 0.041536164 -0.07822672 -0.04714466 -0.002163162 0.09852418 -0.019449174
0.12944138 -0.012510683 0.10328715 0.13438001 0.092533946 -0.04755079 0.0012191244 -0.10437933
0.054787535 -0.06978213 0.1487722 0.016494047 0.17085116 0.098502435 0.12736851 -0.02761763
-0.016867507 0.02130462 0.021658033 0.05342456 0.107353896 -0.014970912 -0.123437844 -0.16648681
0.13607451 -0.14747712 0.14953832 0.07128834 -0.1172094 -0.06285177 -0.0126805715 0.22167517
-0.13125531 0.10533534 -0.10825623 -0.10810348 0.09539294 0.043221146 -0.1253748 0.0816915
0.057576526 0.060093302 0.06434106 0.06450393 -0.0025972617 -0.14224169 0.09251821 0.16008109
0.0916059 0.039666817 0.045513 0.15283477 -0.13114227 -0.095176905 -0.0628308 0.09227733
-0.039590046 0.05023277 -0.12103175 0.088746324 0.09219122 -0.030162016 -0.046452217 0.10385546
0.11250008 -0.013680675 0.0119962115 0.22378553 0.25047284 -0.0038279754 0.20035194 0.2426652
0.053054985 0.2517814 0.30263624 0.11530333 0.20986097 0.094145544 0.13112223 0.051177226
0.04665458 0.15118851 0.082887866 -0.011722093 -0.07243079 0.032797176 0.16314226 0.03134081
0.13220356 -0.010594088 0.23136114 -0.047848027 0.23632999 0.20892026 -0.056288697 0.08894806
0.018805958 0.13706762 0.13788828 -0.076849595 0.06320683 0.15448706 0.18826188 0.109632306
0.09498862 0.1594372 0.21749859 0.2762309 0.07581412 0.11669836 0.1820869 0.20231661
00000000: e3ef e63d 8632 923d f332 f53d 6a20 753e
00000010: 70ad 1d3e 4605 113e dd42 3a3e a6b3 133e
00000020: 9833 903d dae3 413e a8d3 333e 6701 1e3e
00000030: d8af ba3d d6dd 663e 9085 ba3d 00a4 a43d
00000040: 4aac 153e bd06 173e cbee 233d 98a5 7c3d
00000050: 3d88 6b3c 3978 313e 51fd 533e f286 c83d
00000060: 15fe 2ebd ff53 dabb fb65 e0bd cdac bebc
00000070: bedc 123e a74d 573e cd88 433e ad61 6e3d
00000080: e87c 183d c6c0 813d 1211 763e f89e 96bd
00000090: 6ce8 e83c 5d98 99bc 5e8b efbc 9b9e d93d
000000a0: 0208 cd3d 77f6 1b3e d854 f93d 127e f73b
000000b0: f91e 27bb d4a2 92bd df1e 413d e710 8d3c
000000c0: 42eb 8abd 685d 9b3c 056b 0b3e c494 13be
000000d0: 575f 193d 9e01 0fbd 6f63 f4bb eeea fa3d
000000e0: e445 073e dfcf 683d 8c5b 4e3e b775 433c
000000f0: 27ea b43c 978e 883d 40e9 363e 5e79 4d3e
00000100: 538c 433d 76dd cd3b 3604 013e eb53 183e
00000110: 9918 1a3d ac88 7abd 3260 3a3e 02d8 89bc
00000120: 5c7b c13d e7b1 0b3c d321 2a3d 5535 a0bd
00000130: c21a 41bd d6c3 0dbb 0cc7 c93d e053 9fbc
00000140: 488c 043e 9cf9 4cbc 3788 d33d ea9a 093e
00000150: 7082 bd3d 9ec4 42bd 07cb 9f3a d5c4 d5bd
00000160: e568 603d efe9 8ebd bd57 183e 861e 873c
00000170: 9bf3 2e3e a5bb c93d e46c 023e 5e3e e2bc
00000180: ba2d 8abc 0787 ae3c 306c b13c b6d3 5a3d
00000190: 5cdc db3d 8e48 75bc fbcc fcbd 857b 2abe
000001a0: 1e57 0b3e 3e04 17be 9320 193e 9fff 913d
000001b0: 7b0b f0bd 6eb8 80bd 2cc2 4fbc d1fe 623e
000001c0: cb67 06be 0eba d73d 71b5 ddbd 5b65 ddbd
000001d0: 605d c33d a808 313d 4062 00be e04d a73d
000001e0: 5dd5 6b3d 6524 763d 3fc5 833d a31a 843d
000001f0: d236 2abb cea7 11be 307a bd3d 4cec 233e
00000200: e09b bb3d ac79 223d d76b 3a3d b880 1c3e
00000210: 294a 06be 1cec c2bd 6fad 80bd e6fb bc3d
00000220: 2c29 22bd e1c0 4d3d 7fdf f7bd a2c0 b53d
00000230: c0ce bc3d 5516 f7bc ae44 3ebd 2cb2 d43d
00000240: 7166 e63d e924 60bc c28b 443c 0928 653e
00000250: fa3d 803e c5de 7abb 0f29 4d3e 3a7d 783e
00000260: 2f50 593d 7ee9 803e 23f3 9a3e 2724 ec3d
00000270: cbe5 563e 61cf c03d e844 063e 369f 513d
00000280: df18 3f3d 29d1 1a3e 1dc1 a93d 060e 40bc
00000290: 9856 94bd 5556 063d c40e 273e 395f 003d
000002a0: 5f60 073e d392 2dbc efe9 6c3e 4bfc 43bd
000002b0: 7d00 723e 31ef 553e fa8e 66bd 672a b63d
000002c0: f40e 9a3c 745b 0c3e 9632 0d3e 5263 9dbd
000002d0: 9572 813d db31 1e3e b9c7 403e e786 e03d
000002e0: 6589 c23d 8143 233e f3b7 5e3e 236e 8d3e
000002f0: 6f44 9b3d 8dff ee3d fd74 3a3e 162c 4f3e

mlp.0.weight f4 [256, 54]
-0.10219601 -0.055905305 0.06977351 0.0007342686 0.026347492 -0.14160457 -0.16587146 0.11208111
0.065735824 -0.050897494 0.17580996 0.012202097 -0.1485251 0.107521705 0.13324061 0.03399942
0.013195576 0.00069666374 -0.11808752 -0.075473726 -0.09126063 -0.15286303 0.042348955 -0.06289401
-0.008980464 -0.07905207 -0.13961124 0.0023148356 0.099513724 -0.1068185 -0.1326597 -0.13155505
0.07677633 0.052613884 0.093147025 -0.22452478 0.12673585 0.1096248 0.15716255 0.024093172
-0.023236666 0.06295982 -0.10491775 0.037118096 0.090489194 -0.03368765 0.07658463 -0.18123676
0.0048986296 -0.15512864 -0.008262853 -0.027248872 -0.005508661 -0.05650347 0.004675112 0.07551841
0.046133913 0.010913999 0.0037703458 -0.003423936 -0.094084665 0.073191114 0.11253142 -0.17820103
0.0040206388 0.0071630036 0.012012077 -0.021669853 -0.050645262 0.16668937 0.013486481 0.06597619
0.00013246272 0.039142396 0.06603002 -0.17794454 -0.05883193 -0.06208563 -0.004200171 0.11974069
0.051472668 0.12608515 -0.0087584425 0.0021803926 -0.012690193 -0.059528477 0.026603715 0.03422438
-0.10209901 0.024895277 -0.0059469384 -0.09962731 0.16853125 -0.014344327 -0.014887773 0.016909372
0.13886982 -0.07052061 0.1612076 0.14681908 -0.06895268 -0.07437795 0.040263835 -0.069194004
-0.1249497 0.11884345 0.033805285 0.08270687 0.05667535 0.060229007 -0.055263665 0.11004503
-0.0016935628 0.09381421 0.029730443 -0.013929809 -0.06896526 -0.15292364 -0.056046896 0.112956755
-0.09205807 0.12743294 -0.100287914 -0.09960364 -0.13052277 0.08680958 0.027830726 0.07119082
0.0954039 -0.097324826 0.09179013 -0.09472821 6.242911e-05 -0.0033366485 0.058153994 -0.113020405
0.09201357 -0.10149814 -0.051142637 -0.053890873 0.06958299 0.14752468 0.081621766 -0.1764269
0.1731088 -0.12389306 -0.012712992 0.10066028 0.025317172 0.056311633 -0.010328723 0.026609791
-0.0062576253 -0.08985612 -0.14205714 0.13448513 0.06749702 -0.094052516 -0.18672432 0.070365794
0.07035936 -0.08971099 0.16245095 0.12249336 0.041398074 0.08016813 -0.11047711 0.031777192
-0.033853274 -0.037264068 0.06711496 -0.016085472 0.10480123 -0.096765496 0.046608597 -0.08395084
0.12854171 -0.030109022 -0.057354067 -0.07806841 0.041564237 -0.017266734 0.12541513 -0.013755366
-0.0036930519 0.032142885 -0.034275007 0.0058930083 0.077789634 -0.117700905 -0.038616788 0.046206992
0.039894022 0.032295443 -0.08067326 -0.023003632 -0.1584836 -0.13172303 0.07003012 -0.15661725
0.055232037 -0.010232192 0.044396922 -0.02364853 0.010207183 -0.0822936 -0.023223275 0.15294605
0.08531197 0.05026969 0.08802415 -0.012601311 0.022104729 -0.1628612 0.058781248 0.049183972
-0.13992266 0.008795275 0.011970353 -0.11403207 -0.053439084 0.06218793 -0.17719927 -0.015877562
0.13389915 -0.118487634 0.013255002 -0.03258782 -0.034945477 -0.19930793 -0.10152895 -0.073801555
0.007838412 -0.08522864 -0.09726413 0.20353767 -0.10541072 0.17416538 0.08188443 0.07168692
0.014736352 0.05014316 0.031833164 0.1792824 0.172292 0.25297624 0.0455881 0.05808385
0.014379156 0.10683297 0.19609 -0.004358122 0.00869984 0.07307055 -0.042097986 0.124591306
00000000: 244c d1bd f6fc 64bd 6ae5 8e3d ee7b 403a
00000010: b2d6 d73c ca00 11be 35da 29be c88a e53d
00000020: 81a0 863d e479 50bd 8707 343e 4eeb 473c
00000030: f716 18be 5734 dc3d 3a70 083e fa42 0b3d
00000040: 4232 583c 50a0 363a dfd7 f1bd f891 9abd
00000050: dae6 babd 2088 1cbe 1976 2d3d 93ce 80bd
00000060: cc22 13bc 0de6 a1bd 40f6 0ebe 7fb4 173b
00000070: dacd cb3d a8c3 dabd f2d7 07be 5eb6 06be
00000080: e93c 9d3d a881 573d dec3 be3d d3e9 65be
00000090: 0bc7 013e f882 e03d 38ef 203e 0b5f c53c
000000a0: d25a bebc 14f1 803d 1edf d6bd 2509 183d
000000b0: 6652 b93d 10fc 09bd 67d8 9c3d 2196 39be
000000c0: af84 a03b 0bda 1ebe eb60 07bc 0739 dfbc
000000d0: ff81 b4bb 2f70 67bd af31 993b 65a9 9a3d
000000e0: eaf6 3c3d a1d0 323c e817 773b 1d64 60bb
000000f0: 76af c0bd 39e5 953d e076 e63d 557a 36be
00000100: 90bf 833b a1b7 ea3b 4dce 443c fa84 b1bc
00000110: 6871 4fbd 9eb0 2a3e 67f6 5c3c 861e 873d
00000120: b1e5 0a39 c753 203d bf3a 873d 1837 36be
00000130: c0f9 70bd 804d 7ebd 97a1 89bb 9b3a f53d
00000140: 01d5 523d 771c 013e 927f 0fbc ebe4 0e3b
00000150: 87ea 4fbc 22d4 73bd 09f0 d93c dd2e 0c3d
00000160: 4919 d1bd 2ef1 cb3c 89de c2bb 6709 ccbd
00000170: 7593 2c3e 7804 6bbc d9eb 73bc 8685 8a3c
00000180: e433 0e3e 1c6d 90bd 9b13 253e be57 163e
00000190: 1037 8dbd 7753 98bd b1eb 243d 96b5 8dbd
000001a0: a1e5 ffbd 3264 f33d 6977 0a3d 3862 a93d
000001b0: 6924 683d b1b2 763d 275c 62bd 4a5f e13d
000001c0: 8afa ddba aa21 c03d 428d f33c db39 64bc
000001d0: a93d 8dbd 0498 1cbe 6e91 65bd df55 e73d
000001e0: f188 bcbd c87d 023e c063 cdbd fefc cbbd
000001f0: c3a7 05be 39c9 b13d 43fd e33c 7ecc 913d
00000200: 1f63 c33d 3d52 c7bd 77fc bb3d dd00 c2bd
00000210: 60ec 8238 acab 5abb e232 6e3d 3e77 e7bd
00000220: 9c71 bc3d 42de cfbd f17a 51bd adbc 5cbd
00000230: 8781 8e3d b610 173e 5029 a73d 41a9 34be
00000240: 6f43 313e a5bb fdbd 274a 50bc fa26 ce3d
00000250: f565 cf3c 07a7 663d ce39 29bc c7fc d93c
00000260: c40c cdbb 7c06 b8bd 6d77 11be 78b6 093e
00000270: e13b 8a3d 9b9e c0bd a934 3fbe f11b 903d
00000280: 9118 903d 65ba b7bd 8b59 263e ccdd fa3d
00000290: 0791 293d 302f a43d d341 e2bd cd28 023d
000002a0: bba9 0abd 35a2 18bd 9173 893d aec5 83bc
000002b0: 07a2 d63d fd2c c6bd a8e8 3e3d 6bee abbd
000002c0: 70a0 033e 32a7 f6bc 19ec 6abd 55e2 9fbd
000002d0: 433f 2a3d f772 8dbc d36c 003e 305e 61bc
000002e0: 2107 72bb 42a8 033d f363 0cbd 231a c13b
000002f0: 2c50 9f3d 2c0d f1bd a32c 1ebd 8b43 3d3d
00000300: ea67 233d 3a48 043d 0638 a5bd 1d72 bcbc
00000310: 8649 22be 67e2 06be f46b 8f3d 4660 20be
00000320: fd3a 623d eda4 27bc 8cd9 353d 90ba c1bc
00000330: 073c 273c 8c89 a8bd bd3e bebc e49d 1c3e
00000340: 0bb8 ae3d 97e7 4d3d 0146 b43d bb75 4ebc
00000350: fa14 b53c 16c5 26be 9bc4 703d 2275 493d
00000360: e347 0fbe 0f1a 103c 4d1f 443c a589 e9bd
00000370: f1e2 5abd c5b8 7e3d ba73 35be a911 82bc
00000380: dc1c 093e a5a9 f2bd 822b 593c ce7a 05bd
00000390: fd22 0fbd 6117 4cbe 69ee cfbd 4525 97bd
000003a0: af6c 003c 5a8c aebd 6b32 c7bd 2e6c 503e
000003b0: 93e1 d7bd 6958 323e 06b3 a73d 98d0 923d
000003c0: bd70 713c ea62 4d3d 7e63 023d ce95 373e
000003d0: 506d 303e 1a86 813e 96ba 3a3d 55e9 6d3d
000003e0: 8d96 6b3c 3fcb da3d d1cb 483e 94ce 8ebb
000003f0: c689 0e3c 03a6 953d f06e 2cbd ba29 ff3d

mlp.0.bias f4 [256]
0.0870406 -0.10845171 -0.15624267 -0.051909484 -0.015041354 0.13962916 -0.033804186 0.10617141
0.030447546 -0.0554858 0.06425802 0.13445763 -0.07170689 -0.0056945966 0.029721882 -0.012599617
-0.08185011 0.034308497 0.008071211 0.010532171 -0.16691852 0.048088614 0.073432766 -0.051742192
0.068418056 -0.007767249 -0.03148321 -0.08614235 -0.10518134 0.030299721 0.012502463 -0.00077510386
-0.11080596 0.016951714 0.11078984 0.006298457 -0.17033447 0.053075496 -0.15289555 0.012450822
-0.054411918 -0.12918882 -0.073647715 -0.08278759 -0.09929147 0.05118552 -0.057291735 0.08644229
-0.09851946 -0.0020287556 -0.011617949 0.04446729 -0.18377282 0.055465095 0.085203215 -0.0026518009
-0.13468266 0.06600516 -0.0058276327 -0.15649894 0.055751566 -0.046271622 0.009656052 -0.14178766
0.052742824 0.17339614 0.06005244 0.075219125 0.17112732 0.1448138 0.02072513 -0.039933942
0.027054952 0.13330987 0.14436369 0.033626705 -0.10275483 0.19918686 0.06323959 -0.013498905
-0.032409668 -0.044009097 0.04105822 0.039976712 -0.07454623 0.075400576 -0.05172085 -0.1618533
0.014156663 0.24288099 0.17762363 0.08776893 0.08552266 -0.050813537 0.08342303 -0.054737024
0.015769757 0.09532591 0.18401428 0.103075214 -0.08552101 -0.0572757 -0.058298457 0.017091585
-0.0788259 -0.037904117 -0.02108821 0.03654397 -0.039212257 0.010542912 -0.16659448 -0.07857262
0.16041312 -0.12812716 -0.023965497 -0.087420106 0.09440888 0.026592735 0.06808508 -0.022258274
-0.1645218 0.024791805 0.159001 -0.0918404 -0.10998971 0.0648528 -0.06975405 0.04092783
-0.080952734 0.112011775 0.039819267 0.020345384 -0.0561072 -0.047811866 0.16177617 -0.09672724
-0.08545033 -0.1274752 -0.057292636 0.15438768 0.07795351 0.052785657 -0.17352235 0.12057862
0.1906548 -0.15982066 -0.057887275 -0.033859957 -0.16465849 0.10038198 -0.14531073 -0.008861839
-0.044890806 0.040459473 0.15552749 -0.17667009 0.1270828 -0.027504431 -0.023982499 -0.016296873
-0.03386465 0.07788147 0.18195148 0.106938414 -0.13242991 -0.024696613 0.09159715 0.017436529
0.05638486 0.048086356 0.026800858 -0.1963106 0.18606026 0.09890435 0.120876335 -0.042333078
-0.10703806 -0.059191052 -0.15555024 -0.12958679 -0.042181663 0.005378237 0.01977843 0.092951424
-0.029618252 -0.040853925 -0.084082305 0.14764811 -0.07855317 -0.03308673 0.047055617 -0.052668247
-0.0061328593 0.1834108 -0.016194062 0.12013646 0.12131855 -0.08177144 -0.14033669 -0.18819387
0.05025571 0.13502227 -0.12411934 -0.0849335 0.10985191 -0.1577944 0.055290524 0.073529124
-0.11288775 0.027918631 0.14206493 -0.15903132 0.0002515281 -0.050183285 0.10400088 0.03532378
0.03232108 0.026264947 -0.0704256 5.057955e-05 -0.026066668 0.058206875 0.13538279 0.007198241
0.09595078 -0.1009723 -0.010696307 -0.039483547 -0.0075711 -0.13115412 0.0676743 -0.14619964
-0.13625151 -0.107329234 0.22361942 -0.15541832 0.008418296 -0.008962894 -0.02903829 0.13010548
0.051900234 -0.099388726 -0.15704934 0.12509085 -0.06533112 0.039311294 -0.006215868 0.08830439
0.084322944 0.2490098 0.0136366375 0.049850468 0.11530148 -0.07454014 0.07543711 -0.01863305
00000000: 5842 b23d ee1b debd 14fe 1fbe 0a9f 54bd
00000010: 0370 76bc f2fa 0e3e 4276 0abd 6570 d93d
00000020: 226d f93c 1445 63bd b599 833d 43af 093e
00000030: 10db 92bd bd99 babb 4e7b f33c a06e 4ebc
00000040: 08a1 a7bd 1187 0c3d 1d3d 043c 218f 2c3c
00000050: b0ec 2abe 91f8 443d eb63 963d 9fef 53bd
00000060: c41e 8c3d 6884 febb 8af4 00bd 676b b0bd
00000070: 5069 d7bd 1f37 f83c 21d7 4c3c 5730 4bba
00000080: 3cee e2bd 52de 8a3c c9e5 e23d 4963 ce3b
00000090: 296c 2ebe b165 593d a790 1cbe 88fe 4b3c
000000a0: 08df 5ebd 134a 04be 9dd4 96bd 8a8c a9bd
000000b0: 5459 cbbd e8a7 513d bdaa 6abd a808 b13d
000000c0: 92c4 c9bd dff4 04bb 3659 3ebc 5523 363d
000000d0: f12e 3cbe 5e2f 633d 067f ae3d d6c9 2dbb
000000e0: 40ea 09be b72d 873d baf5 bebb 4241 20be
000000f0: c15b 643d 5087 3dbd 6b34 1e3c c930 11be
00000100: dc08 583d c28e 313e 8cf9 753d 7c0c 9a3d
00000110: 003c 2f3e 124a 143e bfc7 a93c c691 23bd
00000120: 59a2 dd3c 6282 083e 13d4 133e 28bc 093d
00000130: 2071 d2bd a4f7 4b3e c283 813d 832a 5dbc
00000140: 00c0 04bd e242 34bd aa2c 283d 9fbe 233d
00000150: b2ab 98bd 9e6b 9a3d 3ed9 53bd dfbc 25be
00000160: 59f1 673c cbb5 783e f8e2 353e 32c0 b33d
00000170: 8126 af3d db21 50bd b2d9 aa3d ee33 60bd
00000180: 942f 813c 3b3a c33d 3d6e 3c3e 1919 d33d
00000190: a425 afbd ed99 6abd 5dca 6ebd a703 8c3c
000001a0: 796f a1bd 5941 1bbd 2fc1 acbc 21af 153d
000001b0: 089d 20bd 2ebc 2c3c be97 2abe afea a0bd
000001c0: 5643 243e c433 03be 4a53 c4bc 5009 b3bd
000001d0: 7159 c13d 02d9 d93c 3170 8b3d fc56 b6bc
000001e0: 6778 28be 2f18 cb3c 28d1 223e d216 bcbd
000001f0: 4942 e1bd 8bd1 843d 36db 8ebd f1a3 273d
00000200: 8cca a5bd 6e66 e53d 8719 233d 5dab a63c
00000210: aad0 65bd 60d6 43bd a7a8 253e ee18 c6bd
00000220: 9500 afbd dc88 02be afab 6abd ce17 1e3e
00000230: 17a6 9f3d c635 583d d8af 31be ecf1 f63d
00000240: 033b 433e 07a8 23be 351b 6dbd bdb0 0abd
00000250: 3c9c 28be 1195 cd3d 56cc 14be 3f31 11bc
00000260: 6cdf 37bd d5b8 253d 9942 1f3e 01e9 34be
00000270: fe21 023e f950 e1bc f276 c4bc 0581 85bc
00000280: a9b5 0abd 5280 9f3d 7d51 3a3e 8702 db3d
00000290: b59b 07be 8d50 cabc 4997 bb3d 0dd7 8e3c
000002a0: d0f3 663d 33f6 443d 798d db3c a505 49be
000002b0: 9586 3e3e 5d8e ca3d 038e f73d 7365 2dbd
000002c0: c536 dbbd 5172 72bd 9048 1fbe 66b2 04be
000002d0: aec6 2cbd ec3b b03b 6006 a23c 515d be3d
000002e0: faa1 f2bc 7256 27bd 5833 acbd 1131 173e
000002f0: 7ce0 a0bd f385 07bd 64bd 403d a9ba 57bd
00000300: 27f6 c8bb 0ad0 3b3e 69a9 84bc 1b0a f63d
00000310: dc75 f83d c977 a7bd 6cb4 0fbe e5b5 40be
00000320: eed8 4d3d 4743 0a3e 4832 febd 9df1 adbd
00000330: 0afa e03d db94 21be 5178 623d 7096 963d
00000340: b131 e7bd 9db5 e43c 7879 113e 1bd9 22be
00000350: 88df 8339 fd8c 4dbd 6afe d43d abaf 103d
00000360: 1c63 043d 9629 d73c 4c3b 90bd 6125 5438
00000370: c489 d5bc 556a 6e3d c9a1 0a3e 39df eb3b
00000380: d881 c43d 91ca cebd 903f 2fbc 80b9 21bd
00000390: fd16 f8bb 444d 06be d398 8a3d 5cb5 15be
000003a0: 8485 0bbe 6ecf dbbd 7dfc 643e fb25 1fbe
000003b0: e5ec 093c 1ad9 12bc b5e1 edbc 5f3a 053e
000003c0: 5795 543d 518c cbbd 8bd1 20be d117 003e
000003d0: 52cc 85bd e104 213d 7bae cbbb efd8 b43d
000003e0: 82b1 ac3d 6dfc 7e3e 346c 5f3c 0130 4c3d
000003f0: 2f23 ec3d 80a8 98bd c67e 9a3d 57a4 98bc

mlp.2.weight f4 [128, 256]
0.07701462 0.05349336 0.07456676 0.09656299 -0.12587559 -0.07633842 -0.034596495 -0.044540405
0.0004615435 0.055669263 0.09030642 -0.045884628 -0.007328883 -0.012655263 0.095251985 0.0043689674
-0.08147622 0.01693176 -0.053247817 0.16259019 0.027832322 -0.0674837 0.12569638 -0.100145444
0.071732484 -0.02167902 -0.14916681 0.049791962 0.09322012 -0.10838723 -0.002682109 0.012205287
0.0014044724 -0.056792125 0.042355713 0.05679309 0.05198101 0.053634133 0.052541938 0.13035987
0.103216976 0.04631816 0.0065940195 0.06986304 0.0057194657 0.06984041 -0.10133726 -0.19171262
-0.03722342 0.069027446 0.0129370475 0.055991624 -0.039048333 0.106903166 -0.108497344 0.051608987
-0.038483776 0.05751951 -0.025021866 0.009745506 -0.14916758 0.091322385 -0.14459634 -0.09740007
0.084157534 -0.12752455 0.030146267 0.001507389 0.019529322 -0.013075872 -0.055693354 -0.049395956
0.027687937 0.0005520445 -0.08038424 0.05430532 -0.07930894 0.09477882 -0.025656706 0.09844342
-0.18940803 0.027604138 0.038045518 -0.035896745 -0.1370092 0.007970092 0.04578673 -0.07492091
0.05311767 0.057689507 0.07679136 -0.08180841 0.040021837 -0.01122272 -0.11843182 -0.043183833
-0.033677347 0.081387356 0.056773946 -0.026109645 0.06495899 -0.008741364 0.03524251 -0.14170785
-0.0088232085 -0.114351034 -0.045864236 0.0783062 0.07351955 0.03438202 0.09502325 -0.032767348
0.037708625 -0.04545849 -0.048420403 -0.091517285 0.11294588 0.009949834 -0.1533031 0.038271572
-0.0124703655 -0.15872096 0.009438537 -0.05143117 -0.03189504 -0.0072660265 0.019275311 -0.0074122674
-0.024267167 -0.1933276 0.079809345 -0.0044561285 0.013157121 0.0076579037 -0.046298057 -0.01378877
-0.08221645 0.015443818 -0.09517235 0.040690903 -0.024509002 0.006904767 0.09871336 0.06706757
-0.019422857 0.07246108 0.11526503 0.04173528 0.037687052 -0.061957486 0.065386824 0.06188541
-0.14242978 -0.060242105 0.043081127 0.067212544 0.048140924 0.11878319 0.12658504 0.018610582
0.043724436 -0.022052577 0.008512489 0.061845407 0.02327004 -0.03974032 0.027575515 -0.041653868
0.012270425 0.054471143 0.057024375 0.033830773 -0.025401805 0.062245004 -0.084983945 0.09669425
0.030157426 0.0926852 0.057113495 0.015142935 -0.0014445017 -0.037448063 -0.09583342 0.039935283
-0.06525613 -0.19886672 0.033301923 -0.020265743 -0.039495785 -0.13716769 -0.03538328 -0.023771591
-0.051283307 0.03909994 0.00903742 0.1485619 -0.008896498 -0.030889727 -0.037725467 -0.004992962
0.0641038 0.015652604 -0.034285326 -0.0008352344 0.023463346 0.030450499 -1.5786401e-05 0.0057021244
0.0073417434 0.03179454 0.03275602 -0.026905455 -0.15565494 0.1358516 -0.007189887 -0.015720136
0.085424006 0.10057237 0.0037184649 0.005186943 -0.0511589 0.023599397 0.09929775 -0.040195756
0.14817016 0.044955898 0.0053986036 -0.009598321 0.017386902 -0.06406015 0.042622205 -0.02096579
0.064574525 0.020810993 -0.006090731 0.052675486 0.059250303 0.05141982 -0.004727398 0.037871808
-0.076212965 -0.034122642 0.023468865 0.05825418 -0.00632739 0.058566924 -0.018662706 0.013348792
0.03636955 -0.0027533448 0.06314469 -0.034170084 -0.034118615 -0.049958073 -0.03646107 0.012148516
00000000: d7b9 9d3d da1b 5b3d 75b6 983d d1c2 c53d
00000010: 88e5 00be 5157 9cbd 0eb5 0dbd 0070 36bd
00000020: 52fb f139 7405 643d 93f2 b83d 85f1 3bbd
00000030: 2027 f0bb 0558 4fbc 7913 c33d 8e29 8f3b
00000040: 01dd a6bd 79b4 8a3c 621a 5abd 0b7e 263e
00000050: 9c00 e43c e534 8abd 8db6 003e 0e19 cdbd
00000060: 7be8 923d 3398 b1bc 2fbf 18be a8f2 4b3d
00000070: 31ea be3d 20fa ddbd 52c6 2fbb aff8 473c
00000080: 4616 b83a dc9e 68bd 2f7d 2d3d df9f 683d
00000090: 0aea 543d 77af 5b3d 3736 573d 0f7d 053e
000000a0: 6c63 d33d 1cb8 3d3d a512 d83b 5a14 8f3d
000000b0: 5b6a bb3b 7d08 8f3d e989 cfbd 5050 44be
000000c0: 9677 18bd 435e 8d3d e9f5 533c 7957 653d
000000d0: 25f1 1fbd 0cf0 da3d db33 debd f263 533d
000000e0: 2aa1 1dbd 9499 6b3d a8fa ccbc 9dab 1f3c
000000f0: 63bf 18be 3b07 bb3d 1011 14be b079 c7bd
00000100: c95a ac3d cc95 02be 4ef5 f63c 9593 c53a
00000110: f5fb 9f3c 2f3c 56bc b71e 64bd 6a53 4abd
00000120: d0d1 e23c 14b7 103a 7ea0 a4bd 416f 5e3d
00000130: ba6c a2bd 661b c23d 032e d2bc b49c c93d
00000140: 2ef4 41be 1322 e23c 9ed5 1b3d 7708 13bd
00000150: 244c 0cbe fd94 023c de8a 3b3d 2270 99bd
00000160: ea91 593d d54b 6c3d ca44 9d3d 2b8b a7bd
00000170: f0ed 233d 80df 37bc 628c f2bd 88e1 30bd
00000180: 42f1 09bd 6aae a63d cc8b 683d e5e3 d5bc
00000190: 3809 853d f037 0fbc 735a 103d dd1b 11be
000001a0: 388f 10bc e030 eabd 23dc 3bbd 005f a03d
000001b0: 6b91 963d 29d4 0c3d 8d9b c23d 0e37 06bd
000001c0: 5c74 1a3d ae32 3abd 7954 46bd 6a6d bbbd
000001d0: 2b50 e73d a104 233c 7dfb 1cbe a7c2 1c3d
000001e0: 8150 4cbc bf87 22be 18a4 1a3c 7ea9 52bd
000001f0: 60a4 02bd d917 eebb 42e7 9d3c 9be2 f2bb
00000200: f0cb c6bc acf7 45be 1573 a33d b704 92bb
00000210: f790 573c 27ef fa3b 08a3 3dbd 4bea 61bc
00000220: 1961 a8bd 1108 7d3c b9e9 c2bd 81ab 263d
00000230: 1ac7 c8bc 6241 e23b 3b2a ca3d b95a 893d
00000240: af1c 9fbc 7a66 943d 1210 ec3d 9df2 2a3d
00000250: bd5d 1a3d 22c7 7dbd 87e9 853d 8e7b 7d3d
00000260: 1dd9 11be 6dc0 76bd d675 303d bba6 893d
00000270: 6b2f 453d 9a44 f33d 829f 013e 3875 983c
00000280: 6518 333d 9ba7 b4bc f777 0b3c 9c51 7d3d
00000290: d0a0 be3c bfc6 22bd 0ce6 e13c 3f9d 2abd
000002a0: e509 493c 221d 5f3d 6492 693d 2392 0a3d
000002b0: 7217 d0bc 9ef4 7e3d 100c aebd a307 c63d
000002c0: b50c f73c bdd1 bd3d d7ef 693d 131a 783c
000002d0: 6f55 bdba 2463 19bd 5044 c4bd 2e93 233d
000002e0: 02a5 85bd b8a3 4bbe 9967 083d 5804 a6bc
000002f0: 55c6 21bd b075 0cbe 0fee 10bd a4bc c2bc
00000300: 720e 52bd 4227 203d b011 143c 9c20 183e
00000310: 9ec2 11bc 740c fdbc 0586 1abd 009c a3bb
00000320: da48 833d e439 803c c56e 0cbd a2f3 5aba
00000330: 3436 c03c 5373 f93c 0a6d 84b7 e3d8 ba3b
00000340: 0293 f03b fe3a 023d 2d2b 063d d468 dcbc
00000350: 0264 1fbe af1c 0b3e 2599 ebbb 84c7 80bc
00000360: c8f2 ae3d e3f8 cd3d 7db1 733b 3bf7 a93b
00000370: ff8b 51bd 8653 c13c 9e5c cb3d 4ea4 24bd
00000380: ebb9 173e ad23 383d c5e6 b03b 4742 1dbc
00000390: fa6e 8e3c f831 83bd 9f94 2e3d 73c0 abbc
000003a0: a63f 843d d17b aa3c c194 c7bb 40c2 573d
000003b0: 72b0 723d 979d 523d 4ae8 9abb 781f 1b3d
000003c0: 8b15 9cbd 2fc4 0bbd c741 c03c ef9b 6e3d
000003d0: ff55 cfbb dfe3 6f3d 88e2 98bc e4b4 5a3c
000003e0: 3df8 143d 7671 34bb 0152 813d eef5 0bbd
000003f0: f6bf 0bbd d6a0 4cbd 3458 15bd 920a 473c

mlp.2.bias f4 [128]
0.044811398 0.11618174 -0.023987519 -0.028500056 -0.043853972 0.07540691 -0.08507031 0.013906392
0.00953758 -0.01708973 -0.03747275 -0.06837165 -0.040472485 0.06499145 -0.036009952 0.028121639
0.017106721 -0.076886594 0.0065590506 -0.024077334 -0.0011893132 -0.019825086 -0.01593751 -0.023774624
0.045992054 -0.037918508 0.04929456 -0.052553445 -0.076865666 -0.014492926 -0.02304674 -0.012652172
0.009425896 0.012281565 -0.020207727 0.009244445 -0.029257467 -0.04111123 -0.09306084 -0.011959059
-0.06598766 0.022984449 -0.049880445 0.054007445 -0.0459623 0.070725456 -0.033104595 -0.023438375
0.09171962 0.009504056 -0.08304636 0.006769985 -0.051816203 -0.037168466 0.022281818 -0.0039444654
0.0076625454 0.020733776 0.02036833 0.06657863 -0.005525899 0.022863679 0.029862234 -0.04328464
0.18837476 0.037322618 -0.02723136 0.035402387 0.017608322 -0.028178178 0.011564661 -0.051323686
0.06614789 0.0012970851 -0.028526397 0.05249692 -0.011427066 -0.024004739 -0.039316464 -0.019343093
0.028139165 0.028392246 0.07814497 -0.0037534737 -0.056651823 0.040049855 -0.05285577 -0.015185465
0.0102732135 -0.06572106 -0.02122771 -0.0051808166 0.028519088 0.020151818 0.042086087 -0.03973119
0.10739706 0.15221523 0.04366639 -0.01305227 -0.0069403024 -0.031984057 0.053737216 -0.06697901
-0.05348227 -0.04499932 -0.0024520755 -0.0023072239 -0.014628651 -0.0023510302 0.01925613 0.059383154
-0.08993468 -0.045863613 0.021792052 -0.070864394 -0.047242798 -0.06296041 -0.018294591 0.049965683
0.01008374 0.030145122 -0.048706397 -0.01575605 -0.067430146 0.042181477 0.020347336 0.030831011
00000000: 288c 373d b1f0 ed3d 7981 c4bc f378 e9bc
00000010: 39a0 33bd f06e 9a3d 5839 aebd a3d7 633c
00000020: 8343 1c3c c3ff 8bbc 077d 19bd 7006 8cbd
00000030: 7ac6 25bd 3d1a 853d 2c7f 13bd 5a5f e63c
00000040: 6523 8c3c b876 9dbd 4eed d63b d43d c5bc
00000050: bbe2 9bba 3868 a2bc 628f 82bc 00c3 c2bc
00000060: 2a62 3c3d 7050 1bbd 18e9 493d 4842 57bd
00000070: bf6b 9dbd bd73 6dbc 84cc bcbc 0e4b 4fbc
00000080: 136f 1a3c 9e38 493c ad8a a5bc 0376 173c
00000090: 5bad efbc 4064 28bd af96 bebd eeef 43bc
000000a0: 8a24 87bd e249 bc3c 704f 4cbd e936 5d3d
000000b0: f742 3cbd 82d8 903d af98 07bd d601 c0bc
000000c0: 7fd7 bb3d e6b6 1b3c 3614 aabd c0d6 dd3b
000000d0: 3a3d 54bd f63d 18bd 5c88 b63c 9340 81bb
000000e0: 1716 fb3b e1d9 a93c 7cdb a63c 605a 883d
000000f0: 9a12 b5bb 9c4c bb3c a5a1 f43c 3c4b 31bd
00000100: 50e5 403e 9adf 183d 4d14 dfbc 1802 113d
00000110: 543f 903c ecd5 e6bc b479 3d3c c938 52bd
00000120: 8c78 873d f402 aa3a 31b0 e9bc 0307 573d
00000130: 9738 3bbc 96a5 c4bc 4d0a 21bd 6875 9ebc
00000140: 1b84 e63c db96 e83c 780a a03d d7fc 75bb
00000150: be0b 68bd 510b 243d 4b7f 58bd 75cc 78bc
00000160: fb50 283c c398 86bd bce5 adbc d7c3 a9bb
00000170: dda0 e93c 6d15 a53c 7662 2c3d 2cbd 22bd
00000180: fdf2 db3d 4fde 1b3e 87db 323d 30d9 55bc
00000190: 7a6b e3bb b701 03bd 8e1b 5c3d 4b2c 89bd
000001a0: 3a10 5bbd 3551 38bd 00b3 20bb cb34 17bb
000001b0: 02ad 6fbc be13 1abb 08bf 9d3c c03b 733d
000001c0: ac2f b8bd 7cdb 3bbd 3f85 b23c 5a21 91bd
000001d0: aa81 41bd 63f1 80bd 8ade 95bc d1a8 4c3d
000001e0: 4536 253c e7f2 f63c 5c80 47bd d512 81bc
000001f0: d118 8abd 7cc6 2c3d 75af a63c 5191 fc3c

mlp.4.weight f4 [80, 128]
0.0077698003 -0.010140802 0.012797233 0.06869576 0.003914808 -0.073119156 0.09397439 0.023934051
-0.02984783 0.011730451 -0.05267923 0.034180146 0.06197486 -0.07190997 0.010881423 0.054579325
0.121186614 0.02433511 0.045941647 0.045288425 -0.019758005 0.02457592 -0.0142085 0.01751407
0.08753384 -0.011846616 0.006777094 -0.08615871 0.07703266 0.08045514 0.05398938 0.099790215
-0.082741514 0.06011876 0.03655438 0.08121947 0.002958125 0.07812515 0.09436387 0.013451522
-0.060566142 0.06264069 -0.08275705 0.09790608 -0.022563403 -0.01059584 0.08970913 0.06423689
0.019031376 0.01856197 0.030718826 0.11497162 -0.044916272 0.071040206 0.109983645 0.040544357
-0.02638781 0.076908186 0.08873591 -0.06136661 0.038019925 0.047186613 0.0009480757 -0.058425408
0.03292479 0.03978594 0.09701658 0.0056845495 -0.063124694 0.0051012137 0.10377448 0.0017090862
-0.014046014 -0.0012007742 -0.09166758 -0.08792218 -0.0019776942 0.07010458 -0.045134086 0.027485425
0.09944724 -0.028971564 -0.012569186 0.087791316 0.06154521 0.06839618 0.03333564 0.048499264
-0.04933201 0.10771612 0.10098887 0.11935162 -0.020859076 0.067645475 0.036225285 -0.0027429801
0.028205004 -0.07644469 -0.028735591 -0.07023946 0.03921195 0.095249556 0.06959255 0.019714575
-0.010017305 0.035648838 0.023193905 0.10531651 0.08651829 0.07965556 -0.06565105 0.044682983
-0.04884999 0.045804124 0.07840818 -0.004097865 0.009190197 -0.02925979 0.05793452 0.053531583
0.009874012 0.021167817 0.019039713 0.042670555 0.03900371 0.051940203 -0.008097245 0.01595036
0.099833004 -0.0005455524 -0.018877963 -0.016833514 -0.061612513 -0.022390524 0.004323959 0.13914722
-0.00041120866 0.057812676 0.042711023 0.042758673 0.06935064 -0.077168666 0.0295383 0.058140513
0.05015118 0.075965405 -0.05857845 -0.04926939 -0.06433281 -0.040509224 -0.04115057 0.07373098
0.05327924 0.026425937 0.08268048 0.05374518 0.11544033 0.071926914 0.073856555 0.11129617
-0.06496931 -0.021875434 0.013296239 -0.004358488 -0.02348618 0.042024937 0.0974778 0.013093409
0.07167237 0.0018981767 -0.0036972796 0.06835891 0.0772128 -0.101470046 -0.11132984 0.03381877
-0.08016953 0.09341062 0.01634197 0.07392104 -0.019227736 0.061061606 0.12302631 -0.010512757
0.008723876 -0.0060562994 0.03653046 0.048009627 0.06253024 0.06934871 0.0068894112 0.01682801
-0.004524733 0.052853096 0.043203395 -0.03213706 -0.06990682 0.06383719 0.0891548 -0.026953235
-0.07111528 0.0016890033 0.003477046 -0.08794541 0.064790204 -0.03893609 0.0042366507 0.0820095
0.111566044 0.0029289636 0.013408187 -0.058856223 0.054234106 -0.08494349 0.050811358 -0.043481857
0.07750192 0.14361818 -0.02357805 0.01872063 -0.062667474 0.06486861 0.011065719 0.020520404
-0.06660502 -0.054340623 0.036267176 -0.008064831 0.06327147 -0.047832873 -0.051407453 -0.046266135
-0.0029067206 0.05312115 -0.05114582 0.04439478 0.122647256 0.096350424 -0.01895237 0.06603293
0.017432 0.039118532 0.0901987 0.06710795 0.0052412017 0.026727766 -0.083444536 -0.014909934
0.11518355 0.09565084 0.0019756292 0.09139804 0.11691444 -0.039072115 0.001179764 0.016914636
00000000: cf99 fe3b 9b25 26bc 7cab 513c 5db0 8c3d
00000010: ca47 803b 7fbf 95bd a575 c03d 5811 c43c
00000020: 7083 f4bc 1431 403c 2dc6 57bd 7b00 0c3d
00000030: 5ad9 7d3d 8945 93bd ff47 323c 928e 5f3d
00000040: b030 f83d 6d5a c73c 4f2d 3c3d 5b80 393d
00000050: 8adb a1bc 7153 c93c c5ca 68bc ab79 8f3c
00000060: f144 b33d 4f18 42bc 6312 de3b fa73 b0bd
00000070: 4dc3 9d3d aac5 a43d f823 5d3d d05e cc3d
00000080: 6274 a9bd 173f 763d 0cba 153d 6556 a63d
00000090: 1add 413b 1400 a03d d841 c13d c663 5c3c
000000a0: 3414 78bd c349 803d 877c a9bd fc82 c83d
000000b0: e3d6 b8bc 2d9a 2dbc 6cb9 b73d a18e 833d
000000c0: b0e7 9b3c 460f 983c 0ca6 fb3c 3e76 eb3d
000000d0: 20fa 37bd 877d 913d 1b3f e13d d711 263d
000000e0: 402b d8bc 0a82 9d3d 2cbb b53d 8e5b 7bbd
000000f0: c8ba 1b3d c046 413d 4988 783a 7b4f 6fbd
00000100: 25dc 063d 95f6 223d a1b0 c63d 7545 ba3b
00000110: 8547 81bd 1528 a73b b787 d43d 6b03 e03a
00000120: 4121 66bc 4c63 9dba 36bc bbbd 8b10 b4bd
00000130: 349c 01bb fd92 8f3d 85de 38bd 1d29 e13c
00000140: ffaa cb3d c655 edbc fdee 4dbc efcb b33d
00000150: d516 7c3d 4c13 8c3d f48a 083d 2aa7 463d
00000160: 5d10 4abd 459a dc3d 41d3 ce3d 9f6e f43d
00000170: a7e0 aabc b689 8a3d f760 143d 92c3 33bb
00000180: 2e0e e73c 098f 9cbd e766 ebbc b5d9 8fbd
00000190: b69c 203d 3312 c33d 8a86 8e3d 7680 a13c
000001a0: 9f1f 24bc 8404 123d 2501 be3c 2fb0 d73d
000001b0: 8030 b13d 7422 a33d 0f74 86bd 8105 373d
000001c0: ed16 48bd 1b9d 3b3d 7894 a03d 6247 86bb
000001d0: 7b92 163c 3ab2 efbc bf4c 6d3d ef43 5b3d
000001e0: 9cc6 213c 2168 ad3c 2cf9 9b3c 52c7 2e3d
000001f0: 5bc2 1f3d 40bf 543d 4faa 04bc 54aa 823c
00000200: 3f75 cc3d 6703 0fba f5a5 9abc 70e6 89bc
00000210: 675d 7cbd 556c b7bc ffaf 8d3b 9c7c 0e3e
00000220: 7e97 d7b9 fccc 6c3d c1f1 2e3d b823 2f3d
00000230: b507 8e3d 9b0a 9ebd 4efa f13c bf24 6e3d
00000240: 536b 4d3d c093 9b3d f5ef 6fbd b3ce 49bd
00000250: ecc0 83bd 00ed 25bd 808d 28bd 4500 973d
00000260: 553b 5a3d 357b d83c 6254 a93d e823 5c3d
00000270: fb6b ec3d 6b4e 933d 1b42 973d 3fef e33d
00000280: a10e 85bd 1c34 b3bc 78d8 593c a6d1 8ebb
00000290: 1766 c0bc 5722 2c3d 71a2 c73d bd85 563c
000002a0: f7c8 923d 3ecc f83a 0f4e 72bb c2ff 8b3d
000002b0: bf21 9e3d 87cf cfbd e600 e4bd 8d85 0a3d
000002c0: ec2f a4bd 114e bf3d 98df 853c ea63 973d
000002d0: 7c83 9dbc bc1b 7a3d 38f5 fb3d b33d 2cbc
000002e0: 97ee 0e3c ec73 c6bb f7a0 153d bea5 443d
000002f0: db0f 803d b206 8e3d 92c0 e13b e5da 893c
00000300: 3644 94bb 7d7c 583d 0bf6 303d 26a2 03bd
00000310: 4f2b 8fbd 13bd 823d cb96 b63d 08cd dcbc
00000320: e3a4 91bd 8c61 dd3a 27df 633b b91c b4bd
00000330: bab0 843d 737b 1fbd 9ad3 8a3b 99f4 a73d
00000340: bd7c e43d dbf3 3f3b 03ae 5b3c 3913 71bd
00000350: 9524 5e3d daf6 adbd 921f 503d 081a 32bd
00000360: 54b9 9e3d a510 133e c126 c1bc 025c 993c
00000370: ce57 80bd d5d9 843d fd4c 353c 681a a83c
00000380: 3668 88bd 4694 5ebd e48c 143d 5a22 04bc
00000390: 7994 813d 67ec 43bd 9f90 52bd 8f81 3dbd
000003a0: ae7e 3ebb 9095 593d 487e 51bd 4dd7 353d
000003b0: 7c2e fb3d 5f53 c53d 0042 9bbc 463c 873d
000003c0: 8ecd 8e3c c13a 203d 19ba b83d e56f 893d
000003d0: 63be ab3b 30f4 da3c f8e4 aabd cc48 74bc
000003e0: 5ae5 eb3d 96e4 c33d 8f79 013b e52e bb3d
000003f0: d770 ef3d 150a 20bd 50a2 9a3a 9090 8a3c
