weights2/ep_2907.pth (torch, 275655 bytes, 10 tensors)

lstm.weight_ih_l0 f4 [192, 7]
00000000: 76f6 bdbc 8bfb ce3d b5d0 143e 81e9 4d3d
00000010: 0b7b 283d 1865 083e d50d 243e 6705 1d3e
00000020: 91ea 1ebe 3b50 073e 9e9f c5bd e38a b5bd
00000030: 9e48 b33c aa78 c73c 5a90 703d a5ed 833d
00000040: 0258 4dbd 8c72 4fbd 36fd 7ebd 9872 193e
00000050: 0c9d 343d e736 343e 816a 8e3d dc76 0b3e
00000060: 77eb 503d dbd1 14be 3637 823d e27d bcbd
00000070: a047 aabd 796b 083e c24c 103e 9392 a33c
00000080: 1bf1 06bd 9488 003e 4c1f c1bd 4e39 933c
00000090: c6d8 003a 722f df3d 3bfa 053e 1f4e adbc
000000a0: 0335 123e 8f1b c0bc f891 ce3d 8ca0 bbbd
000000b0: b187 293d c205 1a3d ca0e 833c b2d5 963d
000000c0: f78c 043e ea75 a5bc cfdd e1bd 2d07 8f3b
000000d0: 37f1 84bc 8d8f 033e abcd 343e bd61 073e
000000e0: 956b 0f3c d838 483d 4447 21bd 3a9a a03d
000000f0: 38c7 8dbd 7c53 283e e7f0 75bd 0c21 d0bd
00000100: d3ae 0cbe 20d0 3c3d 1ebd 0b3d 2e61 ccbd
00000110: 9d96 f1bd 7050 e23d b404 e0bd 8f9d ca3d
00000120: 0ec2 e3b9 7ad6 4c3d e298 ddbb cb4a 8abd
00000130: 2ccf 64bd 521b f33d da38 2fbd 53d0 183d
00000140: c0ca 8abd 9775 123e 6e0c debc aa47 833d
00000150: e33a 0ebb 53ce f7bd 7f0b 27be cd93 ecbd
00000160: 47fa 78bd d16d dbbc 81e7 003e cf72 373e
00000170: b371 833d e251 29ba b1e0 22bc d27b 2e3d
00000180: ccba a5bd 8084 3a3e dd50 283d b25a 88bd
00000190: 23af 633c 4a11 f2bd c3a4 1bbd a279 7ebb
000001a0: 07ad f83d 6447 ee3d 9aa3 dd3b b578 da3d
000001b0: 3c69 97bb a07b 153e 56d4 54bc be54 2a3e
000001c0: 6dd0 003e d6c0 c7bd be75 873d 0ad5 e7bd
000001d0: 8daf d93d f3e3 ef3c 9632 98bd 7a96 f7bb
000001e0: 7c67 cbbd 6dce 6e3c bb2c 073c 3492 333d
000001f0: e4b2 dc39 af90 0c3e 9b9e b13d 8af0 22be
00000200: 6f2e c73c 09b0 1bbe a68c dfbd 7f74 e0bd
00000210: fc08 693c 455f 9d3d c51c 42bc eea6 1bbc
00000220: 8322 a7bd acfd 2f3b 6349 1bbc aadd 863d
00000230: 98b0 d93c e7df 11be ab3f cb3d a35f ce3d
00000240: 5ef9 a1bd 709f 2e3e d929 143e 50c9 f7bd
00000250: 6435 983c 493e 8ebd afe3 69bc 85c8 36bd
00000260: 4b39 a5bd 0325 023d 273e cf3d 16fc cebd
00000270: 5993 34bc bec9 533d 1a14 56bc c8f0 b13c
00000280: 401b 693d f89f 013d e166 e4bd d7d5 123e
00000290: f1c4 b63d a740 133e 0b11 163e 1c53 d43d
000002a0: 5e16 c93c 576e e63d 4ed2 bebc 6940 06be
000002b0: 3337 e5bd 199c 513d 6ee0 023d 0d26 5e3d
000002c0: 2287 033e 23e8 26bc 753b 3abc f773 1fbd
000002d0: 9d5e 07bd 2abe 4ebd fe1a 283e 962f 2c3e
000002e0: 18bd 3e3d 0218 9fbb 00da 36bd 4987 32bd
000002f0: 8c61 703d cfef e9bd 67e6 18be dcb1 c53d
00000300: 7bc4 97bc c108 0f3e a2d2 d93d 3cf9 ec3d
00000310: 7900 083c b37e 8e3d e6d8 193e e4eb 023e
00000320: ca20 1ebc efbb 173c 947b fc3d 24dd f0bd
00000330: 397d 973d bf77 b63b 9268 a1bc b7da 293d
00000340: c6c1 26ba b00f 4cbb 9e76 a2bd 9ac3 093d
00000350: 4e99 8d3c be9d 67bd 64ac b1bd b0d7 9b3d
00000360: 3d3b 3f3e 0e10 23bd 99d3 c33c fc82 8e3d
00000370: 7cb2 38bd 3af7 833c 7134 383d f21a 4b3d
00000380: 2928 97bd 43a7 e1bd 69c8 c43c 4e86 fb3d
00000390: 87e9 cf3d d09d 0ebe 617c 69bd 4645 a2bd
000003a0: 5663 8cbd 97d2 f13d e14e ff3c 9c1a 413d
000003b0: 2898 a7bd fa6d 063e db51 3a3d 4472 e3bd
000003c0: 7e76 52bd ee31 4fbd bd1b 02bd 4513 ad3d
000003d0: fb94 dd3c e426 db3d f3b8 8c3d 3b38 b13d
000003e0: 0ff5 04bd 08eb 883d 3282 febd d1ec dabd
000003f0: 939a 91bc 4ddd aabd 2bae 083e 3efb bebd
-0.02318881 0.10106572 0.1453274 0.050271515 0.041132968 0.13319814 0.16020902 0.15334092
-0.15519167 0.13214199 -0.09649585 -0.08864381 0.021885213 0.02434953 0.058731414 0.064418115
-0.05013276 -0.05064635 -0.0622532 0.1498512 0.044095084 0.17599069 0.06953908 0.1361956
0.051005807 -0.14533179 0.06358187 -0.09203698 -0.08314443 0.13322248 0.14091781 0.019967353
-0.03294478 0.125521 -0.094297975 0.017971661 0.0004915114 0.10897721 0.13083737 -0.021155415
0.14278035 -0.023450641 0.10086435 -0.09161481 0.04138917 0.037603147 0.015998263 0.07364978
0.12944399 -0.020197827 -0.11028635 0.004364869 -0.016228301 0.12847729 0.17656581 0.13220878
0.008753677 0.048882335 -0.039374605 0.078419164 -0.069227636 0.16438097 -0.060044196 -0.10162553
-0.13738565 0.04609692 0.034115903 -0.09979473 -0.11796305 0.110504985 -0.10938397 0.09893333
-0.00043441396 0.05000923 -0.00676261 -0.06752547 -0.055861637 0.11870445 -0.042778827 0.03730805
-0.06776953 0.1430267 -0.027105536 0.06410153 -0.002170258 -0.120999 -0.16312979 -0.11551628
-0.060785558 -0.026785763 0.12588312 0.1791489 0.06418171 -0.000645904 -0.009941266 0.042598553
-0.08092269 0.18214607 0.041092742 -0.06657924 0.013896736 -0.11819704 -0.037998926 -0.0038829823
0.12142377 0.116347104 0.0067638876 0.10667554 -0.004620699 0.1459794 -0.012990078 0.16633889
0.12579508 -0.097535774 0.066142544 -0.11319931 0.10629187 0.0292835 -0.074315235 -0.00755578
-0.099318475 0.014575583 0.008250411 0.043840602 0.00042094954 0.13727067 0.0867283 -0.15912071
0.024314133 -0.15203871 -0.109154984 -0.1095972 0.014223333 0.07684187 -0.0118476795 -0.009500248
-0.081608795 0.002685408 -0.009477946 0.06585248 0.026573464 -0.14245568 0.09924253 0.10076835
-0.07908891 0.17053008 0.14469089 -0.12098944 0.018580146 -0.06945474 -0.014275475 -0.044624824
-0.080675684 0.03177358 0.101192765 -0.10106675 -0.011021459 0.05170607 -0.013066316 0.021721259
0.056910753 0.0316467 -0.11152435 0.14339386 0.08924282 0.14380132 0.14654939 0.10367414
0.024546798 0.112515144 -0.02329364 -0.13110508 -0.11192169 0.051174257 0.031952314 0.054235507
0.12844518 -0.010187182 -0.011366715 -0.038928952 -0.033049215 -0.050474323 0.16416547 0.16815028
0.046567053 -0.004855157 -0.044641495 -0.04358605 0.058686778 -0.11422693 -0.14931642 0.096530646
-0.018526306 0.13968183 0.10635878 0.11570975 0.008300894 0.0695776 0.15024146 0.12785298
-0.009651372 0.009261115 0.12328258 -0.11760929 0.07396931 0.005568474 -0.019703183 0.04146835
-0.0006361272 -0.003113728 -0.07932781 0.033633806 0.017285015 -0.05654692 -0.08675459 0.076094985
0.18674941 -0.039810233 0.023904609 0.06958577 -0.04509209 0.016109098 0.044971887 0.049586244
-0.07380707 -0.11018231 0.024021344 0.12281476 0.10151964 -0.13927388 -0.057003383 -0.07923369
-0.06854884 0.11807745 0.031165542 0.047144517 -0.081833184 0.1312789 0.04548822 -0.11105779
-0.051382534 -0.050584726 -0.031764735 0.08450941 0.027048578 0.10700777 0.06871214 0.08653303
-0.03246027 0.06685454 -0.124271765 -0.106897004 -0.017773902 -0.08342991 0.1334769 -0.093252644

lstm.weight_hh_l0 f4 [192, 48]
00000000: 27d2 50bc a97f 03be f875 dabb e725 0abe
00000010: f583 b2bc 991c d5bd 35d4 d9bd 1379 963d
00000020: be07 a1bd d719 063d b9e2 43be b68d 3ebe
00000030: ff05 77bc 0351 873d cdc4 c2bc 2231 77bd
00000040: d91e 6bbc d8d8 373e 35b0 d73c 18ef 25bd
00000050: 2c34 1e3e 24b7 7f3d 3eec d7bd ecd0 98bd
00000060: 0881 1dbd 0d1e 8f3d 8799 663d 828b f83d
00000070: 20ae 903c fc64 30bd 9a11 5fbd f2ab 6f3a
00000080: 2f90 c1bd af71 2abe 33aa a03d b3d2 c2bd
00000090: f11f 18bd b0ac e03d 3456 7dbd 26ed be3b
000000a0: 1643 393d 4fda c63d 1adb 96bb 8343 a5bd
000000b0: 403e 003d fba2 30b9 08b4 08be cf43 e6bd
000000c0: db00 bebd 13c4 3ebd c076 c93d 9c6d 393d
000000d0: 1425 a23d b5cd 003e 8576 203e cf26 dcbd
000000e0: 1f9e c439 b1c3 ad3c b9e8 3bbe 6e06 29be
000000f0: bcfc cf3d 0dde 143e 0088 fe3d 2ead efbd
00000100: bec5 82bd e8bb ce3c 9153 253e 9eee a2bc
00000110: 74b0 3dbd 3a19 81bc c902 54be 4810 073e
00000120: 90d1 213e a67c d83d 6705 ce3d 4603 393e
00000130: dcf0 dd3d f536 973d 93d6 ef3d 01a4 ba3d
00000140: 2857 a7bd d068 3bbe 3ae0 52bc 2439 583d
00000150: bff8 c93d 870b 3ebd 7892 1abd ff1f 8bbd
00000160: ace3 ecbd a910 cdbc 400c b4bd 4a79 be3d
00000170: e1c5 483d 6a26 d23d 20e2 c73d bb1a b9bd
00000180: 2e2f a73c 4999 13be bdf6 01bb 90e6 e0bd
00000190: 8700 073d 2683 223d ae9c d03d 44f7 083d
000001a0: 5785 37bd dcad 05bd a502 b5bd c7a5 bebd
000001b0: 7141 f13c f367 373c a3e1 6abd c4a3 adbc
000001c0: 1259 793d 8a4b 243e b811 023e 6f85 96bd
000001d0: 0b93 16bd d97a f5bd 995d cebc f32d 353e
000001e0: 6208 333d a909 b43c 6f7b 31be 62b5 193d
000001f0: 8b56 18ba ba5c 2cbd 5e32 82bd 22a9 e03d
00000200: 5d84 213d 6211 81bd 4bcb cb3d db0b d03d
00000210: b8be dd3d 6b97 c4bd c146 293e 333b 62bd
00000220: 1d8d 0dbe cf77 a43d c487 71bd 087c fe3d
00000230: e55e 24be 4b0e 603d fe1c 59bd 4670 f0bd
00000240: 93e0 afbd eeaf 06bd b80f c7bd 5011 e4bc
00000250: ff7a 5ebc 550b f03d 8a06 aebc 39e7 8bbd
00000260: 2ed7 173d 0074 f7bc 455d a23c a8c7 4fbd
00000270: fa86 b43d 0fa0 2c3d af06 763d 4b6c e23d
00000280: 2932 be3d 1c07 123e 9b07 9c3c 8940 7b3b
00000290: 92cc 95bc 1e03 c73d 3dff 00be 1b13 0c3e
000002a0: 2874 353e 060f 4fbd 535a d4bd ea6f a63d
000002b0: fe29 f23c fc08 603b 30b6 20bd 9b4e fb3b
000002c0: 0edd 36bb 3582 4fbd 8792 dbbd 06f0 cd3d
000002d0: b1ca 2dbd 3d56 613c b37e c2bd f779 183d
000002e0: 43b3 2cbe 62c1 3e3e a673 9fbc 546e ff3d
000002f0: f716 60bd 3558 b2bd ebed 16be 3fa9 bf3d
00000300: 42e1 23be 48bc a73d 9c46 a63d a6d0 27bb
00000310: e31d ff3d a82e 0f3e 0a64 263e c243 0cbe
00000320: a315 cbbc 727a ce3d 198e 823c f4fe 00bd
00000330: d374 0c3c 670e 1e3d 3bd5 3fbd 6972 38bd
00000340: 941d ce3c 9cef a13d ac75 3bbd ef47 83bd
00000350: d064 ac3b e074 17bc 4ca1 11be 46cc 53bd
00000360: 1a20 3cbc 8abb 183e ca0e edbd e55a c03c
00000370: 3f07 0cbc cec2 223e c3bc 433e 6492 babd
00000380: b4e0 42be 03ba 14be 34e4 603d 2ca8 043e
00000390: f9b5 1b3e dd3a ea3d 4554 233e 4d51 a33d
000003a0: 9181 8abd 9cbf e63d 1ea3 453b aeeb 90bd
000003b0: 6a14 79bd 898b f93b b544 443d c409 9cbc
000003c0: b46f 15be 1ec0 10bd 9cd0 d5bd 7278 b9bd
000003d0: e28f d33d 0523 923d 8a11 153e 4dc9 333d
000003e0: 84ac f83d 170a 5a3d ddda d0bd 8dfa 26be
000003f0: e84d 9d3d 23a3 4bbd 2f5f 94bb 4899 2cbd
-0.012745417 -0.12841667 -0.006666895 -0.13491021 -0.021791438 -0.10405845 -0.106361784 0.07347312
-0.07862805 0.032739487 -0.19129457 -0.18608746 -0.015077113 0.06607249 -0.023775483 -0.06034959
-0.014350616 0.17953813 0.02632914 -0.04051122 0.1544959 0.062430516 -0.105431065 -0.07461724
-0.038453132 0.069881536 0.05629876 0.12135984 0.017661154 -0.043065056 -0.054460146 0.00091427483
-0.09451329 -0.1664493 0.07844963 -0.09512844 -0.037139837 0.109704375 -0.061849788 0.00582661
0.045229994 0.09709608 -0.0046037557 -0.080695175 0.031309366 -0.00016845383 -0.13349926 -0.11243402
-0.09277507 -0.04657371 0.09837103 0.045270547 0.07917228 0.12578471 0.15670212 -0.1074959
0.00037501843 0.021211477 -0.18350495 -0.16506359 0.10155627 0.1453783 0.12428284 -0.11702953
-0.063853726 0.025236085 0.1614516 -0.019889172 -0.046310857 -0.0157591 -0.20704187 0.13189805
0.15802598 0.1057065 0.10059624 0.18067655 0.10836956 0.07383529 0.11710849 0.091133125
-0.081709206 -0.18301702 -0.012870843 0.05278887 0.09861898 -0.046397712 -0.03773734 -0.06793212
-0.115668625 -0.025032358 -0.08791399 0.09300478 0.049016837 0.10261233 0.09759927 -0.090383016
0.02040824 -0.14413942 -0.0019830905 -0.10981476 0.032959487 0.039675854 0.10186134 0.033438936
-0.044804897 -0.03263651 -0.08838395 -0.09308963 0.02945015 0.011194217 -0.05734409 -0.021196254
0.06087596 0.16044441 0.12702072 -0.07349669 -0.036761325 -0.11986322 -0.025191115 0.1769331
0.043709166 0.021977263 -0.17332242 0.037526496 -0.0005811236 -0.04208062 -0.06357263 0.109697595
0.039432872 -0.06302144 0.099508844 0.10158511 0.10827392 -0.09599193 0.16530897 -0.055232238
-0.13823362 0.08030664 -0.058967367 0.12426001 -0.16051824 0.05470113 -0.053006165 -0.117401645
-0.08587756 -0.032882623 -0.09719795 -0.027840286 -0.013579129 0.117209114 -0.021243352 -0.068312116
0.037070446 -0.03020668 0.019819865 -0.050727516 0.08814807 0.04214483 0.060064968 0.110558115
0.09286911 0.14260525 0.019046595 0.0038338026 -0.018286023 0.097173914 -0.12597366 0.13679163
0.17720091 -0.050551437 -0.103687905 0.08126815 0.029561039 0.0034185043 -0.039236248 0.0076692826
-0.0027902755 -0.050661284 -0.10721307 0.100555465 -0.04242963 0.013753471 -0.09496822 0.03722569
-0.16865258 0.18628457 -0.019464325 0.12472215 -0.0547094 -0.087082304 -0.14739196 0.09358453
-0.16003898 0.08190209 0.081189364 -0.0025606542 0.12456872 0.13982642 0.162491 -0.13697723
-0.02479059 0.10081948 0.015936898 -0.031493142 0.008572775 0.038587954 -0.04683421 -0.045030985
0.025160588 0.0790703 -0.045766518 -0.064102046 0.005261041 -0.009244174 -0.14221686 -0.051708482
-0.011482263 0.1491529 -0.115750864 0.023480842 -0.0085466495 0.15894625 0.19114976 -0.09109953
-0.1903103 -0.14524083 0.05490513 0.12954777 0.15206136 0.114370085 0.15950115 0.07974491
-0.06762994 0.11267015 0.003015704 -0.07076202 -0.060810484 0.007615511 0.047917087 -0.019047625
-0.14593393 -0.035339467 -0.1044018 -0.09056176 0.10330178 0.07135586 0.14557472 0.043893147
0.1214228 0.05323228 -0.10197995 -0.16306515 0.07680875 -0.049716126 -0.0045279483 -0.042138368

lstm.bias_ih_l0 f4 [192]
00000000: d72a 543d 97ce 77bd ee50 033e f667 c4bd
00000010: eec4 87bc bed8 b4bb e833 3bbd bd1f f43c
00000020: 039f b5bd 4c9a f83d 29ca 1d3e 0b3b 5e3d
00000030: b2e9 e13c a1f0 4f3d fb82 803d 4cdd 0cbd
00000040: 0124 b0bd 277c 2a3e 7a79 d73b 99d5 2cbd
00000050: ec6d 243e 29a0 4c3c 6430 ab3d 8f48 013e
00000060: 18f9 743d 6669 e23d 48f0 dabd 6a56 9b3d
00000070: 35dd da3d 4e00 a53d a7a9 64bd 044d b93d
00000080: 0640 b03d 96f4 bf3d 5a27 9ebd 9b1b 37bd
00000090: cdf5 9ebc 79b9 7fbd 5328 a2bd 0a96 893d
000000a0: 7170 413e 5466 b8bd 5ebc ba3d 6e2a c3bc
000000b0: 1879 3a3c f893 adbb e138 f93d c86f dd3d
000000c0: eb5c 05be 002c 0f3e 3614 44bd 4916 023e
000000d0: 4d61 6a3d bf13 793d 5a24 debd d786 f5bc
000000e0: e973 f0bd 6871 f3bd e645 c5bd 368d acbc
000000f0: c6ff bd3c f7be c23d 9861 4fbc 52df d33d
00000100: 5576 713d af36 f33d 6729 15bb a1f7 223d
00000110: 63ce 123e e0ec 0d3e 34b6 1d3e 94d9 863d
00000120: c47b 01be 31ef d63d 23c8 fbbc caee c83d
00000130: bea6 1fbd 0cde a93d bf34 9ebd d133 df3c
00000140: 52dd fc3d 4ac4 983c bf62 c6bd 4997 6cbd
00000150: 385e 4c3c b7b6 bf3c 3c3a 64bc 0deb 84bd
00000160: a966 943d 3cf8 9d3c 142a 64bd 0bef 263d
00000170: 468f d73d 934c 193e 6e3e 80bd da4d 49bd
00000180: a853 c8bd 289e 673d d85a 703c 6788 103b
00000190: 0d22 1cbd 057e ba3c 3f1b 253e 6301 8a3d
000001a0: c961 b13d 2ecd c23d c873 273e 6abf 113e
000001b0: 9b4b acbd 46b7 bb3d 7aab 70bd 6675 7bbc
000001c0: 8c5c 8bbc 8349 1e3b 411e 863b e2e2 05be
000001d0: 1e18 483e 7ed2 953d d9c2 293e 9560 19be
000001e0: 3a09 9e3d 102d 843d 7464 063e e832 65bd
000001f0: 8dfa 6abc 29ca b7bd 4080 72bb fed3 c13c
00000200: f10b 30bd 97c0 c43d f0cf 523d 348c d63d
00000210: 9851 c23b e699 ef3d f6ac 28be b5ab d3bd
00000220: b9a8 db3d 4770 21be a19b 1b3e c303 563d
00000230: 53ab 053e 2078 53bc 357e e2bd 8551 acbd
00000240: 1acc c5bd 94ea 7fbd 8785 fd3d fe31 123e
00000250: 72af d5bd 3365 d33c 6ce8 ed3c 4c5e eb3d
00000260: aadd 163e 852c e13d c898 7dbd 6958 a3bd
00000270: ba19 9d3c 28b9 de3c f081 b73b 2fbd 5bbb
00000280: e6af b5bd 9a9c 3b3e a693 27bd 60cc afbc
00000290: cef7 253e 14ff 033e a936 b83d a640 98bc
000002a0: 5da8 463d 6789 57bd cd4c 1f3e f7fd df39
000002b0: d924 ddbc ec48 bd3d e2f7 b3bd 970b b03d
000002c0: 88ba 153e 3512 303d aa78 c53d 20b3 34bd
000002d0: a604 883d 55ca cfbc e98c 553d b29e 8abd
000002e0: 9e3f f13c 0cab 583d 0ae2 b63c e5b0 a5bd
000002f0: ef57 4b3d 27c0 db3d 9b03 d33d 7ff0 b43c
0.051798668 -0.060499754 0.12823841 -0.095901415 -0.016573396 -0.0055190017 -0.0457038 0.02980029
-0.0886822 0.12138805 0.15409149 0.054255527 0.027577255 0.05076659 0.062749825 -0.034390733
-0.08600617 0.16648923 0.0065757604 -0.04219589 0.16057557 0.012489357 0.08358839 0.12625335
0.059807867 0.110552594 -0.10690361 0.075848415 0.10686723 0.08056699 -0.055825856 0.09047893
0.086059615 0.09372823 -0.077223495 -0.04470406 -0.019404316 -0.06243274 -0.079178475 0.06718071
0.18890549 -0.090038925 0.091179594 -0.023823943 0.01138141 -0.0052971803 0.12169052 0.10812336
-0.13023727 0.13981628 -0.047870837 0.12703814 0.0572217 0.060809847 -0.10846777 -0.029971523
-0.11740858 -0.11886865 -0.09632473 -0.021063428 0.023193251 0.0950908 -0.0126575455 0.10345329
0.05895074 0.118756644 -0.0022760273 0.03978694 0.14336543 0.13859892 0.15401536 0.065844685
-0.12644869 0.10494841 -0.030735081 0.098111704 -0.038977377 0.08294305 -0.07724904 0.027246388
0.12346901 0.018648285 -0.09686803 -0.057761464 0.012473635 0.023402555 -0.0139299 -0.06490145
0.07246143 0.019283406 -0.05570419 0.040755313 0.10525374 0.14970617 -0.062619075 -0.04914651
-0.09781581 0.056547314 0.014670096 0.0022053958 -0.03811841 0.022765169 0.16123675 0.06738546
0.08661229 0.09511791 0.16352761 0.14233175 -0.08412858 0.09165816 -0.058757283 -0.015347814
-0.017011903 0.0024152703 0.004092962 -0.1307483 0.1954045 0.07315539 0.16578235 -0.1497825
0.077166036 0.064539075 0.13124257 -0.05595675 -0.0143419625 -0.08974106 -0.0037002712 0.023660656
-0.04298014 0.09607046 0.051467836 0.104759604 0.005930137 0.11699276 -0.1647223 -0.10335485
0.10725541 -0.15765487 0.15196086 0.05224968 0.13053636 -0.012907058 -0.11059228 -0.08413986
-0.0965807 -0.06247957 0.12378984 0.14276883 -0.10433854 0.025805091 0.029041491 0.11492595
0.14732996 0.109948196 -0.06191328 -0.07975847 0.019177306 0.027187899 0.0056002066 -0.003352951
-0.088714406 0.18321458 -0.040912293 -0.021459758 0.16207811 0.12890273 0.089948006 -0.018585514
0.048500407 -0.05262127 0.15556641 0.00042723093 -0.02699511 0.09242424 -0.08787514 0.085959606
0.14621937 0.042986114 0.096421555 -0.04411614 0.066415116 -0.025365034 0.052136336 -0.0676855
0.02944928 0.052897498 0.02232458 -0.080903806 0.049644407 0.107300095 0.10303422 0.022087334

lstm.bias_hh_l0 f4 [192]
00000000: 6b36 f63d cac8 303c 8d7d d4bd 8cb7 b7bd
00000010: 0649 dabd e224 393e 6245 293d 95c1 db3d
00000020: da31 c23d 356a dbbd 2f62 903d e302 3c3d
00000030: f2dd e5bc 22f8 98bd bf56 6c3d 3081 573e
00000040: 41d3 cfbd 553a 5c3e ced9 d4bd 605f 3cbc
00000050: c4e5 8d3d ed00 94bd 35bb 8a3d cdd4 373e
00000060: 8044 daba 101a a63d 1d8b 183d 0cda a03d
00000070: e267 a03d fcd8 333e acf9 ccbb 7363 883c
00000080: 6ef7 0b3e 683c c2bd 84fa c63d eaa9 4d3d
00000090: 1e78 12bc c2e9 e73d d748 3e3e 1ccd a7bd
000000a0: 6ed2 653e f564 e2bc 6097 0f3d 983f f83d
000000b0: 0c18 3d3d fa58 8b3d 8c72 e53d 54ca 3d3d
000000c0: c903 09be 5988 27bc ebab 093e 6baf fdbd
000000d0: c158 c1bd d4f3 8abd 8839 123e 042b 88bd
000000e0: d782 eb3d 0ce2 9fbb ff9a 53bc dfbd f73d
000000f0: a6bf 9bbd 1b3f d73d 734c 61bd faf6 653d
00000100: 6aa0 1ebe 2bdb b53d 56f4 933b acaf 223e
00000110: 6184 253e ce24 ac3d 4d44 e4bd 7821 293e
00000120: e542 cf3c 03cd 16bd c926 8e3d af7f a53d
00000130: 84b6 0ebe f330 943d 8674 bf3d efe4 ba3d
00000140: 1816 b7bd d231 fe3d 9963 f0bd db53 ebbd
00000150: aab8 d73d 23da 6cbd 4609 b53d 2ef3 7ebd
00000160: a596 cc3b 866c 423e 57d4 72bd 1bb3 3d3e
00000170: 6ac5 1a3e 86e4 3d3d fdf6 d93d cd9e 90bd
00000180: 6200 fc3c 4412 79bd c97e e9bb 0ba9 f7bd
00000190: 0bae a1bd 7648 11bd a481 c43d 9196 5ebd
000001a0: befa 423d 6ffe 49bd 118b a73d aa46 d83d
000001b0: f98e ba3c 68a8 04be 576d b2bb cc28 adbd
000001c0: f5cd a4bd 0b16 0cbe fe79 eebc b89a 30be
000001d0: 2123 3c3e 85c1 d13d d890 4a3d b55f a93d
000001e0: b40b 2fbd 0bbd 553d ce8d 883c 811d b53d
000001f0: c02c b13c ed3a 10be bee0 debc 7212 ba3c
00000200: 8dec 3cbd 102a 0abc e58c b73b 9d71 023e
00000210: e51d 4cbd 2662 5bbd 610c f3bd 30f6 a5bc
00000220: 2680 cb3d 1bad 37bb f43f ad3c c1ce a8bc
00000230: e1de d0bd 35af 07be 0bd9 fabd 035d fa3d
00000240: 196b f2bc 0b31 fb3c 052e 9cbd 9d7b c93b
00000250: 1ff7 83bd 156f ba3d 9c2b e3bc 3d6f a3bd
00000260: 876f b33d 1d3d 2d3d c858 9f3d da3f 063e
00000270: 46c7 fd3d 0fc3 aebd b97b 3fbd 42a4 193d
00000280: c080 11bd d972 06bd 9291 a33d f9bb 243e
00000290: aad7 003e 7b57 d73d 4ecc 05bd 112f 86bc
000002a0: 50a9 c1bd 1d47 0bbd 8f2b 7abd 33cb 66bc
000002b0: cc38 0c3e 1ca7 073e f103 163e 20e7 a63d
000002c0: 0631 993d bd6c 123e e347 fe3c 8799 0e3e
000002d0: 2440 e83d 8483 bf3d 34a3 423e 3fac d5bc
000002e0: aded be3d c565 473e 637d 4c3d 28d9 803d
000002f0: ebac 183e cdab 9e3d ecc8 7bba 3924 c53d
0.12022098 0.010790059 -0.103755094 -0.08970556 -0.10658459 0.18080476 0.041325934 0.10730282
0.09482165 -0.10713617 0.07049977 0.04590119 -0.028059933 -0.074692026 0.057699915 0.21045375
-0.10147715 0.21506627 -0.103931054 -0.011497349 0.0692859 -0.07226739 0.06773988 0.17952271
-0.0016652495 0.0811044 0.037242044 0.07854089 0.07832314 0.17563242 -0.006255349 0.016648984
0.13668606 -0.09484178 0.09715751 0.05021087 -0.008939771 0.11323883 0.18582474 -0.081934184
0.22443554 -0.02763603 0.03505647 0.121215045 0.04616551 0.0680408 0.11203489 0.046335533
-0.1338035 -0.010225379 0.13444488 -0.12386974 -0.094407566 -0.06784788 0.14279759 -0.066488296
0.11499565 -0.004879242 -0.012915372 0.12096762 -0.076049134 0.10510083 -0.05500455 0.05614374
-0.1549088 0.088796936 0.004515211 0.15887326 0.1616378 0.084054574 -0.1114584 0.16516674
0.025300452 -0.03681661 0.069409914 0.08080994 -0.13936812 0.07235899 0.09348397 0.09125697
-0.08939761 0.12411846 -0.11737747 -0.114906035 0.10533269 -0.05782522 0.088396594 -0.062243633
0.006243544 0.18986711 -0.059284534 0.18525355 0.1511437 0.046360515 0.106428124 -0.07061539
0.030761901 -0.060808435 -0.0071257097 -0.12092789 -0.07894524 -0.035469495 0.095950395 -0.05434281
0.047602408 -0.049314912 0.08180822 0.10560353 0.022773253 -0.12954867 -0.005445163 -0.08455047
-0.08047096 -0.13680284 -0.029110905 -0.1724652 0.18372776 0.10241989 0.04945454 0.08270208
-0.04273577 0.05218224 0.01666918 0.08843518 0.021627784 -0.14084978 -0.027206775 0.022713874
-0.04612403 -0.00843288 0.0056015127 0.12738653 -0.049833197 -0.0535604 -0.118675955 -0.020258993
0.09936552 -0.0028026763 0.02114866 -0.0206064 -0.10198761 -0.1325043 -0.12248429 0.12224772
-0.029592084 0.030663034 -0.07625965 0.006148769 -0.06443619 0.091032185 -0.027730756 -0.079802014
0.087615065 0.04229461 0.077806056 0.13110295 0.12391524 -0.08533298 -0.04674885 0.037510164
-0.035523176 -0.03282437 0.0798675 0.16087331 0.1258227 0.105147325 -0.032665543 -0.016379865
-0.09456122 -0.034003366 -0.061076697 -0.014086532 0.13693541 0.13247341 0.14649941 0.08149552
0.074800536 0.14299293 0.031040138 0.13925754 0.11340359 0.093512565 0.1900757 -0.02608311
0.09322677 0.19472416 0.049924266 0.06291419 0.14909713 0.07747612 -0.000960483 0.096260495

mlp.0.weight f4 [256, 54]
00000000: 8de1 c6bd c316 8f3d b7e7 b2bd b21f 2dbd
00000010: 4536 b9bb ef20 c93c f4f4 de3b 5516 423c
00000020: 8bb7 98bb d20b ebbd 519e 053c c75e 46bc
00000030: 8661 86bd b804 d53d 9485 983d 0eb9 e23d
00000040: c3e8 0abd b3fe 83ba a5de 8d3d 6104 5a3d
00000050: f077 07be fa2f 613c 17e0 b83c 7fa7 c63b
00000060: 85e8 b33d 4510 23bd abc7 553d daf2 d5bd
00000070: 62a1 cc3c 7af4 003e b2f7 9cbd de06 843d
00000080: 1622 523d 3f61 053e c04b b9bd 16f9 8abd
00000090: 69d2 a0bd 9c65 a3bd a27a d33d 1f32 983c
000000a0: 0f83 563d e18a bfbd b8ab e53c df3f 62bd
000000b0: 4089 5fbd 6e13 5e3b 7dba 9e3d 4f85 ac39
000000c0: d495 eb3d dc21 f2bc 3e74 863d 8a01 c8bd
000000d0: 4d14 4a3d ff33 583b cd9f 9cbc b7c4 1cbb
000000e0: 2e46 9a3d 63b4 093e 3ad9 f8bd ac21 a1bd
000000f0: cf61 fdbd a152 9abc d60d a5bc 3f2a 0a3e
00000100: 0acd 443c 5448 0fbd 0832 d9bd f852 de3d
00000110: e18b 7ebd 899f 0e3d 0df4 c83d a5cf cf3d
00000120: fb40 a7bd e724 e7bd 4150 9c3d 1124 8a3c
00000130: bcee bb3d 9bae c13c 9378 16bd 0896 7dbd
00000140: 2cf1 00be f2fb 03be 3004 cbbc 3929 87bd
00000150: a7de febb 03ff e1bd a31c aabd 87b0 823d
00000160: 9222 fb3c b076 04be 674e e6bd cbe4 cbbc
00000170: bb78 6d3d 95f1 543d 6be4 6c3d c542 e03c
00000180: 253f 24bd 280e 04bc 9e5f ed3d be29 ccbd
00000190: 003c 903d 2094 e8bc 4340 353d 5e72 06be
000001a0: 300b 203d 875d 19bd 4c59 5ebd f635 7e3d
000001b0: 51b2 9e3d a3b2 86bd 3760 533d 3e85 223d
000001c0: 0b0a 963d 42f2 063e de24 9cbd 89dd 963d
000001d0: a043 e2bd 42c6 d13d 4904 533d 03d3 a9bd
000001e0: 734a 41bd df80 b7bd 0d5f 5e3d 991b 24bd
000001f0: ff94 063e ce7e 9f3d 380a 363d da58 c3bd
00000200: 18a5 b63c bcb8 3b3d eb1c 773d f07f b9bd
00000210: 5915 15bd cec1 0dbe 072e bbbd 3a6c 2c3d
00000220: 9901 523d 0232 fdbd b701 563a e07e 31bb
00000230: 1485 02be 8122 57bd f075 b0bd ae55 d2bd
00000240: 0b51 913d 8d3f 5cbd cf19 f03d f28e eb3c
00000250: 42c2 29bb c303 003e 7450 56bd a826 723d
00000260: 4dcb 8c3d 429f f3bc 215c 52bb 4448 4c3d
00000270: 302a 143e eb08 813d 914c a53b 86e3 043d
00000280: 240f 73bd 9293 843d c7da a4bd 90d4 e8bd
00000290: c623 31bd 34f9 90bd fdf8 78bd fef7 e7bd
000002a0: 45ff 30bd ec2b aabd 25c6 203c 67dc 9f3c
000002b0: 7b67 6c3d 0087 95bd 04b2 043e 5145 fcbd
000002c0: 76ac d0bd cdcb 823c e4a9 c33d 9690 ccbc
000002d0: 1399 153d e42b f0bd 5e52 963d a8bc 0b3e
000002e0: c87e fc3a c3d6 de3d 5f28 b0bd 0bee 043e
000002f0: 8b4e 053e 2d62 1ebd 52d8 fe3d 21c0 e13d
00000300: 52e4 52bd 5ae7 b03d ddb6 a43c c4b0 6b3d
00000310: 09b7 d13b 5793 613c 7748 1dbd 320f fabd
00000320: 6406 97bd 0a68 febd ef0d c93d f518 c33d
00000330: 156a b63d 398a 993d fdd6 f5bd e3d1 96bc
00000340: d240 433d 53e5 f13d 00d4 00be 7804 e4bc
00000350: cb22 01bd f51a d73d 2d6d 8fbd 901a b5bb
00000360: b559 b43d 3660 88bd e0db a53d 9fc2 d3bd
00000370: a1da a5bd c49a 70bd e729 c53c 2ce1 933d
00000380: 08c5 783d f5b3 1cbe fb55 f63d 8fce ae3d
00000390: b608 42bd 9822 a53c d16f 07be 3eac cebd
000003a0: 8eaa 4b3d 55bb f6bd 02c2 533d 86cb 193d
000003b0: 46e8 463d d750 2dbd 673f bfbd 30dd c4bd
000003c0: 950f d2bd 1c7b b43d d443 f1bd 6008 b93d
000003d0: 94f3 d23d b8e8 d3bc e7d2 fa3c edfd 603d
000003e0: 9017 5cbd 145e fb3d a01f 8a3b 8ffa edbd
000003f0: 55a6 d8bc 84f1 f33d 0691 f63c daec 903c
-0.09710989 0.06986763 -0.08735602 -0.042266555 -0.0056522214 0.024551837 0.006804103 0.011846145
-0.004660552 -0.11476864 0.008155421 -0.012107558 -0.0656157 0.10401291 0.07447353 0.11070453
-0.033913385 -0.0010070413 0.06927232 0.053226832 -0.13229346 0.013744349 0.022567792 0.0060624476
0.08784584 -0.039810438 0.05219237 -0.10446711 0.024979297 0.1259326 -0.07664432 0.06446622
0.051302038 0.13025378 -0.09047651 -0.067857906 -0.078526326 -0.07978365 0.10326125 0.018578587
0.05237108 -0.09352661 0.028035983 -0.055236693 -0.05457425 0.0033886093 0.077504136 0.0003290572
0.11503187 -0.029557161 0.0656514 -0.097659186 0.049335767 0.0032989976 -0.019119168 -0.0023920962
0.07532917 0.13447718 -0.12150808 -0.078677505 -0.12372171 -0.018838229 -0.020148199 0.13492678
0.012011776 -0.034981087 -0.10605246 0.10855669 -0.062145118 0.034820113 0.09812174 0.10147027
-0.08166691 -0.112863354 0.07632495 0.0168629 0.09176394 0.023642829 -0.036736082 -0.06191066
-0.12592 -0.12889078 -0.02478227 -0.065996595 -0.007778007 -0.11034968 -0.08306243 0.06381326
0.030656133 -0.129359 -0.11245423 -0.02488937 0.057976466 0.051988203 0.057835024 0.027375588
-0.04009928 -0.008060016 0.11590503 -0.09968899 0.07042694 -0.028390944 0.044250738 -0.13129565
0.03907317 -0.03744271 -0.05428438 0.06206318 0.07748855 -0.06577041 0.05160543 0.03967785
0.07326134 0.13178352 -0.07624219 0.07366473 -0.11048055 0.10242893 0.05151776 -0.082922004
-0.04719014 -0.08960127 0.054289866 -0.04006538 0.13142775 0.07787858 0.04444334 -0.095384315
0.02229552 0.045830473 0.060330313 -0.09057605 -0.03639731 -0.13843462 -0.091396384 0.0420954
0.051271055 -0.12363054 0.00081637077 -0.002708368 -0.12746078 -0.05252314 -0.08616245 -0.10270248
0.07095536 -0.053771544 0.117236726 0.028754685 -0.002590314 0.12501435 -0.05232282 0.059118897
0.06874714 -0.029739026 -0.003209837 0.049873605 0.14469218 0.06300529 0.005044528 0.032443546
-0.05934061 0.06473459 -0.08049541 -0.11368668 -0.043247007 -0.07078782 -0.06078433 -0.11326598
-0.043212194 -0.08309159 0.009812866 0.019514276 0.057715874 -0.0730114 0.12958533 -0.123179086
-0.10189144 0.01596632 0.095538884 -0.024971288 0.036522936 -0.117271215 0.07339929 0.13646185
0.0019263858 0.10880806 -0.0860145 0.12981431 0.13018243 -0.038667846 0.124436036 0.11022974
-0.051487274 0.08637877 0.020106727 0.057541624 0.0063999933 0.013768039 -0.038399186 -0.122099295
-0.07374266 -0.124221876 0.09817111 0.095262446 0.08906952 0.07497067 -0.120038964 -0.018410629
0.04766924 0.11811318 -0.12580872 -0.027834162 -0.03152732 0.105031885 -0.070032455 -0.005526848
0.08806173 -0.06658976 0.080985785 -0.103398554 -0.08098341 -0.058741346 0.024067832 0.072206825
0.06073478 -0.15303023 0.12028118 0.08535492 -0.04737159 0.020158097 -0.13226248 -0.10091446
0.0497232 -0.120474495 0.051698692 0.03754761 0.048561357 -0.042313423 -0.09338265 -0.09612501
-0.10256878 0.08812544 -0.11780515 0.090348005 0.10300365 -0.025867805 0.030618144 0.054929662
-0.05373341 0.12273803 0.004215196 -0.11620056 -0.0264465 0.119113 0.03009845 0.017691065

mlp.0.bias f4 [256]
00000000: 377a dd3c ac9c 803d d2f4 b83d 5fd9 4a3d
00000010: 8a5f ffbd a5a9 bd3d 82f2 f1bd baa5 6b3d
00000020: 173e 0d3d 7af4 c4bd 59e9 c13d 2e4b e63d
00000030: 37d4 033e 8cc7 9c3d e973 dfbd 3f9c eebd
00000040: 4744 89bd c022 f6bd ed62 6b3d dde7 c3bd
00000050: 58b0 013e 6fef 0cbe 91b0 51bd f957 aebd
00000060: 4d9c 9abd 2397 18bb 1066 af3d 1aac 823d
00000070: 1c8b 013e 20b0 b2bd 2a3c f73d 97e8 40bb
00000080: dea4 90bc 757a 4dbd 5a65 a73d d4f0 b03d
00000090: b024 183d fa48 c93d a20f 74bd 28ec ed3d
000000a0: 3321 fbbc 5539 b7bd 35c7 10be af87 a2bd
000000b0: 2b89 4a3d 514a 853d d3e3 a5bd 21b3 c23b
000000c0: a41d 843d b588 9d3d 578a e83d 9a59 d03c
000000d0: 5845 37bb 035c 59bd bbdb 503d d403 77bd
000000e0: f824 efbd 7ee2 dbbd bc22 b0bd 0788 02be
000000f0: 0733 edbd 1d81 0dbd 5d81 09ba 1753 a23d
00000100: 5d78 68bd 378c 3dbd 627c 7bbd b27e 9dbd
00000110: bfeb f03b f7de fa3d be62 df3d 92aa 2bbb
00000120: 76aa d9bd 7809 db3b e4ff efbd a081 b7bd
00000130: ab1b 22bd 45bc 023d e462 463d d547 d0bb
00000140: 6d6c 08be 7ab2 08be 37a8 c0bd 648a f03d
00000150: 55bc d63d db8f f93d 09dd 5b3d 937f 4cbd
00000160: 8dc2 5ebd b5d9 863c 3cb4 94bc 4659 80bd
00000170: 903b c33d 731b 07be 1358 cfbd 0900 583d
00000180: 0b93 a13d e134 1fbd 80c8 fcbd e7d8 593d
00000190: 1f4f dd3d e8e4 f23d 1e76 5ebd 0bf9 08be
000001a0: 4646 4fbc 6a68 d0bd 602e 37bb dc24 7b3c
000001b0: c9af 163d 0570 77bd 68a3 b23d a81a b43c
000001c0: 00aa a93d 27b3 08be 9cd1 0abd adde 83bd
000001d0: 322a a53d 39e5 5ebc 9932 20bd f8d3 d23d
000001e0: 5f44 f0bd e0b1 e4bb a36a 943d 675e d9ba
000001f0: 5263 aabd 867a e13b ce7f 413c 3d64 01be
00000200: 7573 c63c 78a1 eabc 36c5 7a3d 1fb4 413b
00000210: f529 8fbd d713 c43d c4d6 763d e6bc f83d
00000220: 63fb e73c e8d5 c53c 5005 633d 0063 8f3c
00000230: 4bad cebd c342 b63d cba8 09bd 3149 ddbd
00000240: 53db f23d 5eb0 12bd 7f50 adbc 8d79 3c3d
00000250: 0f31 733d b3e4 86bd adf8 bcbd 0e94 b8bc
00000260: a667 45bd 0770 08bd bc58 e43d 6c1a a1bd
00000270: 5a0f bdbb ab52 8c3c 11cf 30bd 43dc 66bd
00000280: 7709 6a3d ad36 353d b863 ec3c 7b0e b43d
00000290: e6b4 81bd 4cd6 083d d29d 2abb ee22 15be
000002a0: 8f7d afbd 14f7 c8bc 283e 543d 4155 92bc
000002b0: 881b f3bd d0f6 c73d 3438 d3ba 1301 a93d
000002c0: 8a6a 1abc 66ed 3dbc afc2 7b3d aa92 c639
000002d0: 4342 a6bc feae c23d a764 94bc 9d13 a1bd
000002e0: 3a11 973b bbf5 8fbc 35f2 a13d 2401 0dbe
000002f0: a17c 833d ddd6 063e e037 72bd 0162 7f3d
00000300: a861 88bd 1dfe ab3d 1a05 813d 0df2 0d3e
00000310: 9974 b53c f000 6cbd 18b4 0e3e 6854 133e
00000320: b71a e7bd 52d2 873d e756 a53c 2e36 97bb
00000330: 3b5e 923d 0c25 e23c b504 88bd 589f 05be
00000340: ee82 cbbd 2c0e e33d 887e a43d 0e2f db3d
00000350: 8a84 b9bd c7df c33d ccf2 f43d 0132 7e3d
00000360: da10 df3d defe d23d 2c81 7d3d d663 6a3d
00000370: d5df c43c bbeb 42bd e598 283d 01a9 b7bc
00000380: ce66 113d 9cd8 f3bd f005 03be f4ce 44bd
00000390: 198e 053e 04a5 abbd b4bc ea3d c08a fe3d
000003a0: cd2b 73bc 97e4 03bc 2f3f 01bd 66ca 9b3d
000003b0: e6d6 803a 344c 30bb 9ff8 793d e8fa e6bd
000003c0: 8ad7 58bd 46a7 843c 40b7 e8bc 3354 0abd
000003d0: a4b6 03be c66d 00be 9ca5 9dbb 6058 c3bd
000003e0: e835 ed3c 03db cabd 120b 4f3d 9ab3 45bd
000003f0: e11b cc3d e547 743d 60a9 c33d f128 eebd
0.027035816 0.06279883 0.09031071 0.049523707 -0.124693945 0.09260873 -0.11813833 0.057531096
0.03448304 -0.09616943 0.09468336 0.11244808 0.12873922 0.07655248 -0.1091078 -0.11650895
-0.06702476 -0.12018347 0.05746739 -0.09565709 0.12664926 -0.13763212 -0.051193777 -0.08512873
-0.07549343 -0.0023283444 0.08564389 0.06380482 0.12650722 -0.087249994 0.12072022 -0.002943551
-0.01765674 -0.050165612 0.08173628 0.08639684 0.037144363 0.09828372 -0.05958522 0.11617309
-0.030655479 -0.08946482 -0.14138491 -0.07936036 0.04944722 0.06508315 -0.08100095 0.005941764
0.06450966 0.076920904 0.11354511 0.02543335 -0.0027964916 -0.053066265 0.0509908 -0.060306385
-0.11676973 -0.10736559 -0.08600375 -0.12747203 -0.11581998 -0.03454696 -0.0005245412 0.079260044
-0.056755412 -0.046276297 -0.061397918 -0.07690181 0.007352322 0.122495584 0.109075055 -0.0026194197
-0.10628216 0.0066844784 -0.11718729 -0.08960271 -0.039577167 0.03191783 0.048434153 -0.0063562193
-0.13322611 -0.13349333 -0.094070844 0.11745146 0.1048514 0.121856414 0.053677592 -0.04992635
-0.054384757 0.016461233 -0.018152349 -0.062670276 0.09532845 -0.13194065 -0.10124221 0.05273441
0.07889374 -0.03886879 -0.1234293 0.05318537 0.10806107 0.11860067 -0.054311864 -0.13376252
-0.012651032 -0.101761654 -0.0027951226 0.015328612 0.036788736 -0.060409565 0.087225735 0.021985367
0.08284378 -0.13349591 -0.033891305 -0.064389564 0.08064689 -0.013604456 -0.039110754 0.10294336
-0.11731791 -0.006979212 0.07246902 -0.001658392 -0.08319725 0.006881061 0.011810256 -0.12635894
0.024224976 -0.028641447 0.06122323 0.0029556823 -0.069904245 0.09574097 0.06026341 0.121454045
0.028318113 0.02414985 0.05542499 0.017503262 -0.10091647 0.088994525 -0.03360824 -0.10804976
0.11858239 -0.035812728 -0.021156548 0.046014357 0.059372958 -0.0658659 -0.09227119 -0.022531535
-0.04819455 -0.033309963 0.11149737 -0.07866368 -0.0057696523 0.017129263 -0.043166224 -0.0563624
0.057137933 0.044241596 0.028856143 0.087918244 -0.06333332 0.033407494 -0.002603401 -0.14564106
-0.0856887 -0.024531879 0.05181709 -0.017862918 -0.118704855 0.097638726 -0.0016114772 0.08252158
-0.009424815 -0.011592245 0.06146496 0.00037874776 -0.020295268 0.09506033 -0.018114401 -0.07865069
0.004610208 -0.017573228 0.079075254 -0.13769966 0.064202555 0.13167901 -0.059135318 0.062349323
-0.066592515 0.08398078 0.06299801 0.13861866 0.022150325 -0.05761808 0.13935888 0.14387667
-0.11284392 0.06631912 0.02018304 -0.004614613 0.07146879 0.027605556 -0.06641523 -0.13049066
-0.09937082 0.110866874 0.080319464 0.10702334 -0.09058483 0.095641665 0.11960372 0.062059406
0.10891886 0.10302518 0.061890766 0.057224117 0.024032513 -0.04758809 0.041161437 -0.022419455
0.035498433 -0.11906549 -0.12795234 -0.04804893 0.13042487 -0.083810836 0.114617735 0.12428808
-0.014841986 -0.008050106 -0.031554397 0.07606964 0.000982967 -0.002690089 0.06102812 -0.11278325
-0.05293993 0.016193043 -0.028407693 -0.033771705 -0.1286264 -0.12541875 -0.004811002 -0.095383406
0.028956369 -0.099050544 0.050547667 -0.048266985 0.09966255 0.059638876 0.0955379 -0.11628903

mlp.2.weight f4 [128, 256]
00000000: 19df 6b3d eaf6 1b3d ff77 f63c f735 9bbd
00000010: 0d7b 3ebd 0e6c 6d3d 2376 323d 345d ef3c
00000020: 20e7 4ebc 3b56 3fbd 15fc e43c d6dd ac3c
00000030: 2915 ea3b de0f d53c 113e f4bc 2e46 5b3b
00000040: a6a2 25bd e9a8 073d 0f32 10bd 6f2c d6bc
00000050: 8efa 4b3d 1d33 60bc f719 8a3c 7352 933c
00000060: 3430 61bd 17b5 43bd e6e9 823d 05d0 00bd
00000070: 746e 473d 8f5c 053c c320 8fbc bbbb 4a3d
00000080: 6015 023d 93b3 343c b88e e6bc 44d0 a03b
00000090: cc34 b63c cbc5 44bc 82f4 06bc 366f 8e3d
000000a0: a9a1 02bc 4599 2d3b bcd8 a0bc 2801 77bc
000000b0: a85c 50bd 4bca a83c 3952 593d 0296 95bb
000000c0: 88c0 033d f22a 323d 7187 9b3a 023e de3b
000000d0: 1642 0a3d b1fb 813d 53e1 d53c 3dc1 34bd
000000e0: 96ee 353d 7aea 6e3d 3e73 a33c ea5e 10bd
000000f0: 7eda 9bbc b6f2 043c f327 b3bc a971 a0bc
00000100: 25a3 95ba 05b4 5a3d fb61 efbc 4b9e 23bd
00000110: c225 803d 2399 343c df9b c5bc e4af 12bd
00000120: b7ec df3c 165c 4abc 8fab 16bd 9db5 3ebd
00000130: a733 f3bc 8af5 1b3d 0960 1bbc ec9f a4bc
00000140: 9b57 a83b 857f 343d e87a c4bc 4333 793d
00000150: e1dc 0d3d e97a 81bd cc7c e6bb c94e bc3d
00000160: 743e 18bd 3028 bb3c 63ce f2bc ab55 1ebd
00000170: 9422 e03c 92a5 f23c 3274 61bd 2e08 07bd
00000180: 09f5 3ebc 89b2 88ba a351 02bc 7ad6 163c
00000190: 072e 41bb d367 9b3c 39dc 513d c2fe 9cbb
000001a0: 67ff 0fbd 45e4 863d 4a7d 773d 3792 30bc
000001b0: d38d 6a3d e809 2f3d 5c1f 4f3c 43b2 723d
000001c0: cc7b 823d dedb 003d bdf7 32bd 3961 d33c
000001d0: 5414 833d 1f8e 9dbd d06b 32bd 6212 7abb
000001e0: 1da0 ab3b 8bb5 7cbb d508 d0bc dc1a e83c
000001f0: cb0d 593d 7648 39bb 7512 843c 96c8 5ebd
00000200: e057 4cbb 09a3 8d3c 83ec 153d 5f03 133d
00000210: eae9 8ebc 4af3 0fbd 20ee 303d 0f4a 5f3d
00000220: 4c4c 183c 8332 aa3b fae2 84bc 8a40 733d
00000230: b1e3 74bd 0697 543c 8916 9dbc 9c4d c63b
00000240: fed7 24bd f928 a73c 7f40 5a3d b159 223d
00000250: ae9f 30bd 21cc a3bb 6636 17bd 17bc b1bc
00000260: 899d 08bd e23a 69bd 7a6d 973d 19c0 263d
00000270: cfae 4d39 3063 9e3c 369a c2bc 53bf 243d
00000280: 8730 333d d03c 19bb a8b4 693d 2597 8c3c
00000290: 2188 e1bc d81e 553d fa24 6e3c 459c 043d
000002a0: c218 67bd fa31 983c 22ce 26bb 1c11 73bd
000002b0: d014 613d 68f0 123d 74f8 12bb 6bda da3c
000002c0: 0a57 3f3d 55f1 a5bc 12f1 49ba 5d72 17bd
000002d0: 4fec 6c3d cb96 5c3d 9c29 07bd 31f5 1d3d
000002e0: 0654 4dbd 590a d93c 9eb3 7c3d 836a 45bd
000002f0: eee8 f8bb 3f57 20bd 89e6 343d bab0 8d3a
00000300: 401b bf3c 0525 4c3d c2de 9dbc 0be5 e73c
00000310: 8fc1 613d ac72 0f3c 5ede 21bd 0761 733c
00000320: 4483 323d fe93 053d 2ba1 4f3d 9918 bfbc
00000330: 5710 303d e8d1 fe3c 4f33 9bbd de19 16bd
00000340: ff92 2b3d db2e 793c d413 423d 8a7d 823c
00000350: 856b 5b3c 8bdf 87bd db05 b53c 68d2 45bb
00000360: 49ae 0f3d 66fd f43c 76b4 67bc b072 18bd
00000370: eabb 4dbc 50f9 fcbb cd0c 743b 8908 7b3d
00000380: 51cd c3bc cd06 e93a e6a7 66bd f5f6 233d
00000390: 88ae f93c ab6d 933d 3c20 85bb c332 73bb
000003a0: e041 d43c ba0f 063d 4e6b 2dbd c715 e03c
000003b0: ee26 eebc 4af5 023d 3ba9 1dbc c23b 66bd
000003c0: 73c0 3abd 11d3 eabb 6ec0 103c c6bd 00bd
000003d0: 68c6 22bd 4c21 07bc cea4 ab3c e341 d7bc
000003e0: dbfd da3c ae35 b9bb 1afd 6bbd 82d3 b9ba
000003f0: 7457 1cbd 9b96 0cbd f166 0e3d 0051 553b
0.05758581 0.038077272 0.030086515 -0.07578652 -0.04650407 0.057964377 0.043569695 0.029219247
-0.012628347 -0.046713095 0.027952233 0.021101873 0.007143636 0.026008543 -0.029814752 0.0033458578
-0.040438317 0.03312007 -0.03520399 -0.026144234 0.049799494 -0.013684061 0.016858084 0.01798365
-0.05497761 -0.047780123 0.06392269 -0.031448383 0.04868932 0.0081397435 -0.017471677 0.04949544
0.031758666 0.011029142 -0.028144225 0.0049076397 0.022241972 -0.012010048 -0.008237006 0.069548056
-0.007973113 0.002648906 -0.019634597 -0.015075959 -0.050869614 0.020604273 0.05305693 -0.0045650015
0.032166034 0.043497987 0.0011865926 0.0067822943 0.03375443 0.063468345 0.02610842 -0.0441296
0.044416986 0.058329083 0.019952413 -0.035246767 -0.019025084 0.008114507 -0.021869635 -0.019585447
-0.0011416419 0.053394336 -0.029221525 -0.03994588 0.06257202 0.011022839 -0.024122177 -0.035812274
0.027334554 -0.012351057 -0.036784705 -0.04655992 -0.029687716 0.03807596 -0.009483346 -0.020095788
0.0051373965 0.044066925 -0.023984388 0.060839903 0.034634475 -0.063222714 -0.00703392 0.091947146
-0.037168935 0.022846311 -0.029639428 -0.038655918 0.027360238 0.029619966 -0.055042453 -0.032966785
-0.011655101 -0.0010429184 -0.007954034 0.009206409 -0.0029476897 0.018970406 0.05123541 -0.0047911117
-0.03515568 0.06586508 0.06042222 -0.010777048 0.05726416 0.042734057 0.012641754 0.059252035
0.06371269 0.03145968 -0.043693293 0.025803195 0.06400362 -0.07693123 -0.04355985 -0.003815793
0.005237593 -0.0038560356 -0.025394836 0.02833312 0.05299167 -0.002827195 0.016122082 -0.054390512
-0.0031180307 0.017289655 0.03660251 0.035891887 -0.017445523 -0.035144128 0.043195844 0.054513987
0.009295534 0.0051940097 -0.016221512 0.05938772 -0.059787456 0.01297546 -0.019175785 0.006051732
-0.04024505 0.02040528 0.053284165 0.039636318 -0.043121032 -0.0049986993 -0.036917113 -0.021696134
-0.033353362 -0.05694092 0.07393928 0.040710542 0.00019615445 0.019334406 -0.023755174 0.040221523
0.04374745 -0.0023382194 0.057057053 0.017161915 -0.027530732 0.052031368 0.014535183 0.032375593
-0.056420095 0.018578518 -0.0025452455 -0.05934249 0.05495149 0.0358738 -0.0022425922 0.026715478
0.046713866 -0.020256678 -0.0007703464 -0.0369743 0.05784255 0.053854745 -0.032998666 0.03856391
-0.05012896 0.026494192 0.061694734 -0.04819728 -0.0075961268 -0.039145704 0.044165168 0.0010810115
0.023328424 0.049839992 -0.019271258 0.028307458 0.055116232 0.008755367 -0.039518707 0.014854676
0.043582216 0.03261184 0.05069081 -0.023327159 0.042984333 0.03110595 -0.07578146 -0.036645763
0.041888233 0.015208925 0.04738219 0.015929002 0.013392334 -0.06634434 0.022097519 -0.0030185226
0.03507832 0.029905986 -0.014142146 -0.03721875 -0.012557009 -0.00772015 0.0037239075 0.061287437
-0.023901613 0.0017778516 -0.056312464 0.04003044 0.03047873 0.07198652 -0.0040626805 -0.0037109114
0.025910318 0.03272984 -0.04233866 0.027354134 -0.029071297 0.031972207 -0.009622867 -0.056209333
-0.04559369 -0.0071662744 0.008834941 -0.031430982 -0.039739996 -0.008247685 0.020952608 -0.026276534
0.026732376 -0.005652151 -0.057614423 -0.0014177414 -0.03816934 -0.034323316 0.03476614 0.00325495

mlp.2.bias f4 [128]
00000000: e10f 54bd 74f8 393d 5088 d6bb 9c64 90bc
00000010: 01ba a93b 526c a33c 5838 26bd 187d cebc
00000020: 618f 24bb 4f7e a9bc 5091 3f3d ec23 e0bc
00000030: bd4d d5bc 708f 4cbc 9360 993c 645e 973c
00000040: f0da 9a3c 0d6b 4fbd 812d ff3b 6fbb fa3c
00000050: 18b8 2d3c 1535 3a3d fb19 093d b92e ecbc
00000060: a915 e739 6d14 80bc 983c 5d3c f815 66b9
00000070: 5809 1bbd 674e 713d c4c8 5f3d d3c2 063d
00000080: c582 7dbd a75d 013d fdaf 59bd f567 16bd
00000090: 2adc 6e3c 67de 5b3c 7511 6abd 15ab 7bbd
000000a0: 8c0e e53c da30 0ebd 1250 1cbd 02f1 58bd
000000b0: 0611 47bc 32ab 493b 8974 183d b0b3 793c
000000c0: f825 283d 3fd2 f8bb ffcf c4bc aedf 7fbb
000000d0: b522 963b 65f8 813c 5525 5fbc 26a0 953c
000000e0: bc97 133d 6425 6c3d dd56 5f3d 00c9 443d
000000f0: 658d 1f3c ff09 503d 3650 4d3d 4dde 7e3c
00000100: 3365 abbc 0533 533d f7ef e43b 69db 0cbc
00000110: 7cb1 b23b 3998 26bc 1936 043d 0a16 033c
00000120: 182e 7bbd d912 0bbd 68c3 79bc 9443 21bd
00000130: eead 4dbd c297 f0bc 8d91 11bd d9ac 19bd
00000140: f066 4cbb deeb ac3c 0af5 94bc 541f 9d3c
00000150: 3bd9 353d 78a2 623b bfab 113c ed9a 1d3d
00000160: ea51 923c b044 48bd 7a56 063d 8c5d 51bd
00000170: a093 59bd 752c 543d 7af7 52bd 1ad1 293d
00000180: de76 9f3c c0f6 d33c 9c22 d33c f31a 303d
00000190: 48cc 173d 5397 2d3c a361 463c da14 1e3d
000001a0: 3d3e a93c 1d43 4a3d 7d73 143c 115b f3bc
000001b0: eacb 36bd 5ba1 8abd 19af 50bb a637 233c
000001c0: 5f5d 0fbc 70f6 e3bc 6e2e c43c f644 6abd
000001d0: 58e6 923b 0041 b83c 5b57 cfbc 9f5e 2c3d
000001e0: 20b1 c1bc 9aa9 033c 152c 63bd edec 33bd
000001f0: de6e 62bb da4b 2d3d 7736 803c 3069 0bbd
-0.051772956 0.04540296 -0.0065470114 -0.0176261 0.005179644 0.019949112 -0.040581077 -0.025206134
-0.0025109875 -0.020690111 0.04676944 -0.027360879 -0.026038045 -0.01248537 0.018722808 0.018477626
0.018903226 -0.0506392 0.007787407 0.030606953 0.010602973 0.04546078 0.033472043 -0.028830873
0.00044075891 -0.01563474 0.013503216 -0.00021942693 -0.037850708 0.05891266 0.054634824 0.032900643
-0.06189229 0.031583454 -0.05314635 -0.036720235 0.014578858 0.013419724 -0.057145555 -0.061442453
0.027961038 -0.034714557 -0.0381623 -0.052964218 -0.012150055 0.0030772206 0.03722051 0.015240595
0.041051835 -0.0075934227 -0.024024962 -0.0039043236 0.004581774 0.015865514 -0.0136197405 0.018264841
0.036033377 0.057652846 0.0545262 0.04804325 0.009738301 0.050790783 0.050125323 0.01555593
-0.020922279 0.051562328 0.006986614 -0.008597233 0.0054532867 -0.010168129 0.032278154 0.00800086
-0.061323255 -0.03395352 -0.015244342 -0.03937109 -0.0502147 -0.029369239 -0.0355392 -0.037518356
-0.0031189285 0.021108564 -0.01818325 0.019179977 0.04439662 0.0034581702 0.008891045 0.038477827
0.017861325 -0.04889363 0.032797314 -0.051114604 -0.0531193 0.05180021 -0.051505543 0.04145918
0.01946586 0.025874496 0.025773339 0.04299445 0.037060052 0.010595161 0.012108239 0.038594104
0.02065956 0.04938041 0.009060738 -0.02970651 -0.04462806 -0.06769057 -0.0031842648 0.009961998
-0.008750289 -0.027827471 0.02394792 -0.057194673 0.0044830255 0.022491932 -0.025310209 0.042082425
-0.02364403 0.008036042 -0.05546196 -0.043927122 -0.0034550945 0.042308666 0.01565097 -0.03403586
