weights2/ep_2192.pth (torch, 275655 bytes, 10 tensors)

lstm.weight_ih_l0 f4 [192, 7]
00000000: 8f62 b6bc 0169 eb3d bac6 0f3e 9918 4b3d
00000010: 989f 1d3d 3b46 053e f356 213e 45a4 2b3e
00000020: d914 0bbe 00f5 083e e707 d4bd 35e6 94bd
00000030: 1219 0c3d 0506 253d ae6b 7e3d 3c12 583d
00000040: af64 6bbd 1a22 53bd 9e1e 7cbd 0427 193e
00000050: a87b 373d ee56 3b3e ee25 453d 5abf 083e
00000060: 6fd5 823d 81ab 09be 5663 943d 6630 a6bd
00000070: 9142 a1bd d0af 0f3e 0803 033e ab9e 893c
00000080: 5509 02bd 624e 013e 3dab bebd aa79 873c
00000090: 2585 213c 198b ed3d d40b 053e fe77 cbbc
000000a0: 6eb0 143e ea45 debc fdca c23d d944 aebd
000000b0: 9678 393d 2268 203d 222a 343c 3266 933d
000000c0: c6db fe3d 3dec bebc 4f84 00be 2e72 c9bb
000000d0: 3f68 1fbc 87ea fc3d e717 2f3e 5d47 023e
000000e0: d53b 353c 7567 7f3d 7c96 4ebd 6d9c aa3d
000000f0: 6530 85bd 67c1 273e edc2 64bd 1d75 b5bd
00000100: b8f4 f0bd 69e5 0b3d 0904 0d3d 0b5f c2bd
00000110: b14f dbbd 9552 ec3d da08 c4bd 59e5 e43d
00000120: dd56 23bc 2937 3e3d 46f1 82bb 904e 68bd
00000130: 467a 59bd 7938 f03d 8f54 84bd 3c08 093d
00000140: dbf3 81bd 863f 0d3e 2788 ecbc 40b6 713d
00000150: 4c48 02bc 2f25 05be 85a3 20be 41cd e7bd
00000160: bc33 85bd 3be4 e8bc 4918 f93d 5630 383e
00000170: 7202 bb3d c878 e83b fa31 afbc b9e8 3c3d
00000180: 3999 a3bd dc1f 3e3e dd3c 303d deac 8dbd
00000190: 05ff 983b 3ad6 fabd d7cf 17bd a76d a6bb
000001a0: 9097 fa3d 7133 d13d 0974 463c 8a83 e33d
000001b0: d199 603b a652 093e 0c60 c8bc b62b 1e3e
000001c0: cd2d f93d 73d1 b3bd da06 613d 3a3b cfbd
000001d0: 8736 cd3d c3b8 c03c c0ab a4bd 95c3 eaba
000001e0: a21c c5bd dc69 553b ecf9 a13b cbd9 3b3d
000001f0: 8407 3d3b 97a2 0e3e 3891 b63d 6f78 18be
00000200: d654 2f3c 932c 18be c0ee e3bd c612 e3bd
00000210: f0f7 453c b430 a93d ad48 363c 9fd4 97bc
00000220: 0d96 b3bd 65e5 a43b ebb4 bebb 4fac 8b3d
00000230: c0f6 c33c 012c fcbd 824f d63d 645e cf3d
00000240: 591c acbd 504e 2f3e 8818 0f3e 936d e4bd
00000250: 3805 1a3d ccf6 abbd ffe0 00bc cebd 38bd
00000260: 3a5f 96bd bc2f 003d 5292 dc3d bcf5 c7bd
00000270: 61e8 c0bc 8dfc 4c3d a61f 66bc 59e6 c83c
00000280: 5318 653d 5874 a13c aace e7bd c196 fe3d
00000290: 96c1 bd3d e076 083e 1205 063e 9dbf be3d
000002a0: 71ac e13c f1b0 ba3d 083d d6bc 6e25 edbd
000002b0: 61d1 d7bd a4a3 6b3d 7cac 1d3d fbf3 723d
000002c0: 4d66 dd3d 198c 54bc 129e 3c3c 6f06 f5bc
000002d0: cfa8 d0bc 72cd 29bd 86e9 2c3e 8b65 173e
000002e0: 97ce 073d 1572 7d3a 5bc7 30bd a7eb 24bd
000002f0: 3674 763d 793c cfbd 71ae 05be b857 ab3d
00000300: 61cc 91bc d9d7 163e db47 ef3d b597 fc3d
00000310: 559e ad3b 8912 a03d 9b20 113e 0917 003e
00000320: b787 92bc 73a0 673b 9d9d eb3d 5101 e4bd
00000330: 6392 613d 2fd0 4cba 6ac5 60bc 18c3 1b3d
00000340: 2e88 913b 25c6 d6bb 6605 a1bd 3b57 253c
00000350: b83f 823c d79d 30bd 77f3 babd 4710 9e3d
00000360: c297 3a3e a3d4 3ebd 629d 173d 05e6 9a3d
00000370: 497e 27bd 9a71 4b3c 8eb4 2b3d c4fb 3b3d
00000380: 12f7 75bd 073a c6bd 667f 423c 1b56 fc3d
00000390: 2e86 d53d 86f1 02be e142 5ebd 90b8 85bd
000003a0: 0ced 43bd 6084 d53d edaf f23c cf8a 553d
000003b0: 2fb8 8ebd e389 0b3e 10ce 413d 03b8 e8bd
000003c0: 8ef0 60bd 49ab 4fbd 8efa 02bd dc62 aa3d
000003d0: 70d7 db3c eba0 eb3d 4207 5d3d 21bb 943d
000003e0: 9d9c c0bc 3d1c 923d 63c3 f1bd 98bb d1bd
000003f0: f500 2cbc 2c9e 84bd ef86 063e 7a1b cdbd
-0.022263793 0.11494637 0.14040652 0.049584005 0.03848228 0.13015072 0.15755825 0.16761883
-0.13582171 0.1337471 -0.1035307 -0.07270471 0.034203596 0.040288944 0.06211441 0.052751765
-0.057469066 -0.051546194 -0.061552636 0.1495629 0.044795662 0.1829488 0.048131876 0.13354245
0.063883655 -0.1344433 0.07245509 -0.081147 -0.07874025 0.14031911 0.12794125 0.016799292
-0.03174718 0.12627557 -0.09310005 0.016537506 0.009858404 0.115987964 0.12992793 -0.02483749
0.14520428 -0.027132947 0.09511373 -0.085092254 0.045281015 0.03916181 0.010996373 0.071972266
0.12444262 -0.023306007 -0.12550472 -0.0061476445 -0.009729444 0.1234942 0.17098962 0.12722535
0.011061628 0.062354524 -0.05043648 0.08330617 -0.06503371 0.16382371 -0.05584996 -0.08860228
-0.117654264 0.03415433 0.034427676 -0.09490784 -0.10708559 0.11539189 -0.09572001 0.11176557
-0.00996944 0.046439324 -0.003996047 -0.056715548 -0.053095125 0.11729521 -0.06461441 0.03345512
-0.0634534 0.13793764 -0.028873516 0.059011698 -0.007951807 -0.13002466 -0.15687378 -0.11318446
-0.06504008 -0.028429141 0.12162835 0.17987189 0.09131326 0.0070944764 -0.021386135 0.04612038
-0.07988209 0.18566841 0.043026794 -0.069177374 0.0046690726 -0.12247892 -0.037063446 -0.0050789895
0.122359395 0.1021489 0.012112626 0.111090735 0.003427137 0.13410434 -0.024459861 0.15446362
0.12166939 -0.08780184 0.054938175 -0.101187184 0.10020166 0.023525601 -0.08040571 -0.0017911071
-0.09624602 0.0032564318 0.004943123 0.045862 0.002884359 0.1392921 0.08914417 -0.14889692
0.010701379 -0.14860754 -0.11129522 -0.11087565 0.012083039 0.082612425 0.011125726 -0.018534003
-0.08768854 0.005032229 -0.005819907 0.06819975 0.02392137 -0.123130806 0.10464384 0.101254255
-0.084038444 0.17119718 0.13974202 -0.11153712 0.037602633 -0.08396682 -0.007866143 -0.045102887
-0.07342382 0.031295523 0.10770096 -0.09763667 -0.023548307 0.05004554 -0.0140456315 0.0245239
0.0559314 0.019708797 -0.11318715 0.12431098 0.09265439 0.13326597 0.13087872 0.09313891
0.027548047 0.0911578 -0.026152149 -0.11579405 -0.10537983 0.057529107 0.038494572 0.05931471
0.10810528 -0.012972855 0.011512296 -0.029910294 -0.02547112 -0.041455694 0.16885957 0.1478483
0.033156004 0.00096681836 -0.04315887 -0.040263798 0.06016942 -0.10118956 -0.13054825 0.083663404
-0.01779765 0.14730777 0.11683627 0.12333623 0.0052984157 0.07816035 0.14172594 0.12508787
-0.01788698 0.0035343438 0.11504672 -0.111330636 0.055071246 -0.0007813004 -0.013718942 0.038027853
0.0044412827 -0.0065543824 -0.07862358 0.010091598 0.015899524 -0.043119278 -0.091284685 0.077179484
0.18221954 -0.046589505 0.037015326 0.07563404 -0.04089192 0.012417221 0.041920237 0.0458944
-0.060050078 -0.096790366 0.0118711945 0.12321111 0.10425983 -0.12787446 -0.054263 -0.06529343
-0.047833487 0.10425639 0.029624904 0.05213433 -0.06968724 0.13626818 0.047315657 -0.113632225
-0.05491691 -0.05070046 -0.03197723 0.08319637 0.026836127 0.11505302 0.053962 0.072622545
-0.023512179 0.07134292 -0.11804845 -0.10240859 -0.010498275 -0.064754814 0.1313741 -0.10015006

lstm.weight_hh_l0 f4 [192, 48]
00000000: a378 99bb 7f47 f7bd 9066 89ba 4a9d 0cbe
00000010: b2c5 fbbc d3ef e4bd 82c2 e6bd f1e5 aa3d
00000020: f081 b6bd 7182 b23c 8272 38be dd5d 46be
00000030: 829e 1dbc 9d86 893d 5501 01bd 8749 60bd
00000040: c64b cabb 59d1 2b3e 0f99 403c 26ca 52bd
00000050: 9d88 183e ebe9 5a3d fcb4 c0bd 1f83 c7bd
00000060: 035a 05bd 5209 993d 9115 873d 9387 e33d
00000070: 6d64 1e3c c9bc 58bd 916c 4abd c3e4 f4bb
00000080: ebe5 adbd 9581 1fbe 560d b33d 0fa1 c8bd
00000090: 0e98 2dbd 9d7e cc3d 0b82 98bd 5452 843c
000000a0: 4ddc 893d 0837 c33d 1faf 1a3b 90cc b5bd
000000b0: ed2e 223d 0e1f ad3b 9dce 08be 2f4d d2bd
000000c0: c1c2 cdbd 0386 37bd 7913 b93d 8ddc 293d
000000d0: b4aa ab3d 0d0a 063e fc17 283e d434 e3bd
000000e0: ce50 9e3b edb0 9e3c 9396 3cbe 9d85 2dbe
000000f0: 53d8 b33d e4e0 0c3e b0be 043e f704 e9bd
00000100: 9292 8cbd 70c4 ba3c 4f66 263e 54b9 06bd
00000110: 31d3 1dbd e695 02bc 5a22 55be d8ae 053e
00000120: 6610 213e 0d8e db3d 5953 c53d 64dc 393e
00000130: d4b9 ec3d 1246 9f3d 071a f53d 7eee c63d
00000140: cf6c b1bd 48e3 35be 3826 99bc 2902 713d
00000150: b648 b73d accf 23bd 7c75 0ebd a78a 95bd
00000160: e186 efbd 827e ebbc 1b08 bdbd b321 d23d
00000170: ff23 493d beeb d13d f596 b63d 1073 bfbd
00000180: 0380 a23c d5fd 17be 28ee c8ba 375f debd
00000190: 9c2b 073d 24e9 2b3d 20a9 d43d 1391 243d
000001a0: 37ba 3cbd 45a1 f9bc 5256 b5bd 389e babd
000001b0: c90c ec3c 26d5 823c 66c7 65bd 33cb 02bd
000001c0: 81ec 6c3d c20f 243e 0188 fd3d 541b 93bd
000001d0: 0d17 0dbd 29aa f2bd 66ed cabc 8f94 243e
000001e0: d913 493d 9112 a53c 07bd 29be fad2 1d3d
000001f0: d8e2 40ba 5577 5fbd 198f 89bd bcee e13d
00000200: 2ff2 173d bb04 87bd 6183 cb3d 22f5 d13d
00000210: b304 e73d 984e c4bd d3a1 263e b0ff 5bbd
00000220: ab9f fbbd 0057 953d 94fe 65bd 8c2b 003e
00000230: 74fb 26be cbeb 3d3d 8411 5cbd 6b2a f4bd
00000240: 580e cfbd 13a3 6cbd 4313 dcbd 05e1 93bc
00000250: 8201 7a3b 9ddf 093e 3f4e cbbb 4dbc 90bd
00000260: e9f6 5e3d f63f 0fbb e200 a2ba d367 18bd
00000270: 2597 9a3d e7c4 4d3d 1794 973d dab6 a93d
00000280: 781e 943d 4912 273e d07c 363d f0fd df3c
00000290: 80cd 5fbb 585c e73d e5d4 17be 1cdb 163e
000002a0: 93d3 223e b4cd 82bd cef5 d9bd 1153 d73d
000002b0: 7835 2c3d c7c6 77b9 2d86 64bd e0c4 bc3c
000002c0: 9dfb c6bc ea11 9abd 91a7 febd 1b48 db3d
000002d0: 71b9 d0bc 269f 043d 084d a0bd 4ff9 b43c
000002e0: 53ac 38be 6957 313e 2ec3 00bd b515 113e
000002f0: bc80 9ebd 4ccd ecbd 7262 1abe 6c28 963d
00000300: f0a8 21be 7711 ab3d ab11 aa3d a78f 3abb
00000310: 465e f93d 40e8 0d3e 9e0a 263e 468a 03be
00000320: 5746 efbc aea3 c53d 31bd a13c 16de 1dbd
00000330: 0477 2a3c ac64 303d df24 45bd e38d 3ebd
00000340: 0402 db3c aaac 983d 754d 5ebd d225 89bd
00000350: b850 a93b f5e4 47bc 31e7 0cbe 74f4 98bd
00000360: bc12 84bb 1361 1b3e 8c23 d8bd 8882 a43c
00000370: 75c7 2fbc 8f65 143e 92b9 463e 4e8e bfbd
00000380: 0148 40be d56f 11be be4f 6b3d 2c11 063e
00000390: c74c 1b3e 03f4 e23d 78e0 1b3e 2a4f ac3d
000003a0: bdbc 44bd d396 de3d ad85 c63b c1bb 97bd
000003b0: 37c7 70bd 5148 cb3b 0718 393d 213f 86bc
000003c0: 89a4 10be a5dd c5bc cd25 d4bd 8c6f c4bd
000003d0: 6f14 cc3d c25d 893d 1df6 103e 0741 4b3d
000003e0: dbc1 e83d 1258 373d 81e3 c8bd 6115 33be
000003f0: dff6 a13d f60f 5dbd 1f0b f1bb 5a43 09bd
-0.0046835705 -0.12074184 -0.0010482837 -0.13731876 -0.030733917 -0.11178555 -0.11267568 0.08344639
-0.08911502 0.021790715 -0.18012431 -0.19371744 -0.009620311 0.067151286 -0.03149541 -0.05475762
-0.0061735837 0.16779079 0.011755242 -0.051462315 0.14895864 0.053445738 -0.0940952 -0.09741806
-0.032556545 0.07472481 0.0659591 0.11109843 0.009667498 -0.052914415 -0.049419943 -0.0074735596
-0.08491119 -0.15576775 0.08742778 -0.097963445 -0.04238134 0.09985087 -0.07446679 0.016152538
0.06731472 0.09531981 0.0023602915 -0.08876908 0.039595533 0.005283243 -0.13360067 -0.10268628
-0.10046912 -0.044805538 0.09036917 0.0414701 0.083821684 0.13089772 0.164154 -0.110940605
0.00483141 0.019371474 -0.18416815 -0.169455 0.08781495 0.13757664 0.12963367 -0.113779
-0.068638936 0.022798747 0.16249965 -0.032891586 -0.038531486 -0.007970309 -0.20813885 0.13054979
0.15728912 0.107204534 0.09635038 0.18150479 0.115588814 0.07777037 0.11967855 0.097134575
-0.08663332 -0.17762482 -0.018694982 0.05883995 0.089494154 -0.039992973 -0.03478001 -0.073018365
-0.11695648 -0.028746847 -0.092300616 0.10260334 0.049106594 0.102500424 0.089155115 -0.09348118
0.019836431 -0.14842923 -0.0015329765 -0.108580045 0.033000574 0.041970387 0.103838205 0.040177416
-0.046076026 -0.030472407 -0.08854355 -0.09112209 0.02881469 0.015970778 -0.056098364 -0.031932067
0.057842735 0.16021636 0.12379456 -0.07182947 -0.03444581 -0.11848862 -0.024771404 0.16072296
0.049091194 0.020150455 -0.16576014 0.03853128 -0.0007358021 -0.054557163 -0.06716747 0.11031863
0.0370962 -0.06592699 0.09937168 0.102518335 0.11280193 -0.09585303 0.16272669 -0.05371064
-0.122863136 0.072919846 -0.056150988 0.12516612 -0.16306859 0.046367448 -0.05372764 -0.11922153
-0.10110158 -0.057772707 -0.107458614 -0.018051634 0.0038147871 0.13464208 -0.006204396 -0.070671655
0.05443469 -0.0021858192 -0.0012359882 -0.03720839 0.0754836 0.05023661 0.07401293 0.08286829
0.07232374 0.16315569 0.044552624 0.027342767 -0.0034149587 0.1129691 -0.14827307 0.14732021
0.15901022 -0.06386891 -0.10642587 0.105138905 0.04204318 -0.00023629806 -0.055792022 0.023043096
-0.0242899 -0.07522948 -0.124343045 0.107071124 -0.02547905 0.03237834 -0.078271925 0.022091536
-0.18034486 0.173185 -0.031436138 0.14168437 -0.07739398 -0.11562595 -0.15076616 0.073319286
-0.15787101 0.083529405 0.08304151 -0.002846697 0.12176184 0.13858128 0.16214988 -0.12845716
-0.029208345 0.0965036 0.019743534 -0.038541876 0.010404352 0.04306476 -0.048130866 -0.046522032
0.02673436 0.07454808 -0.054273088 -0.06696667 0.005167093 -0.012200584 -0.13760068 -0.07468501
-0.0040305536 0.1517375 -0.10553655 0.020081773 -0.010728707 0.14491867 0.19406727 -0.09353314
-0.18777467 -0.14202817 0.057449095 0.13092488 0.15166007 0.11081698 0.15222347 0.08413537
-0.048031557 0.10868611 0.006058416 -0.07408858 -0.058783736 0.006203689 0.04518893 -0.016387524
-0.14125265 -0.02415354 -0.103587724 -0.095915884 0.09964835 0.06707336 0.14156385 0.04962256
0.113651 0.044761725 -0.09809018 -0.17488624 0.07908415 -0.0539703 -0.007356062 -0.033511497

lstm.bias_ih_l0 f4 [192]
00000000: 544f 493d f684 36bd 7808 043e 701a aebd
00000010: 09eb 7bbc bbc1 16bc feb0 4fbd dd4c cb3c
00000020: 1b08 adbd 374e 013e 7d9f 203e 0662 493d
00000030: 720f bf3c 955d 5e3d 7f6d 823d 5882 3dbd
00000040: 339d bcbd 118e 2c3e 7c57 913b d038 23bd
00000050: 9e5c 1f3e 7cca 443c de2e a93d adfd ec3d
00000060: 94e2 873d f9e1 f43d e8e6 d7bd e7f4 aa3d
00000070: 31ff c93d 8bf4 9d3d 0e38 77bd 4dbd b13d
00000080: acdc b53d f92c ca3d e996 9ebd 69b9 24bd
00000090: 4c5c 75bc 17e1 85bd 7ea8 9fbd 388b 893d
000000a0: 3f3d 343e ba01 a8bd 3cbd b63d 8c0a dfbc
000000b0: dfd4 6a3c 2c83 aa3b 27b6 023e 5d9f df3d
000000c0: ffef 04be 3c3b 203e 346a 4abd e072 073e
000000d0: f815 643d 7b2e 943d f27f e8bd f93b 13bd
000000e0: b7d4 ebbd 207c ebbd 1b08 c4bd fb24 c2bc
000000f0: d766 943c 5aeb d83d 05a2 f6bb d2e7 e53d
00000100: 0987 833d c451 f03d fd39 7fbb 0c11 3f3d
00000110: 389c 0c3e 6d88 0d3e 6328 203e a4b4 3d3d
00000120: 1f8a 00be 90e7 d03d c1e8 21bd d44c d83d
00000130: a975 1abd e6ff 903d 020c acbd 59bf fa3c
00000140: fa4f fc3d 2d98 bc3c c51e bebd cf9f 6fbd
00000150: b31b a53c 8295 a23c 85de 45bc 4926 83bd
00000160: 6160 5a3d 955a 8d3c c617 63bd 1003 f83c
00000170: 108c e33d 431a 293e c788 80bd 4f90 4cbd
00000180: e493 d1bd d276 5e3d 6004 5f3c bd18 c7bb
00000190: 69d6 0dbd 8044 053d be69 193e 9bc1 843d
000001a0: f065 bc3d fd8a c93d 99cd 253e 4254 0c3e
000001b0: 77c5 9bbd 793d c23d ae45 5ebd cb25 24ba
000001c0: a38c 8cbc 632f ac3b 54f5 033c 7df6 00be
000001d0: f6e9 3d3e 7ac2 963d 8352 253e 6d41 13be
000001e0: 0db6 a73d ef25 903d c7a4 013e 178b 4abd
000001f0: a049 66bc dfc5 aabd 867b 9d3b 4cb8 933c
00000200: 1389 36bd d6a0 bd3d 23b3 463d 1c91 d93d
00000210: e675 2a3c 7b71 f43d 23f9 22be bb10 dcbd
00000220: 6965 ce3d 17a7 1cbe 6cd3 173e 6f9d 6c3d
00000230: e9ba 053e dc6e 15bc 5b72 e3bd 3632 adbd
00000240: 13fb bcbd 47b3 75bd 702c fd3d e40e 1e3e
00000250: ff06 d5bd 372c 783c 3990 c53c 4162 e53d
00000260: 4907 163e 74cf e43d 81a0 86bd e6bd 9bbd
00000270: 730a 883c 264a 093d f01c b83b eda6 6ebc
00000280: 0802 babd 3171 3f3e f37b 31bd 4c49 9dbc
00000290: 614d 1f3e 142c f83d 64b5 b53d 670e f4bc
000002a0: 47cd 5e3d 07a1 3cbd 087c 213e 4c42 84ba
000002b0: c90e fdbc 0abb b03d 3801 bcbd 6b48 a53d
000002c0: fdde 123e ec0d 333d 3f48 be3d 04bd 2dbd
000002d0: 96ae 873d cd55 dbbc e254 543d 01b9 8fbd
000002e0: ea9d 7f3c 7fba 613d a281 a03c aeab b6bd
000002f0: c4cf 6f3d 6236 e23d 8a83 d03d 8b5e b93c
0.04914792 -0.044560395 0.12893856 -0.08501136 -0.015375861 -0.009201462 -0.050705902 0.024816925
-0.084488116 0.12627493 0.1568584 0.049165748 0.023322795 0.054288466 0.06368541 -0.046266884
-0.09209671 0.16851069 0.004435478 -0.039849102 0.15562674 0.012011167 0.08260892 0.11571822
0.06635013 0.11957163 -0.10542089 0.08347493 0.09863127 0.077126585 -0.060356192 0.086786844
0.088799804 0.09871859 -0.077436276 -0.040215883 -0.014975619 -0.06537073 -0.07795809 0.06716007
0.17601489 -0.08203454 0.08922812 -0.027226709 0.014332979 0.005203625 0.12764798 0.10919068
-0.12982176 0.15647596 -0.04941769 0.13227415 0.055685014 0.07235428 -0.11352529 -0.035945866
-0.115151815 -0.11498284 -0.095718585 -0.023699274 0.018115444 0.10591765 -0.0075266385 0.11225857
0.0642224 0.117343456 -0.0038944476 0.046647117 0.13731468 0.13821574 0.15640406 0.04631485
-0.12552689 0.10200417 -0.039528612 0.10561529 -0.037709866 0.07080059 -0.08400728 0.03060882
0.12319942 0.023021782 -0.092832126 -0.058502015 0.02015481 0.019846682 -0.012076979 -0.06403787
0.05331457 0.017255107 -0.055442594 0.030274898 0.11110699 0.16513924 -0.06276088 -0.04994231
-0.10233286 0.054312535 0.013611883 -0.006075947 -0.034628306 0.03253603 0.14981744 0.0648224
0.091991305 0.09840963 0.1619171 0.13704017 -0.07606023 0.09484381 -0.05426567 -0.0006261735
-0.017156905 0.0052546724 0.008054096 -0.12594028 0.1854628 0.07361312 0.16144757 -0.14380427
0.0818902 0.07038485 0.12660514 -0.049449053 -0.0140556395 -0.08338522 0.004805985 0.018032216
-0.044564318 0.09259193 0.04851068 0.106233805 0.010404086 0.11935707 -0.1591535 -0.107453786
0.10077936 -0.15298115 0.14826745 0.057767328 0.13059582 -0.009120669 -0.11105796 -0.084568426
-0.09227576 -0.059985425 0.123619914 0.15435368 -0.10401725 0.01514726 0.024116622 0.11200381
0.14651217 0.11172381 -0.065735824 -0.0760458 0.016606545 0.03351798 0.005618684 -0.014566165
-0.09082419 0.18695523 -0.043331098 -0.01919999 0.15556861 0.12117782 0.08872488 -0.029792024
0.054394986 -0.046052005 0.1576997 -0.0010090559 -0.03089084 0.08629425 -0.0917992 0.08070453
0.14342876 0.04371445 0.092911236 -0.042416587 0.066250965 -0.026774311 0.051838763 -0.070177086
0.0156016145 0.055109497 0.019593064 -0.08919464 0.05854775 0.11045529 0.10181339 0.02262809

lstm.bias_hh_l0 f4 [192]
00000000: 92c8 f03d 8ff7 da3c f40d d3bd 076a a1bd
00000010: fad4 d7bd 6f5f 353e 4cc8 143d 4b8d d13d
00000020: c2c8 ca3d 1068 d1bd 920c 963d de29 273d
00000030: ed5b 04bd 94c1 91bd d12b 703d 2358 4b3e
00000040: 734c dcbd 3f4c 5e3e de3b d9bd feeb 15bc
00000050: b3c2 833d 97fb 94bd b0b9 883d f40a 2d3e
00000060: 47cf 9f3b a392 b83d c69d 1e3d 8878 b03d
00000070: df89 8f3d 2953 303e f8b5 30bc 9749 543c
00000080: cdc5 0e3e 0504 b8bd f58a c63d 1c0c 603d
00000090: 3cd1 93bb 65e5 e13d a788 3f3e eed7 a7bd
000000a0: 3c9f 583e add2 a0bc 8399 073d 8347 f13d
000000b0: dc2e 493d 59da a03d 2ea6 f13d 5129 423d
000000c0: dd96 08be 3ed7 d23b c816 083e 56f6 f2bd
000000d0: 967e c4bd bd9e 66bd bd0b 0d3e 6d67 94bd
000000e0: 0922 f03d 1a39 82ba adac 49bc 1a58 f23d
000000f0: 0a26 a6bd 7e6b ed3d 2c48 4cbd 0c04 853d
00000100: 723a 19be 40f6 b23d 21d8 3d3b f2b5 293e
00000110: 3652 1f3e c15b ab3d 915f dfbd ce21 153e
00000120: 11d2 d63c f2db 22bd 0b49 783d b8dd b43d
00000130: 3e6a 0dbe 94a5 763d 439d b13d c1c7 c13d
00000140: 70a3 b7bd 4f93 033e a01f e8bd cbd7 ecbd
00000150: b373 e73d d16a 7bbd e4d4 b83d 8269 7bbd
00000160: bf68 53bc 0459 403e 09c2 71bd 79f7 323e
00000170: b5c3 203e 6d1b 7d3d a3ac d93d e63f 92bd
00000180: 0500 d73c b91c 81bd f315 06bc 3d4f 04be
00000190: 0588 9abd 2186 d2bc 5f1e ad3d af15 69bd
000001a0: f002 593d 1083 3cbd 2d3f a43d 7070 cd3d
000001b0: 64a8 fc3c 1c65 01be 14f9 79ba 4d02 8fbd
000001c0: e819 a5bd ca2d 09be be06 cebc 52ae 2bbe
000001d0: faf4 313e 81b1 d23d ecce 383d 8e9e b53d
000001e0: e0b1 1bbd 0eaf 6d3d de20 453c 6d71 c23d
000001f0: ed84 b33c 86b8 09be c831 99bc c0f6 8b3c
00000200: af69 43bd 3426 43bc 384c 2d3b 0ff4 033e
00000210: e4ca 39bd 28b3 51bd eca4 e7bd 238a c7bc
00000220: d63c be3d 7e3b f53a 2b00 8f3c a437 77bc
00000230: 52c0 d0bd aece 03be 31cd fbbd 517c f93d
00000240: cb26 cfbc 64cf 073d 1c87 9cbd 6c45 913c
00000250: ac4e 83bd 309b a43d c7c1 05bd 486b a9bd
00000260: 84c2 b13d 4d83 343d ba84 973d 5b0d 0a3e
00000270: 6c83 f83d 7bcc a1bd 8f68 3fbd 596c d73c
00000280: a724 1abd 0440 eebc 7f9d 9e3d 150c 273e
00000290: 075b f43d 7385 c73d 74ce 0abd d4fc e1bc
000002a0: 1697 b5bd 0abd e0bc 676e 71bd 5453 7ebc
000002b0: 783b 083e 1560 013e 7fff 113e f423 9c3d
000002c0: 5e7a 933d 992b 133e f885 e13c 0857 103e
000002d0: 14ea e73d aea0 bc3d e554 423e d715 eabc
000002e0: 8a91 a23d aaa9 493e 084d 413d 68bc 5f3d
000002f0: b6ca 213e 0822 a53d 36f1 0ebb aa3f c63d
0.11757006 0.026729373 -0.10305396 -0.07881551 -0.10538669 0.17712186 0.03632383 0.102320276
0.09901573 -0.102249265 0.07326616 0.040811412 -0.03231423 -0.07117 0.058635537 0.1985784
-0.10756769 0.21708773 -0.10607122 -0.009150503 0.0643362 -0.072745495 0.06676042 0.1689871
0.0048770043 0.09012344 0.038724683 0.086167395 0.07008719 0.17219223 -0.010785572 0.012956998
0.13942643 -0.08985142 0.09694473 0.05469905 -0.0045110267 0.11030082 0.18704472 -0.08195482
0.21154493 -0.019631708 0.033105385 0.11781218 0.049116954 0.078541465 0.117992744 0.047402684
-0.133388 0.0064343503 0.1328994 -0.11863391 -0.09594457 -0.05630373 0.13774009 -0.072462894
0.11725242 -0.000993523 -0.0123092355 0.1183321 -0.08112724 0.11592768 -0.049873516 0.064949125
-0.14963701 0.08738375 0.0028967934 0.16573313 0.15558705 0.0836711 -0.109069 0.14563677
0.026223214 -0.039760537 0.060616534 0.08831352 -0.1381006 0.0602165 0.086725734 0.09461928
-0.0896672 0.12849163 -0.11334157 -0.11564597 0.11301365 -0.061381165 0.09024981 -0.061379917
-0.012903391 0.18783957 -0.059022937 0.17477216 0.15699656 0.061793733 0.10628631 -0.07141094
0.026245127 -0.063043065 -0.008183944 -0.12920852 -0.07545475 -0.025698723 0.084530585 -0.056905445
0.052981317 -0.04602343 0.08019862 0.100312114 0.030842014 -0.12636226 -0.0009535712 -0.06982861
-0.08061582 -0.13396373 -0.0251497 -0.16765717 0.17378607 0.102877624 0.04511921 0.088681325
-0.03801143 0.058028273 0.012031762 0.094942905 0.02191397 -0.13449296 -0.018700495 0.017085433
-0.04770821 -0.011910964 0.0026443135 0.1288607 -0.045359507 -0.051196247 -0.11310753 -0.02435786
0.09288947 0.0018709747 0.017456135 -0.015088949 -0.10192932 -0.12871811 -0.122949965 0.121819146
-0.025287053 0.033156767 -0.076429576 0.017733298 -0.0641149 0.08037412 -0.032655504 -0.082724154
0.08679679 0.04407053 0.073983625 0.13481657 0.12134442 -0.0790033 -0.046730574 0.026296781
-0.03763261 -0.02908326 0.07744884 0.16313203 0.119314246 0.0974225 -0.033888295 -0.027586378
-0.08866708 -0.02743389 -0.05894318 -0.015522797 0.13303936 0.12634309 0.1425762 0.07624045
0.07201074 0.143721 0.027529702 0.140957 0.11323944 0.09210335 0.18977697 -0.028574867
0.079379156 0.19693628 0.047192603 0.054623038 0.15799984 0.080631316 -0.0021811253 0.09680112

mlp.0.weight f4 [256, 54]
00000000: e9aa c6bd 1998 8c3d 9e66 b2bd ddc8 2bbd
00000010: c80f b2bb 4c91 ca3c e0d1 d73b b958 3e3c
00000020: 0a6d bfbb ee97 eabd 208a 093c 8ccf 42bc
00000030: 6ff0 85bd d81d d53d 89f5 983d eb35 e33d
00000040: a1a6 0bbd de94 4fba d4ae 8d3d 7c0e 5b3d
00000050: f897 06be 3c8c 5d3c 0714 b73c 28ce cf3b
00000060: fa57 b43d fe00 22bd b0b1 563d 998e d5bd
00000070: 3b91 ca3c 4a14 013e b165 9dbd 9292 833d
00000080: 73d4 523d 799a 053e 68e3 b8bd ef51 8bbd
00000090: 7c46 a1bd c5fb a2bd e008 d33d 791a 963c
000000a0: 5c74 553d d507 c0bd 39ba e73c 5b57 61bd
000000b0: bcc0 5ebd 8da9 4f3b fa44 9e3d 54d5 1239
000000c0: 72a4 eb3d ac67 f0bc 8af5 853d ed7c c8bd
000000d0: 8ff1 4a3d 9dcc 473b cd9f 9cbc b7c4 1cbb
000000e0: 2e46 9a3d 63b4 093e 3ad9 f8bd ac21 a1bd
000000f0: cf61 fdbd a152 9abc d60d a5bc 3f2a 0a3e
00000100: 0acd 443c 5448 0fbd 0832 d9bd f852 de3d
00000110: e18b 7ebd 899f 0e3d 0df4 c83d a5cf cf3d
00000120: fb40 a7bd e724 e7bd 4150 9c3d 1124 8a3c
00000130: bcee bb3d 9bae c13c 9378 16bd 0896 7dbd
00000140: 2cf1 00be f2fb 03be 3004 cbbc 3929 87bd
00000150: a7de febb 03ff e1bd a31c aabd 87b0 823d
00000160: 9222 fb3c b076 04be 674e e6bd cbe4 cbbc
00000170: bb78 6d3d 95f1 543d 6be4 6c3d c542 e03c
00000180: 253f 24bd 280e 04bc 9e5f ed3d be29 ccbd
00000190: 003c 903d 2094 e8bc 4340 353d 5e72 06be
000001a0: 300b 203d 875d 19bd 4c59 5ebd f635 7e3d
000001b0: 0b40 993d bdf5 8bbd 628d 6d3d 1871 103d
000001c0: 8ffa 903d b06a 043e fc88 9dbd 168c 8e3d
000001d0: 113f dbbd 6f7b d93d 51a1 543d 1880 a7bd
000001e0: a7b7 45bd e3a3 b3bd c5f1 5b3d a787 13bd
000001f0: a92d 033e 79b3 a43d 097f 413d 6af9 bfbd
00000200: bc0d b63c 3b13 2d3d c093 6d3d 1f35 babd
00000210: d065 00bd 0c58 0bbe fa76 c1bd 254f 2e3d
00000220: 20a7 433d 682b f4bd 8811 f23a 713d 0abc
00000230: c62d fdbd 267c 52bd 118c aabd 9c2b d5bd
00000240: c085 863d 6ad1 60bd bf6c e83d 2ea1 e63c
00000250: f6cf 30bb c4f5 f63d 099b 54bd 35e1 733d
00000260: 4a1c 903d e809 f8bc 2c48 d3bb 52e8 3a3d
00000270: 4932 153e 23db 7f3d 5b4c 663b cd05 0c3d
00000280: ca48 5dbd f26e 833d f5d1 a8bd 2022 e6bd
00000290: ba44 39bd 3eb1 8ebd 5daf 83bd 6a2a efbd
000002a0: 0c4a 25bd 791b b3bd 7c78 563c b347 b53c
000002b0: 1f29 603d eafa 9abd ca59 013e 1f2b f6bd
000002c0: 304f d7bd c7c5 703c 1af2 c83d 6b51 c8bc
000002d0: 1926 223d 330e e7bd 18ba 8f3d d967 073e
000002e0: de26 783b 5d3b d83d aa82 b4bd af03 033e
000002f0: 2ae5 013e 8f32 2bbd 93e2 013e d0c7 dd3d
00000300: 7b0e 57bd 4ff6 ac3d f8e1 b63c da57 633d
00000310: 43b9 693b 7d4b 353c 3c81 23bd 454d 00be
00000320: d5a4 91bd 8a44 fbbd bed5 cf3d 4e98 bd3d
00000330: 1083 b73d 9ec9 933d 3c54 fbbd 6e48 77bc
00000340: 9f18 513d 40f0 ec3d a70f fbbd f361 fcbc
00000350: 7272 f5bc 4c5b ce3d aa1f 8abd 4db2 1fbb
00000360: 0c44 ba3d f02c 81bd 6938 a23d b2b8 c3bd
00000370: 9cdc a4bd 729e 6ebd 352e bb3c 5005 9d3d
00000380: bc1d 6f3d f4e5 1ebe 2d31 fb3d 805b b13d
00000390: 5da7 3dbd f7fe 8f3c 248e 05be 8db4 cebd
000003a0: 2911 413d 6eda fdbd 3820 5a3d c517 193d
000003b0: 0171 4f3d 712c 1bbd 8adb c1bd 28a0 c0bd
000003c0: adaa d2bd d2e5 bd3d 0007 eebd 7809 b73d
000003d0: f919 cf3d 26e5 ddbc 5152 003d bce8 733d
000003e0: 73fd 6abd c98d fd3d 0688 ad3b 67d2 e6bd
000003f0: 711c b3bc 5fc3 f73d 5d65 fb3c ba28 743c
-0.09700567 0.06864948 -0.08710979 -0.041939605 -0.00543401 0.024727486 0.0065862983 0.011617833
-0.005841856 -0.114547595 0.008394748 -0.011890303 -0.0654 0.10406083 0.07468707 0.110942684
-0.034094457 -0.0007918606 0.069181114 0.05348061 -0.13143909 0.013522204 0.022348417 0.0063417144
0.08805843 -0.039551727 0.05241555 -0.10427589 0.024727454 0.12605396 -0.07685412 0.064244404
0.05147214 0.13047208 -0.09027749 -0.06802737 -0.07874772 -0.079581775 0.10304427 0.01832317
0.052112922 -0.09376494 0.02828704 -0.05501495 -0.054383025 0.0031686754 0.07728 0.00014003116
0.11505975 -0.02934631 0.065409735 -0.09789453 0.049546774 0.003048695 -0.019119168 -0.0023920962
0.07532917 0.13447718 -0.12150808 -0.078677505 -0.12372171 -0.018838229 -0.020148199 0.13492678
0.012011776 -0.034981087 -0.10605246 0.10855669 -0.062145118 0.034820113 0.09812174 0.10147027
-0.08166691 -0.112863354 0.07632495 0.0168629 0.09176394 0.023642829 -0.036736082 -0.06191066
-0.12592 -0.12889078 -0.02478227 -0.065996595 -0.007778007 -0.11034968 -0.08306243 0.06381326
0.030656133 -0.129359 -0.11245423 -0.02488937 0.057976466 0.051988203 0.057835024 0.027375588
-0.04009928 -0.008060016 0.11590503 -0.09968899 0.07042694 -0.028390944 0.044250738 -0.13129565
0.03907317 -0.03744271 -0.05428438 0.06206318 0.07482918 -0.0683398 0.05799616 0.035264105
0.0707904 0.12931323 -0.07692143 0.06960313 -0.10705388 0.10619246 0.051911656 -0.08178729
-0.048270848 -0.08771493 0.053697366 -0.03601804 0.12810387 0.08042044 0.04724029 -0.09373744
0.022223346 0.042254668 0.058002234 -0.09092163 -0.031347096 -0.13607806 -0.09446521 0.042555947
0.047766805 -0.119223416 0.001846836 -0.0084375 -0.12362246 -0.05138793 -0.08327497 -0.104087085
0.065684795 -0.054887213 0.11348867 0.028153028 -0.0026979423 0.12058595 -0.051905666 0.059540946
0.07036646 -0.030278161 -0.0064478125 0.045631714 0.14569964 0.062464844 0.0035140726 0.03418522
-0.054024495 0.064176455 -0.08243171 -0.112369776 -0.04523156 -0.069674 -0.06429932 -0.11678012
-0.04035382 -0.08745474 0.013090249 0.022128915 0.054726716 -0.07567389 0.12631908 -0.120199434
-0.10513151 0.014695591 0.09811802 -0.024452886 0.039587114 -0.11282005 0.070179164 0.13223208
0.0037864964 0.10558198 -0.08813985 0.12794374 0.12685075 -0.041796263 0.12684087 0.10829127
-0.052504044 0.08445417 0.022324547 0.055503704 0.0035663403 0.011065361 -0.03991817 -0.12529476
-0.07111517 -0.12268932 0.1014819 0.092575654 0.08960545 0.0721619 -0.12271926 -0.015092952
0.05104887 0.115692616 -0.12258845 -0.030808425 -0.029961798 0.10076007 -0.06744321 -0.002436775
0.0909501 -0.06307399 0.07920916 -0.09556712 -0.080498904 -0.058256574 0.022849182 0.07667029
0.058377966 -0.15517408 0.12265239 0.0866003 -0.04630219 0.017577631 -0.13042504 -0.10093031
0.047135506 -0.12395178 0.053253382 0.037376184 0.05064488 -0.03788418 -0.09465702 -0.094055474
-0.1028646 0.0927235 -0.11622429 0.08937353 0.10112376 -0.027086806 0.031328503 0.059548125
-0.057370614 0.12380559 0.0052957563 -0.112706 -0.021864148 0.12097811 0.030687982 0.014902288

mlp.0.bias f4 [256]
00000000: e343 df3c ac9c 803d 56e5 b33d ca73 3c3d
00000010: 7a61 febd a5a9 bd3d 0790 efbd 98b8 6f3d
00000020: 59a1 0a3d e154 bcbd a0be c33d 13c0 e93d
00000030: c9a9 033e 2276 993d 5a75 dbbd 126f f0bd
00000040: 339e 91bd 48e4 f5bd c803 733d cd1e d1bd
00000050: 9239 033e ca3e 0cbe 7700 42bd a480 aabd
00000060: 4d9c 9abd 51dd 17bb d373 b43d 35f8 853d
00000070: ca2c 003e 9a92 b3bd 5782 f23d 68f9 61ba
00000080: 0bf3 9fbc cf95 40bd 1b6b ab3d 9fae b13d
00000090: 1c89 1f3d 8d73 c93d b8fd 6abd 691e ed3d
000000a0: 3dcc 1bbd 7f82 b4bd 01d8 0fbe bac8 9ebd
000000b0: 5b6c 363d 9a3a 893d 1853 a0bd 361a 9d3b
000000c0: 068b 743d 372a a13d 0fdb e73d eea9 d13c
000000d0: cd53 eaba c94e 57bd 2223 513d f00f 65bd
000000e0: 348f ecbd 3b00 ddbd 0729 b0bd fe8e 05be
000000f0: 3d7a edbd 6ac5 03bd 9f93 163b 7f50 a33d
00000100: 1c2e 61bd eb6a 51bd 1729 7fbd 429b 9fbd
00000110: 3534 423b 2d2b fe3d 8e86 e13d 92aa 2bbb
00000120: a83b dabd 0ba7 053c 2f2c f3bd 25fd afbd
00000130: f8bc 1ebd 048b 073d 3101 463d 9fa0 f5bb
00000140: 26bb 07be 0a89 08be 9607 c7bd 4c34 f23d
00000150: 6e0b d83d f662 f13d eaac 493d edf3 5fbd
00000160: 0867 68bd 7ab6 ba3c 0b30 b2bc 4224 78bd
00000170: 55d1 c13d 74bf 06be fba3 d2bd b1d5 333d
00000180: 0b4a 933d 9bc1 26bd e039 fcbd f590 543d
00000190: 2ed0 de3d 6e7e f43d e207 59bd e998 0dbe
000001a0: af38 49bc 7830 d0bd ae42 7abb 4074 8a3c
000001b0: a6ff 103d d000 6ebd 4c60 b13d 0fb0 d13c
000001c0: 1574 a93d 4867 09be 5616 05bd 6a7f 83bd
000001d0: 54ad a23d 63bb f7bb dbe4 17bd 0b02 c83d
000001e0: 3867 fdbd 5d70 00bc cd67 983d bbad 0eba
000001f0: 4136 a9bd 6e3a 97bb 1192 683c 3d64 01be
00000200: d6b9 b53c 137c 06bd d971 7b3d f9a4 823b
00000210: 86e5 8bbd d713 c43d 3bbb 803d 6ee7 f33d
00000220: 507a ea3c 8715 c73c c83a 5d3d c955 9d3c
00000230: 2882 d1bd 26e9 b53d ac34 06bd c554 e4bd
00000240: 3e7f f13d a2bf 02bd 29e0 a2bc c432 3c3d
00000250: 6306 6d3d 0cca 85bd 54f3 bcbd 0e31 c1bc
00000260: 7fe4 3abd 1147 06bd 5b21 cf3d bbac 9dbd
00000270: dff1 a0bb 922b 8d3c 9c98 30bd c4bc 62bd
00000280: 6d0a 6d3d 40dc 2d3d 6c3b eb3c e1d1 b13d
00000290: 48af 81bd d395 0e3d a0a8 d0b9 edb3 13be
000002a0: 8f7d afbd 1613 bfbc bf82 5f3d e35a 8bbc
000002b0: 881b f3bd 84ce c03d f784 00ba b2fc a73d
000002c0: 9b81 23bc 01c1 23bc 97a2 7d3d 67ab 8739
000002d0: 3d06 c0bc 920b c43d 2fd3 86bc c4b9 a2bd
000002e0: e4b3 b33b 10d7 8fbc 3502 a63d 6d6b 0dbe
000002f0: 589c 783d 4395 043e 8ca9 71bd 65ef 813d
00000300: b0c6 90bd 1257 ad3d 2373 7e3d 820a 0e3e
00000310: 8216 be3c 986a 5ebd 4653 083e 5333 133e
00000320: b71a e7bd e1ae 8d3d 2957 ad3c f620 c4bb
00000330: bd1c 983d 8ba8 da3c 479f 93bd df61 05be
00000340: 4a08 c8bd e1c7 de3d a8e6 a83d b10b de3d
00000350: e6ad b6bd dadb c23d 830b f33d 891d 833d
00000360: d638 e13d 2010 d33d 74f7 633d 1169 703d
00000370: 1159 b93c 5781 54bd 1cee 1d3d 53f2 c4bc
00000380: b16a 153d a134 f0bd 0cb8 02be 41b8 40bd
00000390: 1044 fe3d cc7f abbd 62de da3d d75d 003e
000003a0: f89d 76bc 3942 febb a826 f3bc bed1 933d
000003b0: 1496 fcbb 5680 95ba b194 793d e8fa e6bd
000003c0: 6c59 5fbd 34d8 633c 41b4 17bd 4337 25bd
000003d0: a4b6 03be 1145 08be e11b abbb 4cff bfbd
000003e0: 53d8 ef3c ebaf c7bd 48fd 533d 7942 44bd
000003f0: ec1b c33d 80cd 813d 4098 bf3d f128 eebd
0.02725405 0.06279883 0.08783977 0.046008863 -0.12420936 0.09260873 -0.11697393 0.05852565
0.03384528 -0.09195877 0.09557843 0.114135884 0.12857737 0.07493235 -0.107157424 -0.11739935
-0.07110252 -0.12006432 0.059329778 -0.10210953 0.1281493 -0.13695827 -0.047363725 -0.083253175
-0.07549343 -0.0023172686 0.08811154 0.06541482 0.12517086 -0.087681964 0.118412666 -0.0008620233
-0.019525072 -0.04701787 0.08370038 0.086758845 0.038949117 0.09836493 -0.05737087 0.11578066
-0.038036574 -0.08813953 -0.14047243 -0.07753129 0.04453693 0.067006305 -0.07828349 0.0047943844
0.059702896 0.0786938 0.11321079 0.025593724 -0.0017877758 -0.05256537 0.051058896 -0.055923402
-0.11550751 -0.107910596 -0.08601575 -0.13042828 -0.11595581 -0.03217069 0.0022976173 0.07974338
-0.054975614 -0.051127356 -0.062295046 -0.07793285 0.0029633169 0.12410579 0.110119924 -0.0026194197
-0.1065591 0.008157502 -0.11873662 -0.08593205 -0.038754433 0.03309156 0.04834098 -0.007495954
-0.13254985 -0.13333526 -0.09718244 0.11826381 0.10549055 0.117864534 0.04923717 -0.054675985
-0.056738883 0.02279209 -0.021751424 -0.060581453 0.09463755 -0.13158971 -0.10285183 0.043904964
0.07191857 -0.04071198 -0.12315726 0.051896054 0.10879551 0.11938177 -0.052986033 -0.13827862
-0.012281581 -0.10165495 -0.0038186717 0.016901135 0.035400055 -0.058106244 0.08660945 0.025596647
0.08274094 -0.13418305 -0.032492004 -0.06420787 0.07943216 -0.00756018 -0.037083488 0.09766015
-0.12373203 -0.0078392895 0.074416734 -0.0005442758 -0.08262301 -0.0046151197 0.014194981 -0.12635894
0.02218334 -0.03283317 0.06138787 0.0039869514 -0.068308875 0.09574097 0.062857114 0.11909376
0.028622776 0.024302257 0.054011136 0.019205945 -0.102299035 0.0888236 -0.032765076 -0.11148981
0.11791848 -0.031921037 -0.019882279 0.04594685 0.05786742 -0.06532678 -0.09226099 -0.023582961
-0.045628067 -0.032782618 0.10113784 -0.07698961 -0.004911646 0.01723269 -0.04311429 -0.055355802
0.05787127 0.042446375 0.028714858 0.08682609 -0.0633226 0.034810852 -0.00039798487 -0.14424105
-0.0856887 -0.02332453 0.05456805 -0.017011112 -0.118704855 0.0941439 -0.0004902626 0.08202495
-0.009979631 -0.009994746 0.061922636 0.0002587691 -0.023440475 0.09572519 -0.016458122 -0.07945588
0.005484091 -0.017558604 0.0810589 -0.13810511 0.060695976 0.12947564 -0.058999583 0.06344489
-0.07069147 0.08463873 0.06212152 0.13871196 0.023204092 -0.054300874 0.13313016 0.14375047
-0.11284392 0.06918121 0.021159725 -0.0059853746 0.074273564 0.026691696 -0.07208114 -0.13025616
-0.09767206 0.108779676 0.08247119 0.10842074 -0.08919887 0.095145896 0.1186743 0.06402118
0.10997169 0.1030581 0.05565591 0.05869395 0.022625478 -0.05188116 0.038557157 -0.02404133
0.036478702 -0.11728788 -0.12765521 -0.04705072 0.12415326 -0.08373985 0.106869474 0.12535797
-0.015052311 -0.007759359 -0.029681519 0.072177395 -0.0077083204 -0.0011406045 0.06093282 -0.11278325
-0.05452864 0.013906527 -0.037037138 -0.040335905 -0.1286264 -0.13307597 -0.0052218293 -0.09374866
0.029277956 -0.097503506 0.05175522 -0.047914956 0.0952681 0.06338024 0.09355211 -0.11628903

mlp.2.weight f4 [128, 256]
00000000: 4e7c 673d eaf6 1b3d 1f1c 083d 933d 8cbd
00000010: 7548 31bd 0e6c 6d3d 5e8f 2e3d c7a6 ed3c
00000020: 9e89 59bc 364f 3dbd 163b e33c b996 ac3c
00000030: a85d 1a3c 3987 e73c a362 00bd 0027 393b
00000040: 4259 39bd 705d 073d c9c0 10bd 843e 16bd
00000050: e51c 4f3d 1284 69bc f4f0 a53c cd17 963c
00000060: 3430 61bd 33ef 37bd 4c5d 823d 93e9 02bd
00000070: 2140 453d 1a1b 043c 3310 78bc b66a 4b3d
00000080: 0083 083d 7b3e 533c ecf3 e5bc 3661 b93b
00000090: 3ff4 ae3c 9ebf bdbc c895 9dbb 3945 8a3d
000000a0: 8da1 97bc a7d4 f83a a211 a1bc 007b 7abc
000000b0: a3dc 45bd 2eb0 ac3c 1358 5a3d 1e5d 8bbb
000000c0: 90df 003d d237 343d 6ce5 0c3b a357 e93b
000000d0: 7f8e 0b3d b5c8 823d 7f53 d53c fd0c 43bd
000000e0: aa5a 373d 9a98 6e3d 4c98 923c 7b3e 03bd
000000f0: f84f a3bc ae6c 063c e8c2 b9bc 333c a0bc
00000100: 8386 76ba b627 3a3d 1817 e9bc 925c 2abd
00000110: 6ea2 5f3d 9b19 393c 731a c7bc e4af 12bd
00000120: 458c f83c b98b 4abc 923d 17bd 22f9 3abd
00000130: 751d fdbc 75c9 1d3d 4e3f 1bbc f350 b5bc
00000140: 302d b93b 9892 303d 38db c2bc 3611 7b3d
00000150: f639 0a3d b62b 91bd e86c 3abc c60f bd3d
00000160: 2094 22bd fd41 d33c d5b1 d6bc fd85 1bbd
00000170: f90e ce3c 057e f13c e8c6 78bd caec 2ebd
00000180: c0c6 9abc c00b e3bb 8d7f 00bc a167 2f3c
00000190: 4cb0 bcbb e09e a43c 0a12 683d 6965 a2bb
000001a0: 1702 0abd 874f 893d 6c3b 733d b757 35bc
000001b0: ae60 6a3d e099 2f3d fff2 2c3c b896 753d
000001c0: 8b80 813d e3fb 013d 74d4 33bd 1220 c63c
000001d0: ebe3 7b3d e21b a5bd 3d5e 2ebd 9a24 b2bb
000001e0: 005a f73a e324 aebb c525 c8bc efc5 eb3c
000001f0: 634e 5d3d 9110 53bc c198 9f3c 96c8 5ebd
00000200: e5be 1abc 60a1 4b3c 0bf6 163d b5e9 1c3d
00000210: fc7e 8fbc 4af3 0fbd e4e4 273d 0d88 643d
00000220: 88c6 193c 03a6 ac3b 7bd5 91bc b457 743d
00000230: 40f5 6ebd 2aa8 293c c370 a3bc 82fc fa3b
00000240: 5463 16bd 54fc 8a3c 4d76 593d e423 233d
00000250: 94f7 34bd a9ae 9dbb d78e 1cbd b003 b8bc
00000260: 3c92 1ebd 9fb6 66bd 88a9 7c3d a329 2c3d
00000270: 2855 7a39 f06c 823c 6f9b bebc 69b3 223d
00000280: 90d2 333d 009a 54ba 4c27 6b3d 5318 8c3c
00000290: bf57 ddbc 3f7e 553d 51a1 773c 919a 053d
000002a0: c218 67bd cbea 9c3c fda7 a5ba 0b88 67bd
000002b0: d014 613d ff0d 193d c85e 08bb c001 da3c
000002c0: 4c51 403d dced 96bc de26 9038 1235 18bd
000002d0: cb3b 823d ea35 5b3d 3cce 05bd d269 163d
000002e0: 97e9 4abd cc32 d73c e330 7e3d 77c6 57bd
000002f0: 4b2a 9ebc 764a 2abd 67f9 343d 2cf3 a63a
00000300: 32a7 b23c 4ab6 443d d538 9fbc f345 f03c
00000310: 3896 5f3d 7b79 c13b 6358 45bd b5fd 4f3c
00000320: 4483 323d 214f 093d 0e83 513d 08ae c7bc
00000330: beca 343d 69d4 fe3c a99a 8fbd 0789 16bd
00000340: 4bb1 2c3d 2315 833c 8015 473d e623 883c
00000350: 718d 693c eff2 82bd 7a40 4b3c 0755 75bb
00000360: 2fd5 0f3d 1b1d 013d 2cef 07bc acb8 0ebd
00000370: e081 8abc fe7a 83bc a835 bc3b 34ee 7a3d
00000380: 5094 babc 0385 2b3c 5ad5 66bd dd16 223d
00000390: 2a72 0a3d d69f 923d 8da1 51bc e899 bbba
000003a0: f41a dc3c da3b 033d 4059 20bd acd6 c43c
000003b0: f4a0 b8bc 095f 053d 074f 25bc c23b 66bd
000003c0: 442b 41bd 6873 4fbc 80df 52ba 683e fabc
000003d0: 68c6 22bd 8e00 5cbc 0897 a13c 4802 d8bc
000003e0: f153 de3c f0d0 a1bb 1363 6cbd 6470 d2ba
000003f0: ec94 34bd 4862 0fbd c38c 0a3d 0051 553b
0.05651503 0.038077272 0.033229943 -0.06847682 -0.04328199 0.057964377 0.042617194 0.02901019
-0.013277439 -0.04621812 0.027738135 0.021067964 0.009421743 0.028262721 -0.031344067 0.0028252006
-0.04525114 0.033048093 -0.035340104 -0.036680713 0.050564665 -0.014252679 0.020256497 0.018321896
-0.05497761 -0.044905853 0.06365451 -0.031961035 0.04815686 0.008063102 -0.015140581 0.049662314
0.033328056 0.0128933145 -0.028070413 0.0056573404 0.0213567 -0.02316266 -0.004809115 0.067514844
-0.01850965 0.0018984274 -0.019661728 -0.015288115 -0.04830612 0.021080103 0.05330665 -0.004253044
0.031463206 0.043998547 0.002149905 0.007121043 0.03407144 0.06385938 0.02604079 -0.04761981
0.0447642 0.058251 0.017894886 -0.032042008 -0.019935593 0.008204622 -0.022675946 -0.019559955
-0.0009404199 0.045448028 -0.028453395 -0.04159219 0.054598264 0.011297609 -0.024304604 -0.035812274
0.030340323 -0.012362414 -0.036923952 -0.045647748 -0.030897835 0.038522203 -0.009475542 -0.022133326
0.0056511387 0.043108553 -0.023786172 0.06129571 0.033746682 -0.07088415 -0.011378504 0.09231524
-0.039692044 0.025788302 -0.026207844 -0.037969578 0.025153624 0.029479036 -0.060736567 -0.04270629
-0.0188936 -0.006928891 -0.0078429105 0.010705859 -0.005758321 0.020095289 0.05665783 -0.0049559367
-0.0336934 0.06704622 0.05938284 -0.011068276 0.057221107 0.042871356 0.010555982 0.05995819
0.06323346 0.03173436 -0.043903783 0.024185214 0.061496656 -0.08061959 -0.04257034 -0.005436492
0.0018871427 -0.005314456 -0.024432072 0.028780906 0.054029834 -0.012882368 0.019482018 -0.054390512
-0.009444927 0.0124286115 0.03685574 0.038308818 -0.017516606 -0.035144128 0.04098977 0.05579381
0.009385712 0.0052688136 -0.01780199 0.059653953 -0.058339357 0.010355035 -0.01995123 0.007659496
-0.03671582 0.016966023 0.053091336 0.03982915 -0.04418142 -0.004812081 -0.03822216 -0.022462696
-0.03871368 -0.056326505 0.061685115 0.042031895 0.00023873581 0.015921086 -0.023267476 0.03972188
0.04390198 -0.0008110106 0.057410523 0.017101442 -0.02701938 0.05212235 0.015114144 0.03261811
-0.056420095 0.019154927 -0.0012638565 -0.056526225 0.05495149 0.037366863 -0.0020808447 0.026612163
0.04695253 -0.018423967 6.873695e-05 -0.037159987 0.06359061 0.053518213 -0.032667384 0.036722012
-0.049539175 0.026269339 0.06205834 -0.052679505 -0.019307276 -0.041574918 0.04418316 0.0012737266
0.02180824 0.048025407 -0.01943628 0.02933023 0.05458662 0.005904374 -0.048179995 0.012694766
0.043582216 0.03352273 0.051150374 -0.024374977 0.044138663 0.031107144 -0.07011921 -0.036751773
0.042161267 0.01600129 0.04860449 0.01661868 0.014254914 -0.06393992 0.012405509 -0.0037434713
0.035115417 0.031521898 -0.008296769 -0.034844086 -0.016907632 -0.016049858 0.005743701 0.061262324
-0.022775799 0.010468724 -0.05635581 0.039572585 0.03380028 0.071593925 -0.012794864 -0.0014312835
0.026868321 0.0320395 -0.039147615 0.024028145 -0.022537686 0.032561336 -0.010089642 -0.056209333
-0.047160402 -0.012661792 -0.00080441684 -0.030547336 -0.039739996 -0.013427867 0.019725338 -0.026368275
0.027139636 -0.0049382374 -0.057711672 -0.0016055224 -0.044087335 -0.035005838 0.033825647 0.00325495

mlp.2.bias f4 [128]
00000000: 1ff5 51bd b2ec 423d 5088 d6bb aa78 8cbc
00000010: 0508 9f3b 6624 9e3c 5838 26bd 61c4 d3bc
00000020: a348 19bb 418e 9fbc c37d 393d ee63 e6bc
00000030: 4c6f c9bc e6db 3dbc a88b a23c 6c36 943c
00000040: 7fb1 a33c 85d1 51bd 28ae d43b 6fbb fa3c
00000050: 18b8 2d3c c589 3c3d 57fa 033d 387a e9bc
00000060: fbd4 413b c566 88bc 57aa 593c 885b b6ba
00000070: 5809 1bbd 0dc4 713d 81b9 673d 6521 073d
00000080: 979e 82bd 6c3a 023d 627d 53bd cc26 14bd
00000090: fff9 753c 4730 6c3c 8429 66bd aecc 80bd
000000a0: 0369 d53c 5921 08bd 1250 1cbd b7db 5abd
000000b0: aabc 7dbc 7d08 3b3b 9340 1e3d 4264 6f3c
000000c0: b062 303d e098 acbb 8ff4 dfbc 0666 0abb
000000d0: 651f a93b 7603 943c c382 60bc 0126 9d3c
000000e0: 2be0 123d beb1 713d fbed 5c3d 8cd5 403d
000000f0: b4bf 373c 6488 543d 3650 4d3d fc78 903c
00000100: 351a b1bc 6015 4e3d 5026 f13b 7840 36bc
00000110: 3be9 e33b 72ad e1bb 852a 0f3d be87 283c
00000120: 182e 7bbd a56b fabc 68c3 79bc 9443 21bd
00000130: eead 4dbd e8df f4bc 4c85 07bd 7262 18bd
00000140: e543 caba 195e af3c a449 96bc 9f6f a13c
00000150: 16b5 3c3d 23a0 6e3b 6cd2 193c a3c9 1a3d
00000160: d43d 983c b044 48bd 0016 083d 8c5d 51bd
00000170: 40ce 54bd 5fb4 543d 9524 63bd 2f64 283d
00000180: 17ec a73c dfb1 dc3c a760 e93c 780a 313d
00000190: 48cc 173d 4ac7 433c 6ed8 2e3c ac47 163d
000001a0: 113f a43c 9aca 473d e0ab a53b f14b f2bc
000001b0: ccc0 3abd 67d1 8dbd 31ef 27bb 15eb f13b
000001c0: 4880 18bc b349 d1bc ad9c c63c ec2c 69bd
000001d0: 80b0 40ba d40e bd3c 8495 c8bc 2743 333d
000001e0: fd13 d0bc a8ce 0e3c 5e21 64bd ce44 34bd
000001f0: 8cd9 02bb e339 2e3d c27e 7a3c 0f42 0abd
-0.051259156 0.04758901 -0.0065470114 -0.01714738 0.004853251 0.019304466 -0.040581077 -0.025850477
-0.0023389242 -0.019477012 0.04528595 -0.028123822 -0.024589203 -0.011588072 0.019841984 0.018092357
0.019982098 -0.051225204 0.0064904876 0.030606953 0.010602973 0.046029825 0.032221165 -0.028500661
0.002957641 -0.016650567 0.013285241 -0.0013912776 -0.037850708 0.05902486 0.056573395 0.032990832
-0.06377905 0.031793997 -0.051633246 -0.036169812 0.015013217 0.014415807 -0.056191936 -0.062890396
0.02605105 -0.033234928 -0.0381623 -0.053432193 -0.015486876 0.0028538995 0.0386358 0.014611306
0.043062866 -0.0052672476 -0.027338294 -0.002111794 0.005161213 0.018068057 -0.013703051 0.01918316
0.035858314 0.0590074 0.053937893 0.047078654 0.011215139 0.051887885 0.050125323 0.017635815
-0.021618942 0.050313354 0.0073593035 -0.011123769 0.0069552935 -0.0068871314 0.03495266 0.01028627
-0.061323255 -0.030568907 -0.015244342 -0.03937109 -0.0502147 -0.029891923 -0.033086106 -0.03720326
-0.0015431611 0.021407174 -0.018345661 0.019706545 0.046071135 0.0036411367 0.009388547 0.037789952
0.01858417 -0.04889363 0.033224106 -0.051114604 -0.051954508 0.051929828 -0.05545481 0.041111168
0.020498319 0.026940284 0.02848847 0.043222874 0.037060052 0.01194937 0.010671718 0.036689445
0.020049604 0.0487772 0.0050558895 -0.029577227 -0.04559402 -0.06924706 -0.0025624747 0.0073827603
-0.009307928 -0.025547838 0.02424463 -0.056927606 -0.00073505193 0.02307836 -0.024485357 0.043765213
-0.025400156 0.008716263 -0.055695884 -0.04401093 -0.0019966094 0.042535674 0.0152890105 -0.033754405
