weights2/ep_2396.pth (torch, 275655 bytes, 10 tensors)

lstm.weight_ih_l0 f4 [192, 7]
-0.021888081 0.11197118 0.1415885 0.050248586 0.04072474 0.1320375 0.15980075 0.1628634
-0.14145634 0.1325234 -0.10161343 -0.07772211 0.030182004 0.035271253 0.061068002 0.057184163
-0.055541664 -0.051022485 -0.060969956 0.14986572 0.045378342 0.18143149 0.05563982 0.13438965
0.06094291 -0.13654356 0.07086615 -0.0832479 -0.08063883 0.13967252 0.13117647 0.018429976
-0.03248196 0.12563995 -0.09383462 0.020780886 0.008225504 0.11437058 0.13134994 -0.022098055
0.14804794 -0.024393419 0.09666326 -0.08689368 0.04498274 0.03875806 0.011779317 0.072050855
0.12522542 -0.022456154 -0.12046498 -0.0029628254 -0.010908658 0.1253297 0.17273977 0.12906124
0.008871525 0.059721455 -0.048274916 0.083164126 -0.06642792 0.16280292 -0.05724429 -0.092648126
-0.124041945 0.036840204 0.035126746 -0.097129345 -0.11047516 0.11317037 -0.09947854 0.10867113
-0.0074660173 0.04802015 -0.005193436 -0.0596329 -0.054292545 0.11860127 -0.05704749 0.035135984
-0.06522951 0.14031309 -0.027621489 0.06138775 -0.0064128675 -0.12995102 -0.15821809 -0.11475592
-0.06504446 -0.02860035 0.12162394 0.17857951 0.083917156 0.0059880577 -0.018184094 0.04405387
-0.08119256 0.18360204 0.041643694 -0.06701207 0.007871589 -0.12129145 -0.03703289 -0.005313895
0.12239012 0.10889098 0.011853089 0.109250806 0.0015779532 0.13930771 -0.018632269 0.15966709
0.12094925 -0.09176026 0.057653517 -0.104086 0.09964309 0.023124635 -0.080964275 -0.0038796742
-0.09502451 0.0069253803 0.006835424 0.04559749 0.0019310828 0.13902752 0.087810315 -0.15220483
0.013894416 -0.14917286 -0.11086489 -0.11084371 0.012513336 0.07937812 0.0042684576 -0.015774775
-0.08540583 0.0026010545 -0.008316031 0.065768674 0.02481036 -0.12934558 0.1038644 0.10154413
-0.08287589 0.17079413 0.1409043 -0.11437311 0.03333109 -0.0804748 -0.008638766 -0.045252502
-0.075585514 0.031145798 0.10468043 -0.099331975 -0.019948877 0.05062691 -0.013776231 0.022657895
0.05620083 0.020728197 -0.10968246 0.1301752 0.09261217 0.13535143 0.13375047 0.095224395
0.027670223 0.097401075 -0.024197739 -0.11965237 -0.10663092 0.05679757 0.037243485 0.05900569
0.114787124 -0.011553054 0.0047695325 -0.03172448 -0.02659095 -0.043269806 0.16827722 0.15448187
0.036812346 0.00011389573 -0.042959034 -0.04010881 0.060369253 -0.10560939 -0.1340472 0.08668485
-0.017108154 0.14465916 0.113305956 0.12068749 0.005928628 0.07762381 0.14350727 0.12592316
-0.01593218 0.004964855 0.11700157 -0.1117472 0.0618309 0.0018356949 -0.015604327 0.039845113
0.0044067465 -0.0047370414 -0.07617932 0.019064024 0.017200755 -0.047123857 -0.088539034 0.07934574
0.18496512 -0.04501471 0.034013394 0.07438184 -0.041295126 0.013074035 0.042146426 0.046551086
-0.06454129 -0.100863114 0.014422578 0.123765506 0.10234708 -0.13168213 -0.056175828 -0.069818266
-0.053632095 0.10753119 0.03080394 0.04962845 -0.0736979 0.13376248 0.04739429 -0.11240877
-0.05374968 -0.05016813 -0.030178621 0.08443513 0.028634682 0.1140868 0.059402045 0.07545142
-0.025297822 0.07035311 -0.11850384 -0.10339841 -0.013945011 -0.06972356 0.13241781 -0.098997936
00000000: a24e b3bc 2551 e53d 93fc 103e 76d1 4d3d
00000010: fcce 263d d734 073e cfa2 233e aac5 263e
00000020: eed9 10be 37b4 073e b41a d0bd c52c 9fbd
00000030: 4040 f73c 9778 103d 7122 7a3d f139 6a3d
00000040: a87f 63bd f4fc 50bd a2bb 79bd 6676 193e
00000050: a4de 393d 2dc9 393e 94e6 633d 719d 093e
00000060: 469f 793d 13d2 0bbe 4622 913d e07d aabd
00000070: f925 a5bd 5006 0f3e 2053 063e 76fa 963c
00000080: ce0b 05bd c2a7 003e 5e2c c0bd ad3c aa3c
00000090: 44c4 063c 1f3b ea3d 9980 063e fb06 b5bc
000000a0: e199 173e b5d4 c7bc 63f7 c53d 50f5 b1bd
000000b0: d23f 383d c6c0 1e3d 09fe 403c 668f 933d
000000c0: 183b 003e f8f5 b7bc 58b6 f6bd f62b 42bb
000000d0: 3aba 32bc 6e56 003e b2e2 303e a128 043e
000000e0: df59 113c 7c9e 743d ebbb 45bd f451 aa3d
000000f0: 5c0b 88bd cfb5 263e fd78 6abd 4dbe bdbd
00000100: b409 febd c1e5 163d 10e1 0f3d c0eb c6bd
00000110: cd40 e2bd dec5 e73d 68bb cbbd f88e de3d
00000120: 7ea5 f4bb c7b0 443d b32d aabb a141 74bd
00000130: dc61 5ebd 39e5 f23d a1aa 69bd c0ea 0f3d
00000140: 0d97 85bd 3cae 0f3e 7646 e2bc b971 7b3d
00000150: 0823 d2bb e111 05be ec03 22be 2705 ebbd
00000160: 0836 85bd 484b eabc f915 f93d 8cdd 363e
00000170: c2dc ab3d 7837 c43b cff6 94bc d571 343d
00000180: 4948 a6bd 2c02 3c3e 9492 2a3d a03d 89bd
00000190: d6f7 003c a767 f8bd cdaf 17bd 2f20 aebb
000001a0: aca7 fa3d 3c02 df3d 7533 423c e3be df3d
000001b0: 53d3 ce3a aea6 0e3e b3a2 98bc c57f 233e
000001c0: 3eb4 f73d ceec bbbd 1826 6c3d 0a2b d5bd
000001d0: ad11 cc3d e06f bd3c 99d0 a5bd 2242 7ebb
000001e0: 369c c2bd 4dee e23b b1fb df3b 6fc4 3a3d
000001f0: 631c fd3a 3b5d 0e3e e5d5 b33d 95db 1bbe
00000200: 68a5 633c c5c0 18be 220d e3bd 0702 e3bd
00000210: bc04 4d3c ff90 a23d 6bde 8b3b 1a3a 81bc
00000220: 40e9 aebd 7476 2a3b f63f 08bc bab1 863d
00000230: 193f cb3c 2b73 04be dcb6 d43d 5ef6 cf3d
00000240: d6ba a9bd a8e4 2e3e 3849 103e 733c eabd
00000250: 2e86 083d f9cf a4bd 9c89 0dbc b05a 39bd
00000260: 94cc 9abd 7925 ff3c b162 d63d 906e cbbd
00000270: d46b a3bc 2a5e 4f3d b3b5 61bc 0d9d b93c
00000280: d732 663d 2ece a93c 33a1 e0bd a64c 053e
00000290: 73ab bd3d 9199 0a3e e2f5 083e 0205 c33d
000002a0: aaac e23c 377a c73d 563a c6bc 4d0c f5bd
000002b0: 5061 dabd 92a4 683d a08c 183d f3af 713d
000002c0: 8315 eb3d 0549 3dbc bd49 9c3b 87f1 01bd
000002d0: 44d5 d9bc ae3b 31bd dd50 2c3e 7f30 1e3e
000002e0: 8bc8 163d 4edb ee38 d0f5 2fbd 2349 24bd
000002f0: c045 773d bc49 d8bd ab43 09be d487 b13d
00000300: 6626 8cbc 8821 143e f40c e83d 012b f73d
00000310: f044 c23b 3bf9 9e3d 92f3 123e 00f2 003e
00000320: 3484 82bc 39b0 a23b 859e ef3d b7db e4bd
00000330: 6642 7d3d b39b f03a 4ba9 7fbc a134 233d
00000340: 7866 903b 2f39 9bbb e703 9cbd 282c 9c3c
00000350: 99e8 8c3c f204 41bd f453 b5bd 0580 a23d
00000360: 7f67 3d3e 5861 38bd a151 0b3d 8255 983d
00000370: 1425 29bd 7a34 563c bba1 2c3d 5aac 3e3d
00000380: 392e 84bd 5291 cebd ad4c 6c3c c578 fd3d
00000390: 599b d13d aed7 06be a018 66bd e1fc 8ebd
000003a0: 54ad 5bbd 5039 dc3d 8b58 fc3c 3447 4b3d
000003b0: edee 96bd 08f9 083e 8420 423d 9236 e6bd
000003c0: a028 5cbd 197d 4dbd 2839 f7bc 53ec ac3d
000003d0: 4893 ea3c 57a6 e93d 8f4f 733d 4686 9a3d
000003e0: 613d cfbc 4b15 903d 24b2 f2bd 8cc2 d3bd
000003f0: 9e79 64bc 3acb 8ebd 8998 073e 6ebf cabd

lstm.weight_hh_l0 f4 [192, 48]
-0.0076581966 -0.12204967 -0.0032158322 -0.13760816 -0.028055606 -0.10916701 -0.10993781 0.08013407
-0.085651495 0.024065558 -0.18293701 -0.19260933 -0.013364603 0.06399507 -0.028613746 -0.05529442
-0.008475943 0.1699077 0.01571511 -0.05022086 0.15128648 0.05670915 -0.09684882 -0.091825314
-0.0332366 0.07394785 0.06196348 0.113930166 0.012578188 -0.049140826 -0.049702816 -0.0044288747
-0.08786317 -0.15698357 0.0843877 -0.09621076 -0.043355606 0.103149995 -0.07093639 0.013030532
0.061271437 0.09583746 0.0016182176 -0.08553484 0.037902083 0.0047032847 -0.1352428 -0.10533484
-0.09634591 -0.0437696 0.094297126 0.043145888 0.081138015 0.12782253 0.16040657 -0.108941816
0.001759629 0.017792197 -0.18283403 -0.16788664 0.09305953 0.13999076 0.12632516 -0.112970166
-0.06552635 0.021589085 0.1593929 -0.030739103 -0.042268347 -0.012243606 -0.206608 0.12768315
0.15658998 0.10683407 0.0986474 0.179564 0.11188509 0.075706996 0.11888288 0.09376976
-0.08292155 -0.17727791 -0.015220122 0.056256447 0.09174225 -0.043917377 -0.03745851 -0.0700441
-0.11504314 -0.027326878 -0.089963466 0.09779963 0.04973204 0.10520649 0.092630975 -0.09073684
0.019089533 -0.14585388 -0.0025462345 -0.110023126 0.033194855 0.04205909 0.1041945 0.037460506
-0.045284256 -0.031726077 -0.08878436 -0.09300056 0.027340172 0.012824813 -0.05556956 -0.027524674
0.058587298 0.15913525 0.12447741 -0.07406994 -0.03420834 -0.11770998 -0.02434523 0.16479719
0.048878644 0.021458741 -0.16893281 0.037881125 0.00028737547 -0.04965089 -0.06495861 0.11093741
0.03712491 -0.063940786 0.09890837 0.103130236 0.109648675 -0.09528852 0.16420195 -0.054449048
-0.12770787 0.07543967 -0.056656472 0.12595508 -0.1613601 0.049572095 -0.054686487 -0.11893479
-0.09814253 -0.04954891 -0.1061605 -0.020511292 -0.0003275854 0.13034406 -0.009248357 -0.0722605
0.050812624 -0.010824471 0.0048246547 -0.043718196 0.07733382 0.04574699 0.07107597 0.0929143
0.07808782 0.1576352 0.037553616 0.020379903 -0.006390278 0.109886095 -0.141548 0.14527738
0.16392663 -0.0592885 -0.10757024 0.098207235 0.04036977 0.0033564905 -0.04914685 0.020020392
-0.01866692 -0.06824635 -0.12036708 0.10655641 -0.031462304 0.028030414 -0.08295292 0.025110679
-0.17881426 0.1787594 -0.029207857 0.13795187 -0.07030362 -0.1065332 -0.15177135 0.078668304
-0.1576243 0.08472608 0.08331028 -0.0034874042 0.12154324 0.13811101 0.16166419 -0.13120808
-0.028598823 0.096174434 0.0199393 -0.036333755 0.009692393 0.0393012 -0.048552535 -0.044491887
0.027496992 0.074045874 -0.052974697 -0.068170965 0.004683998 -0.01182025 -0.13743898 -0.069592215
-0.00583714 0.15167075 -0.10875328 0.019909808 -0.010990049 0.14901568 0.19413278 -0.093426
-0.1875569 -0.1408188 0.057661925 0.13052824 0.14937629 0.11095695 0.15316154 0.08369809
-0.052930966 0.11053982 0.0068939896 -0.073757894 -0.05781364 0.008234021 0.045982912 -0.015911883
-0.14327314 -0.022167476 -0.105440244 -0.097735666 0.10036222 0.068200715 0.14343224 0.046700917
0.116073176 0.043409716 -0.09742269 -0.17391941 0.07638115 -0.057493657 -0.0056724446 -0.03208474
00000000: 9cf1 fabb 2df5 f9bd b6c0 52bb 27e9 0cbe
00000010: dfd4 e5bc f492 dfbd 1327 e1bd 551d a43d
00000020: 0d6a afbd 2225 c53c d753 3bbe 613b 45be
00000030: 35f7 5abc d90f 833d 6067 eabc 677c 62bd
00000040: aede 0abc 49fc 2d3e f9bc 803c 63b4 4dbd
00000050: d8ea 1a3e db47 683d ad58 c6bd e90e bcbd
00000060: 1a23 08bd f871 973d 6bcd 7d3d 3854 e93d
00000070: bf14 4e3c e447 49bd 2e95 4bbd 1820 91bb
00000080: 9bf1 b3bd 4dc0 20be 75d3 ac3d 260a c5bd
00000090: a695 31bd 4e40 d33d 1947 91bd 037e 553c
000000a0: c2f7 7a3d 6e46 c43d 5f1a d43a e42c afbd
000000b0: 373f 1b3d 031e 9a3b 177d 0abe cbb9 d7bd
000000c0: 0151 c5bd c147 33bd da1e c13d beb9 303d
000000d0: b02b a63d e9e3 023e 9f41 243e e31c dfbd
000000e0: 5aa3 e63a f1c0 913c d838 3bbe 7aea 2bbe
000000f0: ff95 be3d bd59 0f3e 625b 013e e75c e7bd
00000100: ae32 86bd 98db b03c e437 233e 92d0 fbbc
00000110: 9321 2dbd 6899 48bc 0c91 53be 5fbf 023e
00000120: 2059 203e d2cb da3d a607 ca3d a0df 373e
00000130: 0324 e53d 450c 9b3d de78 f33d 5c0a c03d
00000140: c6d2 a9bd 5788 35be d25d 79bc 296d 663d
00000150: 5ce3 bb3d b5e2 33bd 186e 19bd 4873 8fbd
00000160: bd9b ebbd 9edc dfbc c43e b8bd 2c4b c83d
00000170: d3b3 4b3d 8076 d73d 4fb5 bd3d 3dd4 b9bd
00000180: a761 9c3c b85a 15be bade 26bb ce53 e1bd
00000190: 54f7 073d 2746 2c3d ed63 d53d 3070 193d
000001a0: fc7b 39bd 34f3 01bd 93d4 b5bd 1477 bebd
000001b0: 7ff8 df3c 2a1f 523c e89c 63bd 6d7b e1bc
000001c0: 3cf9 6f3d 5af4 223e 03ee fe3d fbb1 97bd
000001d0: 0b1e 0cbd ee11 f1bd a66f c7bc 98c0 283e
000001e0: f934 483d 3eca af3c b9fc 2cbe 3d29 1b3d
000001f0: e2aa 9639 bb5e 4bbd 0509 85bd 2733 e33d
00000200: 4a10 183d 63f3 82bd 7990 ca3d f235 d33d
00000210: 7c8f e03d a126 c3bd 8e24 283e f705 5fbd
00000220: dac5 02be 1d80 9a3d 9e10 68bd 5efa 003e
00000230: 953b 25be 1c0c 4b3d f0fe 5fbd 1594 f3bd
00000240: f3fe c8bd ccf3 4abd ad6a d9bd 4c07 a8bc
00000250: c5bf abb9 ea78 053e 6c86 17bc 50fd 93bd
00000260: e620 503d 1f59 31bc 2318 9e3b da11 33bd
00000270: 3261 9e3d 3261 3b3d 4790 913d da49 be3d
00000280: 82ec 9f3d 1f6b 213e d2d1 193d c1f3 a63c
00000290: 8a65 d1bb f60b e13d f5f1 10be 98c3 143e
000002a0: 62dc 273e 80d8 72bd c94d dcbd e020 c93d
000002b0: c65a 253d 91f8 5b3b 354e 49bd ce01 a43c
000002c0: 5eeb 98bc bec4 8bbd 0483 f6bd 3f3a da3d
000002d0: 9ede 00bd 0aa0 e53c 38e3 a9bd e9b4 cd3c
000002e0: 161b 37be b40c 373e 5145 efbc 4143 0d3e
000002f0: 58fb 8fbd 142e dabd f369 1bbe d91c a13d
00000300: 4468 21be de84 ad3d 959e aa3d ef8c 64bb
00000310: aaeb f83d f96c 0d3e 4c8b 253e 695b 06be
00000320: 1448 eabc 1af7 c43d be57 a33c b4d2 14bd
00000330: d8cc 1e3c 4cfa 203d 06df 46bd 203d 36bd
00000340: 5f41 e13c 5da5 973d fffb 58bd 389d 8bbd
00000350: 397c 993b b9a9 41bc cebc 0cbe 5d86 8ebd
00000360: 7b45 bfbb 944f 1b3e 0aba debd e519 a33c
00000370: 9b0f 34bc 9197 183e beca 463e 2156 bfbd
00000380: ea0e 40be ce32 10be e92e 6c3d 32a9 053e
00000390: 19f6 183e 663d e33d 61d6 1c3e e769 ab3d
000003a0: 24ce 58bd b362 e23d fae6 e13b 610e 97bd
000003b0: ffcd 6cbd fde7 063c 9458 3c3d a359 82bc
000003c0: 32b6 12be 9198 b5bc 0ef1 d7bd a329 c8bd
000003d0: b58a cd3d d1ac 8b3d e7df 123e 7649 3f3d
000003e0: c6b7 ed3d 63ce 313d 8c85 c7bd ee17 32be
000003f0: b86d 9c3d 787e 6bbd eadf b9bb 4a6b 03bd

lstm.bias_ih_l0 f4 [192]
0.051390417 -0.049578093 0.1295214 -0.087112255 -0.016110543 -0.0064618806 -0.04992284 0.026652522
-0.085882306 0.12405345 0.15566124 0.05154181 0.023318302 0.052221954 0.06371616 -0.041063007
-0.09265529 0.1682461 0.0048657283 -0.04228036 0.156789 0.01186147 0.08287831 0.11780373
0.06509901 0.11775741 -0.105221294 0.08082616 0.10058613 0.078943975 -0.057610247 0.08744396
0.08688705 0.096212566 -0.07563763 -0.04120523 -0.018055884 -0.063608915 -0.078112096 0.06734537
0.18027261 -0.08369572 0.08978792 -0.025380962 0.012346454 0.0019697575 0.12646532 0.10926941
-0.12838072 0.15147404 -0.04849099 0.13184598 0.055799853 0.06993906 -0.113075644 -0.03376936
-0.1158908 -0.11658287 -0.09646056 -0.021297736 0.018036952 0.10166795 -0.009205788 0.10987674
0.06187759 0.11805335 -0.0037743174 0.04367642 0.13881579 0.13819253 0.15607053 0.050225835
-0.12563156 0.103986405 -0.036043704 0.10362552 -0.037735894 0.07522844 -0.080045044 0.029984508
0.12261516 0.020595582 -0.09199288 -0.058044214 0.01705479 0.022098448 -0.012076314 -0.06357244
0.059523623 0.018892283 -0.05538738 0.03450475 0.10849229 0.16161814 -0.062417258 -0.04908772
-0.10295847 0.054945275 0.012897354 -0.004129333 -0.034863565 0.030712811 0.15250911 0.06624156
0.09117694 0.09790563 0.16235216 0.1384463 -0.077740416 0.09356696 -0.054719035 -0.0050256858
-0.016583776 0.0053175245 0.0069571706 -0.12759116 0.18800361 0.073337264 0.16163169 -0.14591916
0.08082052 0.06845489 0.12844989 -0.050004426 -0.014362706 -0.08535122 0.0024162575 0.019531593
-0.043930594 0.09359361 0.047486447 0.10462221 0.00870844 0.12036273 -0.15958203 -0.10642472
0.102227785 -0.15425247 0.14873789 0.057653766 0.13114847 -0.0104619255 -0.10983572 -0.08503344
-0.09197707 -0.061734375 0.12384231 0.15224196 -0.10435619 0.01996745 0.024800241 0.11343107
0.14549462 0.110188715 -0.065371245 -0.076518886 0.016428987 0.031036738 0.005275077 -0.00888139
-0.09177399 0.18608181 -0.04279856 -0.02130005 0.1573011 0.12255057 0.08808235 -0.026809175
0.05303989 -0.047167107 0.15830249 -0.0014872998 -0.030226653 0.088570125 -0.089682296 0.08153194
0.14290123 0.04235628 0.0945736 -0.042658985 0.064611256 -0.026269125 0.051473405 -0.06908895
0.02038392 0.0549138 0.019538425 -0.087152824 0.0550359 0.108973436 0.103230655 0.022495506
00000000: c27e 523d 6612 4bbd 42a1 043e e967 b2bd
00000010: 42fa 83bc 2fbe d3bb e47b 4cbd 6456 da3c
00000020: 10e3 afbd bc0f fe3d a965 1f3e 811d 533d
00000030: 0606 bf3c b0e6 553d 9e7d 823d af31 28bd
00000040: 0fc2 bdbd b548 2c3e b070 9f3b 2c2e 2dbd
00000050: 4c8d 203e 9c56 423c 1abc a93d 1543 f13d
00000060: a152 853d cc2a f13d 437e d7bd 3088 a53d
00000070: 1a00 ce3d 61ad a13d b9f8 6bbd d215 b33d
00000080: d6f1 b13d 180b c53d e7e7 9abd d1c6 28bd
00000090: efe9 93bc 6445 82bd 3cf9 9fbd 5fec 893d
000000a0: 6299 383e a968 abbd bbe2 b73d bceb cfbc
000000b0: c848 4a3c 0c17 013b 2080 013e a4c8 df3d
000000c0: 3c76 03be 031c 1b3e 7d9e 46bd a202 073e
000000d0: 638e 643d 363c 8f3d 3494 e7bd be51 0abd
000000e0: 2858 edbd 00c3 eebd 1d8d c5bd 9778 aebc
000000f0: 3bc2 933c 4937 d03d e0d3 16bc 0e07 e13d
00000100: 5b73 7d3d f4c5 f13d 8a5a 77bb 0ce6 323d
00000110: ba25 0e3e 5882 0d3e f4d0 1f3e 9bb9 4d3d
00000120: 8fa5 00be d3f6 d43d 90a2 13bd 9e39 d43d
00000130: f490 1abd 5e11 9a3d a8ee a3bd 12a2 f53c
00000140: a81d fb3d 11b8 a83c c366 bcbd c5bf 6dbd
00000150: 7db6 8b3c ce07 b53c bbdb 45bc 4432 82bd
00000160: 0bcf 733d fdc3 9a3c e1dd 62bd da54 0d3d
00000170: 3531 de3d 3a7f 253e 3da9 7fbd 3510 49bd
00000180: e4db d2bd 4c0e 613d 6c4f 533c 5b4f 87bb
00000190: 19cd 0ebd 6f99 fb3c 592b 1c3e a8a9 873d
000001a0: faba ba3d bf82 c83d a53f 263e dec4 0d3e
000001b0: 5e36 9fbd 09a0 bf3d 1121 60bd 82ae a4bb
000001c0: b3da 87bc a13e ae3b faf8 e33b 42a7 02be
000001d0: 0584 403e d931 963d c782 253e d56b 15be
000001e0: 3b85 a53d 1432 8c3d 5e88 033e 71d1 4cbd
000001f0: 8e51 6bbc 9fcc aebd 135a 1e3b b800 a03c
00000200: 91f0 33bd 02ae bf3d 2681 423d 2b44 d63d
00000210: d8ad 0e3c bc80 f63d 7969 23be 34f5 d9bd
00000220: cd5c d13d 5cf4 1dbe bf4e 183e 5b26 6c3d
00000230: c94b 063e 7f68 2bbc 8df1 e0bd 0326 aebd
00000240: 795e bcbd 2fdd 7cbd 09a1 fd3d 51e5 1b3e
00000250: b3b8 d5bd c792 a33c e029 cb3c 8d4e e83d
00000260: 8bfc 143e 9faa e13d 5ce1 85bd efb5 9cbd
00000270: 1596 863c c240 fe3c 8eda ac3b 4083 11bc
00000280: 00f4 bbbd 3b8c 3e3e 8b4d 2fbd 717d aebc
00000290: 8a13 213e cbfb fa3d 8564 b43d ea9e dbbc
000002a0: 5b40 593d 4c32 41bd 0c1a 223e 80f1 c2ba
000002b0: e39d f7bc 4164 b53d 5aab b7bd 38fa a63d
000002c0: b354 123e c77d 2d3d ceaf c13d 30bb 2ebd
000002d0: e852 843d 5932 d7bc c7d5 523d 827e 8dbd
000002e0: 2efc a63c 4bed 603d 0c0f a03c 2e7d b2bd
000002f0: 536d 613d 772d df3d 986a d33d 7f48 b83c

lstm.bias_hh_l0 f4 [192]
0.119812645 0.021711748 -0.102471314 -0.080916405 -0.106121264 0.17986177 0.037106894 0.1041558
0.09762154 -0.104470775 0.07206868 0.043187473 -0.032318883 -0.07323659 0.05866603 0.20378184
-0.108126275 0.21682315 -0.105640896 -0.011581705 0.06549879 -0.07289525 0.0670298 0.1710726
0.0036258611 0.08830921 0.038924504 0.08351864 0.07204205 0.17400908 -0.008039818 0.013613816
0.13751385 -0.09235744 0.09874337 0.0537097 -0.007591326 0.11206263 0.18689084 -0.08176952
0.21580265 -0.02129258 0.033664968 0.119658105 0.04713034 0.07530773 0.11680983 0.04748149
-0.13194695 0.001431833 0.13382575 -0.11906207 -0.09582972 -0.058718763 0.1381897 -0.07028637
0.11651343 -0.0025935508 -0.013051124 0.120733626 -0.08120579 0.11167798 -0.051552728 0.06256729
-0.1519817 0.08809364 0.0030169145 0.16276212 0.15708816 0.08364795 -0.10940261 0.14954777
0.026118144 -0.03777824 0.064101554 0.08632375 -0.13812643 0.064644374 0.09068797 0.093994945
-0.09025146 0.12606546 -0.11250232 -0.11518823 0.10991361 -0.05912937 0.09025039 -0.060914423
-0.0066942885 0.18947674 -0.058967724 0.17900246 0.15438275 0.058272764 0.106629826 -0.07055624
0.025619853 -0.062410355 -0.008898472 -0.12726222 -0.075690016 -0.027521959 0.0872225 -0.055486444
0.05216706 -0.046527326 0.0806333 0.1017182 0.029161787 -0.12763943 -0.0014069211 -0.07422824
-0.08004286 -0.13390082 -0.026246633 -0.16930805 0.17632689 0.10260177 0.045303814 0.0865663
-0.039081108 0.05609842 0.013876373 0.094387546 0.021606958 -0.13645974 -0.021090275 0.01858481
-0.047074486 -0.010909575 0.0016201764 0.12724891 -0.047055155 -0.050190244 -0.11353692 -0.023328874
0.094337896 0.00059942505 0.017926786 -0.015202465 -0.101376206 -0.13005956 -0.12172773 0.12135414
-0.024988342 0.031407867 -0.07620718 0.015622127 -0.06445384 0.0851945 -0.031972013 -0.08129689
0.08577942 0.04253538 0.07434821 0.1343431 0.12116676 -0.081484444 -0.047074076 0.031981662
-0.038582742 -0.02995686 0.07798129 0.16103216 0.121046595 0.09879525 -0.034530718 -0.024603529
-0.090021916 -0.028549151 -0.058339715 -0.016000954 0.13370362 0.12861948 0.14469308 0.07706787
0.07148266 0.14236286 0.029191984 0.14071478 0.11159973 0.09260875 0.18941197 -0.027486667
0.084161244 0.19674087 0.04713801 0.056664687 0.1544881 0.07914946 -0.0007640089 0.096668586
00000000: 5560 f53d d6dc b13c 7bdc d1bd 80b7 a5bd
00000010: 1b56 d9bd af2d 383e 66fd 173d a34f d53d
00000020: cded c73d c6f4 d5bd be98 933d 59e5 303d
00000030: ce60 04bd 11fd 95bd cb4b 703d 30ac 503e
00000040: 4f71 ddbd e306 5e3e 415a d8bd 31c1 3dbc
00000050: 3b24 863d 1b4a 95bd eb46 893d a82d 2f3e
00000060: db9f 6d3b 76db b43d 4d6f 1f3d d20b ab3d
00000070: c88a 933d 702f 323e 71b9 03bc 7c0c 5f3c
00000080: 6ed0 0c3e e625 bdbd f739 ca3d b4fe 5b3d
00000090: a8c0 f8bb 1881 e53d 5060 3f3e c776 a7bd
000000a0: 5ffb 5c3e c76d aebc 47e4 093d 4f0f f53d
000000b0: be0b 413d f03a 9a3d fe39 ef3d f37b 423d
000000c0: 1a1d 07be 58ac bb3a 9e09 093e d1d6 f3bd
000000d0: 5f42 c4bd 1683 70bd 9a81 0d3e 4df2 8fbd
000000e0: 989e ee3d 90f8 29bb 62d4 55bc 3143 f73d
000000f0: 394f a6bd 6db7 e43d f428 53bd 4823 803d
00000100: 17a1 1bbe 706a b43d 6db7 453b 1dab 263e
00000110: b8db 203e 9e4f ab3d 7a0e e0bd 0d23 193e
00000120: b8f5 d53c 5bbd 1abd ad47 833d 82ca b03d
00000130: 0471 0dbe 4564 843d 9dba b93d 6c80 c03d
00000140: c2d5 b8bd 4e17 013e 9e67 e6bd cfe7 ebbd
00000150: 631a e13d a331 72bd 32d5 b83d 6781 79bd
00000160: c35b dbbb 3106 423e 2488 71bd 6c4c 373e
00000170: 8316 1e3e 6caf 6e3d bd60 da3d ca7f 90bd
00000180: bae0 d13c 00a2 7fbd e6ca 11bc 0751 02be
00000190: 5e03 9bbd bb75 e1bc b6a1 b23d c145 63bd
000001a0: 21ad 553d 7093 3ebd 1223 a53d a251 d03d
000001b0: b3e4 ee3c e9b3 02be 7068 b8ba fa04 98bd
000001c0: 83ed a3bd 4c1d 09be 2e03 d7bc 175f 2dbe
000001d0: 098f 343e e020 d23d 7e90 393d ac49 b13d
000001e0: 8313 20bd 75c7 653d ba59 633c 424e c13d
000001f0: 1301 b13c 1abc 0bbe 83c5 acbc 2c3f 983c
00000200: 2dd1 40bd 13be 32bc 195c d43a 8a4d 023e
00000210: e8bc 40bd 4994 4dbd 0b86 e8bd 321c bfbc
00000220: 3a34 c13d bc22 1d3a 32db 923c c213 79bc
00000230: 549e cfbd 552e 05be 634c f9bd 8588 f83d
00000240: 5ab4 ccbc 89a5 003d 8312 9cbd f3f3 7f3c
00000250: 6000 84bd 747a ae3d 16f5 02bd fc7e a6bd
00000260: 1fad af3d 9439 2e3d e043 983d 3d91 093e
00000270: 4726 f83d 51e1 a6bd bfd0 40bd 34ff 023d
00000280: f008 1ebd 1768 f5bc a8b4 9f3d 9de5 243e
00000290: 47e7 f73d 2a55 ca3d 1570 0dbd 578d c9bc
000002a0: 695d b8bd e9df e9bc a0f5 6ebd 6f14 83bc
000002b0: 9ae9 083e d3b4 033e 6c2a 143e c2d5 9d3d
000002c0: 8065 923d 92c7 113e 0724 ef3c 8917 103e
000002d0: 668e e43d a8a9 bd3d 36f5 413e b82b e1bc
000002e0: bb5c ac3d 7076 493e c913 413d 3b19 683d
000002f0: 2132 1e3e 1d19 a23d c547 48ba 2efa c53d

mlp.0.weight f4 [256, 54]
-0.09700567 0.06864948 -0.08710979 -0.041939605 -0.00543401 0.024727486 0.0065862983 0.011617833
-0.005841856 -0.114547595 0.008394748 -0.011890303 -0.0654 0.10406083 0.07468707 0.110942684
-0.034094457 -0.0007918606 0.069181114 0.05348061 -0.13143909 0.013522204 0.022348417 0.0063417144
0.08805843 -0.039551727 0.05241555 -0.10427589 0.024727454 0.12605396 -0.07685412 0.064244404
0.05147214 0.13047208 -0.09027749 -0.06802737 -0.07874772 -0.079581775 0.10304427 0.01832317
0.052112922 -0.09376494 0.02828704 -0.05501495 -0.054383025 0.0031686754 0.07728 0.00014003116
0.11505975 -0.02934631 0.065409735 -0.09789453 0.049546774 0.003048695 -0.019119168 -0.0023920962
0.07532917 0.13447718 -0.12150808 -0.078677505 -0.12372171 -0.018838229 -0.020148199 0.13492678
0.012011776 -0.034981087 -0.10605246 0.10855669 -0.062145118 0.034820113 0.09812174 0.10147027
-0.08166691 -0.112863354 0.07632495 0.0168629 0.09176394 0.023642829 -0.036736082 -0.06191066
-0.12592 -0.12889078 -0.02478227 -0.065996595 -0.007778007 -0.11034968 -0.08306243 0.06381326
0.030656133 -0.129359 -0.11245423 -0.02488937 0.057976466 0.051988203 0.057835024 0.027375588
-0.04009928 -0.008060016 0.11590503 -0.09968899 0.07042694 -0.028390944 0.044250738 -0.13129565
0.03907317 -0.03744271 -0.05428438 0.06206318 0.075923815 -0.06620657 0.057416294 0.036171526
0.07228811 0.13081057 -0.0772867 0.06925451 -0.10826753 0.10488561 0.052239586 -0.08140518
-0.047280457 -0.08839732 0.05445635 -0.03597499 0.12849823 0.08163236 0.04582817 -0.093006186
0.02249703 0.041866336 0.05779659 -0.0904283 -0.031931184 -0.13573632 -0.09300691 0.0432864
0.048301987 -0.1196634 0.0016603362 -0.0073326128 -0.12415837 -0.050919656 -0.083957985 -0.1045877
0.06552882 -0.054115172 0.11340951 0.027459284 -0.003088606 0.122137345 -0.051448684 0.06002142
0.070066586 -0.030690107 -0.0056526056 0.045801457 0.14469995 0.06346771 0.0033272272 0.032325532
-0.054784067 0.06388951 -0.08148642 -0.11333173 -0.04539069 -0.069834776 -0.06333453 -0.11581551
-0.041330718 -0.086495236 0.012180755 0.021159602 0.055717796 -0.07471281 0.12730809 -0.12117245
-0.10415209 0.015753057 0.09714138 -0.025378224 0.039127644 -0.11375614 0.071140416 0.1331839
0.00276716 0.10655577 -0.0871451 0.1289322 0.12781839 -0.04091183 0.12587687 0.10925538
-0.05151723 0.08542747 0.021349834 0.056536645 0.0045516114 0.012022986 -0.038939804 -0.12432416
-0.072121724 -0.12366776 0.10050527 0.09356091 0.09062726 0.07313591 -0.12184695 -0.016065834
0.050082594 0.11665277 -0.12356046 -0.0300512 -0.031026646 0.10171459 -0.06841136 -0.0034167569
0.090616494 -0.064048015 0.07916181 -0.095635794 -0.08041028 -0.05816798 0.02374998 0.07532255
0.059237413 -0.1544144 0.121265076 0.08589598 -0.04669477 0.0186254 -0.13129517 -0.10150437
0.048926983 -0.12258977 0.052213483 0.037473373 0.04993242 -0.039733846 -0.093769886 -0.09516634
-0.103310056 0.09006367 -0.11655326 0.08982435 0.10281823 -0.026707314 0.030652056 0.058049552
-0.05618851 0.12294128 0.004350272 -0.114333704 -0.022980725 0.12033737 0.031012455 0.01643465
00000000: e9aa c6bd 1998 8c3d 9e66 b2bd ddc8 2bbd
00000010: c80f b2bb 4c91 ca3c e0d1 d73b b958 3e3c
00000020: 0a6d bfbb ee97 eabd 208a 093c 8ccf 42bc
00000030: 6ff0 85bd d81d d53d 89f5 983d eb35 e33d
00000040: a1a6 0bbd de94 4fba d4ae 8d3d 7c0e 5b3d
00000050: f897 06be 3c8c 5d3c 0714 b73c 28ce cf3b
00000060: fa57 b43d fe00 22bd b0b1 563d 998e d5bd
00000070: 3b91 ca3c 4a14 013e b165 9dbd 9292 833d
00000080: 73d4 523d 799a 053e 68e3 b8bd ef51 8bbd
00000090: 7c46 a1bd c5fb a2bd e008 d33d 791a 963c
000000a0: 5c74 553d d507 c0bd 39ba e73c 5b57 61bd
000000b0: bcc0 5ebd 8da9 4f3b fa44 9e3d 54d5 1239
000000c0: 72a4 eb3d ac67 f0bc 8af5 853d ed7c c8bd
000000d0: 8ff1 4a3d 9dcc 473b cd9f 9cbc b7c4 1cbb
000000e0: 2e46 9a3d 63b4 093e 3ad9 f8bd ac21 a1bd
000000f0: cf61 fdbd a152 9abc d60d a5bc 3f2a 0a3e
00000100: 0acd 443c 5448 0fbd 0832 d9bd f852 de3d
00000110: e18b 7ebd 899f 0e3d 0df4 c83d a5cf cf3d
00000120: fb40 a7bd e724 e7bd 4150 9c3d 1124 8a3c
00000130: bcee bb3d 9bae c13c 9378 16bd 0896 7dbd
00000140: 2cf1 00be f2fb 03be 3004 cbbc 3929 87bd
00000150: a7de febb 03ff e1bd a31c aabd 87b0 823d
00000160: 9222 fb3c b076 04be 674e e6bd cbe4 cbbc
00000170: bb78 6d3d 95f1 543d 6be4 6c3d c542 e03c
00000180: 253f 24bd 280e 04bc 9e5f ed3d be29 ccbd
00000190: 003c 903d 2094 e8bc 4340 353d 5e72 06be
000001a0: 300b 203d 875d 19bd 4c59 5ebd f635 7e3d
000001b0: f27d 9b3d 4f97 87bd 592d 6b3d 9828 143d
000001c0: ca0b 943d 35f3 053e 7d48 9ebd 4fd5 8d3d
000001d0: 5ebb ddbd 44ce d63d 2df9 553d c2b7 a6bd
000001e0: 27a9 41bd a709 b5bd 9f0d 5f3d 835a 13bd
000001f0: 0a95 033e de2e a73d 52b6 3b3d 077a bebd
00000200: b14b b83c 097c 2b3d 1ebc 6c3d 7932 b9bd
00000210: 46ca 02bd 76fe 0abe 687a bebd 154d 313d
00000220: 4ed8 453d 1612 f5bd a39f d93a 6a46 f0bb
00000230: be46 febd 2191 50bd 2af2 abbd 1332 d6bd
00000240: f933 863d dfa7 5dbd 3f43 e83d 4bf2 e03c
00000250: 366a 4abb 2523 fa3d dbbb 52bd 05d9 753d
00000260: 127f 8f3d d269 fbbc 7e39 b9bb 4f9a 3b3d
00000270: 392c 143e 5cfb 813d 9c0d 5a3b c767 043d
00000280: 4265 60bd 81d8 823d 5ae2 a6bd 771a e8bd
00000290: 97eb 39bd 8905 8fbd 89b5 81bd af30 edbd
000002a0: 664a 29bd 6a24 b1bd ca91 473c e756 ad3c
000002b0: 5838 643d 0803 99bd 0d5d 023e 4329 f8bd
000002c0: b14d d5bd 8e0c 813c 0ff2 c63d fee5 cfbc
000002d0: 4f44 203d fbf8 e8bd 11b2 913d 5c61 083e
000002e0: 3e59 353b e939 da3d 2179 b2bd cd06 043e
000002f0: d3e2 023e 2a93 27bd dee5 003e 49c1 df3d
00000300: bb03 53bd 99f4 ae3d d9e5 ae3c f892 673d
00000310: af25 953b 0ffc 443c 587f 1fbd aa9d febd
00000320: 8eb4 93bd 8645 fdbd b5d5 cd3d dd9c bf3d
00000330: c99a b93d 48c8 953d e58a f9bd 7f9c 83bc
00000340: 6823 4d3d a6e7 ee3d 440d fdbd ef2d f6bc
00000350: 982b febc bd4f d03d 411b 8cbd abeb 5fbb
00000360: 2495 b93d 9b2b 83bd 961f a23d b3dc c3bd
00000370: 25ae a4bd 8c41 6ebd 518f c23c b642 9a3d
00000380: eea2 723d cf1e 1ebe d359 f83d 3bea af3d
00000390: 0443 3fbd 4b94 983c 3e72 06be 86e1 cfbd
000003a0: a967 483d 5810 fbbd cedd 553d ae7d 193d
000003b0: f085 4c3d f5bf 22bd 6d0a c0bd 92e6 c2bd
000003c0: 3994 d3bd 4d73 b83d 7ab3 eebd d4f5 b73d
000003d0: 5d92 d23d 4cc9 dabc 051a fb3c 5ec5 6d3d
000003e0: ec25 66bd a3c8 fb3d ba8c 8e3b ca27 eabd
000003f0: 1342 bcbc 7073 f63d d50d fe3c f6a1 863c

mlp.0.bias f4 [256]
0.02725405 0.06279883 0.089337476 0.046973567 -0.124120735 0.09260873 -0.117010996 0.058297213
0.034095556 -0.09217594 0.094471656 0.113154866 0.12857737 0.07577197 -0.107567474 -0.11739935
-0.070963226 -0.12025005 0.058739435 -0.099014826 0.12814121 -0.13730319 -0.048116166 -0.08407083
-0.07549343 -0.002595904 0.08786771 0.06704912 0.12548648 -0.08781062 0.118463665 -0.0017447562
-0.018806554 -0.047801323 0.0829814 0.08617407 0.038592033 0.09474271 -0.059287716 0.116140336
-0.037631933 -0.08844164 -0.14067152 -0.07806076 0.046833474 0.066342585 -0.07867754 0.0046243365
0.059702896 0.07777385 0.112552844 0.026550096 -0.0024081068 -0.052965373 0.050632898 -0.05564874
-0.116289936 -0.10795498 -0.0850413 -0.12870605 -0.11674407 -0.032722175 0.0022976173 0.079235874
-0.055703074 -0.047625594 -0.062295046 -0.07830268 0.0029633169 0.12337294 0.11016166 -0.0026194197
-0.10627946 0.00795715 -0.11848731 -0.08593205 -0.03877046 0.033181556 0.04794428 -0.007170641
-0.13322128 -0.1334711 -0.0978138 0.118765615 0.104592994 0.11801203 0.051324163 -0.053433865
-0.054691922 0.017929044 -0.021654535 -0.061367776 0.0949177 -0.13202886 -0.10285183 0.04399319
0.07191857 -0.04071198 -0.12321801 0.052750517 0.108487114 0.11946309 -0.05235682 -0.13827862
-0.01150715 -0.10198373 -0.0038186717 0.016222207 0.035589732 -0.058194023 0.08676466 0.025596647
0.08252572 -0.13413583 -0.032976534 -0.063844904 0.07996172 -0.009251555 -0.037896976 0.097542435
-0.12373203 -0.0072246315 0.07349008 -0.00085243775 -0.083219886 -0.0037140434 0.011000203 -0.12635894
0.024283936 -0.03283317 0.060789444 0.0046079946 -0.06799112 0.09574097 0.062857114 0.119067386
0.028622776 0.024306955 0.05473639 0.01915762 -0.10211446 0.089238316 -0.032332744 -0.110754326
0.11882251 -0.031921037 -0.020394502 0.04624524 0.05786742 -0.06551853 -0.092083834 -0.022875916
-0.048688333 -0.03323107 0.10210583 -0.07677019 -0.0056224037 0.01723269 -0.042798467 -0.05539714
0.05747758 0.042446375 0.028262885 0.086840235 -0.063625336 0.03415979 -0.0008987385 -0.14456758
-0.0856887 -0.023739278 0.05385575 -0.016671421 -0.118704855 0.09364808 -0.0010833484 0.08222327
-0.009523276 -0.009531356 0.06137446 -0.0002502489 -0.022268793 0.09513984 -0.016458122 -0.078872874
0.005101662 -0.017969955 0.08021188 -0.1380693 0.06101515 0.12947564 -0.058718648 0.06319025
-0.07098829 0.08440027 0.0628727 0.13908851 0.023126291 -0.055515025 0.13290697 0.14432324
-0.11284392 0.068228036 0.021159725 -0.0059853746 0.07416286 0.026715517 -0.07139452 -0.13051191
-0.098289244 0.109952755 0.082605384 0.10785721 -0.089912124 0.09538867 0.118033946 0.062430277
0.11003224 0.1038343 0.05668139 0.05841725 0.023559464 -0.05188116 0.040188566 -0.02404133
0.035902895 -0.11851686 -0.12765521 -0.047624793 0.124059275 -0.08401439 0.10895191 0.12589726
-0.015052311 -0.00811478 -0.029314859 0.072177395 -0.0064159986 -0.0016406251 0.060420893 -0.11278325
-0.05452864 0.013906527 -0.037037138 -0.040335905 -0.1286264 -0.13343675 -0.005405247 -0.09388883
0.028715594 -0.09786609 0.05175522 -0.04844128 0.09704277 0.06379068 0.09223496 -0.11628903
00000000: e343 df3c ac9c 803d 91f6 b63d 5b67 403d
00000010: 0333 febd a5a9 bd3d 76a3 efbd 0fc9 6e3d
00000020: c8a7 0b3d bdc6 bcbd 5b7a c13d bdbd e73d
00000030: c9a9 033e 562e 9b3d 564c dcbd 126f f0bd
00000040: 2b55 91bd a945 f6bd c398 703d 49c8 cabd
00000050: 7337 033e 3599 0cbe 7515 45bd 542d acbd
00000060: 4d9c 9abd 0b20 2abb fcf3 b33d 0d51 893d
00000070: 877f 003e 0ed6 b3bd 149d f23d 4eb0 e4ba
00000080: 3410 9abc 52cb 43bd 27f2 a93d 087c b03d
00000090: ae12 1e3d 7708 c23d add7 72bd fcda ed3d
000000a0: f123 1abd e420 b5bd 320c 10be 52de 9fbd
000000b0: 75d4 3f3d 9fde 873d b121 a1bd bf87 973b
000000c0: 068b 743d e547 9f3d 1b82 e63d 967f d93c
000000d0: 54d1 1dbb 38f2 58bd 7164 4f3d efef 63bd
000000e0: 6b29 eebd 8017 ddbd 222a aebd 85cb 03be
000000f0: 8417 efbd b007 06bd 9f93 163b 6b46 a23d
00000100: e828 64bd 0e13 43bd 1729 7fbd 285d a0bd
00000110: 3534 423b f4aa fc3d 709c e13d 92aa 2bbb
00000120: 0ca9 d9bd b55e 023c 7aa9 f2bd 25fd afbd
00000130: c6cd 1ebd 62e9 073d 3961 443d b2f7 eabb
00000140: 296b 08be a6ac 08be 9a52 c8bd 633b f33d
00000150: da34 d63d 4bb0 f13d 4939 523d 78dd 5abd
00000160: a304 60bd eedf 923c da64 b1bc c75c 7bbd
00000170: 3664 c23d 9332 07be fba3 d2bd 3432 343d
00000180: 0b4a 933d 9bc1 26bd b959 fcbd ed10 583d
00000190: 7e2e de3d 11a9 f43d 1b74 56bd e998 0dbe
000001a0: 7c88 3cbc d9dc d0bd ae42 7abb 6fe4 843c
000001b0: 8ac6 113d db5c 6ebd acb1 b13d 0fb0 d13c
000001c0: 3f03 a93d e75a 09be 6712 07bd 1ec1 82bd
000001d0: f8c2 a33d d693 17bc dc39 1bbd 54c4 c73d
000001e0: 3867 fdbd 9abc ecbb f881 963d 2176 5fba
000001f0: 306f aabd 4f67 73bb 323a 343c 3d64 01be
00000200: 1bef c63c 137c 06bd 5afe 783d a9fe 963b
00000210: ee3e 8bbd d713 c43d 3bbb 803d 9ad9 f33d
00000220: 507a ea3c 611f c73c 4433 603d 71f0 9c3c
00000230: 6321 d1bd 94c2 b63d 576f 04bd 2ad3 e2bd
00000240: 3759 f33d a2bf 02bd 5f12 a7bc a66b 3d3d
00000250: 6306 6d3d 942e 86bd 7396 bcbd 4666 bbbc
00000260: 6b6d 47bd 4d1d 08bd dd1c d13d b039 9dbd
00000270: 243c b8bb 922b 8d3c 724d 2fbd 1de8 62bd
00000280: 9c6d 6b3d 40dc 2d3d 9187 e73c 4bd9 b13d
00000290: 004e 82bd 23eb 0b3d 5299 6bba 8609 14be
000002a0: 8f7d afbd e078 c2bc d997 5c3d 8192 88bc
000002b0: 881b f3bd 91ca bf3d 24ff 8dba ac64 a83d
000002c0: 8407 1cbc 6829 1cbc c963 7b3d d733 83b9
000002d0: 0b6d b6bc add8 c23d 2fd3 86bc 1a88 a1bd
000002e0: d82b a73b ba35 93bc 2046 a43d 0a62 0dbe
000002f0: 06eb 793d 4395 043e f782 70bd e469 813d
00000300: 4f62 91bd 0cda ac3d 67c3 803d 386d 0e3e
00000310: 5973 bd3c b963 63bd c418 083e 79c9 133e
00000320: b71a e7bd 24bb 8b3d 2957 ad3c f620 c4bb
00000330: b3e2 973d 80da da3c 4a37 92bd eaa4 05be
00000340: df4b c9bd e92e e13d 032d a93d 3ee4 dc3d
00000350: d923 b8bd 235b c33d c8bb f13d e4b6 7f3d
00000360: 9558 e13d 14a7 d43d bf2a 683d ed46 6f3d
00000370: c7ff c03c 5781 54bd c49c 243d 53f2 c4bc
00000380: ea0e 133d f8b8 f2bd 0cb8 02be 3712 43bd
00000390: ca12 fe3d bd0f acbd 2e22 df3d 36eb 003e
000003a0: f89d 76bc dbf3 04bc b725 f0bc bed1 933d
000003b0: 4c3d d2bb 3e0a d7ba e67b 773d e8fa e6bd
000003c0: 6c59 5fbd 34d8 633c 41b4 17bd 4337 25bd
000003d0: a4b6 03be a5a3 08be 801e b1bb c948 c0bd
000003e0: f73c eb3c 046e c8bd 48fd 533d 5d6a 46bd
000003f0: 5cbe c63d b0a4 823d afe5 bc3d f128 eebd

mlp.2.weight f4 [128, 256]
0.05651503 0.038077272 0.033027433 -0.06946174 -0.043194685 0.057964377 0.0430365 0.029157065
-0.012902145 -0.0462527 0.02840435 0.0212707 0.009421743 0.027776232 -0.03139453 0.0028252006
-0.045525443 0.033279166 -0.035303816 -0.03330577 0.050718267 -0.013964169 0.01945938 0.018504675
-0.05497761 -0.04468373 0.06378494 -0.03249292 0.048419185 0.008173703 -0.0150239 0.049794428
0.0330681 0.01370247 -0.027938891 0.0057335915 0.021616455 -0.020052936 -0.0051292493 0.06798362
-0.019126311 0.002197684 -0.019549018 -0.015165139 -0.049228653 0.021170516 0.05338648 -0.0041849487
0.031463206 0.04411466 0.00242297 0.0068996893 0.03435272 0.0639052 0.026122537 -0.047412314
0.044900388 0.05836824 0.01915657 -0.033346027 -0.01985719 0.0083072595 -0.022675946 -0.019407691
-0.0006916552 0.047298368 -0.028453395 -0.0412757 0.054598264 0.011565251 -0.024070855 -0.035812274
0.029616993 -0.012340877 -0.036761764 -0.045647748 -0.030576492 0.03861768 -0.009347383 -0.021605609
0.005694491 0.04346746 -0.024047816 0.06131574 0.03397582 -0.070266426 -0.010681545 0.091717154
-0.039012995 0.025493978 -0.02678956 -0.037863664 0.02566964 0.029548323 -0.060736567 -0.040232718
-0.0188936 -0.006928891 -0.007759482 0.010375444 -0.0056194216 0.019614981 0.05555129 -0.0049559367
-0.03382907 0.0674446 0.05938284 -0.010949862 0.05716766 0.04294834 0.0105361 0.05995819
0.06344109 0.0317766 -0.043760292 0.024840668 0.06195015 -0.07955197 -0.042567458 -0.006378614
0.0018871427 -0.0047330116 -0.024430268 0.02875218 0.054376382 -0.011568015 0.018597197 -0.054390512
-0.008340372 0.0124286115 0.03695161 0.0383689 -0.017317083 -0.035144128 0.04098977 0.05619692
0.009385712 0.007052935 -0.017053066 0.059763934 -0.057493612 0.010624901 -0.019831533 0.0078611905
-0.036695372 0.016966023 0.05320378 0.03991026 -0.04418142 -0.004644325 -0.037837654 -0.021895437
-0.0361165 -0.056264777 0.064822465 0.041933298 0.00035676415 0.015921086 -0.023135971 0.04237609
0.04397765 -0.0008110106 0.057441287 0.017146464 -0.026835568 0.05224962 0.015087156 0.032777578
-0.056420095 0.019345526 -0.0012459847 -0.058097206 0.05495149 0.037059516 -0.0019704073 0.026810937
0.04707648 -0.018614208 0.00037011562 -0.037043966 0.06356933 0.053671397 -0.032667384 0.037303086
-0.04945888 0.026224284 0.06208366 -0.052654438 -0.016878687 -0.041574918 0.044383667 0.0013655156
0.022037612 0.048323248 -0.019160097 0.02889325 0.054795273 0.0069165556 -0.048002813 0.013092887
0.043582216 0.033563707 0.051150374 -0.024374977 0.04427298 0.0313808 -0.07120408 -0.0365002
0.04234893 0.016320553 0.048602283 0.01664357 0.014463054 -0.06413034 0.012616027 -0.003194048
0.035164036 0.031186536 -0.009817875 -0.035984106 -0.016999716 -0.016049858 0.0058546867 0.061262324
-0.02233408 0.008434567 -0.05635581 0.04000271 0.033113413 0.07188756 -0.008445959 -0.0018234304
0.026868321 0.03218336 -0.039354384 0.024028145 -0.023283713 0.032661382 -0.00987618 -0.056209333
-0.047160402 -0.012661792 -0.00080441684 -0.030547336 -0.039739996 -0.013140851 0.020000638 -0.026226604
0.027236875 -0.0049185203 -0.057711672 -0.0015407874 -0.043174826 -0.035034988 0.035107825 0.00325495
00000000: 4e7c 673d eaf6 1b3d c647 073d f541 8ebd
00000010: e9ec 30bd 0e6c 6d3d 0b47 303d ccda ee3c
00000020: 8563 53bc 7973 3dbd 3db0 e83c e43f ae3c
00000030: a85d 1a3c fb8a e33c 8d97 00bd 0027 393b
00000040: e378 3abd bc4f 083d bc9a 10bd a26b 08bd
00000050: f5bd 4f3d f8c9 64bc 4769 9f3c 1e97 973c
00000060: 3430 61bd 4906 37bd aea1 823d 4c17 05bd
00000070: 3253 463d ffea 053c ce26 76bc 3ef5 4b3d
00000080: 6b72 073d 5380 603c 1ae0 e4bc dae0 bb3b
00000090: fe14 b13c 0e46 a4bc 4313 a8bb ff3a 8b3d
000000a0: c8ae 9cbc 0507 103b 4325 a0bc 3477 78bc
000000b0: fca3 49bd ca6d ad3c c8ab 5a3d e521 89bb
000000c0: 90df 003d 93b1 343d b1ca 1e3b ca16 e23b
000000d0: 70b5 0c3d bbe0 823d eefe d53c 6a33 42bd
000000e0: 78e9 373d 8913 6f3d 3dee 9c3c d895 08bd
000000f0: 8cab a2bc 2c1b 083c e8c2 b9bc e1fc 9ebc
00000100: 3250 35ba efbb 413d 1817 e9bc b510 29bd
00000110: 6ea2 5f3d 2e7c 3d3c 3e30 c5bc e4af 12bd
00000120: 569f f23c 6431 4abc 8193 16bd 22f9 3abd
00000130: 8d7b fabc 932d 1e3d c425 19bc 3ffe b0bc
00000140: da98 ba3b ef0a 323d edff c4bc 3726 7b3d
00000150: 3b2a 0b3d d8e7 8fbd a601 2fbc 34d6 bb3d
00000160: 17cc 1fbd bfd8 d03c c875 dbbc ee16 1bbd
00000170: 2349 d23c 530f f23c e8c6 78bd 10cb 24bd
00000180: c0c6 9abc c00b e3bb 4143 febb c4fd 293c
00000190: 2023 b8bb 99af a03c c089 633d 6965 a2bb
000001a0: 5a90 0abd 6520 8a3d 6c3b 733d 0d67 33bc
000001b0: a328 6a3d 99ea 2f3d 9b9f 2c3c b896 753d
000001c0: 67ed 813d 2e28 023d fe3d 33bd a87e cb3c
000001d0: 71bf 7d3d 25ec a2bd 375b 2ebd b103 d1bb
000001e0: 005a f73a 6117 9bbb fc21 c8bc b189 eb3c
000001f0: c5b9 5e3d c687 3dbc 2659 983c 96c8 5ebd
00000200: 0ea6 08bc 60a1 4b3c 925a 173d b528 1d3d
00000210: 8edc 8dbc 4af3 0fbd e4e4 273d be2e 663d
00000220: 88c6 193c 4f1c e73b dfb2 8bbc 07cb 743d
00000230: 6c7e 6bbd 1114 2e3c bd75 a2bc 39cc 003c
00000240: e34d 16bd 54fc 8a3c 35ec 593d f178 233d
00000250: 94f7 34bd 6c2f 98bb a8fb 1abd 0f5e b3bc
00000260: e5ee 13bd e575 66bd a4c1 843d 40c2 2b3d
00000270: 130c bb39 f06c 823c a687 bdbc 8d92 2d3d
00000280: e921 343d 009a 54ba 8e47 6b3d be76 8c3c
00000290: 44d6 dbbc b303 563d 1e30 773c c841 063d
000002a0: c218 67bd 827a 9e3c 4f50 a3ba 56f7 6dbd
000002b0: d014 613d b8cb 173d f321 01bb 9ca2 db3c
000002c0: 44d3 403d d37c 98bc 140c c239 6abb 17bd
000002d0: a330 823d 8ad6 5b3d 3cce 05bd 1fcb 183d
000002e0: 6595 4abd 4fd4 d63c 704b 7e3d 2eac 57bd
000002f0: 2c45 8abc 764a 2abd a6cb 353d 1afb b23a
00000300: 3988 b43c 99ee 453d a3f5 9cbc 89b1 ec3c
00000310: 0271 603d 46a4 e23b 999e 44bd 8c83 563c
00000320: 4483 323d 197a 093d 0e83 513d 08ae c7bc
00000330: 9657 353d 2789 003d 72d3 91bd 3c81 15bd
00000340: 1276 2d3d aeb2 853c 3013 473d 1958 883c
00000350: 72f6 6c3c c556 83bd 74b3 4e3c 3c53 51bb
00000360: 2a08 103d e87a ff3c 27db 20bc 1264 13bd
00000370: fd42 8bbc fe7a 83bc acd8 bf3b 34ee 7a3d
00000380: f6f5 b6bc 2331 0a3c 5ad5 66bd e2d9 233d
00000390: eea1 073d c939 933d eb60 0abc 2c00 efba
000003a0: f41a dc3c b3d2 033d 1032 21bd acd6 c43c
000003b0: 7cbd bebc f1c7 053d b4cf 21bc c23b 66bd
000003c0: 442b 41bd 6873 4fbc 80df 52ba 683e fabc
000003d0: 68c6 22bd b94c 57bc 61d8 a33c 2dd9 d6bc
000003e0: de1f df3c 8a2b a1bb 1363 6cbd 3ff4 c9ba
000003f0: 16d8 30bd d980 0fbd 39cd 0f3d 0051 553b

mlp.2.bias f4 [128]
-0.051372133 0.046706855 -0.0065470114 -0.017326673 0.004615129 0.019304466 -0.040581077 -0.025590166
-0.0030313078 -0.020630337 0.045978792 -0.0272199 -0.024589203 -0.011517492 0.02048871 0.018524783
0.01927323 -0.051032268 0.007603928 0.030606953 0.010602973 0.045963034 0.03184277 -0.028500661
0.0034296368 -0.016518852 0.013369585 -0.0010931351 -0.037850708 0.060183197 0.056713495 0.032646958
-0.06344529 0.031793997 -0.051887795 -0.036169812 0.014737427 0.0133349765 -0.05660846 -0.062759414
0.02696387 -0.03277659 -0.0381623 -0.053432193 -0.015143403 0.002477647 0.038656026 0.0135086235
0.0423085 -0.0052672476 -0.026913123 -0.0023145154 0.004669671 0.017909275 -0.012929604 0.018878005
0.035746776 0.0590074 0.054332078 0.04754835 0.010339585 0.05117698 0.050125323 0.017054755
-0.021917218 0.050313354 0.0073593035 -0.011123769 0.0067097433 -0.0065603433 0.0348129 0.010170044
-0.061323255 -0.031330194 -0.015244342 -0.03937109 -0.0502147 -0.029891923 -0.033086106 -0.03720326
-0.0020244897 0.021128733 -0.017645268 0.019088596 0.046071135 0.0035741904 0.010011615 0.038043104
0.018274404 -0.04889363 0.033281717 -0.051114604 -0.051954508 0.051435683 -0.05500685 0.041233946
0.02119898 0.026362104 0.028421318 0.042901214 0.037060052 0.012635609 0.010821499 0.036689445
0.020108841 0.0487772 0.0050558895 -0.030047772 -0.045641646 -0.06924859 -0.0025706412 0.006999415
-0.009502496 -0.025547838 0.023746204 -0.056927606 -0.0010490058 0.022932459 -0.024608422 0.042418916
-0.024436254 0.008259978 -0.055886485 -0.044344272 -0.0015446679 0.042535674 0.014879717 -0.03334608
00000000: 966b 52bd b04f 3f3d 5088 d6bb abf0 8dbc
00000010: 823a 973b 6624 9e3c 5838 26bd 78a2 d1bc
00000020: e8a8 46bb f400 a9bc 4254 3c3d 45fc debc
00000030: 4c6f c9bc ddb3 3cbc f0d7 a73c 49c1 973c
00000040: e5e2 9d3c 3607 51bd 5f2a f93b 6fbb fa3c
00000050: 18b8 2d3c bc43 3c3d 906d 023d 387a e9bc
00000060: c2c3 603b 8b52 87bc 1b0c 5b3c 8747 8fba
00000070: 5809 1bbd a882 763d 694c 683d d1b8 053d
00000080: 9bef 81bd 6c3a 023d 4c88 54bd cc26 14bd
00000090: 4075 713c f27a 5a3c 46de 67bd 0288 80bd
000000a0: 55e3 dc3c bf40 06bd 1250 1cbd b7db 5abd
000000b0: 091c 78bc 0560 223b c855 1e3d 4653 5d3c
000000c0: ad4b 2d3d e098 acbb e978 dcbc 20af 17bb
000000d0: 0a04 993b 79b6 923c b1d6 53bc 0ca6 9a3c
000000e0: 366b 123d beb1 713d 508b 5e3d 0fc2 423d
000000f0: 5d67 293c f49e 513d 3650 4d3d 6ab6 8b3c
00000100: bd8b b3bc 6015 4e3d 5026 f13b 7840 36bc
00000110: 68dd db3b 26f8 d6bb f997 0e3d 42a0 263c
00000120: 182e 7bbd 1754 00bd 68c3 79bc 9443 21bd
00000130: eead 4dbd e8df f4bc 4c85 07bd 7262 18bd
00000140: 4dad 04bb 2a16 ad3c cf8c 90bc b05f 9c3c
00000150: 16b5 3c3d f73c 6a3b c207 243c 16d3 1b3d
00000160: 34b4 953c b044 48bd 6952 083d 8c5d 51bd
00000170: 40ce 54bd 39ae 523d dd4e 61bd ede4 283d
00000180: 7ca9 ad3c 57f5 d73c d3d3 e83c 2fb9 2f3d
00000190: 48cc 173d 9605 4f3c a84c 313c ac47 163d
000001a0: 4cbb a43c 9aca 473d e0ab a53b bf26 f6bc
000001b0: bcf2 3abd 34d2 8dbd 3478 28bb 595b e53b
000001c0: 5bb0 1bbc b349 d1bc 6687 c23c ec2c 69bd
000001d0: cb7e 89ba dadc bb3c 9a97 c9bc 75bf 2d3d
000001e0: 8a2e c8bc dc54 073c 3ae9 64bd 57a2 35bd
000001f0: 7476 caba e339 2e3d 0eca 733c e695 08bd
