weights2/ep_2092.pth (torch, 275655 bytes, 10 tensors)

lstm.weight_ih_l0 f4 [192, 7]
00000000: aca6 b4bc d2bd ec3d 05ab 0e3e b0e0 463d
00000010: f12e 1a3d 24bc 043e d37a 203e 2dca 2c3e
00000020: bc67 08be 4cd9 093e c6ae d6bd 6040 91bd
00000030: bfdf 0f3d 7451 2c3d 90f4 803d a553 503d
00000040: 54c9 6fbd 2f4f 54bd 2dfc 7bbd 504b 193e
00000050: 1c9e 373d 6930 3c3e 99e0 363d 8a2b 073e
00000060: 3d8f 863d 8c66 08be 68a2 953d bea6 a3bd
00000070: b000 9fbd a918 103e 511b 023e aa8d 783c
00000080: b5c3 febc 5fd4 013e 8157 bdbd 8dd4 523c
00000090: d794 253c b10f ed3d 08bd 033e bd54 e3bc
000000a0: a5a7 113e de22 f6bc 8f6e c03d a058 aebd
000000b0: 27b5 3c3d c9b0 1f3d f578 2b3c 30ba 923d
000000c0: 90c5 fd3d 7d25 bebc 31d5 02be cc15 f3bb
000000d0: 83c9 1dbc dce3 fb3d 4d99 2e3e 07c4 013e
000000e0: ada9 473c 6351 813d 23df 53bd e310 a93d
000000f0: 360c 84bd 3521 283e 8a7a 62bd f52c b1bd
00000100: e936 eabd 68f4 083d 4049 083d aea0 bfbd
00000110: b0a6 d7bd f210 ef3d 1f88 c0bd 96ad e73d
00000120: 2ab5 2cbc cc41 373d 2b71 4abb e3b8 62bd
00000130: 45c3 55bd af2d ef3d c775 8abd 7d2e 093d
00000140: ba74 81bd 74fd 0c3e 1496 efbc 3fae 703d
00000150: fc9c 0dbc bfa2 04be e995 1fbe ffc9 e5bd
00000160: 0166 84bd 5165 e6bc 06e6 f93d 4fdc 373e
00000170: a59c c03d b77b 023c c30c bebc 00d0 3e3d
00000180: c7be a3bd bb99 3e3e ca9f 343d b6f7 8ebd
00000190: 00b5 6f3b 0d07 fdbd b2dc 15bd fcad 96bb
000001a0: 2791 fb3d c32d ca3d 8c4c 373c 8785 e63d
000001b0: d865 783b 24d2 063e 3697 e2bc 2eab 1b3e
000001c0: 38a7 fb3d cb85 afbd a810 5d3d b22f cebd
000001d0: b32b d03d cbd8 c83c 8fb6 a1bd 6148 82ba
000001e0: 08ea c5bd d092 163b a552 503b 5894 3c3d
000001f0: 6cf1 523b 27d1 0e3e 481f b83d e886 16be
00000200: 711e 1d3c 7e9c 18be 5023 e4bd 20f3 e2bd
00000210: 3854 443c 5b98 ab3d b3f8 713c 1a12 9bbc
00000220: 630f b8bd d5cf c73b 1781 a4bb fada 8d3d
00000230: 94ff ba3c 6a69 f8bd 1605 d83d 5770 ce3d
00000240: 282d aebd 7ef1 2e3e 1a10 0e3e 7b3f e1bd
00000250: c53e 1d3d 8e43 afbd 9e41 0cbc 18d8 37bd
00000260: eade 93bd 6915 013d 0c68 e03d 3e57 c4bd
00000270: 0129 c5bc 53cc 473d fe3b 5ebc 6817 d43c
00000280: 4111 673d 8d47 a63c c475 ebbd 4016 f93d
00000290: 3657 bc3d f4af 073e d672 053e 8631 bd3d
000002a0: 1545 dc3c 8ab3 b73d a1e8 dcbc 9c0a eabd
000002b0: e154 d6bd 8dee 693d 62a5 203d 41ab 6f3d
000002c0: 7b5b d83d bd4d 5ebc aa72 6d3c 9fa1 edbc
000002d0: bae9 d3bc 231b 26bd 6046 2d3e 444a 143e
000002e0: ab1e 023d 87c3 9f39 8101 30bd 2289 25bd
000002f0: 103a 773d 6a88 cbbd 5e1f 04be 7896 a93d
00000300: 6487 9dbc 612a 183e 5f00 f23d d93c ff3d
00000310: 24da ba3b e85c 9f3d 4284 103e 73c5 fe3d
00000320: 7763 90bc d52b 693b b226 ec3d da86 e3bd
00000330: d74a 553d 9541 94ba 44e4 5ebc ddf5 1a3d
00000340: a87c 943b 5630 ddbb 905d a3bd 2645 ce3b
00000350: 1e25 823c d9fb 2abd ed59 bcbd 00fe 9b3d
00000360: 74e4 393e d1a3 40bd 0bbe 143d 6465 9b3d
00000370: bc7b 27bd 4e20 463c 1d94 2c3d 7ca7 3a3d
00000380: 06c8 6cbd ac5b c2bd e9d9 343c 95d9 f93d
00000390: bdf3 d73d 84ff 00be 0968 59bd 704d 81bd
000003a0: 7ae9 37bd f6ae d33d 1540 e73c 66d1 5b3d
000003b0: 33c0 8abd 841b 0d3e 2013 433d 952c e9bd
000003c0: 9af0 64bd 0491 52bd 82e0 05bd 399f a93d
000003d0: 650b d63c 394e eb3d 8aee 533d 193c 933d
000003e0: 1023 c1bc 6a5c 923d 57af f2bd 6b7b d1bd
000003f0: ded2 1abc 0532 7fbd 707a 063e de25 d0bd
-0.022052132 0.11559643 0.13932426 0.048554122 0.037642423 0.12962395 0.15671854 0.16873999
-0.13320822 0.13461798 -0.10482554 -0.07092357 0.03512549 0.042069867 0.062966466 0.05086102
-0.05854161 -0.051833328 -0.06151979 0.14970136 0.04482852 0.18377842 0.044647787 0.13200203
0.06570289 -0.13320369 0.07306367 -0.07990788 -0.07763803 0.14071907 0.12705733 0.015170494
-0.03109918 0.1267867 -0.09245206 0.012868059 0.010106287 0.115752585 0.12865078 -0.027750367
0.14224108 -0.030045923 0.093960874 -0.085129976 0.046071198 0.038986955 0.01046585 0.07164419
0.12391198 -0.023211235 -0.12776639 -0.00741837 -0.009630564 0.1229932 0.17050667 0.12672435
0.01218645 0.063143514 -0.05172647 0.08255174 -0.064476416 0.16418917 -0.055292644 -0.08651153
-0.114362545 0.03343621 0.03327298 -0.09356819 -0.1052984 0.11673154 -0.09400963 0.11312406
-0.01054124 0.044740483 -0.0030890207 -0.055352103 -0.052188177 0.11678635 -0.067607455 0.0334916
-0.06321092 0.1376856 -0.029246368 0.058759924 -0.008643385 -0.12952708 -0.1558453 -0.11220168
-0.06464768 -0.028124483 0.122020766 0.17955135 0.094048776 0.007964066 -0.023199445 0.046585083
-0.07995372 0.18613331 0.0440977 -0.06980841 0.003657639 -0.123548605 -0.036587425 -0.0045983773
0.12283545 0.098720096 0.011187684 0.11255937 0.00379025 0.131661 -0.027659994 0.15202019
0.12287754 -0.08570441 0.053970963 -0.10067691 0.10164585 0.024517437 -0.078961484 -0.0009939783
-0.096637785 0.002297569 0.0031787541 0.04603991 0.0032187356 0.13946973 0.089903414 -0.146999
0.009589777 -0.14903447 -0.11139548 -0.11081529 0.01198297 0.08378669 0.014768767 -0.01892953
-0.0898731 0.0060977736 -0.0050202715 0.06926532 0.022826947 -0.12129481 0.10547845 0.10080021
-0.085047066 0.1708431 0.1387333 -0.10998436 0.03838994 -0.08557807 -0.008560566 -0.044883817
-0.07220252 0.03151456 0.10957345 -0.095869526 -0.024067404 0.048778843 -0.013564108 0.025890067
0.05641294 0.02029779 -0.114970714 0.12162447 0.09196322 0.13250715 0.13032088 0.092379615
0.02688841 0.08969791 -0.026966395 -0.11427805 -0.10465408 0.057112265 0.03922022 0.05851293
0.105643235 -0.013568339 0.01449267 -0.029007731 -0.025868285 -0.040553223 0.16921377 0.14481455
0.03176753 0.00030472522 -0.042970184 -0.040413983 0.060358107 -0.09938128 -0.1290259 0.08280653
-0.019229598 0.14859916 0.11816477 0.12462778 0.005702274 0.07781392 0.14112952 0.12440004
-0.017625554 0.0035579104 0.11530818 -0.11109705 0.052073326 -0.0011311049 -0.013604227 0.03783213
0.0045314617 -0.006750147 -0.0797683 0.006294864 0.01588684 -0.041744087 -0.091968395 0.07616806
0.18153554 -0.047031227 0.03631405 0.07587698 -0.040889487 0.012092663 0.04213344 0.04556988
-0.057807945 -0.09490141 0.011038282 0.121997036 0.10544536 -0.12597471 -0.05307773 -0.06313598
-0.044900395 0.103361055 0.028228799 0.053666495 -0.0677494 0.13780028 0.04762566 -0.113854565
-0.055893518 -0.05140783 -0.03268481 0.082823224 0.02612848 0.11489529 0.05174116 0.07189197
-0.02357629 0.07146533 -0.1184985 -0.10228618 -0.009449689 -0.06230356 0.13132644 -0.101634726

lstm.weight_hh_l0 f4 [192, 48]
00000000: 5a1d 7dbb 5501 f7bd d364 16ba 565b 0cbe
00000010: 8d39 00bd 1b2c e6bd 1457 e8bd 8e5b ad3d
00000020: db8e b8bd 9087 b13c 08e1 37be 602a 46be
00000030: 2a01 03bc 6774 8d3d f1fb 03bd 1e05 63bd
00000040: 7c06 bebb 800b 2c3e 9023 313c 5c4b 52bd
00000050: 0bf1 173e c207 573d 988b bfbd 3852 cabd
00000060: eeea 05bd b940 993d a85b 8a3d ea1f e23d
00000070: 66a6 0f3c 4699 5ebd 3f22 4cbd b59a 08bc
00000080: 1779 acbd f101 20be 758a b43d 3ee8 c9bd
00000090: 11db 2abd d1b5 ca3d 0834 9abd 855a 8a3c
000000a0: 07e4 8d3d 6bea c23d 0f2e ef3a 629c b7bd
000000b0: 71a8 233d 5d6d a03b 9d06 08be 2580 d1bd
000000c0: 21ba d1bd 8bb9 39bd 8c66 b53d 11f7 253d
000000d0: 68d6 ad3d 587c 073e dd00 2a3e ccf7 e4bd
000000e0: 8131 cc3b 15a8 a33c 77e4 3cbe 1829 2ebe
000000f0: 8683 ae3d 60ae 0b3e 615c 063e 4741 eabd
00000100: a76f 8fbd f5b7 bc3c d4b4 273e c429 0bbd
00000110: d038 16bd 89c6 bebb e749 55be 23df 063e
00000120: 7dd5 213e 1b4b dc3d cb3c c33d 6ba1 3a3e
00000130: 2b30 f03d 4cf7 a03d 4cf4 f53d 1d2a ca3d
00000140: cc25 b5bd bce0 35be 90e0 a5bc 4c6c 763d
00000150: f9cf b43d 119c 1cbd 2fe8 0abd 8a45 98bd
00000160: 509a f0bd 3118 f1bc 099e bebd eceb d63d
00000170: c0a3 493d f4cb ce3d 740e b33d 5bd3 c1bd
00000180: 4851 a43c d186 18be 3f50 b7ba 2a75 debd
00000190: b0b1 073d 5258 2c3d d985 d43d a6b1 273d
000001a0: a8c6 3dbd f454 f5bc 7975 b5bd 93db b9bd
000001b0: df68 f23c 7c85 8c3c 2a2a 66bd 5e23 09bd
000001c0: 2385 6b3d a3fd 243e 2985 fc3d c1ab 91bd
000001d0: 3dc1 0cbd a431 f3bd e753 ccbc ca23 233e
000001e0: 58fd 4b3d 0047 a73c 87af 28be bb6f 1e3d
000001f0: b4fa 88ba 09ca 65bd d147 8abd e5a4 e13d
00000200: ab05 183d 3642 89bd fda8 cb3d f720 d23d
00000210: ee12 e93d 52d1 c4bd a34e 263e fa9e 5bbd
00000220: 40e9 f7bd fb11 953d 4249 67bd deec ff3d
00000230: 9d5f 27be e177 393d 2c7b 5bbd 2ec3 f4bd
00000240: 10f3 d0bd b647 75bd 4db7 dcbd 362e 94bc
00000250: 23ec a43b e993 0b3e d07f a9bb a49d 8ebd
00000260: 7b9d 623d 83e6 3d3a ec56 63bb f72e 0ebd
00000270: 5525 993d 0fc4 543d fcb9 993d fac5 a23d
00000280: cf0e 903d 3477 283e a689 3e3d 76a1 ee3c
00000290: 44c1 18bb 0dcc e93d 2304 1abe c051 173e
000002a0: 3915 223e a0de 84bd 156f d8bd 6a9c db3d
000002b0: 0491 2d3d a2f2 05bb 1a5a 6dbd b693 c43c
000002c0: d59c d7bc f757 9ebd 0d8c 00be 58a6 db3d
000002d0: 9d62 c1bc 7314 0a3d 1e04 9cbd fe7a af3c
000002e0: f001 38be 3b7b 2f3e 0a3c 01bd 8bb5 123e
000002f0: 0b37 a2bd 24de f2bd dee6 19be 816d 923d
00000300: 1e5a 22be 1fcf a93d ea53 a83d 6e10 5dbb
00000310: fdbe fa3d afb1 0e3e b5c4 263e 911d 03be
00000320: 464c edbc 9313 c73d e82a 9c3c fc3b 23bd
00000330: 5b22 2c3c 7f0a 373d 9a0d 42bd a4cd 43bd
00000340: aa39 d43c 14f3 9a3d 92ea 5ebd 6c6a 87bd
00000350: 4544 c33b 8d8f 41bc 9961 0dbe 104d 9bbd
00000360: 68eb 21bb 1d2f 1c3e 24eb d6bd 83db a73c
00000370: b82c 24bc e280 133e 5013 473e cb89 bebd
00000380: 7fde 40be 01ca 12be d1a6 683d b9eb 063e
00000390: 0873 1c3e 83ca e33d 8f2b 1c3e 4251 ab3d
000003a0: 926a 3ebd dd49 de3d 8245 9d3b 3ee0 96bd
000003b0: 962c 73bd d5af a33b 6d50 353d 8632 8dbc
000003c0: 4220 0fbe 00d4 cabc 2f50 d1bd d6c2 c2bd
000003d0: 6745 ca3d 1371 873d 2c96 0f3e 286c 523d
000003e0: ab2d e53d 011f 393d 7831 c9bd 6eb3 33be
000003f0: e931 a63d 8651 54bd 6c76 08bc 5219 0dbd
-0.0038622231 -0.12060801 -0.000573707 -0.13706717 -0.031304885 -0.11238881 -0.11344734 0.08464728
-0.090116225 0.021671087 -0.17956936 -0.19352102 -0.007995883 0.069069676 -0.032222692 -0.055424802
-0.005799113 0.16801262 0.010811701 -0.0513414 0.14838044 0.052497633 -0.09352797 -0.09878963
-0.03269475 0.07483048 0.06755763 0.110412434 0.0087677 -0.05434539 -0.049837347 -0.008337666
-0.084215336 -0.1562574 0.08815471 -0.0985875 -0.041712824 0.0989796 -0.075294554 0.016888866
0.069282584 0.09517368 0.001824798 -0.089653745 0.03995556 0.0048958496 -0.13283773 -0.1022952
-0.102405794 -0.045342963 0.0885745 0.040518824 0.0848816 0.13231027 0.16601892 -0.11180076
0.0062314873 0.019977609 -0.18446527 -0.17007864 0.0852118 0.13640738 0.13121177 -0.11438232
-0.07003718 0.023036936 0.16377574 -0.033975378 -0.036675274 -0.005822007 -0.20828973 0.13171057
0.15804096 0.10756513 0.0953308 0.18225639 0.11727937 0.07859668 0.120094866 0.09871314
-0.088451 -0.1776151 -0.020248681 0.060161874 0.0882873 -0.038234774 -0.033912834 -0.074351385
-0.11748183 -0.02943048 -0.093074866 0.10494217 0.04922843 0.10097495 0.08742991 -0.09464141
0.02005829 -0.14895178 -0.0013985707 -0.10862191 0.03312844 0.042076416 0.10377092 0.040940903
-0.04633203 -0.029947735 -0.08860297 -0.090750836 0.029591022 0.017153494 -0.056192555 -0.033480994
0.057500016 0.1611238 0.12330086 -0.071128376 -0.034363974 -0.118747026 -0.024942352 0.15931621
0.049802154 0.020419598 -0.16473208 0.038680773 -0.0010450692 -0.05610088 -0.06751979 0.11017779
0.03711478 -0.06702082 0.09944341 0.10260194 0.11380564 -0.09610237 0.16240935 -0.05361841
-0.12105036 0.0727882 -0.05646635 0.12496351 -0.16345067 0.04528034 -0.053584263 -0.1195129
-0.102026105 -0.059882842 -0.10777149 -0.018088441 0.0050330325 0.13630642 -0.005172707 -0.06963661
0.055325966 0.0007244127 -0.003468926 -0.034712758 0.07477824 0.05194479 0.07506177 0.07947917
0.070340745 0.16451722 0.04651799 0.029129725 -0.0023308555 0.11415873 -0.1504064 0.14777279
0.15828408 -0.06487775 -0.10568062 0.10723193 0.042374626 -0.002043881 -0.057947256 0.023996215
-0.0263199 -0.07731622 -0.12553425 0.10725087 -0.023606593 0.03371091 -0.07617973 0.021420952
-0.17969489 0.17136852 -0.0315514 0.14327066 -0.07920655 -0.11858776 -0.15029475 0.071497925
-0.1585469 0.08291458 0.0821913 -0.0033731717 0.122434594 0.13934968 0.16285975 -0.12804247
-0.028967034 0.0972053 0.019063428 -0.039852127 0.010506238 0.044687744 -0.047376253 -0.047803536
0.025906403 0.07565895 -0.054422922 -0.06612095 0.005959066 -0.01181401 -0.13806762 -0.07583058
-0.0024706963 0.15252347 -0.10494068 0.020490414 -0.010020427 0.14404634 0.19440961 -0.09303626
-0.18834876 -0.14334871 0.056799714 0.13175859 0.15278256 0.111226104 0.15250991 0.08365108
-0.046488352 0.10853932 0.0047995457 -0.073669896 -0.059368692 0.004995326 0.044266153 -0.017236006
-0.13977149 -0.024759293 -0.10220372 -0.09509818 0.09876519 0.06613364 0.1402213 0.051372677
0.11190351 0.045195583 -0.098238885 -0.17548916 0.08114988 -0.05183556 -0.008329015 -0.034447975

lstm.bias_ih_l0 f4 [192]
00000000: adde 453d 8539 2fbd 0611 043e c590 abbd
00000010: f14c 71bc bf7b 46bc 4fdd 51bd 5932 c73c
00000020: ede3 abbd 72ad 023e 298d 213e 065a 483d
00000030: 1746 c23c da44 603d 1667 833d 7384 47bd
00000040: 00a8 b9bd a4bc 2c3e 1310 8e3b 63db 1ebd
00000050: 3054 1e3e 7061 483c 492b aa3d 966f eb3d
00000060: 155f 893d 33bb f63d f683 d7bd 0c9a ad3d
00000070: 4788 ca3d d88d 9d3d f804 7abd 1513 b13d
00000080: 3b4a b83d 4750 cd3d de09 a0bd 4839 24bd
00000090: cdad 5dbc 7835 87bd f9fa 9ebd 57a8 893d
000000a0: c442 323e 8bf3 a5bd 0ed0 b73d 57b2 e0bc
000000b0: 742f 7d3c becf d23b d982 033e df68 e03d
000000c0: 2cc2 05be 0c40 213e 0663 4bbd 460d 083e
000000d0: 4428 653d d21b 943d 771c e9bd f923 15bd
000000e0: d972 ebbd a618 eabd 24fa c2bd f9ea c8bc
000000f0: 4060 993c 58f0 da3d 4a52 dbbb 9790 e73d
00000100: a4e2 853d 9772 ef3d 57e7 86bb 01c0 413d
00000110: 207a 0b3e 1597 0d3e 9df8 1f3e 0258 383d
00000120: 5e6e ffbd e484 d03d 6859 26bd 7d04 da3d
00000130: c394 18bd ab0d 8f3d 2aaf aebd cd76 fa3c
00000140: fcf1 fc3d b031 c83c 76e7 bfbd 82c8 70bd
00000150: b878 aa3c 49e8 9a3c 5705 46bc 72e9 83bd
00000160: 540c 4f3d eff9 8a3c d92c 62bd b209 ef3c
00000170: 953f e53d 0bdb 293e 56cd 80bd 5de0 4dbd
00000180: 0b92 d0bd 20c0 5a3d 27b2 633c 6399 d3bb
00000190: 4806 0dbd aa06 033d 8232 183e d3cc 823d
000001a0: d028 bd3d 894f ca3d 9985 253e 2d80 0b3e
000001b0: aca4 9abd 1597 c43d a1f3 5cbd bc7c db38
000001c0: 53b5 93bc 3618 a63b 7a36 103c 2dab ffbd
000001d0: d9a5 3c3e 3e77 963d 6ff5 243e db3a 12be
000001e0: 96a4 a83d ffaa 913d 6862 003e faf0 48bd
000001f0: 1c48 5abc e778 a8bd 4662 bc3b 03b1 8b3c
00000200: d48f 38bd 3975 bc3d 66eb 493d a825 db3d
00000210: 9b7c 3c3c f488 f33d 37d7 22be 8a2b ddbd
00000220: 41b7 cc3d 7f15 1cbe cf8a 173e 668f 6d3d
00000230: 24c0 043e ba36 18bc c110 e5bd c111 adbd
00000240: 8052 bdbd 1027 74bd 9f7e fd3d 2a18 1f3e
00000250: a119 d4bd 84ba 5f3c 45a1 c13c 8744 e43d
00000260: 6661 163e ecdc e63d 15cd 85bd 83fd 99bd
00000270: 171e 8b3c bed6 0c3d 4d68 cf3b b8e1 8dbc
00000280: b0f0 b6bd 2201 403e d5b9 31bd 2469 96bc
00000290: cd41 1e3e 06f1 f73d 5491 b73d 462c f9bc
000002a0: 0ad6 623d 3a42 38bd b53e 213e e088 25ba
000002b0: 0677 fabc 1bce af3d 1486 bcbd 22c4 a43d
000002c0: c96b 133e a030 373d 457d bd3d 721b 2dbd
000002d0: 1481 893d 53af dabc 0860 573d 81b7 90bd
000002e0: 1706 5c3c 9161 643d 30b2 a63c 104f b7bd
000002f0: bb7e 763d f256 e33d 6851 d03d 5ca4 bd3c
0.048308063 -0.042779464 0.12897119 -0.08377222 -0.014727817 -0.012114464 -0.051236447 0.024316
-0.08393083 0.12761477 0.15776505 0.048913978 0.023715062 0.054753162 0.064161465 -0.048710298
-0.090652466 0.16868836 0.0043354123 -0.038783442 0.15461802 0.012230262 0.08309037 0.11495893
0.067075886 0.12047424 -0.105232164 0.08476648 0.09889274 0.0769307 -0.061039895 0.08646218
0.08998533 0.10025077 -0.07814382 -0.04009369 -0.013530207 -0.06601995 -0.07762713 0.067215614
0.17408282 -0.08103093 0.0897523 -0.027428789 0.015453208 0.006433456 0.12842883 0.109575026
-0.13062352 0.15747088 -0.049654983 0.13286313 0.055946603 0.07231869 -0.11382382 -0.03641126
-0.11496515 -0.114304826 -0.09520367 -0.024526106 0.018722653 0.10690373 -0.006693159 0.11306875
0.06537369 0.11691778 -0.0041169333 0.04730225 0.13620806 0.13827164 0.15622182 0.045005806
-0.12472223 0.10181597 -0.04061261 0.10645387 -0.037251245 0.06985029 -0.08529504 0.030574227
0.12350842 0.024437755 -0.093703195 -0.05878497 0.020809516 0.01890959 -0.012086234 -0.064410105
0.050548866 0.01696488 -0.05521855 0.029179428 0.11193768 0.16587465 -0.06289165 -0.050262798
-0.101841055 0.05340588 0.013897455 -0.006457494 -0.03442982 0.031988777 0.14863017 0.06386723
0.092363 0.098784514 0.16164245 0.13623114 -0.0755094 0.09599129 -0.05394328 0.00010465967
-0.018030798 0.005068804 0.008802051 -0.12483821 0.18422641 0.073469624 0.1610925 -0.14280264
0.08234517 0.07112693 0.12537539 -0.04905794 -0.013322856 -0.08226185 0.00574902 0.01705218
-0.04505904 0.09202046 0.04929676 0.10700542 0.011504318 0.11891356 -0.1590241 -0.1079932
0.099958904 -0.15242575 0.14799045 0.057998084 0.12963921 -0.009290392 -0.11184836 -0.08450652
-0.09244251 -0.059607565 0.12377667 0.15536562 -0.10356451 0.013655309 0.02363647 0.11145883
0.14685592 0.11272606 -0.06533257 -0.07519057 0.016982121 0.03438448 0.0063295723 -0.017319545
-0.08932626 0.18750432 -0.043390114 -0.018360682 0.15454789 0.121065184 0.08963266 -0.030416619
0.055379905 -0.044985034 0.15746577 -0.00063146465 -0.030574333 0.085842334 -0.09205261 0.08045222
0.14396586 0.044724107 0.09252409 -0.042262502 0.06714073 -0.02669493 0.052581817 -0.070662506
0.013429186 0.05575711 0.020348638 -0.08950627 0.060179453 0.11100568 0.10171777 0.023149662

lstm.bias_hh_l0 f4 [192]
00000000: 4510 ef3d 9a8e e93c b9fc d2bd 5ce0 9ebd
00000010: 3c81 d6bd f163 323e fb9b 123d a086 d03d
00000020: f0ec cb3d b3a9 cebd 2ae8 973d dc21 263d
00000030: 8ac0 02bd f5cd 90bd f71e 723d 97d7 483e
00000040: 4057 d9bd d27a 5e3e 7070 d9bd c676 04bc
00000050: e2b1 813d 9c88 94bd 1bb6 893d 0744 2c3e
00000060: 3796 b73b de6b ba3d a163 1f3d ad1d b33d
00000070: f512 903d e01f 303e cae9 3bbc 4ff8 4e3c
00000080: 83fc 0f3e b7e0 b4bd 0018 c53d 3d8c 603d
00000090: d5e8 48bb 0491 e03d 62df 3f3e cfba a7bd
000000a0: c1a4 563e d199 98bc 17bf 093d 96dd f03d
000000b0: a7c5 4d3d 375f a33d 913f f33d 71bc 433d
000000c0: 0a69 09be d56f f33b acd8 073e 80c1 f1bd
000000d0: 8af5 c3bd 34c4 66bd 7dbd 0c3e 7b5b 95bd
000000e0: e783 f03d 8669 a5b9 b83d 41bc 8ba6 f03d
000000f0: bde7 a4bd 7c70 ef3d 17de 48bd d1ac 863d
00000100: a60c 18be 1317 b23d b043 2f3b ab61 2a3e
00000110: 1e30 1e3e 0f79 ab3d 08bf dfbd b4ca 133e
00000120: 7369 dd3c 66a1 23bd 64d8 733d 6195 b63d
00000130: 08f2 0cbe 0ec1 723d 1bfa ae3d 9cb5 c13d
00000140: 6e01 b7bd 8c06 053e 51e8 e9bd 2d6c edbd
00000150: e3ca e83d 5741 7fbd f3cf b83d dfef 7cbd
00000160: 9a5c 80bc f20c 403e 1cd7 70bd 5cd8 313e
00000170: 859d 213e 190f 803d 1468 d93d d2e7 92bd
00000180: 6007 db3c 0af8 82bd 2c68 01bc 43b3 04be
00000190: ee1f 9abd f401 d7bc 02b0 aa3d 39ff 6cbd
000001a0: e088 5a3d f6f9 3abd 2baf a33d 54c8 cb3d
000001b0: d695 003d 6738 00be 7278 25ba 1a83 8dbd
000001c0: 0ce4 a6bd 9b5e 09be 3fe6 c7bc 688d 2abe
000001d0: ddb0 303e 4566 d23d e15a 373d deab b73d
000001e0: cdd4 19bd 53b9 703d 01fb 303c 9b3e c33d
000001f0: b285 b93c ef91 08be 0678 91bc 78ef 833c
00000200: 7070 45bd 7283 4cbc c0d0 603b 4ebe 043e
00000210: 3a49 35bd 7484 53bd f160 e7bd a4f5 cbbc
00000220: ae8e bc3d d504 1f3b 9abb 8c3c 0270 73bc
00000230: cbb5 d2bd 26fb 03be 976b fdbd c69c f93d
00000240: a284 d0bc 9b5b 093d ed34 9cbd 6b8f 993c
00000250: 4e61 82bd 158d a13d 67b9 07bd 0289 aabd
00000260: ce76 b23d 4e9e 383d 2658 983d 89ed 0a3e
00000270: 6648 f93d 1b06 a0bd 407f 3cbd 0fde c03c
00000280: 0502 14bd adc0 e9bc 9b7e 9e3d 04e8 273e
00000290: 9943 f23d 654a c73d 9716 07bd b31a e7bc
000002a0: b592 b3bd 7cff d7bc 9b63 72bd 8623 78bc
000002b0: 828e 083e b1e9 003e 02bd 113e ab9f 9b3d
000002c0: b893 943d 3034 143e 035a de3c 737f 103e
000002d0: 92bc e93d 3eca bc3d a717 433e 540f eebc
000002e0: 9e1e 9e3d 8c53 4a3e 4d65 443d 9075 5e3d
000002f0: 6276 233e 9842 a63d 4636 15bb 2e51 c73d
0.11673025 0.02851038 -0.10302109 -0.07757637 -0.10473868 0.17420937 0.035793286 0.10181928
0.099573016 -0.10090961 0.07417329 0.040559635 -0.0319219 -0.07070533 0.05911156 0.19613491
-0.10612345 0.2172654 -0.10617149 -0.008084958 0.063327566 -0.07252619 0.06724187 0.16822825
0.005602624 0.09102605 0.038913373 0.087458946 0.07034866 0.1719966 -0.011469314 0.012632444
0.1406117 -0.088319235 0.09623718 0.05482124 -0.0030656357 0.109651595 0.18737558 -0.08189928
0.20961286 -0.018628033 0.033629503 0.11761014 0.050237324 0.07977145 0.11877359 0.047787134
-0.13418975 0.007429103 0.13266248 -0.11804485 -0.09568317 -0.056339458 0.13744159 -0.07292839
0.117439084 -0.00031549874 -0.0117945 0.117505156 -0.08052013 0.116913766 -0.049039926 0.06575931
-0.14848575 0.08695807 0.0026743226 0.1663882 0.15448043 0.083726995 -0.10925108 0.14432794
0.027027821 -0.039948843 0.059532538 0.089152105 -0.13764203 0.059266143 0.085437976 0.09458467
-0.089358196 0.12990779 -0.11421264 -0.115928985 0.113668226 -0.062318172 0.09024038 -0.061752196
-0.015669156 0.18754938 -0.058798894 0.17367691 0.15782745 0.0625288 0.106155545 -0.071731225
0.026736915 -0.06394966 -0.007898372 -0.12959008 -0.07525621 -0.026246049 0.08334352 -0.057860587
0.05335319 -0.045648538 0.07992395 0.09950319 0.031392895 -0.12521516 -0.0006312198 -0.06909771
-0.08148965 -0.13414995 -0.024401782 -0.16655505 0.17254968 0.102734126 0.044764403 0.08968328
-0.03755646 0.05877049 0.0108020315 0.095334254 0.022646759 -0.13336919 -0.017757427 0.016105399
-0.048202932 -0.012482511 0.0034304112 0.1296322 -0.044259287 -0.05163999 -0.11297787 -0.024897404
0.092069015 0.0024264355 0.0171793 -0.014858248 -0.102885805 -0.12888774 -0.12374037 0.12188105
-0.02545387 0.033534627 -0.07627282 0.018745145 -0.06366216 0.078882374 -0.033135798 -0.083269134
0.087140664 0.045072846 0.07438688 0.13567175 0.12172012 -0.078136645 -0.046019793 0.023543386
-0.03613474 -0.028534258 0.07738992 0.163971 0.118292995 0.097309865 -0.032980528 -0.028210973
-0.087682165 -0.026366942 -0.059177022 -0.015145188 0.13335612 0.12589146 0.14232257 0.075988136
0.072547376 0.14473033 0.02714253 0.14111118 0.1141292 0.09218262 0.19051991 -0.029060043
0.077206835 0.19758433 0.04794817 0.054311335 0.15963128 0.081181705 -0.0022767945 0.09732281

mlp.0.weight f4 [256, 54]
00000000: e9aa c6bd 1998 8c3d 9e66 b2bd ddc8 2bbd
00000010: c80f b2bb 4c91 ca3c e0d1 d73b b958 3e3c
00000020: 0a6d bfbb ee97 eabd 208a 093c 8ccf 42bc
00000030: 6ff0 85bd d81d d53d 89f5 983d eb35 e33d
00000040: a1a6 0bbd de94 4fba d4ae 8d3d 7c0e 5b3d
00000050: f897 06be 3c8c 5d3c 0714 b73c 28ce cf3b
00000060: fa57 b43d fe00 22bd b0b1 563d 998e d5bd
00000070: 3b91 ca3c 4a14 013e b165 9dbd 9292 833d
00000080: 73d4 523d 799a 053e 68e3 b8bd ef51 8bbd
00000090: 7c46 a1bd c5fb a2bd e008 d33d 791a 963c
000000a0: 5c74 553d d507 c0bd 39ba e73c 5b57 61bd
000000b0: bcc0 5ebd 8da9 4f3b fa44 9e3d 54d5 1239
000000c0: 72a4 eb3d ac67 f0bc 8af5 853d ed7c c8bd
000000d0: 8ff1 4a3d 9dcc 473b cd9f 9cbc b7c4 1cbb
000000e0: 2e46 9a3d 63b4 093e 3ad9 f8bd ac21 a1bd
000000f0: cf61 fdbd a152 9abc d60d a5bc 3f2a 0a3e
00000100: 0acd 443c 5448 0fbd 0832 d9bd f852 de3d
00000110: e18b 7ebd 899f 0e3d 0df4 c83d a5cf cf3d
00000120: fb40 a7bd e724 e7bd 4150 9c3d 1124 8a3c
00000130: bcee bb3d 9bae c13c 9378 16bd 0896 7dbd
00000140: 2cf1 00be f2fb 03be 3004 cbbc 3929 87bd
00000150: a7de febb 03ff e1bd a31c aabd 87b0 823d
00000160: 9222 fb3c b076 04be 674e e6bd cbe4 cbbc
00000170: bb78 6d3d 95f1 543d 6be4 6c3d c542 e03c
00000180: 253f 24bd 280e 04bc 9e5f ed3d be29 ccbd
00000190: 003c 903d 2094 e8bc 4340 353d 5e72 06be
000001a0: 300b 203d 875d 19bd 4c59 5ebd f635 7e3d
000001b0: 8860 983d 8cb1 8dbd 932b 6d3d dcec 0f3d
000001c0: 8099 8f3d 2cba 033e ea5c 9cbd 368c 8f3d
000001d0: 420e dabd d663 da3d 396f 513d 26b8 a8bd
000001e0: 9e80 48bd be99 b2bd 5875 593d d854 16bd
000001f0: 60e0 033e e230 a43d c294 423d 3d99 c1bd
00000200: 80d5 b13c a90f 303d f646 703d 00ba bbbd
00000210: 3cb7 00bd 7b86 0cbe f4f8 c2bd 7c83 2d3d
00000220: c908 463d 8335 f4bd 03a0 da3a 28c5 15bc
00000230: 484d fcbd b280 55bd c03c abbd b419 d5bd
00000240: 093f 863d bf1d 63bd b88e e93d d44a ef3c
00000250: d9d4 09bb e30f f53d a333 57bd fced 713d
00000260: f0d5 8f3d 1e4d f3bc 016a d4bb 98c6 393d
00000270: 7960 163e 4fc4 7e3d 0d17 843b 70a9 103d
00000280: da5c 5bbd e0fa 843d 12fd aabd 29d1 e3bd
00000290: 9554 3dbd 53cc 8ebd 1800 86bd f87a f1bd
000002a0: 48b6 20bd f970 b5bd 3e32 693c 2885 be3c
000002b0: f09e 5b3d cc48 9dbd 2635 003e 97de f3bd
000002c0: b099 d9bd bdca 603c b037 cb3d fa0c bfbc
000002d0: c21a 263d 29aa e4bd 506d 8d3d a83f 063e
000002e0: 1d20 9e3b 08ee d53d 59bc b6bd 0de9 013e
000002f0: 05be 003e bdd2 2fbd c506 033e 7178 db3d
00000300: 8e97 5bbd c5a8 aa3d eb0d c03c 3e31 5f3d
00000310: b537 213b f4ad 223c 7a1a 28bd 9073 01be
00000320: 6361 8fbd 830c f9bd d421 d23d 5850 bb3d
00000330: b78a b63d a286 913d cfa6 fdbd 4ade 64bc
00000340: 21b8 553d 399e ea3d 87c2 f8bd 10c5 02bd
00000350: 71f7 f0bc ce0a cc3d 19d0 87bd 56b0 acba
00000360: 32a0 ba3d eb31 80bd 3b03 a03d 581f c5bd
00000370: 9bf3 a4bd 71cc 6ebd 2e2d b73c 51e2 9d3d
00000380: 526c 6e3d f4aa 1ebe 6ac6 fc3d 4a11 b23d
00000390: a07d 3cbd 9139 8d3c 4f2a 05be 22a9 cdbd
000003a0: 91c2 3c3d 1dcb fdbd 4c05 5d3d 990e 1a3d
000003b0: d8d1 503d 68e8 17bd a125 c3bd 0bb7 bfbd
000003c0: e70c d2bd 5919 c13d 14d0 edbd 2f59 b63d
000003d0: 3a14 cd3d cc00 e1bc 7a12 003d 663c 743d
000003e0: 2801 6cbd a2bb fe3d aa88 bd3b fce6 e5bd
000003f0: 5996 b4bc 923b f83d 5e63 f83c d824 663c
-0.09700567 0.06864948 -0.08710979 -0.041939605 -0.00543401 0.024727486 0.0065862983 0.011617833
-0.005841856 -0.114547595 0.008394748 -0.011890303 -0.0654 0.10406083 0.07468707 0.110942684
-0.034094457 -0.0007918606 0.069181114 0.05348061 -0.13143909 0.013522204 0.022348417 0.0063417144
0.08805843 -0.039551727 0.05241555 -0.10427589 0.024727454 0.12605396 -0.07685412 0.064244404
0.05147214 0.13047208 -0.09027749 -0.06802737 -0.07874772 -0.079581775 0.10304427 0.01832317
0.052112922 -0.09376494 0.02828704 -0.05501495 -0.054383025 0.0031686754 0.07728 0.00014003116
0.11505975 -0.02934631 0.065409735 -0.09789453 0.049546774 0.003048695 -0.019119168 -0.0023920962
0.07532917 0.13447718 -0.12150808 -0.078677505 -0.12372171 -0.018838229 -0.020148199 0.13492678
0.012011776 -0.034981087 -0.10605246 0.10855669 -0.062145118 0.034820113 0.09812174 0.10147027
-0.08166691 -0.112863354 0.07632495 0.0168629 0.09176394 0.023642829 -0.036736082 -0.06191066
-0.12592 -0.12889078 -0.02478227 -0.065996595 -0.007778007 -0.11034968 -0.08306243 0.06381326
0.030656133 -0.129359 -0.11245423 -0.02488937 0.057976466 0.051988203 0.057835024 0.027375588
-0.04009928 -0.008060016 0.11590503 -0.09968899 0.07042694 -0.028390944 0.044250738 -0.13129565
0.03907317 -0.03744271 -0.05428438 0.06206318 0.07440287 -0.0691863 0.057902884 0.035137996
0.070117 0.12863988 -0.076349095 0.07009165 -0.10647251 0.106635734 0.05113146 -0.082382485
-0.048950784 -0.0872073 0.053090423 -0.036702007 0.12878561 0.08017136 0.047505148 -0.09453056
0.02170825 0.042983685 0.058661424 -0.09166336 -0.031424746 -0.13723175 -0.0952014 0.04236172
0.048348222 -0.11924269 0.0016679767 -0.009141244 -0.12319428 -0.052124687 -0.083611965 -0.10405293
0.06554992 -0.05544829 0.114041746 0.029210486 -0.0021031408 0.11965921 -0.05253948 0.05906485
0.07023227 -0.029699858 -0.006482363 0.04535541 0.14685239 0.062198933 0.004031068 0.03531784
-0.053555347 0.06493163 -0.083490506 -0.111238785 -0.04622324 -0.069725655 -0.06542987 -0.117910326
-0.039236337 -0.088594384 0.01423317 0.023256853 0.05361837 -0.076799005 0.12520275 -0.1190769
-0.10625017 0.013720212 0.09922731 -0.023321617 0.040552862 -0.11165268 0.06905615 0.1311022
0.0048256055 0.104457915 -0.08922643 0.12686558 0.12572487 -0.042925585 0.12795551 0.10716332
-0.05361133 0.083329715 0.023444137 0.05449032 0.0024599854 0.009929169 -0.041040875 -0.1264174
-0.07000997 -0.121605895 0.102603585 0.09146184 0.089131765 0.07105757 -0.12385332 -0.0139690135
0.052177552 0.1145596 -0.12146478 -0.031926215 -0.029414864 0.09962998 -0.06631488 -0.0013175111
0.09112586 -0.06259521 0.07813116 -0.09625119 -0.080542766 -0.05830044 0.02236041 0.07709182
0.05820877 -0.15494901 0.12342532 0.08694704 -0.046018243 0.017239364 -0.1300442 -0.10042025
0.04608399 -0.123922564 0.05396013 0.037611578 0.050981373 -0.037086874 -0.095286615 -0.093610846
-0.10256367 0.09428663 -0.116119534 0.08903729 0.100136235 -0.0274662 0.03126762 0.059627913
-0.05761829 0.12438132 0.005784114 -0.112256974 -0.022044348 0.12120737 0.03032082 0.01404687

mlp.0.bias f4 [256]
00000000: e343 df3c ac9c 803d 4784 b23d 70d2 373d
00000010: 7978 febd a5a9 bd3d a0e8 eebd 0e00 723d
00000020: a7e4 0a3d 7ec4 bcbd e94b c33d cd72 ea3d
00000030: c9a9 033e a4e0 963d 04f4 dcbd 126f f0bd
00000040: 7152 93bd b2e1 f4bd 2f6c 753d 7466 cfbd
00000050: 385b 033e 192f 0cbe e6d2 3ebd 43e0 a9bd
00000060: 4d9c 9abd 0523 3dbb 3370 b53d 6719 823d
00000070: 542d 003e bbd2 b2bd 02ad f03d 002f 13ba
00000080: ebc5 9bbc c44e 3cbd 6c98 ac3d fcd1 b13d
00000090: 1848 203d 723e cc3d fa38 6cbd 36eb ed3d
000000a0: 4486 1abd 8020 b4bd 75c7 0fbe 671d 9ebd
000000b0: 96ea 2f3d 97f6 893d 7bca 9fbd 5334 9d3b
000000c0: 068b 743d ffb2 a13d e8ec e73d 58f5 cc3c
000000d0: e494 c1ba e436 56bd 8392 533d 67b7 66bd
000000e0: 3c63 ebbd 2ec9 dcbd b648 b0bd 20ef 05be
000000f0: 6af3 ecbd 7526 04bd 9f93 163b 3092 a33d
00000100: 49ea 5ebd cb87 59bd 1729 7fbd cfe3 9ebd
00000110: 3534 423b a264 ff3d 7ac1 e13d 92aa 2bbb
00000120: 2501 dcbd 580f 063c 7bd3 f2bd 25fd afbd
00000130: 4e67 1dbd f343 073d c69d 453d f271 eebb
00000140: a079 07be c228 08be 8eb3 c6bd c90b f33d
00000150: 81c9 d83d eaab f03d 2753 433d 8e45 62bd
00000160: 2360 6bbd 853a c23c 8a00 b4bc e82d 76bd
00000170: f74a c23d 4ea6 06be fba3 d2bd 1146 373d
00000180: 0b4a 933d 9bc1 26bd fad0 fbbd 5dd1 523d
00000190: 79af df3d b48f f43d 3db0 58bd e998 0dbe
000001a0: 0714 50bc f739 d0bd ae42 7abb f202 8a3c
000001b0: 2fad 113d 04df 6cbd f08d b13d 0fb0 d13c
000001c0: d4f2 a93d 4c69 09be 8977 04bd d485 82bd
000001d0: 3059 a23d 8563 e7bb 3ceb 15bd 6c21 c93d
000001e0: 3867 fdbd 6a90 fbbb 6099 983d 8479 b6b9
000001f0: 63e4 a8bd c8e5 9ebb 20ad 6e3c 3d64 01be
00000200: 53ce ae3c 137c 06bd 8842 7c3d 00fc 793b
00000210: a3ce 8abd d713 c43d 3bbb 803d e05e f23d
00000220: 507a ea3c f5e7 ca3c ed02 5a3d d4e4 a13c
00000230: 0a75 d1bd 8f7b b53d 1c55 05bd bd59 e6bd
00000240: bc61 f03d a2bf 02bd f3d8 a0bc 9128 3a3d
00000250: 6306 6d3d 5756 85bd 08cc bcbd 9b7a bebc
00000260: 61ec 34bd c1c3 04bd e660 ce3d 2483 9ebd
00000270: 01f1 92bb 922b 8d3c 7ff6 30bd 5464 66bd
00000280: c78c 6e3d 40dc 2d3d 3e49 ee3c 6476 b23d
00000290: cb71 81bd 4815 103d 275e a5b9 3ea3 13be
000002a0: 8f7d afbd 727a bbbc 79aa 613d efbd 8fbc
000002b0: 881b f3bd d0fc c03d 12b6 b6b9 648a a83d
000002c0: febe 25bc a6a5 23bc bd7c 7e3d 5585 003a
000002d0: 0fa6 c3bc 832c c53d 2fd3 86bc 29a0 a2bd
000002e0: c8ef c13b f5d1 8cbc fef4 a63d 8f56 0dbe
000002f0: 50e9 763d 4395 043e 6618 74bd 6585 823d
00000300: 7921 90bd 7f54 ae3d a4d4 7e3d 5cc2 0d3e
00000310: af6a bf3c ac78 5abd 4e5b 083e c84e 133e
00000320: b71a e7bd 8a9b 8e3d 2957 ad3c f620 c4bb
00000330: 9d98 973d 5bbd de3c 0f89 94bd a32b 05be
00000340: f497 c8bd 0a84 dd3d a851 a93d e235 de3d
00000350: 3953 b6bd 5d20 c23d bfb5 f33d 2db7 803d
00000360: 4ae2 e13d 0d93 d23d 21a4 5f3d 3117 6f3d
00000370: e590 b93c 5781 54bd e424 1b3d 53f2 c4bc
00000380: dcb4 163d 72d9 f1bd 0cb8 02be 3621 3ebd
00000390: 6d12 fd3d 2c16 abbd 514d db3d 95c8 ff3d
000003a0: f89d 76bc 9683 f5bb f766 f4bc bed1 933d
000003b0: b3f3 0dbc b728 d9b9 41eb 7a3d e8fa e6bd
000003c0: 6c59 5fbd 34d8 633c 41b4 17bd 4337 25bd
000003d0: a4b6 03be 9c2e 08be 6a2a b8bb 834f bfbd
000003e0: 2200 f33c 3e98 c8bd 48fd 533d 12c0 42bd
000003f0: 4047 c13d 4a59 813d f63c c03d f128 eebd
0.02725405 0.06279883 0.08716636 0.044878423 -0.12425322 0.09260873 -0.116654634 0.059082083
0.033909466 -0.092171654 0.09535963 0.11447678 0.12857737 0.073670655 -0.1078873 -0.11739935
-0.07193459 -0.119571105 0.059917625 -0.10126963 0.12827766 -0.13689841 -0.046587847 -0.08294728
-0.07549343 -0.0028859985 0.08859291 0.06352501 0.12517291 -0.087316 0.117517486 -0.00056146085
-0.019015273 -0.045973554 0.0842751 0.086826295 0.039131254 0.09972848 -0.057671525 0.116171286
-0.037725702 -0.087952614 -0.1404093 -0.07720452 0.042948328 0.067364864 -0.07802292 0.0047974973
0.059702896 0.07895469 0.11324483 0.025019333 -0.0014769104 -0.05229844 0.051653396 -0.05632725
-0.11493537 -0.107805595 -0.086076185 -0.130795 -0.11569865 -0.032263238 0.0022976173 0.079868674
-0.05442265 -0.053108018 -0.062295046 -0.07758295 0.0029633169 0.12470366 0.11023231 -0.0026194197
-0.10742406 0.008182369 -0.11856743 -0.08593205 -0.038428597 0.033023786 0.048246168 -0.007276767
-0.1322999 -0.13296798 -0.09702216 0.11867482 0.10585309 0.1175154 0.047686722 -0.055242114
-0.05746473 0.023709545 -0.021972913 -0.060102373 0.09486955 -0.13149378 -0.10285183 0.044744555
0.07191857 -0.04071198 -0.122957185 0.051469196 0.10922141 0.11941472 -0.05290245 -0.13827862
-0.012700087 -0.10167306 -0.0038186717 0.016847108 0.03556555 -0.05782987 0.086696506 0.025596647
0.08298269 -0.13419074 -0.03234056 -0.06373182 0.079271674 -0.007061424 -0.03660129 0.09820828
-0.12373203 -0.0076771276 0.07451129 -0.0003480428 -0.08246686 -0.0048491694 0.014567643 -0.12635894
0.021338617 -0.03283317 0.061586887 0.0038144588 -0.06777694 0.09574097 0.062857114 0.11834502
0.028622776 0.024768809 0.053225446 0.019762434 -0.102274016 0.088614576 -0.03255187 -0.11247585
0.11737391 -0.031921037 -0.0196347 0.045448843 0.05786742 -0.06510609 -0.092186034 -0.023251822
-0.04417074 -0.032413248 0.10077076 -0.07739857 -0.0044842963 0.01723269 -0.043203827 -0.056248024
0.058239724 0.042446375 0.029087659 0.087139875 -0.063205324 0.035176545 -0.000315414 -0.1441774
-0.0856887 -0.022885535 0.055094216 -0.017546622 -0.118704855 0.0942322 -0.00034849398 0.08229521
-0.010116337 -0.009988224 0.06213068 0.00049026805 -0.023882894 0.096276306 -0.016458122 -0.079407044
0.0059184767 -0.017189959 0.08152197 -0.1380255 0.060281098 0.12947564 -0.05959358 0.06373099
-0.070376344 0.0851221 0.06221451 0.13843673 0.0233663 -0.053337738 0.1331608 0.14385521
-0.11284392 0.069632605 0.021159725 -0.0059853746 0.074021555 0.027189901 -0.07252704 -0.13004927
-0.09794608 0.108162 0.08267528 0.10850121 -0.08902592 0.09478829 0.118999 0.06284938
0.11029489 0.10281954 0.054599885 0.058371726 0.022652099 -0.05188116 0.03787698 -0.02404133
0.036793575 -0.118090525 -0.12765521 -0.04641839 0.1235703 -0.08353838 0.10708106 0.1248943
-0.015052311 -0.007492493 -0.029834254 0.072177395 -0.008664059 -0.000414198 0.06125951 -0.11278325
-0.05452864 0.013906527 -0.037037138 -0.040335905 -0.1286264 -0.1329903 -0.0056202905 -0.093413375
0.02966315 -0.09794663 0.05175522 -0.047546454 0.09437418 0.06315859 0.093866274 -0.11628903

mlp.2.weight f4 [128, 256]
00000000: 4e7c 673d eaf6 1b3d d860 063d 6d20 8abd
00000010: 6302 31bd 0e6c 6d3d f294 2f3d faba ef3c
00000020: 0cf0 54bc f080 3dbd a73f e43c e2d0 ad3c
00000030: a85d 1a3c 3c0b e83c 18c3 f9bc 0027 393b
00000040: 6b43 37bd 0ff5 073d 93b2 0fbd dc54 1cbd
00000050: 0d23 4f3d 3fcd 61bc 1ea8 aa3c 0741 983c
00000060: 3430 61bd 803c 3bbd b3b5 823d 36f5 00bd
00000070: e561 463d c386 0a3c 793f 82bc 46dc 4b3d
00000080: 7b6b 093d 7026 533c 9952 e4bc ff17 bc3b
00000090: 8d22 b13c 9ffc c0bc 325a 8abb b9a8 8a3d
000000a0: 9a90 98bc 4326 063b a584 9fbc 5f17 79bc
000000b0: 786f 44bd e322 ae3c 63b9 5a3d 791a 88bb
000000c0: 90df 003d a2ff 343d cb11 193b a930 e23b
000000d0: ad77 0c3d 5831 833d d8a3 d53c 9a9f 41bd
000000e0: 0d5a 383d 3174 6f3d b13f 8e3c c62a 06bd
000000f0: 8f90 a1bc 4867 053c e8c2 b9bc a638 9fbc
00000100: 4a94 6aba 1753 373d 1817 e9bc e755 29bd
00000110: 6ea2 5f3d 52df 3d3c 2050 c6bc e4af 12bd
00000120: c400 fe3c 1618 4bbc b8b5 15bd 22f9 3abd
00000130: 9bd9 f9bc b7eb 1d3d b233 15bc 3659 b3bc
00000140: ab6b bc3b f9f6 313d fad8 c1bc e542 7c3d
00000150: 6931 0b3d 8f2b 92bd 18a6 40bc 32a6 bb3d
00000160: 94fb 27bd 8a3f d83c c67f d3bc d8c0 1cbd
00000170: 5af3 cf3c 28dd f23c e8c6 78bd d2f1 33bd
00000180: c0c6 9abc c00b e3bb a097 f1bb b27d 303c
00000190: 6cc9 c4bb de54 a33c eff4 663d 6965 a2bb
000001a0: b0e3 0bbd c3ea 893d 6c3b 733d e10d 33bc
000001b0: cf93 6b3d 3c85 2f3d 4d75 283c b896 753d
000001c0: 4b12 823d 1997 023d 8b71 33bd 5fce c63c
000001d0: 37b8 7c3d d1fc a5bd 3bc7 2dbd c38b 98bb
000001e0: 005a f73a 7179 a2bb e17f c8bc 5d33 ef3c
000001f0: c7ec 5d3d 64c4 62bc 7c40 a73c 96c8 5ebd
00000200: b796 23bc 60a1 4b3c 5598 173d 012b 1b3d
00000210: 34c5 8ebc 4af3 0fbd e4e4 273d 3135 613d
00000220: 88c6 193c c3b5 a03b bb2d 9cbc 376e 743d
00000230: 1faf 71bd 680e 1a3c 297b a3bc caad 093c
00000240: d7d7 18bd 54fc 8a3c 0b04 5a3d 10f4 223d
00000250: 94f7 34bd 6d0d 95bb b18d 1bbd fe46 b6bc
00000260: 10b1 1fbd d303 66bd 80f3 743d 1644 2b3d
00000270: 418c dd39 f06c 823c c214 bdbc 9a5e 1a3d
00000280: 674a 343d 009a 54ba 6bfa 6b3d c24c 8f3c
00000290: 7181 dabc f108 563d 7da7 7a3c f742 063d
000002a0: c218 67bd 865b 9e3c b00c 9eba 1994 67bd
000002b0: d014 613d 27e2 193d 9b51 00bb d90c dd3c
000002c0: e1ac 403d 01e1 94bc a293 9c39 15fd 17bd
000002d0: ef3a 813d d9e4 5b3d 3cce 05bd 464e 173d
000002e0: 3362 4abd 69c5 da3c a6be 7e3d 7369 5bbd
000002f0: 4d1f aabc 764a 2abd d196 353d c5ff 9f3a
00000300: da47 b03c 49a4 463d 5394 9cbc 3f8a f23c
00000310: 8f6e 603d cc13 c43b 2c5a 45bd 011f 3d3c
00000320: 4483 323d c1dc 093d 0e83 513d 08ae c7bc
00000330: e971 353d 9dcc ff3c 103a 8dbd ccba 15bd
00000340: d1af 2c3d 1271 7b3c 4985 473d 9caa 893c
00000350: c725 6a3c 2514 83bd a5b1 493c c2ba 98bb
00000360: b1d9 0f3d 8796 ff3c 6a65 e7bb 4caa 0dbd
00000370: 786e 8fbc fe7a 83bc 62c0 ab3b 34ee 7a3d
00000380: 01e8 bcbc bcb2 453c 5ad5 66bd 4087 223d
00000390: 9581 0e3d 4c2e 933d 7397 65bc 9d4e c9ba
000003a0: f41a dc3c 1c90 043d f2ab 21bd acd6 c43c
000003b0: ba10 afbc f41e 063d 19d3 20bc c23b 66bd
000003c0: 442b 41bd 6873 4fbc 80df 52ba 683e fabc
000003d0: 68c6 22bd d111 5ebc 972d a13c 44cf d7bc
000003e0: dbc7 df3c 3ecb 9ebb 1363 6cbd 30a9 c6ba
000003f0: 9033 34bd 0b5b 10bd 5c48 093d 0051 553b
0.05651503 0.038077272 0.0328072 -0.06744466 -0.043215167 0.057964377 0.042866655 0.029263962
-0.012996685 -0.046265543 0.027862383 0.021217767 0.009421743 0.02832567 -0.030488536 0.0028252006
-0.04474203 0.03319269 -0.03508241 -0.038166866 0.050570536 -0.013781845 0.020832118 0.018585695
-0.05497761 -0.045711994 0.063823126 -0.03148385 0.048433203 0.008454981 -0.015899407 0.049770616
0.033549767 0.012887582 -0.027871417 0.0057401652 0.02162292 -0.02355796 -0.004222178 0.067704625
-0.018623639 0.0020469583 -0.01947243 -0.015203326 -0.047957867 0.02125687 0.053399455 -0.0041535464
0.031463206 0.044189103 0.0023356553 0.0069027734 0.03429382 0.06405896 0.026079103 -0.04727135
0.045007754 0.058460418 0.017364355 -0.032755636 -0.019722251 0.0081423 -0.022675946 -0.019436192
-0.00089484884 0.044756975 -0.028453395 -0.04134169 0.054598264 0.011588888 -0.024208128 -0.035812274
0.031006224 -0.012395879 -0.036550254 -0.045647748 -0.03049927 0.038554873 -0.009106563 -0.021893125
0.0057501397 0.043448422 -0.023663033 0.061587233 0.033982668 -0.071372144 -0.01175835 0.091625586
-0.041011408 0.026397485 -0.025817763 -0.038269848 0.025384594 0.029646471 -0.060736567 -0.04393179
-0.0188936 -0.006928891 -0.0073728114 0.010772156 -0.0060054567 0.019937929 0.05638593 -0.0049559367
-0.034152687 0.0673423 0.05938284 -0.010928602 0.057514008 0.04285167 0.010281873 0.05995819
0.06351145 0.03188238 -0.043809455 0.024268327 0.06169912 -0.081048615 -0.04242633 -0.004655333
0.0018871427 -0.0049583246 -0.02447504 0.029199297 0.054180887 -0.0138407685 0.02041649 -0.054390512
-0.009984664 0.0124286115 0.03701051 0.03788281 -0.017428018 -0.035144128 0.04098977 0.054982368
0.009385712 0.00490448 -0.019064775 0.05967542 -0.0590049 0.009402849 -0.019956188 0.008403251
-0.037315216 0.016966023 0.053226512 0.039783537 -0.04418142 -0.0045487196 -0.037976924 -0.022250649
-0.03898722 -0.05615599 0.059802532 0.04181298 0.00042256902 0.015921086 -0.023081187 0.037687875
0.044016268 -0.0008110106 0.057611864 0.017492656 -0.02667305 0.05225462 0.015298721 0.032778706
-0.056420095 0.019330751 -0.0012058225 -0.05653772 0.05495149 0.03756919 -0.001957989 0.026983665
0.04703987 -0.018173696 0.00029864634 -0.037106592 0.06310069 0.053685043 -0.032667384 0.03693988
-0.049410056 0.02670546 0.062193535 -0.05356736 -0.020766879 -0.041574918 0.044333283 0.0012206963
0.021518636 0.04849652 -0.019113695 0.029606936 0.054792937 0.0059838053 -0.048181698 0.011543036
0.043582216 0.033657793 0.051150374 -0.024374977 0.044298086 0.031225497 -0.0689584 -0.036555097
0.04215986 0.015346782 0.048711095 0.016804986 0.014291233 -0.06400327 0.01231042 -0.004660935
0.035119716 0.031199707 -0.00706165 -0.034586236 -0.01750873 -0.016049858 0.0052414397 0.061262324
-0.023059847 0.012066539 -0.05635581 0.039679766 0.034791548 0.07186565 -0.014013159 -0.0015358512
0.026868321 0.032363996 -0.03947062 0.024028145 -0.02137028 0.032744363 -0.009815955 -0.056209333
-0.047160402 -0.012661792 -0.00080441684 -0.030547336 -0.039739996 -0.013554052 0.01967506 -0.02634395
0.027316978 -0.0048460057 -0.057711672 -0.0015156623 -0.043994486 -0.035243075 0.033516273 0.00325495

mlp.2.bias f4 [128]
00000000: fba7 52bd 42d1 443d 5088 d6bb e0a6 8cbc
00000010: 29a8 b83b 6624 9e3c 5838 26bd 63d0 d3bc
00000020: a8e7 ffba 0041 a1bc 361c 393d 2123 e1bc
00000030: 4c6f c9bc 2565 40bc f802 a03c 1358 973c
00000040: 832d a13c 2b35 52bd c609 c43b 6fbb fa3c
00000050: 18b8 2d3c c154 3d3d 86ec 043d 387a e9bc
00000060: 5d0f 4f3b 7353 89bc 7706 573c e87c cdba
00000070: 5809 1bbd c5ab 703d 400d 693d fcbf 063d
00000080: 8216 83bd 6c3a 023d ec14 52bd cc26 14bd
00000090: 7536 743c 839c 713c ec6a 65bd 434e 81bd
000000a0: 86ec cd3c 1e37 07bd 1250 1cbd b62d 5abd
000000b0: 7094 7dbc 076d 4e3b 83bb 203d 003f 4d3c
000000c0: fb05 303d e098 acbb 3807 e4bc b839 1ebb
000000d0: 7db4 b73b aee8 8f3c fa04 67bc 85da 9a3c
000000e0: 7759 153d beb1 713d 983c 5c3d 5583 3e3d
000000f0: d959 383c 133f 553d 3650 4d3d 0de2 8f3c
00000100: dfc5 adbc 6015 4e3d 5026 f13b 7840 36bc
00000110: 3416 ea3b f859 ebbb 6eac 0f3d 08ac 2e3c
00000120: 182e 7bbd e3fb f8bc 68c3 79bc 9443 21bd
00000130: eead 4dbd e8df f4bc 4c85 07bd 7262 18bd
00000140: acd8 8fba f00b b43c 16bd 98bc b92a a93c
00000150: 16b5 3c3d 2833 743b 58a7 253c 6c96 193d
00000160: 41ca 9c3c b044 48bd 0bbf 073d 8c5d 51bd
00000170: 40ce 54bd 3ad5 533d acbf 62bd 3578 293d
00000180: ab13 a83c 906e dd3c d1d1 e93c 19fe 323d
00000190: 48cc 173d d83a 373c b7e6 2d3c ac47 163d
000001a0: ba84 a53c 9aca 473d e0ab a53b 2d9e f0bc
000001b0: 9b95 38bd 7814 8ebd 166d 36bb e7f5 f83b
000001c0: b554 12bc b349 d1bc 9c57 c43c ec2c 69bd
000001d0: 80b0 40ba e266 bc3c 8495 c8bc 5b31 323d
000001e0: 7209 d0bc 56ed 0a3c 109a 62bd d0d1 31bd
000001f0: c7fa 17bb e339 2e3d 0917 783c d76c 09bd
-0.05142973 0.048051126 -0.0065470114 -0.017169416 0.0056352806 0.019304466 -0.040581077 -0.025856202
-0.0019523995 -0.019684315 0.04519292 -0.027482571 -0.024589203 -0.011742865 0.019532666 0.018474614
0.019675022 -0.051320236 0.0059826104 0.030606953 0.010602973 0.046223406 0.03245213 -0.028500661
0.003159485 -0.016763425 0.0131241 -0.0015677484 -0.037850708 0.058757562 0.0568974 0.032897934
-0.064007774 0.031793997 -0.051289484 -0.036169812 0.014905562 0.014746788 -0.05601017 -0.06313755
0.025137197 -0.03301155 -0.0381623 -0.05326625 -0.015477285 0.003149809 0.039241325 0.012527227
0.042974453 -0.0052672476 -0.027835473 -0.002414329 0.0056062327 0.017567005 -0.014100308 0.018903026
0.036462273 0.0590074 0.053768724 0.046511967 0.01125189 0.052062105 0.050125323 0.017563844
-0.021212516 0.050313354 0.0073593035 -0.011123769 0.00714376 -0.007182356 0.03507655 0.010661133
-0.061323255 -0.030393546 -0.015244342 -0.03937109 -0.0502147 -0.029891923 -0.033086106 -0.03720326
-0.0010974607 0.021978348 -0.01864485 0.020650255 0.046071135 0.0037261937 0.010110699 0.03749697
0.01913941 -0.04889363 0.033141177 -0.051114604 -0.051954508 0.05171702 -0.055358574 0.041374404
0.02051719 0.02703026 0.028542431 0.043699358 0.037060052 0.011183463 0.010614089 0.036689445
0.02020489 0.0487772 0.0050558895 -0.0293723 -0.04506455 -0.06937498 -0.0027836016 0.007597673
-0.008931329 -0.025547838 0.023967557 -0.056927606 -0.00073505193 0.022998277 -0.024485357 0.0435041
-0.025395129 0.008479437 -0.055322707 -0.043412983 -0.0023190246 0.042535674 0.015142211 -0.033551063
