weights2/ep_3830.pth (torch, 275655 bytes, 10 tensors)

lstm.weight_ih_l0 f4 [192, 7]
00000000: fd0a 83bc 3484 b53d f965 1f3e 3e2f 3b3d
00000010: 390f 593d 75d5 143e d932 303e d25e 193e
00000020: 9697 41be 6cb2 113e 75f6 adbd 8f10 c1bd
00000030: 7656 9c3c 3c62 993c 2da3 853d 88ba 9a3d
00000040: ce0b 13bd c594 7bbd f45b 73bd d5ac 1e3e
00000050: 273e 403d d89b 2b3e dadf cb3d 381e 073e
00000060: 28cb f43c eecc 23be 985c 4f3d 2474 dabd
00000070: 75fd a5bd f49a fd3d 4b0f 243e e0c5 433c
00000080: d163 e0bc fa65 053e 80bf b5bd ae21 e73c
00000090: b68d 56bc 8eb4 b13d 8f98 0c3e a415 77bc
000000a0: a288 1d3e a257 8ebc c7e1 d93d c294 bfbd
000000b0: 89cc b63c e771 343d 71c6 ae3c 23e4 9c3d
000000c0: 0304 0a3e 37ff 4abc 8b93 cabd f087 853c
000000d0: 505a 09bd ab14 113e b818 453e e5e6 143e
000000e0: e5c6 3d3c ac2e 283d eaa6 bcbc 386d 863d
000000f0: 0792 84bd a395 333e c386 63bd 848a f4bd
00000100: 827f 1bbe 839b 863d 990c cb3c 55fa ccbd
00000110: e5a8 06be 4ab7 e13d 9c14 00be 1280 bc3d
00000120: ed66 623c 1f66 333d 7bd4 f6ba e359 9dbd
00000130: efd2 50bd 7db8 fc3d c640 a0bc 4e48 1b3d
00000140: c7ca 94bd e04b 143e 5a73 debc 35f4 863d
00000150: 2590 23bb f597 ecbd cfb1 32be 4074 d7bd
00000160: 95b0 7bbd fe74 06bd 083a 003e 91ff 493e
00000170: 2e4c 213d 6b9a ffbb 4f92 653b 54c0 3e3d
00000180: b0fc 98bd 5f95 3e3e 3787 5a3d cfca 8abd
00000190: ca5a bc3c 99fa ffbd ccad c7bc cf31 613c
000001a0: 2f4a 0a3e 3a7e 033e 1802 96bc f19b d03d
000001b0: afe6 60bc d9a3 2c3e 9baa 863b 0f7d 413e
000001c0: 0036 0f3e 7a6b e7bd 17d0 953d 3eff 03be
000001d0: 62b5 f63d e7cb 443d 2059 76bd da07 9f3b
000001e0: 95ac d7bd 1e94 e03c df4c 223b b2d5 453d
000001f0: cd5f d43b d821 113e 576a b53d b884 2fbe
00000200: 447a 2d3d 5db1 27be 0c2a c7bd fd0e c7bd
00000210: d70e d63c 1f50 a83d 55ee f1bc 5e86 e73b
00000220: a04c abbd fc86 2f3c 65da 5cbb e34e 973d
00000230: 6918 dd3c 741c 1abe 8487 a93d 25ea dd3d
00000240: 3960 9cbd b1a4 2c3e bbf6 163e 8824 0dbe
00000250: 78d8 8c3c 175e 5abd 4682 f7bc ebe3 01bd
00000260: d048 b1bd b509 373d c891 cf3d 9af8 ddbd
00000270: fb43 ee3b 0d6f 423d 16bc 32bb 7bf6 d33c
00000280: 68ba 893d 1743 4e3d 2413 fdbd 3deb 243e
00000290: 2457 903d e8b4 2c3e d69e 303e de9d 033e
000002a0: f4ea d73c 67be 043e 5daa edbc 7695 0dbe
000002b0: 01a9 03be 927e 2d3d ffaa 7a3c b335 633d
000002c0: aa40 173e 94e1 cfbb cd4b e2bc c1ca 5dbd
000002d0: a37d 0dbd b78a 86bd 0b62 1d3e a870 463e
000002e0: 5b59 7b3d a9b7 b4bc 912c 23bd 45ae 49bd
000002f0: 7b07 823d b77b f3bd 7302 2cbe 1b6e ea3d
00000300: 6a8b 01bd b61b 103e 85d6 d63d ff1e ef3d
00000310: ab71 9e3c 40e6 4a3d a28d 253e 1562 013e
00000320: 0ba8 0f3c f979 db3c 311a 113e 0828 05be
00000330: da62 c43d 9f22 f23b 1df4 f7bc bc95 333d
00000340: 1770 26bc 1072 41ba e06f b2bd 893a 833d
00000350: 56a0 123c c527 83bd ceb1 bdbd ed18 883d
00000360: d438 393e dfe4 ccbc 6738 ad3c 92d9 4e3d
00000370: ea9d 32bd b510 c13c 850b 5a3d eca7 693d
00000380: 4ead bdbd 6b6a ecbd ead4 213d 1678 e73d
00000390: 1e7b dd3d e948 1abe 1f59 4ebd 96be b8bd
000003a0: d552 a8bd b063 0d3e ab17 a93c 09c5 473d
000003b0: ce6f babd cc18 083e 89ba 523d bca3 dabd
000003c0: 7d64 1fbd 870c 72bd 7287 bebc 4f1f c43d
000003d0: 8ea2 113d 4816 c43d 61e1 ac3d 8083 c93d
000003e0: 412a 53bd 5927 a33d a04c 03be 76b0 c0bd
000003f0: d133 4fbc 5759 e1bd 510b 143e af62 abbd
-0.01599645 0.08863106 0.15566243 0.04569935 0.052993033 0.14534552 0.17206897 0.14977577
-0.18905482 0.14228219 -0.084942736 -0.094269864 0.019084197 0.0187236 0.06525264 0.07555109
-0.03589993 -0.061421175 -0.059413865 0.15495618 0.046934273 0.16758668 0.09954806 0.13195121
0.029882029 -0.15996143 0.050625414 -0.10666683 -0.08104984 0.123830706 0.16021459 0.011949033
-0.027391346 0.13027182 -0.08874416 0.028214302 -0.01309531 0.08677016 0.13730071 -0.015080843
0.15384153 -0.017375771 0.10638767 -0.09354545 0.022314327 0.04405394 0.021334859 0.07660701
0.13478093 -0.0123899495 -0.09891423 0.016300172 -0.033533394 0.1416804 0.1924771 0.14541204
0.011583065 0.041060135 -0.02302881 0.065638006 -0.06473165 0.1753755 -0.05554844 -0.11940482
-0.15185359 0.0657263 0.02478628 -0.100086845 -0.13150366 0.11021288 -0.12507862 0.09204115
0.013818485 0.043798562 -0.0018831635 -0.0768316 -0.050982412 0.12339876 -0.019562136 0.037910752
-0.07265239 0.14482069 -0.027154613 0.065895475 -0.0024957743 -0.11552421 -0.17450641 -0.1052022
-0.0614477 -0.032826416 0.12522137 0.19726397 0.03937929 -0.0078003905 0.0035029834 0.046570137
-0.07470071 0.18611668 0.053351607 -0.06776964 0.02299251 -0.124989696 -0.024374865 0.013744785
0.13504861 0.1284112 -0.018311545 0.101859935 -0.013726874 0.16859378 0.004109693 0.18895362
0.13985443 -0.112997964 0.073150806 -0.12890336 0.12046315 0.04804602 -0.06014359 0.004853231
-0.10530964 0.027414378 0.0024765057 0.0482995 0.006481147 0.14173067 0.08858173 -0.17140472
0.04235293 -0.16376252 -0.09724817 -0.09719656 0.026130123 0.08218407 -0.02953259 0.0070655784
-0.083642244 0.010713335 -0.003369951 0.07388093 0.026989179 -0.15049917 0.08277801 0.10835675
-0.076355405 0.168597 0.14742558 -0.13783467 0.017193064 -0.053312387 -0.030213486 -0.0317115
-0.08656466 0.04468699 0.101352274 -0.108384326 0.0072712875 0.047469188 -0.0027272752 0.025874367
0.06725007 0.05035695 -0.123571664 0.16105361 0.07047871 0.16865885 0.17248091 0.1285319
0.026357152 0.12963258 -0.0290119 -0.13826546 -0.12857439 0.042357035 0.015299558 0.055471133
0.14770761 -0.0063440297 -0.027624035 -0.05414844 -0.034543645 -0.065694265 0.15369432 0.19378912
0.061364513 -0.022060232 -0.039837424 -0.049238462 0.06349083 -0.11888831 -0.1679781 0.11446782
-0.031627096 0.14073071 0.10490135 0.11675834 0.01934131 0.04953599 0.1616731 0.12635072
0.008768092 0.02679156 0.14170147 -0.13003552 0.09589167 0.007389381 -0.03026777 0.04384397
-0.01015856 -0.00073793624 -0.08712745 0.06407649 0.00894936 -0.0640407 -0.09262429 0.06645379
0.18088084 -0.025011478 0.021145059 0.05050046 -0.04360763 0.023567537 0.053233642 0.05704491
-0.09261571 -0.11543735 0.03950969 0.113022014 0.10814498 -0.15066876 -0.05037796 -0.090207264
-0.08218924 0.13807559 0.020641169 0.04877189 -0.09103356 0.1329071 0.051447425 -0.10675761
-0.038914192 -0.05909398 -0.023257945 0.09576284 0.035555415 0.09574562 0.08441425 0.09839535
-0.05155397 0.07966489 -0.12822199 -0.09408657 -0.012646631 -0.11003368 0.14457442 -0.08368432

lstm.weight_hh_l0 f4 [192, 48]
00000000: 9be1 08bd 3178 18be abdf a1bc 8b45 f7bd
00000010: 9f40 e3ba 69c3 abbd 1204 babd caca 403d
00000020: 707b 66bd 1035 603d 30c2 61be 6baa 2cbe
00000030: d71d e7bc 23b0 9b3d 867b 79bb 861a a1bd
00000040: 995c 07bd ee9c 503e dddd 503d 3a32 68bc
00000050: 7ebc 2d3e 29ab aa3d cd6a 06be 4de0 29bd
00000060: 12c1 74bd 3894 563d a3ca 283d 5281 123e
00000070: 66cf 273d 5c98 0fbd 7c66 95bd fa92 a73c
00000080: 99bf edbd cc5b 40be d172 6a3d 993e acbd
00000090: eef1 aebc 3116 063e 8285 0cbd a570 9dbc
000000a0: 7868 053c 4171 b63d 6f9b b8bc 9e13 80bd
000000b0: b764 243c beb7 99bc 8402 0dbe a4ba 09be
000000c0: a938 b5bd 9c30 6fbd 83cb df3d 2ff2 7b3d
000000d0: b872 9c3d 2b4b 003e 0ffd 1a3e c9fe d1bd
000000e0: c3c7 d2ba 2f58 e93c 44b6 3fbe e43a 1bbe
000000f0: cf4c da3d 408e 223e 1315 f53d ab03 ffbd
00000100: 0a53 85bd dff7 c23c 7339 2d3e 2b1e dbba
00000110: d5ac 5abd dc18 a1bc b045 5bbe e43d 0b3e
00000120: b50a 133e faf8 ba3d 2ef8 e23d a8d0 413e
00000130: 1662 d63d f02e 823d f1d1 d43d 85db b13d
00000140: 70ae a9bd e26c 3dbe 9bfa 36bc 9203 313d
00000150: 5eac e43d e01c 3fbd e84c 2fbd dc69 83bd
00000160: 465d e7bd 6453 12bd 665b aebd fe17 b33d
00000170: 9ffe 213d b438 c03d 7ebc dd3d 1051 b6bd
00000180: 7f0b 3c3c 159c 20be 4f9f 36bc 0c88 d2bd
00000190: 324c 393d a282 423d 529e de3d ab88 d53c
000001a0: 9979 12bd 4d62 8abc f1c6 ccbd 5e07 bcbd
000001b0: 7e47 003d 3c92 813c 5a34 4bbd 4848 d3bc
000001c0: 3aa0 4e3d 048d 383e c4f6 0d3e b66b 6abd
000001d0: d6ac 01bd d3fb ecbd 8e55 26bd 0c21 3f3e
000001e0: ab1e 093d d24d 933c 7988 38be 9717 423d
000001f0: fcde 123c c373 08bd 9d43 88bd b66d ef3d
00000200: a325 f83c 6415 aabd 4b86 b63d 3600 d73d
00000210: 1cc4 f43d f67f b4bd 807d 363e 80eb 83bd
00000220: f0c1 1bbe 6a2f a33d eb46 90bd 3d7a 053e
00000230: 3eba 31be 621d 3a3d 0b0f 6dbd edb1 03be
00000240: de40 91bd 57e5 6abc c4ef c5bd 5ac1 36bd
00000250: b36b ccbc 7188 cd3d 750c 0bbd 404b 8dbd
00000260: e7e9 bc3c c365 53bd 4a45 2c3d 744d 88bd
00000270: a1cb d83d 6949 113d bde2 413d c6cb 043e
00000280: dc0b e23d d73b 0d3e aec0 29bb 4bf3 80bc
00000290: fd02 ecbc 2b0c a33d 383a dabd 24d1 f43d
000002a0: 96d5 4b3e 3a2b eabc 164a dbbd c0b2 7a3d
000002b0: df91 813c b5a7 623c 8da8 a9bc 73a1 bebb
000002c0: cf3d 993c d992 19bd ad4c bebd abb6 d13d
000002d0: 9214 61bd b157 8bbb f27b dfbd c4cc 403d
000002e0: f490 29be cdf6 513e 0861 cabc 23a4 db3d
000002f0: 9a0e 13bd c170 8bbd d7ef 1abe 7951 e13d
00000300: b729 30be 6a18 8b3d 8e6e 973d ef12 843b
00000310: 02b3 0a3e cec2 1a3e 051a 2e3e f8ea 1abe
00000320: 750d 3bbc 970d ef3d 089b 61bb 96cf 8dbc
00000330: 004b baba c150 323d da1a 12bd 48c4 64bd
00000340: 509e 663c 9cc8 b83d 2a1d d9bc a75c 49bd
00000350: f6a7 413c d3c8 873b 0519 23be 8e37 a9bc
00000360: 286f edbc 17cc 0a3e 1967 04be 2aca 1a3d
00000370: 0689 8a3b c7c8 2c3e c0b5 343e 8c90 a5bd
00000380: c68e 51be 31a6 21be f859 303d 1613 063e
00000390: 3cf0 273e 1f1e 033e eb35 373e 32bf 873d
000003a0: e5b6 c9bd 637f da3d 7532 a0bb 41ec 6ebd
000003b0: 3103 98bd 06ae 2dbb ff69 463d 5783 03bd
000003c0: 4355 27be a025 68bd 9df0 d9bd 76d6 a3bd
000003d0: 9814 fb3d fc50 c13d 8693 243e 106e ea3c
000003e0: 458c 0f3e d490 9a3d 296d 00be 1c65 17be
000003f0: 5469 903d 7596 31bd 0b46 0a3c ae26 84bd
-0.03341828 -0.148896 -0.019759974 -0.12073811 -0.0017337984 -0.08386881 -0.090828076 0.047068395
-0.056270063 0.054738104 -0.22046733 -0.16861884 -0.028212471 0.07601955 -0.003806801 -0.07866387
-0.033047292 0.20372364 0.050992835 -0.014172131 0.16966435 0.083334275 -0.13126679 -0.041473676
-0.05975444 0.052387446 0.041208874 0.14307144 0.040969275 -0.03505741 -0.07294938 0.020455826
-0.1160881 -0.18785018 0.057238404 -0.08410377 -0.021355595 0.13094403 -0.03430701 -0.019218752
0.008142583 0.0890832 -0.022535054 -0.06253742 0.010033778 -0.018764373 -0.13770491 -0.13450104
-0.08848698 -0.058395967 0.10927489 0.06151026 0.07639068 0.12528674 0.15135597 -0.102536745
-0.0016081262 0.028484432 -0.18721873 -0.15159184 0.10659181 0.15874577 0.1196691 -0.124518715
-0.06509979 0.023799835 0.16916446 -0.0016717365 -0.05338748 -0.019665174 -0.21413302 0.13597828
0.14359553 0.0912952 0.11082493 0.18927252 0.10467927 0.06356609 0.10391606 0.08684448
-0.082852244 -0.18498567 -0.011168147 0.043216296 0.11165689 -0.046658397 -0.042797953 -0.064166754
-0.11297087 -0.03572406 -0.085135266 0.087448105 0.039549466 0.09385815 0.10826968 -0.0890218
0.01147735 -0.1568454 -0.011146381 -0.10279855 0.04523868 0.047487862 0.10870041 0.026066145
-0.035760496 -0.016892577 -0.099988826 -0.09181093 0.03131818 0.0158168 -0.049610473 -0.025791302
0.050445773 0.18022543 0.13863665 -0.057231627 -0.03165897 -0.11571469 -0.040608935 0.1866495
0.033476513 0.017981444 -0.1802081 0.04738578 0.008964296 -0.033313524 -0.06653521 0.116908476
0.030291384 -0.08304861 0.08912333 0.10498087 0.119514674 -0.08813469 0.17821312 -0.064414024
-0.152107 0.07968028 -0.070447765 0.13034911 -0.17356202 0.045438178 -0.057875674 -0.12860842
-0.070924506 -0.014336905 -0.09664872 -0.04461799 -0.024953699 0.1003579 -0.033947427 -0.068991184
0.023060752 -0.05161072 0.042058267 -0.06655398 0.10585714 0.0354704 0.047335375 0.12968358
0.11037418 0.13792358 -0.00259022 -0.015741011 -0.028810019 0.07961305 -0.106556356 0.11953953
0.19905695 -0.028585065 -0.1070749 0.061205626 0.015816627 0.01383393 -0.020710254 -0.005817586
0.01870623 -0.03749356 -0.092919685 0.10239919 -0.054951258 -0.004252397 -0.109123126 0.04707028
-0.16559201 0.20504303 -0.024704471 0.10724666 -0.035902597 -0.068086155 -0.15130554 0.11001868
-0.17203413 0.06791766 0.073941335 0.0040305774 0.13544849 0.15113375 0.17002113 -0.15128696
-0.011416783 0.11672514 -0.0034424681 -0.017310899 -0.0014213026 0.043534044 -0.03567014 -0.05585125
0.014075831 0.09022638 -0.026503164 -0.049160626 0.01181983 0.004143813 -0.15927513 -0.020656373
-0.028983667 0.13554417 -0.12929954 0.037790455 0.0042277602 0.16873465 0.17647457 -0.08084211
-0.2046462 -0.15786053 0.04305455 0.13093218 0.16400236 0.12804459 0.17891662 0.066282645
-0.098493375 0.10668828 -0.0048888274 -0.058330778 -0.07422484 -0.002650143 0.04844093 -0.032107677
-0.16341119 -0.056676507 -0.106415965 -0.079998896 0.12259787 0.09439275 0.160719 0.028616935
0.14018352 0.07547155 -0.12541641 -0.14784664 0.0705134 -0.043356378 0.008439551 -0.0645269

lstm.bias_ih_l0 f4 [192]
00000000: 9a5f 823d 126d 87bd 7939 063e 415e e2bd
00000010: 8a8c 34bc d5be 113a 0358 25bd 3a24 303d
00000020: b369 acbd 2801 f83d 6cc9 223e 5694 653d
00000030: 6c7d dc3c 2a35 603d 306a 9c3d 60ef 40bc
00000040: e91d 93bd 4f0d 2f3e ba68 973c d0f3 0bbd
00000050: cf3a 273e b519 d03c 595d c03d e3bc 1a3e
00000060: a2c3 303d c73d c33d 6219 d1bd 2d7c 9d3d
00000070: 254b 003e ebdd a93d c9b4 7cbd 4f93 c83d
00000080: 97d1 bd3d c849 c33d 3ebb 8cbd 07a4 02bd
00000090: bc51 83bc 17f6 4ebd 15f9 8dbd 06de 9b3d
000000a0: 6b14 5c3e e884 d0bd c422 cc3d 5250 013a
000000b0: 2914 873c 1a63 33bb 96f5 0b3e d8fe e33d
000000c0: 2e53 fcbd 4c50 153e baea 33bd 324b df3d
000000d0: 43a9 823d 8f51 873d 9f4c c6bd 8fab 5cbc
000000e0: 3d56 e9bd 79a9 e4bd 4f25 aebd e4c2 babc
000000f0: e64a d93c 2f26 c83d 8e02 fdba f907 e43d
00000100: 9459 883d 2a3e e93d aad8 d03b c9dd 293d
00000110: a956 183e 60cd 213e 8189 223e 4c61 bc3d
00000120: c0d8 16be 7a0b b83d 7cfc c3bc 86e0 cd3d
00000130: 7d1d 09bd 261e b23d 17c7 a2bd 3540 493d
00000140: ccda 0c3e 7450 9b3c 6fba c4bd ed14 42bd
00000150: 3fd1 973c 5feb 043d 3fb1 9ebb db9d 68bd
00000160: 81a5 d23d a3d4 203c af7c 41bd 475a 893d
00000170: 3542 e13d 1861 183e fdea 40bd daf5 3ebd
00000180: 22d5 c9bd 42aa 693d 9058 2d3c bfa5 bebb
00000190: aa87 0ebd 4726 033d e954 303e d43f 7a3d
000001a0: 49cf aa3d bb1d d43d b70f 1e3e 7080 103e
000001b0: 99a0 babd ae07 bb3d 5383 3bbd c35f e6bc
000001c0: 56c2 c3bc b967 a53b 1e32 6e3b edd9 03be
000001d0: b215 4b3e 502b c13d fc36 293e 151d 18be
000001e0: 5f72 ad3d 1d76 ae3d a132 023e dd44 61bd
000001f0: becb 17bc 7160 b1bd 2160 4abb 17ef 083d
00000200: e2eb 69bd 2a54 b93d d617 513d f733 ff3d
00000210: 6111 0d3c 2147 ee3d c88c 23be 3b8d d6bd
00000220: 99b2 dc3d 25f0 1abe d438 193e 89f2 833d
00000230: eec5 043e b6eb 80bc 2242 06be 7028 b5bd
00000240: ff00 b0bd 8a6b 66bd a662 053e f38b 083e
00000250: ee76 c7bd 06f9 0a3d ad82 1f3d 09f6 053e
00000260: 8a03 293e e80a f53d 4266 3bbd ea5d b8bd
00000270: 9738 8c3c 2ebc b73c 1d0a 8e3c 1a9e bf3b
00000280: 4a05 9abd 80f2 3f3e 9289 f6bc 614e 58bc
00000290: adcf 293e 5eb0 1a3e 5e95 ce3d 2bc8 513a
000002a0: 19a1 2d3d 33cb 85bd 663c 233e d3f8 513c
000002b0: f2b6 3bbc 42a7 cf3d bf77 c6bd 0170 c43d
000002c0: f682 2e3e 9bd9 543d b2f2 de3d 8caf eabc
000002d0: cbc2 9a3d 84c3 22bc 77b7 7e3d 876b 5ebd
000002e0: 96ec 623d d9a9 413d a5e3 013d 47d3 73bd
000002f0: f44e 4e3d 261b eb3d f6b3 e93d 2d27 eb3c
0.06365891 -0.066126004 0.13107862 -0.11053134 -0.011019835 0.0005559747 -0.040367138 0.0430033
-0.08418598 0.121095955 0.15897149 0.056049667 0.026915275 0.0547382 0.07637441 -0.011775821
-0.07183439 0.1709492 0.018482555 -0.034168065 0.16331027 0.025402883 0.09392805 0.15111117
0.04315532 0.095332675 -0.102099195 0.076897 0.12528665 0.082942806 -0.061695848 0.09793722
0.09268492 0.09535557 -0.06871651 -0.03189471 -0.016030185 -0.05052766 -0.06932274 0.07610707
0.21492164 -0.101816 0.099675685 0.0004932928 0.016489105 -0.0027372302 0.13667902 0.11132592
-0.12320553 0.14581412 -0.043925025 0.10903014 0.0637994 0.06607353 -0.09682583 -0.013468637
-0.11393402 -0.11165137 -0.0850321 -0.02279801 0.026524972 0.09772908 -0.001930313 0.11134333
0.06657711 0.1138881 0.0063734846 0.041471276 0.14876808 0.15801 0.15872766 0.091982454
-0.14731121 0.08986564 -0.023924105 0.1005259 -0.033475388 0.086971566 -0.079481296 0.0491335
0.1375534 0.018959261 -0.09605872 -0.047383238 0.018532394 0.03245103 -0.0048429067 -0.056791168
0.102854736 0.009816322 -0.04723805 0.06706672 0.10998956 0.14880788 -0.047099102 -0.04662118
-0.09855105 0.057047136 0.010580197 -0.0058180983 -0.034797348 0.032018926 0.1721989 0.061096027
0.08340318 0.10357233 0.15435682 0.14111495 -0.09112663 0.09132324 -0.045779537 -0.028121835
-0.023896378 0.005047765 0.003634579 -0.12876101 0.19832495 0.09432089 0.16524881 -0.14854844
0.0846908 0.08518622 0.12714626 -0.054997314 -0.0092648845 -0.08660973 -0.0030880051 0.03343114
-0.05710972 0.09049256 0.051048122 0.124610834 0.0086101005 0.116346605 -0.15971673 -0.10476156
0.10776252 -0.1513067 0.14963084 0.06442744 0.12966129 -0.015737396 -0.13111165 -0.088456035
-0.0859394 -0.0562549 0.13025913 0.13334636 -0.09739481 0.033928894 0.03894298 0.13082136
0.16505256 0.11964971 -0.045751818 -0.09002288 0.017116828 0.022428598 0.017338807 0.0058477046
-0.0752054 0.1874485 -0.030094896 -0.013202281 0.16583128 0.15106341 0.10087083 0.00080025446
0.042389963 -0.06532898 0.15941009 0.012815672 -0.011457192 0.10139324 -0.096908085 0.095916755
0.17042145 0.051965337 0.10886134 -0.02864816 0.07556685 -0.00993431 0.062186684 -0.054301765
0.055401407 0.04728112 0.03171124 -0.05952766 0.050368264 0.114797875 0.11411278 0.028705204

lstm.bias_hh_l0 f4 [192]
00000000: 1d40 073e e437 a93b efac cebd d7ad d5bd
00000010: 3be9 cebd c05d 3f3e 4721 3f3d 83cb f63d
00000020: 2a67 cb3d 5903 dcbd 7360 9a3d 2c5c 433d
00000030: 384a ebbc f4d5 90bd 8c12 923d 8ca9 6e3e
00000040: 28cd b2bd 7dcb 603e 2777 bcbd 465e 63bb
00000050: e97e 933d 3a1d 73bd 29e8 9f3d 2149 513e
00000060: cb0f 96bc 70ee 863d 7d38 2c3d cfff a23d
00000070: fd20 c63d 2448 363e 81a8 46bc 247d c53c
00000080: 1fc0 123e 35e7 bebd a066 d83d b010 813d
00000090: 6f60 b6bb da25 003e a260 483e 2085 95bd
000000a0: 283b 803e c76f 21bd c864 323d 6306 153e
000000b0: b703 523d 3897 903d 5a12 023e a8e8 4a3d
000000c0: 7ed0 01be 8580 8abb 39b6 0d3e 3f48 11be
000000d0: 4ae0 b3bd 232c 80bd 6a25 1e3e b9bd 4cbd
000000e0: 83a0 f23d a834 193b 3ba0 d4ba fb2f f43d
000000f0: 11ed 94bd 53a6 dc3d eb5b 35bd 3824 833d
00000100: 54d1 16be a7e2 ab3d c5b0 573c 3469 243e
00000110: a70c 2b3e c4e5 d33d a19c dabd 33e5 433e
00000120: 4a6e 913b 8894 54bd 041a 9c3d 6a71 aa3d
00000130: 5414 09be 0d71 9c3d 2fe2 ba3d 09b8 e73d
00000140: 493d 9abd 03d5 fe3d 48bb eebd 7012 d6bd
00000150: 4621 e43d 0fca 47bd 43a5 c73d 75ba 5dbd
00000160: 9610 163d bfba 383e f326 50bd a8a4 583e
00000170: ae9e 1f3e 2e37 3a3d 24c0 f93d 7372 8bbd
00000180: 16fb f53c 2d06 77bd b1c1 37bc e60b 04be
00000190: c5e0 9abd 61c2 d6bc b3f4 da3d 7f59 78bd
000001a0: 1cd6 353d 455d 27bd 15c2 943d 2fc8 d53d
000001b0: 2c3b 813c 2200 05be 29d2 f63b 1f52 c7bd
000001c0: 3ce7 b2bd f463 09be 5f3b f2bc c291 2ebe
000001d0: b620 3f3e 561a fd3d 1861 483d ece6 ab3d
000001e0: 4a39 10bd 6b27 953d 01fd 4d3c 8a14 b73d
000001f0: 01c4 da3c b705 0dbe a9dc d9bc 4d0e 053d
00000200: 7ecc 76bd 078e 65bc 4bcc a93b 94c5 163e
00000210: 9723 41bd 6607 5ebd 9dcb e8bd a07c b1bc
00000220: 068a cc3d 174e 683b 8d2a 9a3c c418 0abc
00000230: 33aa d2bd fd94 0abe 6a6f 12be 1886 f13d
00000240: 403f 9bbc 8717 173d 57ee 8ebd 1597 56bb
00000250: db7c 6bbd 0312 cb3d 160e 92bc 68e1 82bd
00000260: 02bb d73d 56f9 543d 3172 c03d 467a f73d
00000270: 4a8f f93d 7582 b8bd 1867 0fbd c953 3f3d
00000280: 3056 b4bc d533 eabc d2b8 b93d aa30 2d3e
00000290: 89af 043e 175d 023e 991f b2bc 5aff 443b
000002a0: da2c cebd 5754 3fbd 106d 6abd 4494 deba
000002b0: 0a22 1c3e 5cd6 103e d9c3 0c3e 894b bb3d
000002c0: fbc1 ca3d a49e 1b3e 9618 323d 4570 1e3e
000002d0: 4cfe fa3d a61d df3d c7ed 4c3e 6111 50bc
000002e0: 3114 f43d 70a5 413e f3ef 723d 6aa0 ac3d
000002f0: 696a 193e cc06 ae3d a3c7 253c 08b2 d23d
0.13208051 0.0051641334 -0.10091578 -0.10433548 -0.10103079 0.18688107 0.046662595 0.120505355
0.09931786 -0.10742826 0.075379275 0.047695324 -0.028721914 -0.07072058 0.07132444 0.23306865
-0.08730537 0.21952625 -0.09202414 -0.0034693643 0.072019406 -0.059354044 0.07807953 0.20438053
-0.018318078 0.06588447 0.04204606 0.07958948 0.09674261 0.17800957 -0.012125135 0.024107523
0.14331101 -0.09321443 0.10566449 0.06302011 -0.005565695 0.12514439 0.19568112 -0.07300782
0.25045133 -0.03941324 0.043553144 0.14553218 0.051273074 0.07060093 0.12702313 0.049538285
-0.1267719 -0.0042267465 0.13839044 -0.14187716 -0.08783014 -0.062584184 0.1544396 -0.04998562
0.118470214 0.0023377333 -0.0016222069 0.11923214 -0.07271779 0.10773911 -0.044277113 0.064033926
-0.1472829 0.0839284 0.013164704 0.16055757 0.16704045 0.10346559 -0.10674406 0.19130401
0.0044381963 -0.051899463 0.076221496 0.08322413 -0.13386661 0.0763875 0.09125172 0.11314399
-0.075312205 0.124429725 -0.11656815 -0.104527354 0.11139159 -0.048776682 0.09748318 -0.054132897
0.03663691 0.18039988 -0.050818395 0.21156561 0.15587875 0.04546278 0.12194851 -0.06808939
0.030026954 -0.060308624 -0.011215613 -0.12895164 -0.07562403 -0.026215734 0.10691204 -0.060632225
0.044393644 -0.040860433 0.07263581 0.104385726 0.015775286 -0.12988332 0.0075323773 -0.0973246
-0.08735511 -0.13417035 -0.029569326 -0.1704779 0.18664822 0.12358539 0.04892072 0.08393654
-0.035210885 0.07282909 0.012572528 0.089394644 0.02670479 -0.13771711 -0.026594477 0.03248434
-0.060253613 -0.014010913 0.0051818243 0.14723808 -0.04715308 -0.054206274 -0.11366961 -0.021665871
0.099872634 0.0035446936 0.018819118 -0.008428756 -0.10286369 -0.13533397 -0.14300314 0.117931545
-0.018951058 0.03688767 -0.069790535 -0.003274386 -0.05749212 0.09915545 -0.017828982 -0.06390649
0.10533716 0.051995598 0.0939678 0.12083869 0.12185533 -0.09009258 -0.035010427 0.046710763
-0.022013754 -0.028589169 0.09068455 0.16913095 0.12957586 0.12730823 -0.021743583 0.0030059428
-0.100671485 -0.046711292 -0.057232916 -0.0016981442 0.1524736 0.14144272 0.13746585 0.091452666
0.0990028 0.15197235 0.04348048 0.15472515 0.122555345 0.10894327 0.2001258 -0.012699456
0.11917914 0.18910766 0.059310865 0.08429034 0.14981999 0.0849739 0.010118398 0.10287863

mlp.0.weight f4 [256, 54]
00000000: 460b bfbd 39bf 9e3d 3d86 99bd 587c 42bd
00000010: 0150 2d3c 420a 273d c9bc 25bc 7b51 a1bb
00000020: 82f9 173c cb75 c9bd 969d c63c f7af 903b
00000030: f532 4abd 68ad af3d 3881 ba3d ef30 033e
00000040: 053b 4fbd 388c 7d3c f39d 573d be1c 863d
00000050: 630a ebbd 516c 3cbb f464 c93b 8820 863c
00000060: 0ed1 d53d 4d31 bfbc eca5 8b3d c696 b3bd
00000070: 1efd f43b 4e91 123e 2cea bebd decb 453d
00000080: 4334 873d 9c4e 163e a1e8 94bd 5c92 a7bd
00000090: 6464 c2bd 5f76 81bd d7cf b13d 1570 053c
000000a0: 2d16 123d aafb 9abd 4f86 213d fa22 1ebd
000000b0: d9e6 15bd 4a4b 64bc b12a 743d 782c 6dbc
000000c0: c30f 053e c580 56bc e106 483d 52e3 e9bd
000000d0: a9b5 833d 1a57 64bc cd9f 9cbc b7c4 1cbb
000000e0: 2e46 9a3d 63b4 093e 3ad9 f8bd ac21 a1bd
000000f0: cf61 fdbd a152 9abc d60d a5bc 3f2a 0a3e
00000100: 0acd 443c 5448 0fbd 0832 d9bd f852 de3d
00000110: e18b 7ebd 899f 0e3d 0df4 c83d a5cf cf3d
00000120: fb40 a7bd e724 e7bd 4150 9c3d 1124 8a3c
00000130: bcee bb3d 9bae c13c 9378 16bd 0896 7dbd
00000140: 2cf1 00be f2fb 03be 3004 cbbc 3929 87bd
00000150: a7de febb 03ff e1bd a31c aabd 87b0 823d
00000160: 9222 fb3c b076 04be 674e e6bd cbe4 cbbc
00000170: bb78 6d3d 95f1 543d 6be4 6c3d c542 e03c
00000180: 253f 24bd 280e 04bc 9e5f ed3d be29 ccbd
00000190: 003c 903d 2094 e8bc 4340 353d 5e72 06be
000001a0: 300b 203d 875d 19bd 4c59 5ebd f635 7e3d
000001b0: a4b6 9f3d 0d51 99bd 7fa7 343d 3a21 1f3d
000001c0: 806b 983d 0023 083e 86ca 98bd 313e 953d
000001d0: 3c6a d7bd d8d2 f53d e726 563d 0c48 acbd
000001e0: 5625 3cbd f7dc b5bd 352b 5f3d dccc 23bd
000001f0: 7df9 0c3e 92ff 963d 088e 303d 99ca b9bd
00000200: b445 943c 5aa3 2f3d 69bd 6e3d 4cda b8bd
00000210: 2feb 15bd b35b 0dbe 06e9 b8bd fdce 153d
00000220: 1429 623d c4b4 fcbd 5b64 1abc ed8b 27bc
00000230: fcd8 02be 2a1c 53bd 8bee b8bd ae95 e7bd
00000240: 3b2d 8c3d 2cac 59bd 430c f83d 515e db3c
00000250: cd41 57ba 929b fc3d c3a1 53bd 138c 753d
00000260: 4e7b 7b3d 2d0a e6bc d56e 503b 4af1 403d
00000270: c15c 193e ddce 803d e12f bb3b a313 f73c
00000280: 57a4 7abd 3ff6 833d 1915 99bd 824d 0ebe
00000290: 077c 6ebd ffcb 83bd 626c 4bbd f431 d1bd
000002a0: aec8 70bd 5bb9 a2bd 004b d3bb 598b 863c
000002b0: 6e92 973d dd40 6cbd 08ee 123e c0b9 0ebe
000002c0: 89ad b3bd 3c57 c83c 7184 a63d fcf2 13bd
000002d0: 47d2 363d ce08 f6bd af9f b53d 0181 0c3e
000002e0: ab3a 24bc 1f91 ff3d b825 9ebd 8324 163e
000002f0: 8cca 123e b899 05bd 9ddf de3d 698b f63d
00000300: 4b95 53bd 5d27 c13d 2359 dc3a fde0 873d
00000310: bd17 c63c faba 023d 5957 febc 1749 ddbd
00000320: 8d00 abbd 5c99 0ebe 6b79 a93d 7c50 e53d
00000330: 9f35 b73d e22c b23d 63fd d9bd f90b 05bd
00000340: 70a8 0a3d c177 093e 571c 18be 4cb5 abbc
00000350: 761d 29bd 416d d73d 405b bbbd 2521 abbc
00000360: c5ae cc3d 81a4 5abd dbf0 9d3d 6f04 edbd
00000370: 678d 94bd 7d01 4ebd ac41 643c aa4d 8a3d
00000380: 0581 413d 8784 22be 44e4 033e 9745 bf3d
00000390: 371d 1fbd c13a 253c 00b2 ffbd b0e2 bfbd
000003a0: 604e 2c3d 97f8 e9bd 8362 393d 517b 1c3d
000003b0: 36c1 743d 0d4b 53bd ed0e cbbd 7340 aebd
000003c0: 9402 c6bd d518 be3d e598 dfbd 9ec6 cc3d
000003d0: caaa c23d 3b85 8cbc 597c ec3c 9946 643d
000003e0: 2e03 72bd 8744 033e 7734 833c 2500 dabd
000003f0: 76a1 04bd d50b 023e f471 b33c f11d 123c
-0.09328322 0.077513166 -0.07496307 -0.047481865 0.010578156 0.040781267 -0.010115811 -0.0049230433
0.009275796 -0.0983692 0.024245065 0.004415508 -0.049365003 0.085779965 0.09106678 0.12811635
-0.050593395 0.015475325 0.052640866 0.06548451 -0.114765905 -0.0028751085 0.0061460678 0.016372934
0.10440265 -0.023338938 0.068187565 -0.08768992 0.007476463 0.14313242 -0.093220085 0.048290126
0.06601765 0.14678425 -0.07270933 -0.08182213 -0.09491804 -0.063214056 0.086822204 0.008144398
0.03566568 -0.07567532 0.039434727 -0.038607575 -0.036597107 -0.013933966 0.059611026 -0.014475934
0.12994294 -0.0130922245 0.048834685 -0.11420311 0.06431133 -0.013936782 -0.019119168 -0.0023920962
0.07532917 0.13447718 -0.12150808 -0.078677505 -0.12372171 -0.018838229 -0.020148199 0.13492678
0.012011776 -0.034981087 -0.10605246 0.10855669 -0.062145118 0.034820113 0.09812174 0.10147027
-0.08166691 -0.112863354 0.07632495 0.0168629 0.09176394 0.023642829 -0.036736082 -0.06191066
-0.12592 -0.12889078 -0.02478227 -0.065996595 -0.007778007 -0.11034968 -0.08306243 0.06381326
0.030656133 -0.129359 -0.11245423 -0.02488937 0.057976466 0.051988203 0.057835024 0.027375588
-0.04009928 -0.008060016 0.11590503 -0.09968899 0.07042694 -0.028390944 0.044250738 -0.13129565
0.03907317 -0.03744271 -0.05428438 0.06206318 0.07798508 -0.07486162 0.04410505 0.038850047
0.07442379 0.13294601 -0.07460503 0.07287253 -0.105183095 0.12003106 0.052283194 -0.08412179
-0.045934044 -0.08880036 0.054484565 -0.03999029 0.13767047 0.07372965 0.0431042 -0.090718456
0.018099643 0.042880394 0.058286104 -0.09026012 -0.03660124 -0.13804512 -0.09028821 0.036574353
0.055214956 -0.12339166 -0.009423341 -0.010226232 -0.12778085 -0.05154053 -0.090298735 -0.11307846
0.068445645 -0.05314271 0.12111714 0.026778372 -0.0008211404 0.1233436 -0.05166794 0.05994804
0.06139689 -0.028081024 0.0031804342 0.04710511 0.14976789 0.06289456 0.0057124947 0.03016073
-0.061191883 0.06443452 -0.07474727 -0.13896754 -0.05822375 -0.064353935 -0.04966391 -0.10214606
-0.058785133 -0.0794551 -0.0064481497 0.016423868 0.07400976 -0.057679046 0.14348614 -0.13938046
-0.087733336 0.02445566 0.0813073 -0.0361204 0.04463413 -0.12013398 0.08868348 0.13721086
-0.010023753 0.124788515 -0.07722038 0.14662366 0.14335078 -0.0326173 0.108824946 0.12038309
-0.05165605 0.09431336 0.0016811233 0.0663471 0.024181241 0.031916596 -0.03104751 -0.108049564
-0.083497144 -0.1392569 0.08275112 0.11196992 0.08945774 0.08699967 -0.10644033 -0.03248212
0.03385204 0.13424589 -0.14854561 -0.020960473 -0.04128786 0.105188854 -0.09148264 -0.020889828
0.09994272 -0.05337954 0.07711955 -0.11573111 -0.07253533 -0.050294388 0.013931673 0.067530945
0.047242183 -0.15870868 0.12880045 0.09339445 -0.03884622 0.010084809 -0.12485123 -0.09369409
0.04206693 -0.11424368 0.045259964 0.03820354 0.059754573 -0.051585246 -0.09914956 -0.085083865
-0.096684605 0.0928208 -0.10917834 0.09998821 0.09505232 -0.017153373 0.028867887 0.05573139
-0.059085064 0.1281911 0.016016228 -0.10644559 -0.032380544 0.12699826 0.021904923 0.008918271

mlp.0.bias f4 [256]
00000000: ca37 313d ac9c 803d 4656 bb3d fa65 783d
00000010: 4e12 eebd a5a9 bd3d 2552 dfbd fa7c 893d
00000020: 5bf1 3a3d ead0 babd 2540 ab3d 7e69 fa3d
00000030: a921 0b3e 59f2 9b3d acb2 d4bd df64 d7bd
00000040: 768a 75bd 9189 e1bd ce53 8c3d c2b4 b7bd
00000050: 4b38 043e 8336 04be bc5a 31bd 5959 9dbd
00000060: 7dd9 87bd 4be8 103a c83d bf3d 76a6 7b3d
00000070: 2d65 0a3e a295 9ebd e337 ed3d f029 e03b
00000080: 7420 65bc 7f60 30bd e594 ad3d 61cc bf3d
00000090: e4c8 2f3d 98ab d43d 99ea 83bd 682f 033e
000000a0: 661a cdbc cf33 a2bd 8956 03be f094 8abd
000000b0: 0b3a 2d3d 36a6 9c3d e4ed 97bd ca32 7d3c
000000c0: 822a 963d cfa5 a93d a0ee f23d 6af5 8e3c
000000d0: fcef f43b a620 2dbd b157 793d 7301 98bd
000000e0: a4b1 e1bd 637d cbbd 23a5 a2bd 145d 06be
000000f0: 7965 d6bd 9973 edbc 15f8 99ba 8c0d b83d
00000100: 80dd 49bd af21 21bd f757 5dbd ffbe 8abd
00000110: 6993 913c 1287 073e 2143 f53d 92aa 2bbb
00000120: 28b8 eebd 7174 0e3c f5fc d7bd 806f 97bd
00000130: 3557 00bd c61f 2c3d 8eac 6c3d e045 953b
00000140: 4372 fdbd 93d9 febd 0c2a a3bd bcb3 013e
00000150: afa8 e63d e0d7 013e db33 4a3d 4260 1abd
00000160: f147 36bd cf07 4b3c 36b2 b4bc 3499 5fbd
00000170: 3af9 da3d 0941 fabd 8242 b2bd b9e7 603d
00000180: c28e b03d 74a3 ddbc 1a79 e4bd 17e7 303d
00000190: aa16 063e ae09 f43d e6b3 6ebd fe14 05be
000001a0: e2e1 46bc 9be9 b9bd 77a6 8dba cc1b 883c
000001b0: bfea 473d 5536 49bd cb66 cb3d a81a b43c
000001c0: f548 c13d adc5 03be ef99 c1bc f9c3 61bd
000001d0: 8c13 b63d a6f3 6bbc d017 02bd 195a f23d
000001e0: f7bf d1bd 53be 7a3b a68d 943d 8ad1 0e3c
000001f0: 5816 93bd ab7d 393c a5bb a73b 8af8 e1bd
00000200: b2d5 ba3c b6d3 5fbc 2c44 953d f5f4 8c3b
00000210: ce85 7abd d713 c43d 51db aa3d 3e19 043e
00000220: b766 db3c 90ea c43c bb73 773d bf90 eb3c
00000230: ff96 d0bd 320f b33d 829a f2bc 3b13 f7bd
00000240: f8cf f83d bbed f2bc 7157 3cbc 5a83 273d
00000250: 531f a33d 8265 64bd 42df a5bd 2ad4 58bc
00000260: 8322 1fbd 6a2a c5bc f3ab f03d c462 a7bd
00000270: 12e7 c23b b8ef 023d 4363 16bd 5d93 31bd
00000280: 9139 8a3d ad92 503d 6df8 1c3d 9d86 c63d
00000290: a24c 60bd 7375 323d 8566 d53b 142f 0cbe
000002a0: 8f7d afbd 8583 7bbc 99ee 753d 2686 d8bc
000002b0: 881b f3bd 2426 e63d cd8d f23b d18b be3d
000002c0: 3f7a 74ba 1c44 05bc 2075 843d 91a7 6e3b
000002d0: a8ea 86bc 8259 d83d e296 b9bc 04b0 8cbd
000002e0: 5b35 6c3c 79c8 d4bb b2d7 b43d caca 06be
000002f0: 04e6 8a3d d684 193e 3f8f 5ebd 9908 8f3d
00000300: c353 79bd ed7d c33d c043 933d 4e75 083e
00000310: ebf2 0a3d b936 45bd 51d1 113e aed4 193e
00000320: 8a60 e7bd 0d21 913d 8169 3e3c fe75 2cbc
00000330: 79aa a13d 6511 133d d2b4 8fbd d587 f5bd
00000340: 5029 bbbd c68c e13d f8ed b23d 94dc ed3d
00000350: 50af a8bd 2fa4 b53d 2388 f63d 77a4 833d
00000360: 7695 ee3d 06e4 c73d d8e6 773d 8d72 5c3d
00000370: 30ae fd3c 92f8 28bd fcbc 313d bdf4 59bc
00000380: 0db5 2d3d 269d fbbd f005 03be 0fef 1dbd
00000390: 33e6 073e 0799 95bd 701c 003e ea2a f83d
000003a0: 6852 8dbb 4025 7f3a 1bc8 f6bc c5a1 bd3d
000003b0: 108a 2abc f643 e93b 30d0 943d c845 e5bd
000003c0: 967e 27bd 0324 243d 991d d9bc 2212 04bd
000003d0: a4b6 03be fd7b eebd 4738 f2bb 9c15 abbd
000003e0: 16a4 203d 2474 b3bd 857f 893d 7e89 21bd
000003f0: 22b4 c33d 3c79 6f3d 9d3c d03d aa98 d8bd
0.043266095 0.06279883 0.09147315 0.060644127 -0.11624585 0.09260873 -0.1090434 0.067132905
0.04564033 -0.091218784 0.08361844 0.12227152 0.13587059 0.076145835 -0.103856415 -0.105172865
-0.0599465 -0.11012567 0.06851922 -0.08970024 0.12912099 -0.1291142 -0.04329942 -0.07683057
-0.066332795 0.00055277784 0.09337956 0.061438046 0.13515158 -0.07743384 0.11582925 0.006840937
-0.013984788 -0.043060776 0.08475665 0.09365154 0.042916194 0.103842914 -0.0644123 0.12811053
-0.025037002 -0.07920038 -0.1282598 -0.06766689 0.042291682 0.0764889 -0.07418421 0.015454004
0.073323265 0.082835786 0.1186192 0.017451007 0.0074748974 -0.042267464 0.060874645 -0.074221514
-0.110202104 -0.09936025 -0.079416536 -0.13121444 -0.10468573 -0.028985785 -0.0011746908 0.08986959
-0.049283504 -0.039338764 -0.054038968 -0.06774711 0.017770486 0.13235119 0.119756944 -0.0026194197
-0.11656219 0.008694754 -0.105462946 -0.07394314 -0.031333167 0.04202249 0.05778175 0.004555449
-0.12375309 -0.12443843 -0.07967004 0.1266622 0.112626426 0.12680006 0.04936586 -0.037689455
-0.044502202 0.012391998 -0.022057634 -0.054589465 0.106920674 -0.12219436 -0.087040916 0.054908488
0.08620979 -0.02705548 -0.11155911 0.043189134 0.13094583 0.11915909 -0.058277033 -0.12996289
-0.012138816 -0.0907776 -0.0010807057 0.016614817 0.048807856 -0.04912408 0.099317156 0.021985367
0.094377436 -0.12868376 -0.023632972 -0.055118535 0.08890447 -0.014401352 -0.03176099 0.11833591
-0.102416925 0.0038260415 0.0725358 0.00871695 -0.07181996 0.0113214655 0.0051188045 -0.11033733
0.022806976 -0.013661316 0.072883934 0.004301662 -0.061162762 0.09574097 0.083426125 0.12900254
0.026782377 0.02403763 0.060413104 0.028755544 -0.1018505 0.08743133 -0.02961469 -0.12064215
0.12149042 -0.029654374 -0.011495457 0.04089675 0.07964959 -0.055760868 -0.08099224 -0.013234178
-0.038851272 -0.024068076 0.11751547 -0.08173135 0.005947956 0.031966895 -0.036715757 -0.043353427
0.06749261 0.05092113 0.038322855 0.09693644 -0.054760583 0.04356904 0.0065124654 -0.13689834
-0.0856887 -0.015351181 0.060041998 -0.026431154 -0.118704855 0.112377435 0.007402158 0.093040116
-0.00093260774 -0.008133914 0.06467652 0.0036415795 -0.016469315 0.10563947 -0.022654954 -0.0686951
0.014417018 -0.0064936248 0.08830203 -0.13163295 0.06782153 0.14992079 -0.05433583 0.06984062
-0.060870897 0.09545503 0.07190657 0.13325998 0.03392307 -0.04814789 0.14240004 0.15022537
-0.1129771 0.07086382 0.011621834 -0.010526178 0.07893843 0.03590526 -0.070169106 -0.119887985
-0.09138739 0.110131785 0.08736795 0.116143376 -0.08236563 0.08869206 0.12037685 0.064278536
0.11649601 0.09760289 0.060522884 0.05382018 0.030966848 -0.04125268 0.04339312 -0.013302979
0.04240899 -0.12285833 -0.12795234 -0.038558062 0.13271408 -0.07304578 0.12510848 0.1211756
-0.004312802 0.0009733029 -0.030124715 0.09259371 -0.010408893 0.0071186973 0.07266271 -0.1119495
-0.040892206 0.040073406 -0.026503371 -0.032243855 -0.1286264 -0.11644743 -0.0073919627 -0.08353731
0.039218985 -0.087623864 0.067137755 -0.039437763 0.09555842 0.058465227 0.10167811 -0.10575993

mlp.2.weight f4 [128, 256]
00000000: c7ab 6c3d eaf6 1b3d e904 c13c 4ffb b6bd
00000010: 22ca 4fbd 0e6c 6d3d 1a48 3f3d 2415 0b3d
00000020: db55 e1bb f442 37bd 9b78 b83c 03d8 c73c
00000030: ba83 c63b 5fd1 e03c 3787 e3bc 21cf bf3b
00000040: 90a5 24bd 3306 163d 021f 01bd 8d35 5bbc
00000050: 11e8 3c3d 7fba 19bc c7b6 903c 16fc a93c
00000060: 0b7f 5ebd 45fd 3cbd 70a6 8a3d 75be 09bd
00000070: 3044 643d 0feb 4a3c 11e5 c2bc d3c1 553d
00000080: 5fef 113d 528f 543b eb19 debc 2a07 da3b
00000090: 93f4 e13c c08e 973b cb59 b3bc 0f08 a13d
000000a0: abdd 0a3c d21f d33b c308 6dbc 2382 35bc
000000b0: adb6 60bd 32ab c83c 813c 623d 6714 2abb
000000c0: 7f18 2b3d 10a7 373d fe32 d839 c151 023c
000000d0: fb74 1e3d 0a77 883d b202 f23c a8aa 32bd
000000e0: f6ef 3f3d 0522 7b3d 7649 cd3c ff78 2abd
000000f0: a7e2 45bc 3f05 213c 9353 2abc 97e4 80bc
00000100: 3f57 bf3a 721c 8a3d ca83 1cbd d39c 04bd
00000110: e0d1 a23d 1b38 9e3c a3ac 7ebc e4af 12bd
00000120: 48f5 aa3c 87ee 29bc 2b46 01bd 6927 11bd
00000130: cc5e c0bc cb91 2c3d ab3e 83bb 8739 35bc
00000140: a288 113c ecad 4d3d f9fb 26bd ea5e 803d
00000150: eae7 243d 534a 7fbd bf15 a33b dcb2 b93d
00000160: d817 1ebd ea63 8a3c 46fd 01bd 554c 14bd
00000170: 703f 0f3d 41c0 093d 483a 09bd 2ae4 bdbc
00000180: 37f3 483c 968e 233b 4d26 1bbb dfe5 3d3c
00000190: dba6 19bc da77 773c dfa7 573d b7bb c3bb
000001a0: 83db 2ebd 31a5 893d 7c2f 813d 38ce fcbb
000001b0: cea0 7b3d 5fc4 423d cd6f fd3b 43b2 723d
000001c0: 5670 8c3d 0939 063d 0456 20bd 813b 0c3d
000001d0: 672b 983d b25a 8ebd 3fbf 2dbd 816b f73a
000001e0: 1666 0ebb 2969 1f3b 7039 cebc d29e 053d
000001f0: 5884 5b3d 89c5 703b 6331 dd3b 0933 22bd
00000200: bd62 623c b09b 823c 399f 1e3d f928 eb3c
00000210: 38bc 77bc 4af3 0fbd b25f 203d 8e52 7c3d
00000220: 209f 0b3c 96e1 a2bb 3afc 77bc 6b0a 813d
00000230: fd5a 92bd 16bc ab3c 9d0f 82bc 1445 3739
00000240: 4238 4bbd 5628 f03c 522a 693d e694 293d
00000250: ed76 17bd 9f30 07bb 953f f8bc 4a8f 69bc
00000260: bcc8 bfbc 73b1 63bd 4d00 9b3d 009e 093d
00000270: 466e 813b 5d68 863c 5b14 b2bc ee26 3c3d
00000280: 0674 443d 36e2 bf38 6320 753d 799d be3c
00000290: f5e6 cbbc 8708 643d ced1 8e3c d2d6 093d
000002a0: c218 67bd d9f9 a83c 6f29 09bb 5763 6fbd
000002b0: d014 613d 9a70 1f3d 49a6 573a 2f33 083d
000002c0: 0d2a 493d 5667 91bc d712 a6ba c860 04bd
000002d0: 052d 2a3d b14d 6f3d 2a44 f8bc b8a8 3f3d
000002e0: 1a65 41bd 5db0 023d 7aad 843d a1d7 1cbd
000002f0: 3e45 613c 89d3 9bbc 7827 3c3d 364e 933b
00000300: 080c dd3c b21e 703d 3625 40bc 7b1d 093d
00000310: 36c5 803d 8fc1 8c3c 56e6 02bd 71ef 6f3c
00000320: 7cc3 333d 4ec1 033d 7f11 593d 3b64 ecbc
00000330: f259 2a3d ecf9 0b3d becc b2bd 4207 08bd
00000340: ff68 3a3d 91d8 823c bd38 403d 90e4 8b3c
00000350: e0c8 603c 5d48 8ebd 246c 333d a3ec f83a
00000360: ab8e 213d 4601 e63c d3d5 99bc 8fcd 28bd
00000370: eb29 81bb db38 773c d0a0 30bb 66de 943d
00000380: 95f6 97bc 2f9e 5abc e6a7 66bd 5fd9 333d
00000390: 6adf 093d de63 9d3d 3b07 cb3b ca56 f3bb
000003a0: ea4f f33c 35a7 1b3d ea42 47bd 9317 3d3d
000003b0: 86c5 17bd 30fb 0b3d 86a5 9abb fcb4 64bd
000003c0: 0af8 42bd 6384 8f3c 644a 063d ecc6 2ebd
000003d0: 68c6 22bd d404 1a3c 3a3a a13c baea bebc
000003e0: 6deb ed3c f438 61bb 1ec8 68bd 838c 503b
000003f0: 1d6f e4bc d9c6 0fbd c6a7 253d 73ed e8ba
0.057781007 0.038077272 0.023561912 -0.08934652 -0.05072988 0.057964377 0.04669962 0.03395571
-0.00687669 -0.044741586 0.022518447 0.024394995 0.0060581835 0.027443586 -0.027774436 0.005853549
-0.040196955 0.036627006 -0.031523712 -0.013379467 0.046119753 -0.009382843 0.01766528 0.020750087
-0.054320376 -0.046139974 0.06770027 -0.0336289 0.05572909 0.012385144 -0.023790868 0.0521868
0.035628673 0.0032434058 -0.027111968 0.006653686 0.027582442 0.0046251714 -0.021893403 0.07862865
0.008475701 0.0064430023 -0.014467421 -0.01107839 -0.054861713 0.024495695 0.055233482 -0.0025952102
0.04177141 0.044837058 0.00041236723 0.007954062 0.03868578 0.0666333 0.0295423 -0.04361978
0.046859704 0.06131174 0.025059443 -0.041619297 -0.012077964 0.009827911 -0.010395902 -0.015734
0.0014598145 0.06743707 -0.03821162 -0.03237612 0.07950187 0.019313863 -0.0155440895 -0.035812274
0.020868912 -0.010371811 -0.031561058 -0.035437975 -0.023482703 0.042131227 -0.0040052733 -0.011061079
0.008882673 0.050214693 -0.040767644 0.062681034 0.040260233 -0.06232674 0.0049769576 0.09067318
-0.038596958 0.016893346 -0.03173568 -0.03620561 0.034972608 0.033630613 -0.033502847 -0.023180086
0.012265018 0.0024956814 -0.0023673952 0.01159045 -0.00937816 0.015104258 0.05265033 -0.005973305
-0.04268981 0.06720961 0.06307885 -0.007715013 0.061432652 0.047550555 0.007734275 0.059252035
0.06857364 0.032769237 -0.03914453 0.034236435 0.07430153 -0.069508925 -0.042418715 0.0018876643
-0.0021728328 0.0024324155 -0.025173873 0.032622166 0.05359301 0.0036738834 0.006750272 -0.039599452
0.013817486 0.015943378 0.038726065 0.02870606 -0.015120558 -0.035144128 0.039153762 0.061602168
0.008521825 -0.0049707396 -0.015135819 0.06300815 -0.07146261 0.02096371 -0.015876586 0.00017477974
-0.0496142 0.029316109 0.056925125 0.041401766 -0.03697865 -0.0020628346 -0.030303756 -0.014255354
-0.023411147 -0.05558915 0.07568417 0.033597946 0.003949913 0.016407186 -0.021738222 0.045935564
0.04796221 9.149725e-05 0.05984534 0.023268448 -0.024890402 0.055672195 0.017434027 0.033652134
-0.056420095 0.02062695 -0.0020929237 -0.058444347 0.05495149 0.038925745 0.00082263775 0.033251937
0.04911237 -0.01774947 -0.001267041 -0.03231886 0.04154684 0.0584237 -0.03030594 0.046791762
-0.04721556 0.031906474 0.064784005 -0.038291577 0.013749419 -0.019021766 0.045936078 0.0044954075
0.026983276 0.058623023 -0.011727622 0.03347538 0.06287615 0.01718214 -0.031957947 0.01464449
0.0438876 0.03216677 0.0529952 -0.028856387 0.041589685 0.03417389 -0.08730458 -0.033210047
0.04551029 0.015972408 0.04692911 0.01707676 0.013719767 -0.06947396 0.043804303 0.0018991422
0.0394427 0.02807678 -0.018778717 -0.04121166 -0.0039417646 0.015089239 -0.002695132 0.07268982
-0.018550197 -0.013343378 -0.056312464 0.043908473 0.03366033 0.07685064 0.0061959303 -0.0074261175
0.029701192 0.038001258 -0.0486478 0.04616506 -0.037053607 0.034175098 -0.004719439 -0.055836663
-0.04759983 0.017519182 0.03278579 -0.042670175 -0.039739996 0.009400565 0.019681085 -0.023305286
0.029042924 -0.0034366222 -0.05683147 0.0031822033 -0.027885014 -0.035101745 0.040443204 -0.0017770961

mlp.2.bias f4 [128]
00000000: 3a52 41bd 25d0 4b3d fd00 c63a 6030 55bc
00000010: 1af7 2e3c f2d9 cc3c 4727 27bd bea5 a3bc
00000020: e6f2 9fba 582a 5cbc 4e60 623d 9f5a bcbc
00000030: 70e4 d9bc 87d2 25bc f205 833c 24a6 ab3c
00000040: dafb d63c 8093 36bd 1704 013c 6fbb fa3c
00000050: 3779 2c3c 513e 553d 7221 1f3d b21b f1bc
00000060: 490f d23a d625 55bc 2ace 923c 293d 3b3b
00000070: 5809 1bbd 2701 813d f77c 663d d26f 293d
00000080: e89d 74bd 85db 0e3d 9252 3fbd 7369 1abd
00000090: 2ad7 833c 7066 953c e228 6cbd 3681 58bd
000000a0: e454 133d b1c9 e9bc 1250 1cbd dc12 66bd
000000b0: e263 2bbc 78a6 0f3c d8d0 233d 3b9b ae3c
000000c0: aab4 373d 71c5 16bc 71c0 a4bc 373d 8a3a
000000d0: a3e4 433c 6bbd 9f3c ffc4 39bc 8d04 a93c
000000e0: 428c 1c3d fd02 843d bedd 793d 18e8 613d
000000f0: 1904 7e3c 4a69 753d 3650 4d3d e71d 943c
00000100: 640e 2ebc c275 4c3d e14c 6a3c f84a 3ebc
00000110: 1499 173c a9d8 28bc 3ead 143d 3c7d 4a3c
00000120: 182e 7bbd 9b20 d2bc 68c3 79bc 4d66 12bd
00000130: eead 4dbd 3fc5 00bd 1b79 13bd 0fbb f1bc
00000140: dc37 643b f85a b33c 6a9e 82bc bbad a63c
00000150: 55dd 303d 7923 d03b c686 603c 0b22 2e3d
00000160: 11e7 b23c b044 48bd b17e 183d 8c5d 51bd
00000170: 2c1a 5fbd baf0 6d3d 441d 44bd d847 223d
00000180: 8573 cc3c 6e08 ee3c f43d c93c c9b1 473d
00000190: 48cc 173d 33cf 893c 4f83 9d3c 8e52 253d
000001a0: 2fde a73c fbc8 3e3d e0bb 223c 879e cbbc
000001b0: 19d4 2abd 410a 7dbd b8be 9f3b 907f 8a3c
000001c0: 56c0 65b9 578e e8bc 83a2 e23c 082b 6cbd
000001d0: 32f6 783b 388d e33c e482 babc 394c 493d
000001e0: 7eb7 acbc c617 553c 290f 47bd ff7e 21bd
000001f0: 4d66 6aba ea71 293d 7fd6 953c d573 00bd
-0.047197558 0.04975905 0.0015106496 -0.013012022 0.010679031 0.025006268 -0.040808942 -0.019976493
-0.0012203127 -0.01343783 0.055267625 -0.02299243 -0.026598185 -0.010120994 0.015994046 0.020953245
0.026243139 -0.04457426 0.00787451 0.030606953 0.010526947 0.052061383 0.038850255 -0.029432151
0.0016026284 -0.013009509 0.017920572 0.002857039 -0.037850708 0.06299048 0.05627152 0.041366406
-0.059720904 0.03487732 -0.046709605 -0.03769822 0.01609381 0.018237323 -0.057656176 -0.0528576
0.03596963 -0.028538557 -0.0381623 -0.05617033 -0.010460826 0.008767717 0.03999409 0.021314254
0.04485003 -0.009202347 -0.020111294 0.0010546808 0.011956367 0.019499501 -0.011338471 0.020632053
0.038219698 0.064458825 0.061002485 0.055152982 0.015503907 0.059914865 0.050125323 0.018080665
-0.010623548 0.04991699 0.014300556 -0.011614554 0.009252805 -0.010305562 0.03629803 0.01235896
-0.061323255 -0.025650313 -0.015244342 -0.035742093 -0.0502147 -0.03143811 -0.036004167 -0.029508142
0.0034823334 0.021893963 -0.015944678 0.020346513 0.04317983 0.006351885 0.0137040075 0.042512935
0.021838697 -0.04889363 0.037230197 -0.051114604 -0.05446832 0.058090903 -0.047879472 0.039619297
0.024957428 0.029056754 0.024565674 0.048753534 0.037060052 0.016822433 0.019227652 0.040361933
0.020491688 0.04657839 0.009932488 -0.024855865 -0.04170618 -0.061777357 0.0048750304 0.01690653
-0.00021910793 -0.028388185 0.027665382 -0.057658225 0.003798854 0.0277773 -0.022767492 0.049144957
-0.02108359 0.013006156 -0.048598442 -0.039427754 -0.00089416356 0.041368403 0.018290756 -0.031360466
