weights2/ep_3629.pth (torch, 275655 bytes, 10 tensors)

lstm.weight_ih_l0 f4 [192, 7]
0	0xbca90026	-0.020629954
1	0x3db96018	0.090515316
2	0x3e1df289	0.15424551
3	0x3d3dc50c	0.046330497
4	0x3d452124	0.04812731
5	0x3e0feabd	0.1405439
6	0x3e2b3761	0.16720344
7	0x3e18ea7f	0.14933203
8	0xbe3703bd	-0.1787252
9	0x3e0e35f0	0.13887763
10	0xbdb749d4	-0.089496285
11	0xbdbef414	-0.09323898
12	0x3ca2195f	0.019787489
13	0x3ca1d3d9	0.019754337
14	0x3d79d11b	0.060990434
15	0x3d962e6e	0.073330745
16	0xbd1ca47a	-0.038242795
17	0xbd701be1	-0.058620337
18	0xbd82d3ad	-0.0638803
19	0x3e199628	0.14998686
20	0x3d2df2cd	0.04246788
21	0x3e2b0617	0.16701542
22	0x3dbd07c6	0.09229998
23	0x3e0677e0	0.13131666
24	0x3d19c3f0	0.037540376
25	0xbe232fd4	-0.15936214
26	0x3d531c1b	0.051540475
27	0xbdd939ec	-0.10606751
28	0xbdacb363	-0.08432653
29	0x3e014edd	0.1262774
30	0x3e20c41b	0.15699808
31	0x3c5af795	0.013364692
32	0xbd0197b8	-0.03163883
33	0x3e01d7e2	0.12680009
34	0xbdbe727a	-0.092991784
35	0x3cd03cf0	0.025419682
36	0xbc0ec9b6	-0.008715084
37	0x3db939e8	0.09044248
38	0x3e0b0cfd	0.13579173
39	0xbc8123e8	-0.015764192
40	0x3e1b1081	0.15143014
41	0xbc93f0cc	-0.018059157
42	0x3ddbf187	0.10739427
43	0xbdbeb0fa	-0.09311099
44	0x3cd26b74	0.025686003
45	0x3d2f36e9	0.042776976
46	0x3cb0f475	0.021600941
47	0x3d9d9c66	0.07695846
48	0x3e0a49a7	0.13504659
49	0xbc87dc54	-0.016584553
50	0xbdd19f78	-0.102354944
51	0x3c7236a6	0.014783537
52	0xbcef8e7f	-0.029242752
53	0x3e0b002a	0.13574281
54	0x3e3e8526	0.1860548
55	0x3e0ed25f	0.13947438
56	0x3bed22b9	0.0072368053
57	0x3d2cceed	0.042189527
58	0xbcd7c39d	-0.026338393
59	0x3d8b91b8	0.06814903
60	0xbd8cd614	-0.0687677
61	0x3e2e36f1	0.17013146
62	0xbd740ed9	-0.059584472
63	0xbdee7d51	-0.11644996
64	0xbe1801fd	-0.14844508
65	0x3d7ae4bc	0.061253294
66	0x3cd5346f	0.026025979
67	0xbdd208ac	-0.1025556
68	0xbe0478c4	-0.12936693
69	0x3ddca8f1	0.107744105
70	0xbdfc34f8	-0.123147905
71	0x3dbebc30	0.09313238
72	0x3c3ba85a	0.011453712
73	0x3d378f22	0.044814236
74	0xbbbc69a2	-0.005749897
75	0xbd9c629d	-0.076359965
76	0xbd60a96e	-0.05484908
77	0x3df9a60f	0.12189876
78	0xbcca7c6f	-0.024717538
79	0x3d1e904e	0.03871184
80	0xbd8ee53d	-0.069773175
81	0x3e13aa0d	0.14420338
82	0xbce30b6b	-0.027715405
83	0x3d85b0ab	0.06527837
84	0xba006a5a	-0.000489866
85	0xbdeb6473	-0.114937685
86	0xbe317477	-0.17329584
87	0xbddbb397	-0.107276134
88	0xbd75a85b	-0.05997501
89	0xbcf428f4	-0.029804684
90	0x3e01bc13	0.12669401
91	0x3e44f8dd	0.19235559
92	0x3d3fc570	0.04681915
93	0xbbdd2406	-0.006748679
94	0xba9b55c5	-0.0011851123
95	0x3d3d6244	0.04623629
96	0xbd9bacef	-0.07601344
97	0x3e3e3e0a	0.18578354
98	0x3d43f6d5	0.04784282
99	0xbd8b04ab	-0.06788
100	0x3cb597a4	0.022167034
101	0xbdfb4cd6	-0.12270515
102	0xbcf94ed0	-0.030433089
103	0x3be26b79	0.0069097844
104	0x3e0415f0	0.12898993
105	0x3e0206e2	0.12697938
106	0xbc6f7c40	-0.014617026
107	0x3dd243cb	0.10266837
108	0xbc3f3b20	-0.011671811
109	0x3e281c69	0.16417088
110	0x3a984d3f	0.0011619701
111	0x3e3cf597	0.1845306
112	0x3e076373	0.1322153
113	0xbde3af20	-0.11117387
114	0x3d938ee1	0.07204986
115	0xbe015689	-0.12630667
116	0x3de64438	0.112434804
117	0x3d218e53	0.03944237
118	0xbd8b9dc5	-0.068172015
119	0xba9ce7d3	-0.0011970944
120	0xbdd12f9c	-0.10214159
121	0x3cd03f75	0.025420884
122	0x3b7fdcab	0.003904144
123	0x3d35a16e	0.044343404
124	0x3b38d0f7	0.0028200725
125	0x3e0d14c5	0.13777454
126	0x3daecca7	0.08535128
127	0xbe2d0802	-0.16897586
128	0x3d1f9128	0.03895679
129	0xbe259688	-0.16170704
130	0xbdd2e1d7	-0.10296982
131	0xbdd1b357	-0.102392845
132	0x3ca72fea	0.02040859
133	0x3d9ec762	0.07752873
134	0xbcd0344f	-0.025415568
135	0x3b7b8d67	0.0038383843
136	0xbdab8bc2	-0.08376266
137	0x3bc4e363	0.006008552
138	0xbbea8794	-0.0071572755
139	0x3d8dac23	0.06917598
140	0x3cf7b5a0	0.030237973
141	0xbe184f28	-0.14873946
142	0x3daf6d8e	0.08565818
143	0x3dd96e8f	0.106167905
144	0xbd975f36	-0.07391207
145	0x3e303661	0.17208244
146	0x3e197731	0.14986874
147	0xbe0920e8	-0.13391459
148	0x3c822b33	0.01588974
149	0xbd66e43b	-0.05637
150	0xbce0918c	-0.027413152
151	0xbd1689ad	-0.03675239
152	0xbdaf88e0	-0.08571029
153	0x3d2263f0	0.03964609
154	0x3dc7c08f	0.097535245
155	0xbdd9e035	-0.10638467
156	0x3b8a4795	0.004219959
157	0x3d46af9e	0.048507325
158	0xbc092f7a	-0.008373136
159	0x3cb52d04	0.022116192
160	0x3d7c5498	0.061604112
161	0x3d306434	0.04306431
162	0xbdf99a62	-0.12187649
163	0x3e208862	0.15677026
164	0x3d990a6d	0.07472692
165	0x3e240b3c	0.1601991
166	0x3e280969	0.1640984
167	0x3df5e805	0.12007145
168	0x3ccc5118	0.024941012
169	0x3e01bb8a	0.12669197
170	0xbcf16dab	-0.02947124
171	0xbe095a44	-0.1341334
172	0xbe00242a	-0.12513795
173	0x3d3072b9	0.043078158
174	0x3c997c67	0.018736077
175	0x3d540ba6	0.05176892
176	0x3e1418ea	0.14462629
177	0xbc0cbe3e	-0.008590279
178	0xbcbd7485	-0.02312685
179	0xbd5bc726	-0.05365672
180	0xbd17f2e8	-0.037096888
181	0xbd8588c0	-0.065202236
182	0x3e1c3a5e	0.1525664
183	0x3e416d34	0.18889314
184	0x3d701b07	0.058619525
185	0xbc89ec1c	-0.016836219
186	0xbd3ba298	-0.04580936
187	0xbd560ee5	-0.0522603
188	0x3d6b98de	0.057518832
189	0xbdf7c40a	-0.12097938
190	0xbe26b8aa	-0.16281381
191	0x3de46d69	0.11153681
192	0xbcee34b9	-0.029077874
193	0x3e0c467a	0.1369876
194	0x3dd18e20	0.10232186
195	0x3de774a2	0.11301543
196	0x3c651829	0.013982811
197	0x3d599125	0.053116936
198	0x3e239a99	0.15976943
199	0x3e018294	0.12647468
200	0x3b1c55ff	0.0023854969
201	0x3ca98bb6	0.020696502
202	0x3e0a910a	0.1353189
203	0xbe03b40c	-0.12861651
204	0x3db88671	0.09010018
205	0x3bf7d45c	0.007563157
206	0xbcd6be0d	-0.02621367
207	0x3d268db9	0.0406625
208	0xbc233463	-0.00996122
209	0xbb806de1	-0.0039193486
210	0xbda63b55	-0.081167854
211	0x3d5c8954	0.053841904
212	0x3c3b3d26	0.011428153
213	0xbd760d7d	-0.060071457
214	0xbdb4072c	-0.087904304
215	0x3d93908e	0.07205306
216	0x3e3e0e0d	0.18560047
217	0xbcd57f53	-0.02606169
218	0x3cb67d68	0.022276595
219	0x3d5bc490	0.053654253
220	0xbd344730	-0.044013202
221	0x3cc5979b	0.024120143
222	0x3d586b1f	0.052836534
223	0x3d6beb3e	0.05759739
224	0xbdb56df6	-0.08858864
225	0xbdead2b9	-0.114659734
226	0x3d147915	0.036248285
227	0x3de9a26b	0.11407932
228	0x3dd5d9a6	0.10441904
229	0xbe183005	-0.14862068
230	0xbd5d9be9	-0.054103766
231	0xbdb70afb	-0.08937641
232	0xbda11202	-0.07864763
233	0x3e093cbf	0.13402079
234	0x3cb6d702	0.02231932
235	0x3d39c976	0.045358144
236	0xbdb9b393	-0.09067454
237	0x3e0499e1	0.12949325
238	0x3d3d9587	0.04628518
239	0xbddd7e8a	-0.10815151
240	0xbd268992	-0.04065854
241	0xbd68f44d	-0.05687361
242	0xbce79a53	-0.02827183
243	0x3db88bc6	0.09011035
244	0x3cfa3262	0.030541603
245	0x3dc7fa7c	0.09764573
246	0x3da61d5b	0.08111068
247	0x3dc7baac	0.09752402
248	0xbd454689	-0.04816297
249	0x3d960e80	0.073269844
250	0xbe03bca3	-0.12864928
251	0xbdcdc954	-0.10048166
252	0xbc806177	-0.015671475
253	0xbdd05bde	-0.10173772
254	0x3e0fbb21	0.14036228
255	0xbdb1a082	-0.086731926

lstm.weight_hh_l0 f4 [192, 48]
0	0xbcdab9b1	-0.026699873
1	0xbe145904	-0.14487082
2	0xbc50464f	-0.012712075
3	0xbdf9e19f	-0.12201237
4	0xbc0906d9	-0.008363449
5	0xbdb84b13	-0.08998694
6	0xbdc4dc1d	-0.09612296
7	0x3d6577bb	0.056022387
8	0xbd80792e	-0.06273113
9	0x3d4ade48	0.04952839
10	0xbe594f87	-0.21221744
11	0xbe2f914e	-0.17145273
12	0xbcc5c057	-0.024139566
13	0x3d98e29c	0.07465097
14	0xbc2cdaab	-0.010550181
15	0xbd987691	-0.0744449
16	0xbce4749c	-0.027887635
17	0x3e47a66b	0.19497077
18	0x3d3a1680	0.045431614
19	0xbcac4b1c	-0.021031909
20	0x3e28011d	0.16406675
21	0x3d9f0570	0.07764709
22	0xbdfe1f47	-0.124083094
23	0xbd471398	-0.04860267
24	0xbd64dcd9	-0.05587468
25	0x3d5eb5eb	0.05437271
26	0x3d43fe1b	0.047849756
27	0x3e0d231c	0.13782924
28	0x3d082ba4	0.033244744
29	0xbd23c4c0	-0.039982557
30	0xbd8e0365	-0.06934241
31	0x3c6a8f68	0.014316417
32	0xbde20d49	-0.1103769
33	0xbe397e71	-0.1811464
34	0x3d82ff6c	0.06396374
35	0xbdb897ea	-0.0901335
36	0xbccb0b81	-0.024785759
37	0x3e0004f0	0.12501884
38	0xbd30fa97	-0.04320773
39	0xbc3d78c3	-0.011564436
40	0x3c932fc3	0.01796711
41	0x3db741eb	0.0894812
42	0xbc6ac63c	-0.014329489
43	0xbd8b4b66	-0.068014905
44	0x3c7b11a6	0.015324032
45	0xbc65ce39	-0.014026218
46	0xbe0775df	-0.13228558
47	0xbe02def7	-0.12780367
48	0xbdb7d1b5	-0.08975545
49	0xbd5cf67a	-0.053945996
50	0x3dd988c1	0.10621787
51	0x3d65b9ba	0.056085326
52	0x3d9d7417	0.07688158
53	0x3e0070e0	0.12543058
54	0x3e1c6de0	0.15276289
55	0xbdd6a19a	-0.10480042
56	0xb9ceba50	-0.00039430195
57	0x3cd26898	0.02568464
58	0xbe3f80cb	-0.18701474
59	0xbe1f4cf3	-0.15556698
60	0x3dd5980d	0.10429392
61	0x3e1dc537	0.15407263
62	0x3df802ad	0.12109885
63	0xbdf885c0	-0.12134886
64	0xbd83ba72	-0.06432046
65	0x3cbfcb44	0.023412354
66	0x3e2b9556	0.16756186
67	0xbbf2d866	-0.0074110506
68	0xbd51eb57	-0.05124983
69	0xbc9138f1	-0.017727347
70	0xbe58a608	-0.21157086
71	0x3e0bed62	0.13664773
72	0x3e163f34	0.14672548
73	0x3dc3f1e4	0.09567621
74	0x3ddb7adf	0.10716795
75	0x3e3f287d	0.18667789
76	0x3dd8dff2	0.10589589
77	0x3d8a5b30	0.06755674
78	0x3dde40cd	0.108522035
79	0x3db5084a	0.08839472
80	0xbda96684	-0.082715064
81	0xbe3b60d9	-0.18298663
82	0xbc3df387	-0.011593706
83	0x3d3d8661	0.04627073
84	0x3dda1249	0.10648019
85	0xbd3d32c2	-0.046190985
86	0xbd2a2951	-0.04154331
87	0xbd86dd55	-0.065851845
88	0xbdec4c66	-0.11538009
89	0xbd02218c	-0.031770274
90	0xbdb095a3	-0.08622291
91	0x3db68012	0.08911146
92	0x3d304fca	0.043044843
93	0x3dc804f6	0.09766571
94	0x3dd7c8be	0.105363354
95	0xbdb6937d	-0.0891485
96	0x3c90511f	0.017616807
97	0xbe1b3f78	-0.1516093
98	0xbbc7ecd4	-0.00610123
99	0xbdd674b1	-0.10471476
100	0x3d203429	0.039112244
101	0x3d2cd8c4	0.04219891
102	0x3dd3b6e3	0.10337617
103	0x3d001c59	0.031277034
104	0xbd2bcaae	-0.041941337
105	0xbcbf3a10	-0.023343116
106	0xbdbf1801	-0.0933075
107	0xbdbfe5a9	-0.09369976
108	0x3d0dc505	0.03461172
109	0x3c7f10cc	0.0155679695
110	0xbd60d7bf	-0.05489325
111	0xbcb3b8a2	-0.021938626
112	0x3d68119b	0.056657415
113	0x3e318105	0.17334373
114	0x3e0774a4	0.13228089
115	0xbd824968	-0.063616574
116	0xbd157d73	-0.03649659
117	0xbdf7caaa	-0.12099202
118	0xbd090f3e	-0.0334618
119	0x3e38e37a	0.18055525
120	0x3d1e3a82	0.038630016
121	0x3ca1f4d6	0.019770067
122	0xbe34d01c	-0.17657512
123	0x3d29eea7	0.041487362
124	0x3b2d379f	0.0026430858
125	0xbd173bf7	-0.03692242
126	0xbd8339d1	-0.06407512
127	0x3de415fc	0.11137006
128	0x3d15bd59	0.03655753
129	0xbd9be265	-0.07611541
130	0x3dc31769	0.095259495
131	0x3dcf363a	0.10117765
132	0x3def90c7	0.11697536
133	0xbdc0ceb2	-0.09414424
134	0x3e305ddc	0.17223305
135	0xbd6fc1e8	-0.058534533
136	0xbe15a22c	-0.14612645
137	0x3da6b750	0.08140433
138	0xbd8460d7	-0.06463783
139	0x3dffe15e	0.12494157
140	0xbe2b30d3	-0.16717844
141	0x3d4f35ae	0.050588302
142	0xbd5b39c1	-0.053521875
143	0xbdfb7648	-0.1227842
144	0xbd8b712d	-0.06808696
145	0xbc53c9f6	-0.012926569
146	0xbdbbc845	-0.09169058
147	0xbd2e1c82	-0.042507656
148	0xbcea96fa	-0.028636444
149	0x3dc8960e	0.09794246
150	0xbd14731e	-0.036242597
151	0xbd809eab	-0.062802635
152	0x3c9fef5b	0.019523313
153	0xbd5cd86b	-0.05391733
154	0x3d37decf	0.04489022
155	0xbd8a0191	-0.0673858
156	0x3dd6ceaa	0.10488637
157	0x3d0a3975	0.0337462
158	0x3d36a149	0.044587407
159	0x3e06bd91	0.13158251
160	0x3de66f18	0.11251658
161	0x3e06c81c	0.13162273
162	0xbbad2d82	-0.005284966
163	0xbc98b06f	-0.018638818
164	0xbd03f8d0	-0.032219708
165	0x3d9d91fa	0.076938584
166	0xbdd50692	-0.10401644
167	0x3debb586	0.11509232
168	0x3e4d0f79	0.20025434
169	0xbcff15b8	-0.031138286
170	0xbdd29173	-0.102816485
171	0x3d726020	0.059173703
172	0x3c4ec728	0.012620725
173	0x3c119abc	0.008886989
174	0xbc9e8f44	-0.019355424
175	0xbc12e7ae	-0.00896637
176	0x3ca8d496	0.020609181
177	0xbd03c155	-0.032166798
178	0xbdb8d2d8	-0.0902459
179	0x3dc74b8e	0.09731208
180	0xbd68e476	-0.056858502
181	0xbbd7967b	-0.006579218
182	0xbde848ec	-0.11342034
183	0x3d536a25	0.0516149
184	0xbe230f4d	-0.15923806
185	0x3e4e0821	0.20120288
186	0xbc8cab37	-0.017171485
187	0x3dd75f70	0.1051625
188	0xbd0c6fe9	-0.034286413
189	0xbd853fc4	-0.06506303
190	0xbe16334b	-0.14668004
191	0x3de78007	0.11303716
192	0xbe2a1c1a	-0.16612282
193	0x3d940a72	0.07228555
194	0x3da2dee7	0.079526715
195	0x3b5b319f	0.0033446325
196	0x3e04c44e	0.1296551
197	0x3e14f2a7	0.1454569
198	0x3e29715b	0.16547148
199	0xbe142fd3	-0.14471368
200	0xbc8ae0ff	-0.01695299
201	0x3de2fd1d	0.11083434
202	0x3b8cd646	0.0042980043
203	0xbca29dea	-0.01985069
204	0x3b28ec59	0.002577564
205	0x3d2d5ce4	0.042324916
206	0xbd29c7d3	-0.041450333
207	0xbd52cc65	-0.051464457
208	0x3c9d7b21	0.019223752
209	0x3dab784f	0.083725564
210	0xbd0512aa	-0.032488503
211	0xbd6203f3	-0.055179548
212	0x3bf52f13	0.0074824183
213	0xba95377d	-0.0011384335
214	0xbe1bfa0d	-0.15232106
215	0xbcea5334	-0.028604127
216	0xbccebdb9	-0.025236951
217	0x3e0cf510	0.13765359
218	0xbdfc83ba	-0.12329812
219	0x3d054b41	0.03254247
220	0xbb0c39c7	-0.0021396743
221	0x3e283295	0.16425546
222	0x3e390051	0.18066527
223	0xbdb0041a	-0.08594532
224	0xbe4ba911	-0.19888712
225	0xbe1adb0f	-0.15122627
226	0x3d482811	0.048866335
227	0x3e0230dd	0.12713952
228	0x3e236087	0.15954791
229	0x3dfae8e3	0.12251451
230	0x3e2eb83a	0.17062464
231	0x3d941062	0.07229687
232	0xbdb7b1ec	-0.08969483
233	0x3ddcb200	0.10776138
234	0x3a5ac18f	0.00083448825
235	0xbd82acd7	-0.06380623
236	0xbd8d1dd5	-0.06890456
237	0x3b0611b0	0.002045732
238	0x3d56574b	0.052329343
239	0xbcd43cfa	-0.025907982
240	0xbe225795	-0.15853722
241	0xbd57f556	-0.052724205
242	0xbdd60ac1	-0.1045127
243	0xbda6a547	-0.08136993
244	0x3def33ee	0.11679827
245	0x3db503ef	0.08838641
246	0x3e202ed6	0.15642866
247	0x3d0528a3	0.032509457
248	0x3e0ada2f	0.13559793
249	0x3d90200f	0.07037365
250	0xbdf4b9f0	-0.11949527
251	0xbe19c29f	-0.15015648
252	0x3d93c5be	0.07215451
253	0xbd358075	-0.04431196
254	0x3b8ec5a9	0.004357059
255	0xbd736a70	-0.05942768

lstm.bias_ih_l0 f4 [192]
0	0x3d70d104	0.058793083
1	0xbd855099	-0.065095134
2	0x3e01a695	0.12661202
3	0xbde1240a	-0.10993202
4	0xbc7a23d6	-0.015267333
5	0xb9059f64	-0.00012743246
6	0xbd2440e4	-0.040100947
7	0x3d17d1ab	0.03706519
8	0xbdb4adc2	-0.08822204
9	0x3df2f2cf	0.11862718
10	0x3e1ed3c2	0.15510467
11	0x3d630cfa	0.055432297
12	0x3ce88e0c	0.028388046
13	0x3d5ed718	0.054404348
14	0x3d9001e4	0.070316106
15	0xbc84b39e	-0.01619893
16	0xbda38f29	-0.0798629
17	0x3e2b003c	0.16699308
18	0x3c5113a7	0.012761033
19	0xbd1f3936	-0.03887292
20	0x3e29bb46	0.16575345
21	0x3ca6ce7f	0.020362137
22	0x3db4cd32	0.088282004
23	0x3e121332	0.14265135
24	0x3d3ed6f7	0.046591725
25	0x3dc43fbf	0.09582471
26	0xbddd5469	-0.108071156
27	0x3d95d1cf	0.073154084
28	0x3df3840b	0.118904196
29	0x3da359fc	0.079761475
30	0xbd695f42	-0.05697561
31	0x3dc9b517	0.09848993
32	0x3db6301d	0.08895896
33	0x3dbc4be7	0.09194165
34	0xbd96fff6	-0.073730394
35	0xbd1cd599	-0.03828964
36	0xbc8fe712	-0.017566238
37	0xbd6120f1	-0.054963056
38	0xbd98ff12	-0.07470526
39	0x3d919f95	0.07110516
40	0x3e537804	0.20651251
41	0xbdce81c3	-0.10083344
42	0x3dc10b93	0.09426036
43	0xbc0abec3	-0.008468333
44	0x3c53fe8b	0.012939106
45	0xbbbd7b18	-0.005782496
46	0x3e076b07	0.13224421
47	0x3ddd835a	0.10816069
48	0xbe033980	-0.12814903
49	0x3e1154ae	0.14192459
50	0xbd448478	-0.047977895
51	0x3de882d5	0.11353079
52	0x3d7144cf	0.05890351
53	0x3d7b34aa	0.06132952
54	0xbdcbb283	-0.09946158
55	0xbca2c3f7	-0.019868834
56	0xbdf242d8	-0.11829156
57	0xbdee6cae	-0.11641823
58	0xbdbab937	-0.09117358
59	0xbcb7ddd2	-0.02244464
60	0x3cd7f982	0.026364092
61	0x3dc5723a	0.096409276
62	0xbbe8b355	-0.007101456
63	0x3ddbe3e1	0.10736824
64	0x3d768553	0.06018574
65	0x3de63dc6	0.11242251
66	0x3a682657	0.0008855811
67	0x3d1b14cf	0.03786164
68	0x3e19a625	0.15004785
69	0x3e19d9ee	0.1502454
70	0x3e1da702	0.1539574
71	0x3dad6d5c	0.08468124
72	0xbe10a987	-0.1412717
73	0x3dc1fbf6	0.09471886
74	0xbcea9afa	-0.028638352
75	0x3dc5c180	0.09656048
76	0xbd19e65b	-0.0375732
77	0x3dab43f0	0.083625674
78	0xbd9d278d	-0.07673559
79	0x3d2d5afc	0.042323098
80	0x3e05ba22	0.13059285
81	0x3c806206	0.015671741
82	0xbdcbabee	-0.09944902
83	0xbd59ee16	-0.053205572
84	0x3c828da6	0.015936684
85	0x3cea8e7f	0.0286324
86	0xbc2a1737	-0.010381511
87	0xbd7b4558	-0.06134543
88	0x3dc0f926	0.09422521
89	0x3c4afe35	0.012389709
90	0xbd565fde	-0.05233752
91	0x3d74ffc3	0.059814226
92	0x3dd8a8bd	0.10579059
93	0x3e168c55	0.1470197
94	0xbd610ebe	-0.0549457
95	0xbd4821ad	-0.04886024
96	0xbdc4e587	-0.09614091
97	0x3d750190	0.059815943
98	0x3c5fe344	0.013665024
99	0x398d35e8	0.0002693378
100	0xbd1addfb	-0.037809353
101	0x3cd77e6d	0.026305402
102	0x3e2e99af	0.17050813
103	0x3d841d0d	0.064508535
104	0x3da6060c	0.08106622
105	0x3dc934dd	0.09824536
106	0x3e241187	0.16022311
107	0x3e14e800	0.14541626
108	0xbdb97cef	-0.09057032
109	0x3db53641	0.08848239
110	0xbd550039	-0.052002165
111	0xbcdb7573	-0.026789403
112	0xbc933565	-0.017969796
113	0x3b23b7d7	0.0024981403
114	0x3977021d	0.00023556543
115	0xbe0764a7	-0.1322199
116	0x3e4de736	0.20107731
117	0x3db03db2	0.086055174
118	0x3e2c8cca	0.16850582
119	0xbe1b3566	-0.15157089
120	0x3da23d07	0.07921796
121	0x3d989e82	0.07452108
122	0x3e071981	0.13193323
123	0xbd714bae	-0.058910064
124	0xbc4a7691	-0.01235737
125	0xbdbb4c84	-0.091454536
126	0xbbdb803f	-0.0066986377
127	0x3d0723e5	0.032993216
128	0xbd49a47c	-0.04922913
129	0x3dc16197	0.09442442
130	0x3d5aa790	0.053382456
131	0x3def9d0a	0.11699875
132	0x3b94f11a	0.004545343
133	0x3deb12e3	0.11478212
134	0xbe288af9	-0.16459264
135	0xbdd1cce7	-0.1024416
136	0x3de2b752	0.11070122
137	0xbe209558	-0.1568197
138	0x3e1c10df	0.15240811
139	0x3d7698e5	0.060204405
140	0x3e0860d5	0.13318188
141	0xbc5c0bf9	-0.013430589
142	0xbe01019d	-0.12598272
143	0xbdaeb2e4	-0.085302144
144	0xbdbb9ef5	-0.09161178
145	0xbd6cba12	-0.057794638
146	0x3e00996a	0.12558523
147	0x3e0770dd	0.13226648
148	0xbdd28e07	-0.10280996
149	0x3d069b69	0.032863054
150	0x3d1807c1	0.03711677
151	0x3dfe7224	0.12424114
152	0x3e21a048	0.15783799
153	0x3de9b289	0.11411006
154	0xbd56b3f1	-0.0524177
155	0xbdb02a28	-0.08601791
156	0x3c9817fd	0.018566126
157	0x3cc758cc	0.024334334
158	0x3c2b15dd	0.010442224
159	0x39e14f9e	0.00042974664
160	0xbda84191	-0.08215631
161	0x3e3b1692	0.18270329
162	0xbd0ed43c	-0.03487037
163	0xbc92f572	-0.017939303
164	0x3e2c507d	0.16827579
165	0x3e129e3e	0.14318177
166	0x3dc42d55	0.09578959
167	0xbbd04488	-0.006355826
168	0x3d31cac8	0.043406278
169	0xbd86da77	-0.065846376
170	0x3e1f4159	0.15552272
171	0x3bff4abc	0.0077908915
172	0xbc8efd73	-0.017454838
173	0x3dc45086	0.09585671
174	0xbdbc8bae	-0.09206329
175	0x3dc04a49	0.09389169
176	0x3e255fc6	0.16149816
177	0x3d3d9d80	0.04629278
178	0x3dd2bd66	0.10290031
179	0xbd1131d4	-0.03544791
180	0x3d936d97	0.07198637
181	0xbc80a11d	-0.015701825
182	0x3d69cf29	0.05708233
183	0xbd772bf7	-0.060344663
184	0x3d417c90	0.047237933
185	0x3d408a88	0.047007114
186	0x3cd50901	0.02600527
187	0xbd869100	-0.06570625
188	0x3d41eec3	0.04734684
189	0x3de40562	0.11133839
190	0x3de3584c	0.11100826
191	0x3cc20f3a	0.023688901

lstm.bias_hh_l0 f4 [192]
0	0x3e0244a5	0.12721498
1	0x3bcafdf2	0.0061948234
2	0xbdd7d294	-0.105382115
3	0xbdd473a0	-0.10373616
4	0xbdd79c34	-0.1052784
5	0x3e3eaa75	0.18619712
6	0x3d403865	0.046928782
7	0x3deaa21e	0.11456703
8	0x3dc3231b	0.0952818
9	0xbde111b2	-0.10989703
10	0x3d927513	0.071512364
11	0x3d40d4d1	0.047077958
12	0xbcdf3998	-0.027249143
13	0xbd918501	-0.071054466
14	0x3d85aa41	0.06526614
15	0x3e6a2213	0.22864561
16	0xbdc33e68	-0.095333874
17	0x3e5cbe6a	0.21557012
18	0xbdc82ef3	-0.0977458
19	0xbc05ece4	-0.008174155
20	0x3d987ff0	0.07446277
21	0xbd83e164	-0.06439474
22	0x3d945802	0.07243349
23	0x3e489f70	0.1959207
24	0xbc73d19d	-0.014881519
25	0x3d87f068	0.06637651
26	0x3d13c268	0.036074072
27	0x3d9b5570	0.07584655
28	0x3db90eb9	0.09036011
29	0x3e33061c	0.174828
30	0xbbf2a610	-0.00740505
31	0x3cca040e	0.024660137
32	0x3e0eef72	0.13958529
33	0xbdc5e516	-0.09662835
34	0x3dce21e8	0.10065061
35	0x3d67efea	0.056625284
36	0xbbe8b613	-0.007101783
37	0x3df7360e	0.12070857
38	0x3e42dda3	0.1902986
39	0xbd9fc391	-0.07800973
40	0x3e77da01	0.24204256
41	0xbd1d699c	-0.038430795
42	0x3d1c3651	0.038137738
43	0x3e0bd946	0.13657102
44	0x3d43794c	0.0477231
45	0x3d8a5aad	0.06755576
46	0x3dfb0fbc	0.122588605
47	0x3d3df185	0.04637291
48	0xbe06e05e	-0.13171527
49	0xbc04fb7e	-0.008116601
50	0x3e098fdc	0.13433784
51	0xbe0cac86	-0.13737687
52	0xbdbde71f	-0.092725985
53	0xbd89e34d	-0.06732807
54	0x3e1b72aa	0.1518046
55	0xbd66f4ca	-0.056385793
56	0x3de9b3e8	0.114112675
57	0xbb1f3073	-0.0024290353
58	0xbbfe68c9	-0.007763956
59	0x3df4e95c	0.11958572
60	0xbd95415e	-0.072878584
61	0x3dd9f25e	0.10641931
62	0xbd4a8a40	-0.04944825
63	0x3d760057	0.060058918
64	0xbe1d5ccf	-0.15367435
65	0x3da8e242	0.0824628
66	0x3bfb8dc7	0.0076768133
67	0x3e20b6fb	0.15694802
68	0x3e2c5c23	0.16832022
69	0x3dc3fed8	0.09570092
70	0xbde461b6	-0.111514494
71	0x3e3c6b63	0.1840034
72	0x3c2baad4	0.01047774
73	0xbd40b3db	-0.047046524
74	0x3d927237	0.07150691
75	0x3da25264	0.07925871
76	0xbe0d4685	-0.13796432
77	0x3d9596d7	0.07304161
78	0x3dc081b9	0.09399743
79	0x3dd9c57a	0.10633369
80	0xbda87e9a	-0.08227272
81	0x3df81958	0.12114209
82	0xbdf5acc7	-0.11995845
83	0xbde1fedc	-0.11034939
84	0x3dded06e	0.108795986
85	0xbd576e2d	-0.052595306
86	0x3dbc4d6e	0.09194456
87	0xbd7061f2	-0.058687158
88	0x3ce57072	0.02800772
89	0x3e3b5d5f	0.18297337
90	0xbd650a22	-0.055917867
91	0x3e51376b	0.20431297
92	0x3e1b51b8	0.15167892
93	0x3d32e46c	0.04367487
94	0x3de9ae31	0.114101775
95	0xbd900881	-0.07032872
96	0x3d04dccb	0.032437127
97	0xbd6baede	-0.057539813
98	0xbc0536fe	-0.008130787
99	0xbdfba037	-0.12286418
100	0xbda10c15	-0.078636326
101	0xbd02c83e	-0.031929247
102	0x3dd77dfd	0.10522077
103	0xbd6a5f22	-0.057219632
104	0x3d2c4353	0.042056393
105	0xbd3d2ee9	-0.046187315
106	0x3da0c5b8	0.07850212
107	0x3dde9780	0.1086874
108	0x3c85c980	0.016331434
109	0xbe07e8cd	-0.132724
110	0x3aabafdc	0.0013098675
111	0xbdc49772	-0.095991984
112	0xbda6c401	-0.081428535
113	0xbe0c0047	-0.13671981
114	0xbd0709ae	-0.032968216
115	0xbe321c7d	-0.1739368
116	0x3e41f23a	0.18940058
117	0x3dec2cb8	0.11531967
118	0x3d55b862	0.052177794
119	0x3da5b631	0.08091391
120	0xbd26a41a	-0.040683843
121	0x3d7e9fa5	0.062163968
122	0x3c8e3628	0.017359808
123	0x3daf1133	0.08548202
124	0x3cc16ea5	0.02361233
125	0xbe11fbe9	-0.14256252
126	0xbcf770bd	-0.030205125
127	0x3d03431a	0.032046415
128	0xbd568518	-0.05237302
129	0xbc252258	-0.010078989
130	0x3bf64a29	0.007516165
131	0x3e0efa24	0.13962609
132	0xbd51c9d7	-0.05121788
133	0xbd647001	-0.055770878
134	0xbdf2c7c1	-0.11854506
135	0xbc9e7b19	-0.019345807
136	0x3dd28ebf	0.10281133
137	0xbb00ff28	-0.0019683335
138	0x3cb0ea76	0.021596175
139	0xbc4f4976	-0.012651792
140	0xbdcb742b	-0.09934267
141	0xbe083855	-0.13302739
142	0xbe0d2ee5	-0.1378742
143	0x3df7fba4	0.121085435
144	0xbcc9b715	-0.024623433
145	0x3d10c900	0.03534794
146	0xbd9880c9	-0.07446439
147	0xbb8ead70	-0.0043541715
148	0xbd80d5aa	-0.06290753
149	0x3dc8e368	0.09808999
150	0xbca10455	-0.019655386
151	0xbd905b65	-0.07048682
152	0x3dc8f46d	0.098122455
153	0x3d3e48d6	0.04645618
154	0x3db2cb45	0.08730177
155	0x3dffae08	0.12484366
156	0x3dfc86f6	0.12330429
157	0xbdb49b58	-0.08818692
158	0xbd2ba687	-0.04190686
159	0x3d2922b5	0.041292865
160	0xbced46ea	-0.028964479
161	0xbd088a0a	-0.03333477
162	0x3daff11f	0.08590912
163	0x3e2856f1	0.16439416
164	0x3e073059	0.13202037
165	0x3df495d7	0.11942642
166	0xbcdbbf25	-0.026824543
167	0xbb87fdf0	-0.0041501448
168	0xbdcc180b	-0.09965523
169	0xbd4172b2	-0.047228523
170	0xbd7a593a	-0.06112025
171	0xbbdc4bf1	-0.00672292
172	0x3e15fdc2	0.14647582
173	0x3e0b2af8	0.1359061
174	0x3e11b9da	0.14231053
175	0x3db725d1	0.0894276
176	0x3db87bb6	0.09007971
177	0x3e15cf84	0.14629942
178	0x3d19adf2	0.037519403
179	0x3e1779df	0.14792584
180	0x3df3a918	0.118974864
181	0x3dd34dc6	0.103175685
182	0x3e47b3d5	0.19502194
183	0xbc9989c8	-0.018742457
184	0x3de35c30	0.11101568
185	0x3e415d8e	0.18883345
186	0x3d5b90e4	0.053604975
187	0x3d9ff90e	0.07811175
188	0x3e165281	0.1467991
189	0x3da6f108	0.08151442
190	0x3be5d32c	0.007013699
191	0x3dc86bf3	0.09786215

mlp.0.weight f4 [256, 54]
0	0xbdbabf73	-0.09118547
1	0x3d9e8a00	0.07741165
2	0xbd9a9053	-0.07547059
3	0xbd4e9043	-0.050430547
4	0x3c1b24a8	0.009469189
5	0x3d227f87	0.0396724
6	0xbc1531af	-0.009106084
7	0xbb7c7f66	-0.0038528084
8	0x3bf55f73	0.007488185
9	0xbdcb84c3	-0.09937432
10	0x3cc187f5	0.0236244
11	0x3b66004a	0.0035095387
12	0xbd4e4fc2	-0.05036903
13	0x3db2ef9e	0.087371096
14	0x3db8103a	0.0898747
15	0x3e02391e	0.12717101
16	0xbd4b7a43	-0.049677145
17	0x3c6b004b	0.014343332
18	0x3d5ec609	0.05438808
19	0x3d862e9b	0.06551858
20	0xbdecb70c	-0.11558351
21	0xbae70fdc	-0.0017628628
22	0x3be9521a	0.007120383
23	0x3c84bbe4	0.016202874
24	0x3dd36c7c	0.10323426
25	0xbcc40c78	-0.023931727
26	0x3d8a1359	0.067419715
27	0xbdb61cf1	-0.08892239
28	0x3c094a63	0.008379552
29	0x3e112429	0.1417395
30	0xbdbc6b0b	-0.09200104
31	0x3d49b69e	0.049246423
32	0x3d872073	0.06597986
33	0x3e151d19	0.14561881
34	0xbd974908	-0.073869765
35	0xbda71fed	-0.08160386
36	0xbdc033b5	-0.09384862
37	0xbd83a919	-0.06428737
38	0x3db3e6b8	0.087842405
39	0x3c0760cb	0.008262823
40	0x3d15c517	0.036564913
41	0xbd9d0f5f	-0.076689474
42	0x3d20e602	0.039281853
43	0xbd22e73a	-0.039771296
44	0xbd195d94	-0.03744276
45	0xbc4f57b5	-0.012655188
46	0x3d7a2dd0	0.061078846
47	0xbc64007e	-0.013916133
48	0x3e0371ed	0.12836428
49	0xbc695b74	-0.0142429955
50	0x3d4c4a76	0.0498757
51	0xbde8226e	-0.11334692
52	0x3d81ed2e	0.063440666
53	0xbc57f13a	-0.0131800715
54	0xbc9c9fcd	-0.019119168
55	0xbb1cc4b7	-0.0023920962
56	0x3d9a462e	0.07532917
57	0x3e09b463	0.13447718
58	0xbdf8d93a	-0.12150808
59	0xbda121ac	-0.078677505
60	0xbdfd61cf	-0.12372171
61	0xbc9a52a1	-0.018838229
62	0xbca50dd6	-0.020148199
63	0x3e0a2a3f	0.13492678
64	0x3c44cd0a	0.012011776
65	0xbd0f4854	-0.034981087
66	0xbdd93208	-0.10605246
67	0x3dde52f8	0.10855669
68	0xbd7e8be1	-0.062145118
69	0x3d0e9f89	0.034820113
70	0x3dc8f40d	0.09812174
71	0x3dcfcfa5	0.10147027
72	0xbda740fb	-0.08166691
73	0xbde724e7	-0.112863354
74	0x3d9c5041	0.07632495
75	0x3c8a2411	0.0168629
76	0x3dbbeebc	0.09176394
77	0x3cc1ae9b	0.023642829
78	0xbd167893	-0.036736082
79	0xbd7d9608	-0.06191066
80	0xbe00f12c	-0.12592
81	0xbe03fbf2	-0.12889078
82	0xbccb0430	-0.02478227
83	0xbd872939	-0.065996595
84	0xbbfedea7	-0.007778007
85	0xbde1ff03	-0.11034968
86	0xbdaa1ca3	-0.08306243
87	0x3d82b087	0.06381326
88	0x3cfb2292	0.030656133
89	0xbe0476b0	-0.129359
90	0xbde64e67	-0.11245423
91	0xbccbe4cb	-0.02488937
92	0x3d6d78bb	0.057976466
93	0x3d54f195	0.051988203
94	0x3d6ce46b	0.057835024
95	0x3ce042c5	0.027375588
96	0xbd243f25	-0.04009928
97	0xbc040e28	-0.008060016
98	0x3ded5f9e	0.11590503
99	0xbdcc29be	-0.09968899
100	0x3d903c00	0.07042694
101	0xbce89420	-0.028390944
102	0x3d354043	0.044250738
103	0xbe06725e	-0.13129565
104	0x3d200b30	0.03907317
105	0xbd195d87	-0.03744271
106	0xbd5e594c	-0.05428438
107	0x3d7e35f6	0.06206318
108	0x3da9b4d4	0.08286443
109	0xbd8b39bc	-0.06798121
110	0x3d3e7ca3	0.04650558
111	0x3d19f27d	0.03758477
112	0x3da1df16	0.079038784
113	0x3e0cdc9a	0.13756028
114	0xbda38cae	-0.07985817
115	0x3d8fd608	0.07023245
116	0xbde3e139	-0.11126942
117	0x3de7a730	0.11311185
118	0x3d678ae0	0.056528926
119	0xbda2e25d	-0.079533316
120	0xbd2a3d1d	-0.04156219
121	0xbdbfe609	-0.093700476
122	0x3d72bc97	0.059261885
123	0xbd0f7ecf	-0.035033043
124	0x3e068600	0.13137054
125	0x3da0415a	0.07824965
126	0x3d1e80fe	0.038697235
127	0xbdb8431f	-0.08997177
128	0x3cc07a8a	0.023495931
129	0x3d20c717	0.039252367
130	0x3d5c8dd4	0.053846195
131	0xbdb06653	-0.08613267
132	0xbd00c11f	-0.031434175
133	0xbe08d06c	-0.13360757
134	0xbdaf79c7	-0.08568149
135	0x3d318d67	0.043347742
136	0x3d4c111d	0.049821008
137	0xbdf24dd1	-0.118312486
138	0xbbf65aa4	-0.0075181294
139	0xbbdaae1c	-0.0066735875
140	0xbe06c431	-0.13160779
141	0xbd40f360	-0.0471071
142	0xbdad93c4	-0.0847545
143	0xbddb160c	-0.106975645
144	0x3d86c523	0.065805696
145	0xbd46a4ba	-0.04849694
146	0x3debf0ac	0.11520514
147	0x3cb71c92	0.02235249
148	0xbbb8a66d	-0.005635074
149	0x3e039ff8	0.12853992
150	0xbd4587a4	-0.04822506
151	0x3d84882a	0.06471284
152	0x3d8b1f55	0.067930855
153	0xbd073645	-0.03301074
154	0xbb3d2a8d	-0.0028864474
155	0x3d4e514b	0.050370496
156	0x3e14048e	0.14454862
157	0x3d8bf728	0.06834251
158	0x3a9d04ff	0.0011979638
159	0x3cd61d6a	0.026137073
160	0xbd85743e	-0.06516312
161	0x3d76bc74	0.060238317
162	0xbd915931	-0.0709709
163	0xbe005663	-0.12532954
164	0xbd4e77ae	-0.050407104
165	0xbd8ed7d3	-0.06974759
166	0xbd486cd0	-0.048931897
167	0xbdcfb259	-0.10141439
168	0xbd6baf73	-0.05754037
169	0xbda41666	-0.08012085
170	0xbba4ee10	-0.005033262
171	0x3c76668d	0.015039098
172	0x3d944847	0.07240348
173	0xbd70837f	-0.058719154
174	0x3e127b8a	0.14304939
175	0xbe0d6228	-0.13806975
176	0xbdb50c2c	-0.08840212
177	0x3ccaba15	0.024746934
178	0x3da7b81a	0.081894115
179	0xbd02bc61	-0.031917933
180	0x3d189d35	0.0372593
181	0xbdf6d404	-0.120521575
182	0x3db45a69	0.08806307
183	0x3e0c2c68	0.13688815
184	0xbc1a26b7	-0.009408644
185	0x3dfcff04	0.12353328
186	0xbd9d62b6	-0.07684843
187	0x3e13bae4	0.14426762
188	0x3e12a0e2	0.14319184
189	0xbcf50165	-0.029907892
190	0x3de23b6f	0.11046492
191	0x3df769f4	0.12080756
192	0xbd4f69e7	-0.050638106
193	0x3dbe1392	0.092810765
194	0x3bc93fdb	0.0061416454
195	0x3d875294	0.066075474
196	0x3cb64fef	0.022254912
197	0x3ce57374	0.028009154
198	0xbd05f70b	-0.0327063
199	0xbdde50f0	-0.10855281
200	0xbdacdfba	-0.0844111
201	0xbe0cda4e	-0.13755152
202	0x3dab6fb4	0.08370915
203	0x3de01f6a	0.10943492
204	0x3db4c392	0.088263646
205	0x3db1da94	0.086842686
206	0xbdda5453	-0.10660615
207	0xbd031a1d	-0.032007325
208	0x3d0ca52e	0.034337215
209	0x3e05aa39	0.13053216
210	0xbe13f979	-0.14450635
211	0xbc9b555b	-0.0189616
212	0xbd23ace6	-0.03995981
213	0x3dd76769	0.10517771
214	0xbdaf3729	-0.08555443
215	0xbca25360	-0.019815147
216	0x3dbefa25	0.09325055
217	0xbd762bc8	-0.060100347
218	0x3da0eb44	0.07857373
219	0xbde76de3	-0.11300256
220	0xbd9b71ae	-0.07590042
221	0xbd5bc9bf	-0.053659197
222	0x3c976325	0.018479893
223	0x3d8d821b	0.06909581
224	0x3d5a44fe	0.053288452
225	0xbe1fe1cf	-0.15613483
226	0x3dffaedb	0.12484523
227	0x3db76cd5	0.08956305
228	0xbd2dcb98	-0.04243049
229	0x3c73a533	0.0148709295
230	0xbe0350cf	-0.12823795
231	0xbdc6d694	-0.09708896
232	0x3d3d0e0e	0.04615598
233	0xbdee89f5	-0.11647407
234	0x3d3f07d4	0.046638325
235	0x3d1710c5	0.036881227
236	0x3d6073f3	0.054798078
237	0xbd44d215	-0.048051912
238	0xbdc4f0a0	-0.09616208
239	0xbdb83f6d	-0.089964725
240	0xbdcbe050	-0.099548936
241	0x3db6c7f0	0.08924854
242	0xbde74a02	-0.11293413
243	0x3dc4dc67	0.09612351
244	0x3dcaaa68	0.09895784
245	0xbcab708d	-0.020927692
246	0x3cef64bd	0.02922284
247	0x3d5ea59f	0.054357167
248	0xbd65e727	-0.056128647
249	0x3e009b9e	0.12559363
250	0x3c2d641b	0.010582949
251	0xbde401be	-0.11133145
252	0xbcf787da	-0.030216146
253	0x3dfc9276	0.12332623
254	0x3cd0d183	0.025490528
255	0x3c5d12c7	0.013493246

mlp.0.bias f4 [256]
0	0x3d2cad14	0.042157248
1	0x3d809cac	0.06279883
2	0x3dc4c9dc	0.09608814
3	0x3d7b658c	0.06137614
4	0xbdf4f694	-0.119610935
5	0x3dbda9a5	0.09260873
6	0xbde8d27e	-0.11368273
7	0x3d7e8f9a	0.062148668
8	0x3d23915f	0.03993356
9	0xbdc0e440	-0.09418535
10	0x3dac46e1	0.084119566
11	0x3df00851	0.11720336
12	0x3e0e3e20	0.13890886
13	0x3da276e3	0.07932832
14	0xbdd9b951	-0.106310494
15	0xbdd2d4ce	-0.102944955
16	0xbd7b39f5	-0.06133457
17	0xbdec9a2d	-0.11552844
18	0x3d80b902	0.062852874
19	0xbdc0aa73	-0.094075106
20	0x3e0159c0	0.12631893
21	0xbe092cb6	-0.13395962
22	0xbd3fa4b2	-0.046787925
23	0xbda70145	-0.08154539
24	0xbd89539a	-0.06705399
25	0x3ae49c75	0.0017441647
26	0x3db5b470	0.08872306
27	0x3d76b611	0.060232226
28	0x3e05361a	0.1300892
29	0xbda8d10d	-0.08242998
30	0x3deb0d3d	0.114771344
31	0x3ab09a84	0.0013473784
32	0xbc494127	-0.0122836
33	0xbd41177a	-0.04714153
34	0x3da75ff0	0.081725955
35	0x3db6e20f	0.08929836
36	0x3d201f93	0.03909261
37	0x3dcad861	0.09904552
38	0xbd835ee8	-0.06414586
39	0x3dfa53b5	0.12222997
40	0xbce3bb65	-0.027799318
41	0xbdada508	-0.08478743
42	0xbe0a044b	-0.134782
43	0xbd9609e5	-0.07326106
44	0x3d395f80	0.04525709
45	0x3d8ffafc	0.07030293
46	0xbda201db	-0.0791051
47	0x3c272cda	0.010203565
48	0x3d9a2da2	0.07528235
49	0x3da26eed	0.07931314
50	0x3dec4e9b	0.1153843
51	0x3c9bc375	0.0190141
52	0x3b0fe781	0.0021958055
53	0xbd42f462	-0.047596343
54	0x3d622f00	0.055220604
55	0xbda1cfdc	-0.07900974
56	0xbdea0b4f	-0.11427938
57	0xbdd30b68	-0.1030491
58	0xbda3f9fc	-0.08006665
59	0xbe074cc3	-0.13212876
60	0xbde28511	-0.11060537
61	0xbd010ca4	-0.031506196
62	0xbb057c6b	-0.0020368348
63	0x3dacac62	0.08431317
64	0xbd5af751	-0.053458516
65	0xbd30efc2	-0.0431974
66	0xbd4fc124	-0.050721303
67	0xbd946d86	-0.072474524
68	0x3c959827	0.018261028
69	0x3e0282e9	0.12745251
70	0x3de9f650	0.114239335
71	0xbb2baa92	-0.0026194197
72	0xbdec8751	-0.11549247
73	0x3beb13b2	0.0071739787
74	0xbde4c55b	-0.11170455
75	0xbd9acd9b	-0.075587474
76	0xbd133faa	-0.035949387
77	0x3d16aa87	0.03678372
78	0x3d577d2b	0.052609604
79	0xba57424a	-0.0008211477
80	0xbe04a17e	-0.1295223
81	0xbe044c42	-0.12919715
82	0xbda4365d	-0.080181815
83	0x3df88bde	0.121360525
84	0x3ddd9593	0.10819545
85	0x3e00d465	0.12581022
86	0x3d51eebb	0.05125306
87	0xbd2c0b1e	-0.04200279
88	0xbd4e32f2	-0.050341554
89	0x3c4ecc2b	0.01262192
90	0xbc947dc0	-0.018126369
91	0xbd76a9e0	-0.0602206
92	0x3dcf1064	0.10110548
93	0xbe0254cc	-0.1272766
94	0xbdb880a2	-0.0900891
95	0x3d617c2c	0.05505006
96	0x3daf4eed	0.08559976
97	0xbcdbc1d9	-0.026825832
98	0xbdf0beb7	-0.11755126
99	0x3d467941	0.04845548
100	0x3df69aad	0.12041221
101	0x3df6de8c	0.12054166
102	0xbd78cf17	-0.06074437
103	0xbe008cbe	-0.12553689
104	0xbc1f5931	-0.009725855
105	0xbdc531ef	-0.09628665
106	0xbb795f28	-0.0038051102
107	0x3c6d3608	0.014478214
108	0x3d2ed06c	0.042679235
109	0xbd620b5a	-0.055186607
110	0x3dc7bfa4	0.097533494
111	0x3cb41aa8	0.021985367
112	0x3db40e33	0.08791771
113	0xbe06d56d	-0.13167353
114	0xbcee8f6a	-0.02912112
115	0xbd761957	-0.06008276
116	0x3dac2e6f	0.08407294
117	0xbc65199a	-0.013983155
118	0xbd163beb	-0.036678236
119	0x3deeb225	0.11655072
120	0xbddded48	-0.108362734
121	0xbad0a516	-0.001591834
122	0x3d90fea5	0.070798196
123	0x3b36ad4a	0.0027874284
124	0xbd9fd498	-0.07804221
125	0x3c6ad507	0.014333016
126	0x3bb76e4d	0.0055978657
127	0xbde69a19	-0.112598605
128	0x3cca4d74	0.024695136
129	0xbc5108cf	-0.012758448
130	0x3d888569	0.06666071
131	0x3bc6b8dc	0.0060645174
132	0xbd86d6ac	-0.06583914
133	0x3dc413d7	0.09574097
134	0x3d99cf75	0.075102724
135	0x3e0470dc	0.12933677
136	0x3cdb66b7	0.026782377
137	0x3ce16cb1	0.027517648
138	0x3d76e2bf	0.060274836
139	0x3cbc5fa2	0.02299482
140	0xbdc8fae5	-0.09813479
141	0x3db430bd	0.087983586
142	0xbd030524	-0.031987324
143	0xbdf2d35e	-0.11856721
144	0x3dfa77fc	0.122299165
145	0xbd02e9dc	-0.031961307
146	0xbc850afe	-0.016240593
147	0x3d312bbe	0.043254606
148	0x3d94a3d4	0.0725781
149	0xbd7b883e	-0.061409228
150	0xbdb1d0e5	-0.086824216
151	0xbc9445cf	-0.018099694
152	0xbd353347	-0.044238355
153	0xbcf3cbeb	-0.029760322
154	0x3df1e035	0.11810342
155	0xbda24de3	-0.07925012
156	0xb81b4b9b	-3.7025293e-05
157	0x3ceee1b1	0.029160352
158	0xbd28fa08	-0.041254073
159	0xbd2d4aea	-0.04230777
160	0x3d7d56a1	0.061850194
161	0x3d4a6e9b	0.049421888
162	0x3d0671d3	0.032823395
163	0x3dbd58db	0.092454635
164	0xbd71b080	-0.059006214
165	0x3d1d1d81	0.038358215
166	0x3a98d771	0.0011660886
167	0xbe10b60c	-0.14131945
168	0xbdaf7d8f	-0.0856887
169	0xbcac2c5e	-0.02101725
170	0x3d625007	0.0552521
171	0xbcc7685e	-0.024341758
172	0xbdf31b88	-0.118704855
173	0x3de6df86	0.112731025
174	0x3b384473	0.002811697
175	0x3db33260	0.08749843
176	0xbbb1433f	-0.0054096277
177	0xbba7f1bb	-0.005125252
178	0x3d78fb89	0.060786758
179	0x3ad6a339	0.0016375548
180	0xbc833a88	-0.01601912
181	0x3dcdef37	0.10055392
182	0xbcb996e2	-0.022654954
183	0xbd97233d	-0.07379768
184	0x3c13b1d1	0.009014563
185	0xbc48a4c8	-0.012246318
186	0x3dab35eb	0.083598934
187	0xbe03a44b	-0.12855642
188	0x3d8aba55	0.06773821
189	0x3e15d916	0.14633593
190	0xbd6f9663	-0.05849303
191	0x3d87425d	0.06604455
192	0xbd6cd550	-0.05782062
193	0x3db8a677	0.09016126
194	0x3d8990ac	0.06717047
195	0x3e0b9e46	0.13634595
196	0x3ce2ec41	0.027700545
197	0xbd5a6c77	-0.053326096
198	0x3e11e10e	0.14246008
199	0x3e1804a7	0.14845525
200	0xbde6cdaa	-0.11269696
201	0x3d883487	0.06650644
202	0x3c4fcc3a	0.012682969
203	0xbc2768d7	-0.010217867
204	0x3d9a7b88	0.07543093
205	0x3d0091c5	0.031389017
206	0xbd8ce62f	-0.068798415
207	0xbe0048c8	-0.12527764
208	0xbdc508a6	-0.0962079
209	0x3de4b342	0.11167003
210	0x3da9e9f0	0.08296573
211	0x3de48429	0.1115802
212	0xbdad5b58	-0.08464688
213	0x3dbe9337	0.09305423
214	0x3df39b75	0.118948855
215	0x3d83d803	0.06437685
216	0x3de6a033	0.11261024
217	0x3dcb3efe	0.09924124
218	0x3d7740f4	0.06036468
219	0x3d5c85fb	0.05383871
220	0x3ce5ce1e	0.028052386
221	0xbd318db4	-0.04334803
222	0x3d35e1ce	0.044404797
223	0xbc6b9152	-0.014377909
224	0x3d287c08	0.04113391
225	0xbdfc3a04	-0.12315753
226	0xbe0305f0	-0.12795234
227	0xbd315e24	-0.04330267
228	0x3e06f3b2	0.131789
229	0xbda0afb8	-0.07846016
230	0x3df53e8d	0.11974821
231	0x3dfb8178	0.122805536
232	0xbb2439d6	-0.0025058887
233	0xbb8a1a68	-0.0042145737
234	0xbcd223aa	-0.025651772
235	0x3db88dae	0.09011398
236	0xbc2bb465	-0.010480021
237	0x3ae45534	0.0017420412
238	0x3d88c9d2	0.06679119
239	0xbde6fae8	-0.11278325
240	0xbd3b5575	-0.045735795
241	0x3d1a9578	0.0377402
242	0xbcdf84a8	-0.027284935
243	0xbd177a15	-0.03698166
244	0xbe03b6a4	-0.1286264
245	0xbdf21005	-0.11819462
246	0xbbad7215	-0.0052931407
247	0xbdb6d90e	-0.08928119
248	0x3d0ab629	0.033865128
249	0xbdbfdd02	-0.09368326
250	0x3d69b6cc	0.057059094
251	0xbd363e5c	-0.044493064
252	0x3dca83b4	0.09888402
253	0x3d713f60	0.05889833
254	0x3dd7bcba	0.105340436
255	0xbde4c626	-0.11170606

mlp.2.weight f4 [128, 256]
0	0x3d63bb45	0.055598516
1	0x3d1bf6ea	0.038077272
2	0x3cc3d9f4	0.02390764
3	0xbda9aa29	-0.082844086
4	0xbd572be4	-0.05253209
5	0x3d6d6c0e	0.057964377
6	0x3d39f6cc	0.04540138
7	0x3d0162c5	0.031588335
8	0xbc120a48	-0.008913584
9	0xbd402201	-0.04690743
10	0x3ce34885	0.027744541
11	0x3cb5177a	0.022105921
12	0x3b729844	0.0037017027
13	0x3ccdcb25	0.02512128
14	0xbcf00db3	-0.029303407
15	0x3b4c238d	0.003114912
16	0xbd167d43	-0.036740553
17	0x3d0c18aa	0.03420321
18	0xbd09c927	-0.0336391
19	0xbc82085b	-0.015873125
20	0x3d38f4b5	0.045155246
21	0xbc3e7015	-0.011623402
22	0x3c951e80	0.01820302
23	0x3c9832ff	0.018579004
24	0xbd65dfef	-0.056121763
25	0xbd43278f	-0.047645148
26	0x3d860d1c	0.06545469
27	0xbd022246	-0.031770967
28	0x3d5a0617	0.053228464
29	0x3c280a79	0.010256403
30	0xbcb878eb	-0.022518596
31	0x3d4df649	0.050283704
32	0x3d0dbe4a	0.034605302
33	0x3b9319b3	0.0044891476
34	0xbce70390	-0.02819994
35	0x3b93730e	0.0044997996
36	0x3ccd51de	0.025063451
37	0x3a8151d2	0.0009866303
38	0xbc822071	-0.01588461
39	0x3d9b7b6f	0.075919025
40	0x3b8e40f3	0.0043412386
41	0x3b91c4da	0.0044485154
42	0xbc8bee07	-0.017081274
43	0xbc5e6ebe	-0.013576208
44	0xbd5a5b9b	-0.053310018
45	0x3cb4b426	0.022058558
46	0x3d5ab3f5	0.053394277
47	0xbb981d1d	-0.0046421424
48	0x3d24dbf9	0.040248845
49	0x3d3189ef	0.043344434
50	0xba03c0f7	-0.00050260074
51	0x3c01b74b	0.007917236
52	0x3d161eb5	0.03665038
53	0x3d848914	0.06471458
54	0x3cdf206c	0.02723714
55	0xbd1cf2fa	-0.038317658
56	0x3d380127	0.044922974
57	0x3d7266b7	0.059179988
58	0x3cb5b4a8	0.02218087
59	0xbd29793b	-0.04137538
60	0xbc752cc1	-0.014964283
61	0x3bf6db73	0.0075334846
62	0xbc6405db	-0.013917412
63	0xbc9360b2	-0.017990444
64	0xba16dd37	-0.00057550095
65	0x3d82bf60	0.06384158
66	0xbd20b4b6	-0.03923484
67	0xbd0f2876	-0.034950696
68	0x3da02700	0.07819939
69	0x3c846d8f	0.016165523
70	0xbc95352b	-0.018213829
71	0xbd12afe4	-0.035812274
72	0x3cbf3d65	0.023344705
73	0xbc457a94	-0.012053151
74	0xbd0b656f	-0.03403228
75	0xbd185ab1	-0.037195865
76	0xbcd594d7	-0.026071949
77	0x3d21cfa9	0.03950468
78	0xbbcd4acc	-0.00626502
79	0xbc678dc6	-0.0141329225
80	0x3bccd474	0.0062509123
81	0x3d423d62	0.04742182
82	0xbd0a76cc	-0.0338047
83	0x3d79c228	0.060976177
84	0x3d1ae15c	0.037812576
85	0xbd84346b	-0.064553104
86	0x3b9e78f1	0.0048361947
87	0x3db9be88	0.09069544
88	0xbd1eb1b7	-0.0387437
89	0x3cb305e2	0.021853391
90	0xbcdf4f47	-0.027259482
91	0xbd1ff087	-0.039047744
92	0x3d059619	0.032613847
93	0x3cffc240	0.031220555
94	0xbd1e201f	-0.03860485
95	0xbccf3bed	-0.02529713
96	0x3bdb366e	0.006689838
97	0x388bfadf	6.674765e-05
98	0xbb9bc2a6	-0.0047534285
99	0x3c17bf25	0.009261881
100	0xbb04d334	-0.0020267488
101	0x3c8d3fe2	0.017242376
102	0x3d4b4644	0.049627557
103	0xbb91bf3a	-0.004447845
104	0xbd262d87	-0.040570762
105	0x3d867427	0.06565123
106	0x3d7b62f6	0.061373673
107	0xbc22149c	-0.009892609
108	0x3d737e7a	0.05944679
109	0x3d368e41	0.044569258
110	0x3bcdf7c2	0.0062856385
111	0x3d72b243	0.059252035
112	0x3d883e83	0.06652548
113	0x3cfc8c02	0.03082848
114	0xbd2ad5f4	-0.041707948
115	0x3cfd13aa	0.030893166
116	0x3d92d503	0.07169535
117	0xbd8d7368	-0.069067776
118	0xbd35956a	-0.044331945
119	0xbacfc57c	-0.0015851702
120	0x3bb51a77	0.0055268365
121	0x3999ffbc	0.0002937297
122	0xbcdb4429	-0.0267659
123	0x3cfb8dd4	0.030707277
124	0x3d54235d	0.051791538
125	0x3b2a2013	0.002595906
126	0x3c4f3212	0.012646215
127	0xbd2d24a5	-0.042271275
128	0x3c1fffec	0.009765606
129	0x3c95bfa9	0.018279867
130	0x3d1709f7	0.036874738
131	0x3cf31c63	0.029676622
132	0xbc8e7a13	-0.017392194
133	0xbd0ff34a	-0.035144128
134	0x3d39a759	0.04532561
135	0x3d70f1ff	0.058824535
136	0x3c0b9f20	0.008521825
137	0xbab8738b	-0.001407252
138	0xbc74b1d7	-0.014934978
139	0x3d77dea4	0.06051506
140	0xbd8b9841	-0.068161495
141	0x3c9815f6	0.01856516
142	0xbc9822c6	-0.018571269
143	0x3bac9ab6	0.0052674664
144	0xbd3fc4dc	-0.0468186
145	0x3cd81938	0.026379213
146	0x3d60cb28	0.054881245
147	0x3d1f9fef	0.038970884
148	0xbd279e8b	-0.040922683
149	0xbb895aa1	-0.004191712
150	0xbd068c97	-0.03284892
151	0xbc8ce7ae	-0.017200317
152	0xbcd0d527	-0.025492264
153	0xbd6a7494	-0.057240084
154	0x3d9cb8e7	0.07652455
155	0x3d132fe1	0.035934333
156	0x3ad06202	0.0015898349
157	0x3cbbe304	0.022935398
158	0xbcc00ac2	-0.02344263
159	0x3d3a9b7b	0.045558434
160	0x3d3aaaa4	0.04557289
161	0xba7de089	-0.00096846424
162	0x3d6d1825	0.057884354
163	0x3cab0751	0.020877512
164	0xbcdaa974	-0.02669213
165	0x3d59b5c7	0.053151872
166	0x3c7a3194	0.015270609
167	0x3d035b73	0.032069635
168	0xbd6718c2	-0.056420095
169	0x3c98a91e	0.018635329
170	0xbb811008	-0.0039386787
171	0xbd73b6a4	-0.05950035
172	0x3d6114d0	0.05495149
173	0x3d22deb7	0.03976318
174	0xbac57419	-0.0015064507
175	0x3cfdcac7	0.03098048
176	0x3d407037	0.046982016
177	0xbc970912	-0.018436942
178	0xbb3bb7a4	-0.0028643394
179	0xbd0f53eb	-0.03499214
180	0x3d33d41b	0.04390345
181	0x3d6538df	0.05596244
182	0xbcf8442a	-0.03030594
183	0x3d35484c	0.0442584
184	0xbd4b4c26	-0.049633168
185	0x3cf46241	0.029832007
186	0x3d8077a4	0.0627282
187	0xbd22dcfa	-0.03976152
188	0x3c1d1f98	0.009590052
189	0xbccabf15	-0.024749318
190	0x3d32b308	0.04362777
191	0x3afa0698	0.0019075451
192	0x3cdb919b	0.026802829
193	0x3d64ca13	0.055856775
194	0xbc6aa325	-0.014321123
195	0x3d026147	0.031831052
196	0x3d7638de	0.060112827
197	0x3c79355f	0.015210479
198	0xbd0bdedf	-0.034148093
199	0x3c70b4b1	0.014691518
200	0x3d3210fa	0.04347322
201	0x3cf098e9	0.029369788
202	0x3d5496ce	0.05190163
203	0xbce66b2b	-0.028127274
204	0x3d23fbe3	0.04003514
205	0x3d013a7b	0.031549912
206	0xbda5a3fc	-0.08087918
207	0xbd114833	-0.035469245
208	0x3d2df3d3	0.042468857
209	0x3c5af50b	0.013364087
210	0x3d3a49d4	0.045480564
211	0x3c8240a1	0.015899958
212	0x3c2de23a	0.010613019
213	0xbd8eb3f7	-0.06967919
214	0x3d1ca748	0.03824547
215	0x3b4d5bc9	0.0031335226
216	0x3d17bb99	0.03704414
217	0x3ce3a044	0.027786382
218	0xbc4dc831	-0.012559936
219	0xbd19e439	-0.037571166
220	0xbbeda4ed	-0.0072523267
221	0x3c1b2410	0.009469047
222	0xbad4ddf1	-0.001624046
223	0x3d8fc295	0.070195355
224	0xbca97b54	-0.02068869
225	0xbc0458b3	-0.008077788
226	0xbd66a7e6	-0.056312464
227	0x3d29ac40	0.041424036
228	0x3d1ae104	0.037812248
229	0x3d99529e	0.07486461
230	0x3b90fceb	0.0044246814
231	0xbbf2e4c0	-0.007412523
232	0x3cdec027	0.027191235
233	0x3d11d881	0.035606865
234	0xbd4631b9	-0.048387263
235	0x3d23e5ed	0.040014196
236	0xbcfb4ef5	-0.030677298
237	0x3d02ab7f	0.031901833
238	0xbbeb137f	-0.007173955
239	0xbd663bc2	-0.056209333
240	0xbd49f63b	-0.04930709
241	0x3c40022e	0.01171927
242	0x3cdd04f3	0.026979899
243	0xbd128a6b	-0.035776537
244	0xbd22c668	-0.039739996
245	0x3bc54e0c	0.006021267
246	0x3c991287	0.018685592
247	0xbcd1b2d6	-0.025597971
248	0x3cde50ad	0.027138079
249	0xbbb5147f	-0.005526125
250	0xbd4d6adf	-0.05015075
251	0x3a37efdb	0.0007016637
252	0xbce6c264	-0.028168865
253	0xbd123d0b	-0.035702746
254	0x3d1d51cd	0.03840809
255	0xbaad8dd0	-0.0013241116

mlp.2.bias f4 [128]
0	0xbd4a0ae9	-0.04932681
1	0x3d3bfdca	0.04589633
2	0xb943c2e4	-0.00018669252
3	0xbc7ae36e	-0.0153130125
4	0x3c0d54e7	0.008626199
5	0x3ccab758	0.024745628
6	0xbd25329f	-0.04033148
7	0xbcbda45c	-0.023149662
8	0xbb2a9d5b	-0.0026033733
9	0xbc8948cf	-0.01675835
10	0x3d5506c6	0.052008413
11	0xbccc5bed	-0.024946177
12	0xbcd9e470	-0.026598185
13	0xbc33e826	-0.0109806415
14	0x3c835966	0.01603384
15	0x3ca06d05	0.019583235
16	0x3cb9536c	0.022622786
17	0xbd43230d	-0.04764085
18	0x3bf7de5d	0.0075643496
19	0x3cfabb6f	0.030606953
20	0x3c2c7937	0.010526947
21	0x3d48e1cd	0.049043465
22	0x3d1583a2	0.036502488
23	0xbcf11bb2	-0.029432151
24	0x3a7b1987	0.0009578694
25	0xbc6ac5db	-0.014329399
26	0x3c7ef67b	0.015561695
27	0x3a9a0213	0.0011749886
28	0xbd1b0958	-0.037850708
29	0x3d7b0394	0.06128271
30	0x3d630dd6	0.055433117
31	0x3d18c29c	0.03729497
32	0xbd78f978	-0.060784787
33	0x3d0cae08	0.034345657
34	0xbd4d695b	-0.050149303
35	0xbd1922ad	-0.037386585
36	0x3c6bb6cb	0.014386843
37	0x3c8043e5	0.015657375
38	0xbd6c28e2	-0.057656176
39	0xbd6503b0	-0.05591172
40	0x3d065bfb	0.032802563
41	0xbd00c646	-0.03143909
42	0xbd1c5012	-0.0381623
43	0xbd63ebeb	-0.05564491
44	0xbc2d0f25	-0.010562693
45	0x3bb807a7	0.0056161466
46	0x3d2000a9	0.03906313
47	0x3c9fc7d5	0.019504467
48	0x3d30ef2f	0.043196853
49	0xbc16c571	-0.009202347
50	0xbcae4f39	-0.02127801
51	0xbad73e84	-0.0016421829
52	0x3c05802b	0.008148233
53	0x3c954836	0.01822291
54	0xbc414084	-0.011795167
55	0x3ca0c55d	0.01962536
56	0x3d15ada2	0.036542542
57	0x3d8404b8	0.064462125
58	0x3d6f15c7	0.058370378
59	0x3d561d6e	0.05227416
60	0x3c52cc9f	0.012866168
61	0x3d63fed3	0.05566294
62	0x3d4d5036	0.050125323
63	0x3c8582a4	0.016297646
64	0xbc7b708c	-0.0153466575
65	0x3d4aaad9	0.04947934
66	0x3c79a04e	0.0152359735
67	0xbc334824	-0.010942493
68	0x3bd4ac1e	0.0064902445
69	0xbc31be38	-0.010848574
70	0x3d0b5ba3	0.03402294
71	0x3c1e5b9a	0.009665394
72	0xbd7b2e18	-0.061323255
73	0xbcf61804	-0.030040748
74	0xbc79c368	-0.015244342
75	0xbd1d6e98	-0.03843555
76	0xbd4dadee	-0.0502147
77	0xbd00c53f	-0.03143811
78	0xbd13791b	-0.036004167
79	0xbcfd4c66	-0.030920219
80	0xb98221b0	-0.0002482063
81	0x3ca99ff3	0.020706153
82	0xbc8928ca	-0.016743083
83	0x3c9e75cd	0.019343281
84	0x3d30dd55	0.04317983
85	0x3b7a3cac	0.0038183136
86	0x3c347737	0.011014751
87	0x3d22db77	0.03976008
88	0x3c9abfe6	0.018890332
89	0xbd4844b0	-0.04889363
90	0x3d0fdf90	0.035125315
91	0xbd515d8c	-0.051114604
92	0xbd5f1a2c	-0.05446832
93	0x3d603506	0.054738067
94	0xbd4d509a	-0.050125696
95	0x3d24e935	0.040261466
96	0x3cc3cec2	0.0239023
97	0x3cdaf407	0.02672769
98	0x3cc9a43d	0.024614448
99	0x3d3d738d	0.046252776
100	0x3d17cc48	0.037060052
101	0x3c58195c	0.01318964
102	0x3c86c032	0.016449068
103	0x3d22b090	0.039719164
104	0x3caabaa0	0.020840943
105	0x3d3ec8fb	0.04657839
106	0x3c18af41	0.009319128
107	0xbcdddee1	-0.027083816
108	0xbd33b2e6	-0.043871783
109	0xbd848b0a	-0.06471832
110	0x3aa6895d	0.0012705732
111	0x3c856ec2	0.016288165
112	0xbb8762b4	-0.0041316394
113	0xbce87b95	-0.028379241
114	0x3ccc7e27	0.024962498
115	0xbd6c2b08	-0.057658225
116	0x3b8042f4	0.0039142314
117	0x3ccb0c7b	0.024786225
118	0xbcb0fce0	-0.021604955
119	0x3d3ab214	0.045579985
120	0xbcae67ae	-0.021289673
121	0x3c24c844	0.010057513
122	0xbd526fbb	-0.051376086
123	0xbd297bae	-0.041377716
124	0xbaddf8f6	-0.0016935158
125	0x3d2b7b02	0.041865356
126	0x3c8bcf3e	0.017066594
127	0xbd02d156	-0.03193792
