weights2/ep_3566.pth (torch, 275655 bytes, 10 tensors)

lstm.weight_ih_l0 f4 [192, 7]
0.18336764 -0.20643614 -0.27260086 0.02949332 0.097850494 -0.0403286 0.008509695 0.11112853
-0.10271389 0.054904178 0.061184794 0.1364902 -0.0121128205 0.14922132 -0.094679154 -0.0030632426
-0.15815714 -0.1848848 0.2543062 0.19043718 0.04110675 0.024283802 0.18953267 -0.018109506
-0.14843577 0.41420406 0.07258007 0.47856864 -0.11662378 0.026228208 -0.03819397 -0.12218976
0.19329402 0.25517094 0.13588426 -0.20498696 0.2651714 -0.010579425 0.14998801 0.029312782
-0.2975553 0.07765646 -0.029865602 0.20844014 -0.14062543 -0.028046383 0.13466842 0.045910686
0.04979567 0.05584589 0.05970118 -0.113563254 -0.00854794 0.198685 -0.032850377 0.20369567
-0.064841986 0.15862715 -0.06381093 -0.14363262 -0.0135636395 0.2607231 -0.000588311 -0.10672505
0.0047388254 -0.13949026 -0.20422815 0.20270267 0.20211224 0.24804704 -0.18648434 -0.11359226
-0.21890447 0.06647862 0.028356591 -0.24448444 0.08201459 -0.13680644 -0.15736625 0.01676758
0.05973321 -0.05538151 -0.14977753 0.077719435 -0.08128161 0.1975861 0.28095815 0.005766691
0.2118782 0.24596526 -0.010310567 -0.17121847 0.14985295 -0.08635688 -0.19951274 0.09090421
0.06801287 0.18153737 -0.17718306 -0.0785424 0.004756488 0.04098694 0.16481484 0.040044077
0.18952328 -0.022217728 -0.038249794 0.04811266 0.13267528 0.105769426 0.10842207 0.024757544
-0.11065856 0.16081892 -0.11024267 -0.042104848 0.13984576 0.025952991 0.22913301 0.099205375
0.01913337 -0.20876652 -0.21347836 0.272926 -0.023978135 0.24501008 0.072605826 0.11482892
-0.11943369 -0.051459514 0.08065632 0.20241323 0.09429401 -0.13817494 0.06657095 0.29962116
0.14912601 0.0661068 0.088918634 0.15643147 0.0015919175 -0.079563335 0.11590224 -0.032311775
0.23522618 0.033522747 0.036451396 -0.03233309 0.23254094 0.08736622 0.02551573 0.14420953
0.30757672 0.21384245 0.13685405 -0.08008671 0.09473907 -0.046804123 0.10867873 0.5461529
0.18831877 -0.15686986 0.01531072 -0.23853716 -0.08258551 0.2284558 0.32080647 0.25107938
0.13844797 -0.0639039 -0.33517528 -0.033824835 0.08370597 -0.038182806 -0.00020549289 -0.029305771
0.07832265 0.17588447 -0.048075914 0.17133316 0.03418367 -0.003326957 0.017704703 -0.07221611
-0.16857108 -0.074190505 0.08969283 -0.21948029 0.10167474 0.10153926 0.13690814 0.015271932
0.0045689563 0.24058664 0.3991869 0.07053554 0.23459914 -0.067119986 -0.007046119 0.14382039
-0.05141608 -0.18585008 0.12285225 -0.19238126 0.021625195 0.10341624 0.16949119 0.2367963
0.16508938 0.29597613 0.2430284 0.013508257 0.026197752 0.20864166 0.1274609 0.13905187
0.052803732 0.23435567 0.0500881 0.031062728 -0.054538336 0.03458307 0.18803221 0.058280252
0.28117272 -0.08790176 0.12586144 0.20100504 0.17460555 0.13910878 0.08217351 0.26545808
-0.16439016 0.06585265 -0.032972813 0.109352656 -0.15752056 -0.064134814 0.13772967 0.3014245
-0.08672199 0.011254614 0.041740622 -0.018633455 0.14098594 -0.11787795 -0.069056064 -0.22614309
-0.0624016 0.0972841 -0.04280139 0.035124347 0.12928279 0.22357173 0.16973008 0.005472871
00000000: bac4 3b3e ff63 53be 5792 8bbe fa9b f13c
00000010: d765 c83d 9a2f 25bd 3f6c 0b3c 5b97 e33d
00000020: a95b d2bd 34e3 603d e89c 7a3d 16c4 0b3e
00000030: da74 46bc 79cd 183e 25e7 c1bd afc0 48bb
00000040: f2f3 21be 7152 3dbe 6c34 823e f701 433e
00000050: 8d5f 283d d3ee c63c da14 423e 635a 94bc
00000060: 8cff 17be 8e12 d43e dca4 943d f306 f53e
00000070: 73d8 eebd 8adc d63c 4871 1cbd a03e fabd
00000080: deee 453e c4a5 823e 3e25 0b3e 1ae8 51be
00000090: 8cc4 873e 5355 2dbc 7596 193e 5c21 f03c
000000a0: 2b59 98be 5a0a 9f3d b5a8 f4bc 5571 553e
000000b0: 1d00 10be 87c1 e5bc 85e6 093e d80c 3c3d
000000c0: 8bf6 4b3d a9be 643d 3989 743d da93 e8bd
000000d0: a90c 0cbc 1574 4b3e 1e8e 06bd 9995 503e
000000e0: e0cb 84bd 286f 223e 4eaf 82bd 6e14 13be
000000f0: 073a 5ebc 807d 853e e238 1aba aa92 dabd
00000100: 2648 9b3b 89d6 0ebe 2f21 51be 4a91 4f3e
00000110: 83f6 4e3e 0b00 7e3e c0f5 3ebe 0fa3 e8bd
00000120: 7e28 60be f125 883d 154c e83c 215a 7abe
00000130: 44f7 a73d fd16 0cbe 9e24 21be 2a5c 893c
00000140: cfaa 743d b9d7 62bd 485f 19be 5e2b 9f3d
00000150: f976 a6bd 0354 4a3e bfd9 8f3e 83f6 bc3b
00000160: 99f6 583e 51de 7b3e a7ed 28bc e553 2fbe
00000170: 0d73 193e e0db b0bd 114d 4cbe fd2b ba3d
00000180: 554a 8b3d efe4 393e 7a6f 35be d6da a0bd
00000190: 50dc 9b3b ece1 273d 39c5 283e 4205 243d
000001a0: 6412 423e f401 b6bc d1ab 1cbd c811 453d
000001b0: 07dc 073e a49d d83d 640c de3d 55d0 ca3c
000001c0: f5a0 e2bd b7ad 243e e9c6 e1bd 2276 2cbd
000001d0: ba33 0f3e 5e9b d43c d8a1 6a3e 302c cb3d
000001e0: 96bd 9c3c e4c6 55be 129a 5abe f5bc 8b3e
000001f0: cb6d c4bc ece3 7a3e 5db2 943d 6d2b eb3d
00000200: a799 f4bd 36c7 52bd 242f a53d 6a45 4f3e
00000210: 381d c13d bb7d 0dbe 5a56 883d f267 993e
00000220: 7db4 183e 0163 873d f91a b63d 922f 203e
00000230: e3a7 d03a 1af2 a2bd 275e ed3d 5a59 04bd
00000240: 22df 703e 264f 093d 0f4e 153d b46f 04bd
00000250: 361f 6e3e 10ed b23d 5d06 d13c aaab 133e
00000260: b27a 9d3e 84f9 5a3e 7823 0c3e 8004 a4bd
00000270: 8f06 c23d aeb5 3fbd f492 de3d add0 0b3f
00000280: a3d6 403e 7ea2 20be d0d9 7a3c 1643 74be
00000290: 9822 a9bd 51f0 693e bf40 a43e 7a8d 803e
000002a0: 4ec5 0d3e 0ce0 82bd 189c abbe e98b 0abd
000002b0: 096e ab3d 9365 1cbd 9479 57b9 a812 f0bc
000002c0: a067 a03d 0f1b 343e 40eb 44bd f671 2f3e
000002d0: 2d04 0c3d 1409 5abb 7409 913c 0ae6 93bd
000002e0: e69d 2cbe 31f1 97bd e0b0 b73d 71bf 60be
000002f0: d93a d03d d1f3 cf3d a631 0c3e 2037 7a3c
00000300: 2fb7 953b 585c 763e 3a62 cc3e f074 903d
00000310: c23a 703e 3476 89bd 21e3 e6bb a745 133e
00000320: ab99 52bd 7c4f 3ebe f699 fb3d 98ff 44be
00000330: 5227 b13c e5cb d33d 198f 2d3e bb7a 723e
00000340: 310d 293e 2f8a 973e 70dc 783e bd51 5d3c
00000350: ab9c d63c 29a6 553e 1c85 023e 9d63 0e3e
00000360: ba48 583d effa 6f3e 2e29 4d3d 4377 fe3c
00000370: 9763 5fbd faa6 0d3d 848b 403e 46b7 6e3d
00000380: dff5 8f3e d705 b4bd d2e1 003e 44d4 4d3e
00000390: cccb 323e 8872 0e3e 964a a83d 1fea 873e
000003a0: e555 28be c1dd 863d 800e 07bd 49f4 df3d
000003b0: 124d 21be 1d59 83bd 0209 0d3e 5054 9a3e
000003c0: 4c9b b1bd 4665 383c 37f8 2a3d 30a5 98bc
000003d0: 9e5e 103e ff69 f1bd 446d 8dbd 0e92 67be
000003e0: d298 7fbd e33c c73d 8350 2fbd 8cde 0f3d
000003f0: b562 043e fdef 643e b9cd 2d3e c555 b33b

lstm.weight_hh_l0 f4 [192, 48]
-0.2773461 -0.24815087 -0.033144772 -0.26587552 0.22736269 0.015026449 -0.12630045 0.0016299387
0.1262947 0.11619221 -0.23574595 0.34383038 0.018665295 0.18627635 -0.099337995 -0.04575279
0.12163977 -0.009501041 0.03863779 0.027636899 -0.0648128 -0.04302993 0.035707664 -0.09071227
-0.10050936 0.07860982 0.13626073 -0.024640905 -0.22144857 0.19128928 0.21033272 -0.05786937
0.15246989 0.06371693 -0.2517444 -0.12775742 0.08366512 -0.07991881 0.28157312 0.15359364
-0.11014943 -0.082157716 0.4342575 -0.18371814 -0.34065926 0.28707296 -0.027623327 -0.12679452
-0.12133407 -0.07358877 0.108143225 -0.28155294 0.18843186 -0.050001554 0.02369685 -0.04367469
0.22927698 -0.071522966 -0.3448055 0.15513362 0.024301369 0.10036128 -0.1347411 0.1521501
0.07041988 -0.06516892 -0.034765597 -0.16912338 -0.22928958 0.16219787 0.055535182 0.06903524
0.019755745 0.033757493 0.15234557 0.0263126 0.0073326244 -0.30018672 -0.06812585 -0.036423568
0.2072502 -0.15119565 -0.10181187 -0.19627012 -0.22533508 -0.18449673 0.35406277 0.026440471
-0.22485523 0.038267292 0.10261016 -0.45321843 -0.3656013 0.28664923 0.03526955 -0.0064043617
-0.022333413 -0.2518664 0.41753158 -0.06915855 0.12370451 0.06431153 -0.109338984 -0.10627609
0.12897712 -0.20674363 -0.26722595 0.18066709 -0.032121424 0.10487327 -0.25357428 0.15987563
0.14967483 0.007025002 -0.05486212 -0.063168176 0.017734816 0.15427305 0.1403244 0.14400797
-0.047898628 0.18365794 -0.07359017 0.029942019 0.0609031 0.01326174 -0.13169453 0.112665415
0.024043221 0.074319124 0.032230645 -0.1369828 -0.024676284 -0.29946753 0.20345187 0.11290239
-0.17230512 0.12454892 -0.07796185 -0.34304452 -0.077652134 0.11585378 -0.07112831 0.043418713
-0.41164044 -0.06663915 0.37787384 -0.3239203 0.37693313 0.18979411 -0.23470609 -0.36584458
0.13577685 -0.24595948 -0.15056393 0.46697256 -0.23171923 0.28949958 -0.269421 0.4138152
0.3197983 -0.10107654 -0.21661296 -0.00020484338 -0.24191447 0.27971345 0.36268964 0.20163703
-0.1814039 0.26311296 0.34200847 -0.0481033 -0.057811346 -0.25193006 0.09140852 0.48358735
0.22199905 -0.113563076 -0.089440346 -0.06678648 -0.30464938 -0.3945896 0.3081105 0.31484976
-0.36498487 -0.20091976 0.31514055 -0.07010017 -0.25510377 0.57646865 0.017483046 -0.07508692
-0.44223195 -0.23785187 0.18596458 -0.3838416 0.28041363 0.0576247 -0.23517168 0.0031401583
0.2064807 0.06949521 -0.14506397 0.20142192 -0.018203894 0.5043309 -0.22417209 -0.012625187
0.39435664 -0.06988051 -0.102245525 0.16947196 -0.16853644 0.13489498 0.2754922 -0.037426546
-0.22829337 0.01966693 0.09559899 0.3388417 -0.10516999 0.047397386 -0.0071674385 0.034508497
0.29205936 -0.06119404 -0.20459622 -0.33320418 -0.31403902 -0.43097174 0.14345658 0.22201884
-0.16871046 -0.014017543 0.48994976 -0.19485468 -0.5075452 0.37054357 0.09634937 -0.15898187
-0.13994841 -0.075117275 -0.06521191 -0.28522438 0.19548036 -0.18714038 -0.0026437172 -0.19705838
0.14746115 -0.093969725 0.006945127 0.23529705 0.028556054 0.083447956 -0.18820064 0.14944308
00000000: 4f00 8ebe 431b 7ebe d0c2 07bd d620 88be
00000010: c4d1 683e 7f31 763c e854 01be aba3 d53a
00000020: 6653 013e 2ef6 ed3d 6367 71be 890a b03e
00000030: f6e7 983c 3abf 3e3e b871 cbbd 4767 3bbd
00000040: 461e f93d 41aa 1bbc a942 1e3d c766 e23c
00000050: 93bc 84bd 2740 30bd 3342 123d 5bc7 b9bd
00000060: dad7 cdbd 2ffe a03d ef87 0b3e b9db c9bc
00000070: 6ac3 62be 56e1 433e 7661 573e 6f08 6dbd
00000080: 1121 1c3e 067e 823d a4e4 80be d7d2 02be
00000090: 9e58 ab3d 79ac a3bd 5a2a 903e a747 1d3e
000000a0: 0696 e1bd 4e42 a8bd 0057 de3e 9c20 3cbe
000000b0: e46a aebe 3afb 923e 514a e2bc 6cd6 01be
000000c0: ff7d f8bd b6b5 96bd 327a dd3d b527 90be
000000d0: 48f4 403e 6ece 4cbd e51f c23c 3be4 32bd
000000e0: 96c7 6a3e a27a 92bd 598a b0be 59db 1e3e
000000f0: aa13 c73c 378a cd3d 92f9 09be 3ccd 1b3e
00000100: 4c38 903d 4877 85bd 5f66 0ebd ae2e 2dbe
00000110: e3ca 6abe 3317 263e dc78 633d 5962 8d3d
00000120: cdd6 a13c 4c45 0a3d 7a00 1c3e 868d d73c
00000130: 8346 f03b 13b2 99be 9185 8bbd e130 15bd
00000140: 6539 543e 08d3 1abe be82 d0bd 09fb 48be
00000150: 3dbe 66be b6ec 3cbe b747 b53e b099 d83c
00000160: 7340 66be 2abe 1c3d 4725 d23d 3f0c e8be
00000170: 1830 bbbe b0c3 923e ce76 103d aedb d1bb
00000180: 90f4 b6bc a2f4 80be b3c6 d53e ffa2 8dbd
00000190: ca58 fd3d c3b5 833d 1eed dfbd 47a7 d9bd
000001a0: 9412 043e 9ab4 53be d7d1 88be cb00 393e
000001b0: c191 03bd ccc7 d63d 7dd4 81be 70b6 233e
000001c0: 5c44 193e fd31 e63b 1ab7 60bd 515e 81bd
000001d0: 9b48 913c c1f9 1d3e 33b1 0f3e d376 133e
000001e0: 5a31 44bd d410 3c3e 71b6 96bd f748 f53c
000001f0: 8775 793d c547 593c eeda 06be 20bd e63d
00000200: 4af6 c43c a034 983d 4804 043d 3845 0cbe
00000210: eb25 cabc cf53 99be b055 503e 5e39 e73d
00000220: c170 30be 8113 ff3d 76aa 9fbd 88a3 afbe
00000230: 1508 9fbd bf44 ed3d b8ab 91bd d2d7 313d
00000240: 89c2 d2be 1b7a 88bd ae78 c13e e2d8 a5be
00000250: 61fd c03e 6359 423e cb56 70be fb4f bbbe
00000260: 1609 0b3e cddc 7bbe 6e2d 1abe 0717 ef3e
00000270: ce47 6dbe 4a39 943e 8df1 89be 96df d33e
00000280: 9abc a33e 3801 cfbd cacf 5dbe 3acb 56b9
00000290: 6db8 77be 9a36 8f3e 75b2 b93e f079 4e3e
000002a0: f2c1 39be beb6 863e bc1b af3e f707 45bd
000002b0: 97cb 6cbd fafc 80be 6434 bb3d c398 f73e
000002c0: b853 633e c293 e8bd 802c b7bd 5ac7 88bd
000002d0: 01fb 9bbe a607 cabe a9c0 9d3e fd33 a13e
000002e0: 4cdf babe e9bd 4dbe 1a5a a13e ae90 8fbd
000002f0: f69c 82be 7393 133f 9b38 8f3c 2cc7 99bd
00000300: 3a6c e2be 718f 73be 806d 3e3e e386 c4be
00000310: 6092 8f3e e107 6c3d d8d0 70be 1dcb 4d3b
00000320: ad6f 533e 8153 8e3d a68b 14be 8c41 4e3e
00000330: 5520 95bc d41b 013f 5e8d 65be dfd9 4ebc
00000340: 1de9 c93e 831d 8fbd 1a66 d1bd 0f8a 2d3e
00000350: d194 2cbe e921 0a3e 500d 8d3e 944c 19bd
00000360: bdc5 69be 8b1c a13c 67c9 c33d a97c ad3e
00000370: 5d63 d7bd c323 423d d5dc eabb c858 0d3d
00000380: ce88 953e 9aa6 7abd ac81 51be bd99 aabe
00000390: b9c9 a0be 54a8 dcbe 48e6 123e e858 633e
000003a0: 6fc2 2cbe d6a9 65bc b2da fa3e fc87 47be
000003b0: 7bee 01bf e3b7 bd3e d252 c53d 25cc 22be
000003c0: a34e 0fbe 16d7 99bd d28d 85bd ee08 92be
000003d0: 012c 483e baa1 3fbe 3742 2dbb acc9 49be
000003e0: 0e00 173e 3373 c0bd f393 e33b b6f1 703e
000003f0: 63ee e93c c3e6 aa3d abb7 40be 9b07 193e

lstm.bias_ih_l0 f4 [192]
0.06766711 0.13402884 0.19845885 0.22318906 0.09556057 0.07542864 0.072182715 0.2759317
0.21754771 0.26912817 -0.025775095 0.05976231 0.22361666 0.16873877 0.20396681 0.1590881
0.035771385 0.19495496 0.28386152 0.108326845 0.24425738 0.064665124 0.1295475 0.020781072
0.13695067 0.043208275 -0.10657333 0.18026957 0.012371127 0.29047316 0.08302121 -0.057414614
0.21451953 0.10761259 0.03136793 0.01763925 0.08144557 0.076252215 -0.03461713 0.031326376
0.046385504 0.06567387 0.11875264 0.056642443 0.056591354 -0.07307668 0.09235886 0.1166055
0.09327133 0.0030601914 -0.102444 0.094482996 0.12136381 0.027682729 -0.014485169 0.2871998
0.18176183 0.07763547 0.14475685 -0.077357225 0.19283172 -0.029278275 0.08852337 0.093639106
0.041903656 -0.048581745 0.13986059 -0.045668863 0.16481222 0.01620983 -0.030678108 0.06390183
-0.02456797 0.028943276 -0.0069658505 0.13340679 -0.14475897 -0.011346976 0.23427102 -0.009157273
-0.06319423 -0.05421045 0.16085479 0.08664062 0.15912375 -0.05358392 0.106158406 0.1560246
-0.09151329 -0.036054913 0.019648299 0.28618822 0.03401176 0.14362562 0.059172213 0.034918316
0.007971761 -0.012977718 0.119552925 0.14070778 -0.065010674 0.024649095 0.0862777 -0.31931022
-0.013158643 -0.13356799 0.11673048 0.065823525 -0.1175447 -0.10692221 -0.14236912 -0.026634231
-0.0033775584 0.014481054 -0.017542643 0.11650661 0.11327117 0.046848245 0.14315125 0.15392375
0.033857606 -0.0045254785 -0.051026743 -0.042832457 -0.053556465 -0.10228783 0.13460124 0.1535325
-0.11085963 -0.052506324 0.068171 0.00030257527 -0.013920328 -0.0580547 -0.12981501 -0.05833297
-0.07034528 0.074673064 -0.12195775 0.079286955 0.16098252 -0.028983887 -0.032080837 -0.020331575
0.11960817 0.09503359 0.032605775 0.37810662 0.31028077 0.25907865 0.17785938 0.08437081
0.091780834 0.21964154 0.3575704 -0.016727036 0.04752363 0.054473843 0.034892064 0.036453396
0.061861057 0.07801122 0.044672564 0.039712448 0.09710326 0.030044893 0.061959475 0.13341388
0.17808788 0.25749627 0.07835273 0.13850713 0.028534984 0.022559356 0.18545873 0.02287277
0.010724784 0.18652034 0.17941934 0.017701123 0.019049747 -0.01991427 0.04826019 0.14819537
0.11542828 0.17334074 0.41897166 0.362306 0.2522757 0.043743525 0.1884691 0.18395396
00000000: 0e95 8a3d db3e 093e cc38 4b3e ac8b 643e
00000010: 43b5 c33d 557a 9a3d 88d4 933d eb46 8d3e
00000020: d4c4 5e3e 2bcb 893e 4b26 d3bc 53c9 743d
00000030: c4fb 643e dbc9 2c3e addc 503e fee7 223e
00000040: 0485 123d 46a2 473e 4c56 913e 77da dd3d
00000050: 9b1e 7a3e 266f 843d 1aa8 043e 113d aa3c
00000060: cc3c 0c3e 29fb 303d 1e43 dabd 9698 383e
00000070: 44b0 4a3c e6b8 943e 0607 aa3d 962b 6bbd
00000080: 02ab 5b3e fd63 dc3d a97b 003d 3080 903c
00000090: efcc a63d 1f2a 9c3d b1ca 0dbd 1650 003d
000000a0: bafe 3d3d 0680 863d 9634 f33d e801 683d
000000b0: 56cc 673d 3aa9 95bd a426 bd3d ddce ee3d
000000c0: 0a05 bf3d 7e8d 483b 29ce d1bd 4d80 c13d
000000d0: 978d f83d e4c6 e23c 3453 6dbc da0b 933e
000000e0: c61f 3a3e 58ff 9e3d 243b 143e 776d 9ebd
000000f0: ae75 453e fed8 efbc be4b b53d dcc5 bf3d
00000100: 2ba3 2b3d a7fd 46bd 9d37 0f3e 460f 3bbd
00000110: 89c4 283e 7aca 843c a850 fbbc f6de 823d
00000120: c442 c9bc 731a ed3c ca41 e4bb ca9b 083e
00000130: b23b 14be abe8 39bc bee4 6f3e 6308 16bc
00000140: fa6b 81bd c70b 5ebd 1eb7 243e a370 b13d
00000150: 56f1 223e d07a 5bbd 9469 d93d eac4 1f3e
00000160: 526b bbbd 51ae 13bd 78f5 a03c 4387 923e
00000170: ea4f 0b3d 9812 133e 905e 723d 8206 0f3d
00000180: fd9b 023c 7fa0 54bc 2ad8 f43d b315 103e
00000190: 5124 85bd e6ec c93c 5db2 b03d a17c a3be
000001a0: 5997 57bc 0cc6 08be 6410 ef3d 7cce 863d
000001b0: 47bb f0bd 08fa dabd 36c9 11be 0830 dabc
000001c0: 075a 5dbb f141 6d3c 97b5 8fbc 049b ee3d
000001d0: b7fa e73d f2e3 3f3d 3e96 123e 309e 1d3e
000001e0: 46ae 0a3d 774a 94bb 6b01 51bd 1671 2fbd
000001f0: 065e 5bbd 487c d1bd e8d4 093e a037 1d3e
00000200: 600a e3bd df10 57bd 3d9d 8b3d f7a2 9e39
00000210: 1612 64bc c4ca 6dbd 3aee 04be 8dee 6ebd
00000220: 3011 90bd 31ee 983d fcc4 f9bd 3361 a23d
00000230: 9ad8 243e 9e6f edbc 3267 03bd 678e a6bc
00000240: 21f5 f43d f9a0 c23d a28d 053d 3197 c13e
00000250: 1fdd 9e3e f5a5 843e c520 363e 9aca ac3d
00000260: 97f7 bb3d b6e9 603e 7813 b73e 2307 89bc
00000270: 23a8 423d f71f 5f3d fbea 0e3d 2850 153d
00000280: 0562 7d3d 59c4 9f3d 94fa 363d 85a9 223d
00000290: 13de c63d b520 f63c 38c9 7d3d a69d 083e
000002a0: ab5c 363e 8dd6 833e 6577 a03d d0d4 0d3e
000002b0: 33c2 e93c 66ce b83c e5e8 3d3e ad5f bb3c
000002c0: 01b7 2f3c 30ff 3e3e b4b9 373e f201 913c
000002d0: 370e 9c3c 4023 a3bc 7aac 453d 87c0 173e
000002e0: a965 ec3d 3c80 313e 7483 d63e 2c80 b93e
000002f0: 482a 813e 692c 333d 0bfe 403e 6d5e 3c3e

lstm.bias_hh_l0 f4 [192]
0.102775946 0.080933005 0.1384378 0.28249124 0.15712436 0.121785395 0.20353006 0.17263676
0.088433854 0.24702545 0.17082393 0.14358273 0.09649297 0.25791177 0.1066683 0.082670316
0.14745563 0.16653325 0.10923015 0.05432918 0.014010151 0.19812699 0.21848589 0.10141366
-0.0029435945 0.018049028 -0.11093972 0.050583266 0.15513955 0.20901187 0.2592546 0.063341916
0.037427746 0.069056965 0.27419046 -0.071161285 0.05586357 -0.023048095 -0.034116797 0.09638738
0.10569434 0.15215042 0.16315007 -0.0040050745 -0.0036165167 -0.07995297 0.03615041 0.018399306
-0.09767916 0.018103786 0.12125254 -0.1586323 0.020223226 -0.044425774 0.004914792 0.15685229
0.16109943 0.048897166 0.18473372 -0.016374443 0.048708465 0.024332538 0.18737593 0.20913734
0.03576371 0.00070639007 0.118851736 0.1355841 0.05241023 -0.057625864 0.18361048 -0.015947219
0.09055067 -0.019445453 0.03364566 -0.067498915 -0.046408415 0.009820719 0.15302463 -0.013708732
0.13786693 -0.0045126653 0.10330393 0.12759805 0.11943875 -0.062904924 -0.010579715 -0.12018588
0.040704288 -0.081464775 0.12194033 0.030194487 0.15791062 0.10352699 0.13635 -0.051162004
-0.011634728 0.022644883 0.028977197 0.053202823 0.10014332 -0.020249622 -0.12565513 -0.20516787
0.14337324 -0.14264001 0.15427014 0.06462498 -0.120237805 -0.08132919 -0.014296839 0.23511931
-0.13349123 0.09992451 -0.11136124 -0.113354914 0.10542897 0.04370711 -0.12434567 0.08420458
0.06578758 0.07569793 0.06608694 0.07082637 -0.00051188515 -0.14298607 0.10443543 0.16729897
0.08767739 0.02882883 0.05259844 0.16014898 -0.14292549 -0.098572075 -0.06511821 0.087772496
-0.029932491 0.05525025 -0.1299457 0.09299944 0.098627664 -0.028980903 -0.052774917 0.113890536
0.112049274 -0.010035904 0.030954348 0.27213547 0.25572276 0.036497083 0.2024827 0.26935238
0.06579147 0.26287296 0.35243407 0.11765319 0.22241925 0.1306312 0.13676792 0.058557052
0.05340172 0.1592977 0.12858136 -0.0203637 -0.06791689 0.04189797 0.15164219 0.04004043
0.17720246 0.026915532 0.2535808 -0.012914421 0.27885482 0.20050643 -0.039841965 0.09153538
0.018791804 0.14306687 0.1807934 -0.07824064 0.07657539 0.15540008 0.19966294 0.10959906
0.10686561 0.21123594 0.39110953 0.30102417 0.115962006 0.16374134 0.18110673 0.24681358
00000000: 327c d23d 34c0 a53d a3c2 0d3e b1a2 903e
00000010: 35e5 203e 9f6a f93d 2f6a 503e b1c7 303e
00000020: cf1c b53d 3df4 7c3e 78ec 2e3e 5a07 133e
00000030: 1b9e c53d 030d 843e e974 da3d 0e4f a93d
00000040: 9cfe 163e b187 2a3e 0fb4 df3d 4688 5e3d
00000050: d58a 653c cde1 4a3e c4ba 5f3e f7b1 cf3d
00000060: 52e9 40bb 8edb 933c 5d34 e3bd 6630 4f3d
00000070: e7dc 1e3e 3507 563e 05bd 843e 68b9 813d
00000080: d64d 193d bd6d 8d3d b162 8c3e 02bd 91bd
00000090: 33d1 643d 5ccf bcbc 0ebe 0bbd bf66 c53d
000000a0: 4676 d83d 52cd 1b3e d010 273e 003d 83bb
000000b0: 1503 6dbb 62be a3bd 7412 143d 24ba 963c
000000c0: 030c c8bd 644e 943c 4053 f83d 8170 22be
000000d0: 2eab a53c cdf7 35bd 430c a13b e39d 203e
000000e0: 40f7 243e 6548 483d d62a 3d3e b223 86bc
000000f0: 8782 473d 0855 c73c 7adf 3f3e 1928 563e
00000100: f87c 123d 092d 393a 8a68 f33d 8fd6 0a3e
00000110: 1cac 563d 1909 6cbd 6304 3c3e bea3 82bc
00000120: a172 b93d 124c 9fbc 08d0 093d df3c 8abd
00000130: c016 3ebd 15e7 203c 7db2 1c3e 979a 60bc
00000140: fd2c 0d3e fbde 93bb 0391 d33d 10a9 023e
00000150: 4e9c f43d 4cd4 80bd 8a56 2dbc 0424 f6bd
00000160: 8ab9 263d 01d7 a6bd dabb f93d 6e5a f73c
00000170: 52b3 213e f505 d43d 569f 0b3e 408f 51bd
00000180: 969f 3ebc c381 b93c 9661 ed3c 34eb 593d
00000190: f117 cd3d 89e2 a5bc bdab 00be 8717 52be
000001a0: 6fd0 123e 3910 12be fef8 1d3e 1a5a 843d
000001b0: 3d3f f6bd eb8f a6bd 4a3d 6abc 1ec3 703e
000001c0: edb1 08be 39a5 cc3d 5d11 e4bd 9f26 e8bd
000001d0: 25eb d73d 3a06 333d f1a8 febd 7373 ac3d
000001e0: a4bb 863d 8407 9b3d 9758 873d 6a0d 913d
000001f0: 0830 06ba f16a 12be 3ee2 d53d 6c50 2b3e
00000200: 3490 b33d 702a ec3c 7671 573d 18fe 233e
00000210: 0f5b 12be 28e0 c9bd b25c 85bd 11c2 b33d
00000220: fc34 f5bc 164e 623d 7c10 05be 7e76 be3d
00000230: 4dfd c93d 5c69 edbc 832a 58bd 713f e93d
00000240: 177a e53d a26d 24bc f993 fd3c 5755 8b3e
00000250: 18ee 823e f77d 153d a057 4f3e 8ee8 893e
00000260: aebd 863d 4997 863e 3d72 b43e 28f4 f03d
00000270: dfc1 633e 2fc4 053e e40c 0c3e 85d9 6f3d
00000280: c3bb 5a3d f01e 233e d5aa 033e c6d1 a6bc
00000290: 0318 8bbd 359d 2b3d 1748 1b3e 6f01 243d
000002a0: 9074 353e f67d dc3c 58d5 813e 0297 53bc
000002b0: 0fc6 8e3e 8f51 4d3e 5431 23bd e776 bb3d
000002c0: 45f1 993c 1f80 123e e821 393e a13c a0bd
000002d0: 8fd3 9c3d 3321 1f3e 7174 4c3e 7975 e03d
000002e0: 5bdc da3d 3c4e 583e 823f c83e d71f 9a3e
000002f0: 7d7d ed3d cfab 273e 0b74 393e b3bc 7c3e

mlp.0.weight f4 [256, 54]
-0.13521928 -0.057228543 0.12117273 -0.016940968 0.03076078 -0.13719155 -0.1480548 0.16427012
0.07134848 0.03393389 0.18099412 0.0490034 -0.15041299 0.12191681 0.027559644 -0.01135707
0.08833424 0.020995546 -0.11403445 -0.06752174 -0.0922517 -0.14714657 0.05951693 -0.06419292
-0.0017326873 -0.07821329 -0.059622787 -0.025037315 0.09467499 -0.049291927 -0.12862143 -0.21055423
0.032902367 0.03972686 0.030179057 -0.21178222 0.15332897 0.09937196 0.15893905 0.03643875
-0.024654645 0.11528449 -0.09981235 0.022270732 0.042117048 -0.007503577 0.079311945 -0.17831334
0.0026093244 -0.055874407 0.08184766 -0.0014604196 -0.04586031 -0.0591457 0.008987444 0.07079889
0.043843664 0.025081784 -0.011019574 -0.018213773 -0.09265331 0.06878412 0.12587333 -0.16991806
0.0039374954 0.049849115 0.013505818 -0.015059562 -0.046460345 0.1914386 0.013625257 0.07572997
0.019580988 0.037438456 0.082846165 -0.18772689 -0.05146296 -0.042397253 -0.023468263 0.11123467
0.028153237 0.10946269 0.021628268 -0.0014513296 -0.010767929 -0.045679193 0.021631813 0.07067281
-0.09797583 0.04770526 -0.025116319 -0.11248913 0.158532 -0.009446172 -0.019037869 0.004566094
0.14326239 -0.08425551 0.17766461 0.14747204 -0.08798285 -0.07457341 0.06357918 -0.084483854
-0.14259721 0.16296059 0.05825926 0.08603944 0.07021471 0.06632125 -0.050249208 0.114332676
-0.007926475 0.08758189 0.037402 -0.008655424 -0.068076804 -0.14088672 -0.11173156 0.166408
-0.092109956 0.13712479 -0.10340365 -0.102453955 -0.10470653 0.09531581 0.0379057 0.073938556
0.09654207 -0.10988655 0.06314143 -0.10186588 -0.018856492 -0.010166684 0.0824164 -0.13239147
0.114042275 -0.11216624 -0.034695026 -0.04842621 0.07887986 0.1546856 0.07561369 -0.2068437
0.17641398 -0.14245458 -0.049394738 0.12401548 0.04750162 0.06159675 0.0020036683 0.043515027
-0.047647674 -0.15416941 -0.13968867 0.157357 0.05032697 -0.0940655 -0.16414788 0.087671086
0.0753356 -0.064735524 0.17745164 0.13195322 0.014201747 0.07383942 -0.099942416 0.042311545
-0.03742983 -0.04244853 0.09557985 0.05621274 0.0776938 -0.10929072 0.03566982 -0.091934465
0.11556502 -0.0118245715 -0.028141333 -0.038357727 0.033095382 0.00012900756 0.1151524 -0.0022118231
-0.0072171185 0.0408754 -0.057483092 0.02143265 0.094587296 -0.16075619 -0.028968701 0.0334788
0.059039135 0.052003678 -0.10747081 -0.011228508 -0.119862854 -0.15802744 0.061058678 -0.16493167
0.015322506 -0.0369755 0.045957036 -0.0007200301 0.011817923 -0.10059295 -0.06875767 0.09452696
0.08640731 0.08918111 0.0815083 0.039952837 0.07377279 -0.20727731 0.031192333 0.03409711
-0.14698458 0.019858995 0.027132621 -0.0930148 -0.0442233 0.07140365 -0.20065361 -0.016927546
0.11814761 -0.18574972 0.0073934114 -0.043697346 -0.03555076 -0.20282637 -0.09274392 -0.1112493
-0.02050249 -0.108190924 -0.10301479 0.21995114 -0.11278252 0.17851385 0.085150935 0.050079085
0.04624588 0.03624334 0.03470827 0.23193154 0.18233553 0.26894802 0.04004958 0.072866246
0.057515264 0.09521331 0.21374294 -0.02497644 0.021562755 0.08978487 -0.034253832 0.12035896
00000000: ec76 0abe 7a68 6abd 6929 f83d c9c7 8abc
00000010: 08fe fb3c f17b 0cbe ad9b 17be 6d36 283e
00000020: 271f 923d 43fe 0a3d 8656 393e cab7 483d
00000030: dd05 1abe 85af f93d c3c4 e13c 0113 3abc
00000040: 95e8 b43d dafe ab3c e58a e9bd d748 8abd
00000050: 76ee bcbd 97ad 16be 06c8 733d 9477 83bd
00000060: 571b e3ba 4a2e a0bd 0637 74bd 0e1b cdbc
00000070: f6e4 c13d 55e6 49bd 56b5 03be 879b 57be
00000080: a2c4 063d a2b8 223d 123a f73c 70dd 58be
00000090: 4502 1d3e 8783 cb3d ebc0 223e cc40 153d
000000a0: 8af8 c9bc 461a ec3d 6b6a ccbd 1c71 b63c
000000b0: ed82 2c3d 91e0 f5bb 4d6e a23d c697 36be
000000c0: 3301 2b3b 90dc 64bd bf9f a73d 8d6b bfba
000000d0: 05d8 3bbd c342 72bd 1340 133c 02ff 903d
000000e0: 6a95 333d 5078 cd3c 718b 34bc 0d35 95bc
000000f0: 05c1 bdbd b0de 8c3d f0e4 003e 00ff 2dbe
00000100: 1b06 813b 962e 4c3d 8247 5d3c 62bc 76bc
00000110: 344d 3ebd 7b08 443e 783c 5f3c 5118 9b3d
00000120: 4f68 a03c 1159 193d 40ab a93d 7a3b 40be
00000130: d3ca 52bd bea8 2dbd 8440 c0bc 01cf e33d
00000140: 9ea1 e63c fa2d e03d c42d b13c 8a3a beba
00000150: f86b 30bc 1b1a 3bbd 3335 b13c e8bc 903d
00000160: 8da7 c8bd 9766 433d bdc0 cdbc b360 e6bd
00000170: 3656 223e 1ec4 1abc 4ef5 9bbc 2c9f 953b
00000180: 60b3 123e 278e acbd b6ed 353e e902 173e
00000190: 5a30 b4bd f2b9 98bd cd35 823d df05 adbd
000001a0: 0105 12be 24df 263e 43a1 6e3d 7235 b03d
000001b0: bbcc 8f3d 6fd3 873d 1dd2 4dbd 4027 ea3d
000001c0: 0cde 01bc 225e b33d d732 193d 7bcf 0dbc
000001d0: da6b 8bbd 9c44 10be 84d3 e4bd dc66 2a3e
000001e0: 25a4 bcbd 716a 0c3e 4bc5 d3bd 61d3 d1bd
000001f0: 6170 d6bd ef34 c33d 0243 1b3d 196d 973d
00000200: d9b7 c53d 330c e1bd 4b50 813d 0f9f d0bd
00000210: ee78 9abc 2a92 26bc eec9 a83d a191 07be
00000220: ff8e e93d 6ab7 e5bd 5f1c 0ebd 905a 46bd
00000230: c48b a13d e765 1e3e 5adb 9a3d d6ce 53be
00000240: dea5 343e 9ddf 11be 2352 4abd d4fb fd3d
00000250: 0f91 423d e04c 7c3d fa4f 033b d03c 323d
00000260: 352a 43bd 96de 1dbe 8c0a 0fbe 3222 213e
00000270: a723 4e3d 6aa5 c0bd 6216 28be e68c b33d
00000280: 8d49 9a3d 0f94 84bd e2b5 353e bf1e 073e
00000290: 72ae 683c 1f39 973d 9cae ccbd df4e 2d3d
000002a0: 0550 19bd 83de 2dbd 5ebf c33d 543f 663d
000002b0: ed1d 9f3d d0d3 dfbd 841a 123d 2348 bcbd
000002c0: 5aad ec3d d9bb 41bc a788 e6bc fe1c 1dbd
000002d0: 068f 073d 3446 0739 06d5 eb3d 3cf4 10bb
000002e0: 947d ecbb f76c 273d 6473 6bbd 8693 af3c
000002f0: fcb6 c13d 459d 24be c54f edbc 1121 093d
00000300: 05d3 713d cf01 553d a819 dcbd c7f7 37bc
00000310: a87a f5bd f2d1 21be aa18 7a3d d9e3 28be
00000320: 400b 7b3c 9f73 17bd 723d 3c3d 67c0 3cba
00000330: f69f 413c ad03 cebd d2d0 8cbd 5a97 c13d
00000340: 51f6 b03d 96a4 b63d d3ed a63d 96a5 233d
00000350: 3016 973d 8140 54be 1087 ff3c 69a9 0b3d
00000360: 2083 16be 55af a23c 3b45 de3c 8b7e bebd
00000370: 7e23 35bd 143c 923d 2478 4dbe a3ab 8abc
00000380: 60f7 f13d 2d35 3ebe 6e44 f23b fdfb 32bd
00000390: ac9d 11bd b7b1 4fbe 86f0 bdbd acd6 e3bd
000003a0: d7f4 a7bc 3493 ddbd 6bf9 d2bd df3a 613e
000003b0: 86fa e6bd 56cc 363e 9d63 ae3d ba1f 4d3d
000003c0: 526c 3d3d e573 143d 422a 0e3d 767f 6d3e
000003d0: 2ab6 3a3e 8eb3 893e 070b 243d e63a 953d
000003e0: 2095 6b3d 32ff c23d 6edf 5a3e 649b ccbc
000003f0: 60a4 b03c 21e1 b73d bf4d 0cbd c27e f63d

mlp.0.bias f4 [256]
0.09145359 -0.12324168 -0.16247585 -0.04137511 -0.0058253338 0.1734343 -0.006781656 0.13064371
0.017914161 -0.06608586 0.089624345 0.14646944 -0.04098678 0.015701342 0.014373244 -0.020608569
-0.0916278 0.026570052 0.027527992 0.0031721562 -0.17890464 0.050291672 0.090315916 -0.034167457
0.075334236 0.014676702 -0.046321087 -0.09243858 -0.11210365 0.04464845 0.029155489 -0.007800968
-0.12123829 0.039153986 0.115422234 -0.004357812 -0.17460798 0.09285783 -0.16631481 0.041230228
-0.049431976 -0.13881007 -0.060931467 -0.0825648 -0.10076968 0.053600237 -0.06994626 0.09810496
-0.10875093 0.014740932 0.0021234513 0.056679394 -0.18187371 0.058989115 0.09331461 0.015601926
-0.14710574 0.078407265 -0.01022206 -0.15683892 0.036118127 -0.05206982 0.01918365 -0.14937241
0.046523783 0.18640682 0.050788876 0.074306935 0.19178933 0.15463638 0.013423385 -0.029200386
0.0354566 0.1437279 0.14000744 0.034613665 -0.11269009 0.20028678 0.053031594 -0.015566492
-0.026578994 -0.03992023 0.038870838 0.025503822 -0.061889965 0.08202829 -0.06370985 -0.17028105
0.028140372 0.2818558 0.21480098 0.10798255 0.08099167 -0.03825186 0.074025095 -0.05046043
0.00071594596 0.1113797 0.21564716 0.12565754 -0.07358468 -0.06527025 -0.057008687 0.019206265
-0.081657834 -0.020708911 -0.027029522 0.028450746 -0.039739553 0.005221392 -0.1684093 -0.07663644
0.16859499 -0.14487 -0.044076163 -0.07670368 0.10186469 0.029101625 0.08686705 -0.013210286
-0.15422617 0.053155985 0.1849281 -0.09774407 -0.115876146 0.07308968 -0.06941494 0.042745333
-0.080952734 0.12022044 0.046484195 0.006098388 -0.060761206 -0.024235897 0.17110625 -0.09278346
-0.06402768 -0.12783478 -0.038221084 0.1755387 0.108856045 0.047778934 -0.17685187 0.12726323
0.2360608 -0.16354966 -0.061453838 -0.041216 -0.17196396 0.0699446 -0.15702838 -0.0041218386
-0.041083362 0.061296467 0.17636037 -0.1788058 0.13221073 -0.011486169 -0.003913842 -0.018384619
-0.046958372 0.10622962 0.20455836 0.107276835 -0.13556744 -0.04448271 0.09682597 0.012445003
0.056970596 0.049577616 0.03015367 -0.20589851 0.20792699 0.12711062 0.1431704 -0.03262246
-0.108779326 -0.064939655 -0.14610496 -0.13942237 -0.03876474 -0.0017144243 0.036802076 0.12772445
-0.018242415 -0.035074037 -0.09743103 0.16082932 -0.08376245 -0.042632643 0.02551653 -0.05212597
-0.022144813 0.2076986 -0.01347611 0.124144204 0.1440738 -0.077768154 -0.14096576 -0.22095962
0.065440334 0.16889115 -0.13795587 -0.0849335 0.11390374 -0.16160569 0.05487983 0.09579493
-0.12593482 0.04749044 0.16281165 -0.16381475 0.0015740235 -0.054904748 0.094448574 0.01664036
0.057242304 0.028528199 -0.085116945 0.0119324345 -0.036516357 0.071121484 0.13862412 0.047739323
0.09827226 -0.103306666 0.012928167 -0.045280334 0.026177637 -0.14687654 0.07387769 -0.15037212
-0.13863124 -0.11129156 0.2466713 -0.15579344 0.005435268 -0.015611969 -0.034541935 0.1450126
0.06414573 -0.10279756 -0.16429995 0.1499397 -0.06133903 0.0360619 0.016090365 0.13077964
0.108038895 0.2738465 0.02922996 0.037939787 0.12378083 -0.0800941 0.08892971 -0.029818319
00000000: 054c bb3d 2266 fcbd 1260 26be f378 29bd
00000010: 71e2 bebb c398 313e a738 debb 77c7 053e
00000020: b8c0 923c 0658 87bd f88c b73d 16fc 153e
00000030: c1e1 27bd 1aa0 803c c17d 6b3c 4dd3 a8bc
00000040: 5ba7 bbbd 70a9 d93c 6282 e13c f3e3 4f3b
00000050: c732 37be a4fe 4d3d 8df7 b83d 2df3 0bbd
00000060: d648 9a3d 8d76 703c 2ebb 3dbd 7050 bdbd
00000070: 9996 e5bd 4be1 363d 7ed7 ee3c 439f ffbb
00000080: c84b f8bd ee5f 203d 7e62 ec3d facb 8ebb
00000090: 6fcc 32be 3f2c be3d 6e4e 2abe 07e1 283d
000000a0: 2f79 4abd 3a24 0ebe 4693 79bd bc17 a9bd
000000b0: 5660 cebd ec8b 5b3d fc3f 8fbd 41eb c83d
000000c0: cfb8 debd f383 713c 9a29 0b3b a728 683d
000000d0: 1a3d 3abe 929e 713d bb1b bf3d 389f 7f3c
000000e0: e3a2 16be fd93 a03d 6d7a 27bc 629a 20be
000000f0: 9af0 133d 2a47 55bd 0827 9d3c 15f5 18be
00000100: b98f 3e3d 6ee1 3e3e ff07 503d 3c2e 983d
00000110: 6c64 443e 0059 1e3e c2ed 5b3c a635 efbc
00000120: f13a 113d 682d 133e 1c5e 0f3e 0fc7 0d3d
00000130: 10ca e6bd fa17 4d3e a837 593d 9a0a 7fbc
00000140: 31bc d9bc 6583 23bd 0737 1f3d 64ed d03c
00000150: 5580 7dbd 73fe a73d 4f7a 82bd 285e 2ebe
00000160: a386 e63c 674f 903e caf4 5b3e f525 dd3d
00000170: f6de a53d fbad 1cbd 789a 973d 99af 4ebd
00000180: 52ae 3b3a 0a1b e43d 9cd2 5c3e 5fac 003e
00000190: 91b3 96bd 69ac 85bd f181 69bd 7556 9d3c
000001a0: 393c a7bd bca5 a9bc 046d ddbc 8a11 e93c
000001b0: f1c5 22bd 3618 ab3b 7d73 2cbe 91f3 9cbd
000001c0: 2aa4 2c3e cd58 14be 3589 34bd d216 9dbd
000001d0: 6f9e d03d 8866 ee3c 5ae7 b13d f56f 58bc
000001e0: 77ed 1dbe 17ba 593d cb5d 3d3e 0b2e c8bd
000001f0: 7950 edbd 0bb0 953d 6c29 8ebd bb15 2f3d
00000200: 8cca a5bd 2236 f63d 3666 3e3d fdd4 c73b
00000210: bee0 78bd 5c8a c6bc 7a36 2f3e 4105 bebd
00000220: f220 83bd 1fe7 02be b68d 1cbd 6bc0 333e
00000230: ebef de3d d8b3 433d a818 35be 4b51 023e
00000240: ecb9 713e 9079 27be 05b7 7bbd 1cd2 28bd
00000250: 5217 30be 1d3f 8f3d 0ccc 20be 7d10 87bb
00000260: 0747 28bd 0112 7b3d d097 343e de18 37be
00000270: 4062 073e 7c30 3cbc b03f 80bb 579b 96bc
00000280: 6c57 40bd ea8e d93d bf77 513e f5b3 db3d
00000290: 31d2 0abe 8133 36bd b24c c63d 20e6 4b3c
000002a0: 005a 693d e611 4b3d d404 f73c 0fd7 52be
000002b0: d0ea 543e 4929 023e 439b 123e 219f 05bd
000002c0: b2c7 debd 15ff 84bd 8a9c 15be bdc4 0ebe
000002d0: c7c7 1ebd 89b6 e0ba c6bd 163d 33ca 023e
000002e0: 1e71 95bc cba9 0fbd eb89 c7bd 71b0 243e
000002f0: a68b abbd 919f 2ebd 0b08 d13c 0b82 55bd
00000300: 0a69 b5bc f1ae 543e e7ca 5cbc 513f fe3d
00000310: 1588 133e e944 9fbd 5459 10be 3d43 62be
00000320: 9505 863d cdf1 2c3e 4e44 0dbe 9df1 adbd
00000330: 5d46 e93d f67b 25be acc9 603d 2230 c43d
00000340: 0ff5 00be 5685 423d 19b8 263e 0ebf 27be
00000350: 774f ce3a cde3 60bd 416e c13d 5d51 883c
00000360: e876 6a3d f8b3 e93c cb51 aebd 4280 433c
00000370: 2d92 15bd 24a8 913d 7bf3 0d3e 4f8a 433d
00000380: f742 c93d 7292 d3bd aad0 533c df77 39bd
00000390: 7c72 d63c ce66 16be 304d 973d 26fb 19be
000003a0: 59f5 0dbe d4ec e3bd 6797 7c3e 5188 1fbe
000003b0: 551a b23b 58c9 7fbc d87b 0dbd 2f7e 143e
000003c0: d65e 833d 8787 d2bd 3f3e 28be cb89 193e
000003d0: a23e 7bbd a5b5 133d f1cf 833c 19eb 053e
000003e0: 7f43 dd3d 9c35 8c3e ab73 ef3c c066 1b3d
000003f0: ce80 fd3d 6008 a4bd c820 b63d 8c45 f4bc

mlp.2.weight f4 [128, 256]
0.066848904 -0.007847046 0.13221374 0.10101891 -0.17592183 -0.09027259 -0.0905308 -0.022828793
-0.019444335 0.04408768 0.09083367 -0.04768441 -0.007858477 -0.004876691 0.13856712 0.0028990763
-0.10757708 0.007255696 -0.06708013 0.20149882 0.028353434 -0.06866944 0.17538756 -0.08029224
0.072211616 -0.039133336 -0.25975323 0.04184366 0.15916237 -0.13240074 0.005550341 0.009904602
0.0042170575 -0.056280266 0.023560727 0.080481485 -0.011369776 0.056943092 0.030610302 0.15205039
0.09530072 0.012789222 0.0079390835 0.063437305 0.07277709 0.09774361 -0.1384671 -0.21916151
-0.051881798 0.08003287 0.004299237 0.054375 -0.09755526 0.12760925 -0.07724254 0.055858172
-0.040169872 0.04808171 -0.04283029 -0.008674278 -0.18878922 0.07827832 -0.18966575 -0.1617822
0.09107488 -0.13758014 0.026747065 -0.0035617743 0.041610345 -0.026066784 -0.071186826 -0.06861356
0.029748522 -0.0152775785 -0.037038896 0.010993871 -0.1376418 0.10554742 -0.06461944 0.13145643
-0.2568173 -0.003320795 0.0366882 -0.017811922 -0.17644127 -0.025916316 0.057747286 -0.12560396
0.05880063 0.074964374 0.074594915 -0.068758145 0.015310959 -0.038238868 -0.087913856 -0.06883898
-0.122586444 0.086247474 0.06256362 -0.021650316 0.06306446 -0.0014883702 0.027079737 -0.17316802
-0.0147266975 -0.16403484 -0.036157522 0.09990095 0.08912116 0.04630972 0.10715634 -0.028578771
0.020599674 -0.049748767 -0.051651627 -0.14129686 0.12834334 -0.014142654 -0.18077405 0.031315822
-0.029291019 -0.15168536 -0.011452728 -0.096254975 -0.073602796 0.0020056253 -0.0050253337 -0.027248332
-0.024267167 -0.23828459 0.068306096 0.030111544 -0.022768583 -0.011400343 -0.05435198 -0.030624678
-0.08160221 -0.028487919 -0.09650529 0.03284059 -0.027782701 -0.00955406 0.10068586 0.072524264
-0.010146964 0.07141451 0.13975596 0.053429347 0.035372138 -0.049778644 0.074209966 0.075203285
-0.20939773 -0.063886456 0.056984905 0.10409837 0.047754515 0.13957222 0.17091009 0.03491345
0.013665283 -0.025197258 -0.007019288 0.05189993 0.020429004 -0.055588093 0.010773156 -0.09264694
-0.01627079 0.07509824 0.08538321 -0.009658374 -0.011689285 0.08538505 -0.10916749 0.065782055
-0.0048249317 0.09924694 0.048565935 0.0057727657 0.010176022 -0.0361369 -0.091385365 0.04217687
-0.06941943 -0.27768436 -0.025736913 -0.034331176 -0.038521245 -0.19278428 -0.07281909 -0.040284313
-0.09270431 0.03944106 -0.030684972 0.16782308 0.01942184 -0.04057412 -0.06411157 -0.051637482
0.030417897 0.024432126 -0.03437809 -0.0008352344 0.0044409554 0.0061210888 0.07073475 -0.00075702387
0.008216746 0.060199235 0.044030756 -0.06267836 -0.14235553 0.16296405 -0.020191474 0.0043299887
0.07814811 0.1297689 0.009113014 -0.0017437484 -0.10934939 0.015044093 0.13144797 -0.063496344
0.18948168 0.024678266 0.008897241 -0.026029281 0.00045978342 -0.09369958 0.05187876 -0.06636084
0.056950495 0.011166986 0.011143964 0.026862714 0.14588001 0.058122102 -0.004817823 0.028180292
-0.07931177 -0.06958677 0.036112487 0.100463465 -0.025007423 0.05514263 -0.017875277 0.005924274
0.09223433 0.0051380727 0.09390173 -0.0088097155 -0.027200792 -0.0976199 -0.0070959274 0.017474465
00000000: 14e8 883d e590 00bc 0a63 073e 01e3 ce3d
00000010: da24 34be d6e0 b8bd 3668 b9bd 7303 bbbc
00000020: ba49 9fbc 4895 343d 0107 ba3d ba50 43bd
00000030: d7c0 00bc a6cc 9fbb 8ae4 0d3e 6efe 3d3b
00000040: 5f51 dcbd 31c1 ed3b 4f61 89bd b555 4e3e
00000050: 7645 e83c 90a2 8cbd cc98 333e 4270 a4bd
00000060: afe3 933d 474a 20bd 60fe 84be 4264 2b3d
00000070: 76fb 223e 0f94 07be a3df b53b e946 223c
00000080: 3e2f 8a3b 2386 66bd 6d02 c13c 7ad3 a43d
00000090: 4c48 3abc 293d 693d 75c2 fa3c 19b3 1b3e
000000a0: 062d c33d e389 513c ee12 023c 6beb 813d
000000b0: 280c 953d cd2d c83d 52ca 0dbe e06b 60be
000000c0: 0282 54bd 46e8 a33d 9de0 8c3b 52b8 5e3d
000000d0: 0dcb c7bd 00ac 023e 5631 9ebd 8acb 643d
000000e0: 2a89 24bd 54f1 443d d06e 2fbd 8f1e 0ebc
000000f0: f651 41be 6250 a03d bd37 42be 3caa 25be
00000100: 7785 ba3d cfe1 0cbe a91c db3c a86c 69bb
00000110: 9c6f 2a3d 028a d5bc 66ca 91bd 4485 8cbd
00000120: 2cb3 f33c cf4e 7abc 19b6 17bd a31f 343c
00000130: f9f1 0cbe 3f29 d83d 3257 84bd 849c 063e
00000140: 8f7d 83be b2a1 59bb 5e46 163d 4fea 91bc
00000150: 05ad 34be 744e d4bc 6b88 6c3d 539e 00be
00000160: eed8 703d ec86 993d 38c5 983d 12d1 8cbd
00000170: d1da 7a3c 5ca0 1cbd 2e0c b4bd 73fb 8cbd
00000180: 9a0e fbbd 84a2 b03d 5b21 803d 015c b1bc
00000190: f127 813d 6b15 c3ba 53d6 dd3c f552 31be
000001a0: 3f48 71bc c0f8 27be e919 14bd df98 cc3d
000001b0: 2885 b63d 43af 3d3d c874 db3d 071e eabc
000001c0: a6c0 a83c 5dc5 4bbd a890 53bd 20b0 10be
000001d0: 706c 033e 97b6 67bc d51c 39be 0545 003d
000001e0: b8f3 efbc 6853 1bbe 39a4 3bbc 5421 c5bd
000001f0: 10bd 96bd cf70 033b 8eab a4bb e537 dfbc
00000200: f0cb c6bc e000 74be 11e4 8b3d 7cac f63c
00000210: 2e85 babc 81c8 3abc 2fa0 5ebd 9be0 fabc
00000220: 0f1f a7bd 7f5f e9bc 91a4 c5bd db83 063d
00000230: 8c98 e3bc a288 1cbc 6334 ce3d 9a87 943d
00000240: 743f 26bc c541 923d 301c 0f3e bbd8 5a3d
00000250: 60e2 103d b1e4 4bbd 65fb 973d 2e04 9a3d
00000260: 5c6c 56be e7d6 82bd 0169 693d 8731 d53d
00000270: 3d9a 433d 05ec 0e3e 0e03 2f3e 6801 0f3d
00000280: 5ae4 5f3c 7b6a cebc 0e02 e6bb 0595 543d
00000290: ba5a a73c 57b0 63bd e481 303c aebd bdbd
000002a0: 524a 85bc 1bcd 993d 64dd ae3d 283e 1ebc
000002b0: 6a84 3fbc 5bde ae3d 3493 dfbd beb8 863d
000002c0: 761a 9ebb fb41 cb3d 13ed 463d 7829 bd3b
000002d0: 54b9 263c 4904 14bd 4028 bbbd a7c1 2c3d
000002e0: c62b 8ebd a52c 8ebe 38d6 d2bc d99e 0cbd
000002f0: 74c8 1dbd 3e69 45be 2d22 95bd 2a01 25bd
00000300: c2db bdbd f38c 213d 0d5f fbbc d0d9 2b3e
00000310: 8d1a 9f3c 0c31 26bd ed4c 83bd d381 53bd
00000320: f42e f93c e225 c83c 0ad0 0cbd a2f3 5aba
00000330: 6f85 913b 6a93 c83b 61dd 903d 0373 46ba
00000340: 889f 063c 7993 763d 9859 343d 835d 80bd
00000350: a6c5 11be 0ce0 263e 9768 a5bc 94e2 8d3b
00000360: 1e0c a03d 23e2 043e c04e 153c 7d8e e4ba
00000370: 93f2 dfbd 807b 763c 4c9a 063e 5f0a 82bd
00000380: 7c07 423e 132a ca3c bcc5 113c 5c3b d5bc
00000390: 160f f139 91e5 bfbd d37e 543d 31e8 87bd
000003a0: ec44 693d bcf5 363c 2c95 363c 320f dc3c
000003b0: 9261 153e 7111 6e3d d4de 9dbb 5bda e63c
000003c0: 366e a2bd 8283 8ebd b0ea 133d cabf cd3d
000003d0: 5edc ccbc 3ddd 613d 2c6f 92bc 6a20 c23b
000003e0: 5ae5 bc3d 475d a83b 8d4f c03d a056 10bc
000003f0: 32d4 debc f1ec c7bd f484 e8bb 9c26 8f3c

mlp.2.bias f4 [128]
0.05065072 0.15000397 -0.019405847 -0.028500056 -0.041421697 0.10122035 -0.08322325 0.029631536
0.0017273604 -0.01912642 -0.059090927 -0.07153432 -0.039215624 0.09383092 -0.038481403 0.028121639
0.01868105 -0.067990296 0.0077497307 -0.013111665 -0.0011893132 -0.022388354 -0.0041529466 -0.027280362
0.037871785 -0.024242599 0.029860195 -0.052553445 -0.07477689 -0.025608106 -0.019984704 -0.0063413302
0.0064076 0.013933432 -0.021687713 0.007935334 -0.025527088 -0.044704683 -0.11036889 -0.0071612494
-0.07489162 0.018212097 -0.053056445 0.051652536 -0.043802407 0.07602873 -0.047752477 -0.026653457
0.11193833 0.015049045 -0.08976246 0.013126714 -0.04700485 -0.036943797 0.027065918 -0.010931223
0.003968567 0.031365663 0.024577782 0.07090601 0.0016298519 0.04200176 0.03483612 -0.033708375
0.22357576 0.060892317 -0.039080765 0.03872693 0.014763396 -0.020656543 0.014839211 -0.051323686
0.085068785 0.0012970851 -0.032845363 0.08173713 -0.011048013 -0.023620699 -0.038162977 -0.014457965
0.029547423 0.025217755 0.075294875 -0.012834591 -0.063069396 0.036368858 -0.05285577 -0.0047565186
-0.007275415 -0.065844916 -0.020620571 -0.00033903302 0.028519088 0.031666443 0.07304108 -0.040057622
0.13200639 0.17353646 0.059126053 -0.01305227 0.017162135 -0.031229423 0.049642604 -0.06522739
-0.05348227 -0.04499932 -0.0024520755 0.005183624 -0.01243614 0.0049171336 0.022822626 0.059383154
-0.08593322 -0.040245384 0.027763698 -0.06283381 -0.036995232 -0.064904466 -0.014877362 0.08231479
0.0058388654 0.02765684 -0.048706397 -0.011317472 -0.07281421 0.05247775 0.020347336 0.030831011
00000000: 2177 4f3d a49a 193e 03f9 9ebc f378 e9bc
00000010: cca9 29bd 9d4c cf3d f470 aabd d6bd f23c
00000020: 9968 e23a 03af 9cbc 5409 72bd 9680 92bd
00000030: 90a0 20bd 6d2a c03d ad9e 1dbd 5a5f e63c
00000040: 0009 993c 7f3e 8bbd 74f1 fd3b 4fd2 56bc
00000050: bbe2 9bba c867 b7bc 7115 88bb 117b dfbc
00000060: 721f 1b3d 6a98 c6bc 5e9d f43c 4842 57bd
00000070: a024 99bd 17c8 d1bc f6b6 a3bc efca cfbb
00000080: d8f6 d13b 0d49 643c 6eaa b1bc 3403 023c
00000090: 2f1e d1bc 421c 37bd 1609 e2bd eaa8 eabb
000000a0: c760 99bd 8931 953c b751 59bd 9c91 533d
000000b0: 276a 33bd f3b4 9b3d 1a98 43bd 5a58 dabc
000000c0: ec3f e53d 4590 763c 61d5 b7bd 6e11 573c
000000d0: 2888 40bd 6152 17bd 58b9 dd3c df18 33bc
000000e0: c10a 823b 4879 003d 5857 c93c 2c37 913d
000000f0: c1a0 d53a 0a0a 2c3d 52b0 0e3d cb11 0abd
00000100: 0bf1 643e 396a 793d 2713 20bd 21a0 1e3d
00000110: 2ce2 713c e937 a9bc 2920 733c c938 52bd
00000120: 8b38 ae3d f402 aa3a dc88 06bd cc65 a73d
00000130: ba02 35bc 3280 c1bc c850 1cbd 1ae1 6cbc
00000140: 700d f23c 7795 ce3c 3334 9a3d 2d48 52bc
00000150: 872a 81bd 83f7 143d 4b7f 58bd 92dc 9bbb
00000160: 9b66 eebb b3d9 86bd 79ec a8bc 3ec0 b1b9
00000170: dda0 e93c acb4 013d 9096 953d 7613 24bd
00000180: af2c 073e 8bb3 313e 292e 723d 30d9 55bc
00000190: 9b97 8c3c d9d4 ffbc 0b56 4b3d f095 85bd
000001a0: 3a10 5bbd 3551 38bd 00b3 20bb 64db a93b
000001b0: f4c0 4bbc e81f a13b 84f6 ba3c c03b 733d
000001c0: c2fd afbd 58d8 24bd b270 e33c 03af 80bd
000001d0: 5088 17bd a2ec 84bd 2ec0 73bc a894 a83d
000001e0: f453 bf3b 9990 e23c 5c80 47bd eb6c 39bc
000001f0: 9e1f 95bd e9f2 563d 75af a63c 5191 fc3c

mlp.4.weight f4 [80, 128]
0.018432422 -0.022933854 0.012770203 0.06869576 -0.006625785 -0.093836404 0.10053446 -0.02138553
-0.02652499 0.018880142 -0.036785 0.034180146 0.06964063 -0.075958736 0.018205833 0.054579325
0.11472944 0.020667342 0.04637787 0.03648307 -0.019758005 0.025758192 0.08216257 0.02394785
0.03401196 -0.033799525 -0.008463594 -0.08615871 0.09294377 0.035850774 0.05334436 0.101783365
-0.082741514 0.050687175 0.08052931 0.06898422 0.016679348 0.084621415 0.08935501 0.030196536
-0.043615177 0.055275027 -0.08275705 0.11461706 -0.008949869 -0.029729672 0.041568197 0.08978626
0.004737152 0.02787713 0.044853654 0.13150339 -0.001492387 0.09141118 0.102924064 0.043086197
-0.0056238356 0.017742392 0.08802794 -0.07479656 0.036292125 0.0059165605 0.028933456 -0.059061494
0.032166004 0.0823859 0.08245397 0.0056816954 -0.03768049 0.03236216 0.113613345 0.0017090862
-0.01314793 -0.0012007742 -0.061817124 -0.07390396 0.0009785414 0.066387296 -0.028019983 0.04481364
0.10357064 -0.028971564 -0.014897876 0.08417826 0.07657176 0.049012687 0.03333564 0.06353638
-0.025047133 0.17894518 0.11444377 0.13785614 -0.020859076 0.05328967 0.018621298 -0.0056079463
0.004434125 -0.07601661 -0.017164215 -0.07023946 0.038356125 0.10517039 0.0877893 0.054263435
-0.010017305 0.035648838 0.023193905 0.10511066 0.09210873 0.08298221 -0.060332038 0.044682983
-0.013016608 0.044310767 0.08610295 -0.008114329 -0.040560666 -0.011923159 0.08476964 0.02429184
-0.020270213 0.023587259 0.019039713 0.07039895 0.05097001 0.03589078 -0.008097245 0.01595036
0.11712771 -0.019972334 -0.024490396 -0.016833514 -0.09407962 -0.057492137 0.00803584 0.17815664
0.003303892 0.06541931 0.04980267 0.042758673 0.07496614 -0.0731473 0.006657889 0.058140513
0.0568968 0.08694249 -0.054366574 -0.058764335 -0.06433281 -0.027496425 -0.05053044 0.08195147
0.06068794 0.0304837 0.069257244 0.05374518 0.120511815 0.036071382 0.080769286 0.11645954
-0.06496931 0.021422312 0.026257627 0.010004102 -0.017540902 0.04877937 0.08451719 0.010517426
0.07340934 0.006870758 -0.0036972796 0.08983117 0.084669694 -0.12060297 -0.12109071 0.06373379
-0.111248806 0.096019864 0.024417404 0.0884911 -0.015448139 0.06548093 0.14028125 0.020966103
0.010907812 -0.05136452 0.045205645 0.02696476 0.06811213 0.10345075 0.025322404 0.036085207
-0.008263497 0.043317463 0.06806278 -0.032514527 -0.07349232 0.08501231 0.098720804 -0.026953235
-0.066250555 0.0016890033 0.006136379 -0.08714827 0.07298945 -0.035480347 0.0025008009 0.099043526
0.11996317 0.0029289636 -0.028949186 -0.09396264 0.06027249 -0.13603213 0.050811358 -0.030383162
0.07184058 0.16361105 -0.009165753 0.03462011 -0.062667474 0.04725131 -0.00523148 0.020520404
-0.09441288 -0.056810815 0.0825049 -0.008064831 0.10976871 -0.048608217 -0.06869097 -0.030817462
-0.0029067206 0.05312115 -0.05114582 0.070411384 0.1356579 0.10386517 -0.008258783 0.06603293
0.015283774 0.03840479 0.10440678 0.07924244 -0.013235025 0.039468214 -0.11765035 -0.039200116
0.12185225 0.088733084 0.0019756292 0.10618672 0.12714948 -0.0028269927 0.001179764 0.016914636
00000000: 97ff 963c c7df bbbc 1d3a 513c 5db0 8c3d
00000010: 1d1d d9bb 4d2d c0bd 03e5 cd3d b530 afbc
00000020: f04a d9bc 87aa 9a3c deab 16bd 7b00 0c3d
00000030: bf9f 8e3d 4190 9bbd 6624 953c 928e 5f3d
00000040: 45f7 ea3d 8f4e a93c b9f6 3d3d 466f 153d
00000050: 8adb a1bc d802 d33c d944 a83d 482e c43c
00000060: 2050 0b3d 5f71 0abd e3aa 0abc fa73 b0bd
00000070: 4e59 be3d 43d8 123d 9e7f 5a3d cc73 d03d
00000080: 6274 a9bd 5b9d 4f3d 8dec a43d 9947 8d3d
00000090: 21a3 883c fe4d ad3d c2ff b63d ba5e f73c
000000a0: d4a5 32bd 1168 623d 877c a9bd 59bc ea3d
000000b0: 79a2 12bc a48b f3bc 6a43 2a3d dce1 b73d
000000c0: 1c3a 9b3b 945e e43c 77b8 373d d3a8 063e
000000d0: 339c c3ba c935 bb3d dac9 d23d 277b 303d
000000e0: 2748 b8bb 7e58 913c fe47 b43d f02e 99bd
000000f0: 0da7 143d b5df c13b db05 ed3c 77ea 71bd
00000100: 80c0 033d f0b9 a83d a1dd a83d 842d ba3b
00000110: dc56 1abd 2f8e 043d 1dae e83d 6b03 e03a
00000120: 6a6a 57bc 4c63 9dba f433 7dbd f65a 97bd
00000130: 6742 803a 10f6 873d 2a8a e5bc 828e 373d
00000140: d81c d43d c655 edbc 3916 74bc a765 ac3d
00000150: a8d1 9c3d 87c1 483d f48a 083d 5d1f 823d
00000160: a52f cdbc 683d 373e 7f61 ea3d 292a 0d3e
00000170: a7e0 aabc 4546 5a3d b18b 983c ddc2 b7bb
00000180: 234c 913b 99ae 9bbd f89b 8cbc b5d9 8fbd
00000190: 501b 1d3d 9363 d73d e0ca b33d 5643 5e3d
000001a0: 9f1f 24bc 8404 123d 2501 be3c 4244 d73d
000001b0: 80a3 bc3d 94f2 a93d ba1e 77bd 8105 373d
000001c0: 9c43 55bc 357f 353d be56 b03d f6f1 04bc
000001d0: f122 26bd 5a59 43bc b49b ad3d aeff c63c
000001e0: b80d a6bc 113a c13c 2cf9 9b3c 532d 903d
000001f0: eec5 503d 3602 133d 4faa 04bc 54aa 823c
00000200: a7e0 ef3d 059d a3bc 15a0 c8bc 70e6 89bc
00000210: d1ac c0bd e07c 6bbd c1a8 033c b26e 363e
00000220: 1c86 583b 8ffa 853d e2fd 4b3d b823 2f3d
00000230: d987 993d 40ce 95bd 6c2a da3b bf24 6e3d
00000240: 9e0c 693d e70e b23d 7caf 5ebd dfb2 70bd
00000250: ecc0 83bd 2f40 e1bc 02f9 4ebd 2cd6 a73d
00000260: eb93 783d f4b8 f93c bed6 8d3d e823 5c3d
00000270: e6ce f63d 96bf 133d 5e6a a53d 5782 ee3d
00000280: a10e 85bd d87d af3c 3c1a d73c 3fe8 233c
00000290: f0b1 8fbc e0cc 473d 5917 ad3d 4851 2c3c
000002a0: a357 963d 1824 e13b 0f4e 72bb 68f9 b73d
000002b0: 4e67 ad3d b1fe f6bd 68fe f7bd dc86 823d
000002c0: 6ad6 e3bd 10a6 c43d 0207 c83c d23a b53d
000002d0: 311a 7dbc de1a 863d e3a5 0f3e 1bc1 ab3c
000002e0: aeb6 323c 9a63 52bd 8e29 393d 33e5 dc3c
000002f0: 5f7e 8b3d fddd d33d ee70 cf3c 15ce 133d
00000300: 9e63 07bc a76d 313d 8064 8b3d f42d 05bd
00000310: 2483 96bd ef1a ae3d 222e ca3d 08cd dcbc
00000320: 5fae 87bd 8c61 dd3a ae13 c93b cb7a b2bd
00000330: 7e7b 953d d753 11bd 7ae4 233b 55d7 ca3d
00000340: 40af f53d dbf3 3f3b d826 edbc 7c6f c0bd
00000350: 49e0 763d 024c 0bbe 921f 503d 1ce6 f8bc
00000360: 2721 933d a889 273e f42b 16bc d1cd 0d3d
00000370: ce57 80bd 978a 413d d66c abbb 681a a83c
00000380: 8a5b c1bd 75b2 68bd 54f8 a83d 5a22 04bc
00000390: 6bce e03d 6919 47bd daad 8cbd e774 fcbc
000003a0: ae7e 3ebb 9095 593d 487e 51bd d833 903d
000003b0: e8e9 0a3e 43b7 d43d d94f 07bc 463c 873d
000003c0: cb68 7a3c 574e 1d3d 39d3 d53d dc49 a23d
000003d0: b8d7 58bc 6ca9 213d abf2 f0bd 4d90 20bd
000003e0: ac8d f93d b1b9 b53d 8f79 013b 6c78 d93d
000003f0: 7933 023e 1145 39bb 50a2 9a3a 9090 8a3c
