weights2/ep_3228.pth (torch, 275655 bytes, 10 tensors)

lstm.weight_ih_l0 f4 [192, 7]
0	0xbca58b0d	-0.020207906
1	0x3dbcfee4	0.09228304
2	0x3e18c644	0.14919382
3	0x3d469c28	0.048488766
4	0x3d3970bb	0.045273524
5	0x3e0d8855	0.13821538
6	0x3e284b4f	0.16434978
7	0x3e1ca8a8	0.15298712
8	0xbe28842b	-0.16456668
9	0x3e092057	0.13391243
10	0xbdbef6ca	-0.09324415
11	0xbdb74d61	-0.08950306
12	0x3cb9face	0.0227026
13	0x3cc06eb2	0.023490284
14	0x3d737412	0.059436865
15	0x3d879503	0.066202186
16	0xbd359428	-0.044330746
17	0xbd5b5142	-0.05354429
18	0xbd8118f2	-0.06303586
19	0x3e1969a0	0.14981699
20	0x3d316833	0.043312263
21	0x3e2e1e54	0.17003757
22	0x3da66539	0.081247754
23	0x3e09caf2	0.13456324
24	0x3d398867	0.0452961
25	0xbe1d0679	-0.153345
26	0x3d645fb4	0.055755332
27	0xbdcce761	-0.100050695
28	0xbda7dd17	-0.081964664
29	0x3e017292	0.12641361
30	0x3e1711c2	0.14752868
31	0x3c8fc8ed	0.017551864
32	0xbcfe92a6	-0.031075787
33	0x3e032ed2	0.1281083
34	0xbdbd4b69	-0.09242899
35	0x3ca18d10	0.019720584
36	0xbb1ea327	-0.0024206133
37	0x3dcff1a1	0.10153509
38	0x3e067556	0.13130698
39	0xbca7bf9a	-0.020477105
40	0x3e140695	0.14455636
41	0xbcba8cea	-0.022772271
42	0x3dd35455	0.103188194
43	0xbdb8a657	-0.09016102
44	0x3d0e92ea	0.034808077
45	0x3d1e67e3	0.038673293
46	0x3c8fda62	0.017560188
47	0x3d982540	0.0742898
48	0x3e06264c	0.13100547
49	0xbc99963c	-0.018748395
50	0xbdddb34d	-0.108252145
51	0x3c1fff66	0.009765482
52	0xbcb377e5	-0.021907756
53	0x3e05f586	0.13081941
54	0x3e37f504	0.1796456
55	0x3e09c7b8	0.13455093
56	0x3c1bb2c3	0.009503069
57	0x3d31beb7	0.04339477
58	0xbd0a71f8	-0.033800095
59	0x3d972ea3	0.07381942
60	0xbd8ca84f	-0.0686804
61	0x3e2c0d21	0.16801883
62	0xbd73b323	-0.05949701
63	0xbdd5d117	-0.10440271
64	0xbe17f531	-0.14839627
65	0x3d576e3d	0.052595366
66	0x3cf8e5e2	0.030383054
67	0xbdca889d	-0.09889338
68	0xbdf3ca11	-0.119037755
69	0x3de42904	0.111406356
70	0xbde6256f	-0.11237609
71	0x3db77d28	0.089594185
72	0x3ba1ea24	0.004941242
73	0x3d439e59	0.047758434
74	0xbb940012	-0.00451661
75	0xbd8bf31f	-0.06833481
76	0xbd5b9c18	-0.05361566
77	0x3df26dae	0.11837326
78	0xbd13525a	-0.03596721
79	0x3d20051c	0.039067373
80	0xbd8d3cfd	-0.06896398
81	0x3e1166c5	0.1419936
82	0xbcec6807	-0.028858198
83	0x3d812a54	0.063069016
84	0xbb175a2f	-0.0023094525
85	0xbdebf8ab	-0.11522039
86	0xbe2bd964	-0.16782147
87	0xbde5d559	-0.112223335
88	0xbd79f60f	-0.061025675
89	0xbceb9a3f	-0.028760074
90	0x3e00a88f	0.125643
91	0x3e3e3d0a	0.18577972
92	0x3d5c9d42	0.05386091
93	0xbb933252	-0.0044920826
94	0xbbd0e5c1	-0.006375045
95	0x3d3bf5c6	0.045888685
96	0xbd9ba1a1	-0.07599188
97	0x3e3de2f4	0.18543607
98	0x3d348565	0.044072527
99	0xbd8e7687	-0.06956201
100	0x3c99d8e0	0.018780172
101	0xbdf5a0c5	-0.11993555
102	0xbd10bc83	-0.03533603
103	0x393acdb0	0.00017814967
104	0x3dfe2136	0.12408678
105	0x3dfa0198	0.12207335
106	0xbac3cb2f	-0.0014937873
107	0x3dd650e8	0.104646504
108	0xbbfe8b1f	-0.0077680494
109	0x3e1c992f	0.1529281
110	0xbbccf5c3	-0.006254883
111	0x3e317259	0.17328776
112	0x3e03106b	0.12799232
113	0xbdd5968f	-0.104291074
114	0x3d8f9bae	0.070121154
115	0xbdf5b086	-0.1199656
116	0x3dde5fa7	0.10858088
117	0x3d07077b	0.03296612
118	0xbd93826a	-0.07202609
119	0xbba8951f	-0.0051447297
120	0xbdd3d4ad	-0.10343299
121	0x3c9e1ebd	0.019301767
122	0x3bc5454c	0.0060202237
123	0x3d369a28	0.04458061
124	0x3b1084d1	0.002205182
125	0x3e0d52dc	0.1380114
126	0x3db248f0	0.08705318
127	0xbe2a7879	-0.16647519
128	0x3d003a67	0.031305697
129	0xbe204424	-0.15650994
130	0xbdd9a1ea	-0.10626586
131	0xbdd91a24	-0.10600689
132	0x3c8c2fd8	0.017112657
133	0x3d9fe189	0.07806689
134	0xbcad5fff	-0.021163939
135	0xbb8c9540	-0.004290253
136	0xbda91f19	-0.082578845
137	0x3bb0865c	0.0053871106
138	0xbbe53897	-0.0069952714
139	0x3d8c6635	0.06855432
140	0x3ce858a8	0.028362587
141	0xbe13ab51	-0.14420821
142	0x3dbe91eb	0.093051754
143	0x3dd0c3e5	0.10193614
144	0xbd9d6e67	-0.07687073
145	0x3e2fb89d	0.17160268
146	0x3e166f76	0.14690956
147	0xbdf857e6	-0.1212614
148	0x3c123039	0.00892263
149	0xbd80df61	-0.06292606
150	0xbca5d68f	-0.020243911
151	0xbd1d2c83	-0.038372528
152	0xbd9f52a3	-0.077794336
153	0x3d1bc111	0.03802592
154	0x3dcca8d8	0.09993142
155	0xbdd8ef61	-0.10592533
156	0xbb974718	-0.0046166293
157	0x3d4e1974	0.050317243
158	0xbc2e8f55	-0.01065429
159	0x3cb873f4	0.022516228
160	0x3d72fc7f	0.05932283
161	0x3d19c985	0.0375457
162	0xbdf2ecbe	-0.11861561
163	0x3e1a214c	0.15051764
164	0x3da76a39	0.08174557
165	0x3e1a223c	0.15052122
166	0x3e1e99d7	0.15488373
167	0x3de2166c	0.11039433
168	0x3c9a639f	0.018846331
169	0x3dfce7ff	0.12348937
170	0xbccb35bf	-0.024805902
171	0xbe08768c	-0.13326472
172	0xbdf79689	-0.12089259
173	0x3d2d1a23	0.042261254
174	0x3cbc434c	0.022981308
175	0x3d42e914	0.047585562
176	0x3e105353	0.14094286
177	0xbc2236ee	-0.009900792
178	0xbc8fbfa6	-0.01754744
179	0xbd48e724	-0.049048558
180	0xbd289780	-0.041160107
181	0xbd783175	-0.06059404
182	0x3e24cb16	0.16093096
183	0x3e32f3a2	0.17475751
184	0x3d585e88	0.052824527
185	0xbc22ffef	-0.009948715
186	0xbd39e963	-0.04538859
187	0xbd3d9624	-0.046285763
188	0x3d6d5211	0.057939593
189	0xbdeeb90a	-0.11656387
190	0xbe21bc3c	-0.15794462
191	0x3dd31e61	0.10308529
192	0xbcbcf5b8	-0.023066387
193	0x3e0e9c42	0.13926795
194	0x3dd7d408	0.105384886
195	0x3dec2023	0.11529567
196	0x3c43cc74	0.011950601
197	0x3d707b07	0.058711078
198	0x3e1e2a01	0.1544571
199	0x3e023b71	0.12717988
200	0xbb4e1bed	-0.003144975
201	0x3c7dca1c	0.015490081
202	0x3e04e758	0.12978876
203	0xbdf9e326	-0.12201528
204	0x3da1d741	0.079023845
205	0x3bfbfe38	0.0076902173
206	0xbcb97e11	-0.022643121
207	0x3d24c9c1	0.04023147
208	0xbba3d239	-0.0049994257
209	0xbb8e8e83	-0.004350485
210	0xbda841ef	-0.08215701
211	0x3d2bfe6f	0.041990694
212	0x3c8041b7	0.015656335
213	0xbd708dda	-0.05872903
214	0xbdb65aed	-0.089040615
215	0x3d93d511	0.072183736
216	0x3e3ce421	0.184464
217	0xbd0a318d	-0.03373866
218	0x3cc7d513	0.024393594
219	0x3d80ef78	0.06295675
220	0xbd3a1572	-0.045430608
221	0x3c9d3d36	0.019194227
222	0x3d47bdf4	0.048765138
223	0x3d57bde3	0.052671324
224	0xbd9c6db9	-0.076381154
225	0xbdf5ad1f	-0.11995911
226	0x3cf698dc	0.030102186
227	0x3df22d6f	0.11825072
228	0x3dd6b766	0.10484199
229	0xbe0eca63	-0.13944392
230	0xbd5be045	-0.053680677
231	0xbda684e1	-0.081308134
232	0xbda132f9	-0.078710504
233	0x3e000e88	0.12505543
234	0x3cdf9a21	0.027295174
235	0x3d4404ae	0.047856025
236	0xbda9f274	-0.082981974
237	0x3e0728a9	0.13199104
238	0x3d37a7e3	0.044837844
239	0xbde59e8b	-0.1121188
240	0xbd3bfddc	-0.045896396
241	0xbd5ab767	-0.053397562
242	0xbd0143db	-0.031558853
243	0x3daf7c8a	0.08568676
244	0x3cdf44d8	0.027254507
245	0x3dd88a85	0.105732955
246	0x3d90e9af	0.070758216
247	0x3dbf1f59	0.09332151
248	0xbd24b54a	-0.040211953
249	0x3d8e8977	0.06959813
250	0xbdfe11d9	-0.12405748
251	0xbdd54e62	-0.10415341
252	0xbc80dc66	-0.015730094
253	0xbdbbe9ed	-0.09175477
254	0x3e0ab4a0	0.13545465
255	0xbdb87152	-0.09005989

lstm.weight_hh_l0 f4 [192, 48]
0	0xbcabdf34	-0.020980455
1	0xbe0f962b	-0.14022128
2	0xbc1a9aa3	-0.009436282
3	0xbdfec30d	-0.12439547
4	0xbc581f4b	-0.013191055
5	0xbdc36a68	-0.0954178
6	0xbdcc9ccd	-0.09990845
7	0x3d876443	0.0661092
8	0xbd8e01b0	-0.069339156
9	0x3d357060	0.044296622
10	0xbe4fdb3b	-0.20298474
11	0xbe34a09e	-0.17639396
12	0xbca0d53b	-0.019632926
13	0x3d981d92	0.07427515
14	0xbc85b8fb	-0.016323557
15	0xbd906dc1	-0.07052184
16	0xbcc25fbd	-0.023727292
17	0x3e41f81b	0.18942301
18	0x3d1e56ff	0.038657185
19	0xbcdecb07	-0.02719642
20	0x3e23f17c	0.16010088
21	0x3d91b725	0.0711501
22	0xbdefd134	-0.11709824
23	0xbd731084	-0.059341922
24	0xbd4dfe11	-0.050291125
25	0x3d717693	0.05895097
26	0x3d5d2360	0.053988814
27	0x3e074d39	0.13213052
28	0x3cd78931	0.026310535
29	0xbd336365	-0.043795962
30	0xbd84dc13	-0.06487288
31	0x3c11b415	0.008893033
32	0xbdd60f37	-0.10452121
33	0xbe35a58f	-0.17738937
34	0x3d8eb45c	0.069679946
35	0xbdc0b237	-0.09408992
36	0xbcd8eea3	-0.026480978
37	0x3df404be	0.11914967
38	0xbd57116c	-0.05250685
39	0xbb66fcbc	-0.0035245856
40	0x3d017747	0.031607892
41	0x3db9b5bb	0.090678655
42	0xbc20788a	-0.009794364
43	0xbd9619a4	-0.07329109
44	0x3ca6081e	0.020267542
45	0xbc2803db	-0.010254825
46	0xbe06980f	-0.13143943
47	0xbdf9cf48	-0.12197739
48	0xbdbc111d	-0.091829516
49	0xbd44472f	-0.04791945
50	0x3dcd01e9	0.1001013
51	0x3d40cea5	0.04707207
52	0x3da1d81a	0.07902546
53	0x3e00e8c9	0.125888
54	0x3e1f8ae9	0.15580334
55	0xbddd1954	-0.107958466
56	0x3a7d5d8f	0.00096651254
57	0x3cb74285	0.022370586
58	0xbe3db9c6	-0.18527898
59	0xbe26f7e5	-0.16305502
60	0x3dd1504a	0.10220392
61	0x3e1600bf	0.14648722
62	0x3dfdfc24	0.12401608
63	0xbded7a36	-0.115955755
64	0xbd82a6e5	-0.06379489
65	0x3cccd113	0.025002038
66	0x3e27fd24	0.16405159
67	0xbc8034e7	-0.015650226
68	0xbd42e45e	-0.04758107
69	0xbc852ca5	-0.01625664
70	0xbe558fc3	-0.20855622
71	0x3e09e4e2	0.13466218
72	0x3e1dc169	0.15405811
73	0x3dd5bdbd	0.1043658
74	0x3dceaa9e	0.100911364
75	0x3e3b0ed2	0.18267372
76	0x3ddcd4cd	0.10782776
77	0x3d97f3d3	0.07419553
78	0x3deef59d	0.11667941
79	0x3dba1004	0.09085086
80	0xbda764c6	-0.08173518
81	0xbe3a7795	-0.1820968
82	0xbc54c337	-0.012985996
83	0x3d529f6b	0.051421564
84	0x3dcbca81	0.09950734
85	0xbd3cafc5	-0.046066064
86	0xbd1f90fa	-0.03895662
87	0xbd8ba64f	-0.0681883
88	0xbdf1d3fb	-0.1180801
89	0xbcc64c19	-0.024206208
90	0xbdb529db	-0.08845874
91	0x3dbb50c7	0.091462664
92	0x3d411ec8	0.047148496
93	0x3dd41562	0.10355641
94	0x3dcbb514	0.09946647
95	0xbdb8cb29	-0.09023125
96	0x3c9dc234	0.019257642
97	0xbe18c5c1	-0.14919187
98	0xbb2af44a	-0.002608555
99	0xbdd8516e	-0.105624065
100	0x3d1123b7	0.03543445
101	0x3d27d134	0.040970996
102	0x3dd1b1fd	0.10239027
103	0x3d086e42	0.033308275
104	0xbd325333	-0.043536376
105	0xbcdf4ea6	-0.027259182
106	0xbdb9bed3	-0.090696
107	0xbdbbc10f	-0.091676824
108	0x3d0185af	0.03162163
109	0x3c67956b	0.014134745
110	0xbd676045	-0.056488294
111	0xbcc0df68	-0.023544028
112	0x3d6f3e76	0.058409177
113	0x3e29b552	0.16573074
114	0x3e05f11d	0.13080259
115	0xbd8aee61	-0.067837484
116	0xbd17a803	-0.037025463
117	0xbdf65580	-0.120280266
118	0xbcf0b72b	-0.029384216
119	0x3e37c90c	0.17947787
120	0x3d20387d	0.03911637
121	0x3c9c94de	0.019113954
122	0xbe31d0db	-0.17364828
123	0x3d266971	0.0406279
124	0x3a137573	0.0005625106
125	0xbd292173	-0.041291665
126	0xbd871353	-0.06595483
127	0x3de1e267	0.11029511
128	0x3d196878	0.037453145
129	0xbd8de095	-0.06927601
130	0x3dc7f4c3	0.097634815
131	0x3dcdb01c	0.10043356
132	0x3de8e0b4	0.11370984
133	0xbdc1fb3b	-0.094717465
134	0x3e2c0239	0.16797723
135	0xbd66c84e	-0.05634337
136	0xbe1083a1	-0.14112712
137	0x3da1f316	0.07907693
138	0xbd7878f4	-0.060662225
139	0x3dff0822	0.12452723
140	0xbe288ed7	-0.16460739
141	0x3d51cefc	0.051222786
142	0xbd5569ca	-0.05210284
143	0xbdf58b30	-0.119894385
144	0xbd9ca599	-0.07648773
145	0xbcb2b827	-0.021816326
146	0xbdbf311b	-0.09335538
147	0xbd0fe6ef	-0.035132345
148	0xbcb522f9	-0.022111403
149	0x3ddb95b0	0.1072191
150	0xbcf2369f	-0.029567061
151	0xbd843a95	-0.06456486
152	0x3cde935a	0.027169872
153	0xbd310977	-0.043221917
154	0x3d036b74	0.032084897
155	0xbd6d5b40	-0.05794835
156	0x3dc68ee8	0.09695226
157	0x3d1e3e69	0.038633738
158	0x3d54300e	0.05180364
159	0x3df7a0ea	0.12091239
160	0x3dd46957	0.103716545
161	0x3e0b036a	0.13575521
162	0x3baa5cc3	0.0051990463
163	0xbc06324a	-0.008190701
164	0xbcd43e1e	-0.025908526
165	0x3db1251b	0.086496554
166	0xbdea92d6	-0.11453788
167	0x3dfe6dd5	0.124232925
168	0x3e421fcc	0.18957442
169	0xbd2b4832	-0.041816898
170	0xbdcfb400	-0.10141754
171	0x3d8db193	0.06918635
172	0x3caa8b18	0.020818278
173	0x3b82baff	0.003989577
174	0xbcfb02c5	-0.030640969
175	0xbac87fba	-0.0015296855
176	0x3c199537	0.0093739545
177	0xbd249b8d	-0.040187407
178	0xbdc8c24b	-0.098026834
179	0x3dc915ab	0.09818586
180	0xbd4b66f7	-0.04965874
181	0x3b2dc6b2	0.0026516137
182	0xbdd511f7	-0.10403817
183	0x3d3a060f	0.045415934
184	0xbe256c86	-0.1615468
185	0x3e445c90	0.19175935
186	0xbc890446	-0.01672567
187	0x3dea66bc	0.11445376
188	0xbd3211d5	-0.043474037
189	0xbd9bb9bd	-0.07603786
190	0xbe15c280	-0.14624977
191	0x3dd4a75d	0.103834845
192	0xbe282736	-0.16421208
193	0x3d98e0db	0.07464763
194	0x3da39204	0.07986835
195	0x3b6daa30	0.003626477
196	0x3e0398d9	0.12851276
197	0x3e1335ff	0.14376067
198	0x3e2954c9	0.16536249
199	0xbe10020f	-0.14063285
200	0xbca127df	-0.019672332
201	0x3ddc588d	0.10759077
202	0x3c210c90	0.009829655
203	0xbcc7dde0	-0.02439779
204	0x3ba33f37	0.004981901
205	0x3d2e06a2	0.042486794
206	0xbd30fd6b	-0.04321043
207	0xbd4eb7b4	-0.05046816
208	0x3ca75eed	0.020431006
209	0x3da9c6c3	0.08289864
210	0xbd1955a1	-0.037435178
211	0xbd6b82c8	-0.05749777
212	0x3bf23ef9	0.007392761
213	0xbb926302	-0.004467369
214	0xbe182b2e	-0.14860222
215	0xbd20bbdd	-0.03924166
216	0xbcab5015	-0.02091221
217	0x3e10bf93	0.1413558
218	0xbdf32c61	-0.11873699
219	0x3cf372d6	0.029717844
220	0xbb905f49	-0.00440589
221	0x3e24494c	0.16043586
222	0x3e3c42cb	0.18384854
223	0xbdb2c3dd	-0.08728764
224	0xbe487b85	-0.19578369
225	0xbe19c017	-0.15014683
226	0x3d4f2227	0.05056968
227	0x3e037b7a	0.12840071
228	0x3e224201	0.15845491
229	0x3df558a9	0.11979801
230	0x3e28d4fc	0.16487497
231	0x3d99efaa	0.075164154
232	0xbda0a18f	-0.07843315
233	0x3dddf222	0.10837199
234	0x3a84c68c	0.0010129972
235	0xbd88165b	-0.06644889
236	0xbd88d885	-0.06681923
237	0x3b2c3e35	0.0026282195
238	0x3d4b2ec0	0.04960513
239	0xbcc1bf3b	-0.023650756
240	0xbe1b342f	-0.15156625
241	0xbd3b9045	-0.045791883
242	0xbdd505c9	-0.10401494
243	0xbdacf955	-0.08445994
244	0x3de135d3	0.10996594
245	0x3da2c70d	0.07948122
246	0x3e19e924	0.15030342
247	0x3d237473	0.039905977
248	0x3e02eeb2	0.12786368
249	0x3d821b24	0.06352833
250	0xbde25067	-0.11050492
251	0xbe201aa1	-0.15635158
252	0x3d9b1c9d	0.07573817
253	0xbd38f8cf	-0.045159157
254	0xba751dae	-0.0009350431
255	0xbd548112	-0.051880904

lstm.bias_ih_l0 f4 [192]
0	0x3d65209c	0.0559393
1	0xbd7b53a7	-0.061359074
2	0x3e0283b3	0.12745552
3	0xbdd4d17c	-0.103915185
4	0xbc70eace	-0.014704419
5	0xbb9e9e49	-0.0048406464
6	0xbd34ce21	-0.044141892
7	0x3d03a771	0.032142106
8	0xbdb4800c	-0.088134855
9	0x3dfa72e0	0.12228942
10	0x3e2016f6	0.15633759
11	0x3d5a004e	0.053222947
12	0x3cdff26b	0.027337274
13	0x3d5d6a99	0.054056738
14	0x3d85f72d	0.06541286
15	0xbce0ce26	-0.02744205
16	0xbdab73d1	-0.083716996
17	0x3e2b3e53	0.16722994
18	0x3c1b137b	0.009465094
19	0xbd21c4c0	-0.039494276
20	0x3e26b38a	0.16279426
21	0x3c99888a	0.018741865
22	0x3db02138	0.08600086
23	0x3e082a2c	0.13297337
24	0x3d503a58	0.05083689
25	0x3dcdafba	0.10043283
26	0xbddc77e1	-0.107650526
27	0x3d9a7d51	0.075434335
28	0x3de83070	0.11337364
29	0x3da277ec	0.079330295
30	0xbd6e06a8	-0.058111817
31	0x3dbf9e96	0.0935642
32	0x3db70dde	0.08938192
33	0x3dc169a3	0.09443977
34	0xbd9dbb62	-0.07701756
35	0xbd2bdf0c	-0.04196076
36	0xbc8c101d	-0.017097527
37	0xbd6fc999	-0.058541868
38	0xbd9c0473	-0.07618036
39	0x3d8cf29d	0.06882212
40	0x3e47fe0b	0.19530503
41	0xbdc87037	-0.09787028
42	0x3dbbc6d3	0.09168782
43	0xbc810614	-0.015749969
44	0x3c590f2f	0.013248249
45	0xbb879799	-0.004137945
46	0x3dfe484f	0.124161355
47	0x3dde98ba	0.10868974
48	0xbe041e26	-0.12902126
49	0x3e10f8c5	0.14157398
50	0xbd460aae	-0.04835003
51	0x3df574ac	0.11985144
52	0x3d70a268	0.058748633
53	0x3d78c9c5	0.060739297
54	0xbdd87963	-0.10570028
55	0xbcdc38d9	-0.026882576
56	0xbdf1ab78	-0.11800283
57	0xbdee27bd	-0.11628673
58	0xbdbf388b	-0.093369566
59	0xbcbb0239	-0.022828208
60	0x3cc4d2f5	0.024026373
61	0x3dc64a33	0.09682121
62	0xbc2473a3	-0.010037336
63	0x3dda8afe	0.10671042
64	0x3d7405f6	0.059575997
65	0x3df021dc	0.11725208
66	0xba36402e	-0.00069523125
67	0x3d23b6fc	0.03996943
68	0x3e15cd52	0.14629105
69	0x3e139a63	0.14414363
70	0x3e1ddf3d	0.1541719
71	0x3d99228f	0.07477295
72	0xbe0a1471	-0.1348436
73	0x3dcc41cd	0.09973488
74	0xbcf75289	-0.030190723
75	0x3dc9927d	0.098423935
76	0xbd1bc874	-0.038032964
77	0x3da7f456	0.082009
78	0xbda1a36e	-0.078925
79	0x3d078149	0.03308228
80	0x3e02a543	0.12758355
81	0x3c99c312	0.018769775
82	0xbdca20ff	-0.09869575
83	0xbd658f9b	-0.056045156
84	0x3c831198	0.0159996
85	0x3cd2adb9	0.025717603
86	0xbc4062ae	-0.011742277
87	0xbd826045	-0.06366018
88	0x3da50dbd	0.08059261
89	0x3c61a37f	0.013771891
90	0xbd641b4e	-0.055690102
91	0x3d4b9f19	0.049712274
92	0x3ddb014c	0.10693607
93	0x3e1a866f	0.15090345
94	0xbd71f8b8	-0.059075087
95	0xbd45fdee	-0.04833787
96	0xbdc68ae2	-0.096944585
97	0x3d6d5e99	0.057951543
98	0x3c5df6f2	0.013547646
99	0x3ad0aa7e	0.0015919951
100	0xbd1b35bf	-0.037893053
101	0x3cbd9757	0.023143454
102	0x3e288f4c	0.16460913
103	0x3d841a6f	0.06450354
104	0x3dacdf9b	0.08441087
105	0x3dc50027	0.0961917
106	0x3e26266e	0.16225597
107	0x3e1258bb	0.1429166
108	0xbdaf9dbf	-0.085750096
109	0x3db9d963	0.09074666
110	0xbd677c8e	-0.05651527
111	0xbca138e9	-0.019680457
112	0xbc86067b	-0.016360512
113	0x3b46ab4a	0.0030314499
114	0x3b2bde93	0.0026225194
115	0xbe062d50	-0.13103223
116	0x3e4a191f	0.19736145
117	0x3da2cf28	0.07949668
118	0x3e2b16ac	0.16707867
119	0xbe18f9f3	-0.14939098
120	0x3d9f8ecd	0.07790909
121	0x3d8a4dd7	0.06753128
122	0x3e056141	0.1302538
123	0xbd6af2e4	-0.057360545
124	0xbc4ed17a	-0.012623185
125	0xbdb84388	-0.089972556
126	0xbb8b68cb	-0.0042544357
127	0x3cdb3c5a	0.026762176
128	0xbd3706c6	-0.044684194
129	0x3dc22272	0.09479226
130	0x3d58fa67	0.052973177
131	0x3de54f04	0.11196712
132	0x3bb51a73	0.0055268346
133	0x3dee2cfe	0.11629675
134	0xbe293ed9	-0.1652788
135	0xbdd57a8d	-0.10423765
136	0x3dddb448	0.108254015
137	0xbe20f6ab	-0.15719096
138	0x3e1b1a28	0.15146697
139	0x3d6a33da	0.057178356
140	0x3e069302	0.13142017
141	0xbc56fcc8	-0.013121791
142	0xbdf5f215	-0.12009064
143	0xbdad4bff	-0.08461761
144	0xbdc15f54	-0.094420105
145	0xbd6c55bd	-0.057698954
146	0x3dfe60e4	0.12420824
147	0x3e094358	0.13404596
148	0xbdd3b5d7	-0.103374176
149	0x3cfa8385	0.030580292
150	0x3cff93ea	0.03119846
151	0x3df0c168	0.11755639
152	0x3e1cf3e4	0.15327412
153	0x3de77489	0.11301524
154	0xbd69722d	-0.056993652
155	0xbdaf3d77	-0.08556645
156	0x3c91f65b	0.017817667
157	0x3ce19e87	0.027541412
158	0x3c0c6ff4	0.008571614
159	0xbaa1a421	-0.001233224
160	0xbdad2130	-0.08453596
161	0x3e3b2d10	0.18278909
162	0xbd15c1cf	-0.036561783
163	0xbc982261	-0.01857108
164	0x3e294351	0.16529585
165	0x3e0bd1b7	0.13654219
166	0x3dc033be	0.09384869
167	0xbc565639	-0.0130820805
168	0x3d2942c3	0.041323435
169	0xbd79f672	-0.061026044
170	0x3e1e519a	0.15460816
171	0x3bb05799	0.005381536
172	0xbcb307f4	-0.021854378
173	0x3dbd01a6	0.0922883
174	0xbdbc6f25	-0.09200887
175	0x3db7830d	0.08960543
176	0x3e1d1c52	0.15342835
177	0x3d3cb51b	0.046071153
178	0x3dca6ec4	0.09884408
179	0xbd2d2c21	-0.042278413
180	0x3d95411e	0.07287811
181	0xbca99ee9	-0.020705657
182	0x3d5fdd9b	0.0546547
183	0xbd8562e3	-0.06513002
184	0x3d127787	0.03575852
185	0x3d4387ff	0.047737118
186	0x3cc22677	0.023699982
187	0xbd948ad8	-0.07253045
188	0x3d4a446b	0.049381655
189	0x3de43662	0.11143185
190	0x3dd40ee8	0.10354406
191	0x3cb8ac40	0.022543073

lstm.bias_hh_l0 f4 [192]
0	0x3dfeb140	0.124361515
1	0x3c22b479	0.009930723
2	0xbdd617db	-0.10453769
3	0xbdc82112	-0.09771933
4	0xbdd67522	-0.1047156
5	0x3e39d6ec	0.18148392
6	0x3d2fab28	0.042887837
7	0x3de08d37	0.109644346
8	0x3dc350d1	0.09536899
9	0xbdd991a1	-0.1062348
10	0x3d94fbc5	0.07274584
11	0x3d37c826	0.04486861
12	0xbce7d539	-0.028299915
13	0xbd923b2b	-0.07140192
14	0x3d773f0b	0.060362857
15	0x3e5e9ecf	0.21740268
16	0xbdcb2311	-0.09918798
17	0x3e5cfc81	0.21580698
18	0xbdceef0a	-0.10104187
19	0xbc101b84	-0.008795623
20	0x3d9270c0	0.071504116
21	0xbd8732b3	-0.06601467
22	0x3d8fac09	0.07015235
23	0x3e3eb66a	0.18624273
24	0xbc2e43fd	-0.010636327
25	0x3d916063	0.070984624
26	0x3d157b9f	0.036494847
27	0x3da000f3	0.07812681
28	0x3dadbb1d	0.08482955
29	0x3e3294e0	0.17439604
30	0xbc0bf11c	-0.008541372
31	0x3ca1a987	0.019734157
32	0x3e0f5e76	0.14000878
33	0xbdc0c75b	-0.09413024
34	0x3dc7667c	0.09736344
35	0x3d58e678	0.052954167
36	0xbbd95a3d	-0.0066330717
37	0x3defe1c2	0.11712982
38	0x3e415b07	0.1888238
39	0xbda47089	-0.08029277
40	0x3e6c6008	0.23083508
41	0xbd114658	-0.035467476
42	0x3d11ac63	0.03556479
43	0x3e046463	0.1292892
44	0x3d44bd7e	0.048032276
45	0x3d8db8f5	0.069200434
46	0x3dea81fa	0.11450572
47	0x3d401c83	0.04690219
48	0xbe07c504	-0.13258749
49	0xbc0abc61	-0.008467765
50	0x3e092e44	0.13396555
51	0xbe0633b8	-0.13105667
52	0xbdbe3826	-0.09288053
53	0xbd8b18dc	-0.06791851
54	0x3e150f27	0.14556561
55	0xbd81d7be	-0.06339978
56	0x3dea4b48	0.1144014
57	0xbb1691d3	-0.0022975102
58	0xbc232f88	-0.009960063
59	0x3df42074	0.119202524
60	0xbd9a0af3	-0.0752162
61	0x3ddaca57	0.106831245
62	0xbd5690ca	-0.052384175
63	0x3d734e8e	0.059401087
64	0xbe1dfc8a	-0.15428367
65	0x3db2c658	0.08729237
66	0x3bc7c0f9	0.006096002
67	0x3e22df78	0.15905559
68	0x3e288350	0.16456342
69	0x3db77fe9	0.08959944
70	0xbde3f1ed	-0.11130128
71	0x3e32460e	0.17409536
72	0x3c8a7d48	0.016905442
73	0xbd2c27eb	-0.042030256
74	0x3d8f4433	0.0699543
75	0x3da62361	0.08112217
76	0xbe0dbefb	-0.13842385
77	0x3d92473d	0.07142494
78	0x3dbc05d8	0.09180802
79	0x3dc6d890	0.09709275
80	0xbdaea8c7	-0.085282855
81	0x3dfe718b	0.12424
82	0xbdf421d9	-0.119205184
83	0xbde7cfc3	-0.11318924
84	0x3ddef139	0.10885853
85	0xbd635eaf	-0.05551022
86	0x3db98421	0.09058405
87	0xbd79ddc1	-0.061002497
88	0x3c6b8421	0.014374764
89	0x3e3cc7b3	0.18435554
90	0xbd72c592	-0.05927045
91	0x3e46df2f	0.19421075
92	0x3e1c7e53	0.15282564
93	0x3d42cb4c	0.04755716
94	0x3de1390e	0.109972104
95	0xbd8ef6ce	-0.06980668
96	0x3d019211	0.03163344
97	0xbd7351d3	-0.059404206
98	0xbc072359	-0.008248174
99	0xbdf8eaa5	-0.1215413
100	0xbda13812	-0.07872023
101	0xbd0fbbe3	-0.035091292
102	0x3dcb69a5	0.099322595
103	0xbd6a6423	-0.057224404
104	0x3d39f6c1	0.04540134
105	0xbd4598a2	-0.048241265
106	0x3da4f01a	0.08053608
107	0x3dd97934	0.10618821
108	0x3cad45c9	0.02115144
109	0xbe059737	-0.13045965
110	0xbb51eb7e	-0.0032031233
111	0xbdb60841	-0.08888293
112	0xbda37886	-0.079819724
113	0xbe0b748a	-0.13618675
114	0xbcfa85b7	-0.030581338
115	0xbe30e526	-0.17274913
116	0x3e3e2422	0.18568471
117	0x3ddebe2f	0.108761184
118	0x3d4fe02e	0.050750904
119	0x3daa2d05	0.08309368
120	0xbd2c00da	-0.041993
121	0x3d61feb6	0.055174552
122	0x3c8073d3	0.01568023
123	0x3db23db0	0.08703172
124	0x3cbf4144	0.02334655
125	0xbe1077aa	-0.14108148
126	0xbce36adf	-0.027760921
127	0x3cd37ace	0.025815394
128	0xbd43e762	-0.047828086
129	0xbc1f1b1d	-0.009711054
130	0x3be8e0eb	0.0071068904
131	0x3e09d31e	0.13459441
132	0xbd4dc4ae	-0.050236396
133	0xbd5e3bfc	-0.054256424
134	0xbdf42fd6	-0.119231865
135	0xbcad31dc	-0.021141939
136	0x3dcd8bb5	0.100364126
137	0xbb1943fd	-0.0023386471
138	0x3ca934d1	0.020655068
139	0xbc806ee7	-0.015677882
140	0xbdcf0fd8	-0.10110444
141	0xbe07e75a	-0.13271847
142	0xbe07266b	-0.13198249
143	0x3df96289	0.12176997
144	0xbce0b800	-0.027431488
145	0x3d112d55	0.035443623
146	0xbd9b52a8	-0.07584125
147	0xbb28b2c1	-0.0025741311
148	0xbd81fd85	-0.06347183
149	0x3dc436a5	0.09580735
150	0xbcd1801b	-0.02557378
151	0xbd9e0c21	-0.07717157
152	0x3dbf9bd5	0.093558945
153	0x3d39cd08	0.04536155
154	0x3da96c08	0.082725585
155	0x3e004d5f	0.12529515
156	0x3dfafe81	0.12255574
157	0xbdae09b7	-0.08497947
158	0xbd335016	-0.043777548
159	0x3d2252ff	0.039629932
160	0xbd00634d	-0.0313447
161	0xbd08307d	-0.033249367
162	0x3dac7a8c	0.084218115
163	0x3e27b14e	0.1637623
164	0x3e04232d	0.12904043
165	0x3de6fcb2	0.112786666
166	0xbceba454	-0.028764881
167	0xbc3232f5	-0.010876407
168	0xbdd05c20	-0.101738214
169	0xbd2db429	-0.042408142
170	0xbd7e1888	-0.062035114
171	0xbc159f6a	-0.009132246
172	0x3e117c78	0.14207637
173	0x3e07837d	0.13233753
174	0x3e11c846	0.14236555
175	0x3dae5e95	0.08514134
176	0x3da7f4b1	0.08200968
177	0x3e159567	0.14607774
178	0x3d09107e	0.033462994
179	0x3e107b48	0.14109528
180	0x3df57c9d	0.11986659
181	0x3dc90e5e	0.098171934
182	0x3e45373b	0.1925935
183	0xbcc0bd17	-0.023527665
184	0x3dcbd997	0.09953611
185	0x3e421d08	0.18956387
186	0x3d521fa6	0.051299714
187	0x3d91ff35	0.07128755
188	0x3e18680c	0.1488344
189	0x3da72208	0.08160788
190	0xb9ec4aa3	-0.00045069036
191	0x3dc61326	0.09671621

mlp.0.weight f4 [256, 54]
0	0xbdb79fc6	-0.08966021
1	0x3d99d59f	0.07511448
2	0xbda4f0e3	-0.08053758
3	0xbd3833fa	-0.044971444
4	0x3ab7764b	0.0013997046
5	0x3d01728d	0.031603385
6	0xba518e9d	-0.00079939683
7	0x3b885a34	0.0041611437
8	0xb9803960	-0.0002445681
9	0xbddbc9bd	-0.10731838
10	0x3c8d12f7	0.017220957
11	0xbb92274e	-0.004460252
12	0xbd6e94d6	-0.05824741
13	0x3dc6a230	0.096989036
14	0x3da7303d	0.081634976
15	0x3df504d8	0.119638145
16	0xbd2a4e68	-0.04157868
17	0x3bc9cba4	0.006158309
18	0x3d80c496	0.06287496
19	0x3d790f24	0.060805455
20	0xbdfcb3bd	-0.1233897
21	0x3bd00e3c	0.006349353
22	0x3c7387b1	0.014863894
23	0x3c4684d5	0.012116631
24	0x3dc2c157	0.09509533
25	0xbcfb4985	-0.030674705
26	0x3d74aeaf	0.059736904
27	0xbdc743a2	-0.09729697
28	0x3c844bce	0.016149428
29	0x3e082772	0.13296297
30	0xbdab6e22	-0.083706155
31	0x3d6a3fc1	0.057189707
32	0x3d6d5ea8	0.0579516
33	0x3e0cbf39	0.1374482
34	0xbdaa2b91	-0.08309091
35	0xbd99bbe8	-0.075065434
36	0xbdafb6f7	-0.0857982
37	0xbd94773d	-0.072493054
38	0x3dc443a4	0.09583214
39	0x3c45f059	0.012081229
40	0x3d3617dd	0.04445635
41	0xbdaee717	-0.08540171
42	0x3d11404c	0.03546171
43	0xbd44993c	-0.0479977
44	0xbd3aba67	-0.045587923
45	0xbb81f7b3	-0.0039662956
46	0x3d8faeda	0.07015772
47	0xbbdbf93d	-0.006713061
48	0x3df98068	0.12182695
49	0xbcb743fd	-0.022371287
50	0x3d6d330e	0.057910018
51	0xbdd873fa	-0.10568996
52	0x3d67070b	0.0564032
53	0xbbbdff77	-0.005798276
54	0xbc9c9fcd	-0.019119168
55	0xbb1cc4b7	-0.0023920962
56	0x3d9a462e	0.07532917
57	0x3e09b463	0.13447718
58	0xbdf8d93a	-0.12150808
59	0xbda121ac	-0.078677505
60	0xbdfd61cf	-0.12372171
61	0xbc9a52a1	-0.018838229
62	0xbca50dd6	-0.020148199
63	0x3e0a2a3f	0.13492678
64	0x3c44cd0a	0.012011776
65	0xbd0f4854	-0.034981087
66	0xbdd93208	-0.10605246
67	0x3dde52f8	0.10855669
68	0xbd7e8be1	-0.062145118
69	0x3d0e9f89	0.034820113
70	0x3dc8f40d	0.09812174
71	0x3dcfcfa5	0.10147027
72	0xbda740fb	-0.08166691
73	0xbde724e7	-0.112863354
74	0x3d9c5041	0.07632495
75	0x3c8a2411	0.0168629
76	0x3dbbeebc	0.09176394
77	0x3cc1ae9b	0.023642829
78	0xbd167893	-0.036736082
79	0xbd7d9608	-0.06191066
80	0xbe00f12c	-0.12592
81	0xbe03fbf2	-0.12889078
82	0xbccb0430	-0.02478227
83	0xbd872939	-0.065996595
84	0xbbfedea7	-0.007778007
85	0xbde1ff03	-0.11034968
86	0xbdaa1ca3	-0.08306243
87	0x3d82b087	0.06381326
88	0x3cfb2292	0.030656133
89	0xbe0476b0	-0.129359
90	0xbde64e67	-0.11245423
91	0xbccbe4cb	-0.02488937
92	0x3d6d78bb	0.057976466
93	0x3d54f195	0.051988203
94	0x3d6ce46b	0.057835024
95	0x3ce042c5	0.027375588
96	0xbd243f25	-0.04009928
97	0xbc040e28	-0.008060016
98	0x3ded5f9e	0.11590503
99	0xbdcc29be	-0.09968899
100	0x3d903c00	0.07042694
101	0xbce89420	-0.028390944
102	0x3d354043	0.044250738
103	0xbe06725e	-0.13129565
104	0x3d200b30	0.03907317
105	0xbd195d87	-0.03744271
106	0xbd5e594c	-0.05428438
107	0x3d7e35f6	0.06206318
108	0x3da2ffcf	0.07958948
109	0xbd859c75	-0.065239824
110	0x3d4a6f4a	0.04942254
111	0x3d278697	0.04089984
112	0x3d9c63e5	0.07636241
113	0x3e0a1f35	0.13488467
114	0xbd9f297f	-0.077715866
115	0x3d97280a	0.07380684
116	0xbde58428	-0.112068474
117	0x3dd27d86	0.10277848
118	0x3d5a5b50	0.05330974
119	0xbda70499	-0.08155174
120	0xbd36c64f	-0.044622716
121	0xbdba8f67	-0.09109383
122	0x3d6774ba	0.056507803
123	0xbd1d1bcd	-0.03835659
124	0x3e05d061	0.13067771
125	0x3da080a7	0.078370385
126	0x3d25e9ae	0.040506057
127	0xbdc1bfb2	-0.09460391
128	0x3cc020dc	0.023453169
129	0x3d351ef6	0.04421898
130	0x3d6dc8f8	0.058052987
131	0xbdb58bc9	-0.088645525
132	0xbd0deb4e	-0.034648232
133	0xbe0c25da	-0.13686314
134	0xbdb527d2	-0.08845486
135	0x3d32f4e4	0.043690577
136	0x3d50af4c	0.050948426
137	0xbdf9575f	-0.12174868
138	0x38e4d464	0.00010911448
139	0xbaf83d0d	-0.0018939093
140	0xbe047520	-0.12935305
141	0xbd4f1b02	-0.050562866
142	0xbdaf99fc	-0.08574292
143	0xbdd41fa4	-0.103575975
144	0x3d8f7d30	0.070062995
145	0xbd5278f5	-0.051384885
146	0x3dedecdf	0.11617445
147	0x3cdad7e6	0.026714277
148	0xbb842385	-0.0040325546
149	0x3e02b757	0.12765251
150	0xbd51c7c3	-0.0512159
151	0x3d7bb601	0.06145287
152	0x3d8f0d3f	0.06984948
153	0xbd0021bc	-0.03128217
154	0xbb42482f	-0.0029645076
155	0x3d510b4d	0.051036168
156	0x3e145bea	0.14488187
157	0x3d878135	0.06616441
158	0x3b8736dc	0.004126413
159	0x3cfc862f	0.030825702
160	0xbd7e00a5	-0.062012333
161	0x3d80b0ce	0.06283723
162	0xbd9e3a6a	-0.07725985
163	0xbdef3662	-0.116802946
164	0xbd325d65	-0.0435461
165	0xbd997193	-0.07492366
166	0xbd5ce968	-0.05393353
167	0xbdd9f0c4	-0.106416255
168	0xbd4b4366	-0.049624823
169	0xbda52eb8	-0.080655515
170	0x3b31e06d	0.0027141825
171	0x3c739610	0.014867321
172	0x3d83df79	0.064391084
173	0xbd8869b2	-0.06660785
174	0x3e0bb573	0.13643436
175	0xbe051cef	-0.12999319
176	0xbdc2d53d	-0.09513328
177	0x3ca2bb5f	0.019864736
178	0x3db6a0c6	0.08917384
179	0xbce5ebd1	-0.028066548
180	0x3d008946	0.031380914
181	0xbdf7c7a9	-0.12098629
182	0x3da4462b	0.08021196
183	0x3e0d6158	0.13806665
184	0xbb3fd72a	-0.0029272535
185	0x3decaeba	0.11556764
186	0xbda6d579	-0.081461854
187	0x3e0a5bc2	0.13511565
188	0x3e0c69b0	0.13712192
189	0xbd05d2a1	-0.032671575
190	0x3df278e3	0.118394636
191	0x3dec0e01	0.115261085
192	0xbd4ba08d	-0.04971366
193	0x3dba067a	0.090832666
194	0x3c627833	0.013822603
195	0x3d7cc3eb	0.06171028
196	0x3c54ecee	0.012995942
197	0x3ca673be	0.020318862
198	0xbd0de695	-0.03464373
199	0xbdec1faa	-0.11529477
200	0xbda23724	-0.079206735
201	0xbe043559	-0.12910976
202	0x3dbb0033	0.091308974
203	0x3dd11df3	0.102107905
204	0x3dafeb7f	0.08589839
205	0x3da5da97	0.08098333
206	0xbde7c2a2	-0.1131642
207	0xbccecf6e	-0.025245395
208	0x3d274fb0	0.04084748
209	0x3dfebad9	0.12437982
210	0xbe07e744	-0.13271815
211	0xbcb70a06	-0.022343647
212	0xbd0dbc21	-0.03460324
213	0x3dd9cef4	0.10635176
214	0xbd9d4ee5	-0.076810636
215	0xbc4891f0	-0.012241825
216	0x3db7d1d0	0.089755654
217	0xbd813ea6	-0.06310777
218	0x3da95952	0.082689896
219	0xbddd7b91	-0.10814584
220	0xbda131d0	-0.07870829
221	0xbd674930	-0.05646628
222	0x3cb6cc4f	0.022314219
223	0x3d8fb611	0.07017148
224	0x3d70c935	0.058785636
225	0xbe1ddb4b	-0.15415685
226	0x3df92b46	0.12166457
227	0x3db19077	0.086701326
228	0xbd3a0bd4	-0.045421436
229	0x3c9dd124	0.019264765
230	0xbe05da0a	-0.13071457
231	0xbdcaea78	-0.099080026
232	0x3d481ed0	0.04885751
233	0xbdeebd77	-0.11657231
234	0x3d441113	0.047867846
235	0x3d171fa7	0.03689542
236	0x3d4d49c9	0.050119195
237	0xbd3a87b9	-0.04553959
238	0xbdc1ae53	-0.09457078
239	0xbdc116ea	-0.09428199
240	0xbdcefb1b	-0.10106488
241	0x3db3e6ee	0.08784281
242	0xbded794a	-0.115954
243	0x3dbee68c	0.09321317
244	0x3dd04c05	0.101707496
245	0xbcc781c3	-0.024353867
246	0x3cf204b6	0.029543262
247	0x3d5b352f	0.053517517
248	0xbd58932e	-0.052874736
249	0x3dfecabb	0.124410115
250	0x3bbd2f5f	0.0057734693
251	0xbdef2f87	-0.11678987
252	0xbcf35b0c	-0.0297065
253	0x3df6c034	0.120483786
254	0x3ce40c18	0.027837798
255	0x3c8991dd	0.016793186

mlp.0.bias f4 [256]
0	0x3d0b9fd3	0.034087967
1	0x3d809cac	0.06279883
2	0x3dbf4eac	0.09341177
3	0x3d66e8f4	0.056374505
4	0xbdfab6b7	-0.12241881
5	0x3dbda9a5	0.09260873
6	0xbdeaba8c	-0.11461362
7	0x3d7ac4cc	0.061222836
8	0x3d1c78a7	0.038201
9	0xbdc449f1	-0.09584416
10	0x3daea34d	0.08527241
11	0x3dec5ad1	0.11540759
12	0x3e0aceda	0.1355547
13	0x3d9e8a17	0.07741182
14	0xbddd8e7b	-0.108181916
15	0xbddf4b16	-0.109029934
16	0xbd7e9172	-0.062150426
17	0xbdefd9b0	-0.117114425
18	0x3d799d75	0.06094118
19	0xbdbdd4d0	-0.092691064
20	0x3e020852	0.12698486
21	0xbe09d499	-0.13460006
22	0xbd50da05	-0.05098917
23	0xbda88755	-0.082289375
24	0xbd8cef5d	-0.068815924
25	0x3a341e4f	0.00068709714
26	0x3db38cdc	0.08767101
27	0x3d857d48	0.06518036
28	0x3e0442f3	0.12916164
29	0xbdab2036	-0.08355753
30	0x3de7236c	0.11286053
31	0xb91568b0	-0.00014248746
32	0xbc3e579e	-0.011617569
33	0xbd45d240	-0.048296213
34	0x3daac820	0.08338952
35	0x3db6898d	0.089129545
36	0x3d207273	0.039171647
37	0x3dceb177	0.100924425
38	0xbd7f7b6e	-0.06237357
39	0x3df5ca3b	0.12001463
40	0xbcfbcf83	-0.030738598
41	0xbdb11626	-0.086468026
42	0xbe0c9691	-0.13729312
43	0xbd9af202	-0.075656906
44	0x3d40c107	0.047059085
45	0x3d8cf293	0.06882205
46	0xbda2e5be	-0.07953976
47	0x3c0e1efc	0.008674379
48	0x3d9b02e4	0.07568911
49	0x3da31b1a	0.079641536
50	0x3dece645	0.11567358
51	0x3caa703d	0.020805473
52	0x3a82fe01	0.0009993912
53	0xbd495952	-0.049157448
54	0x3d5c9433	0.05385227
55	0xbd991025	-0.074737824
56	0xbde991bd	-0.114047505
57	0xbdd4b0bd	-0.10385273
58	0xbdb3e000	-0.08782959
59	0xbe092ee7	-0.13396798
60	0xbde5e211	-0.11224759
61	0xbd09af07	-0.033614185
62	0xbb32d2e2	-0.002728634
63	0x3da9a94e	0.082842454
64	0xbd5d9a86	-0.054102443
65	0xbd33d97d	-0.043908585
66	0xbd62104e	-0.05519133
67	0xbd967624	-0.07346752
68	0x3c739434	0.014866877
69	0x3e012359	0.1261114
70	0x3de643d9	0.1124341
71	0xbb2baa92	-0.0026194197
72	0xbde2fa9f	-0.110829584
73	0x3bcaf663	0.0061939224
74	0xbde82c1b	-0.113365375
75	0xbdb4c116	-0.08825891
76	0xbd16f7a4	-0.036857262
77	0x3d10e5d7	0.035375442
78	0x3d53ce0e	0.05171018
79	0xbb27b846	-0.0025592013
80	0xbe05a341	-0.13050558
81	0xbe058be4	-0.13041645
82	0xbdaf3465	-0.08554915
83	0x3df6753a	0.12034078
84	0x3ddcafab	0.107756935
85	0x3dfebf25	0.12438802
86	0x3d52cc78	0.051464528
87	0xbd43668b	-0.047705214
88	0xbd62fb25	-0.05541529
89	0x3c3a871a	0.01138475
90	0xbc8b50e7	-0.01700635
91	0xbd801cb9	-0.062554784
92	0x3dca7934	0.09886399
93	0xbe03e2d8	-0.12879503
94	0xbdc925c4	-0.09821656
95	0x3d58a004	0.052886978
96	0x3daaf875	0.08348171
97	0xbd0e44da	-0.03473363
98	0xbdf4e3fe	-0.119575486
99	0x3d4d8bc1	0.050182108
100	0x3de3b13f	0.111177914
101	0x3dfa0762	0.122084394
102	0xbd7b7102	-0.06138707
103	0xbe06e6f3	-0.13174038
104	0xbc423422	-0.01185325
105	0xbdc8afd4	-0.097991616
106	0xbb8646bc	-0.0040977877
107	0x3c7dff05	0.015502696
108	0x3d26c2af	0.04071301
109	0xbd6b809a	-0.05749569
110	0x3daffbac	0.085929245
111	0x3cb41aa8	0.021985367
112	0x3db09780	0.08622646
113	0xbe06409e	-0.13110587
114	0xbcfc2c70	-0.030782908
115	0xbd7a1bf0	-0.0610618
116	0x3da99d8e	0.08282004
117	0xbc73fc05	-0.014891629
118	0xbd16e061	-0.03683508
119	0x3de960c3	0.11395409
120	0xbde4fd98	-0.11181182
121	0xbb545284	-0.0032397816
122	0x3d926302	0.071477905
123	0x3ac3495c	0.0014899182
124	0xbda3bdc3	-0.079951786
125	0x3c1e26df	0.009652822
126	0x3bfaada2	0.007650093
127	0xbdfebb62	-0.12438084
128	0x3cbea3e7	0.023271514
129	0xbcb736de	-0.02236503
130	0x3d83c3f8	0.064338624
131	0x3b9c28e2	0.004765616
132	0xbd884ad2	-0.06654896
133	0x3dc413d7	0.09574097
134	0x3d8c48b2	0.06849803
135	0x3e036750	0.1283238
136	0x3cdb66b7	0.026782377
137	0x3ceecd6b	0.029150685
138	0x3d68d8c5	0.056847353
139	0x3caa6b4b	0.020803114
140	0xbdcb6200	-0.099308014
141	0x3db43759	0.08799619
142	0xbd048b10	-0.032359183
143	0xbdeace0a	-0.1146508
144	0x3df729a3	0.120684884
145	0xbd0f3ec2	-0.03497196
146	0xbc91fbca	-0.017820258
147	0x3d3520f6	0.044220887
148	0x3d7f3fe3	0.062316786
149	0xbd8124c3	-0.0630584
150	0xbdb57563	-0.0886028
151	0xbc9dc2c9	-0.01925792
152	0xbd36cb22	-0.044627316
153	0xbcf9053f	-0.03039801
154	0x3debc53a	0.11512227
155	0xbda19600	-0.07889938
156	0xbafc1732	-0.0019232987
157	0x3ccbd0aa	0.024879772
158	0xbd297b88	-0.041377574
159	0xbd354cf2	-0.044262834
160	0x3d75b1cd	0.059984017
161	0x3d3b50e0	0.045731425
162	0x3d02cfdc	0.03193651
163	0x3dbab6e0	0.09116912
164	0xbd771f4e	-0.06033259
165	0x3d17463f	0.036932226
166	0x380c610e	3.346899e-05
167	0xbe121ed7	-0.14269577
168	0xbdaf7d8f	-0.0856887
169	0xbcb42c7d	-0.02199387
170	0x3d5f41bb	0.054506045
171	0xbca298af	-0.019848196
172	0xbdf31b88	-0.118704855
173	0x3ddec947	0.10878234
174	0x3a46b0b0	0.0007579429
175	0x3db02837	0.086014204
176	0xbbf3c542	-0.0074392864
177	0xbc38fff1	-0.01129149
178	0x3d802741	0.06257487
179	0x3ad76880	0.0016434342
180	0xbc8f4c9a	-0.017492581
181	0x3dca1550	0.09867346
182	0xbcaa716a	-0.020806033
183	0xbd9a11c0	-0.07522917
184	0x3bea7d38	0.0071560405
185	0xbc6479a3	-0.013945016
186	0x3da7f040	0.08200121
187	0xbe04d958	-0.12973535
188	0x3d87cd52	0.066309586
189	0x3e0b6fc8	0.1361686
190	0xbd6babf3	-0.05753703
191	0x3d84c951	0.064837106
192	0xbd681bbe	-0.056667082
193	0x3db4faaf	0.088368766
194	0x3d87691d	0.06611846
195	0x3e0b2b1c	0.13590664
196	0x3cd39db0	0.025832027
197	0xbd5f8963	-0.05457438
198	0x3e0f0748	0.13967621
199	0x3e15e825	0.14639337
200	0xbde71ab7	-0.11284392
201	0x3d87bef2	0.06628217
202	0x3c81594d	0.015789652
203	0xbbf44fff	-0.0074558253
204	0x3d972b21	0.07381273
205	0x3cf53c7f	0.029936073
206	0xbd8d89c5	-0.06911043
207	0xbe01cbda	-0.1267542
208	0xbdc7402d	-0.097290374
209	0x3de285b0	0.11060655
210	0x3da9806a	0.08276446
211	0x3de0459a	0.109507754
212	0xbdb43c15	-0.08800522
213	0x3dbfb57d	0.09360788
214	0x3df30e47	0.118679576
215	0x3d7b3458	0.061329216
216	0x3de2f375	0.11081592
217	0x3dcbb8b7	0.09947341
218	0x3d80a8f8	0.06282228
219	0x3d6f519e	0.058427446
220	0x3ccdcfde	0.025123533
221	0xbd3b40f5	-0.045716245
222	0x3d33b214	0.043871
223	0xbc903648	-0.017604008
224	0x3d1a4aca	0.03766898
225	0xbdf7bde8	-0.120967686
226	0xbe0305f0	-0.12795234
227	0xbd3998db	-0.04531179
228	0x3e079708	0.13241208
229	0xbda47575	-0.08030216
230	0x3df29055	0.118439354
231	0x3dfcf5cd	0.1235157
232	0xbb882710	-0.0041550472
233	0xbba9a9d5	-0.0051777163
234	0xbcef2760	-0.02919358
235	0x3da483b0	0.0803293
236	0xbbfaa43f	-0.007648974
237	0x3a13ecb9	0.00056428794
238	0x3d84706d	0.06466756
239	0xbde6fae8	-0.11278325
240	0xbd57622e	-0.052583866
241	0x3cbfe901	0.023426535
242	0xbcec2e28	-0.028830603
243	0xbd1bd4a2	-0.03804458
244	0xbe03b6a4	-0.1286264
245	0xbdf4f919	-0.11961574
246	0xbbc77e06	-0.006088021
247	0xbdbbe645	-0.0917478
248	0x3d03f9ef	0.032220777
249	0xbdc41271	-0.0957383
250	0x3d5940e1	0.05304039
251	0xbd39ba00	-0.0453434
252	0x3dc99a1c	0.09843847
253	0x3d6f79f8	0.058465928
254	0x3dd7759a	0.105204776
255	0xbdefc0d2	-0.117066994

mlp.2.weight f4 [128, 256]
0	0x3d5de934	0.054177478
1	0x3d1bf6ea	0.038077272
2	0x3cddddbb	0.027083268
3	0xbda5dcb8	-0.080987394
4	0xbd485b0d	-0.048914958
5	0x3d6d6c0e	0.057964377
6	0x3d3c4fcc	0.045974538
7	0x3cfe6fb0	0.031059116
8	0xbc255ed7	-0.010093412
9	0xbd3d1e93	-0.046171736
10	0x3ce7113c	0.02820646
11	0x3cb6f736	0.022334676
12	0x3abf3651	0.0014588331
13	0x3cbdfee9	0.02319284
14	0xbd06b00b	-0.03288273
15	0x3a7c9ac1	0.0009636097
16	0xbd2c21de	-0.042024486
17	0x3d0d8108	0.034546882
18	0xbd090e25	-0.033460755
19	0xbcaa045d	-0.020754034
20	0x3d4c5617	0.04988679
21	0xbc3c7433	-0.011502313
22	0x3c767c7f	0.015044331
23	0x3c9d68ca	0.019215006
24	0xbd65d26d	-0.05610888
25	0xbd50d562	-0.050984748
26	0x3d86db19	0.06584758
27	0xbd0d08ba	-0.03443215
28	0x3d4ffeee	0.05078023
29	0x3c27891f	0.010225563
30	0xbc9657fd	-0.018352503
31	0x3d4f823f	0.05066132
32	0x3cf335fc	0.029688828
33	0x3c2286e1	0.009919853
34	0xbcdca055	-0.026931921
35	0x3bafc576	0.0053641153
36	0x3cc8d94c	0.024517678
37	0xbbdc23c5	-0.0067181312
38	0xbc3f0a94	-0.011660237
39	0x3d94d242	0.07266666
40	0xbb788e46	-0.0037926598
41	0x3b9b8ee4	0.0047472585
42	0xbc924467	-0.017854882
43	0xbc605b6d	-0.013693673
44	0xbd5b890b	-0.05359749
45	0x3cb05fb8	0.021530017
46	0x3d5da20f	0.05410963
47	0xbb798531	-0.0038073773
48	0x3d084e6c	0.033277914
49	0x3d363fd7	0.044494476
50	0x3a926aac	0.0011170707
51	0x3bba30a8	0.00568207
52	0x3d104431	0.035221282
53	0x3d843712	0.06455816
54	0x3cdf2aea	0.027242143
55	0xbd29ab78	-0.04142329
56	0x3d3a95fe	0.0455532
57	0x3d7563fc	0.059909806
58	0x3c9e1352	0.019296322
59	0xbd15a7a3	-0.036536824
60	0xbc87dc57	-0.016584558
61	0x3c12d3f4	0.008961666
62	0xbc9a4823	-0.018833226
63	0xbc967c33	-0.01836977
64	0xb926f0af	-0.00015920655
65	0x3d713c41	0.058895353
66	0xbd10624f	-0.035250004
67	0xbd1897a7	-0.037254002
68	0x3d8a6341	0.067572124
69	0x3c505152	0.012714701
70	0xbcb8301b	-0.022483876
71	0xbd12afe4	-0.035812274
72	0x3cd19842	0.025585297
73	0xbc3675a2	-0.011136444
74	0xbd105342	-0.03523565
75	0xbd38987c	-0.045067295
76	0xbcdd2d11	-0.026999028
77	0x3d20a560	0.039220214
78	0xbbf5637b	-0.0074886656
79	0xbc8c75b3	-0.017145967
80	0x3bc359f0	0.005961649
81	0x3d3e6ca5	0.04649033
82	0xbcde5277	-0.027138932
83	0x3d7e6dfd	0.06211661
84	0x3d16b625	0.0367948
85	0xbd83e487	-0.064400725
86	0xbb9fe7c2	-0.0048799226
87	0x3db7652e	0.08954845
88	0xbd1c0c3b	-0.0380976
89	0x3cb3a374	0.021928526
90	0xbd01ab52	-0.031657524
91	0xbd26167b	-0.040548783
92	0x3cfa6b7c	0.03056883
93	0x3cff86f9	0.03119229
94	0xbd4a3135	-0.049363334
95	0xbd088d21	-0.033337716
96	0xbb8c9baf	-0.00429102
97	0xbb037391	-0.0020057897
98	0xbbc13419	-0.005896103
99	0x3c0f254d	0.008736921
100	0xbb7bb567	-0.0038407685
101	0x3c84c7f4	0.016208626
102	0x3d448e90	0.04798752
103	0xbc080299	-0.008301401
104	0xbd1aab19	-0.037760828
105	0x3d8826bf	0.06648015
106	0x3d7050cf	0.058670815
107	0xbc160b49	-0.009157964
108	0x3d7292fd	0.05922221
109	0x3d336fac	0.04380767
110	0x3c2341bd	0.009964404
111	0x3d72b243	0.059252035
112	0x3d864de9	0.06557829
113	0x3d040745	0.032233495
114	0xbd2d3103	-0.04228307
115	0x3ce7ac9d	0.02828055
116	0x3d8a1f9c	0.0674431
117	0xbd96d13a	-0.073641255
118	0xbd3198f7	-0.04335877
119	0xbbb0b0b1	-0.005392157
120	0x3ba78e68	0.0051134117
121	0xba90d4d2	-0.0011049754
122	0xbcd50f18	-0.026008174
123	0x3cf7ad09	0.030233877
124	0x3d59ab48	0.053141862
125	0xbb50adef	-0.0031841954
126	0x3c80f78d	0.015743041
127	0xbd58fb58	-0.052974075
128	0x3ace7194	0.0015750402
129	0x3c8c0c26	0.017095637
130	0x3d19c882	0.037544735
131	0x3d063fb3	0.032775592
132	0xbc86514a	-0.016396184
133	0xbd0ff34a	-0.035144128
134	0x3d2b0f6a	0.041762747
135	0x3d5dcfc2	0.05415321
136	0x3c0b9f20	0.008521825
137	0x3b33eff9	0.0027456267
138	0xbc932318	-0.01796107
139	0x3d77b6ec	0.060477182
140	0xbd7d2631	-0.061804
141	0x3c52482b	0.012834589
142	0xbc8ffe9c	-0.017577462
143	0x3b84c51a	0.0040518166
144	0xbd350896	-0.04419764
145	0x3cb783b7	0.022401674
146	0x3d61184e	0.05495482
147	0x3d235dcf	0.039884385
148	0xbd3593c2	-0.044330366
149	0xbb6d0ba4	-0.0036170268
150	0xbd0cd752	-0.034385033
151	0xbca3bedc	-0.01998847
152	0xbcf6b8d9	-0.03011744
153	0xbd65e06a	-0.05612222
154	0x3d9612b5	0.07327787
155	0x3d1da288	0.03848508
156	0x3acdfbf9	0.0015715352
157	0x3ca61e95	0.020278255
158	0xbcbb96e9	-0.022899108
159	0x3d1e18b1	0.038597766
160	0x3d3799f8	0.04482457
161	0xbb929272	-0.004473024
162	0x3d6e46e3	0.05817307
163	0x3c9b7a54	0.018979229
164	0xbcd79c19	-0.02631955
165	0x3d5b32d2	0.053515263
166	0x3c7fd705	0.0156152295
167	0x3d0a2598	0.03372726
168	0xbd6718c2	-0.056420095
169	0x3ca1456a	0.01968642
170	0xbb35ce21	-0.002774127
171	0xbd7cf488	-0.06175664
172	0x3d6114d0	0.05495149
173	0x3d077398	0.033069223
174	0xbaa57a97	-0.0012625036
175	0x3cea8935	0.028629879
176	0x3d437121	0.04771531
177	0xbcbb1d86	-0.022841226
178	0xba52774a	-0.000802864
179	0xbd1156f1	-0.035483304
180	0x3d556d5d	0.05210625
181	0x3d637683	0.055532943
182	0xbd0735bb	-0.033010226
183	0x3d2a4a44	0.04157473
184	0xbd4a5180	-0.04939413
185	0x3cec59dd	0.028851444
186	0x3d80c011	0.06286634
187	0xbd41a930	-0.04728049
188	0xbb220592	-0.0024722558
189	0xbd0b6e89	-0.03404096
190	0x3d39188e	0.045189433
191	0x3b0f8699	0.0021900295
192	0x3cb225b9	0.021746503
193	0x3d5aaf54	0.053389862
194	0xbc8af2ee	-0.016961541
195	0x3cf156ec	0.029460393
196	0x3d6b4631	0.057439987
197	0x3c42d5f2	0.011891829
198	0xbd1d5cd9	-0.038418625
199	0x3c604f1a	0.013690734
200	0x3d328344	0.043582216
201	0x3d05db56	0.03267988
202	0x3d4c6035	0.049896438
203	0xbcd49baf	-0.025953142
204	0x3d30dea1	0.043181065
205	0x3d02fc36	0.03197881
206	0xbda51920	-0.08061433
207	0xbd0fd3b4	-0.035114005
208	0x3d2f5cc4	0.042813078
209	0x3c59dbc6	0.013297027
210	0x3d42533f	0.04744267
211	0x3c8b67ef	0.017017333
212	0x3c5f1ed8	0.013618194
213	0xbd8d5ba0	-0.06902242
214	0x3ce6f06a	0.02819081
215	0xbadb80e2	-0.0016746784
216	0x3d1595d2	0.036519833
217	0x3ce30e03	0.027716642
218	0xbc814ebb	-0.015784612
219	0xbd20bcd8	-0.039242595
220	0xbc2e81c4	-0.010651056
221	0xbaf86e6e	-0.0018953809
222	0xb968f8e4	-0.00022217963
223	0x3d82a742	0.06379558
224	0xbcd1d82e	-0.025615778
225	0xbaf646de	-0.0018789431
226	0xbd66a7e6	-0.056312464
227	0x3d283eda	0.041075565
228	0x3cff569a	0.031169225
229	0x3d96fe9d	0.073727824
230	0x397b38bd	0.00023958362
231	0xbba96972	-0.0051700408
232	0x3cb7b6a1	0.022425951
233	0x3d0f518f	0.03498989
234	0xbd3b8237	-0.04577848
235	0x3cffbf4e	0.03121915
236	0xbcfdfba0	-0.031003773
237	0x3d060b88	0.03272584
238	0xbbff9557	-0.007799785
239	0xbd663bc2	-0.056209333
240	0xbd432e26	-0.047651432
241	0xbb81d8ef	-0.003962628
242	0x3c70f831	0.014707611
243	0xbd0eb0e0	-0.03483665
244	0xbd22c668	-0.039739996
245	0xbb6a1598	-0.0035718437
246	0x3cb21095	0.021736423
247	0xbccd872d	-0.02508887
248	0x3ce259b9	0.027630674
249	0xbb9c03ac	-0.00476118
250	0xbd6678a8	-0.05626741
251	0x38c6b192	9.474451e-05
252	0xbd071ca8	-0.032986313
253	0xbd128ef4	-0.035780862
254	0x3d0745e4	0.033025637
255	0x3ab1dca7	0.0013569788

mlp.2.bias f4 [128]
0	0xbd50fbc1	-0.05102134
1	0x3d3c75a6	0.046010636
2	0xbb4434b6	-0.0029938645
3	0xbc8ec6c6	-0.017428767
4	0x3c00aaca	0.007853219
5	0x3ca93684	0.020655878
6	0xbd214f2f	-0.039382156
7	0xbcbdc742	-0.023166303
8	0xbb132fba	-0.0022458867
9	0xbc91c968	-0.017796233
10	0x3d4a482a	0.049385227
11	0xbcd28508	-0.0256982
12	0xbcd9e470	-0.026598185
13	0xbc4f67a5	-0.012658988
14	0x3c8a113d	0.016853923
15	0x3ca10296	0.019654553
16	0x3cacebc0	0.021108508
17	0xbd4bc4ad	-0.04974811
18	0x3be04e39	0.0068452624
19	0x3cfabb6f	0.030606953
20	0x3c3111f0	0.010807499
21	0x3d42ffb8	0.047607154
22	0x3d13e149	0.03610352
23	0xbcf11bb2	-0.029432151
24	0x3a86bf54	0.0010280409
25	0xbc6c527b	-0.014423962
26	0x3c68c14c	0.014206242
27	0xba028906	-0.00049795245
28	0xbd1b0958	-0.037850708
29	0x3d762712	0.060095854
30	0x3d62d72f	0.055380996
31	0x3d0ff869	0.03514901
32	0xbd78800a	-0.060668983
33	0x3d095ba7	0.033534672
34	0xbd52a604	-0.051427856
35	0xbd1667f5	-0.036720235
36	0x3c73bae5	0.014876102
37	0x3c6b6180	0.0143665075
38	0xbd6c28e2	-0.057656176
39	0xbd70564a	-0.05867604
40	0x3cfa33e5	0.030542323
41	0xbd0679ad	-0.032830883
42	0xbd1c5012	-0.0381623
43	0xbd632570	-0.055455625
44	0xbc39cede	-0.011340825
45	0x3b94c7cf	0.0045404206
46	0x3d1a095e	0.03760659
47	0x3c9037d4	0.017604746
48	0x3d2d6ab0	0.042338073
49	0xbc11ca5b	-0.008898343
50	0xbcb589bf	-0.022160409
51	0xbb486186	-0.0030575707
52	0x3bdfd324	0.00683059
53	0x3c8997b4	0.01679597
54	0xbc4ddcb0	-0.012564823
55	0x3c98e8ef	0.018665759
56	0x3d17541c	0.036945447
57	0x3d769699	0.060202215
58	0x3d68ca43	0.056833517
59	0x3d508ae8	0.05091372
60	0x3c32b64c	0.010907721
61	0x3d5a8876	0.053352796
62	0x3d4d5036	0.050125323
63	0x3c84ee66	0.016226958
64	0xbc93f301	-0.01806021
65	0x3d4b2e74	0.049604848
66	0x3c1e0f34	0.009647179
67	0xbc1c9142	-0.009556117
68	0x3be5bf3a	0.0070113214
69	0xbc316f34	-0.010829736
70	0x3d0942d5	0.033511
71	0x3c272e6b	0.010203938
72	0xbd7b2e18	-0.061323255
73	0xbd034be1	-0.032054786
74	0xbc79c368	-0.015244342
75	0xbd202c0d	-0.03910451
76	0xbd4dadee	-0.0502147
77	0xbcff141e	-0.031137522
78	0xbd13791b	-0.036004167
79	0xbd0d6fcb	-0.034530442
80	0xba3cd17c	-0.00072028465
81	0x3cacc12d	0.021088207
82	0xbc89cfa3	-0.016822642
83	0x3ca31a93	0.019910133
84	0x3d322a30	0.043497264
85	0x3b5a3b59	0.0033299534
86	0x3c313d9f	0.010817914
87	0x3d22b332	0.039721675
88	0x3c9c278a	0.019061822
89	0xbd4844b0	-0.04889363
90	0x3d085422	0.03328336
91	0xbd515d8c	-0.051114604
92	0xbd5ddad2	-0.05416376
93	0x3d5d79a1	0.054071072
94	0xbd570d4e	-0.052502923
95	0x3d2c99e5	0.042138953
96	0x3cb3f93e	0.021969434
97	0x3cdb5cfc	0.026777737
98	0x3ccb07f8	0.024784073
99	0x3d3c14e2	0.045918353
100	0x3d17cc48	0.037060052
101	0x3c2db91d	0.0106032165
102	0x3c6c5f19	0.01442697
103	0x3d1670a8	0.03672853
104	0x3ca92547	0.020647658
105	0x3d44c20a	0.048036613
106	0x3c0ee056	0.008720478
107	0xbce4cb01	-0.027928831
108	0xbd3438c8	-0.043999463
109	0xbd86072e	-0.06544338
110	0xb8092da3	-3.2705848e-05
111	0x3c490a91	0.012270586
112	0xbbca24c3	-0.006168933
113	0xbce5a18b	-0.028031131
114	0x3cce85a1	0.025210204
115	0xbd6c2b08	-0.057658225
116	0x3b85b2a7	0.004080135
117	0x3cc6772d	0.02422675
118	0xbca985fa	-0.020693768
119	0x3d346191	0.04403836
120	0xbcc8064a	-0.024417061
121	0x3c236409	0.009972581
122	0xbd591715	-0.05300053
123	0xbd2d8064	-0.04235877
124	0xbb610e02	-0.0034340625
125	0x3d28eec5	0.041243333
126	0x3c860f30	0.016364664
127	0xbd07f8df	-0.033196326
