weights2/ep_6235.pth (torch, 275655 bytes, 10 tensors)

lstm.weight_ih_l0 f4 [192, 7]
0.17658429 -0.23769028 -0.28389296 0.051600996 0.09714679 -0.051658224 0.007806115 0.14965495
-0.09485694 -0.025924707 0.00046011337 0.15622981 -0.02389608 0.168961 -0.1225508 -0.0010060346
-0.15074666 -0.102549 0.28291228 0.21784814 0.06971146 0.09189004 0.22968404 -0.018935554
-0.16169794 0.5426863 0.118196934 0.6070486 -0.10788065 0.013314185 -0.05997957 -0.13251333
0.22541189 0.26302913 0.16800213 -0.24506947 0.30920437 -0.0132595375 0.1307048 0.031003203
-0.34643224 0.07934683 -0.013699391 0.24237485 -0.14425986 -0.029247794 0.15891846 0.037627585
0.07404643 -0.0065685944 0.06509895 -0.0660642 -0.03708931 0.23240706 -0.024594447 0.23741774
-0.07679165 0.17759475 -0.1613672 -0.19629575 0.010224759 0.34495172 0.023200072 -0.10307378
-0.011089962 -0.09588703 -0.20990361 0.25574338 0.23670486 0.3010893 -0.18152897 -0.18394679
-0.25085017 0.10183773 0.05068228 -0.29783836 0.10434023 -0.12831086 -0.17473307 0.01419988
0.0646287 -0.05665326 -0.1781132 0.07644796 -0.15682396 0.2996642 0.25667018 -0.0094131855
0.17979293 0.18711548 -0.04239546 -0.17440131 0.16209157 -0.114508815 -0.26622593 0.14790627
0.04356013 0.23853995 -0.18865375 -0.11691617 0.025869811 0.10077811 0.18738824 0.045250643
0.21209663 -0.003923825 -0.06280625 0.05781064 0.10779842 0.11390231 0.10040215 0.03289101
-0.10301001 0.13594264 -0.091201246 -0.0042933435 0.14446656 0.0008343189 0.23375385 0.09648724
0.007923127 -0.15618132 -0.22084218 0.2801786 -0.055258106 0.25226042 0.07051878 0.22675736
-0.10227679 -0.028515145 0.17448847 0.32247853 0.18812642 -0.14646974 0.09638394 0.25582236
0.11103629 0.064972244 0.06920207 0.1552983 0.019718872 -0.08713875 0.028239887 -0.16956504
0.25982034 0.03970555 0.06104586 -0.03619327 0.25862384 0.0836109 0.026770815 0.18179078
0.35073355 0.2514243 0.1854341 -0.175218 0.017931411 -0.116362005 0.1200507 0.65297496
0.19969082 -0.17529608 -0.0018477901 -0.23770334 -0.017086444 0.21528457 0.36863574 0.2379082
0.23048118 0.024288842 -0.3918919 0.030417878 0.14046894 -0.03775112 0.05655832 0.03875922
0.08445807 0.16955864 -0.041878637 0.24291116 0.0322057 0.068251334 0.013386313 -0.06165578
-0.075505026 -0.105913244 0.091057755 -0.25376314 0.103039674 0.095992826 0.016081318 -0.02699647
-0.02263153 0.27402687 0.6735008 0.103976294 0.24885875 -0.09185423 -0.07184215 0.12782964
-0.047367923 -0.22980154 0.12689963 -0.18240911 -0.0027107897 0.18915923 0.2113412 0.27356935
0.1926086 0.33274883 0.28707406 0.054038607 0.024679268 0.2338419 0.22226208 0.16197823
0.14760467 0.2607141 0.037041754 0.028438354 -0.05458871 0.04482735 0.19609068 0.06852485
0.33835846 -0.10713025 0.016511565 0.31145945 0.18198417 0.13767152 0.08955237 0.30792135
-0.19065458 0.04862427 -0.0021767588 0.12614699 -0.15445003 -0.047340546 0.20651011 0.30219233
-0.08298926 0.06655193 0.07385649 0.03976295 0.17310067 -0.119527526 0.015714228 -0.14337365
-0.087777935 0.118832275 0.02102015 0.056672916 0.16167766 0.22141007 0.31058636 0.02773338
00000000: 83d2 343e 1565 73be 6b5a 91be 915b 533d
00000010: e5f4 c63d 9397 53bd 70ca ff3b 263f 193e
00000020: 5b44 c2bd 0d60 d4bc 5f3b f139 b5fa 1f3e
00000030: b6c1 c3bc 1d04 2d3e eafb fabd ebdc 83ba
00000040: 555d 1abe 3605 d2bd e1d9 903e 9513 5f3e
00000050: e2c4 8e3d d830 bc3d 4b32 6b3e bc1e 9bbc
00000060: 2594 25be 7ded 0a3f 3c11 f23d 8967 1b3f
00000070: 88f0 dcbd bd23 5a3c 23ad 75bd 93b1 07be
00000080: 60d2 663e c1ab 863e c008 2c3e 7ef3 7abe
00000090: 0950 9e3e 883e 59bc 7bd7 053e 6efa fd3c
000000a0: 915f b1be 9780 a23d 6973 60bc 1d31 783e
000000b0: dbb8 13be 1299 efbc 85bb 223e 621f 1a3d
000000c0: a8a5 973d 5d3d d7bb 9952 853d ab4c 87bd
000000d0: f6ea 17bd 1efc 6d3e 4b7a c9bc a31d 733e
000000e0: f144 9dbd 66db 353e 713d 25be c101 49be
000000f0: bf85 273c 839d b03e 140e be3c 5918 d3bd
00000100: acb2 35bc 6b60 c4bd f9f0 56be ccf0 823e
00000110: c262 723e 6028 9a3e bbe2 39be 8c5c 3cbe
00000120: 6f6f 80be 4d90 d03d 3998 4f3d 457e 98be
00000130: 55b0 d53d ec63 03be 3aed 32be 9da6 683c
00000140: 0d5c 843d 400d 68bd 4f63 36be c090 9c3d
00000150: 7696 20be 966d 993e 466a 833e c339 1abc
00000160: a31b 383e 339b 3f3e dda6 2dbd 4296 32be
00000170: 55fb 253e 9983 eabd c44e 88be be74 173e
00000180: 1b6c 323d d143 743e 732e 41be bf71 efbd
00000190: edec d33c c164 ce3d b4e2 3f3e bd58 393d
000001a0: dc2f 593e 6e93 80bb 90a0 80bd daca 6c3d
000001b0: 6bc5 dc3d 9d45 e93d a49f cd3d b9b8 063d
000001c0: eaf6 d2bd 8c34 0b3e b8c7 babd 2daf 8cbb
000001d0: 0bef 133e 32b6 5a3a 2b5d 6f3e 1a9b c53d
000001e0: 01d0 013c ffed 1fbe 7424 62be 9273 8f3e
000001f0: 5356 62bd 4728 813e 266c 903d 1533 683e
00000200: 7e76 d1bd 9898 e9bc 1bad 323e e81b a53e
00000210: 36a4 403e 2afc 15be f164 c53d 26fb 823e
00000220: ff66 e33d 2b10 853d d1b9 8d3d 8406 1f3e
00000230: 7989 a13c cd75 b2bd 5657 e73c 75a2 2dbe
00000240: 2c07 853e 49a2 223d 390b 7a3d 653f 14bd
00000250: 586a 843e 313c ab3d 784e db3c 5d27 3a3e
00000260: 5993 b33e b0ba 803e 70e2 3d3e 596c 33be
00000270: e5e4 923c 344f eebd 24dd f53d 5e29 273f
00000280: c07b 4c3e d180 33be 8c31 f2ba 8168 73be
00000290: dff8 8bbc 8f73 5c3e d3bd bc3e 359e 733e
000002a0: 4203 6c3e 65f9 c63c 0ea6 c8be ea2e f93c
000002b0: 17d7 0f3e eba0 1abd b2a9 673d fdc1 1e3d
000002c0: 5af8 ac3d c8a0 2d3e ef88 2bbd b4bd 783e
000002d0: 20ea 033d 5bc7 8b3d 4452 5b3c c58a 7cbd
000002e0: 61a2 9abd 0be9 d8bd 7d7c ba3d 3eed 81be
000002f0: 7706 d33d e397 c43d f8bc 833c b327 ddbc
00000300: c265 b9bc 404d 8c3e 8c6a 2c3f 86f1 d43d
00000310: d4d4 7e3e 121e bcbd fa21 93bd c6e5 023e
00000320: de04 42bd 1851 6bbe faf1 013e 74c9 3abe
00000330: 81a7 31bb f5b2 413e d469 583e 4811 8c3e
00000340: 303b 453e 0e5e aa3e 5ffb 923e 9657 5d3d
00000350: 2d2c ca3c 4074 6f3e ac98 633e 9fdd 253e
00000360: ae25 173e 527c 853e 18b9 173d 8df7 e83c
00000370: 6998 5fbd e29c 373d ffcb 483e c256 8c3d
00000380: 523d ad3e 1b67 dbbd 4343 873c 9d77 9f3e
00000390: 0f5a 3a3e c3f9 0c3e 3c67 b73d dea7 9d3e
000003a0: f43a 43be 3e2a 473d f4a7 0ebb ad2c 013e
000003b0: 2628 1ebe 29e8 41bd 6377 533e f4b8 9a3e
000003c0: 46f6 a9bd 614c 883d 1242 973d 7ade 223d
000003d0: 4d41 313e d9ca f4bd 20bb 803c 8bd0 12be
000003e0: ebc4 b3bd 565e f33d 7332 ac3c dc21 683d
000003f0: d48e 253e 52b9 623e 2d05 9f3e 1d31 e33c

lstm.weight_hh_l0 f4 [192, 48]
-0.34712583 -0.24741444 -0.058428187 -0.3052231 0.21949881 -0.0065835686 -0.104024544 0.029545128
0.07905502 0.104265146 -0.35686558 0.5261208 -0.0012612649 0.33970407 -0.1023803 -0.058694553
0.22122721 -0.08020164 0.05884642 0.0339354 -0.068709604 -0.034913216 0.032446574 -0.08527663
-0.15219054 0.038048904 0.17956951 -0.032508533 -0.28694117 0.25266063 0.22157729 -0.06875216
0.17344859 0.08059973 -0.28277877 -0.16445062 0.096801445 -0.15557456 0.37654263 0.26552486
-0.1877316 -0.12506093 0.61870456 -0.2716534 -0.54611194 0.3694797 -0.03613081 -0.17365295
-0.13427375 -0.16251917 0.22240932 -0.25363687 0.25545862 -0.12466422 -0.002397647 -0.054962613
0.25204033 -0.10792374 -0.46832898 0.1297793 0.10540727 0.07713575 -0.15430753 0.1665767
0.071103096 -0.05450448 -0.026270226 -0.19736883 -0.33375606 0.15708302 0.16778578 0.054344177
0.08313295 0.10346699 0.14979427 0.060743123 0.0977152 -0.32697225 -0.214247 0.001131556
0.21952613 -0.2110278 -0.08860816 -0.25898182 -0.25154892 -0.21108857 0.42677328 0.012604889
-0.22067669 0.11790435 0.032226138 -0.51684344 -0.44238782 0.27625328 0.094201915 0.017915767
-0.036742657 -0.25423402 0.41828448 -0.037628334 0.16503587 0.085476436 -0.1434521 -0.1417162
0.12394118 -0.22096352 -0.2643931 0.24777947 -0.07871893 0.13030663 -0.29953024 0.18808368
0.19187273 0.026835758 -0.08094244 -0.014949167 0.06758751 0.17231618 0.19518699 0.16830629
-0.05499775 0.19302094 -0.07285211 0.06647136 0.069428734 0.079694666 -0.12561825 0.1297842
0.03466089 0.08233882 0.020956174 -0.099680424 -0.05528718 -0.35218602 0.20313475 0.1734916
-0.20845558 0.112560526 -0.102354236 -0.30732352 0.00038773692 0.11138773 -0.12598911 -0.005789748
-0.46364895 -0.069761276 0.33261263 -0.36790082 0.39048392 0.28294012 -0.17371383 -0.34280875
0.08237381 -0.24910067 -0.12263026 0.5026182 -0.22700255 0.31686205 -0.22290592 0.38869962
0.33940268 -0.056817062 -0.1999078 -0.0072139413 -0.33816585 0.2920818 0.3023149 0.22288907
-0.19960111 0.21412204 0.37614396 -0.12411557 -0.14474206 -0.22773093 0.0830956 0.48052222
0.22905707 -0.12196293 -0.059875 0.0437709 -0.28609893 -0.40754136 0.33471948 0.4013653
-0.37418428 -0.21499845 0.45277226 -0.040449996 -0.2769726 0.7080373 0.08273698 -0.062279962
-0.46649408 -0.33096367 0.22448128 -0.3441234 0.3169165 0.092445664 -0.2828667 -0.027084585
0.24515726 0.10214226 -0.21128102 0.27337363 -0.05220929 0.5879768 -0.24618776 0.015858402
0.46901938 -0.14374886 -0.1236706 0.14941218 -0.25206774 0.16425857 0.2959542 0.012616072
-0.26905212 0.018713411 0.16905855 0.3232703 -0.17868876 0.02065237 -0.06387004 0.06605307
0.30718684 -0.089274876 -0.1361784 -0.44903842 -0.35943615 -0.480563 0.2191917 0.27109367
-0.23677395 -0.06617645 0.6126462 -0.29659888 -0.7078894 0.49974662 0.118511 -0.17365275
-0.18264747 -0.08270984 -0.049060818 -0.35328487 0.1804334 -0.19499192 -0.0375491 -0.19554645
0.17314804 -0.075666815 0.017487638 0.28093326 0.01732268 0.1051697 -0.1950158 0.15367822
00000000: 7aba b1be 365a 7dbe 6552 6fbd 3446 9cbe
00000010: 4cc4 603e faba d7bb d20a d5bd a008 f23c
00000020: 99e7 a13d f788 d53d 16b7 b6be daaf 063f
00000030: 0751 a5ba b1ed ad3e c3ac d1bd b369 70bd
00000040: 6389 623e c240 a4bd f208 713d d9ff 0a3d
00000050: 9fb7 8cbd 2901 0fbd b3e6 043d 84a5 aebd
00000060: d6d7 1bbe 2bd9 1b3d 12e1 373e ab27 05bd
00000070: f4e9 92be bc5c 813e 28e5 623e efcd 8cbd
00000080: 829c 313e 7911 a53d 61c8 90be be65 28be
00000090: d63f c63d f04e 1fbe 32ca c03e e0f2 873e
000000a0: b63c 40be f90f 00be 6c63 1e3f 2816 8bbe
000000b0: fecd 0bbf 712c bd3e e6fd 13bd 14d2 31be
000000c0: 0f7f 09be 6d6b 26be 45bf 633e b1dc 81be
000000d0: 79cb 823e f44f ffbd d721 1dbb 7a20 61bd
000000e0: 6e0b 813e 1f07 ddbd d1c8 efbe dde4 043e
000000f0: c4df d73d 59f9 9d3d cb02 1ebe 1593 2a3e
00000100: 809e 913d 1740 5fbd a834 d7bc 0e1b 4abe
00000110: 13e2 aabe 5fda 203e 09d0 2b3e 0098 5e3d
00000120: 9c41 aa3d 80e6 d33d ab63 193e c8cd 783d
00000130: e81e c83d e868 a7be 9163 5bbe b850 943a
00000140: 75cb 603e ac17 58be 3278 b5bd 4499 84be
00000150: 05cb 80be 9a27 58be 0782 da3e bd84 4e3c
00000160: 12f9 61be d677 f13d 8eff 033d da4f 04bf
00000170: a880 e2be 1271 8d3e efec c03d 16c4 923c
00000180: 787f 16bd f62a 82be 6229 d63e 2b20 1abd
00000190: 2aff 283e 450e af3d 1be5 12be 0d1e 11be
000001a0: e0d4 fd3d 4344 62be 885e 87be e7b9 7d3e
000001b0: 6437 a1bd 1a6f 053e 075c 99be 0299 403e
000001c0: 497a 443e aad6 db3c 26c5 a5bd 5aed 74bc
000001d0: 526b 8a3d a773 303e 19df 473e 7c58 2c3e
000001e0: 5245 61bd 48a7 453e 7d33 95bd 2322 883d
000001f0: a730 8e3d f536 a33d 12a2 00be 26e6 043e
00000200: 94f8 0d3d 41a1 a83d 48ac ab3c 4025 ccbd
00000210: cf74 62bd ba51 b4be 8e02 503e c8a7 313e
00000220: 6175 55be 2286 e63d 199f d1bd 8259 9dbe
00000230: 2b49 cb39 401f e43d 4a03 01be edb7 bdbb
00000240: 6563 edbe 00df 8ebd 344c aa3e 7f5d bcbe
00000250: 82ed c73e 87dd 903e 0ae2 31be a184 afbe
00000260: 9ab3 a83d 3f14 7fbe 9325 fbbd 96ab 003f
00000270: 5b73 68be be3b a23e 7341 64be a303 c73e
00000280: 30c6 ad3e 02b9 68bd a1b4 4cbe ed62 ecbb
00000290: 1324 adbe bf8b 953e 05c9 9a3e 083d 643e
000002a0: 3c64 4cbe cf42 5b3e f195 c03e 4e30 febd
000002b0: 4337 14be 4c32 69be 072e aa3d 0207 f63e
000002c0: f08d 6a3e b3c7 f9bd 7d3f 75bd 1e49 333d
000002d0: 8f7b 92be 43a9 d0be 5a60 ab3e c17f cd3e
000002e0: 1595 bfbe 8e28 5cbe c4d1 e73e e5ae 25bd
000002f0: 5acf 8dbe ef41 353f 0172 a93d 4619 7fbd
00000300: 50d8 eebe 1274 a9be 6cde 653e f130 b0be
00000310: e142 a23e 2754 bd3d e7d3 90be 7ee0 ddbc
00000320: 810a 7b3e f62f d13d 0d5a 58be a1f7 8b3e
00000330: 69d9 55bd a685 163f a518 7cbe 7be9 813c
00000340: 4f23 f03e e732 13be 0347 fdbd 82ff 183e
00000350: 060f 81be 6633 283e 4f87 973e a4b3 4e3c
00000360: 33c1 89be de4c 993c af1d 2d3e af83 a53e
00000370: 30fa 36be 292f a93c 4cce 82bd d546 873d
00000380: 9847 9d3e bfd5 b6bd 5a72 0bbe 5de8 e5be
00000390: 0408 b8be 5b0c f6be ca73 603e cacc 8a3e
000003a0: df74 72be 8587 87bd 62d6 1c3f cfdb 97be
000003b0: 3d38 35bf cade ff3e e5b5 f23d 07d2 31be
000003c0: f007 3bbe c763 a9bd fff3 48bd c1e1 b4be
000003d0: 89c3 383e f6ab 47be 16cd 19bd 543d 48be
000003e0: b84d 313e 34f7 9abd 3c42 8f3c 7cd6 8f3e
000003f0: 4be8 8d3c 3663 d73d 39b2 47be d35d 1d3e

lstm.bias_ih_l0 f4 [192]
0.066963315 0.1537685 0.22706307 0.35167003 0.12767933 0.07711898 0.096433446 0.309653
0.2413371 0.32217076 -0.0034490628 0.058490537 0.19153152 0.22574128 0.22654021 0.16722152
0.040392894 0.20220537 0.37769204 0.10719229 0.2688507 0.1022448 0.1409195 0.007609729
0.19371404 0.114786424 -0.10520837 0.21371101 0.016419254 0.32724562 0.177822 -0.04717029
0.2218982 0.12440726 0.06348297 0.039187882 0.092149265 0.07306983 -0.034242693 0.02115992
0.050547127 0.07839918 0.1554684 0.0585758 0.08245883 -0.07114276 0.11145279 0.096205704
0.07772083 -0.014599945 -0.09781499 0.08156795 0.124011494 0.041921627 -0.0023976683 0.3072587
0.16204248 0.054921184 0.16822016 -0.07502537 0.21532711 -0.048151802 0.111194886 0.09319924
0.034243483 -0.056450527 0.10010282 -0.04818585 0.1897267 0.0035456268 -0.014018176 0.056545034
-0.05227996 -0.007918833 -0.021806994 0.12139477 -0.16446263 0.013034306 0.3076965 0.004430241
-0.03914878 -0.0587693 0.1792618 0.08597457 0.14766823 -0.056851998 0.10626591 0.13641396
-0.10949062 -0.060205333 -0.015988033 0.3015164 0.014143114 0.15063745 0.07350824 0.038332514
0.014736396 -0.002753304 0.12757017 0.1562816 -0.059402846 0.01798746 0.08705828 -0.34736142
-0.014366565 -0.13764901 0.1206015 0.057773534 -0.1258829 -0.13531668 -0.1493242 -0.00934808
-0.0025458003 0.013795176 -0.026139408 0.117486514 0.11846102 0.047916073 0.14706326 0.15307707
0.045794018 -0.004344725 -0.054439798 -0.038136873 -0.04256512 -0.0971917 0.15279329 0.1643392
-0.11742546 -0.05522376 0.07621668 0.012570215 0.0018190204 -0.059163705 -0.1319439 -0.05787291
-0.05504777 0.0811859 -0.13180582 0.08582029 0.17375055 -0.031040573 -0.0457335 -0.01485576
0.1428303 0.11324457 0.052541398 0.47798488 0.33386797 0.30803514 0.18228588 0.10474653
0.12146266 0.23284793 0.56008804 -0.002479195 0.050057046 0.111575484 0.035918657 0.039955575
0.07237266 0.095077 0.100333594 0.04387087 0.1158415 0.055178277 0.07598605 0.1347729
0.2676221 0.31134218 0.10071431 0.1864146 0.062899135 0.048069242 0.19817767 0.022427142
0.014167666 0.19403145 0.21518938 0.035640225 0.050032333 -0.016840216 0.07176308 0.15149805
0.12952498 0.24268563 0.6051483 0.44115338 0.33997533 0.09987293 0.19635093 0.23515658
00000000: 1024 893d 7d75 1d3e 3983 683e 180e b43e
00000010: 5fbe 023e 8ef0 9d3d e67e c53d d78a 9e3e
00000020: 1321 773e 91f3 a43e ac09 62bb c693 6f3d
00000030: d720 443e b928 673e 28fa 673e 1e3c 2b3e
00000040: 0573 253d ed0e 4f3e da60 c13e a287 db3d
00000050: cda6 893e b965 d13d 344d 103e 095b f93b
00000060: f95c 463e 2515 eb3d 7c77 d7bd 0fd7 5a3e
00000070: ac81 863c bd8c a73e f816 363e a235 41bd
00000080: 4839 633e 3cc9 fe3d 5c03 823d 7983 203d
00000090: c1b8 bc3d a3a5 953d 1142 0cbd 9257 ad3c
000000a0: 810a 4f3d c08f a03d 1c33 1f3e 2eed 6f3d
000000b0: 2de0 a83d 4cb3 91bd 5c41 e43d 7f07 c53d
000000c0: 192c 9f3d 9c34 6fbc 3a53 c8bd 190d a73d
000000d0: bdf9 fd3d 03b6 2b3d 3322 1dbb 0351 9d3e
000000e0: 77ee 253e 09f5 603d e841 2c3e e7a6 99bd
000000f0: b67e 5c3e d33a 45bd 25ba e33d 3edf be3d
00000100: e542 0c3d ab38 67bd b502 cd3d 875e 45bd
00000110: b747 423e bf5d 683b 7eac 65bc c49b 673d
00000120: 8323 56bd febd 01bc 95a4 b2bc d29d f83d
00000130: e468 28be d78d 553c 658a 9d3e 8e2b 913b
00000140: 795a 20bd 14b8 70bd 6890 373e 6f13 b03d
00000150: 5736 173e a4dd 68bd f1a1 d93d 1ab0 0b3e
00000160: 9e3c e0bd de99 76bd 56f9 82bc 5c60 9a3e
00000170: 85b8 673c b440 1a3e 7d8b 963d 8e02 1d3d
00000180: ed70 713c c770 34bb c1a1 023e 4908 203e
00000190: 6650 73bd 705a 933c 9d4b b23d 5bd9 b1be
000001a0: be61 6bbc ddf3 0cbe ebfd f63d f1a3 6c3d
000001b0: 72e7 00be 7590 0abe 71e8 18be b028 19bc
000001c0: 71d7 26bb 2905 623c 5022 d6bc c59c f03d
000001d0: b19b f23d a543 443d c097 163e 3cc0 1c3e
000001e0: 8292 3b3d 325e 8ebb 44fc 5ebd 6935 1cbd
000001f0: c358 2ebd 710c c7bd d875 1c3e 8948 283e
00000200: c27c f0bd 4f32 62bd 7e17 9c3d 4ef3 4d3c
00000210: 326c ee3a a455 72bd 4d1c 07be 250c 6dbd
00000220: c579 61bd cb44 a63d 1bf8 06be 8cc2 af3d
00000230: aaeb 313e cd48 febc 0d53 3bbd 9365 73bc
00000240: 1b42 123e c5ec e73d a635 573d 6fba f43e
00000250: bef0 aa3e c8b6 9d3e 26a9 3a3e 5985 d63d
00000260: 6ac1 f83d b06f 6e3e ee61 0f3f fd79 22bb
00000270: 9e08 4d3d b081 e43d 711f 133d 75a8 233d
00000280: 1e38 943d bbb7 c23d b37b cd3d f1b1 333d
00000290: 4f3e ed3d 9e02 623d 939e 9b3d e801 0a3e
000002a0: c405 893e 3e68 9f3e 4e43 ce3d 78e3 3e3e
000002b0: 43d1 803d 41e4 443d 16ef 4a3e 20b9 b73c
000002c0: 801f 683c 2eb0 463e 9b5a 5c3e 7cfb 113d
000002d0: b4ee 4c3d 7ef4 89bc 86f8 923d 4e22 1b3e
000002e0: 32a2 043e 9582 783e 00eb 1a3f dbde e13e
000002f0: 3f11 ae3e 2e8a cc3d 3810 493e e3cc 703e

lstm.bias_hh_l0 f4 [192]
0.10207215 0.10067223 0.16704202 0.41097242 0.18924227 0.12347577 0.22778016 0.2063589
0.11222241 0.30006734 0.19315179 0.14231056 0.06440856 0.3149163 0.12924203 0.09080321
0.15207642 0.17378366 0.20306313 0.053195205 0.03860479 0.23570834 0.22985792 0.08824191
0.053820357 0.089627564 -0.10957475 0.08402383 0.15918612 0.24578783 0.35405716 0.073586576
0.044807065 0.085851625 0.30630574 -0.049612887 0.066567466 -0.026230074 -0.033742335 0.086221375
0.10985628 0.1648734 0.19986656 -0.0020715438 0.022251219 -0.07801906 0.055243477 -0.0020006774
-0.11322968 0.00044370946 0.12588148 -0.17154668 0.022870969 -0.030187067 0.017002363 0.17691036
0.14138003 0.026183099 0.20819706 -0.014043183 0.071203545 0.005458793 0.21004732 0.20869704
0.028103381 -0.007162438 0.07909383 0.13306653 0.077325 -0.07029004 0.20026943 -0.023303997
0.062838666 -0.05630767 0.018804418 -0.0795104 -0.06611092 0.034201887 0.2264504 -0.00012122298
0.16191255 -0.0090716295 0.12171086 0.12693202 0.10798525 -0.0661731 -0.010472358 -0.1397968
0.022726584 -0.1056152 0.086304635 0.045520876 0.13804066 0.11053865 0.15068723 -0.04774778
-0.004870074 0.032869384 0.03699393 0.06877669 0.10575144 -0.026911259 -0.124874525 -0.23321953
0.14216582 -0.14672107 0.15814014 0.056574743 -0.12857617 -0.109724015 -0.021252166 0.2524063
-0.13265878 0.09923878 -0.11995731 -0.11237499 0.11061884 0.044774964 -0.1204335 0.08335736
0.07772422 0.0758785 0.062674075 0.07552144 0.010479408 -0.13789093 0.12262772 0.17810562
0.08111157 0.026111303 0.060644053 0.1724159 -0.1271847 -0.09968151 -0.06724813 0.088232554
-0.014635228 0.061761685 -0.13979371 0.099532776 0.111396566 -0.031037593 -0.066427656 0.11936628
0.13527231 0.008174801 0.050889995 0.37201378 0.27930996 0.08544993 0.20690915 0.28972882
0.095473304 0.27608034 0.5549513 0.13190119 0.22495161 0.18773304 0.13779612 0.06205922
0.063913785 0.1763646 0.18424094 -0.016205164 -0.049179118 0.06703124 0.16566795 0.04139856
0.266737 0.08076002 0.27594343 0.034993254 0.3132208 0.22601454 -0.02712318 0.091089614
0.022234512 0.15057796 0.21656343 -0.060301956 0.10755855 0.1584737 0.22316629 0.11290171
0.12096115 0.28057832 0.57728535 0.37987155 0.20366167 0.21986979 0.18898857 0.29801416
00000000: 340b d13d 3e2d ce3d 100d 2b3e fa6a d23e
00000010: bac8 413e dde0 fc3d 343f 693e bf4f 533e
00000020: ddd4 e53d 6da2 993e 95c9 453e dcb9 113e
00000030: a3e8 833d b63c a13e 0658 043e 09f7 b93d
00000040: ecb9 1b3e 58f4 313e c8ef 4f3e 37e3 593d
00000050: 0e20 1e3d 875d 713e e05f 6b3e 2db8 b43d
00000060: bc72 5c3d a88e b73d ba68 e0bd b014 ac3d
00000070: b001 233e ceaf 7b3e fb46 b53e 8fb4 963d
00000080: 9d87 373d fad2 af3d 1bd4 9c3e e236 4bbd
00000090: 8654 883d 74e0 d6bc 6735 0abd d594 b03d
000000a0: 54fc e03d 93d4 283e d2a9 4c3e bdc2 07bb
000000b0: 3048 b63c 75c8 9fbd fc46 623d cc1d 03bb
000000c0: f6e4 e7bd ada1 e839 13e7 003e efa9 2fbe
000000d0: e65b bb3c de4a f7bc 8a48 8b3c fd27 353e
000000e0: edc5 103e f07d d63c 9c31 553e 6115 66bc
000000f0: 2ad3 913d addf b23b a516 573e adb4 553e
00000100: 1039 e63c e2b2 eabb f2fb a13d 9842 083e
00000110: 925c 9e3d 39f4 8fbd 6e13 4d3e 06e8 bebc
00000120: 8fb1 803d dfa2 66bd b90b 9a3c 59d6 a2bd
00000130: 2965 87bd 4717 0c3d 9de2 673e 1839 feb8
00000140: 67cc 253e 2ca1 14bc 8b43 f93d 78fa 013e
00000150: 5f27 dd3d c385 87bd 4194 2bbc e426 0fbe
00000160: 1a2d ba3c c84c d8bd 7cc0 b03d 1974 3a3d
00000170: 885a 0d3e 1662 e23d c14d 1a3e 2d93 43bd
00000180: 2495 9fbb 0ca2 063d f286 173d cbda 8c3d
00000190: 3694 d83d 0075 dcbc 37be ffbd 1ad1 6ebe
000001a0: eb93 113e 0c3e 16be 7def 213e ebba 673d
000001b0: 79a9 03be fcb6 e0bd 0619 aebc 663b 813e
000001c0: b4d7 07be b43d cb3d 2eac f5bd dc24 e6bd
000001d0: 218c e23d f465 373d d7a5 f6bd 43b7 aa3d
000001e0: e02d 9f3d 3066 9b3d 445b 803d fcaa 9a3d
000001f0: d3b1 2b3c 4833 0dbe 3e24 fb3d 5261 363e
00000200: d31d a63d 5fe7 d53c e665 783d cb8d 303e
00000210: b53c 02be d225 ccbd 63b9 89bd 45b3 b43d
00000220: 98c8 6fbc d2f9 7c3d 1526 0fbe d7d7 cb3d
00000230: e223 e43d 8d42 febc 390b 88bd 4f76 f43d
00000240: d384 0a3e 9aef 053c 0772 503d 9778 be3e
00000250: b701 8f3e 5f00 af3d fedf 533e 5657 943e
00000260: 8287 c33d 675a 8d3e 4a11 0e3f 1b11 073e
00000270: b759 663e 173d 403e 6d1a 0d3e cf31 7e3d
00000280: 3be5 823d ec98 343e a8a9 3c3e b1c0 84bc
00000290: 0b70 49bd ad47 893d dca4 293e 8991 293d
000002a0: c191 883e 8265 a53d 7548 8d3e 1655 0f3d
000002b0: 7a5e a03e 5b70 673e 6e31 debc 318d ba3d
000002c0: 2725 b63c 1c31 1a3e cec2 5d3e 2fff 76bd
000002d0: a847 dc3d ee46 223e b485 643e 0339 e73d
000002e0: 7bba f73d f6a7 8f3e f9c8 133f 867e c23e
000002f0: af8c 503e 8c25 613e 3886 413e 5095 983e

mlp.0.weight f4 [256, 54]
-0.129284 -0.034273952 0.1923655 -0.033407193 0.046499398 -0.12145315 -0.15343164 0.13284357
0.049439773 0.12936749 0.21331055 0.019088775 -0.16300304 0.13498591 -0.110348105 -0.12037081
0.010604026 0.032836713 -0.14569692 -0.036291182 -0.123336 -0.1284144 0.06686555 -0.08460411
0.044430126 -0.07296577 -0.04322331 0.009118858 0.109232105 0.0440171 -0.14845435 -0.30524918
0.08548125 0.021026911 -0.011216493 -0.24200988 0.20868091 0.097100586 0.18023644 0.023660483
-0.020492062 0.20509413 -0.14341815 0.0036417511 0.06874627 0.0025581045 0.061543968 -0.1689134
-0.034245823 -0.11043031 0.02735117 0.036538653 -0.07468253 -0.05213884 0.03044334 0.058956075
0.08798887 0.06148917 -0.010126286 -0.017320517 -0.10185511 0.028331146 0.13290559 -0.22120336
0.054082915 0.07766392 0.008936687 -0.02468553 -0.0018406833 0.21470842 -0.0069455327 0.13981931
0.028100215 0.08810473 0.08907349 -0.1935736 0.008445102 -0.049198523 -0.026436754 0.05199805
0.0050474177 0.1003872 0.019661846 -0.046781443 -0.045374252 -0.03256432 0.016181374 0.11654556
-0.07752505 0.051406324 -0.043825626 -0.13167065 0.14654715 0.02170613 -0.04762468 -0.020427233
0.13860002 -0.11117177 0.21590745 0.19647036 -0.14787947 -0.06825747 0.14556555 -0.13897286
-0.17593664 0.20228148 0.06868686 0.113984816 0.05740202 0.071064524 -0.053583592 0.10319779
-0.018162757 0.077345714 0.02174645 0.023435388 -0.06221967 -0.14626846 -0.1913826 0.24278075
-0.08637666 0.14728098 -0.10306021 -0.10017633 -0.12619686 0.07748025 0.0555117 0.07010693
0.10740412 -0.12413544 0.030965025 -0.103868455 -0.025873872 0.008338795 0.127925 -0.14409478
0.17782958 -0.11505629 -0.013807082 -0.04671043 0.08648639 0.18298666 0.13062227 -0.23975508
0.20702747 -0.15102789 -0.08874253 0.14674671 0.0011534276 0.035056368 0.017977195 0.02914612
-0.048176955 -0.23004264 -0.14750902 0.13411018 0.031404108 -0.08867229 -0.18033433 0.114665166
0.06948535 -0.04719413 0.16996682 0.1420038 -0.028876258 0.062183097 -0.08180884 0.060444403
-0.019871686 -0.006258882 0.13583377 0.080516756 -0.013024018 -0.09346126 0.008090709 -0.10212677
0.15164529 -0.010223702 0.020738332 -0.038137645 0.02211183 -0.006628349 0.10802067 0.003124707
-0.02484912 0.012286716 -0.075357266 0.08165744 0.13771847 -0.15601638 0.029186342 0.048511676
0.049874134 0.04765048 -0.07734378 0.026774185 -0.10016159 -0.19855046 0.09582371 -0.15715383
-0.028555322 -0.0054100784 0.03852555 -0.014812201 0.008476319 -0.11866909 -0.122086346 0.029976081
0.08169318 0.053671192 0.052268475 0.0907116 0.07839525 -0.15574437 0.0097077 0.00674093
-0.17834064 0.021869699 0.04025996 -0.07537018 -0.041499663 0.074127704 -0.22406936 0.012111393
0.09135844 -0.21031992 -0.009600404 -0.053919066 -0.041344505 -0.19834326 -0.07996921 -0.08859737
0.0033188674 -0.1076951 -0.11172711 0.24926038 -0.13281897 0.18029162 0.09399093 0.03272286
0.05947536 0.0559332 0.07317937 0.25739145 0.15008505 0.24877022 0.009164807 0.046174873
0.060964964 0.13112499 0.21779643 -0.055572618 0.06100862 0.09049622 -0.05850069 0.15095043
00000000: 0663 04be d862 0cbd 76fb 443e fbd5 08bd
00000010: 2776 3e3d 6ebc f8bd 2f1d 1dbe 2508 083e
00000020: 5c81 4a3d e978 043e 156e 5a3e 1060 9c3c
00000030: 45ea 26be bf39 0a3e 30fe e1bd f984 f6bd
00000040: 82bc 2d3c ca7f 063d 9331 15be 10a6 14bd
00000050: 9697 fcbd 117f 03be cef0 883d eb44 adbd
00000060: 5dfc 353d 146f 95bd ed0a 31bd 4367 153c
00000070: 15b5 df3d 464b 343d 6b04 18be 9f49 9cbe
00000080: cb10 af3d a140 ac3c 62c5 37bc 70d1 77be
00000090: 73b0 553e acdc c63d e78f 383e a1d3 c13c
000000a0: f8de a7bc 3204 523e 35dc 12be 72aa 6e3b
000000b0: d8ca 8c3d dfa5 273b 8715 7c3d a2f7 2cbe
000000c0: 5945 0cbd 4929 e2bd 900f e03c 8ea9 153d
000000d0: 27f3 98bd 898f 55bd 5064 f93c ed7b 713d
000000e0: 8233 b43d 11dc 7b3d b9e8 25bc c2e3 8dbc
000000f0: 6999 d0bd b816 e83c 6718 083e 2283 62be
00000100: 0c86 5d3d 430e 9f3d 2f6b 123c 4f39 cabc
00000110: 1543 f1ba 86dc 5b3e 5a97 e3bb cb2c 0f3e
00000120: 6c32 e63c 4170 b43d 296c b63d 2838 46be
00000130: 535d 0a3c 6484 49bd e491 d8bc e8fb 543d
00000140: cf64 a53b ce97 cd3d e111 a13c e69d 3fbd
00000150: 5ada 39bd 2a62 05bd cd8e 843c 70af ee3d
00000160: 74c5 9ebd 708f 523d 8082 33bd acd4 06be
00000170: 7510 163e 0ed1 b13c 1912 43bd 0357 a7bc
00000180: 2aed 0d3e 06ae e3bd d816 5d3e 872f 493e
00000190: b76d 17be 93ca 8bbd 230f 153e e74e 0ebe
000001a0: bc28 34be e022 4f3e b2ab 8c3d df70 e93d
000001b0: 611e 6b3d 478a 913d 787a 5bbd 5d59 d33d
000001c0: 10ca 94bc 6e67 9e3d 9c25 b23c 92fb bf3c
000001d0: 0dda 7ebd 66c7 15be cdf9 43be 849b 783e
000001e0: 3fe6 b0bd d3d0 163e 3b11 d3bd 3f29 cdbd
000001f0: c039 01be f7ad 9e3d 3d60 633d 3994 8f3d
00000200: b1f6 db3d b93a febd 5daa fd3c fcb8 d4bd
00000210: 71f5 d3bc 719f 083c c5fe 023e 958d 13be
00000220: f518 363e a2a2 ebbd 1937 62bc 7053 3fbd
00000230: c71f b13d db60 3b3e d8c1 053e 5b82 75be
00000240: 02ff 533e 0ea7 1abe a5be b5bd c544 163e
00000250: 9c2e 973a 4497 0f3d e944 933c d8c3 ee3c
00000260: 3355 45bd 4c90 6bbe 9b0c 17be 2e54 093e
00000270: 98a1 003d d199 b5bd 90a9 38be 92d5 ea3d
00000280: 564e 8e3d a24e 41bd c80b 2e3e 7269 113e
00000290: e78d ecbc b4b3 7e3d 658b a7bd 8d94 773d
000002a0: f2c9 a2bc 4f17 cdbb 0218 0b3e f8e5 a43d
000002b0: b162 55bc 9e68 bfbd e58e 043c d727 d1bd
000002c0: e748 1b3e 5081 27bc 6fe3 a93c 3836 1cbd
000002d0: de23 b53c 9f32 d9bb f139 dd3d e2c7 4c3b
000002e0: 6290 cbbc 394e 493c e954 9abd 043c a73d
000002f0: 1206 0d3e c2c2 1fbe 3218 ef3c 2eb4 463d
00000300: d248 4c3d 262d 433d 6a66 9ebd 8955 db3c
00000310: 8521 cdbd d050 4bbe 393f c43d efec 20be
00000320: daec e9bc 0747 b1bb f8cc 1d3d e0ae 72bc
00000330: 42e0 0a3c c808 f3bd 6808 fabd 6690 f53c
00000340: c14e a73d 53d6 5b3d 7817 563d 01c7 b93d
00000350: b08d a03d 747b 1fbe 0c0d 1f3c 05e3 dc3b
00000360: ee9e 36be 1528 b33c a1e7 243d ae5b 9abd
00000370: 8dfb 29bd 44d0 973d 7072 65be dd6e 463c
00000380: 221a bb3d 1b5e 57be 034b 1dbc 3dda 5cbd
00000390: db58 29bd 7f1a 4bbe e6c6 a3bd 8a72 b5bd
000003a0: 5b81 593b 408f dcbd 2fd1 e4bd 1d3e 7f3e
000003b0: b201 08be 5e9e 383e 517e c03d 6808 063d
000003c0: 6f9c 733d 361a 653d 11df 953d d0c8 833e
000003d0: e5af 193e 9fbd 7e3e fd27 163c dd21 3d3d
000003e0: 66b6 793d a145 063e 0706 5f3e 1da0 63bd
000003f0: 2de4 793d 1556 b93d 6b9e 6fbd c092 1a3e

mlp.0.bias f4 [256]
0.10719301 -0.12234863 -0.17271179 -0.023242077 -0.003101503 0.18624315 0.0022267273 0.13568774
0.017317614 -0.07728936 0.119752936 0.15962061 -0.028663024 0.022555044 0.022727607 -0.021045107
-0.09263444 0.04130753 0.041407436 0.0001860755 -0.18293068 0.06015697 0.09688984 -0.032800727
0.081941485 0.052719906 -0.051465694 -0.09280297 -0.12977228 0.045636315 0.034666058 -0.00947546
-0.124486804 0.044547852 0.12482332 -0.013499614 -0.17676301 0.12363226 -0.1825172 0.035747714
-0.06820298 -0.14019701 -0.041041985 -0.08989225 -0.08784374 0.056503877 -0.07681923 0.09368734
-0.10758555 0.033895157 0.010599554 0.0766487 -0.18315332 0.06130559 0.10219924 0.029681807
-0.14477989 0.11096421 -0.0050607375 -0.15552022 0.035852633 -0.055436663 0.02703887 -0.13537696
0.04342055 0.20780626 0.049071066 0.08188445 0.19770826 0.1591429 0.022215473 -0.04282841
0.036798123 0.14309324 0.1499298 0.029810566 -0.1283993 0.19576712 0.056043033 -0.027161237
-0.007723969 -0.047951225 0.04098109 0.039391324 -0.053027954 0.08064647 -0.06732612 -0.15925875
0.044382766 0.30127928 0.23840688 0.11692772 0.08648082 -0.03513569 0.074664816 -0.039149933
-0.013471803 0.11340893 0.23578705 0.13659848 -0.052151214 -0.07588613 -0.05939675 0.018178655
-0.08449402 0.009026849 -0.039950658 0.03851526 -0.03039857 0.0340842 -0.16536288 -0.07493759
0.17805545 -0.16046238 -0.05290338 -0.070312425 0.11579405 0.03297111 0.09594937 -0.008812154
-0.15420233 0.092239305 0.19552608 -0.10179868 -0.117084935 0.0907581 -0.07101084 0.041361284
-0.080952734 0.119893596 0.04301825 0.0010460117 -0.049497135 -0.0125813475 0.1690911 -0.09396942
-0.045695662 -0.13099468 -0.03931086 0.18798469 0.12143189 0.049447138 -0.17628944 0.1338836
0.26867744 -0.16438946 -0.063795 -0.055054825 -0.16369596 0.040024355 -0.16664682 0.005743338
-0.043354817 0.07962025 0.1879089 -0.17676221 0.14477232 -0.0072614867 0.011223024 -0.027518407
-0.052538157 0.12412707 0.20991227 0.10272624 -0.13874038 -0.0698245 0.100490764 0.013274706
0.06749664 0.051772095 0.03126994 -0.20788273 0.21542694 0.14392903 0.16557339 -0.029660597
-0.108596876 -0.077231504 -0.16243507 -0.14687899 -0.032133576 -0.010558101 0.05322868 0.15158021
-0.013445048 -0.003229366 -0.10013454 0.1739339 -0.09352348 -0.03651083 0.024911966 -0.019595128
-0.031661086 0.21235384 -0.020969493 0.1447954 0.14766976 -0.08780376 -0.13363121 -0.25157022
0.08027121 0.19955151 -0.16680038 -0.08809912 0.11607679 -0.15254214 0.051808666 0.1067433
-0.13287784 0.057383034 0.17453964 -0.16660838 -0.00391014 -0.047940176 0.10752562 -0.0025249897
0.08145126 0.038207933 -0.08131896 0.020277364 -0.031251837 0.105688356 0.13511966 0.08079137
0.104853906 -0.09434015 0.035224993 -0.046022788 0.05435594 -0.13925332 0.10905388 -0.14739586
-0.13897482 -0.121838994 0.24873827 -0.15360604 -0.006182079 -0.026152324 -0.031477354 0.14166369
0.06310912 -0.09588561 -0.16438167 0.13698712 -0.0570166 0.036869124 0.037560422 0.16443038
0.12517343 0.27933687 0.06712963 0.035177115 0.12987821 -0.07918371 0.105201915 -0.036750227
00000000: 0288 db3d eb91 fabd 5cdb 30be 2b66 bebc
00000010: 9642 4bbb 86b6 3e3e 49ee 113b baf1 0a3e
00000020: abdd 8d3c e249 9ebd 0741 f53d 9673 233e
00000030: b8ce eabc 5bc5 b83c 3f2f ba3c ca66 acbc
00000040: 20b7 bdbd 1632 293d d89a 293d 431d 4339
00000050: 2e52 3bbe 2867 763d 2e6e c63d 0e5a 06bd
00000060: f0d0 a73d d4f0 573d b1cd 52bd 7c0f bebd
00000070: 06e3 04be 25ed 3a3d fffd 0d3d f63e 1bbc
00000080: f0f2 febd cf77 363d 5ea3 ff3d 7c2d 5dbc
00000090: 5d01 35be e932 fd3d cae5 3abe 326c 123d
000000a0: 01ae 8bbd ce8f 0fbe a41b 28bd 6e19 b8bd
000000b0: 6be7 b3bd 9c70 673d 6753 9dbd 26df bf3d
000000c0: d055 dcbd a6d5 0a3d c0a9 2d3c fef9 9c3d
000000d0: 8b8c 3bbe 921b 7b3d d64d d13d 4327 f33c
000000e0: 2e41 14be 3441 e33d 8bd4 a5bb b140 1fbe
000000f0: 36da 123d 8e11 63bd 9f80 dd3c 42a0 0abe
00000100: bfd9 313d 2acb 543e befe 483d 09b3 a73d
00000110: 0974 4a3e 5bf6 223e 39fd b53c d86c 2fbd
00000120: a1b9 163d 0987 123e 3387 193e 4a35 f43c
00000130: 1b7b 03be 2d77 483e 618d 653d 3e81 debc
00000140: 5919 fdbb 8168 44bd cadb 273d cc58 213d
00000150: d733 59bd fa29 a53d 47e2 89bd ba14 23be
00000160: b4ca 353d 4741 9a3e ef20 743e cd77 ef3d
00000170: db1c b13d 71ea 0fbd dee9 983d ae5b 20bd
00000180: d6b8 5cbc f142 e83d 2972 713e 79e0 0b3e
00000190: 839c 55bd 306a 9bbd 024a 73bd 67eb 943c
000001a0: 330b adbd 59e5 133c 4da3 23bd 2dc2 1d3d
000001b0: 6c06 f9bc e09b 0b3d e354 29be e178 99bd
000001c0: 2b54 363e 4050 24be 37b1 58bd f6ff 8fbd
000001d0: 6e25 ed3d b70c 073d 1a81 c43d da60 10bc
000001e0: 37e7 1dbe f6e7 bc3d fd37 483e d47b d0bd
000001f0: 3aca efbd 62df b93d 226e 91bd 736a 293d
00000200: 8cca a5bd c68a f53d e833 303d 541a 893a
00000210: 82bd 4abd ff21 4ebc 3826 2d3e 0a73 c0bd
00000220: 602b 3bbd 7823 06be 6d04 21bd 0f7f 403e
00000230: 48b1 f83d 1589 4a3d 3885 34be c818 093e
00000240: 1790 893e b655 28be f4a6 82bd 2b81 61bd
00000250: ea9f 27be 94f0 233d 77a5 2abe 9c32 bc3b
00000260: d294 31bd f10f a33d 316b 403e 2701 35be
00000270: 323f 143e c4f1 edbb c6e0 373c 486e e1bc
00000280: 4032 57bd 5536 fe3d 3ef3 563e 2362 d23d
00000290: f511 0ebe 2600 8fbd 1ace cd3d 277e 593c
000002a0: ae3b 8a3d fa0e 543d e914 003d 36df 54be
000002b0: e198 5c3e 2262 133e 128c 293e c8fa f2bc
000002c0: 0a68 debd 8d2b 9ebd 6155 26be 7267 16be
000002d0: 7f9e 03bd e3fb 2cbc 5106 5a3d d837 1b3e
000002e0: 9e48 5cbc c5a3 53bb 5613 cdbd ba1b 323e
000002f0: 3d89 bfbd 618c 15bd 2e14 cc3c f685 a0bc
00000300: 0eaf 01bd 4973 593e 37c8 abbc 3f45 143e
00000310: be36 173e 75d2 b3bd 9fd6 08be d0cd 80be
00000320: 3b65 a43d 3b57 4c3e b8cd 2abe 506d b4bd
00000330: abb9 ed3d 0234 1cbe 5335 543d 3b9c da3d
00000340: 2111 08be 790a 6b3d 85ba 323e 639b 2abe
00000350: a220 80bb eb5c 44bd 6436 dc3d 4c7a 25bb
00000360: ebcf a63d ec7f 1c3d 8e8a a6bd b71c a63c
00000370: ed01 00bd 2373 d83d cf5c 0a3e f275 a53d
00000380: a5bd d63d 6935 c1bd 1548 103d 6482 3cbd
00000390: 56a4 5e3d 6c98 0ebe a457 df3d f1ee 16be
000003a0: 6a4f 0ebe b986 f9bd 3fb5 7e3e e74a 1dbe
000003b0: 0a93 cabb 663d d6bc 66ee 00bd 4910 113e
000003c0: 5b3f 813d ad5f c4bd ab53 28be 5a46 0c3e
000003d0: 3d8a 69bd 1404 173d f5d8 193d 7060 283e
000003e0: 772d 003e 3e05 8f3e 427b 893d e115 103d
000003f0: cbfe 043e 122b a2bd 1a74 d73d 6887 16bd

mlp.2.weight f4 [128, 256]
0.036366027 -0.1320561 0.18161254 0.102852404 -0.21510777 -0.08892721 -0.13195813 0.01834713
-0.072610036 0.039549213 0.11370559 -0.010239223 0.0039077634 0.011777557 0.18209364 -0.07240592
-0.18204257 0.016559746 -0.06857769 0.2375429 0.022526292 -0.086327665 0.19232605 -0.052803084
0.09325566 -0.05612348 -0.36502746 0.023786983 0.19615692 -0.13885257 0.07655857 -0.008853185
0.012583488 -0.050750177 -0.032866426 0.13493529 -0.10099709 0.09353735 -0.05323215 0.21662568
0.09835124 -0.022048172 0.008958461 0.050514117 0.124410726 0.15814452 -0.09807134 -0.19581103
-0.09385144 0.095266916 0.014582777 0.094616994 -0.17304975 0.16538784 -0.08615709 0.017758658
-0.08192265 0.07509625 -0.06733073 -0.036298294 -0.29978484 0.06282148 -0.22630724 -0.28810978
0.104242735 -0.13703673 0.052890006 -0.0037308317 0.09764068 0.032572594 -0.09342389 -0.15628114
0.16058676 -0.047314305 0.022413837 0.00621168 -0.21927498 0.16963153 -0.13771749 0.15427268
-0.33225647 -0.06426022 0.018261377 -0.0003854034 -0.2359061 -0.03855929 0.08720442 -0.2005345
0.09151074 0.11874181 0.11843854 -0.028986169 -0.03796335 -0.111593835 -0.07902036 -0.0948865
-0.10251206 0.12600002 0.088420376 0.012933975 0.06715025 -0.024196152 0.080431074 -0.18661888
-0.012819593 -0.21151789 -0.074113026 0.17674449 0.10783201 0.0288472 0.117574796 -0.04638868
0.008835486 -0.06356654 -0.089433864 -0.16869117 0.14820191 -0.037711035 -0.16171685 0.17494036
-0.01467609 -0.0710387 0.0017923777 -0.15784158 -0.12687728 -0.0990756 -0.025161315 -0.043907627
-0.024267167 -0.23900653 0.050545327 0.072321214 -0.11385168 -0.019964505 -0.04978373 -0.05952605
-0.08758659 -0.068591334 -0.08799316 0.04356088 -0.022322204 -0.064112484 0.12197559 0.14274497
0.021630041 0.044504806 0.25376463 0.04146121 0.039045118 -0.07044542 0.08423402 0.08710774
-0.29664734 -0.050022736 0.10422239 0.10694924 0.10255891 0.1735073 0.22294278 0.031879418
-0.040724587 -0.014919754 -0.012334983 0.052582853 0.023269687 -0.09599214 -0.017911918 -0.19371368
-0.08428111 0.08099966 0.108035214 -0.08421008 0.036114607 0.11189881 -0.1520885 0.011959806
-0.045534432 0.092685066 -0.06007831 0.0065131993 0.10022724 -0.07277792 -0.06437012 0.060813837
-0.04631463 -0.33769292 -0.12548546 -0.038551994 0.10323023 -0.15386371 -0.16537862 -0.052724626
-0.22562633 0.057877388 -0.008825457 0.14838508 0.15940697 -0.034874033 -0.11799306 -0.18391588
-0.009906594 0.05704788 -0.07631973 -0.0008352344 -0.033026665 -0.042501006 0.11353873 0.05897914
0.028376883 0.14366661 0.11007558 -0.042560317 -0.1723739 0.23207559 -0.033878237 -0.029208293
0.11891658 0.16972789 -0.00290774 0.042894196 -0.17144154 0.082016595 0.17621207 -0.026901266
0.28844047 0.015319959 -0.08220909 -0.03552268 -0.0014535162 -0.12512814 0.055683 -0.16289179
0.02676583 0.061778225 0.055937983 0.034893602 0.22667944 0.086160064 0.039670393 0.069450155
-0.052892536 -0.1295677 0.043084297 0.12212761 -0.024586732 0.053996023 0.0039612018 0.02677417
0.16752808 0.048298534 0.09318298 -0.012468569 0.03693564 -0.109313026 0.03893588 0.0043086167
00000000: 8bf4 143d b739 07be a3f8 393e 48a4 d23d
00000010: 3645 5cbe 781f b6bd 0820 07be b84c 963c
00000020: 92b4 94bd 5bfe 213d 7ade e83d 6ac2 27bc
00000030: b20c 803b a8f6 403c c176 3a3e 8e49 94bd
00000040: 5e69 3abe 4ea8 873c 7672 8cbd 723e 733e
00000050: 0f89 b83c 8fcc b0bd 1ff1 443e 0c48 58bd
00000060: d3fc be3d bce1 65bd e1e4 babe ebdc c23c
00000070: 5cdd 483e 5e2f 0ebe bdca 9c3d f30c 11bc
00000080: f92a 4e3c 6bdf 4fbd f29e 06bd 7a2c 0a3e
00000090: 90d7 cebd 8390 bf3d f409 5abd 1fd3 5d3e
000000a0: 606c c93d 5e9e b4bc 82c6 123c e4e7 4e3d
000000b0: 0dcb fe3d a3f0 213e a0d9 c8bd b082 48be
000000c0: 2f35 c0bd 4d1b c33d 9aec 6e3c 8ec6 c13d
000000d0: f433 31be 6e5b 293e 2173 b0bd 9b7a 913c
000000e0: 10c7 a7bd 10cc 993d b2e4 89bd 85ad 14bd
000000f0: 667d 99be 8ca8 803d 16bd 67be 2083 93be
00000100: 377d d53d 5b53 0cbe 31a3 583d f880 74bb
00000110: d6f7 c73d d76a 053d 0655 bfbd 2a08 20be
00000120: db70 243e a5cc 41bd 399d b73c 598b cb3b
00000130: 9f89 60be e3b3 2d3e d005 0dbe a8f9 1d3e
00000140: 851d aabe dd9a 83bd e298 953c f80f cab9
00000150: 5e91 71be 59f0 1dbd 3b98 b23d ea58 4dbe
00000160: fc69 bb3d e82e f33d e88f f23d 6774 edbc
00000170: 757f 1bbd 4f8b e4bd 6dd5 a1bd da53 c2bd
00000180: d8f1 d1bd 2606 013e be15 b53d 06e9 533c
00000190: 1286 893d 0237 c6bc 0cb9 a43d 0519 3fbe
000001a0: 4509 52bc 2598 58be 92c8 97bd 82fc 343e
000001b0: 07d7 dc3d f750 ec3c 0ecb f03d 0e02 3ebd
000001c0: b7c2 103c 2d2f 82bd 1a29 b7bd 61bd 2cbe
000001d0: 3ec2 173e e376 1abd 1a99 25be 9123 333e
000001e0: fc73 70bc bd7c 91bd 37ee ea3a 39a1 21be
000001f0: 1eec 01be 26e8 cabd 1a1f cebc 7cd8 33bd
00000200: f0cb c6bc 21be 74be 9e08 4f3d 251d 943d
00000210: 122b e9bd 9a8c a3bc 06ea 4bbd 96d1 73bd
00000220: 9960 b3bd 9d79 8cbd c235 b4bd e56c 323d
00000230: 0edd b6bc 684d 83bd 57ce f93d bd2b 123e
00000240: 7c31 b13c ac4a 363d 70ed 813e 3bd3 293d
00000250: c6ed 1f3d b045 90bd e382 ac3d 8b65 b23d
00000260: 29e2 97be a4e4 4cbd 8c72 d53d 3408 db3d
00000270: 680a d23d e6ab 313e 1d4b 643e fe93 023d
00000280: d3ce 26bd fc71 74bc ab18 4abc 1e61 573d
00000290: 12a0 be3c 8797 c4bd 04bc 92bc e15c 46be
000002a0: 939b acbd 26e3 a53d 9141 dd3d 5676 acbd
000002b0: e9ec 133d 342b e53d 16bd 1bbe 10f3 433c
000002c0: 5082 3abd abd1 bd3d ad14 76bd ad6c d53b
000002d0: f043 cd3d 970c 95bd 7bd4 83bd ee17 793d
000002e0: 69b4 3dbd 16e6 acbe 437f 00be b2e8 1dbd
000002f0: 5f6a d33d 738e 1dbe 0359 29be c7f5 57bd
00000300: 970a 67be d710 6d3d a698 10bc 42f2 173e
00000310: 953b 233e 13d8 0ebd 58a6 f1bd 7254 3cbe
00000320: 444f 22bc 0aab 693d 854d 9cbd a2f3 5aba
00000330: f846 07bd 8915 2ebd fe86 e83d 1c94 713d
00000340: a376 e83c 571d 133e 4e6f e13d ba53 2ebd
00000350: c982 30be 39a5 6d3e e8c3 0abd 3b46 efbc
00000360: 898a f33d 26cd 2d3e c88f 3ebb d3b1 2f3d
00000370: 5f8e 2fbe 51f8 a73d f070 343e 0b60 dcbc
00000380: 78ae 933e 9100 7b3c 3d5d a8bd 3b80 11bd
00000390: e983 beba 9721 00be db13 643d 1bcd 26be
000003a0: 0444 db3c 2a0b 7d3d 3a1f 653d 98ec 0e3d
000003b0: a81e 683e b074 b03d 6c7d 223d e23b 8e3d
000003c0: d8a5 58bd 65ad 04be 2979 303d 0a1e fa3d
000003d0: 1d6a c9bc ef2a 5d3d f8cc 813b 8155 db3c
000003e0: 7b8c 2b3e afd4 453d b8d6 be3d f848 4cbc
000003f0: d349 173d 82df dfbd 3b7b 1f3d 4c2f 8d3b

mlp.2.bias f4 [128]
0.07221628 0.15803592 -0.009713467 -0.028500056 -0.015518597 0.12525082 -0.07073034 0.05372016
0.019609135 -0.0074501983 -0.067874596 -0.07153432 -0.025264367 0.10095073 -0.041246668 0.028121639
0.0151581755 -0.059551142 0.0076498496 -0.0006858079 -0.0011893132 -0.017204795 -0.007209634 -0.026831476
0.041792057 -0.0053844466 0.024862966 -0.052553445 -0.063919 -0.032242294 -0.006848983 0.0005520474
0.0064076 0.024564138 -0.042667266 0.013552214 -0.017355155 -0.043348484 -0.10196371 -0.0022283106
-0.06252794 0.025183618 -0.053056445 0.055770077 -0.025784194 0.09053234 -0.020771934 0.0035342076
0.133789 0.026209578 -0.072301924 0.028897466 -0.036465384 -0.020864155 0.03770641 -0.0035712847
0.008242712 0.035060566 0.01996635 0.074627586 0.019702142 0.05680298 0.037491407 -0.012713079
0.23999959 0.075321496 -0.052376933 0.03564749 0.016016465 0.0033254526 0.021865303 -0.051323686
0.108881004 -0.0018793939 -0.025084592 0.10092362 -0.007866587 -0.0038503553 -0.028143274 -0.015372346
0.03852513 0.025217755 0.07905641 -0.024710817 -0.06289901 0.0185272 -0.05285577 0.0025179232
-0.008962186 -0.06946188 -0.008775834 -0.0041117487 0.025342718 0.03819386 0.08370876 -0.016019631
0.14955322 0.17841747 0.075212896 -0.01305227 0.03821488 -0.022085872 0.046883676 -0.05330198
-0.05348227 -0.04499932 -0.0024520755 0.002191689 -0.0011769747 0.0196374 0.03205793 0.056206748
-0.08025721 -0.043233007 0.035362653 -0.054231655 -0.026898902 -0.060125828 -0.0025148022 0.09758457
0.009448569 0.037518926 -0.048706397 -0.011117779 -0.06277778 0.058344685 0.020347336 0.030831011
00000000: 21e6 933d 2bd4 213e 3c25 1fbc f378 e9bc
00000010: b741 7ebc c041 003e 12db 90bd ac09 5c3d
00000020: 56a3 a03c cb20 f4bb d601 8bbd 9680 92bd
00000030: 38f7 cebc 42bf ce3d 44f2 28bd 5a5f e63c
00000040: ff59 783c e6eb 73bd 97ab fa3b cac7 33ba
00000050: bbe2 9bba 12f1 8cbc cb3e ecbb afcd dbbc
00000060: 262e 2b3d 0370 b0bb 6bad cb3c 4842 57bd
00000070: f7e7 82bd 7f10 04bd 6f6d e0bb 46b7 103a
00000080: d8f6 d13b bb3a c93c dfc3 2ebd 1b0a 5e3c
00000090: 662c 8ebc 2e8e 31bd 59d2 d0bd d908 12bb
000000a0: a60e 80bd e04d ce3c b751 59bd 2a6f 643d
000000b0: 6039 d3bc 0569 b93d e729 aabc 2a9e 673b
000000c0: fcff 083e 78b5 d63c 0813 94bd 61ba ec3c
000000d0: ba5c 15bd 4eeb aabc 0972 1a3d 370c 6abb
000000e0: 710c 073c ab9b 0f3d 7990 a33c 59d6 983d
000000f0: 6366 a13c 3eaa 683d 9790 193d 854a 50bc
00000100: 74c2 753e 2842 9a3d 3289 56bd 1a03 123d
00000110: f634 833c d6ef 593b dd1e b33c c938 52bd
00000120: 01fd de3d ff55 f6ba 347e cdbc 0bb1 ce3d
00000130: dbe2 00bc 3e56 7cbb b98c e6bc 4bdc 7bbc
00000140: 87cc 1d3d 7795 ce3c 54e8 a13d 576e cabc
00000150: 32d1 80bd 5bc6 973c 4b7f 58bd be03 253b
00000160: 22d6 12bc 0842 8ebd 84c8 0fbc d9bb 86bb
00000170: 889b cf3c 2a71 1c3d 806f ab3d 9a3b 83bc
00000180: 7b24 193e 12b3 363e 3809 9a3d 30d9 55bc
00000190: 3587 1c3d 6eed b4bc 1909 403d 2d53 5abd
000001a0: 3a10 5bbd 3551 38bd 00b3 20bb 71a2 0f3b
000001b0: b844 9aba 9dde a03c 2d4f 033d 0c39 663d
000001c0: e45d a4bd 1815 31bd 6ed8 103d 0322 5ebd
000001d0: 165b dcbc 8046 76bd 61cf 24bb 6bda c73d
000001e0: 2cce 1a3c 72ad 193d 5c80 47bd 5827 36bc
000001f0: a391 80bd d6fa 6e3d 75af a63c 5191 fc3c

mlp.4.weight f4 [80, 128]
0.076966405 -0.034185555 0.021539062 0.06869576 -0.033813845 -0.10274391 0.111676104 0.03564788
0.010644928 0.0132148815 0.028380753 0.034180146 0.0851249 -0.082211636 0.019214913 0.054579325
0.12583303 0.03052276 0.08213881 0.025903802 -0.019758005 0.033771448 0.09993805 0.061685566
0.014749838 -0.015554362 0.017085204 -0.08615871 0.101084076 -0.038128547 0.042153593 0.081313804
-0.082741514 0.14500424 0.13707533 0.06920541 0.018321455 0.11550742 0.1161278 0.03788848
-0.027512256 0.07708083 -0.08275705 0.17321956 0.025734521 -0.033202298 -0.01678543 0.11195137
-0.007880005 0.030520923 0.06593188 0.15552051 0.041835792 0.11333115 0.113685444 0.07957147
0.015461533 0.060257263 0.123666346 -0.060440224 0.06614117 0.090468146 0.06158351 -0.09761171
0.021937646 0.13133262 0.11035007 0.015769815 -0.013356772 0.06229341 0.14262676 0.0017090862
-0.008274781 -0.0012007742 0.0029883005 -0.023301722 0.052828263 -0.042822476 -0.008743787 0.099096075
0.10972862 -0.028971564 -0.008467953 0.10189783 0.09238407 0.113461286 0.03333564 0.07290732
0.005025729 0.21889916 0.17733932 0.20010845 -0.020859076 0.07551602 0.020111471 0.0074586384
-0.014153288 -0.08011355 0.0030292752 -0.07023946 0.052278608 0.0960878 0.17448962 0.058789246
-0.010017305 0.035648838 0.023193905 0.21408334 0.13299054 0.06072506 -0.046493437 0.044682983
-0.0043308786 0.065850094 0.108886436 0.021878174 -0.016188724 0.005845848 0.14596729 0.013155308
-0.012987721 0.0018573084 0.019039713 0.10739044 0.080386385 0.021575484 -0.008097245 0.01595036
0.22016978 -0.048397843 -0.0237233 -0.016833514 -0.07392125 -0.10701195 0.011388358 0.24544646
3.8266193e-05 0.08171652 0.072946474 0.042758673 0.07792234 -0.061696358 0.013642498 0.058140513
0.078852646 0.09042908 -0.051180627 -0.076060325 -0.06433281 -0.03403218 -0.060228307 0.1010481
0.07535018 0.042526823 0.14065233 0.05374518 0.12219794 -0.022130359 0.110233925 0.16466472
-0.06496931 0.010198615 0.11932615 -0.01515113 -0.02140204 0.05386849 0.06372246 0.045016233
0.07901344 0.031527724 -0.0036972796 0.17477438 0.090826675 -0.17355947 -0.13958432 0.058271073
-0.15849333 0.12665544 0.025798034 0.088156804 0.029982807 0.07748424 0.15618618 0.03609091
0.0678807 -0.09475216 0.049383193 0.009635957 0.12037749 0.18675761 0.08762707 0.05446115
0.0021101371 0.056117024 0.19033642 0.011149813 -0.079622485 0.056223013 0.09370969 -0.026953235
-0.080551535 0.0016890033 0.08836164 -0.054462176 0.075855166 -0.0050765285 -0.07362849 0.100113034
0.13378362 0.0029289636 -0.056068663 -0.13534728 0.10335367 -0.19777994 0.050811358 -0.07460857
0.09682228 0.24102032 -0.02661545 0.07420069 -0.062667474 0.09774675 -0.017024906 0.0012220356
-0.14655162 -0.044663705 0.18028277 -0.008064831 0.13244447 -0.060069557 -0.08337034 0.00082986016
-0.0029067206 0.05312115 -0.05114582 0.067335464 0.15492617 0.08930955 -0.014391272 0.06603293
0.07262269 0.022982776 0.12650779 0.085256554 -0.023169572 0.039054 -0.11501567 -0.053390395
0.20648372 0.09025553 0.0019756292 0.16639388 0.14407551 0.019498348 0.001179764 0.016914636
00000000: 90a0 9d3d 2706 0cbd b072 b03c 5db0 8c3d
00000010: 6380 0abd 666b d2bd 71b6 e43d 8303 123d
00000020: 1068 2e3c 3b83 583c c17e e83c 7b00 0c3d
00000030: f755 ae3d 935e a8bd 9868 9d3c 928e 5f3d
00000040: 60da 003e de0a fa3c 6438 a83d 3634 d43c
00000050: 8adb a1bc ee53 0a3d 52ac cc3d 01aa 7c3d
00000060: 4ea9 713c b9d7 7ebc 45f6 8b3c fa73 b0bd
00000070: 2b05 cf3d ae2c 1cbd 3fa9 2c3d da87 a63d
00000080: 6274 a9bd fe7b 143e 7a5d 0c3e 91bb 8d3d
00000090: e016 963c 278f ec3d 69d4 ed3d f330 1b3d
000000a0: 6261 e1bc 8edc 9d3d 877c a9bd 7860 313e
000000b0: 34d1 d23c 22ff 07bd 9981 89bc c346 e53d
000000c0: 231b 01bc 0407 fa3c 4b07 873d c540 1f3e
000000d0: 025c 2b3d 291a e83d ead3 e83d 5ef6 a23d
000000e0: 5f52 7d3c 52d0 763d c844 fd3d 2b90 77bd
000000f0: 0675 873d 5d47 b93d fe3e 7c3d a6e8 c7bd
00000100: 94b6 b33c 0f7c 063e 38ff e13d b32f 813c
00000110: 5dd6 5abc 6027 7f3d c00c 123e 6b03 e03a
00000120: f292 07bc 4c63 9dba 5dd7 433b 41e3 bebc
00000130: 7362 583d 9f66 2fbd 1a42 0fbc e2f2 ca3d
00000140: 66b9 e03d c655 edbc 2bbd 0abc cfaf d03d
00000150: dc33 bd3d 645e e83d f48a 083d 6f50 953d
00000160: dfae a43b 1a27 603e 7098 353e 3be9 4c3e
00000170: a7e0 aabc 25a8 9a3d d0c0 a43c 9867 f43b
00000180: 31e3 67bc 9312 a4bd ce86 463b b5d9 8fbd
00000190: 1822 563d aec9 c43d 68ad 323e fecc 703d
000001a0: 9f1f 24bc 8404 123d 2501 be3c aa38 5b3e
000001b0: ac2e 083e d7ba 783d e76f 3ebd 8105 373d
000001c0: 0bea 8dbb 6adc 863d daff de3d db39 b33c
000001d0: 379e 84bc 878e bf3b 7378 153e 5c89 573c
000001e0: 73ca 54bc ee70 f33a 2cf9 9b3c 85ef db3d
000001f0: 9ea1 a43d 12bf b03c 4faa 04bc 54aa 823c
00000200: 3074 613e d13c 46bd 5e57 c2bc 70e6 89bc
00000210: 0664 97bd 1529 dbbd 3c96 3a3c 5156 7b3e
00000220: 0380 2038 fe5a a73d f664 953d b823 2f3d
00000230: bf95 9f3d 52b5 7cbd c984 5f3c bf24 6e3d
00000240: 7f7d a13d e232 b93d c7a2 51bd 84c5 9bbd
00000250: ecc0 83bd 5465 0bbd f5b1 76bd 4ef2 ce3d
00000260: 3251 9a3d 9b30 2e3d 2a07 103e e823 5c3d
00000270: ea42 fa3d ba4a b5bc 53c2 e13d de9d 283e
00000280: a10e 85bd 1718 273c 4561 f43d 723c 78bc
00000290: 5553 afbc 35a5 5c3d ec80 823d f162 383d
000002a0: ccd1 a13d 3723 013d 0f4e 72bb 0ef8 323e
000002b0: 5603 ba3d 93b9 31be 31ef 0ebe a6ad 6e3d
000002c0: 134c 22be f7b1 013e 6656 d33c 8e8b b43d
000002d0: 819e f53c 0fb0 9e3d 45ef 1f3e 10d4 133d
000002e0: 0905 8b3d 6c0d c2bd 0846 4a3d 22e0 1d3c
000002f0: 7988 f63d 633d 3f3e d275 b33d a812 5f3d
00000300: 3a4a 0a3b f7da 653d 8de7 423e b5ad 363c
00000310: 1d11 a3bd 1a4a 663d deea bf3d 08cd dcbc
00000320: 34f8 a4bd 8c61 dd3a f3f6 b43d bb13 5fbd
00000330: f459 9b3d 0259 a6bb 89ca 96bd 1008 cd3d
00000340: 93fe 083e dbf3 3f3b 41a8 65bd 7a98 0abe
00000350: 17ab d33d d386 4abe 921f 503d 61cc 98bd
00000360: c24a c63d 08ce 763e a508 dabc 88f6 973d
00000370: ce57 80bd 732f c83d d177 8bbc b62c a03a
00000380: a111 16be 4af1 36bd 0c9c 383e 5a22 04bc
00000390: 869f 073e 7f0b 76bd 12be aabd f98a 593a
000003a0: ae7e 3ebb 9095 593d 487e 51bd 2de7 893d
000003b0: f7a4 1e3e ede7 b63d 5fc9 6bbc 463c 873d
000003c0: 34bb 943d 6046 bc3c 428b 013e fd9a ae3d
000003d0: 1dce bdbc 16f7 1f3d 568d ebbd e3af 5abd
000003e0: 7870 533e e4d7 b83d 8f79 013b 2863 2a3e
000003f0: 8888 133e 00bb 9f3c 50a2 9a3a 9090 8a3c
