weights2/ep_7720.pth (torch, 275655 bytes, 10 tensors)

lstm.weight_ih_l0 f4 [192, 7]
000000 47 97 3f 3e 69 c3 8a be 9c fe d1 be 27 9e 35 3c
       0.18710051 -0.2710221 -0.41014564 0.01108507
000010 d4 10 df 3d 88 ce 8d bd be 61 a0 3c c4 5b 31 3e
       0.108918816 -0.06924158 0.019577857 0.17320162
000020 bf dd cc bd 2d 88 08 3c 02 b1 f0 3b 0f 98 36 3e
       -0.10003232 0.008333248 0.0073453197 0.17831443
000030 89 44 24 bc 76 a1 43 3e 67 b0 09 be 62 a7 aa 3c
       -0.010026106 0.19104561 -0.13446198 0.020831767
000040 ee 7e 63 be 5b 0a b0 bd 18 60 98 3e f7 db 71 3e
       -0.22216389 -0.08595725 0.29760814 0.23619066
000050 28 dd ac 3d 95 f6 fa 3d 4f b5 4c 3e df e4 61 3b
       0.0844062 0.12254063 0.19991039 0.0034468693
000060 ef 9f 42 be b1 25 24 3f 6c 22 38 3e be 9f 34 3f
       -0.19006322 0.6412001 0.17981881 0.7055625
000070 8a 4b 54 bd 91 c1 26 bc 06 6f 88 bd f6 44 1f be
       -0.051829852 -0.010177986 -0.06661801 -0.1555365
000080 de 18 88 3e 35 ad 96 3e 0b 68 55 3e 46 bd 40 be
       0.26581472 0.2942902 0.2084047 -0.18822202
000090 83 bc b2 3e 37 44 24 bd 0a 06 c4 3d 37 c5 23 3d
       0.34909448 -0.040104117 0.09571464 0.039983
0000a0 8d 9d b0 be 92 e4 b4 3d da 3e e6 bc 31 2e 83 3e
       -0.34495202 0.08832659 -0.028106142 0.2562118
0000b0 26 10 bc bd 03 cc 71 bd 0c 25 36 3e cb 5e 4e 3d
       -0.091827676 -0.05903245 0.1778757 0.05038337
0000c0 de 78 be 3d d6 fa 7e bd e5 c0 b1 3d e1 b2 0a be
       0.09300397 -0.062250935 0.0867937 -0.135448
0000d0 bb 85 10 bd fd ae 6d 3e 62 70 1d bd 85 d0 72 3e
       -0.035283785 0.23211284 -0.038437255 0.23712356
0000e0 1d 97 ae bd 4f e9 09 3e 70 f3 12 be 64 c0 84 be
       -0.08524916 0.13467906 -0.14350677 -0.25928032
0000f0 ad 0f 03 3d ac 01 dc 3e 20 35 38 3d ac 9e e1 bd
       0.03199737 0.42970026 0.04497254 -0.110165924
000100 4b 0f 8c bc fa 44 ae bd 97 4c 4f be a7 27 8f 3e
       -0.017097136 -0.0850925 -0.2024406 0.2795994
000110 e0 59 89 3e 3c 5f a6 3e 95 03 32 be 1d 7a 64 be
       0.26826382 0.32494533 -0.17384179 -0.22312208
000120 ca 0e a0 be fd 23 e1 3d 61 27 92 3d c0 97 ac be
       -0.31261283 0.10993192 0.07136417 -0.33709526
000130 c7 05 00 3e bb 53 17 be 57 0d 3e be 2e bd 45 bc
       0.12502204 -0.14778034 -0.18559776 -0.01206903
000140 42 6c 84 3d 02 13 61 bd 81 d3 4d be 90 0d a0 3d
       0.06465961 -0.054949768 -0.20100214 0.07815087
000150 0d e0 98 bd 93 d6 c6 3e 57 b6 4b 3e bb 52 fb 3c
       -0.07464609 0.38835582 0.19893776 0.030679097
000160 1d c4 11 3e e7 bd 24 3e 9f 82 a3 bd 93 42 2b be
       0.14234968 0.16088067 -0.07983898 -0.16724615
000170 7f eb 18 3e 1d c9 da bd 9f fa 91 be 5e 42 41 3e
       0.14933585 -0.106828906 -0.2851152 0.18872973
000180 95 9c 5a 3d d2 08 8f 3e f8 6c 33 be c7 d5 28 be
       0.053371985 0.27936417 -0.17522037 -0.164878
000190 2e 26 fa 3c f2 18 08 3e 79 15 53 3e eb 33 da 3c
       0.030535784 0.13290766 0.2061366 0.026636085
0001a0 a1 62 6c 3e b6 ac 14 bb 7e 8c 95 bd ea aa e1 3c
       0.23084499 -0.0022685952 -0.073021874 0.027547318
0001b0 82 9e c1 3d d6 9f f6 3d 3a 6f c6 3d d7 6d 21 3d
       0.09454061 0.12042205 0.096891835 0.039411392
0001c0 39 6a e7 bd 63 7f f1 3d 11 d6 bc bd a5 9f 8c b8
       -0.11299557 0.11791875 -0.092205174 -6.705456e-05
0001d0 62 b6 16 3e f8 93 b6 bc 84 24 72 3e 18 a6 ad 3d
       0.14718011 -0.022287354 0.23646742 0.084789455
0001e0 e3 a6 17 3a d9 ce a5 bd 02 01 73 be 8a e9 8e 3e
       0.0005785061 -0.08096094 -0.23730853 0.2791255
0001f0 25 ca a4 bd 50 9e 80 3e f9 7f ba 3d e7 62 98 3e
       -0.080463685 0.25120783 0.0910644 0.29762957
000200 8d a4 7e bd e9 b5 17 bd 8f c9 70 3e fa 1e c5 3e
       -0.062168647 -0.037038717 0.23514389 0.38500196
000210 a7 c0 7e 3e a3 3c 16 be cf 51 b3 3d f1 55 a6 3e
       0.24878179 -0.14671569 0.08755838 0.32487443
000220 64 48 a6 3d f2 19 93 3d a8 08 8b 3d 7b 0b 26 3e
       0.08119276 0.07182683 0.067887604 0.16215317
000230 a4 ed 24 3d 18 ee 5e bd 92 6d 96 3d 9e 8a 4b be
       0.040265694 -0.054426283 0.07345118 -0.19877097
000240 0d e6 87 3e 89 76 93 3d c6 81 88 3d b9 74 b8 bc
       0.26542702 0.07200343 0.06665377 -0.022516595
000250 33 03 6b 3e db 9f 3f 3d 0d 2e 19 3d 59 90 5f 3e
       0.22950439 0.04678331 0.037397433 0.21832408
000260 1a 4e ca 3e 91 6e 93 3e 1d a8 4a 3e 5a f9 57 be
       0.39512712 0.28795293 0.19790693 -0.21091214
000270 6b 25 a7 3c 9a d1 19 be d6 69 fc 3d ff 98 30 3f
       0.020403584 -0.15021363 0.12324874 0.68983454
000280 1a c2 4f 3e 98 c0 4c be d7 8c ca bc a7 c4 9b be
       0.20288888 -0.19995344 -0.02472536 -0.3042347
000290 24 52 b4 bc 8d 95 4e 3e f9 d1 c5 3e 32 c0 65 3e
       -0.022011824 0.20174237 0.3863676 0.22436598
0002a0 25 e6 91 3e a4 ba 76 3c 1c 98 bd be 25 53 0b 3c
       0.284959 0.015059147 -0.37030113 0.00850371
0002b0 7b 30 3e 3e 1f c4 a4 bd 21 87 d0 3d 04 e9 e0 3d
       0.18573181 -0.0804522 0.10182024 0.10981944
0002c0 7c e8 96 3d 16 f1 d8 3d bf a5 8e bd 66 d6 99 3e
       0.073685616 0.105928585 -0.06965207 0.30046386
0002d0 e0 dd 5b 3d a2 d2 00 3e a0 8f 6f 3b 5f 2e 4c bd
       0.053678393 0.1258035 0.0036554113 -0.04984891
0002e0 44 f0 46 bc 07 fa fa bd 25 5a bf 3d ec 3d 8e be
       -0.012142245 -0.1225472 0.093433656 -0.27781618
0002f0 20 e4 d7 3d f2 c6 5c 3d 11 f3 b5 bc fa 77 04 bd
       0.10541558 0.053900667 -0.02221063 -0.03234098
000300 e7 98 13 bd f5 68 83 3e da c8 49 3f 51 60 b1 3d
       -0.03603449 0.25666013 0.788221 0.08660949
000310 16 ca 85 3e 16 d4 ed bd 79 8c 18 bd 48 e0 02 3e
       0.26130742 -0.11612718 -0.03724334 0.12780869
000320 74 97 0d bd 57 f5 83 be 10 0d 0f 3e 03 ba 40 be
       -0.034568265 -0.25773117 0.13969827 -0.18820958
000330 ea e6 01 bd 0c 41 44 3e 45 dc 6c 3e 6d 18 8f 3e
       -0.031714357 0.19165438 0.23130901 0.27948323
000340 48 f9 47 3e 36 65 ad 3e fa 1c 9d 3e a3 6a ab 3d
       0.19528687 0.3386628 0.3068617 0.08369949
000350 31 da 1b 3d e6 ab 43 3e 18 87 7f 3e 67 1a ef 3d
       0.03804988 0.19108543 0.24953878 0.11674958
000360 19 14 33 3e 92 6c 90 3e 83 9b de 3c 81 11 e9 bc
       0.17488135 0.28207833 0.027173763 -0.02845073
000370 62 d1 4c bd 2e fe 4a 3d ba 58 50 3e ca 07 96 3d
       -0.05000437 0.04955881 0.20346346 0.073257044
000380 bb 7a ba 3e ac 10 1a be d5 e0 43 bd 7a d6 d1 3e
       0.3642176 -0.15045422 -0.04782184 0.40983945
000390 90 c6 49 3e 56 f9 02 3e 42 40 d6 3d 16 3b a5 3e
       0.19704652 0.12790427 0.10461475 0.32271641
0003a0 6a c0 4e be 52 29 f9 3d 1c b2 8b 3c 2c 59 20 3e
       -0.20190588 0.12166084 0.017052703 0.15659016
0003b0 28 08 01 be 58 6d 8a bc 68 0a 60 3e d8 c4 9a 3e
       -0.12600768 -0.016897842 0.2187897 0.30228305
0003c0 1a af ff bc 77 0c 36 3d 95 58 a7 3d 8e 02 bb 3d
       -0.031211425 0.04444548 0.081711926 0.09131347
0003d0 39 4c 39 3e 6a df e8 bd 22 63 3e 3d 38 da a4 bd
       0.18095483 -0.11370738 0.04648126 -0.080494344
0003e0 b0 8d af bd 4f 7a 0c 3e 55 e4 5f 3d 58 a7 99 3d
       -0.085719466 0.13718532 0.054661114 0.075026214
0003f0 ee eb 4d 3e 05 c1 5b 3e ab 41 b7 3e 7d b7 8b 3d
       0.20109531 0.2146035 0.35792288 0.06822107

lstm.weight_hh_l0 f4 [192, 48]
000000 1d c4 c6 be f9 5f 74 be f4 51 c3 bd 6b 83 76 be
       -0.38821498 -0.23864736 -0.09537116 -0.2407357
000010 37 63 44 3e fe 5a 7d 3c 0f e7 dd bd 69 4b 13 3b
       0.19178472 0.015463589 -0.108350866 0.0022475368
000020 f3 49 ab 3d 1b 2a d1 3d f0 b4 af be 28 0f 29 3f
       0.08363714 0.10213109 -0.34317732 0.6603875
000030 32 21 b2 bd d2 58 e0 3e 58 11 d8 bd 5e fb a5 bd
       -0.08697738 0.43817765 -0.10550183 -0.08104585
000040 08 db 9d 3e 10 c1 5c be 87 94 f1 3d fa 5c 8d 3d
       0.3083117 -0.21558022 0.117959075 0.069024995
000050 c2 05 01 bc 5e 19 9f bd e9 c0 d1 3d d6 7b 92 bc
       -0.007874908 -0.0776851 0.10241873 -0.017881315
000060 be 90 44 be 0a 9d ca bc d0 04 81 3e 5f 47 c2 3d
       -0.1919584 -0.024733085 0.25198984 0.09486269
000070 c7 2a b3 be ec ba 8a 3e 7f df 7e 3e 5d ae df bd
       -0.34993574 0.27095735 0.24889944 -0.10921929
000080 dd 8c 54 3e 9a f7 fc 3d 8b 57 35 be e0 95 83 be
       0.2075686 0.12351914 -0.17709176 -0.25700283
000090 68 8f 9e 3d 79 6a 4c be cc f2 ca 3e 68 31 93 3e
       0.07742196 -0.19962491 0.39638364 0.2874863
0000a0 39 88 92 be f2 b7 3a be f5 81 32 3f 61 be a8 be
       -0.28619555 -0.18234232 0.6972955 -0.32957748
0000b0 be 6f 31 bf d9 c9 f5 3e ec 9a ee bd ed 01 7c be
       -0.6931113 0.4800556 -0.11650643 -0.2461011
0000c0 66 cf 7b be 75 83 1f be d2 f4 a5 3e d6 48 27 be
       -0.24590835 -0.1557749 0.32413346 -0.16336378
0000d0 99 6b 9e 3e 03 44 87 bd 16 80 5d bd b3 ca 00 be
       0.30941465 -0.06604769 -0.05407723 -0.12577324
0000e0 88 ca a8 3e 5a 2a 13 be 3e 61 f0 be 6e cb 53 3e
       0.3296702 -0.14371625 -0.4694919 0.20683071
0000f0 dc c8 7d 3d 40 bc ab 3d b4 1e 55 be 4b 12 5d 3e
       0.061959133 0.08385515 -0.20812494 0.2158901
000100 e1 4d f6 3d 82 fd 9e bd fd 05 20 bc 42 af 32 be
       0.12026573 -0.077631965 -0.009767053 -0.17449668
000110 54 cf 9a be 87 b6 35 3e 03 b2 93 3e f7 e4 e0 3d
       -0.30236304 0.1774541 0.2884675 0.109811716
000120 3e 1d af 3d 77 03 f6 3d 6f 1e 27 3e 90 10 f9 3c
       0.085504994 0.120123796 0.16320203 0.030403405
000130 a5 54 a9 3d e5 7c c5 be 43 c1 23 be 11 56 3d 3d
       0.08268098 -0.3857185 -0.15991692 0.046224657
000140 fd 1b 3b 3e 33 e4 4c be 07 9b 7d bd 75 34 3e be
       0.18272395 -0.20008926 -0.061915424 -0.18574698
000150 8f 90 ae be a1 dd 9c be 7c 01 e0 3e 56 9e 80 3d
       -0.34094664 -0.3063784 0.43751132 0.062802
000160 2e b3 84 be 51 01 e5 3d 36 0c 51 bc f6 16 f0 be
       -0.25917953 0.11181892 -0.012759259 -0.46892518
000170 a6 cb a2 be 3a e7 9d 3e 96 9a 0e 3e 38 d2 88 3c
       -0.31795996 0.30840474 0.13926157 0.016701803
000180 e6 4d 7f bd 2d 33 83 be 59 72 d2 3e 5b 2e 00 3c
       -0.06233015 -0.25624982 0.41102865 0.007823552
000190 02 c7 4b 3e cc e2 b1 3d ff f6 1a be d8 9e 24 be
       0.19900134 0.08685836 -0.15133284 -0.16076219
0001a0 9f 04 fc 3d 1a 0d 71 be db 47 84 be 03 a6 90 3e
       0.12305569 -0.23540154 -0.2583607 0.28251657
0001b0 b6 9b b6 bd b3 a7 11 3e 9e 21 9a be 93 9c 3e 3e
       -0.08916418 0.14224128 -0.30103773 0.18614416
0001c0 c2 43 55 3e 39 9f 11 3d c3 f0 9c bd 77 f9 3b 3c
       0.20826629 0.035552237 -0.07663109 0.011473051
0001d0 6b 73 b8 3d ca ab 26 3e 56 26 74 3e ff 98 48 3e
       0.09006389 0.1627647 0.23842749 0.19589613
0001e0 f8 27 36 bd 35 ae 4e 3e 23 cd 9f bd e3 ca f0 3d
       -0.04447171 0.20183642 -0.078027986 0.117574476
0001f0 a4 a5 a0 3d e2 a3 f0 3d 59 57 fb bd 15 3f fa 3d
       0.078440934 0.11750008 -0.122725196 0.12219063
000200 91 2e 60 3d 23 fc d2 3d 7e 92 64 3d c3 e1 b7 bd
       0.05473191 0.103019975 0.05580377 -0.089786075
000210 5a a7 93 bd 1e be c1 be a4 86 49 3e 38 4d 63 3e
       -0.07209654 -0.3784036 0.19680268 0.22197425
000220 83 36 69 be b8 8b f6 3d 18 17 d2 bd 4d 58 97 be
       -0.22774701 0.12038368 -0.10258311 -0.29559556
000230 8d 92 ae 3c cd fc e7 3d a5 85 20 be cf 2e 4e bd
       0.021310115 0.11327515 -0.15675981 -0.05033761
000240 a8 4d 04 bf 6e 59 3f bd c5 af b6 3e a5 26 aa be
       -0.51680994 -0.046716146 0.35680977 -0.33232608
000250 59 40 ac 3e 24 a6 d3 3e 7f 6a 20 be 08 8d ba be
       0.33642843 0.41337693 -0.15665625 -0.36435723
000260 77 60 f4 3d 02 16 89 be d9 18 d9 bd 5d 4c 0d 3f
       0.11932462 -0.26774603 -0.106004424 0.55194646
000270 92 75 8a be f2 06 ac 3e d8 02 7a be 0a f7 c2 3e
       -0.27042824 0.3359905 -0.24415147 0.380791
000280 b3 0b b5 3e 5f c8 50 bd e1 f4 2c be 34 79 9d bc
       0.35360488 -0.05097234 -0.16890289 -0.019222833
000290 52 aa ab be 1e 6c 94 3e 0b b3 92 3e 4f 70 6c 3e
       -0.33528382 0.28988737 0.28652224 0.23089717
0002a0 7e 50 7a be 1c 17 28 3e 12 f2 d4 3e 2d 63 06 be
       -0.24444768 0.16415066 0.41590935 -0.1312377
0002b0 b8 cc 6b be 64 b9 87 be 8c eb 16 3e f8 32 f2 3e
       -0.23027313 -0.2650863 0.14738292 0.4730451
0002c0 f8 7f 60 3e a5 b6 ec bd e3 21 a9 bc 49 87 d8 3d
       0.21923816 -0.11558274 -0.020646041 0.105726786
0002d0 6c 2a 95 be 21 62 da be e6 a5 a5 3e 84 28 d7 3e
       -0.29133928 -0.4265299 0.32353133 0.42023098
0002e0 6c 99 ca be 06 09 80 be 27 5d fd 3e e5 61 96 bd
       -0.39570177 -0.25006884 0.49485132 -0.07342891
0002f0 77 f1 9d be 59 27 56 3f 5d 09 a3 3d c7 95 19 bd
       -0.30848286 0.8365379 0.0796077 -0.037496354
000300 f6 d2 d3 be b7 69 b4 be af 47 74 3e 68 7a 96 be
       -0.41371888 -0.35236904 0.2385547 -0.29390264
000310 9f 70 96 3e a7 85 d0 3d dd 3b ab be cc 6f 8a bd
       0.29382798 0.10181742 -0.3344411 -0.06759605
000320 dd 48 96 3e 4f 67 0d 3e bb 20 54 be 2a dd c4 3e
       0.29352465 0.1380894 -0.2071561 0.38449985
000330 de 88 d3 bd 87 f8 29 3f b4 36 8d be c7 1c 75 3d
       -0.1032884 0.6639485 -0.27580798 0.059841897
000340 a2 24 0d 3f b9 53 45 be b7 35 2b be 22 39 1c 3e
       0.5513402 -0.19270219 -0.1671971 0.1525617
000350 b4 74 66 be 29 b0 3d 3e 88 1b 8a 3e f9 26 01 3d
       -0.22505456 0.18524231 0.2697413 0.031531308
000360 26 bd a3 be b6 47 33 bd dd a0 6c 3e ed ed 97 3e
       -0.31980246 -0.04376956 0.2310824 0.2967371
000370 a8 a7 89 be d2 4f 97 bc f7 1e 8f bd 0e 9b d8 3d
       -0.26885724 -0.018470678 -0.06988328 0.10576449
000380 b8 60 98 3e 79 70 f8 bd 82 5b b0 bd 4f f3 02 bf
       0.2976129 -0.121308275 -0.08611204 -0.5115251
000390 fc dc c6 be 17 2e 08 bf d7 e9 75 3e dd 93 9b 3e
       -0.38840473 -0.5319533 0.24014984 0.30386248
0003a0 ef f9 9e be 5c 00 d9 bd 4e b9 28 3f 56 2c b0 be
       -0.3105006 -0.10595772 0.6590775 -0.34408826
0003b0 85 48 46 bf dd 3b 10 3f 11 5e 86 3d 92 81 22 be
       -0.77454406 0.56341344 0.065609105 -0.1586974
0003c0 d1 cf 6c be ba 80 53 bd 36 8e 32 bd 66 a0 cc be
       -0.2312615 -0.051636435 -0.043592654 -0.39966124
0003d0 7e 45 44 3e 47 8b 28 be 46 6c 98 bd 72 e7 4a be
       0.19167134 -0.1645938 -0.074425265 -0.19814852
0003e0 2a eb 4d 3e f6 17 49 bd 22 04 31 3d c2 2d b6 3e
       0.20109239 -0.049095117 0.043216832 0.35581785
0003f0 e1 6e d9 bb 52 dd e0 3d 1d 5d 59 be 68 4f 18 3e
       -0.0066355322 0.109797135 -0.21226926 0.14874041

lstm.bias_ih_l0 f4 [192]
000000 00 40 a1 3d da 12 34 3e 26 8f 77 3e 93 7e e6 3e
       0.07873535 0.17585316 0.241757 0.45018443
000010 ac 1d 2c 3e 8d 54 b0 3d 13 52 ec 3d 2e 64 9e 3e
       0.16808194 0.08609877 0.11539092 0.30935806
000020 09 b6 86 3e 6e 2a b1 3e 0c 2d 8d 3c 00 8e 76 3d
       0.26310757 0.34602684 0.017233394 0.060194016
000030 51 c9 1d 3e 47 7b 88 3e ec 2c 7b 3e 48 e9 31 3e
       0.15408827 0.26656553 0.24528855 0.17374146
000040 1e 91 30 3d 17 fb 4d 3e 37 6f e0 3e 74 91 e9 3d
       0.043107145 0.20115314 0.4383485 0.11404696
000050 ab 85 8c 3e 71 1b 0e 3e 8f 93 13 3e f3 67 c2 bb
       0.2744573 0.13877656 0.14411758 -0.005932802
000060 58 b6 74 3e 96 79 30 3e d5 99 d2 bd 91 0e 49 3e
       0.23897684 0.17233881 -0.102832474 0.19634463
000070 c4 5b ef 3c e7 93 aa 3e 66 05 52 3e 50 d4 2d bd
       0.029218562 0.33315966 0.20509872 -0.042438805
000080 c4 a5 72 3e 12 91 1e 3e dd 19 92 3d 4a b0 6b 3d
       0.23696047 0.15485027 0.07133839 0.05754117
000090 7f 7a e7 3d 15 76 93 3d 63 4b eb bc 4b 03 b5 3c
       0.11302661 0.07200257 -0.02872247 0.022096297
0000a0 1b a7 58 3d f5 32 b2 3d 87 b6 44 3e 51 64 92 3d
       0.05289374 0.087011255 0.19210254 0.0714804
0000b0 31 84 db 3d 3a 9d 8a bd bd 1a e2 3d 82 8a ee 3d
       0.10718573 -0.0676827 0.11040256 0.11647512
0000c0 46 6f af 3d c7 65 86 39 e2 b1 c5 bd 44 a0 c2 3d
       0.085661456 0.00025634302 -0.09653069 0.095032245
0000d0 94 dd 0e 3e 65 35 09 3d 93 39 82 3b 6c fd 95 3e
       0.13951713 0.033498187 0.0039741485 0.29294908
0000e0 02 53 1a 3e 6b 73 4d 3d e5 a3 50 3e ae 76 97 bd
       0.15070727 0.0501589 0.20375021 -0.07395683
0000f0 f1 49 6f 3e 98 23 32 bd 6b c9 f9 3d 96 ca ce 3d
       0.2336805 -0.043490976 0.121966206 0.10097234
000100 e1 d6 12 3d 5c dc 75 bd c8 74 b1 3d b6 8c 4d bd
       0.035849456 -0.060024604 0.086648524 -0.05018302
000110 88 22 56 3e 29 e4 85 bb 73 ad 9a bc 4c da 3c 3d
       0.2091161 -0.0040860367 -0.018881535 0.04610662
000120 e1 a6 8f bd da 0c 37 bc f3 11 ef bc 7b 8e f8 3d
       -0.070142515 -0.011172498 -0.029183364 0.12136551
000130 b1 47 35 be ba 30 29 3b ba 4e 9a 3e 8e 27 68 3c
       -0.1770313 0.0025816397 0.3013819 0.014169587
000140 47 29 1c bb d0 eb 42 bd f6 1c 3d 3e cd 62 be 3d
       -0.0023828314 -0.04758817 0.18468079 0.092961885
000150 d2 64 15 3e af e6 5b bd a0 bf e4 3d 73 1d 0b 3e
       0.14589241 -0.053686794 0.11169362 0.13585453
000160 90 d8 ec bd e9 64 9b bd 45 c4 06 bd 8a a2 a2 3e
       -0.115647435 -0.075876065 -0.03290202 0.31764632
000170 df b2 bb 3c 3d 26 21 3e 6e 42 b6 3d 62 00 1c 3d
       0.02291244 0.15737243 0.08899389 0.038086303
000180 61 d8 59 3c 98 49 ae 3a 7a a2 02 3e 4d 7f 24 3e
       0.013296218 0.0013297079 0.12757292 0.16064186
000190 69 d4 34 bd 83 e9 2c 3c 62 ae 94 3d 9f 8e ab be
       -0.044147883 0.01055372 0.072598234 -0.3350725
0001a0 a5 6c 84 bc 6e 6a 0d be 7d ac f7 3d aa 90 60 3d
       -0.016165087 -0.13810131 0.120934464 0.054825462
0001b0 02 7c 01 be c4 b2 25 be 3c 93 23 be 22 08 c0 39
       -0.12644961 -0.16181475 -0.15974134 0.00036627153
0001c0 e6 a4 ee ba 95 cb 6d 3c 0a e9 db bc 63 50 e6 3d
       -0.0018207103 0.01451387 -0.02684452 0.11245801
0001d0 c0 8f fb 3d c5 3e 49 3d 31 21 16 3e 36 a3 19 3e
       0.122832775 0.049132127 0.14661099 0.15003666
0001e0 63 34 55 3d 75 0c 71 3b af 2f 70 bd 0b e4 18 bd
       0.052051913 0.0036781107 -0.058639225 -0.037326854
0001f0 b3 5c 15 bd e7 f0 c8 bd 85 15 1c 3e 3d 15 2f 3e
       -0.036465358 -0.098115735 0.15242584 0.17097946
000200 09 c6 ed bd 63 4e 6e bd a5 db a4 3d f0 09 8c 3c
       -0.11610038 -0.058180224 0.08049706 0.017094582
000210 eb d7 5e 3c 6a 5b 7c bd 5f bc 05 be 36 67 6d bd
       0.013601284 -0.061610617 -0.13060139 -0.057959758
000220 3a 67 38 bd f7 12 b2 3d a0 8c 09 be 2e fc b2 3d
       -0.04502032 0.086950235 -0.1343255 0.08739506
000230 3a 25 36 3e 6b 27 1b bd a3 fd 47 bd d9 6e 63 bc
       0.17787638 -0.03787939 -0.04882587 -0.013881409
000240 38 a2 3b 3e f4 d7 00 3e ab 14 85 3d f2 ef 0d 3f
       0.183236 0.1258238 0.06498083 0.5544425
000250 44 8b bc 3e 79 6a a1 3e d8 2c 4c 3e aa 02 cf 3d
       0.36825 0.31526545 0.19938982 0.1010793
000260 86 61 21 3e c6 fb 82 3e aa 00 23 3f 9e dd 3b 3c
       0.15759858 0.25582713 0.6367289 0.011466412
000270 e7 87 79 3d a5 fd 1f 3e fd 02 a4 3d 66 12 3c 3d
       0.060920622 0.15624101 0.080083825 0.045915984
000280 09 d8 9c 3d af 55 d6 3d 5e 7e 34 3e c5 eb 6e 3d
       0.07658393 0.104655616 0.1762633 0.058330316
000290 3d b5 02 3e 4b c8 b7 3d 73 82 ba 3d 1a 24 09 3e
       0.1276445 0.0897375 0.091069125 0.13392678
0002a0 ed 25 b6 3e a4 6f aa 3e 09 63 ec 3d 63 aa 5a 3e
       0.3557581 0.332883 0.11542327 0.2135406
0002b0 ee 35 c5 3d aa e9 9d 3d a7 10 66 3e ef 6f c9 3c
       0.09629427 0.077105835 0.2246729 0.024589507
0002c0 c0 0f b0 3c 11 51 50 3e 06 c9 62 3e 2a 2e 4e 3d
       0.021491885 0.20343424 0.22146997 0.050336994
0002d0 81 5d 96 3d b4 20 42 bc 56 da c7 3d 59 50 21 3e
       0.07342053 -0.011848617 0.09758441 0.15753306
0002e0 9f c7 0b 3e 20 dc 90 3e 92 13 36 3f 96 b4 fb 3e
       0.13650368 0.28292942 0.7112361 0.49161214
0002f0 43 8e c7 3e 19 5a 02 3e 91 b8 71 3e 2e 23 88 3e
       0.38975725 0.12729682 0.23605563 0.2658934

lstm.bias_hh_l0 f4 [192]
000000 1f 27 e9 3d de 67 fb 3d 00 19 3a 3e be 6d 02 3f
       0.11384415 0.122756705 0.18173599 0.50948703
000010 07 28 6b 3e 64 a2 07 3e c1 a8 7c 3e 9f 02 53 3e
       0.22964488 0.13245541 0.2467375 0.20606469
000020 44 36 09 3e 4b d9 a5 3e 75 f7 5a 3e 98 78 13 3e
       0.13399607 0.32392344 0.2138346 0.14401472
000030 c5 e5 dc 3c ca 23 b6 3e cf 8a 17 3e 39 51 c7 3d
       0.026965031 0.3557418 0.14799045 0.09732289
000040 46 81 1e 3e 7e e0 30 3e 39 06 87 3e 5a f6 75 3d
       0.15479001 0.17273137 0.26371935 0.060049392
000050 2b 19 35 3d ba 62 8b 3e 38 a6 6e 3e e2 fb 98 3d
       0.044213455 0.2722376 0.23305595 0.07469918
000060 ac eb ca 3d 6a b6 16 3e 10 8b db bd 7f 83 88 3d
       0.09908232 0.14718023 -0.107198834 0.06665706
000070 d2 1c 30 3e 21 df 80 3e 54 3e c3 3e 99 65 a0 3d
       0.17198494 0.25170234 0.3813349 0.07831878
000080 d9 39 75 3d c0 2b ee 3d b8 d9 a0 3e 08 0a 00 bd
       0.05986962 0.116294384 0.31416106 -0.031259567
000090 43 16 b3 3d e4 9c df bc 18 32 e7 bc 06 80 b2 3d
       0.087444805 -0.027296491 -0.028222129 0.08715825
0000a0 70 ca e5 3d 57 a6 31 3e 3c 2d 72 3e c7 7f 31 3c
       0.112202525 0.1734861 0.23650068 0.010833687
0000b0 7a 6c 40 3d 65 b2 98 bd 13 f9 5d 3d 2c a8 95 3c
       0.04697845 -0.07455901 0.054192614 0.018268667
0000c0 c9 a1 d7 bd bb ac 7a 3c a7 37 02 3e d1 e0 21 be
       -0.10528905 0.015299971 0.12716542 -0.15808417
0000d0 a2 30 1d 3d 2d 26 1e bd 41 7b bf 3c 18 80 26 3e
       0.038376458 -0.038610626 0.023374202 0.16259801
0000e0 78 2a 05 3e 8d 7b af 3c 99 93 79 3e 8c 91 54 bc
       0.13004482 0.021421218 0.2437271 -0.012974154
0000f0 09 6a b7 3d 03 cc 25 3c c8 1d 62 3e 49 aa 5d 3e
       0.089557715 0.010119441 0.22081673 0.2164699
000100 64 61 f3 3c 06 e8 2f bc 04 6e 86 3d 27 37 06 3e
       0.029709525 -0.010736471 0.065639526 0.13106976
000110 cf 11 c6 3d 5d 95 9f bd 73 18 48 3e d1 35 0a bd
       0.096713655 -0.07792161 0.19540577 -0.03374273
000120 44 39 38 3d 98 f6 73 bd 19 3d 3b 3c 97 e5 a2 bd
       0.044976488 -0.059561342 0.011428141 -0.07953947
000130 6d 22 a1 bd b9 8d c2 3c 6c 6b 61 3e 70 95 1d 3c
       -0.07867894 0.02374922 0.22013634 0.009618148
000140 53 72 4b 3e 11 3b 0a 3b 44 2e 02 3e 47 22 09 3e
       0.1986783 0.0021092335 0.12712961 0.13391982
000150 8d 83 d9 3d 66 0a 81 bd d0 50 a5 bb 8c b9 0f be
       0.106207944 -0.063008115 -0.005045034 -0.14035624
000160 94 bd 87 3c a1 64 f8 bd 84 1c 8e 3d 5e 85 7c 3d
       0.01656989 -0.121285684 0.06939033 0.061650626
000170 88 55 16 3e 6b 2d f0 3d 9b 29 2a 3e 57 95 44 bd
       0.14681065 0.11727413 0.16617434 -0.047993984
000180 e2 c6 ce bb 40 5b 17 3d 01 8a 17 3d eb c8 95 3d
       -0.00631033 0.036952257 0.036996845 0.07313713
000190 51 d2 f7 3d 16 ad 0c bd b0 ad 0e be d8 3b 62 be
       0.121006615 -0.034344755 -0.13933444 -0.22093141
0001a0 3d bc 0f 3e 9b b4 16 be 36 47 22 3e 9f a7 5b 3d
       0.14036651 -0.14717333 0.15847477 0.053626653
0001b0 f5 3d 04 be c7 7d 0b be 3e b9 01 bd cf 34 86 3e
       -0.1291426 -0.13622199 -0.0316708 0.26212165
0001c0 a7 19 07 be 69 b6 cc 3d 1e 1e f7 bd 3d 71 f0 bd
       -0.1319338 0.099957295 -0.12066291 -0.117403485
0001d0 33 80 eb 3d 0e 61 3c 3d 64 93 f7 bd 25 7d a4 3d
       0.114990614 0.045990996 -0.120886594 0.08031682
0001e0 03 ff ab 3d 72 d4 ab 3d 03 83 6f 3d 55 53 9c 3d
       0.08398249 0.0839013 0.058474552 0.07633082
0001f0 80 d1 87 3c a3 25 0e be ee 63 fa 3d 07 2e 3d 3e
       0.01657939 -0.13881545 0.12226091 0.1847459
000200 89 d4 a8 3d 84 af bd 3c 29 f7 84 3d bc 2f 35 3e
       0.08243663 0.023154981 0.064924546 0.1769399
000210 97 58 ec bd ca 28 d1 bd ff f8 86 bd 5a 85 b4 3d
       -0.11540335 -0.10212858 -0.06590461 0.08814497
000220 f6 fc 96 bb 17 4b 8a 3d 9a ba 11 be 7c 11 cf 3d
       -0.004607792 0.067526035 -0.14231339 0.10110757
000230 13 97 ec 3d 4d 24 1b bd 46 60 8e bd 37 75 f6 3d
       0.115522526 -0.037876416 -0.069519565 0.12034076
000240 f1 e4 33 3e bc 03 aa 3c d2 b2 81 3d c4 9d e5 3e
       0.17567803 0.020753734 0.063329354 0.44846928
000250 3e 9c a0 3e de ce bd 3d b3 63 65 3e d6 76 92 3e
       0.31369203 0.092679724 0.22401313 0.2860629
000260 8f c4 06 3e 8a 1e 99 3e 06 b0 21 3f b7 58 15 3e
       0.13160919 0.29906112 0.63159215 0.14584623
000270 69 79 71 3e f1 f9 6d 3e f1 53 3a 3e 15 4e 8b 3d
       0.2358147 0.23239876 0.18196084 0.06802002
000280 27 85 8b 3d 0a 68 3e 3e 39 35 85 3e 81 cc e4 ba
       0.06812506 0.18594375 0.26017168 -0.0017455966
000290 24 18 19 bd c7 0e d0 3d dc 16 39 3e db 1a 26 3d
       -0.037376538 0.101590686 0.18075126 0.040552955
0002a0 ea b1 b5 3e 15 84 d1 3d 72 d0 94 3e 40 71 7e 3d
       0.354873 0.10230271 0.2906528 0.062119722
0002b0 63 77 b1 3e 1b 96 82 3e 63 c8 24 ba f8 fa be 3d
       0.34661397 0.25505146 -0.00062859635 0.09325212
0002c0 44 25 f2 3c ff d1 23 3e 3a 31 64 3e 81 cc 3a bd
       0.029558785 0.15998076 0.22284403 -0.045605186
0002d0 d7 16 06 3e 36 63 27 3e 55 f6 7e 3e a5 94 f3 3d
       0.1309465 0.1634644 0.24898656 0.11893586
0002e0 c9 02 03 3e d6 42 a4 3e 8a f1 2e 3f 40 54 dc 3e
       0.12794031 0.32082242 0.6833731 0.43033028
0002f0 61 c3 81 3e 6d 3a 7d 3e 8f 2e 6a 3e f5 51 a8 3e
       0.25344375 0.24729319 0.22869323 0.32875028

mlp.0.weight f4 [256, 54]
000000 59 1d e7 bd da 8d 44 bc bc c2 81 3e a7 df 21 bd
       -0.112848945 -0.011996711 0.25343883 -0.039519932
000010 4f a8 8e 3d 2e 4f c9 bd 48 32 7a bd 89 6c 2b 3e
       0.06965696 -0.098295555 -0.06108311 0.16740622
000020 c7 d0 1a 3d e6 c6 38 3e 9d 72 7e 3e e3 45 79 3d
       0.03779676 0.18044624 0.24848409 0.060857665
000030 b1 ea 5e be 84 61 95 3d d6 a8 13 be b2 d3 1d be
       -0.21769215 0.0729399 -0.14419875 -0.15412787
000040 10 6d 76 3c a4 13 a4 3d fb 35 44 be 51 cf 2d bd
       0.015040651 0.08011559 -0.19161217 -0.04243404
000050 a4 f5 36 be 77 26 e7 bd 3e 2f d9 3d cb af ff bd
       -0.17867142 -0.112866335 0.10604714 -0.12484702
000060 59 8f 49 3d c2 54 06 3d 08 37 ab 3c 51 18 c9 bb
       0.049208973 0.032795675 0.020900264 -0.006136932
000070 b4 c5 64 3e 40 f4 b7 3d 1d 52 66 be fa 74 da be
       0.22341043 0.08982134 -0.22492261 -0.4266737
000080 4d bd d9 3d 59 39 af 3c ac 89 dd bd 28 4f 99 be
       0.106318094 0.02138965 -0.108172745 -0.29943204
000090 e4 1a 8c 3e 8c b2 9f 3d af eb 8d 3e fb 3d e1 3d
       0.27364266 0.07797727 0.27718875 0.1099815
0000a0 9e ac 4f bd 68 d3 a9 3e 12 e3 0e be 4c ad c2 bc
       -0.05070173 0.33169103 -0.13953808 -0.023764275
0000b0 9e c5 0d bd 5c 4d 37 3d 04 9f 33 3d b4 1b 6f be
       -0.03461229 0.04475151 0.04385282 -0.23350412
0000c0 cb 40 86 bd 2a e9 09 3c 11 bc dd 3d 7e 94 cb 3d
       -0.06555327 0.008417407 0.108268864 0.09940432
0000d0 67 1c 0e be 34 5c 0b be 36 eb 55 3d fc c5 8c 3d
       -0.13878022 -0.13609391 0.052226268 0.068737
0000e0 b1 6e 01 3e f3 02 bf 3d 6f 59 91 3a e1 67 c7 bb
       0.12639882 0.093267344 0.0011089275 -0.0060853814
0000f0 28 93 87 bd f4 35 dc bc de 7b f5 3d 2c 49 78 be
       -0.06619865 -0.026881196 0.119865164 -0.24246663
000100 77 2b a7 3d d4 c3 65 3d 34 2c 1c 3b 14 ef 08 bd
       0.08162587 0.05609496 0.0023830058 -0.033431128
000110 e2 0f 55 bc f2 32 57 3e d7 82 94 bd fe 91 04 3e
       -0.013004275 0.21015528 -0.07251518 0.12946317
000120 be 80 7a 3d ef 13 13 3e 68 be ae 3d dd 60 36 be
       0.061157934 0.14363073 0.08532411 -0.17810388
000130 73 1b 6b 3d c3 74 b4 bd 75 3b 8a bd 04 0d 07 3d
       0.057399224 -0.08811333 -0.06749622 0.032971397
000140 70 12 0e bc 81 88 32 3e 29 1b d8 ba 55 44 22 bd
       -0.008671388 0.17434885 -0.0016487587 -0.039615948
000150 b0 66 61 bd 3c 8a 0d 3b 61 a3 6d 3d 80 0d 04 3e
       -0.05502957 0.0021597287 0.05801714 0.12895775
000160 3f c5 42 bd 69 67 05 3d bf a9 2c bd ee 58 e3 bd
       -0.04755139 0.032569323 -0.04215407 -0.11100946
000170 43 ca 3b 3e 7e 58 b5 bc fa c6 5f bd df cf 30 bd
       0.18338875 -0.022136923 -0.05463312 -0.04316699
000180 36 36 e7 3d 7a b7 ed bd 3a a4 84 3e e6 6a 56 3e
       0.11289637 -0.11607261 0.25906545 0.20939216
000190 9a d5 35 be cb e3 f6 bc a0 29 43 3e f4 ce 3f be
       -0.17757264 -0.030137917 0.19058847 -0.1873129
0001a0 20 df 8b be 58 3a 5b 3e af e1 8a 3d b5 e3 0a 3e
       -0.27318668 0.21408975 0.06781327 0.13563426
0001b0 5a 55 46 3d b4 4f 70 3d 83 4e 25 bd 7d ab 81 3d
       0.04842124 0.05866976 -0.040358078 0.06331537
0001c0 33 56 da bc 99 04 8d 3d 34 79 86 bc 81 67 9c 3c
       -0.026652431 0.068856426 -0.016415216 0.019092323
0001d0 f6 b8 c8 bc 5d 11 19 be 5a 64 56 be 0b 2b 9d 3e
       -0.024502259 -0.1494803 -0.20936719 0.30696902
0001e0 49 cd 9a bd 9d bc 07 3e 7f 43 97 bd 8d 41 9d bd
       -0.07558686 0.13255544 -0.07385921 -0.076785184
0001f0 14 16 10 be fb 6c cb 3d 62 71 29 3d a5 98 83 3d
       -0.14070922 0.09932896 0.041367896 0.06425599
000200 eb 03 ee 3d 16 29 04 be 5b 40 b2 3c 34 69 a5 bd
       0.11621841 -0.12906298 0.021759203 -0.080767065
000210 10 09 b3 bc 97 76 85 3c 9c 6f d8 3d 06 06 2a be
       -0.021854907 0.0162919 0.10568163 -0.1660386
000220 1b 9b 67 3e 61 7f 04 be 3c c3 a8 bc e3 51 90 bd
       0.22617762 -0.12939216 -0.020600908 -0.07046869
000230 ec 50 d7 3d 29 57 50 3e f9 83 c9 3d ca 9a 84 be
       0.105134815 0.20345749 0.09839625 -0.25899345
000240 6b ce 60 3e ce ed 1e be 85 60 df bd 05 d7 12 3e
       0.21953742 -0.15520403 -0.109070815 0.14339836
000250 d7 1a 93 bb db ac c3 3c 41 37 96 3b cf 6b 9d 3c
       -0.0044892835 0.023886135 0.0045842235 0.019216446
000260 ff 44 3e bd a5 4d 7d be 26 21 32 be 7c 1d bc 3d
       -0.04645252 -0.2473665 -0.17395458 0.09185311
000270 38 27 3c 3d 77 8e da bd 5d 4a 4b be 33 f1 26 3e
       0.04593584 -0.10671704 -0.19852586 0.16302948
000280 a6 af 71 3d 5b 03 24 bd 2c 2e 31 3e e1 9d 04 3e
       0.059005402 -0.040042263 0.1730277 0.12950851
000290 da 6a 27 bd 94 c2 72 3d 05 17 99 bd 84 3e 8a 3d
       -0.040873386 0.059267595 -0.07475094 0.06750205
0002a0 93 5d 1a bd c8 cf d2 3c cd 1f 3f 3e a4 4b f9 3d
       -0.037686896 0.025733843 0.18664475 0.121726304
0002b0 e1 21 61 bd 02 c3 02 bc fe 52 d8 3a dd 21 f8 bd
       -0.05496395 -0.007981064 0.0016504226 -0.12115834
0002c0 56 9e 3c 3e 60 25 d6 bb 13 09 97 3d 7d fd 10 3b
       0.18419775 -0.006535217 0.07374778 0.0022123747
0002d0 6c 67 11 bd 2a 1c 0a bd e8 be c3 3d ea 9e 9a 3b
       -0.03549902 -0.033718266 0.09557897 0.004718651
0002e0 c7 34 d8 bc e6 59 73 3c cb 16 56 bd 48 d7 e7 3d
       -0.026392354 0.014852976 -0.05226783 0.113203585
0002f0 bc cd 0a 3e a1 20 4e be 3a 60 80 3d 11 39 63 3d
       0.13555044 -0.20129634 0.06268354 0.055474345
000300 61 97 e3 3c be 42 a2 bc b0 33 8e bd da 8c 1a 3d
       0.027782144 -0.019807216 -0.06943452 0.037731983
000310 ad 78 20 be f9 8d 5d be e3 cd e7 3d 10 b4 20 be
       -0.15671034 -0.2163619 0.11318567 -0.15693688
000320 66 3f 87 bd b0 12 df 3c fe 74 a7 3d 30 3c b3 3c
       -0.06603889 0.02723059 0.08176611 0.021879286
000330 69 19 c9 3b 02 21 14 be 87 3c 1b be 35 23 5b 3c
       0.0061370623 -0.14465716 -0.15159808 0.013375093
000340 a2 62 7d 3d d9 39 66 bb d9 ac ff 3c a4 66 01 3e
       0.06186164 -0.0035129695 0.03121035 0.1263681
000350 e1 8a ed 3d 02 99 86 bd 6e cb cd bb c1 d3 84 3a
       0.11598755 -0.06572153 -0.006280354 0.0010133908
000360 28 47 42 be bd 94 09 3d 49 1b 34 3d 1c ae b0 bd
       -0.18972456 0.033589114 0.043971334 -0.08626959
000370 c9 41 11 bd 5a 2d a4 3d 03 26 79 be a3 17 08 bd
       -0.03546313 0.080164626 -0.24330907 -0.033225667
000380 bf 72 ba 3d 90 3c 5c be 57 2d ca 3c c4 0a 8e bd
       0.09103917 -0.21507478 0.024679823 -0.06935647
000390 b0 42 59 bd 18 65 54 be 01 c2 97 bd 73 d1 6e bd
       -0.053042114 -0.20741689 -0.0741005 -0.058305215
0003a0 d9 0d 99 bc 9e e9 e4 bd a6 c6 af bd 67 b9 83 3e
       -0.01868336 -0.111773714 -0.08582811 0.25727388
0003b0 4a db 0c be da df 44 3e 5b da d2 3d 53 9b 87 3c
       -0.13755527 0.19226018 0.10295554 0.016553557
0003c0 35 55 d6 3b 35 d1 aa 3d ce 80 98 3d a6 c6 8c 3e
       0.006540919 0.08340684 0.074464425 0.27495307
0003d0 a7 c0 59 3e 86 3a 6e 3e 72 45 8b 3c 8a e8 99 3d
       0.21264897 0.23264512 0.017000888 0.075150564
0003e0 47 d5 eb 3d f9 5d 3b 3e 0e 25 85 3e e3 5e 5d bd
       0.11515289 0.18297566 0.26004833 -0.05404557
0003f0 f8 c6 8d 3d 58 f3 dd 3d 1f 9d 18 bd d4 f4 08 3e
       0.06922716 0.1083743 -0.037259217 0.13374645

mlp.0.bias f4 [256]
000000 a7 7a 05 3e 94 8f e3 bd f0 8c 39 be 38 95 84 bc
       0.1303507 -0.1111137 -0.1812017 -0.016184434
000010 a2 57 40 3b 01 0a 3c 3e a8 d5 5b 3b ca 8b 1f 3e
       0.0029349108 0.18363191 0.0033544097 0.15580669
000020 cc 90 ad 3c 2e 13 95 bd 92 4a 13 3e d2 9b 2c 3e
       0.021187209 -0.07279049 0.14383915 0.16856316
000030 3c 62 1e bc ed 17 a0 3c 4d 21 31 3c 4b 20 d7 bc
       -0.009666976 0.019542659 0.010811162 -0.026260516
000040 47 c8 b5 bd 2b ec 54 3d 70 ad 46 3d 99 26 e6 39
       -0.088760905 0.05198304 0.048505247 0.00043897776
000050 a0 96 38 be 82 5d 8d 3d f3 29 bd 3d d7 3a ca bc
       -0.18026209 0.06902601 0.09236517 -0.02468626
000060 1b bb bf 3d 94 f0 81 3d ff 06 1f bd 00 a4 b6 bd
       0.093618594 0.06344715 -0.03882503 -0.08917999
000070 5d 78 08 be b8 8d 5a 3d 90 5c 16 3d 09 5c 2e bc
       -0.13327165 0.05335781 0.03670937 -0.01064206
000080 12 47 02 be f6 d0 6f 3d 0f 08 fd 3d 12 7f e1 bc
       -0.12722424 0.05854889 0.12355053 -0.027526412
000090 d5 4b 34 be 46 f4 09 3e df 8c 3b be e2 4f 35 3d
       -0.17607053 0.13472089 -0.18315457 0.044265635
0000a0 0b dc a6 bd c6 68 13 be b2 69 e2 bc 25 3d bf bd
       -0.081474386 -0.14395437 -0.02763829 -0.09337834
0000b0 2b b4 a0 bd 83 52 77 3d ef 7d b0 bd 49 2d ea 3d
       -0.07846864 0.060381424 -0.0861777 0.11434419
0000c0 0b d6 cc bd f4 e4 1c 3d 33 b7 04 3d 73 64 a9 3d
       -0.10001763 0.038304284 0.032401275 0.08271112
0000d0 94 c3 3f be 88 78 88 3d 96 96 ec 3d 96 ab ee 3c
       -0.18726951 0.066636145 0.115521595 0.029134553
0000e0 90 17 17 be d1 48 01 3e e6 04 ca bb 15 4c 1d be
       -0.14755082 0.12625434 -0.0061651347 -0.15361054
0000f0 c8 f5 2d 3d b4 51 72 bd 87 86 02 3d a9 01 f7 bd
       0.042470723 -0.05915995 0.031866577 -0.120608635
000100 54 69 37 3d 3f 8d 58 3e 39 ba 5e 3d 90 07 a8 3d
       0.044778183 0.21147631 0.054376815 0.082045674
000110 69 93 58 3e 8f db 27 3e 09 8f 05 3d 52 57 65 bd
       0.21149983 0.16392349 0.032607112 -0.05599148
000120 c1 82 2d 3d 29 d5 0a 3e d8 fe 1c 3e 0d 78 16 3c
       0.042361025 0.13557877 0.1533159 0.009183896
000130 f6 61 ff bd 0e 4d 4e 3e 5d 0a 8a 3d 92 e7 9a bc
       -0.124698564 0.20146582 0.06740258 -0.01890925
000140 44 75 c7 3a 1a de 46 bd 58 6c 0e 3d b1 12 47 3d
       0.0015217443 -0.048551656 0.034771293 0.04860181
000150 d4 c1 42 bd ed 7e ab 3d ab b0 93 bd 9e 09 16 be
       -0.04754813 0.083738185 -0.07211431 -0.14652106
000160 09 87 64 3d 67 39 a9 3e 94 dc 84 3e 7c c8 05 3e
       0.055792842 0.33051607 0.25949538 0.1306476
000170 a0 33 be 3d 62 60 aa bc c8 c5 90 3d c5 b9 a4 bc
       0.092871904 -0.020797912 0.07068974 -0.020108113
000180 92 0b 75 bb d4 fd ea 3d 23 e2 84 3e 1b e6 1c 3e
       -0.003739093 0.11474195 0.2595378 0.15322153
000190 cb 5c 1c bd 52 94 a0 bd 3a 2e 6e bd 9b f2 f0 3c
       -0.03817443 -0.0784079 -0.058149554 0.029412558
0001a0 69 b8 8c bd 70 86 a6 3c f5 6e 28 bd 40 31 03 3d
       -0.06871111 0.020327777 -0.041121442 0.03202939
0001b0 3b f6 89 bc d0 bf 4e 3d 17 6d 17 be 7a 47 86 bd
       -0.016841045 0.050475895 -0.14787708 -0.06556602
0001c0 4d dd 42 3e 01 78 1a be f1 75 30 bd 04 c5 88 bd
       0.19029732 -0.1508484 -0.043081228 -0.06678203
0001d0 e9 e2 fb 3d d5 bf 1c 3d d3 dc d2 3d 37 c6 14 bc
       0.12299139 0.038268883 0.10296025 -0.009080461
0001e0 6a 7a 21 be cb de e5 3d 8d 1f 52 3e 4b 54 c8 bd
       -0.15769354 0.11224135 0.20519848 -0.097817026
0001f0 b4 dc f3 bd f2 bb b6 3d b0 16 6a bd c1 e2 43 3d
       -0.1190733 0.089225665 -0.057150543 0.04782367
000200 8c ca a5 bd 7d bb f1 3d 60 b8 14 3d 70 a5 03 3a
       -0.080952734 0.11803339 0.036308646 0.00050219055
000210 28 ea 2b bd 31 36 80 bc f5 92 3b 3e ac bd a2 bd
       -0.041971356 -0.01565084 0.18317778 -0.07946333
000220 20 63 09 bd a4 b7 fd bd bb 3c 33 bd d8 30 4d 3e
       -0.0335418 -0.12388542 -0.04375909 0.20038164
000230 8c 65 0a 3e 87 c7 34 3d b6 ee 30 be fb f3 0f 3e
       0.135153 0.044135597 -0.17278561 0.14057915
000240 76 9d 94 3e 1a c8 26 be a9 62 82 bd ff 4f 8c bd
       0.29026383 -0.1628727 -0.06366474 -0.068511955
000250 9c 3c 1f be 38 69 06 3d 8c a0 28 be b9 ff aa 3c
       -0.15550464 0.03281519 -0.16467494 0.020873891
000260 ac b9 23 bd 74 f0 b8 3d e0 ce 4d 3e 93 77 32 be
       -0.039971992 0.09030238 0.20098448 -0.17428426
000270 06 bd 24 3e db a2 0b 3c d1 2e 8c 3c 81 a0 1a bd
       0.16087732 0.0085227145 0.017112168 -0.037750725
000280 d3 f5 5d bd dc 1f 05 3e 46 49 5c 3e 4a 8f be 3d
       -0.054189514 0.13000435 0.21512327 0.09304674
000290 f5 11 0e be af 5b 88 bd c2 e2 e1 3d c6 9d 7e 3c
       -0.13874038 -0.06658112 0.11029579 0.015540546
0002a0 a8 58 a7 3d e6 84 30 3d f7 ef 12 3d f6 c0 59 be
       0.08171207 0.04309549 0.03587338 -0.21265015
0002b0 6e 28 69 3e eb 6f 2c 3e ed ff 39 3e 68 4e c1 bc
       0.22769329 0.16839568 0.18164034 -0.023596957
0002c0 b2 06 f5 bd 5b fb a3 bd 09 1c 1d be 8a c4 11 be
       -0.11964168 -0.080069266 -0.15342726 -0.1423513
0002d0 99 2e aa bc 6c 2f 48 bc cc 18 84 3d f7 96 35 3e
       -0.020774173 -0.0122183375 0.06450042 0.1773337
0002e0 09 57 dc bb a7 af 5d 3c 90 4b b6 bd c7 b9 39 3e
       -0.0067242426 0.013530648 -0.08901131 0.18137275
0002f0 d9 32 c6 bd 7f 4e 18 bd 32 6e 26 3d 72 2c cb b7
       -0.09677667 -0.037184235 0.040632434 -2.4220182e-05
000300 67 62 23 bd 80 69 57 3e ef fe 8d bc 60 37 15 3e
       -0.039888766 0.21036339 -0.017333476 0.14571905
000310 a8 1f 1d 3e 64 22 b7 bd 5f 01 ff bd 0c 9d 85 be
       0.15344107 -0.08942106 -0.124514334 -0.2609638
000320 77 7d ce 3d 43 5a 59 3e 3d 54 32 be 88 ee ba bd
       0.10082524 0.21225838 -0.17414947 -0.091275275
000330 fc 3e df 3d 57 39 07 be c6 02 80 3d b4 fc e4 3d
       0.10900685 -0.13205467 0.06250529 0.11181012
000340 85 87 04 be c4 19 63 3d 72 2f 3a 3e 17 c2 20 be
       -0.12942322 0.055444494 0.18182161 -0.1569904
000350 14 bc 3d bb 23 f6 2e bd e8 fe 02 3e 4f 83 0c 3b
       -0.0028951215 -0.042715203 0.12792552 0.002144057
000360 30 81 b7 3d 3d b2 2c 3d db a4 bf bd 3a b6 8b 3c
       0.089601874 0.04216217 -0.093576156 0.017054666
000370 8d b4 cd bc a2 31 cd 3d 53 30 1e 3e 01 d6 00 3e
       -0.025110507 0.10019232 0.15448122 0.12581636
000380 85 98 ea 3d 44 04 b5 bd 61 98 4c 3d 41 a7 42 bd
       0.11454872 -0.08838704 0.049950007 -0.047522787
000390 54 80 89 3d d2 8b 06 be 83 5f e2 3d 57 9f 0f be
       0.0671393 -0.13139275 0.11053374 -0.14025627
0003a0 0f 54 0f be 44 75 01 be 8a 1d 88 3e b3 55 16 be
       -0.1399691 -0.1264239 0.26585037 -0.14681129
0003b0 07 41 61 bc a5 eb 2c bd 0a c7 d6 bc 40 38 20 3e
       -0.013748414 -0.042216916 -0.026217956 0.15646458
0003c0 39 48 9a 3d 36 15 c1 bd fb 78 25 be d0 a7 0f 3e
       0.07533307 -0.09427874 -0.16159432 0.14028859
0003d0 09 46 62 bd 72 86 08 3d e4 9d 3c 3d a1 15 36 3e
       -0.055242572 0.033331342 0.046049014 0.17781688
0003e0 80 e4 04 3e 1b 1b 96 3e 7f fe c0 3d 09 95 30 3d
       0.12977791 0.29317555 0.09423541 0.04311088
0003f0 56 2b 0d 3e 61 3d 92 bd 11 5c 00 3e 8f b2 f5 bc
       0.13786063 -0.07140613 0.1253512 -0.02999237

mlp.2.weight f4 [128, 256]
000000 3c 8a 01 3c b2 3e 24 be cf f7 55 3e 93 2d ef 3d
       0.007906493 -0.16039541 0.20895313 0.116786145
000010 c4 63 56 be 20 6d d0 bd a5 31 12 be 70 ac 5e 3d
       -0.20936495 -0.10177064 -0.1427675 0.054363668
000020 4f 14 a0 bd c3 06 97 3d 01 5d 03 3e aa 60 81 3c
       -0.078163736 0.073743366 0.12828447 0.015793163
000030 54 94 57 3c 79 f5 18 bc 19 30 57 3e 52 2f e8 bd
       0.013157923 -0.009335869 0.21014442 -0.11337151
000040 61 4b 3d be 42 9c 02 3d 9f 9d 70 bd 93 d9 53 3e
       -0.18485786 0.0318873 -0.05874407 0.20688467
000050 e3 79 13 3d 00 83 d8 bd 1e 9c 28 3e 31 ea 94 bc
       0.036004912 -0.10571861 0.16465804 -0.018178077
000060 28 16 3d 3d 05 e2 c0 bd 51 e2 d2 be 84 92 6c 3d
       0.046163708 -0.0941811 -0.4118829 0.057756916
000070 c8 21 66 3e 27 69 26 be 1b 8d e0 3d a6 d9 b2 bc
       0.22473824 -0.1625105 0.10964414 -0.021832298
000080 56 57 c6 ba 8f bc 81 bd be 2f 88 bd 1b 71 f5 3d
       -0.0015132229 -0.06334793 -0.06649731 0.11984464
000090 b5 6e e8 bd af 5d e9 3d 37 32 8a bd 2c 59 86 3e
       -0.11349241 0.11394822 -0.06747859 0.26239908
0000a0 5d 11 07 3d 40 3b 49 bd 4e 29 66 3c 04 1c 0d 3d
       0.032975543 -0.04912877 0.014047934 0.034450546
0000b0 29 2c 30 3e ea 18 57 3e 3a b6 59 bd a0 f9 35 be
       0.17204346 0.21005598 -0.0531523 -0.17771006
0000c0 cc 33 ab bd a2 98 f8 3d 86 1b e6 3b b2 5f ec 3d
       -0.08359489 0.121384874 0.007022324 0.1154169
0000d0 56 3a 42 be 2c 50 40 3e 01 dd df bd a5 86 b8 3d
       -0.18967566 0.18780583 -0.10930825 0.090100564
0000e0 38 c3 de bd 7b dd df 3d 65 03 90 bd 4a aa 1f bd
       -0.10877079 0.10930916 -0.070318975 -0.03898076
0000f0 c7 a6 ad be 13 dd 82 3d 0a 25 99 be 8d a9 b0 be
       -0.33916304 0.06389823 -0.2991107 -0.34504357
000100 15 bd e7 3d d2 9b 1c be 87 d0 b9 3d 57 5e be 3b
       0.113153614 -0.15293816 0.090729766 0.005809586
000110 60 48 ea 3d 5c e8 a7 3d d1 26 c6 bd bc 05 69 be
       0.11439586 0.08198616 -0.096753724 -0.22756094
000120 42 c8 5b 3e d3 1a c6 bd 68 7b 6f bc 52 11 eb 3b
       0.21463111 -0.09673085 -0.014616825 0.0071736956
000130 9c b8 6e be e9 ba 6c 3e 74 68 0b be 44 9a 54 3e
       -0.2331261 0.23118176 -0.13614064 0.20761973
000140 12 64 cb be bd 44 78 bd 47 c8 29 3c 87 bd 22 ba
       -0.39724785 -0.06061243 0.010362691 -0.00062080513
000150 ee 10 8f be 05 4b 87 bd c1 c8 d6 3d 0b 3a 62 be
       -0.27942604 -0.06606106 0.104875095 -0.22092454
000160 5a 54 09 3e ec 6e 21 3e 49 0f f9 3d 4c 1c 57 bc
       0.13411084 0.1576497 0.121611185 -0.013129305
000170 31 93 45 bd 85 c1 2f be 3e 49 c2 bd c1 09 fc bd
       -0.048236076 -0.17163666 -0.09486626 -0.12306548
000180 cf 88 a3 bd c2 c6 26 3e a2 09 e3 3d 82 94 12 3d
       -0.079850785 0.16286758 0.11085822 0.03578616
000190 a3 46 5c 3d 65 39 99 3c 1c 6b 81 3d 77 d5 49 be
       0.053778302 0.018704126 0.063192576 -0.19710337
0001a0 12 1a e5 bc 6b e2 80 be e3 d5 8c bd d0 59 70 3e
       -0.027966533 -0.25172743 -0.06876733 0.23471761
0001b0 27 46 0d 3e 0d dd 17 3d d3 66 0a 3e b5 1b 37 bd
       0.13796292 0.037076045 0.13515787 -0.044704158
0001c0 86 d8 55 3b 8c cc 50 bd b6 2f 68 bd 11 d4 32 be
       0.0032630279 -0.05097632 -0.056686126 -0.1746371
0001d0 93 51 28 3e 61 d8 33 bd 3d cc 29 be 45 ad 3f 3e
       0.16437368 -0.043907527 -0.16581817 0.18718441
0001e0 e8 f6 4e bd 13 14 8f bd 41 1c 61 3c 23 a1 4d be
       -0.050528437 -0.06986251 0.013739646 -0.20081
0001f0 c6 3b 15 be fe 67 3d be 46 37 2b bd 9b 02 83 bd
       -0.14573583 -0.18496701 -0.04180076 -0.06396981
000200 f0 cb c6 bc bc 35 73 be 97 7b 38 3c 71 15 02 3e
       -0.024267167 -0.23750967 0.011259935 0.12703492
000210 f2 47 1e be 4d b3 bb 3b 49 3b 39 bd 91 80 74 bd
       -0.15457132 0.0057281614 -0.045222554 -0.059692923
000220 dd 13 93 bd a4 b7 b8 bd 0a ed a2 bd fd 58 6a 3d
       -0.07181523 -0.09019402 -0.07955368 0.057213772
000230 42 2b 38 bc 7e d8 00 be 84 9f 21 3e 19 7d 06 3e
       -0.011240782 -0.12582585 0.15783507 0.13133658
000240 9d 1d 35 3d 7c d4 75 3d 29 ee b9 3e 55 a7 61 3d
       0.044217695 0.060017094 0.36314514 0.05509122
000250 e3 47 5f 3d 3c 36 8e 3c 16 2e 03 3e 77 de 02 3e
       0.054511916 0.017359845 0.12810549 0.12780176
000260 c6 22 b7 be ea 3d 1c bd bc c7 16 3e 6f d8 e2 3d
       -0.35768718 -0.038144983 0.1472463 0.11076438
000270 d1 37 9a 3d 61 68 47 3e 57 34 8a 3e be 92 8d 3c
       0.075301774 0.19473411 0.26993057 0.017281886
000280 04 3b 95 bc f6 be 80 bc 50 5f 30 bc 82 ce 8c 3c
       -0.018216617 -0.015716057 -0.010764912 0.017188314
000290 12 a0 be 3c 8e 27 07 be ad 6c 64 bd eb 5f 63 be
       0.023269687 -0.13198683 -0.055767704 -0.22204559
0002a0 99 6b f3 bd 41 ce 9f 3d 29 3b 0f 3e 80 78 bb bd
       -0.11885757 0.07803012 0.13987412 -0.09153843
0002b0 ed 6f ac 3d ee 88 06 3e 33 39 40 be 08 4c 14 bd
       0.08419786 0.13138172 -0.1877182 -0.03620532
0002c0 43 c6 00 be 38 41 9a 3d cc 9a 07 be af 78 28 3d
       -0.12575631 0.07531971 -0.13242644 0.041130718
0002d0 fa 7f 39 3e d0 44 8b bd b2 0a 1e bd a5 bc 97 3d
       0.18115225 -0.06800234 -0.03858442 0.07409028
0002e0 6b 2b c1 bc 13 64 c2 be 75 15 12 be be d1 34 bd
       -0.023580274 -0.37966976 -0.14265998 -0.04414534
0002f0 90 aa 09 3e b4 f3 66 be 55 2a 48 be dd fc 4d bd
       0.1344397 -0.22553903 -0.19547398 -0.050289977
000300 a7 f4 8d be b0 36 93 3d db 2f 32 3d 6d f5 9f 3d
       -0.27725717 0.07188165 0.04350267 0.07810483
000310 d3 3d 4e 3e cb f9 1a bd ea 7e 00 be 1b ba 65 be
       0.20140772 -0.037835877 -0.12548414 -0.22434275
000320 d7 d4 4a bd 0a 42 a4 3d 85 e9 4b bd 23 bb 18 3b
       -0.049519386 0.080204085 -0.04978325 0.0023304902
000330 10 1d a9 bd e8 8f 97 bd b3 16 1d 3e 2f 5c a0 3d
       -0.08257496 -0.07400495 0.1534069 0.078300826
000340 04 b0 33 3d 1b a9 31 3e 12 99 11 3e 23 69 bf bd
       0.043869033 0.17349665 0.14218548 -0.09346225
000350 f8 bc 6b be 28 66 55 3e b5 8f d2 bc 7e 9e db bc
       -0.23021305 0.20839751 -0.02570329 -0.026808973
000360 0c 7a 13 3e 19 09 51 3e 19 0e bf bb 39 73 aa 3d
       0.14402026 0.20413627 -0.005830538 0.08322758
000370 d3 30 3e be 09 93 9f 3d 30 71 5c 3e a1 11 bc bc
       -0.18573312 0.077917166 0.21527553 -0.022957625
000380 ff 70 af 3e 05 29 90 3c 06 48 10 be 01 a4 a5 bc
       0.34265897 0.017597685 -0.14089975 -0.020219805
000390 b6 df 7e bb c3 6b 08 be df af a7 3c 92 c4 55 be
       -0.0038890666 -0.13322358 0.020469604 -0.20875767
0003a0 f5 cd ea 3c ca 82 a7 bc 98 eb 99 3d 71 48 dc 3c
       0.028662661 -0.020448107 0.07515639 0.026890012
0003b0 9a 9c 82 3e 59 a6 ca 3d 4c 5b 8d 3d 50 02 b7 3d
       0.25510103 0.098950095 0.06902179 0.08935988
0003c0 68 90 50 bd c1 0b 25 be a5 7f 73 3d 2c ea cc 3d
       -0.050918967 -0.16117765 0.059447903 0.10005602
0003d0 7b 84 a0 bd 70 5a 36 3d 84 a9 9b 3c e9 53 20 3d
       -0.07837769 0.04451984 0.01900173 0.039142523
0003e0 f9 ea 5e 3e 7b bd 9a 3d c4 d6 a8 3d f1 9b 27 bd
       0.21769322 0.07555672 0.08244088 -0.0409202
0003f0 f2 ec 4c 3d 0f 09 c8 bd c1 12 8d 3d 5e 97 0c 3d
       0.050030656 -0.09767353 0.06888343 0.034324042

mlp.2.bias f4 [128]
000000 53 07 ae 3d 5c 23 2a 3e 39 94 21 bc f3 78 e9 bc
       0.08497491 0.16615051 -0.009861999 -0.028500056
000010 97 30 76 bc 67 33 0d 3e 35 8a 7c bd bb 07 81 3d
       -0.015026233 0.1378914 -0.061655242 0.063003026
000020 b3 7f 00 3d df 59 e4 3a 08 ab 92 bd 96 80 92 bd
       0.031371783 0.0017421803 -0.07161528 -0.07153432
000030 64 61 2c bc 47 3d c0 3d 0a 50 23 bd 5a 5f e6 3c
       -0.010521267 0.09386688 -0.039871253 0.028121639
000040 78 14 a6 3c d9 6e 3d bd a5 a1 e4 3b d4 8b d1 3b
       0.020273432 -0.04624829 0.0069772773 0.0063948426
000050 bb e2 9b ba 67 52 80 bb 2d 5c ae 3b ee 10 99 bc
       -0.0011893132 -0.003916073 0.005321047 -0.01868483
000060 a3 47 25 3d 44 bd 85 bb a5 bb c0 3c 48 42 57 bd
       0.04035152 -0.0040814 0.023526976 -0.052553445
000070 85 64 6e bd ba 52 b9 bc 38 4e b0 3b 53 b2 da 3b
       -0.05820133 -0.022622455 0.005380418 0.00667409
000080 d8 f6 d1 3b 53 13 40 3c 2e 03 60 bd 18 07 98 3c
       0.0064076 0.011723357 -0.054690532 0.01855807
000090 3f 64 18 bc dc 37 15 bd 7a a1 e3 bd 6c 46 93 3b
       -0.009301244 -0.036430225 -0.111147836 0.004494479
0000a0 94 3c 64 bd 8c e4 e9 3c b7 51 59 bd 7d 40 7c 3d
       -0.055721834 0.028551362 -0.053056445 0.06158494
0000b0 2a e2 bf bc 15 a0 d8 3d cb e1 17 bc e4 9d e9 3c
       -0.023423273 0.10577408 -0.009270142 0.02851767
0000c0 de 73 15 3e 54 4d 3f 3d 69 1a 80 bd 04 ea 18 3d
       0.14594981 0.046704605 -0.06255037 0.03733255
0000d0 7a 30 df bb c8 86 1f bc 1e 8d 34 3d bb 1d 51 3b
       -0.006811199 -0.009736724 0.044079892 0.003190859
0000e0 dd 9f 09 3c 49 0c 28 3d 94 3e d3 3c 5d dd 9e 3d
       0.008399931 0.04102734 0.025786676 0.077570654
0000f0 01 b3 dd 3c 06 4e 7e 3d 8c 52 2f 3d 6d 7f 16 bb
       0.027062895 0.062086128 0.042803332 -0.0022964135
000100 0c b2 78 3e 97 33 93 3d 7a e6 71 bd ba d3 14 3d
       0.2428667 0.07187574 -0.05905769 0.03633473
000110 3d ec 1f 3c 92 24 d9 3b ce 3d 12 3d c9 38 52 bd
       0.009760913 0.006626674 0.035703473 -0.051323686
000120 23 1e db 3d ff 55 f6 ba 57 a3 92 bc 1b 4d f3 3d
       0.106991075 -0.0018793939 -0.017900152 0.11879941
000130 28 c3 ef bb ad fe 48 3c 5a 88 9c ba c2 10 82 bc
       -0.0073169656 0.012267751 -0.0011942491 -0.015877131
000140 b9 79 33 3d 77 95 ce 3c 01 19 bd 3d 33 1b 67 bc
       0.043817256 0.025217755 0.09233285 -0.014105606
000150 06 d4 81 bd 02 c9 d5 3c 4b 7f 58 bd e6 72 0a 3c
       -0.063392684 0.026096825 -0.05285577 0.0084502455
000160 52 85 89 bb 17 ff 88 bd bb cf db 3a f0 c6 30 bc
       -0.004196801 -0.066892795 0.0016770283 -0.010789618
000170 88 9b cf 3c 61 4f 11 3d ad ea bc 3d af 3b a4 bb
       0.025342718 0.035476092 0.09224448 -0.0050119977
000180 5a 5d 2c 3e a5 35 33 3e 72 0f 98 3d 30 d9 55 bc
       0.16832486 0.17500933 0.07424821 -0.01305227
000190 9b b8 3d 3d ef 2b 8b bc 35 ec 15 3d 71 81 6e bd
       0.04631863 -0.016988723 0.036602218 -0.058228914
0001a0 2a 0e 62 bd 35 51 38 bd 00 b3 20 bb 78 88 ff b9
       -0.05518929 -0.04499932 -0.0024520755 -0.00048739067
0001b0 39 fd 00 3c a6 24 bc 3c 45 be 17 3d 0c 39 66 3d
       0.007872873 0.022966694 0.03704669 0.056206748
0001c0 14 48 97 bd 0e fc f0 bc 08 18 7a 3d 27 b6 28 bd
       -0.07386795 -0.029417064 0.061058074 -0.04118934
0001d0 06 0f 87 bc a4 36 60 bd 90 55 31 39 e2 e6 d2 3d
       -0.016486656 -0.05473961 0.0001691191 0.10297944
0001e0 a3 a7 86 3c bf 79 19 3d 23 9a 4a bd 46 f9 68 3b
       0.016437357 0.03746962 -0.049463402 0.003554897
0001f0 0a 92 4c bd be af 80 3d 75 af a6 3c 51 91 fc 3c
       -0.04994396 0.0628352 0.020347336 0.030831011
