weights2/ep_879.pth (torch, 275579 bytes, 10 tensors)

lstm.weight_ih_l0 f4 [192, 7]
000000 bb 57 c2 bc f9 08 c6 3d fc a4 03 3e 6e 4d 4b 3d
       -0.023723474 0.0966968 0.12855905 0.04963439
000010 e4 be ea 3c 55 fc fe 3d dc 46 17 3e 6d 4f 1c 3e
       0.028655477 0.12450472 0.14773124 0.15264674
000020 42 fe f4 bd f8 c8 06 3e b1 93 eb bd 8d c4 98 bd
       -0.11962558 0.13162601 -0.11502779 -0.07459364
000030 b4 79 b5 3c d1 48 1d 3d bf b1 60 3d 03 84 f1 3c
       0.02215276 0.03839952 0.054857012 0.029481893
000040 a0 9f a7 bd 86 11 37 bd 7a 7c 97 bd 49 ad 0c 3e
       -0.08184743 -0.044694446 -0.07396789 0.13737978
000050 ba a0 04 3d 32 92 17 3e a4 cd f5 3c e9 86 d4 3d
       0.032379843 0.14801863 0.030005284 0.103772946
000060 c6 d6 ad 3d cd 75 0d be 83 41 27 3d fc c5 ad bd
       0.084882304 -0.13814469 0.04083396 -0.08485028
000070 72 21 9a bd 3a 2f 07 3e 3e 4b f0 3d f0 1a 5a 3c
       -0.075259104 0.13201609 0.11733101 0.013312086
000080 68 3f 17 bd eb 1c 02 3e 4d 46 c9 bd b1 e9 f0 bb
       -0.036925703 0.12706344 -0.09827862 -0.007352077
000090 bf a3 6a bc a6 f1 eb 3d 1b ea f9 3d 86 c0 51 bd
       -0.014321267 0.115207 0.12202855 -0.051208995
0000a0 8f 23 f7 3d 1d 28 5b bd 10 58 9b 3d f9 da a1 bd
       0.12067329 -0.053505052 0.07585156 -0.07903094
0000b0 68 a4 87 3d 55 e1 1a 3d f5 72 31 bc 88 06 77 3d
       0.06623155 0.03781255 -0.010830631 0.060308963
0000c0 d0 27 d2 3d 4f 0f 04 bd b6 36 14 be 68 16 cd bc
       0.102615 -0.032241162 -0.14473996 -0.025035098
0000d0 48 7e 02 3a ef de dc 3d 79 d8 22 3e 02 83 e4 3d
       0.0004977924 0.10784709 0.1590289 0.111578
0000e0 d6 b2 56 bb b5 78 85 3d 23 4d a0 bd 3a 95 b4 3d
       -0.0032760403 0.06517164 -0.07827213 0.08817525
0000f0 bd 9b 92 bd 56 17 15 3e c7 99 7f bd a2 02 8e bd
       -0.07158611 0.14559683 -0.062402513 -0.06934096
000100 b0 c5 c6 bd 3e 47 cb 3c 2a 9d 2c 3d ea ea b4 bd
       -0.09705675 0.024814244 0.04214207 -0.08833869
000110 c4 61 b3 bd b1 c6 f9 3d 4b 8b a0 bd 8d e5 de 3d
       -0.08758882 0.121961005 -0.07839068 0.10883627
000120 44 d5 6a bc e3 08 41 3d bf 44 d9 ba 23 35 21 bd
       -0.014333073 0.047127616 -0.0016576274 -0.039357316
000130 d9 e6 4f bd 82 78 e9 3d 35 8e ac bd 44 68 07 3d
       -0.050757263 0.11399938 -0.08425561 0.03305842
000140 6d ea 5f bd 79 b9 ec 3d 4e dc 01 bd 24 2b 16 3d
       -0.054666925 0.115588136 -0.03170424 0.036662236
000150 25 7c e7 bb 8f 36 eb bd 46 fc 0d be c2 07 e6 bd
       -0.0070643597 -0.114850156 -0.13865766 -0.112319484
000160 59 62 78 bd e2 3b a7 bc 42 0d 01 3e 6a 50 2b 3e
       -0.060640667 -0.020414297 0.12602714 0.16729894
000170 3d ba d0 3d 47 84 4d 3c bd 7b db bc 9d 38 26 3d
       0.10191772 0.012543744 -0.026792401 0.040581334
000180 1d 72 b5 bd f8 73 38 3e e7 df 21 3d f6 6d 96 bd
       -0.08859656 0.18012989 0.03952017 -0.07345192
000190 f2 83 03 bc f0 ed ff bd ea 07 45 bd 03 e2 31 bc
       -0.008027064 -0.12496555 -0.04810325 -0.010857108
0001a0 c2 fb e3 3d bc 33 3f 3d 50 c6 09 bc ad 85 fc 3d
       0.11132003 0.046680197 -0.008409098 0.12330184
0001b0 5f 7a c9 3c de 8d a4 3d af f5 9f bd 46 3f ce 3d
       0.024594484 0.080348715 -0.07810532 0.10070662
0001c0 10 26 01 3e 0f b8 99 bd ac 75 20 3d ba 51 b1 bd
       0.12612176 -0.075058095 0.03917472 -0.08658166
0001d0 b8 37 dc 3d e7 7c ed 3c 77 aa 95 bd ad 33 13 bb
       0.10752815 0.028990222 -0.07307904 -0.002246122
0001e0 b3 ff c7 bd 17 9b 6d bb d8 fa 80 3b fb ac d1 3c
       -0.09765568 -0.003625577 0.003936153 0.025595179
0001f0 e4 d4 a6 3a 8d c3 f3 3d 5e 8f b5 3d 59 94 0b be
       0.0012728241 0.11902533 0.08865236 -0.13630809
000200 a0 c1 fb bb 2e c2 0b be 4a 76 f5 bd 43 fe e9 bd
       -0.007682994 -0.13648292 -0.119854525 -0.1142545
000210 bb e6 66 3b c7 5f b4 3d 47 bf 0f 3d 94 f2 b7 bc
       0.003523274 0.088073306 0.035094526 -0.022454537
000220 a8 3c d4 bd 0b 04 24 ba 1a f2 48 ba ab 15 80 3d
       -0.10363132 -0.0006256706 -0.00076654705 0.06254133
000230 24 0c 38 3c 7a b6 e4 bd 3e fe 01 3e 72 fa c5 3d
       0.011233363 -0.11167617 0.12694642 0.09666909
000240 de 23 cd bd 92 6a 28 3e cc 29 fd 3d 59 c4 d0 bd
       -0.10016607 0.16446903 0.12361488 -0.101937
000250 62 c6 d7 3c 80 a1 c7 bd 69 a2 16 3c d3 08 58 bd
       0.026339713 -0.097476006 0.009193995 -0.05274279
000260 6e 3d 80 bd 26 c9 c1 3c f5 7f eb 3d b3 57 8f bd
       -0.06261717 0.023655485 0.11499015 -0.06999149
000270 bb 03 fa bc 9a 47 34 3d 29 4d fc bc df 7d fb 3c
       -0.030519357 0.044013597 -0.030798512 0.030699668
000280 db 78 20 3d b2 5b 00 3b e5 8c 06 be f0 4b b3 3d
       0.039177757 0.0019585905 -0.13139684 0.08754718
000290 7b a6 d1 3d 20 db e1 3d 33 cb e0 3d 65 ac 8f 3d
       0.10236832 0.11028123 0.10976257 0.070153035
0002a0 1d ff 62 3c 10 b3 96 3d 04 aa 30 bd 08 21 c7 bd
       0.013854769 0.07358372 -0.04313089 -0.09723097
0002b0 be a7 df bd b5 a3 3c 3d 0f 00 0e 3d 77 2a af 3c
       -0.10920666 0.04605456 0.034668025 0.021382554
0002c0 9a bb de 3d da 6d d6 bc 66 0a 34 3d 6c 2d 45 bd
       0.10875626 -0.026175428 0.04395523 -0.04813902
0002d0 d0 04 72 bd fb 77 74 bd 46 9c 2c 3e 58 b7 db 3d
       -0.05908662 -0.059684735 0.16856489 0.107283294
0002e0 f7 2d 99 3c 2f b1 3e 3c 7c 56 44 bd 9e 9a 29 bd
       0.018698676 0.011638924 -0.04793404 -0.04140722
0002f0 fb e4 62 3d aa b2 c7 bd 95 46 fa bd 23 2e 95 3d
       0.055394154 -0.09750874 -0.12220494 0.072841905
000300 6c c1 8a bc c5 19 18 3e 4c a2 f4 3d 5d 1b ff 3d
       -0.016937934 0.1485358 0.11945018 0.12456391
000310 55 82 ec 3b ab 94 81 3d 87 c1 0c 3e fe b5 fc 3d
       0.007217685 0.06327184 0.137457 0.123394
000320 ed 77 d5 bc e6 e9 8e 3b cf e1 da 3d 38 94 de bd
       -0.026058162 0.004361379 0.10687601 -0.10868114
000330 58 fc db 3c 08 6d 01 bc 09 e8 30 3a 31 f3 b4 3c
       0.026853725 -0.00789953 0.0006748443 0.022088619
000340 8c 75 db 3b d5 44 b8 bc 98 39 be bd c2 ef 62 39
       0.0066973623 -0.02249376 -0.09288329 0.00021642356
000350 83 c9 83 3c 25 43 ba bc 7d c5 e8 bd 66 47 81 3d
       0.0160873 -0.022737095 -0.11365793 0.06312446
000360 83 ae 23 3e 48 e5 70 bd c5 62 a9 3c 4a c3 b7 3d
       0.1598454 -0.05881241 0.02067698 0.08972795
000370 af a8 19 bd 90 1c ea 3b 54 0e 12 3d 00 63 26 3d
       -0.037514385 0.007144518 0.035658196 0.040621758
000380 e0 fe 1a bd 71 33 b2 bd 58 ed 36 3b e4 4a 07 3e
       -0.037840724 -0.08701218 0.0027912464 0.13212162
000390 4d 84 df 3d bc 7a d9 bd 0c 47 4a bd c3 b9 42 bd
       0.10913906 -0.10619113 -0.04938416 -0.047540437
0003a0 bb 09 0a bd 1f aa be 3d b9 9e 09 3d 7a 97 69 3d
       -0.033700686 0.09309792 0.033598635 0.057029225
0003b0 a3 ff 50 bd f8 8c 10 3e 4a 00 27 3d cf f5 f6 bd
       -0.051025044 0.14116275 0.04077176 -0.12058603
0003c0 bb 13 8c bd 84 35 61 bd 0a 50 48 bd 83 b6 91 3d
       -0.06839701 -0.054982677 -0.048904456 0.071148895
0003d0 ad 57 22 3c 8e 4e ed 3d 9b 62 fc 3c 19 8e 83 3d
       0.009908599 0.11587249 0.030808738 0.06423587
0003e0 f7 e5 35 bc 43 e1 8a 3d 22 51 f0 bd 8f f6 d8 bd
       -0.011102191 0.067812465 -0.11734225 -0.10593902
0003f0 73 91 33 bc a4 c2 2b bd bc fc 00 3e cf 41 d3 bd
       -0.010959971 -0.04193367 0.1259641 -0.10315286

lstm.weight_hh_l0 f4 [192, 48]
000000 e3 f6 11 3c 90 bc f3 bd 7c ed 71 3c f9 e9 e3 bd
       0.00890896 -0.119012 0.014766093 -0.11128611
000010 c6 ac 25 bd cb 3d f8 bd e0 69 fb bd 80 c0 d3 3d
       -0.040447973 -0.12121161 -0.122760534 0.10339451
000020 b3 39 d0 bd ff 4b 90 3c c6 72 2b be 0e 81 38 be
       -0.10167255 0.017614363 -0.16743001 -0.1801798
000030 7d 8f 3a 3c 6b 70 a8 3d 69 32 30 bd e5 6d 7f bd
       0.011386749 0.08224567 -0.043016825 -0.062360663
000040 be c9 70 ba 1f 73 2a 3e 8e da 12 3b 94 ca 62 bd
       -0.00091853354 0.16645478 0.00224081 -0.055368975
000050 20 7c 0d 3e ad 54 22 3d 76 3f a9 bd 7c e8 eb bd
       0.13816881 0.039631534 -0.08264057 -0.11518952
000060 a5 2b 38 bd 15 7a 66 3d bb 81 b3 3d 1f a5 d3 3d
       -0.044963498 0.05626877 0.087649785 0.10334229
000070 b7 cb b3 bb f6 72 a4 bd ce 34 94 bd 68 b6 a1 bc
       -0.005486931 -0.080297396 -0.07236634 -0.019740298
000080 39 02 9a bd 80 58 20 be 98 7e ca 3d 08 4a e5 bd
       -0.07519955 -0.1565876 0.09887427 -0.11195761
000090 e4 35 27 bd 81 7a b6 3d 2b 4d c1 bd 7c ab eb 3c
       -0.04082288 0.089100845 -0.09438547 0.028768294
0000a0 e9 de bd 3d 36 3b 9f 3d ec 4d 26 3c e9 5e d1 bd
       0.09271032 0.077749655 0.010150414 -0.10223181
0000b0 c0 32 36 3d ce d3 b9 3b 8f 5b f0 bd 7d 10 c2 bd
       0.044481993 0.005671001 -0.117362134 -0.09475801
0000c0 1f 23 cb bd a5 2e ae bc 7d ae b3 3d 0e 8f 06 3d
       -0.09918808 -0.021262476 0.087735154 0.03285127
0000d0 9b 34 7a 3d e7 25 f3 3d ca 50 28 3e d6 c5 cf bd
       0.061085325 0.11872464 0.16437069 -0.10145156
0000e0 34 60 c8 ba d0 6e 1c bc 52 6c 15 be 34 f7 19 be
       -0.001528746 -0.009547904 -0.14592102 -0.15035707
0000f0 60 f6 92 3d 4d 86 e7 3d f9 d2 f5 3d 3c 44 e0 bd
       0.071758986 0.11304913 0.120031305 -0.10950515
000100 7a 5d 61 bd cd be 74 bc d3 3e 18 3e 35 da a7 bd
       -0.055020787 -0.014938069 0.14867716 -0.081959166
000110 86 ec 04 bd 55 c1 6a 3b 74 f3 24 be 05 ee fe 3d
       -0.03245213 0.0035820801 -0.16108495 0.124477424
000120 66 57 1c 3e 4e 42 d1 3d a7 d2 d4 3d bc cf 1a 3e
       0.15267715 0.10217725 0.10391741 0.15118307
000130 1a e1 e6 3d b9 f0 91 3d c7 9a e9 3d f9 fc c1 3d
       0.112734035 0.07125992 0.114064746 0.09472079
000140 6e d3 a8 bd 90 97 0e be 4c 13 6a bb 4a 92 67 3d
       -0.08243452 -0.13925004 -0.0035717068 0.056535996
000150 0b 65 46 3d f2 6c 3e bd f0 9e 7f bd b3 0e 87 bd
       0.048436206 -0.046490617 -0.062407434 -0.065946005
000160 11 f9 c3 bd b8 30 34 bd 1f 27 8c bd ca ed e6 3d
       -0.0956899 -0.043991774 -0.06843399 0.112758234
000170 a4 7b be 3d b3 f8 e5 3d 13 78 b1 3d b6 0e 92 bd
       0.09300926 0.11229076 0.086654805 -0.07131712
000180 75 7b 31 3d ba 47 0b be 31 9b a1 3c 4e ac bb bd
       0.04333063 -0.1360158 0.019727321 -0.09163724
000190 8e b3 80 3c 9c 27 d2 3c 46 15 b0 3d 1a 07 88 3d
       0.015710618 0.025653653 0.085978076 0.066419795
0001a0 ea cd 85 bd 70 fc 2f bd 14 f0 88 bd 41 00 5e bd
       -0.065334156 -0.042965353 -0.06686416 -0.05419946
0001b0 ac 08 63 3d 21 3b df 3c 10 f1 9c bd 2a a0 1f bd
       0.055428192 0.027249875 -0.076631665 -0.038971104
0001c0 63 c4 93 3d 4d 84 18 3e af 06 cd 3d 19 ff a5 bd
       0.07215192 0.14894219 0.100110404 -0.08105297
0001d0 94 54 4a bd 30 cd 0b be cf 98 6d bb 23 6c 00 3e
       -0.049397066 -0.13652492 -0.003625441 0.12541251
0001e0 27 4b 09 3d a7 af 7d 3b df f3 0c be ab 8a b7 3c
       0.033518936 0.0038709433 -0.13764904 0.02240499
0001f0 8e b4 d3 bc ac 68 c2 bd dc 95 c2 bd e6 66 bb 3d
       -0.025842931 -0.09492621 -0.0950124 0.09150486
000200 1a 79 63 3d 36 df 63 bd fc 2f fa 3d 78 87 ae 3d
       0.055535413 -0.055632792 0.122161835 0.08521932
000210 29 5d df 3d 33 ee f0 bd 22 4b 0a 3e be 16 0a bd
       0.10906441 -0.11764183 0.13505223 -0.033713095
000220 1b d4 af bd 6f 9c 65 3d c4 71 ff bc 3a 70 d3 3d
       -0.08585378 0.05605739 -0.031182177 0.1032414
000230 5b b3 16 be ea 48 64 3d 47 9e 06 bd a2 02 d2 bd
       -0.14716856 0.0557336 -0.03286579 -0.102544084
000240 7f b9 b0 bd 06 22 6a bd ea e1 b3 bd e5 5e 1c bb
       -0.086291306 -0.057161354 -0.08783324 -0.0023860272
000250 50 c1 db bb aa 6e 03 3e 9e 49 87 bc e3 4d 37 bd
       -0.0067063943 0.12835184 -0.016514596 -0.044752013
000260 0e 3f 29 3d 04 bc 51 3a 24 bf ee 3a c3 ff 8c 3a
       0.0413199 0.0008000734 0.0018214923 0.0010757375
000270 bf be b2 3d e9 6a 80 3d 19 7f 7e 3d be bb 8b 3d
       0.08727788 0.062703915 0.06213293 0.06822918
000280 c2 72 9c 3d 48 9a 18 3e 54 41 1d 3d 73 b7 c4 3c
       0.07639076 0.14902604 0.03839238 0.024013257
000290 12 c5 50 bc 77 f6 d3 3d 34 ee 10 be 0c a2 01 3e
       -0.012742298 0.10349744 -0.14153367 0.12659472
0002a0 e8 08 0e 3e b0 98 af bd 42 c7 a9 bd c4 6b d1 3d
       0.13870585 -0.08574045 -0.082899585 0.10225633
0002b0 89 37 c1 3c c5 d5 14 bd 8c 02 b6 bd 8d 44 39 3c
       0.023586052 -0.03633668 -0.088872045 0.011307848
0002c0 f8 09 a3 bc 2d bf 90 bd 8d 89 e2 bd 3f c3 bc 3d
       -0.019902214 -0.07067714 -0.11061392 0.09216928
0002d0 b4 5c cc bc 27 e8 ab 3c 2a 71 b0 bd d6 b7 1a 3d
       -0.024946548 0.020984722 -0.08615334 0.037772976
0002e0 35 ee 19 be 3e 34 16 3e 84 88 ca bb 2d ac 08 3e
       -0.15032275 0.14668366 -0.0061808247 0.1334693
0002f0 20 cd 93 bd d8 19 f4 bd 57 a9 04 be 7b 38 a3 3d
       -0.07216859 -0.11918992 -0.12955223 0.07969757
000300 2c 1c 19 be 96 5c b5 3d 33 f9 b6 3d 58 a5 19 3c
       -0.14952153 0.0885555 0.0893425 0.0093778
000310 b2 80 ec 3d d2 33 07 3e bb af 20 3e ec a3 ec bd
       0.11547984 0.13203362 0.15692036 -0.11554703
000320 eb 97 15 bd c7 91 b7 3d ee 05 06 3d fe 24 0c bd
       -0.036521833 0.08963352 0.0327205 -0.034214966
000330 77 1e d6 3c 1c da 47 3d ae be 62 bd 2d 8d 49 bd
       0.026137574 0.04879199 -0.055357628 -0.0492069
000340 8d 77 fa 3c b2 a1 9b 3d 14 4f 85 bd ed 1d 97 bd
       0.030574584 0.075992 -0.065092236 -0.07378755
000350 78 61 60 3a 93 68 a5 bc 03 84 00 be 9b 90 be bd
       0.0008559446 -0.020191466 -0.12550358 -0.09304925
000360 34 a9 91 bb cb da 16 3e 19 7e ba bd cc 7d 46 3c
       -0.0044452194 0.147319 -0.091060825 0.012114953
000370 35 c9 9f bc df 6c 00 3e 4a 07 3d 3e e1 a4 ce bd
       -0.019505123 0.12541531 0.18459812 -0.10090042
000380 b2 f7 37 be db 0d 11 be c9 f8 84 3d d8 78 00 3e
       -0.17965582 -0.14165442 0.064927645 0.12546098
000390 86 4c 19 3e 0c f4 d2 3d db 42 09 3e 57 2f ba 3d
       0.14970598 0.103004545 0.1340441 0.090910606
0003a0 12 92 e0 bc 39 04 d0 3d b3 12 25 3c 94 4b ab bd
       -0.027413402 0.101570554 0.010075259 -0.08364025
0003b0 cd 25 57 bd 72 94 24 3c 56 ce 50 3d 1f 8f 21 bc
       -0.052526284 0.010045158 0.050978027 -0.009860783
0003c0 c3 23 e3 bd 96 bc a7 bc 45 b8 93 bd 3a 96 91 bd
       -0.110908054 -0.020475667 -0.07212881 -0.071087316
0003d0 0f 03 95 3d b7 ee 3e 3d 27 1b f7 3d 23 f4 be 3d
       0.07275974 0.046614375 0.12065726 0.09323909
0003e0 97 f8 a8 3d c0 79 09 3d 02 7e 9c bd d2 41 17 be
       0.0825054 0.033563375 -0.076412216 -0.14771202
0003f0 ca 4e d5 3d ae 42 0b bd 46 ae 01 bd d0 4b 22 bd
       0.104154184 -0.033999138 -0.03166034 -0.03962308

lstm.bias_ih_l0 f4 [192]
000000 0f 0f 21 3d 2a 42 3e bd ba a3 ee 3d 03 b0 b5 bd
       0.039321 -0.046449818 0.11652322 -0.08871462
000010 9e 61 a8 bc c7 b5 11 bd 7a 8c 94 bd 81 3b 16 3c
       -0.02055436 -0.035573747 -0.07253356 0.00916946
000020 92 73 ba bd 7d 08 08 3e 89 04 23 3e ad ad db 3c
       -0.091040745 0.13284488 0.15919699 0.026816214
000030 a8 18 e3 3c 5d ad 47 3d ec a2 57 3d 60 d9 cc bd
       0.027721718 0.048749316 0.05264561 -0.100023985
000040 f1 9b ad bd 3f cd 17 3e a2 25 87 bb 92 65 3a bd
       -0.08477009 0.14824389 -0.004124359 -0.04550702
000050 f8 d8 0e 3e 7c 3c 8f 3b e3 df 86 3d 59 ea bd 3d
       0.13949955 0.004371224 0.06585672 0.09273214
000060 53 0c 80 3d b7 8c cf 3d 73 ae e1 bd 6a 78 ad 3d
       0.06252351 0.10134261 -0.11019602 0.08470233
000070 5b 43 b9 3d 26 9f 7a 3d 33 6e a9 bd 01 f1 a6 3d
       0.0904605 0.061186932 -0.08272972 0.081514366
000080 d6 da bf 3d 5c 33 d4 3d de 41 c1 bd 88 2f 33 bd
       0.093679115 0.103613585 -0.09436391 -0.0437465
000090 df 52 6d bc 44 62 a6 bd 08 e6 a6 bd a9 3e 70 3d
       -0.01448509 -0.081242114 -0.08149344 0.058653507
0000a0 c7 e7 07 3e 0f 2c c4 bd 85 6f 66 3d 35 91 83 bd
       0.1327201 -0.09578716 0.056258697 -0.064241804
0000b0 b1 88 05 3c 1c e7 93 3a 93 79 f2 3d 1c f6 d3 3d
       0.008150266 0.0011284086 0.11839595 0.10349676
0000c0 a2 6a 09 be c6 d5 16 3e 96 7e 77 bd 43 55 f2 3d
       -0.13419583 0.14729986 -0.060423456 0.11832669
0000d0 a1 ec 51 3d 98 3f 99 3d 0d eb 0f be 4d 13 48 bd
       0.051251058 0.07482833 -0.14054509 -0.04884653
0000e0 c4 92 f6 bd c4 04 f1 bd aa 87 cb bd 8c 6c 1a bd
       -0.12039712 -0.11768487 -0.09937985 -0.037701175
0000f0 ab 0f a0 3c 9b da c0 3d 29 03 80 bc 58 48 bf 3d
       0.019538721 0.09416696 -0.015626507 0.0933997
000100 a4 37 94 3d e6 85 b6 3d 64 1c 54 bc 11 8a 21 3d
       0.07237175 0.08912258 -0.012946222 0.03943831
000110 c0 d7 e9 3d ad fe 03 3e 63 60 13 3e 63 89 a9 3c
       0.11418104 0.1289012 0.14392237 0.020695394
000120 7c 06 ff bd ae f4 bb 3d b3 7b 46 bd dd 0b e0 3d
       -0.12452409 0.09177528 -0.048457813 0.10939763
000130 06 b6 14 bd 88 d7 4e 3d 88 5b d9 bd f0 19 ca 3c
       -0.036306404 0.050498515 -0.10613161 0.024670571
000140 1d c4 f3 3d e5 4c c7 3c 41 13 da bd 65 5d 76 bd
       0.1190264 0.024328658 -0.10648204 -0.06014766
000150 61 2e 5b 3c 91 ed e1 3b 87 99 91 bc 60 1e 99 bd
       0.013377757 0.006894775 -0.017773403 -0.07476497
000160 01 54 12 3c a0 a5 7f 3a 71 85 99 bd 05 fc 18 bc
       0.008931161 0.0009752158 -0.07496155 -0.00933743
000170 7d 48 e3 3d 73 95 1e 3e 24 65 89 bd 9b 9e 62 bd
       0.110978104 0.15486698 -0.06708744 -0.05532704
000180 2e 72 e1 bd 83 65 3c 3d cb a8 79 3c 60 9e 3a bc
       -0.11008106 0.045995247 0.015237997 -0.011390299
000190 9c a3 03 bd 64 f5 ee 3c 4f 61 e8 3d 57 25 62 3d
       -0.032138452 0.029169746 0.11346685 0.05521139
0001a0 77 4f b8 3d 8d 82 d3 3d 12 8b 23 3e 17 45 01 3e
       0.08999532 0.10327635 0.1597102 0.12624012
0001b0 66 ba 65 bd ca 9e d7 3d a1 8e 6e bd 35 46 56 3c
       -0.056085967 0.105283335 -0.05824149 0.013078262
0001c0 bc 80 dd bc 5b a7 2e 3b 1f e0 8d 3c 00 dc f0 bd
       -0.027038924 0.0026650045 0.017318783 -0.11760712
0001d0 d3 9a 27 3e 10 8f 69 3d bf 25 20 3e d1 de 0a be
       0.16367655 0.0570212 0.15639399 -0.1356156
0001e0 c0 e4 b9 3d 3a db a6 3d 1f bb ee 3d a7 54 3b bd
       0.09076834 0.08147283 0.11656784 -0.045735028
0001f0 8f 0a c0 bb bd 32 93 bd a2 53 6b 3c cb 02 9e 3b
       -0.0058606337 -0.07187412 0.014363201 0.0048221103
000200 d9 85 2e bd 9d cf b4 3d 9a 0c 57 3d 0a a3 ed 3d
       -0.042608116 0.088286616 0.052502252 0.11603363
000210 11 78 9c 3c f2 db f0 3d c1 bf 1f be d0 7f e7 bd
       0.01910022 0.11760701 -0.15600492 -0.11303675
000220 40 e7 c4 3d 45 f6 15 be 13 d1 13 3e 5a 4d a8 3c
       0.0961442 -0.14644726 0.14435224 0.020544697
000230 5b cd f4 3d 49 32 3d bc 95 01 e9 bd c5 da b0 bd
       0.11953231 -0.011547633 -0.11377255 -0.08635477
000240 60 3f da bd 90 1b 8b bd 50 d8 e7 3d 01 c7 19 3e
       -0.10656619 -0.067923665 0.11320555 0.1501732
000250 ad b0 e4 bd 90 4c 93 ba c7 39 73 3b 7f 9a c5 3d
       -0.11166511 -0.0011238027 0.0037113295 0.096486084
000260 e9 5d 0c 3e 3f a7 e0 3d 85 3e 91 bd 85 80 b0 bd
       0.13707699 0.109694 -0.07092003 -0.08618263
000270 47 f2 aa 3c d5 29 14 3d 21 e3 99 39 37 60 84 bd
       0.02086748 0.036172707 0.00029351658 -0.06463664
000280 48 dd ae bd bc 98 28 3e 54 ff 4f bd 57 ba ea bc
       -0.085383 0.16464514 -0.05078061 -0.028653307
000290 83 76 0e 3e f3 50 e4 3d 27 1a a8 3d bf 77 2e bd
       0.13912396 0.11148252 0.08208113 -0.042594668
0002a0 a1 dd 5a 3d bb 89 48 bd b9 c7 17 3e 9e d6 5d bb
       0.053434018 -0.048959475 0.14822282 -0.0033849846
0002b0 f2 03 16 bd c7 23 85 3d e1 d8 e0 bd 5b 33 9e 3d
       -0.036624856 0.065009646 -0.10978866 0.07724639
0002c0 82 61 0c 3e 09 60 2c 3d ac 5b a2 3d f4 7c 45 bd
       0.13709071 0.042083774 0.07927641 -0.048214868
0002d0 7e 87 92 3d 2d 82 22 bd c8 ba 4b 3d 04 18 a7 bd
       0.07154749 -0.039674927 0.049738675 -0.081588775
0002e0 69 e3 f1 bc da 28 1b 3d 1a bf a4 3a 28 de db bd
       -0.029527383 0.037880756 0.001256916 -0.10735732
0002f0 2d a1 6c 3d 0f d1 de 3d 45 88 ae 3d 24 2b 75 3c
       0.057770897 0.108797185 0.08522085 0.014963899

lstm.bias_hh_l0 f4 [192]
000000 32 a8 dc 3d 4c 7e cb 3c 2b 7b ec bd 9a ff a8 bd
       0.10774268 0.024840496 -0.1154693 -0.08251877
000010 05 70 e2 bd ea 5d 1a 3e af 82 6d 3c 99 81 b1 3d
       -0.11056522 0.15074888 0.014496489 0.08667297
000020 4c 5d bd 3d f3 f3 c3 bd fb d6 9a 3d 0e 3d 97 3c
       0.092463106 -0.09568014 0.075605355 0.01846173
000030 b4 ae e4 bc 84 1a 9d bd 81 f3 42 3d b2 4b 14 3e
       -0.027915336 -0.07671073 0.047595505 0.14482
000040 32 4b cd bd 6d 8b 49 3e 78 c3 ea bd 17 9f 72 bc
       -0.10024108 0.19682093 -0.11463064 -0.014808438
000050 5e 76 45 3d 43 a1 a4 bd 50 d4 4c 3d 7d 81 15 3e
       0.048208587 -0.08038571 0.050007164 0.14600177
000060 a7 ad 89 3a 63 3d 93 3d 87 0e 0b 3d 0a fc b2 3d
       0.0010504023 0.07189443 0.0339494 0.08739479
000070 df 9b 7d 3d a6 00 20 3e 80 d1 07 bd c3 cb fb 3b
       0.06191623 0.15625247 -0.03315878 0.0076842024
000080 ef c4 13 3e a2 fd ad bd 00 e0 a3 3d fd 95 51 3d
       0.14430593 -0.08495642 0.08001709 0.05116843
000090 0a be 83 bb 38 64 c1 3d 06 ea 3b 3e e8 43 b9 bd
       -0.004020457 0.09442943 0.18350992 -0.09046155
0000a0 c4 49 2c 3e 79 be 08 bd 38 52 0e 39 2b 79 a5 3d
       0.16825014 -0.033384774 0.00013572804 0.080797516
0000b0 a9 db 2f 3d 17 82 98 3d 0b b3 de 3d 21 d7 2a 3d
       0.042934094 0.07446688 0.108739935 0.04170907
0000c0 80 11 0d be 2b c1 33 bb ed a2 f9 3d 5e c3 07 be
       -0.13776207 -0.002742837 0.12189279 -0.1325812
0000d0 0e 93 cd bd f9 7c 5c bd 4c c1 e2 3d e7 d2 ae bd
       -0.10037814 -0.05383012 0.11072025 -0.0853632
0000e0 fc 63 e5 3d 20 2f 72 bb 47 d3 82 bc 11 ab d5 3d
       0.11200711 -0.0036954358 -0.015969886 0.10433019
0000f0 d0 3b a3 bd bf 5a d5 3d 52 75 6d bd 9d c8 3c 3d
       -0.07970393 0.10417699 -0.057973213 0.046089757
000100 0d e2 10 be c2 54 72 3d 34 b0 c9 bb fe 53 22 3e
       -0.14148732 0.059162863 -0.0061550383 0.15852353
000110 04 a2 07 3e c9 47 98 3d 28 ef f8 bd 21 cc f5 3d
       0.13245398 0.07435567 -0.121549904 0.12001825
000120 32 08 df 3c e4 c1 4c bd 17 b6 53 3d c1 9c bc 3d
       0.027225588 -0.049989596 0.051687326 0.09209586
000130 4b fa 0b be 15 7d 23 3d bd 4d 84 3d 47 9e b5 3d
       -0.13669698 0.03991421 0.0646014 0.0886808
000140 4d 2f c0 bd 01 ea 04 3e 1d 0a 02 be 13 36 f0 bd
       -0.09384022 0.1297989 -0.1269917 -0.11729064
000150 77 92 d9 3d de 3b 98 bd 91 2a ad 3d d1 ac 93 bd
       0.10623639 -0.07433294 0.084553845 -0.072106965
000160 a1 a5 6a bd 8b ad 2f 3e b9 da a0 bd 89 67 0a 3e
       -0.057286862 0.17156045 -0.07854218 0.13516058
000170 61 a2 20 3e 2d 07 53 3d 56 d0 d0 3d 0f 47 9d bd
       0.15686943 0.051520515 0.10195987 -0.07679569
000180 28 87 97 3c 43 25 92 bd f5 e1 d6 bb e7 c0 09 be
       0.018497065 -0.07136013 -0.006557698 -0.13452493
000190 db 6e 95 bd 9c 19 ee bc 29 57 45 3d b8 39 88 bd
       -0.07296535 -0.029064946 0.048178826 -0.06651634
0001a0 0b d6 50 3d ff 93 28 bd 99 b9 9f 3d f7 52 b7 3d
       0.050985377 -0.041156765 0.07799072 0.08951371
0001b0 99 24 50 3d cb 68 ed bd 93 88 a1 bb 29 e2 65 bd
       0.050816152 -0.11592253 -0.004929611 -0.056123886
0001c0 00 57 b9 bd d4 d4 0b be 28 21 82 bc df 25 23 be
       -0.09049797 -0.13655406 -0.01588495 -0.15932415
0001d0 d7 a5 1b 3e e4 b6 b0 3d 08 1b 24 3d 6e 64 c6 3d
       0.15199982 0.086286336 0.04006484 0.09687124
0001e0 8d a9 ee bc 26 8d 8d 3d 0a b0 02 3b 93 0c ca 3d
       -0.029133582 0.069116876 0.0019941353 0.098656796
0001f0 76 a7 f6 3c 49 dd fb bd 6e cd 15 bc 57 fa 7d 3b
       0.030109148 -0.12298066 -0.009143217 0.003875395
000200 74 66 3b bd a8 d6 84 bc 56 70 d9 3b c7 fc 0d 3e
       -0.045752004 -0.016215637 0.006635706 0.13865958
000210 56 2c 16 bd a5 dd 58 bd 49 31 e1 bd 1a 45 f5 bc
       -0.036663376 -0.05294575 -0.109957285 -0.029940177
000220 ad be b4 3d f2 b3 09 3c 42 df 5d 3c d7 44 56 bd
       0.08825431 0.008404719 0.013541998 -0.052311745
000230 4b 68 e7 bd bf 4a 06 be ec ad 00 be c2 d3 f5 3d
       -0.11299189 -0.13114451 -0.12566346 0.1200328
000240 05 1c 22 bd 46 97 ce 3c 3c db b1 bd fb 0c 5e 3c
       -0.039577503 0.025218617 -0.08684394 0.0135528995
000250 59 f8 92 bd 5e 48 83 3d 36 56 59 bd 0b 33 c9 bd
       -0.07176275 0.06410287 -0.053060733 -0.09824189
000260 49 6f 9e 3d 0e 33 2c 3d b6 e6 8c 3d 16 58 ff 3d
       0.0773607 0.042040877 0.06879942 0.12467973
000270 97 9e 00 3e 7b 5c 9c bd d4 38 55 bd 3a c0 c2 bc
       0.12560497 -0.07634827 -0.05205615 -0.023773301
000280 71 db 03 bd a2 82 52 bd ee 5b 8f 3d 03 5e 1d 3e
       -0.032191698 -0.051394112 0.06999956 0.15367894
000290 10 ac d2 3d 52 aa b3 3d 50 05 26 bd 14 6f 25 bd
       0.102867246 0.087727204 -0.04053241 -0.040389135
0002a0 26 8f b7 bd 8d 8e f8 bc 76 1f 8c bd 70 a0 92 bc
       -0.0896285 -0.030341411 -0.06841938 -0.017898768
0002b0 52 5c 02 3e 27 29 d7 3d 57 27 ff 3d e3 0e 95 3d
       0.1273053 0.10505896 0.12458675 0.0727823
0002c0 62 7f 86 3d c6 7f 11 3e 3e a8 63 3c 2a 67 0a 3e
       0.06567265 0.14208898 0.0138950925 0.13515916
0002d0 fc c2 f2 3d 0b 35 a2 3d fa 2d 40 3e 8d c8 23 bd
       0.118535966 0.079202734 0.18767539 -0.039986182
0002e0 9d 4a 0c 3d 20 05 38 3e 60 64 ec 3c 16 57 15 3d
       0.034250844 0.17970705 0.028856456 0.036460005
0002f0 fc fe 20 3e b5 bc a1 3d 4e cb 99 bc 56 8d b6 3d
       0.15722269 0.07897321 -0.018773701 0.089136764

mlp.0.weight f4 [256, 54]
000000 e9 aa c6 bd 19 98 8c 3d 9e 66 b2 bd dd c8 2b bd
       -0.09700567 0.06864948 -0.08710979 -0.041939605
000010 c8 0f b2 bb 4c 91 ca 3c e0 d1 d7 3b b9 58 3e 3c
       -0.00543401 0.024727486 0.0065862983 0.011617833
000020 0a 6d bf bb ee 97 ea bd 20 8a 09 3c 8c cf 42 bc
       -0.005841856 -0.114547595 0.008394748 -0.011890303
000030 6f f0 85 bd d8 1d d5 3d 89 f5 98 3d eb 35 e3 3d
       -0.0654 0.10406083 0.07468707 0.110942684
000040 a1 a6 0b bd de 94 4f ba d4 ae 8d 3d 7c 0e 5b 3d
       -0.034094457 -0.0007918606 0.069181114 0.05348061
000050 f8 97 06 be 3c 8c 5d 3c 07 14 b7 3c 28 ce cf 3b
       -0.13143909 0.013522204 0.022348417 0.0063417144
000060 fa 57 b4 3d fe 00 22 bd b0 b1 56 3d 99 8e d5 bd
       0.08805843 -0.039551727 0.05241555 -0.10427589
000070 3b 91 ca 3c 4a 14 01 3e b1 65 9d bd 92 92 83 3d
       0.024727454 0.12605396 -0.07685412 0.064244404
000080 73 d4 52 3d 79 9a 05 3e 68 e3 b8 bd ef 51 8b bd
       0.05147214 0.13047208 -0.09027749 -0.06802737
000090 7c 46 a1 bd c5 fb a2 bd e0 08 d3 3d 79 1a 96 3c
       -0.07874772 -0.079581775 0.10304427 0.01832317
0000a0 5c 74 55 3d d5 07 c0 bd 39 ba e7 3c 5b 57 61 bd
       0.052112922 -0.09376494 0.02828704 -0.05501495
0000b0 bc c0 5e bd 8d a9 4f 3b fa 44 9e 3d 54 d5 12 39
       -0.054383025 0.0031686754 0.07728 0.00014003116
0000c0 72 a4 eb 3d ac 67 f0 bc 8a f5 85 3d ed 7c c8 bd
       0.11505975 -0.02934631 0.065409735 -0.09789453
0000d0 8f f1 4a 3d 9d cc 47 3b cd 9f 9c bc b7 c4 1c bb
       0.049546774 0.003048695 -0.019119168 -0.0023920962
0000e0 2e 46 9a 3d 63 b4 09 3e 3a d9 f8 bd ac 21 a1 bd
       0.07532917 0.13447718 -0.12150808 -0.078677505
0000f0 cf 61 fd bd a1 52 9a bc d6 0d a5 bc 3f 2a 0a 3e
       -0.12372171 -0.018838229 -0.020148199 0.13492678
000100 0a cd 44 3c 54 48 0f bd 08 32 d9 bd f8 52 de 3d
       0.012011776 -0.034981087 -0.10605246 0.10855669
000110 e1 8b 7e bd 89 9f 0e 3d 0d f4 c8 3d a5 cf cf 3d
       -0.062145118 0.034820113 0.09812174 0.10147027
000120 fb 40 a7 bd e7 24 e7 bd 41 50 9c 3d 11 24 8a 3c
       -0.08166691 -0.112863354 0.07632495 0.0168629
000130 bc ee bb 3d 9b ae c1 3c 93 78 16 bd 08 96 7d bd
       0.09176394 0.023642829 -0.036736082 -0.06191066
000140 2c f1 00 be f2 fb 03 be 30 04 cb bc 39 29 87 bd
       -0.12592 -0.12889078 -0.02478227 -0.065996595
000150 a7 de fe bb 03 ff e1 bd a3 1c aa bd 87 b0 82 3d
       -0.007778007 -0.11034968 -0.08306243 0.06381326
000160 92 22 fb 3c b0 76 04 be 67 4e e6 bd cb e4 cb bc
       0.030656133 -0.129359 -0.11245423 -0.02488937
000170 bb 78 6d 3d 95 f1 54 3d 6b e4 6c 3d c5 42 e0 3c
       0.057976466 0.051988203 0.057835024 0.027375588
000180 25 3f 24 bd 28 0e 04 bc 9e 5f ed 3d be 29 cc bd
       -0.04009928 -0.008060016 0.11590503 -0.09968899
000190 00 3c 90 3d 20 94 e8 bc 43 40 35 3d 5e 72 06 be
       0.07042694 -0.028390944 0.044250738 -0.13129565
0001a0 30 0b 20 3d 87 5d 19 bd 4c 59 5e bd f6 35 7e 3d
       0.03907317 -0.03744271 -0.05428438 0.06206318
0001b0 f4 af 83 3d 86 02 ae bd 06 84 59 3d 04 51 0d 3d
       0.06430045 -0.08496575 0.053104423 0.03450109
0001c0 81 c7 5a 3d 04 3f e5 3d 7a 06 9c bd b9 ef 82 3d
       0.053412918 0.1119366 -0.07618423 0.0639338
0001d0 ab 62 dc bd fc 34 df 3d 8d 1c 63 3d 5e 49 ab bd
       -0.10761007 0.10898778 0.05544715 -0.08363603
0001e0 db c2 6b bd a5 28 bb bd dd 19 4a 3d ff 2f 0d bd
       -0.057558876 -0.09138612 0.04934107 -0.0344696
0001f0 b3 71 00 3e 30 13 8a 3d ac 76 7d 3d b9 4a bd bd
       0.12543373 0.06741941 0.061880752 -0.09242768
000200 d1 b8 bc 3c 11 f5 38 3d b1 df 82 3d 04 da a6 bd
       0.023037346 0.04515559 0.06390322 -0.08147052
000210 47 de f6 bc d1 7e 09 be 5d bb d8 bd 1d a6 18 3d
       -0.030135287 -0.13427283 -0.10582612 0.037267793
000220 50 27 17 3d af 7c eb bd a9 c7 24 bb db 9a 51 bc
       0.036902726 -0.11498391 -0.002514342 -0.012793268
000230 35 c6 fc bd b5 85 5f bd 81 cc a1 bd e6 bc b6 bd
       -0.123424925 -0.054570872 -0.07900334 -0.08922748
000240 bf 79 96 3d 67 22 77 bd 97 93 f3 3d 14 66 eb 3c
       0.0734744 -0.060335543 0.11893385 0.028735198
000250 d8 fa f2 bb e4 e4 e6 3d 0d 85 4f bd ed 23 6b 3d
       -0.007415157 0.11274126 -0.050663996 0.05740731
000260 1f aa 9f 3d 58 4e fc bc 94 5f de bc eb 1e 63 3d
       0.0779612 -0.030799076 -0.027145185 0.055449408
000270 65 45 08 3e 7a 24 52 3d 4b 1c 9a bb 72 d3 05 3d
       0.13307722 0.051304318 -0.00470308 0.032672353
000280 1a 39 4e bd d6 fc 76 3d 9c db af bd 5c ac de bd
       -0.050347425 0.060299717 -0.08586809 -0.10872719
000290 c1 21 44 bd ce 48 8c bd f5 e9 8a bd a4 54 f6 bd
       -0.047883753 -0.06849824 -0.06782905 -0.12027863
0002a0 f6 03 17 bd f2 99 c3 bd d5 09 88 3c 1f 45 d3 3c
       -0.03686901 -0.09550847 0.01660625 0.025789795
0002b0 87 d3 51 3d 8d 2c a2 bd 5a 80 fb 3d b2 ed ee bd
       0.05122712 -0.07918654 0.122803405 -0.116664305
0002c0 59 82 de bd 55 ad 3f 3c 64 1e d0 3d 60 b7 aa bc
       -0.108647056 0.01169904 0.101620466 -0.020839393
0002d0 56 d7 2b 3d e5 3a d5 bd 12 88 88 3d e3 3a 01 3e
       0.041953407 -0.10411624 0.06666578 0.1262012
0002e0 95 dd e7 3b d5 04 d1 3d 4c 1c bb bd 0d 03 ff 3d
       0.007075975 0.10206 -0.091362566 0.12451754
0002f0 26 90 fc 3d f5 f7 38 bd c2 6e 05 3e ac 06 d7 3d
       0.12332182 -0.045158345 0.13030532 0.104993194
000300 a7 cf 65 bd fd 72 a5 3d 45 eb d3 3c c5 ca 55 3d
       -0.056106236 0.08078573 0.025869021 0.05219533
000310 ca 7c b5 38 1e 3b f6 3b c1 82 32 bd 38 e9 03 be
       8.653996e-05 0.0075143715 -0.043581728 -0.12881935
000320 44 a6 8a bd 31 50 f4 bd ae 09 d7 3d 7a 50 b6 3d
       -0.06769994 -0.11929358 0.10499893 0.089020684
000330 10 40 b3 3d 9f c9 8c 3d d4 3c 01 be b0 89 3d bc
       0.08752453 0.06874394 -0.1262086 -0.011568472
000340 38 90 5f 3d 5e 9c e5 3d 31 d9 f3 bd b8 86 0b bd
       0.054580897 0.11211465 -0.1190666 -0.034064025
000350 7e d6 e5 bc d4 c6 c6 3d b4 c7 82 bd 0d 2d 8d 3a
       -0.02805638 0.09705892 -0.063857466 0.0010770872
000360 13 46 bd 3d af 53 78 bd 4d 17 8b 3d 35 ae e1 bd
       0.09241881 -0.060626682 0.06791554 -0.110195555
000370 68 ec a1 bd 95 be 68 bd 25 79 bc 3c a9 41 a9 3d
       -0.07906419 -0.05682238 0.023006985 0.08264477
000380 e5 9e 80 3d 3d 62 10 be d1 78 00 3e 0d ef af 3d
       0.06280307 -0.14099975 0.12546088 0.08590517
000390 ef c1 36 bd 41 b1 94 3c 3d 32 03 be f3 c3 d4 bd
       -0.044618543 0.018150927 -0.12812133 -0.10388937
0003a0 3c 1f 3e 3d d1 c1 f4 bd f8 9f 5c 3d 67 c3 f1 3c
       0.046416506 -0.1195103 0.053863496 0.02951212
0003b0 7e a9 4a 3d a6 77 d5 bc 71 d5 c4 bd e6 a3 c3 bd
       0.049478047 -0.02605803 -0.09611023 -0.095527455
0003c0 77 28 d6 bd 22 db c8 3d f3 29 ef bd 76 ff ac 3d
       -0.10456937 0.09807421 -0.11677923 0.08447163
0003d0 51 ab c8 3d 9a 17 12 bd f3 6e ba 3c 56 53 4b 3d
       0.09798301 -0.03566704 0.022757983 0.049640022
0003e0 cf e0 65 bd 0c aa 01 3e 74 2a a7 3b 52 dc ef bd
       -0.056122597 0.12662524 0.0051014964 -0.11711945
0003f0 0c 6b 0c bd 6d 30 f8 3d 99 96 fe 3c d2 ad 63 3c
       -0.034281775 0.121186115 0.03107767 0.013896422

mlp.0.bias f4 [256]
000000 e3 43 df 3c ac 9c 80 3d ab 4e 90 3d 4b fe 2d 3d
       0.02725405 0.06279883 0.07046255 0.04247884
000010 80 71 fb bd a5 a9 bd 3d 4e 69 e8 bd c9 42 8f 3d
       -0.12277508 0.09260873 -0.1134821 0.0699516
000020 d2 e3 13 3d 36 78 d2 bd b2 c5 b3 3d ea 3b fe 3d
       0.03610594 -0.10276835 0.08777942 0.124137715
000030 c9 a9 03 3e 41 ba 7c 3d 3d f4 dd bd 12 6f f0 bd
       0.12857737 0.061701063 -0.108376004 -0.11739935
000040 f7 02 90 bd 77 1e da bd 94 75 8c 3d b8 11 bf bd
       -0.070318155 -0.10650342 0.06858364 -0.093295515
000050 1c 12 f4 3d 3e e7 05 be d9 2f 1f bd ea dd 97 bd
       0.119175166 -0.13076493 -0.03886399 -0.074153736
000060 4d 9c 9a bd 02 93 26 bb 58 05 c0 3d 5c 03 73 3d
       -0.07549343 -0.0025417213 0.09376019 0.059329376
000070 c3 2b 02 3e d4 02 9a bd d8 a1 e4 3d 2b 37 43 3c
       0.12712006 -0.07520071 0.11163682 0.011915009
000080 6a 05 8a bc 31 df 0a bd e2 13 c1 3d da 66 c5 3d
       -0.016848285 -0.03390426 0.094276205 0.09638758
000090 22 c3 4d 3d 4c 51 ca 3d ce 9e 90 bd 5d 51 fa 3d
       0.05023492 0.098787874 -0.070615396 0.1222255
0000a0 3a 6f 2f bd 54 e1 9e bd af ef 09 be ec cc 8f bd
       -0.042830683 -0.07757822 -0.13470338 -0.070215076
0000b0 dd bd 0b 3d 0b 09 9d 3d 0d 23 92 bd b6 6f 3b 3c
       0.034116615 0.076677404 -0.07135592 0.011440208
0000c0 06 8b 74 3d 1a 77 b4 3d 9f c9 ff 3d 4d 7e 1a 3c
       0.059702896 0.08811779 0.12489628 0.0094295265
0000d0 68 73 c1 3b 6d 59 32 bd 96 08 86 3d 16 85 7f bd
       0.00590365 -0.043542314 0.065446064 -0.06238278
0000e0 5f 15 cc bd 0b 3b c7 bd 13 98 b3 bd e7 fe 06 be
       -0.09965014 -0.097280584 -0.0876924 -0.13183175
0000f0 2d e9 d7 bd cd a1 fd bc 9f 93 16 3b 05 55 b6 3d
       -0.105425216 -0.030960942 0.0022976173 0.08902935
000100 d6 6e 40 bd b1 ac 60 bd 17 29 7f bd d9 8e 81 bd
       -0.0469807 -0.05485219 -0.062295046 -0.06326074
000110 35 34 42 3b e9 8b fe 3d be 01 df 3d 92 aa 2b bb
       0.0029633169 0.124290295 0.10889004 -0.0026194197
000120 eb 53 e8 bd 78 34 52 39 3e ef ea bd 25 fd af bd
       -0.11344131 0.00020046707 -0.11471413 -0.08593205
000130 2d 6d 09 bd da 03 06 3d 68 bb 69 3d ee af 65 bb
       -0.033551384 0.032718517 0.05706349 -0.003504749
000140 62 70 f5 bd 4c a1 f5 bd 42 69 b9 bd 3d fe 02 3e
       -0.11984326 -0.119936556 -0.090532795 0.12792297
000150 aa 48 fb 3d db 34 e4 3d 64 b0 0e 3d 51 25 7c bd
       0.12269719 0.11142894 0.034836188 -0.061559025
000160 79 de 8d bd 52 16 b8 3c 08 98 e1 bc a8 30 88 bd
       -0.06927199 0.02247158 -0.027538314 -0.066499054
000170 34 c4 cd 3d d2 47 f6 bd fb a3 d2 bd 1b 42 1f 3d
       0.100471884 -0.120254174 -0.10285183 0.038881402
000180 0b 4a 93 3d 9b c1 26 bd 04 7f f2 bd 5e 83 1c 3d
       0.07191857 -0.04071198 -0.118406326 0.03821122
000190 42 13 e3 3d ef f7 df 3d de f7 58 bd d8 73 0a be
       0.110876575 0.109359615 -0.05297076 -0.13520753
0001a0 76 41 fe bc 1e b3 bd bd ae 42 7a bb ff 90 bc 3c
       -0.031037074 -0.092626795 -0.0038186717 0.023018358
0001b0 29 35 3f 3d db 1a 64 bd 1f 9f b6 3d 0f b0 d1 3c
       0.046681557 -0.055689674 0.08917069 0.025596647
0001c0 fb 32 c5 3d fd 11 ff bd da 1d b5 bc 94 1e 83 bd
       0.096288644 -0.12454603 -0.02210896 -0.06402317
0001d0 e0 c5 a2 3d a4 a0 47 bc 62 5d d3 bc 87 4d cc 3d
       0.07947898 -0.012184296 -0.025801364 0.09975725
0001e0 38 67 fd bd 8e a9 f2 bb ae 3b 9b 3d e8 db f2 3b
       -0.12373203 -0.0074054664 0.07579742 0.007411469
0001f0 4b 9a 97 bd 8a e6 aa bb 6c 33 46 3c 3d 64 01 be
       -0.07402476 -0.0052154707 0.012097221 -0.12635894
000200 8d 47 b8 3b 13 7c 06 bd 74 59 9a 3d 2e c9 ce bb
       0.005623764 -0.03283317 0.07536593 -0.0063106036
000210 4d 5c 8c bd d7 13 c4 3d 3b bb 80 3d 0d 2f fa 3d
       -0.068535425 0.09574097 0.062857114 0.122160055
000220 50 7a ea 3c ce 10 83 3c f9 c9 17 3d b3 4f e4 3c
       0.028622776 0.015999224 0.03705785 0.027870035
000230 70 43 e6 bd a8 8b 93 3d 8e fe 1d bd e6 8a f2 bd
       -0.112433314 0.07204372 -0.03857284 -0.11842899
000240 a5 76 cd 3d a2 bf 02 bd a9 0b 05 bc f5 5b 2c 3d
       0.10032395 -0.031921037 -0.008120456 0.042079885
000250 63 06 6d 3d 63 3f 5a bd 66 07 c0 bd 3f 41 94 bc
       0.05786742 -0.053283107 -0.09376411 -0.018097518
000260 bc 1f fb bc 50 fa 9c bc af 7f bc 3d 11 71 bc bd
       -0.03065478 -0.019162327 0.09204041 -0.09201253
000270 49 95 15 3c 92 2b 8d 3c 52 e7 17 bd d1 af 6e bd
       0.009129831 0.01723269 -0.03708584 -0.05827314
000280 68 b2 92 3d 40 dc 2d 3d 5a 34 36 3d 03 9d b6 3d
       0.071629345 0.042446375 0.04448352 0.08916666
000290 c0 53 5b bd 38 5a 39 3d d9 fd 19 3b e0 47 0f be
       -0.053546667 0.045252055 0.0023497252 -0.13992262
0002a0 8f 7d af bd 55 93 38 bc ed c8 78 3d 20 31 e1 bc
       -0.0856887 -0.011265595 0.060738493 -0.027489245
0002b0 88 1b f3 bd 19 4f c3 3d 5d e5 17 3c 27 16 b1 3d
       -0.118704855 0.09536571 0.009270993 0.08646803
0002c0 40 b7 75 bb cb ad 4e bc cd f0 9c 3d f9 4c 22 3c
       -0.0037493259 -0.012614678 0.076631166 0.009906047
0002d0 d7 ac 27 bd 1e e4 d4 3d 2f d3 86 bc 79 20 a6 bd
       -0.040936317 0.103950724 -0.016458122 -0.081116624
0002e0 93 12 8a 3c e8 30 1e bc e3 08 b3 3d 03 52 0b be
       0.01685456 -0.009655215 0.087419294 -0.13605504
0002f0 78 9f 77 3d 43 95 04 3e 57 88 6a bd 7c 47 7b 3d
       0.060454816 0.12947564 -0.05725893 0.06134747
000300 6b 7b 8f bd c4 b6 b4 3d 97 88 76 3d b4 21 05 3e
       -0.07005962 0.08823922 0.060188856 0.13001138
000310 70 a6 d6 3c fc ec 59 bd b6 c8 05 3e 7b a8 00 3e
       0.02620241 -0.05320452 0.13064846 0.1256427
000320 b7 1a e7 bd 66 fb 93 3d 29 57 ad 3c f6 20 c4 bb
       -0.11284392 0.07225685 0.021159725 -0.0059853746
000330 63 be 95 3d 8d be 1d 3d 3e ae a1 bd 32 0a f5 bd
       0.07311704 0.0385118 -0.07894562 -0.11964835
000340 87 5f bb bd 69 65 d1 3d 9d 5b a5 3d 91 00 f4 3d
       -0.0914908 0.102244206 0.080741145 0.119141705
000350 e4 37 ad bd 41 6b a6 3d bc c5 ec 3d 0e fe 64 3d
       -0.08457926 0.08125926 0.11561152 0.055906348
000360 9d e9 f1 3d 56 6f b2 3d e8 30 29 3d 22 40 7a 3d
       0.11812136 0.08712642 0.041306406 0.061096318
000370 31 3d a1 3c 57 81 54 bd 0d 85 94 3c 53 f2 c4 bc
       0.019682499 -0.05188116 0.01812985 -0.02404133
000380 91 27 1b 3d 2f 09 00 be 02 67 02 be 3c a4 14 bd
       0.03787953 -0.12503503 -0.12734607 -0.03628944
000390 10 52 f2 3d e8 49 9f bd 4a 8d c6 3d 0e 5d dd 3d
       0.118320584 -0.077777684 0.096949175 0.108087644
0003a0 f8 9d 76 bc 88 e0 93 b8 88 97 42 bd be d1 93 3d
       -0.015052311 -7.0513284e-05 -0.047507793 0.072177395
0003b0 1d ff 6b bc 69 81 0f 3c 14 7e 95 3d e8 fa e6 bd
       -0.014404085 0.008758881 0.07299438 -0.11278325
0003c0 6c 59 5f bd 34 d8 63 3c 41 b4 17 bd 43 37 25 bd
       -0.05452864 0.013906527 -0.037037138 -0.040335905
0003d0 a4 b6 03 be 77 46 09 be e3 61 b4 ba 27 46 b5 bd
       -0.1286264 -0.13405786 -0.0013762083 -0.08851271
0003e0 66 e4 2f 3d 8f ef bd bd cb eb 63 3d 73 44 15 bd
       0.042942427 -0.09274208 0.05564479 -0.03644223
0003f0 94 c8 ae 3d ea 74 40 3d 87 e2 c0 3d f1 28 ee bd
       0.08534351 0.046986498 0.09418207 -0.11628903

mlp.2.weight f4 [128, 256]
000000 4e 7c 67 3d ea f6 1b 3d 6d 2b 02 3d 80 8b 6f bd
       0.05651503 0.038077272 0.031779695 -0.058482647
000010 ca 3a 3d bd 0e 6c 6d 3d 68 b7 36 3d 9b aa f4 3c
       -0.046198644 0.057964377 0.044608504 0.029866507
000020 3a 29 4b bc 42 dd 3d bd 23 32 44 3d 2d d5 a7 3c
       -0.012399966 -0.046353586 0.047899377 0.020487392
000030 a8 5d 1a 3c f8 87 d5 3c 2c 0c f5 bc 00 27 39 3b
       0.009421743 0.026065812 -0.02991303 0.0028252006
000040 c1 3e 25 bd ae 9e 02 3d b6 44 0c bd 08 de 27 bd
       -0.04034305 0.03188961 -0.034245215 -0.04098323
000050 e8 db 48 3d 7a 38 57 bc 09 36 e5 3c 62 b3 8b 3c
       0.049037844 -0.013136024 0.027979868 0.01705331
000060 34 30 61 bd ad 37 1d bd 6c 1a 82 3d 76 fa b0 bc
       -0.05497761 -0.038383175 0.06352696 -0.021603804
000070 79 03 41 3d 38 f1 1c 3c a9 5b a9 bc 23 9a 4b 3d
       0.047122452 0.009578995 -0.02067359 0.049707543
000080 68 4f 09 3d f0 c4 10 3c 82 aa e2 bc 83 43 9c 3b
       0.033522993 0.008836016 -0.027669195 0.00476879
000090 b2 d2 b6 3c 44 0a d4 bc 79 7f 76 3c 6e d4 8b 3d
       0.022317264 -0.025883801 0.01504504 0.06827627
0000a0 39 ec 32 bc b3 60 57 3b f3 b2 9d bc a5 d1 80 bc
       -0.010920578 0.0032864034 -0.019250369 -0.015724966
0000b0 34 46 2f bd 2e 48 aa 3c 27 5e 56 3d 38 6d b3 bb
       -0.04279156 0.020786371 0.052335884 -0.0054756664
0000c0 90 df 00 3d 95 4f 36 3d 01 2f ab 3a 49 81 da 3b
       0.031463206 0.04450949 0.0013060273 0.006668244
0000d0 7b fa 0e 3d 3c 3f 80 3d 7a 40 cf 3c 63 c6 d1 bc
       0.034906846 0.06262061 0.0252993 -0.025607293
0000e0 03 48 35 3d 34 ec 6f 3d 10 00 95 3c c6 0f 03 bd
       0.04425813 0.05857487 0.018188506 -0.031997465
0000f0 c1 27 a0 bc 75 ec fe 3b e8 c2 b9 bc 39 ed a3 bc
       -0.019550206 0.0077796527 -0.022675946 -0.020010578
000100 f5 25 26 ba 55 4c 39 3d 18 17 e9 bc 0a 5b 29 bd
       -0.00063380535 0.04523881 -0.028453395 -0.041346587
000110 6e a2 5f 3d 11 05 0a 3c db b4 c9 bc e4 af 12 bd
       0.054598264 0.0084240595 -0.024622371 -0.035812274
000120 8e e7 d0 3c 41 49 3f bc f9 da 1d bd 22 f9 3a bd
       0.025501039 -0.01167518 -0.038538907 -0.045647748
000130 0f 55 f6 bc c2 9b 19 3d 62 75 08 bc f9 10 ba bc
       -0.030069856 0.037502058 -0.0083287675 -0.022713171
000140 71 f9 8a 3b 04 93 2f 3d cd fc 98 bc 60 70 7c 3d
       0.0042411615 0.042864814 -0.018675232 0.061630607
000150 77 a1 0b 3d de e7 84 bd d8 cc 45 3b e6 68 aa 3d
       0.03408953 -0.06489538 0.003018191 0.08320789
000160 b6 88 30 bd d3 51 49 3d c0 f6 a7 bc 66 91 39 bd
       -0.043099128 0.0491503 -0.020503402 -0.04530468
000170 39 bd d1 3c 6d c7 ea 3c e8 c6 78 bd e7 ae 76 bd
       0.025602924 0.028659547 -0.060736567 -0.060225394
000180 c0 c6 9a bc c0 0b e3 bb 3f 7d fd bb 37 9f 2e 3c
       -0.0188936 -0.006928891 -0.0077358778 0.010658077
000190 60 b5 b5 bb 15 41 9f 3c 58 62 7b 3d 0c 82 1d bb
       -0.005545303 0.019440213 0.061373085 -0.0024033813
0001a0 4e 4e 0f bd 0e 7a 87 3d 6c 3b 73 3d a5 3a 2e bc
       -0.034986787 0.06615077 0.05938284 -0.010634099
0001b0 da 7e 73 3d 9c 63 2b 3d 39 16 1c 3c b8 96 75 3d
       0.059447147 0.04184304 0.009526783 0.05995819
0001c0 82 4b 83 3d 6f 30 03 3d 55 2e 36 bd 0e e1 ab 3c
       0.06410886 0.03202861 -0.04447778 0.020981338
0001d0 b3 2a 82 3d 71 44 82 bd c4 b5 33 bd c3 07 3e 3b
       0.063558005 -0.063607104 -0.043874517 0.0028996326
0001e0 00 5a f7 3a 33 47 89 bb 47 ef ce bc 70 f9 fb 3c
       0.0018871427 -0.004189396 -0.02526058 0.03075859
0001f0 d7 61 58 3d 4e 55 8e bc f8 ec 42 3d 96 c8 5e bd
       0.052827682 -0.01737466 0.047589272 -0.054390512
000200 5f bb 2d bb 60 a1 4b 3c d6 05 15 3d ba 30 0f 3d
       -0.0026509387 0.0124286115 0.03638252 0.03495858
000210 5f 96 96 bc 4a f3 0f bd e4 e4 27 3d 4d d3 61 3d
       -0.01838225 -0.035144128 0.04098977 0.055133153
000220 88 c6 19 3c e0 4f 9d 3b 3b 06 ba bc ae df 6f 3d
       0.009385712 0.0048007816 -0.022708049 0.058562927
000230 72 3c 80 bd 8d 47 1c 3c d6 9d 9b bc 3a ce 80 3c
       -0.06261529 0.009538543 -0.01899616 0.015723336
000240 d3 94 1b bd 54 fc 8a 3c 68 e9 5a 3d 97 2f 1f 3d
       -0.037983727 0.016966023 0.05344525 0.038863745
000250 94 f7 34 bd 8d 6e b3 bb 8b b8 1d bd d5 54 cf bc
       -0.04418142 -0.005475825 -0.038506072 -0.025309006
000260 0e 7a 21 bd 09 44 68 bd a8 70 e9 3c 30 86 25 3d
       -0.03942304 -0.05670551 0.028496101 0.040411174
000270 fb df f7 b8 f0 6c 82 3c cd 7e bc bc 2c ed 13 3d
       -0.000118195974 0.015921086 -0.023009682 0.036114857
000280 95 32 31 3d 00 9a 54 ba 54 47 6b 3d 51 db 88 3c
       0.04326113 -0.0008110106 0.05744107 0.01670614
000290 6f 0f dd bc 74 40 54 3d dc c1 79 3c 6f 0f 06 3d
       -0.026984898 0.05181928 0.015243974 0.032729562
0002a0 c2 18 67 bd 1a 34 98 3c 9a f0 d8 ba 6b 51 6e bd
       -0.056420095 0.018579531 -0.0016551197 -0.058183115
0002b0 d0 14 61 3d 5e 32 1f 3d 39 aa 2a bb 93 7b e0 3c
       0.05495149 0.038866393 -0.0026041402 0.027402675
0002c0 06 19 3f 3d c6 b6 69 bc fb 7c fd ba 41 af 19 bd
       0.046654724 -0.014264768 -0.0019339615 -0.03752065
0002d0 47 e0 76 3d 76 60 5e 3d 3c ce 05 bd 83 08 18 3d
       0.06027248 0.05429121 -0.032667384 0.037117492
0002e0 54 a7 4f bd 9f b4 e4 3c 00 e0 7f 3d e9 ff 6e bd
       -0.050696686 0.027918158 0.062469482 -0.058349524
0002f0 ec 9e f4 bc 76 4a 2a bd f1 13 31 3d 14 4d 9c 38
       -0.029860936 -0.041574918 0.04323191 7.4530166e-05
000300 70 e6 ad 3c 3f 4e 4d 3d 1f 37 b0 bc 3a 47 12 3d
       0.021228045 0.05012345 -0.021510659 0.03571246
000310 57 96 5d 3d cb 45 bc 3b 14 44 26 bd 35 59 7c 3c
       0.054098453 0.0057456247 -0.040592268 0.015402128
000320 44 83 32 3d 89 94 eb 3c 0e 83 51 3d 08 ae c7 bc
       0.043582216 0.02875735 0.051150374 -0.024374977
000330 1f ab 2f 3d eb a2 f3 3c 2c e0 57 bd 94 21 1a bd
       0.042887803 0.029740771 -0.05270402 -0.03762968
000340 9e 98 27 3d b2 2b 15 3c 80 9d 44 3d ec ed 88 3c
       0.04091703 0.009104656 0.048001766 0.016715012
000350 a7 b4 3f 3c ea df 86 bd ec b8 97 3c 49 9b 27 3b
       0.011700786 -0.06585677 0.018520795 0.0025574735
000360 02 90 0f 3d e1 6b 00 3d 9d 20 ac 3b eb 97 c7 bc
       0.035049446 0.03135288 0.0052529112 -0.024364432
000370 3c 82 68 bc fe 7a 83 bc 2c cd 93 3b 34 ee 7a 3d
       -0.014191207 -0.016049858 0.0045105424 0.061262324
000380 54 3a ba bc 3c bb 6a 3c 01 c6 66 bd 3b b3 1a 3d
       -0.022732891 0.014326867 -0.056341175 0.037768584
000390 44 6e 2c 3d 8b fb 93 3d 28 1f ae bb fd 8b 78 ba
       0.042097345 0.072257124 -0.0053137727 -0.0009481309
0003a0 f4 1a dc 3c ac 3f 02 3d f5 ae 26 bd ac d6 c4 3c
       0.026868321 0.031799003 -0.040694196 0.024028145
0003b0 a3 54 1a bc 31 c5 00 3d 93 5b 37 bc c2 3b 66 bd
       -0.009419593 0.031438056 -0.011191267 -0.056209333
0003c0 44 2b 41 bd 68 73 4f bc 80 df 52 ba 68 3e fa bc
       -0.047160402 -0.012661792 -0.00080441684 -0.030547336
0003d0 68 c6 22 bd 11 a5 bc bb a8 b8 9a 3c a8 41 d7 bc
       -0.039739996 -0.005756982 0.01888688 -0.026276425
0003e0 96 ea da 3c 94 ea ad bb 9c fa 5e bd fa b0 03 bb
       0.026723187 -0.005307505 -0.05443822 -0.00200945
0003f0 8e 4a b9 bc 1b 2b 12 bd c8 13 08 3d 00 51 55 3b
       -0.022618558 -0.03568564 0.03322199 0.00325495

mlp.2.bias f4 [128]
000000 70 42 4e bd fb 68 67 3d 50 88 d6 bb 9a 0c 7c bc
       -0.05035633 0.0564966 -0.0065470114 -0.015383864
000010 50 f9 23 3c 8c 58 a3 3c ed ec 24 bd fc b8 95 bc
       0.010008171 0.019939683 -0.040265013 -0.018276684
000020 18 5b 53 3c 85 40 96 bc fb 59 3c 3d 70 cc 96 bc
       0.012900136 -0.018341312 0.04598425 -0.01840803
000030 4c 6f c9 bc 80 80 37 bc 29 48 4a 3c 68 67 81 3c
       -0.024589203 -0.01120007 0.012346306 0.015796378
000040 d7 e2 a1 3c 40 c9 39 bd 67 66 05 38 6f bb fa 3c
       0.019761486 -0.045357943 3.180504e-05 0.030606953
000050 18 b8 2d 3c 78 8e 4a 3d 41 75 2f 3d 38 7a e9 bc
       0.010602973 0.049452275 0.04283643 -0.028500661
000060 15 51 13 bc fc 7e 4b bc 0f 00 9c 3c 00 88 de bb
       -0.008991499 -0.012420412 0.019042997 -0.006791115
000070 58 09 1b bd da 89 48 3d e8 33 64 3d 3b 94 2d 3d
       -0.037850708 0.04895959 0.055713564 0.04237769
000080 5c 62 61 bd 6c 3a 02 3d f3 b8 50 bd cc 26 14 bd
       -0.055025443 0.031793997 -0.05095763 -0.036169812
000090 e4 ce a7 3c d4 dd b9 3c 7a 8c 64 bd 8c 85 83 bd
       0.020484395 0.022688784 -0.05579803 -0.064219564
0000a0 04 4d b1 3c 22 bc 0d bd 12 50 1c bd cc fa 57 bd
       0.02164317 -0.034603246 -0.0381623 -0.052729413
0000b0 26 68 46 bc 43 aa 5b 3c 61 aa e1 3c bf 93 55 3c
       -0.012109792 0.013407293 0.027547063 0.013035714
0000c0 b7 65 37 3d e0 98 ac bb 9e 39 de bc d9 59 f9 3a
       0.044774737 -0.0052672476 -0.027127083 0.0019023969
0000d0 77 66 5d 3c 06 15 76 3b 16 68 bf bc 00 52 6b 3c
       0.013513199 0.0037549152 -0.023365062 0.014362812
0000e0 ae 4c 2b 3d be b1 71 3d 25 e5 60 3d 0a cb 1b 3d
       0.041821174 0.0590074 0.05490603 0.03803543
0000f0 ce 95 60 3c 38 9f 6d 3d 36 50 4d 3d 58 3a b9 3c
       0.013707591 0.05801317 0.050125323 0.022610828
000100 9d 7f 3c bc 60 15 4e 3d 50 26 f1 3b 78 40 36 bc
       -0.011505035 0.050313354 0.0073593035 -0.011123769
000110 fc 5f 5a 3c cb 85 7f bc 5c 65 12 3d 47 e3 ef 3b
       0.0133285485 -0.015595864 0.035741195 0.0073207947
000120 18 2e 7b bd 25 9e 12 bd 68 c3 79 bc 94 43 21 bd
       -0.061323255 -0.03579535 -0.015244342 -0.03937109
000130 ee ad 4d bd e8 df f4 bc 4c 85 07 bd 72 62 18 bd
       -0.0502147 -0.029891923 -0.033086106 -0.03720326
000140 43 49 ad 3b 51 3e 04 3d b2 3f c5 bc 18 cb 03 3d
       0.0052882745 0.032285992 -0.024078224 0.032176107
000150 16 b5 3c 3d b8 ca 65 3c 9e eb 27 3c 2f 9e 2a 3d
       0.046071135 0.014025383 0.010249047 0.041654762
000160 af ae eb 3c b0 44 48 bd ba 4c 07 3d 8c 5d 51 bd
       0.028769819 -0.04889363 0.033032157 -0.051114604
000170 40 ce 54 bd c6 52 68 3d 69 3a 66 bd 0e dd 26 3d
       -0.051954508 0.056719564 -0.056208048 0.040738158
000180 2d b5 62 3c 22 dd 09 3d 62 6b f4 3c 9b 64 4d 3d
       0.013837141 0.033658154 0.02983636 0.050144773
000190 48 cc 17 3d 1f 48 85 ba 5e b5 a8 3c ac 47 16 3d
       0.037060052 -0.0010168588 0.020594295 0.036689445
0001a0 90 70 7a 3c 9a ca 47 3d e0 ab a5 3b 4e be dc bc
       0.015285626 0.0487772 0.0050558895 -0.026946213
0001b0 ba b7 0e bd 16 07 5f bd c7 1d d2 bb c0 1a e0 3b
       -0.034843184 -0.054450117 -0.006412241 0.0068391263
0001c0 c0 73 a2 bb c4 b3 c9 bc 6f c2 12 3d ec 2c 69 bd
       -0.004957646 -0.024621852 0.035829958 -0.056927606
0001d0 80 b0 40 ba 4b 57 c9 3c 84 95 c8 bc d7 68 60 3d
       -0.00073505193 0.024577757 -0.024485357 0.054787483
0001e0 f1 3b e8 bc 9b 1f 1c 3c 22 45 62 bd 1c 04 08 bd
       -0.028348895 0.00952902 -0.05524171 -0.033207044
0001f0 cb 35 4c bc b4 ea 32 3d ad 3e a4 3c 2f 93 0c bd
       -0.012463997 0.04368086 0.020049417 -0.034320053
