weights/steps_590001.pth (torch, 276355 bytes, 10 tensors)

lstm.weight_ih_l0 f4 [192, 7]
-0.10121662 -0.095613584 -0.060851116 0.03634009 0.16447765 -0.09524389 -0.06178903 -0.102202564
-0.17770442 -0.07314501 -0.010083532 -0.003723474 0.05806139 -0.030092629 0.08796772 0.07145897
0.07561809 0.1224731 0.08490401 0.07282646 0.07357108 -0.11322289 0.014962939 0.12763248
0.22861175 0.15682626 0.08202195 0.102082126 0.1003003 0.06291968 0.02617961 0.039947554
0.037118807 0.1351796 0.0018757374 -0.014615965 -0.11344296 0.12116505 -0.043410864 0.11297769
-0.05230116 0.10082989 -0.122814395 0.014348979 0.06891096 0.14447768 0.15332396 -0.10109448
-0.063113675 -0.031489838 -0.06177339 -0.06942657 0.03297373 -0.05063536 -0.08593381 0.019095508
-0.100872755 0.021549111 0.057313062 -0.026987512 0.07354257 -0.0880679 -0.025806984 0.21853796
-0.04029464 0.079063915 0.09601818 0.0068371645 0.1261979 -0.034982815 -0.071505204 -0.09899644
0.047594093 0.18687241 0.16951436 -0.073344536 0.15829559 -0.14074533 -0.025030084 0.121797554
0.044854634 0.053096876 0.034833785 -0.0023242587 -0.004605171 -0.0052081444 -0.118287325 0.052303646
-0.010301949 0.02695728 -0.07116987 0.06871505 -0.033747837 0.066186644 0.04711514 -0.1248217
0.10674886 -0.12135026 -0.044075083 -0.05760259 0.10040488 -0.040670607 -0.0785563 -0.057729673
0.15704598 -0.17222176 -0.16283429 -0.0893104 0.10227477 -0.107509814 0.09775009 -0.090489544
0.08600403 0.13752069 0.054662775 -0.09430654 0.04760949 0.05600304 0.18200818 -0.07015503
-0.1639841 0.12613474 0.12551838 0.13007045 0.11567719 0.154986 0.020377353 -0.02723974
0.10046958 -0.04573976 0.21167995 0.11731696 0.09795653 0.12057045 0.20509458 0.1253128
0.055521637 -0.08868207 0.19652261 0.13134101 -0.04287049 0.023274457 0.08903847 0.12479356
0.08563826 -0.11591401 0.09494372 -0.04998637 -0.08340567 0.0331294 0.015346492 0.029069088
-0.059853606 -0.0058061318 -0.14193435 -0.11873157 -0.067658834 -0.001185576 0.076482624 -0.10771929
0.0055486397 -0.03808408 -0.012823865 0.0403204 0.10716103 0.15413426 -0.02346531 0.15310861
0.19493286 0.049254082 0.12255159 -0.0035495053 0.055152018 0.124471344 -0.04616635 0.17166467
0.12469539 0.101379745 0.21704294 0.069275655 -0.10884065 0.048573244 0.14979672 -0.084117875
0.09171022 0.15758814 0.121379636 0.066263765 0.13140225 -0.008009051 0.18215497 0.09366128
0.17037162 -0.04378142 0.16358407 0.063941866 0.07233701 -0.008925392 -0.04019679 0.01702399
0.13172254 0.01565651 0.16181383 0.16739966 0.026908606 0.121894695 0.092521384 0.057441276
0.14170276 -0.061682034 0.025389351 -0.1412123 0.1426392 0.06046537 0.08833514 0.047809605
0.16701837 -0.10971368 -0.06258025 -0.019207617 0.111116216 0.070686914 -0.12703252 0.17163146
0.057522755 0.14755005 0.050110564 0.096393496 0.1802466 -0.013143964 -0.030518739 0.05573768
0.0003718062 -0.002684561 0.12334822 -0.07511847 0.04327646 0.11287045 -0.11190681 -0.08263036
-0.008007089 0.05856803 -0.0007099174 -0.12195311 0.010240034 -0.14030944 0.10992578 0.07844098
0.055469472 0.14224064 0.0982715 -0.04067224 -0.13583048 -0.10271006 0.14721882 0.094063744
00000000: a94a cfbd 0ed1 c3bd 053f 79bd 59d9 143d
00000010: d46c 283e 3b0f c3bd 7e16 7dbd 944f d1bd
00000020: 26f8 35be 0dcd 95bd 6635 25bc 8705 74bb
00000030: c8d1 6d3d d184 f6bc 6c28 b43d 1559 923d
00000040: a8dd 9a3d 2dd3 fa3d 27e2 ad3d 0a26 953d
00000050: 6fac 963d 67e1 e7bd 1d27 753c 17b2 023e
00000060: 3319 6a3e 1097 203e 20fb a73d 6f10 d13d
00000070: 3e6a cd3d 08dc 803d 9f76 d63c 0ca0 233d
00000080: e409 183d 856c 0a3e 4edb f53a cd77 6fbc
00000090: c854 e8bd 6225 f83d 97cf 31bd d960 e73d
000000a0: be39 56bd e77f ce3d 1d86 fbbd fb17 6b3c
000000b0: 3021 8d3d f5f1 133e f500 1d3e 9f0a cfbd
000000c0: be41 81bd 7dfb 00bd 1806 7dbd 842f 8ebd
000000d0: 760f 073d 0667 4fbd 11fe afbd 2f6e 9c3c
000000e0: 6096 cebd c387 b03c 1ac1 6a3d ea14 ddbc
000000f0: 7d9d 963d f15c b4bd 2b69 d3bc 6ac8 5f3e
00000100: fe0b 25bd 43ec a13d 2ea5 c43d 4b0a e03b
00000110: 063a 013e 244a 0fbd 5271 92bd a5be cabd
00000120: 06f2 423d 7b5b 3f3e 2c95 2d3e a935 96bd
00000130: 3d18 223e 8b1f 10be e40b cdbc ff70 f93d
00000140: 7eb9 373d 1c7c 593d dfad 0e3d 9752 18bb
00000150: f9e6 96bb 15a9 aabb a040 f2bd 593c 563d
00000160: 82c9 28bc 83d5 dc3c 82c1 91bd 7aba 8c3d
00000170: 2c3b 0abd dd8c 873d cefb 403d 85a2 ffbd
00000180: 259f da3d 7c86 f8bd 1388 34bd b2f0 6bbd
00000190: 13a1 cd3d 3996 26bd 20e2 a0bd f375 6cbd
000001a0: a9d0 203e e75a 30be 08be 26be 5fe8 b6bd
000001b0: 6f75 d13d 1b2e dcbd 3331 c83d 9552 b9bd
000001c0: e222 b03d 39d2 0c3e 13e6 5f3d ca23 c1bd
000001d0: 2b02 433d 7263 653d 5a60 3a3e 71ad 8fbd
000001e0: 73eb 27be 7729 013e e487 003e 3031 053e
000001f0: 2ae8 ec3d a6b4 1e3e 68ee a63c e025 dfbc
00000200: ffc2 cd3d 9d59 3bbd a1c2 583e e043 f03d
00000210: 6f9d c83d a4ed f63d 5004 523e 0052 003e
00000220: a86a 633d f29e b5bd 393d 493e 427e 063e
00000230: f898 2fbd 13aa be3c cd59 b63d c493 ff3d
00000240: 1d63 af3d 5364 edbd da71 c23d 82be 4cbd
00000250: 98d0 aabd b2b2 073d da6f 7b3c 4c22 ee3c
00000260: 0e29 75bd 5d41 bebb 3d57 11be 8a29 f3bd
00000270: b790 8abd 5465 9bba eca2 9c3d ee9b dcbd
00000280: 5dd1 b53b 0dfe 1bbd 301b 52bc 0127 253d
00000290: 3e77 db3d 5fd5 1d3e 523a c0bc 81c8 1c3e
000002a0: 7b9c 473e a6be 493d 54fc fa3d d19e 68bb
000002b0: 15e7 613d d5ea fe3d ed18 3dbd ddc8 2f3e
000002c0: 4c60 ff3d 2fa0 cf3d 8140 5e3e 65e0 8d3d
000002d0: d9e7 debd bdf4 463d 5064 193e fe45 acbd
000002e0: 91d2 bb3d c95e 213e e395 f83d 4cb5 873d
000002f0: 508e 063e 6538 03bc d586 3a3e 7cd1 bf3d
00000300: e675 2e3e 2554 33bd 9582 273e f4f3 823d
00000310: 6d25 943d cf3b 12bc 64a5 24bd e575 8b3c
00000320: 46e2 063e 1542 803c 86b2 253e d16a 2b3e
00000330: 706f dc3c eda3 f93d da7b bd3d 8b47 6b3d
00000340: 871a 113e 4da6 7cbd 54fd cf3c f599 10be
00000350: 0310 123e 89aa 773d 0ee9 b43d 01d4 433d
00000360: dd06 2b3e 91b1 e0bd 132a 80bd 4b59 9dbc
00000370: e690 e33d 4dc4 903d d014 02be 28c0 2f3e
00000380: fb9c 6b3d 5c17 173e bc40 4d3d f469 c53d
00000390: 9192 383e c859 57bc 6f02 fabc 324d 643d
000003a0: fcee c239 76ef 2fbb fe9d fc3d b6d7 99bd
000003b0: a842 313d 9f28 e73d 662f e5bd 1b3a a9bd
000003c0: 2a30 03bc 08e5 6f3d c019 3aba 8dc2 f9bd
000003d0: d1c5 273c 47ad 0fbe c420 e13d aaa5 a03d
000003e0: f533 633d 88a7 113e 9142 c93d ef97 26bd
000003f0: 2517 0bbe a759 d2bd 88c0 163e 7ea4 c03d

lstm.weight_hh_l0 f4 [192, 48]
0.11785915 0.08331569 -0.11098958 0.043696612 0.05511686 -0.14714742 -0.18167397 0.0020526808
-0.046816606 0.059721235 -0.016518941 0.03404687 0.15133652 0.039630134 -0.062820025 0.10159212
-0.04138651 0.11156483 0.012567274 -0.13801816 0.0077151204 0.13555697 0.05925804 -0.04776848
0.008671255 0.034399007 -0.076932475 -0.007059122 -0.19756405 -0.138209 -0.055021286 -0.024990154
-0.038474772 -0.07509592 -0.067564845 -0.002932654 0.06602272 -0.09255514 -0.16491176 -0.0053817835
-0.07006684 -0.08013271 -0.21315564 -0.027587565 0.042130694 -0.10378401 -0.0154176485 0.08975616
-0.11070286 -0.04578545 -0.0897943 0.09475848 -0.054631215 0.0061185164 0.11747118 -0.15597676
0.030739833 -0.03749216 0.10604919 -0.03461991 0.1158664 -0.08521067 0.061377805 -0.054222483
0.11598401 0.12677462 0.007543087 -0.1746367 0.0996733 0.17777225 0.04507023 -0.067252174
0.018512283 -0.16169448 -0.04723667 -0.07921056 -0.14861122 -0.070009 -0.08155602 0.090136655
-0.14018232 -0.086417936 0.06549226 -0.02916657 -0.08983839 0.02047071 0.08566454 0.13620725
0.020902978 -0.033752 0.002228305 -0.05929442 0.026737966 -0.055178914 -0.16425191 -0.07555071
0.014703412 -0.12652479 0.14170279 -0.08757776 -0.15857682 -0.19815178 -0.116643354 -0.04036658
0.007918483 0.025723016 0.19014426 -0.030002788 0.09662886 0.07647478 -0.02084051 -0.096650906
0.09521548 -0.18326929 -0.086579934 0.00981545 -0.1538377 0.1056174 0.047802363 -0.13612758
-0.11987103 0.06561776 -0.18641216 -0.23319776 -0.16989912 -0.14454885 0.14597584 0.060456492
0.17102118 0.18466674 -0.0031333964 0.03757718 0.025460225 0.012127947 -0.030135913 0.20493221
0.04875568 0.091386594 0.026798056 0.22318369 0.033035144 -0.0583227 -0.16630398 0.009854428
0.035914525 0.01629297 -0.046864733 -0.002360875 -0.18735847 -0.23353073 -0.09629048 -0.21219938
-0.025535492 0.18626449 0.042805202 -0.14927265 0.13425371 0.046624877 0.027701309 -0.005425723
0.03643661 -0.11739612 0.16919167 -0.029839056 -0.01965639 0.20830272 -0.049492467 -0.13672946
-0.13632266 0.021077113 -0.012735362 -0.037129678 -0.12944816 -0.15826894 0.0884766 0.2052996
0.090937756 0.007866263 0.03176181 0.13992152 0.018685278 -0.12648961 -0.038834464 0.19700524
0.18240745 -0.1500055 0.0071546463 -0.05648621 -0.017140625 -0.09913864 -0.19112292 0.14403577
0.30633724 -0.13725439 0.2552456 -0.18177384 -0.24958678 -0.2373442 -0.2432019 -0.21560031
-0.0077887056 0.15314962 0.28763536 -0.019801341 0.01873431 0.15930925 0.23838176 -0.17479882
0.18426093 -0.31367522 0.24207275 0.094539896 -0.22452751 0.046154335 0.2540946 -0.21519275
-0.18689454 0.3223311 -0.2545875 -0.29283512 -0.05215223 -0.13808997 0.120447196 0.15356672
0.0710219 0.0315626 0.10997335 0.3733186 -0.05921181 -0.16140534 -0.0828264 0.104321785
0.19404851 -0.045510497 -0.20167509 0.16232789 0.08702589 -0.033511363 -0.3274105 0.095890254
0.053758085 -0.20809849 0.10591112 -0.0581445 -0.021394696 -0.2272495 -0.023932712 -0.004397193
-0.21265252 0.12891904 0.22059922 0.039577365 0.14797753 0.001142236 -0.059532396 -0.12513594
00000000: 2360 f13d 6ba1 aa3d 814e e3bd 38fb 323d
00000010: 37c2 613d d0ad 16be be08 3abe 4586 063b
00000020: c5c2 3fbd 419e 743d bb52 87bc bb74 0b3d
00000030: f6f7 1a3e 3553 223d c9a7 80bd 880f d03d
00000040: e784 29bd 1a7c e43d f8e6 4d3c a254 0dbe
00000050: 1fcf fc3b 72cf 0a3e 8fb8 723d e2a8 43bd
00000060: e111 0e3c f9e5 0c3d c68e 9dbd 3550 e7bb
00000070: 3b4e 4abe a986 0dbe 005e 61bd 27b8 ccbc
00000080: b997 1dbd e4cb 99bd 705f 8abd c531 40bb
00000090: eb36 873d 8d8d bdbd a1de 28be ac59 b0bb
000000a0: 347f 8fbd 9e1c a4bd 7945 5abe 51ff e1bc
000000b0: 3c91 2c3d b68c d4bd 4e9a 7cbc 14d2 b73d
000000c0: 2eb8 e2bd 8689 3bbd 13e6 b7bd bc10 c23d
000000d0: fbc4 5fbd d67d c83b bb94 f03d 5fb8 1fbe
000000e0: 1ad2 fb3c 6191 19bd 5130 d93d 9bcd 0dbd
000000f0: 5d4b ed3d ef82 aebd 4b67 7b3d 6518 5ebd
00000100: 0689 ed3d 35d1 013e 002c f73b f7d3 32be
00000110: 8421 cc3d ee09 363e 909b 383d 82bb 89bd
00000120: 12a7 973c 3d93 25be 3d7b 41bd 2539 a2bd
00000130: 8a2d 18be e160 8fbd d806 a7bd 9199 b83d
00000140: f48b 0fbe e3fb b0bd ce20 863d bbee eebc
00000150: 31fd b7bd 31b2 a73c e470 af3d ea79 0b3e
00000160: b93c ab3c 8a3f 0abd c108 123b b5de 72bd
00000170: 9409 db3c 4903 62bd a731 28be 55ba 9abd
00000180: 94e6 703c b78f 01be 891a 113e f85b b3bd
00000190: f661 22be 4de8 4abe b6e2 eebd 6d57 25bd
000001a0: 86bc 013c 13b9 d23c 2db5 423e 68c8 f5bc
000001b0: 5ae5 c53d cf9e 9c3d b8b9 aabc e9f0 c5bd
000001c0: 5500 c33d f2aa 3bbe d250 b1bd fbd0 203c
000001d0: a187 1dbe ef4d d83d 69cc 433d 0765 0bbe
000001e0: f17e f5bd 9b62 863d d4e2 3ebe 65cb 6ebe
000001f0: 09fa 2dbe 9d04 14be b17a 153e 3aa1 773d
00000200: 2d20 2f3e 4719 3d3e ab59 4dbb 87ea 193d
00000210: f691 d03c 4cb4 463c 97df f6bc c0d9 513e
00000220: 09b4 473d e528 bb3d 9987 db3c 448a 643e
00000230: dc4f 073d c9e3 6ebd 974b 2abe 7774 213c
00000240: 1c1b 133d d678 853c 3cf5 3fbd e9b8 1abb
00000250: e6da 3fbe ae22 6fbe f133 c5bd cb4a 59be
00000260: cf2f d1bc 1ebc 3e3e 8254 2f3d eeda 18be
00000270: ce79 093e baf9 3e3d dbed e23c 43ca b1bb
00000280: 8e3e 153d 616d f0bd 9540 2d3e 0971 f4bc
00000290: 7006 a1bc 4f4d 553e 9db8 4abd cf02 0cbe
000002a0: 2b98 0bbe e9a9 ac3c fba7 50bc 4a15 18bd
000002b0: 0f8e 04be 4111 22be 3833 b53d 0f3a 523e
000002c0: 933d ba3d 80e1 003c ac18 023d 9647 0f3e
000002d0: de11 993c 7e86 01be e310 1fbd bebb 493e
000002e0: 05c9 3a3e 0b9b 19be 8671 ea3b 165e 67bd
000002f0: 7f6a 8cbc 3309 cbbd bab5 43be 1d7e 133e
00000300: 3cd8 9c3e 6a8c 0cbe 8daf 823e ec22 3abe
00000310: ad93 7fbe 5c0a 73be eb09 79be 54c6 5cbe
00000320: 6638 ffbb 41d3 1c3e f144 933e 6c36 a2bc
00000330: b278 993c f721 233e 591a 743e 76fe 32be
00000340: e6ae 3c3e 0a9a a0be ebe1 773e 229e c13d
00000350: 8aea 65be 540c 3d3d b018 823e 7d5b 5cbe
00000360: 4861 3fbe 9508 a53e 4b59 82be 7cee 95be
00000370: 949d 55bd 7567 0dbe 05ad f63d 9840 1d3e
00000380: ee73 913d c947 013d b539 e13d 9e23 bf3e
00000390: 1588 72bd 7147 25be e3a0 a9bd a9a6 d53d
000003a0: a7b4 463e 3769 3abd ea83 4ebe 4839 263e
000003b0: a13a b23d 3643 09bd 59a2 a7be 1c62 c43d
000003c0: 7031 5c3d c517 55be eee7 d83d ed28 6ebd
000003d0: ee43 afbc 18b4 68be 890e c4bc 5416 90bb
000003e0: 95c1 59be 5a03 043e c3e4 613e e01b 223d
000003f0: 6c87 173e 15b7 953a 3ed8 73bd a323 00be

lstm.bias_ih_l0 f4 [192]
0.07144245 0.06297377 -0.042280823 -0.052446302 -0.0141947605 -0.045969065 0.0953414 0.07296144
0.08621513 0.12555966 0.043281052 -0.12279765 -0.03274302 0.070682034 -0.075417325 0.020651778
-0.04730566 0.06738553 0.20045952 -0.045097258 0.17514183 0.088210285 0.12796585 0.10142784
-0.034142066 0.071929425 0.13411278 0.10107935 0.013002491 0.050200734 -0.09125087 0.14832745
-0.077637345 0.011470231 0.13165988 -0.061086133 -0.1057431 0.12995353 -0.071008354 0.11944344
-0.0817343 0.21333298 0.101143055 -0.008131732 0.075969316 0.05095384 0.08940376 -0.08878449
0.0126673 0.05194051 0.021466287 0.13697423 -0.016122939 -0.10119338 0.13217473 0.18945104
0.006429228 0.09355701 -0.032448266 -0.100881785 2.18207e-05 0.03323374 -0.047133192 0.090948835
0.13691334 -0.02828284 -0.06468831 -0.07726917 0.086037815 0.19430691 0.041195568 0.14118344
0.036419727 -0.049639586 0.059899636 -0.017301336 0.08892772 0.048652194 0.08434116 -0.10727187
-0.008039313 -0.093484975 -0.06139966 0.15413056 -0.08882686 0.16225903 0.12010515 0.04129402
0.13693286 -0.009647137 0.12552784 0.056056812 -0.10637954 -0.093065806 0.029113509 0.06885177
0.050398514 0.028779728 0.113649964 -0.087106355 0.08334811 0.050652925 -0.019085811 -0.08292758
0.102382645 -0.010609443 -0.08262558 -0.15913446 -0.0051615 0.007073765 -0.02781273 0.12908907
0.10533043 0.13245483 0.05625723 -0.14906435 -0.043088958 -0.007683666 0.11682362 -0.1221143
0.037262514 -0.011539667 -0.076266535 -0.057575926 -0.1141474 -0.1410473 -0.03673894 0.116426356
0.058351815 0.087749794 -0.14015333 0.07135736 -0.039895367 -0.009883101 -0.1179976 0.11853917
0.07171658 -0.097637236 0.10028133 0.0012507756 -0.021378733 -0.109238364 -0.1597075 -0.018422157
0.19326405 0.13647169 0.11506039 0.16503406 -0.09132129 0.01759225 0.07395138 0.09746301
0.06792213 0.10605252 -0.081518516 -0.01041192 0.11486072 -0.030733481 0.18764105 0.1798493
-0.025210062 0.18854207 0.02784642 -0.035672612 0.11643568 0.17082256 0.11604518 0.028447742
0.036632463 0.2000989 0.15072007 -0.006807527 -0.0016937067 0.011614709 0.055221826 0.21606311
-0.03443791 0.12541285 0.2271492 0.048823833 0.12413965 0.13615873 0.20455933 -0.04767194
0.020357832 0.2683806 0.06336083 0.07287994 -0.0042155683 -0.028432969 0.1480638 0.085711956
00000000: 6b50 923d 64f8 803d a82e 2dbd efd1 56bd
00000010: 2491 68bc 0f4a 3cbd 5a42 c33d cf6c 953d
00000020: 8f91 b03d b692 003e 7947 313d 567d fbbd
00000030: 8c1d 06bd bec1 903d 6674 9abd eb2d a93c
00000040: 94c3 41bd 6d01 8a3d 4345 4d3e e7b7 38bd
00000050: 6158 333e 98a7 b43d 7b09 033e 66b9 cf3d
00000060: 8dd8 0bbd bc4f 933d dc54 093e b102 cf3d
00000070: 6608 553c 499f 4d3d bce1 babd 27e3 173e
00000080: 5400 9fbd a3ed 3b3c d9d1 063e 7435 7abd
00000090: d78f d8bd 8a12 053e d46c 91bd c39e f43d
000000a0: 5064 a7bd f673 5a3e 1724 cf3d f53a 05bc
000000b0: cd95 9b3d f9b4 503d 5219 b73d a5d4 b5bd
000000c0: 828a 4f3c 92bf 543d 11da af3c f942 0c3e
000000d0: 4114 84bc 7a3e cfbd d058 073e 74ff 413e
000000e0: 46ac d23b d19a bf3d 79e8 04bd 1c9b cebd
000000f0: 990b b737 1a20 083d bc0e 41bd 6243 ba3d
00000100: 0333 0c3e 6ab1 e7bc 4e7b 84bd 4c3f 9ebd
00000110: 9834 b03d 64f8 463e afbc 283d 6492 103e
00000120: da2c 153d e152 4bbd 5259 753d 88bb 8dbc
00000130: bd1f b63d 8647 473d 0fbb ac3d 5bb1 dbbd
00000140: 53b7 03bc 0d75 bfbd 367e 7bbd 67d4 1d3e
00000150: dbea b5bd 3b27 263e b0f9 f53d eb23 293d
00000160: 2138 0c3e 060f 1ebc 5f8a 003e d49b 653d
00000170: 84dd d9bd 4999 bebd 747f ee3c 2802 8d3d
00000180: ac6e 4e3d 77c3 eb3c 50c1 e83d d164 b2bd
00000190: 6ab2 aa3d 7179 4f3d d959 9cbc efd5 a9bd
000001a0: fead d13d 3bd3 2dbc 9a37 a9bd 25f4 22be
000001b0: cd21 a9bb 0bcb e73b 86d7 e3bc ed2f 043e
000001c0: 7bb7 d73d 3da2 073e fb6d 663d 53a4 18be
000001d0: 0c7e 30bd 43c7 fbbb 3941 ef3d 1017 fabd
000001e0: 94a0 183d df10 3dbc a131 9cbd bcd4 6bbd
000001f0: 1dc6 e9bd b46e 10be 927b 16bd f170 ee3d
00000200: 5002 6f3d 2ab6 b33d 5b84 0fbe cf23 923d
00000210: 5369 23bd bbec 21bc baa8 f1bd aac4 f23d
00000220: 24e0 923d 08f6 c7bd 4c60 cd3d 11f1 a33a
00000230: 7422 afbc 5db8 dfbd 5d8a 23be 10ea 96bc
00000240: 03e7 453e 3cbf 0b3e c8a4 eb3d b0fe 283e
00000250: a806 bbbd 9f1d 903c d273 973d b09a c73d
00000260: c21a 8b3d 1032 d93d 2ef3 a6bd c296 2abc
00000270: 193c eb3d c8c4 fbbc fa24 403e 6a2a 383e
00000280: 5585 cebc 2c11 413e 2d1e e43c 721d 12bd
00000290: d475 ee3d 1cec 2e3e 18a9 ed3d 3d0b e93c
000002a0: ec0b 163d bae6 4c3e 5d56 1a3e ad11 dfbb
000002b0: 5eff ddba 9f4b 3e3c 4830 623d a63f 5d3e
000002c0: c40e 0dbd 3a6c 003e cd99 683e 80fb 473d
000002d0: ee3c fe3d 326d 0b3e 0078 513e a743 43bd
000002e0: 78c5 a63c 2f69 893e 53c3 813d 1442 953d
000002f0: c022 8abb 42ec e8bc 099e 173e c089 af3d

lstm.bias_hh_l0 f4 [192]
0.096804485 0.09767794 0.06656329 -0.03574722 0.066264704 0.1471774 0.02661114 -0.0043053227
0.1493753 0.11015012 0.047499985 0.09893663 -0.06021031 0.12207973 -0.08979061 0.026274582
0.079505384 2.8146826e-05 0.12622721 -0.07829267 0.095633775 -0.09060482 0.007756325 -0.030245278
-0.04392715 0.13485241 -0.011381124 -0.031264957 0.09571237 -0.029321242 -0.1060476 0.10520838
0.124299996 0.071827054 0.17742264 0.1516812 -0.09875664 0.007862934 0.10024317 0.052979823
-0.0023316909 0.16929314 0.17760219 0.012973326 0.18075551 0.087409206 -0.06907093 0.12966426
0.1189972 -0.0955146 -0.09460566 0.011036056 0.04859269 -0.11704868 0.14265816 0.149288
-0.002403909 -0.13944235 -0.01434322 0.070902936 -0.0016231586 0.12994744 0.06284355 -0.08459492
-0.021137921 -0.009247993 0.15609713 -0.07537693 -0.080541894 0.18607631 -0.016542694 0.08331076
-0.029407172 -0.022910235 0.13061902 0.030762354 -0.13027954 0.108851574 -0.0007297809 -0.10769922
-0.063523665 0.08831048 -0.06768816 -0.024083214 -0.039875217 0.069878764 -0.04200132 0.03345136
0.057085346 0.12438196 -0.078651525 0.06579541 -0.12666573 0.123608135 -0.07794548 -0.01369697
0.087313145 -0.021973053 -0.008078649 -0.14261532 -0.031700164 0.02887197 0.03775296 0.017904885
-0.028619777 -0.1095858 0.024327861 -0.14224474 -0.0064623924 -0.06297457 0.06706692 0.090512685
0.020960424 0.09347899 0.071914986 0.053426784 -0.14823069 0.010551804 0.110595874 -0.07689295
0.037582345 -0.121849135 0.056639038 0.093691655 -0.11440021 0.025963223 -0.021692947 -0.121888965
0.00060410914 -0.07001248 0.10054987 0.0024525195 0.038585037 0.14442459 0.14096625 0.08224745
-0.11254266 0.0121048335 -0.0872397 0.016332202 0.011226911 -0.1706631 0.049446415 0.07684633
0.018952375 -0.00902317 0.14771552 0.1792355 -0.035676893 -0.006075531 0.007883018 0.07767395
0.18797803 0.02749119 0.005488934 0.1526182 0.07294052 -0.05789882 0.117875226 -0.031418543
0.02299898 0.16808796 -0.041646842 0.034918927 0.035328235 0.17003016 0.16639082 0.034791645
-0.097978 0.20640251 0.11924787 0.12750179 0.05259928 -0.04140928 -0.08253835 0.19688547
-0.07195778 -0.0808742 0.08485187 0.1869882 -0.07357548 -0.042154096 0.16962694 0.014513129
0.12794153 0.22937822 0.108100295 0.15560558 0.14460541 -0.07127044 0.13670205 -0.043448936
00000000: 6e41 c63d 5f0b c83d 5652 883d ad6b 12bd
00000010: cab5 873d acb5 163e 9bff d93c aa13 8dbb
00000020: d7f5 183e 6396 e13d 588f 423d 4a9f ca3d
00000030: 169f 76bd f004 fa3d 24e4 b7bd cb3d d73c
00000040: b8d3 a23d d91c ec37 b541 013e e857 a0bd
00000050: a4db c33d 058f b9bd c528 fe3b f2c4 f7bc
00000060: f5ec 33bd c016 0a3e e577 3abc af0f 00bd
00000070: d904 c43d 1a33 f0bc 7c2f d9bd 7e77 d73d
00000080: ff90 fe3d 101a 933d 48ae 353e 5152 1b3e
00000090: ec40 cabd 89d3 003c 4b4c cd3d 5f01 593d
000000a0: 48cf 18bb 2e5b 2d3e 59dd 353e 138e 543c
000000b0: f917 393e 9903 b33d 0f75 8dbd b5c6 043e
000000c0: ceb4 f33d 299d c3bd 9dc0 c1bd 93d0 343c
000000d0: 2109 473d 38b7 efbd fb14 123e f4de 183e
000000e0: e78a 1dbb fac9 0ebe d3ff 6abc 8f35 913d
000000f0: 2ac0 d4ba f110 053e 1fb4 803d 1a40 adbd
00000100: 6f29 adbc e584 17bc edd7 1f3e 385f 9abd
00000110: 26f3 a4bd ca8a 3e3e 8b84 87bc d59e aa3d
00000120: 4fe7 f0bc 3fae bbbc fec0 053e 5501 fc3c
00000130: 0068 05be 93ed de3d c44e 3fba 6991 dcbd
00000140: b218 82bd 20dc b43d 17a0 8abd 294a c5bc
00000150: 3254 23bd 991c 8f3d 9309 2cbd 4b04 093d
00000160: 53d2 693d f8bb fe3d 0d14 a1bd bebf 863d
00000170: a9b4 01be 4326 fd3d e1a1 9fbd 4269 60bc
00000180: 3cd1 b23d d500 b4bc 4f5c 04bc c009 12be
00000190: 08d8 01bd e984 ec3c d9a2 1a3d 44ad 923c
000001a0: 0674 eabc 856e e0bd 394b c73c 9ba8 11be
000001b0: 7ac2 d3bb d0f8 80bd 625a 893d b75e b93d
000001c0: 32b5 ab3c ea71 bf3d 2a48 933d 0bd6 5a3d
000001d0: c9c9 17be 79e1 2c3c 1780 e23d 0d7a 9dbd
000001e0: f2ef 193d 0a8c f9bd 56fe 673d 69e1 bf3d
000001f0: a84a eabd d3b0 d43c 68b5 b1bc eca0 f9bd
00000200: 145d 1e3a b462 8fbd 17ed cd3d 73ba 203b
00000210: 580b 1e3d 0ae4 133e 7559 103e 5a71 a83d
00000220: c47c e6bd 5a53 463c baaa b2bd 1ccb 853c
00000230: 14f1 373c 4fc2 2ebe 5388 4a3d 9c61 9d3d
00000240: 0342 9b3c ebd5 13bc bd42 173e 8389 373e
00000250: ef21 12bd 3f15 c7bb c627 013c 8513 9f3d
00000260: 507d 403e 3435 e13c 84dc b33b f247 1c3e
00000270: d761 953d 5027 6dbd 9168 f13d bbb0 00bd
00000280: 5b68 bc3c 401f 2c3e e195 2abd 2607 0f3d
00000290: 57b4 103d 631c 2e3e 5b62 2a3e af81 0e3d
000002a0: b1a8 c8bd 2e5b 533e 3a38 f43d d48f 023e
000002b0: 5872 573d c79c 29bd de09 a9bd 589c 493e
000002c0: 9a5e 93bd 5fa1 a5bd d1c6 ad3d d679 3f3e
000002d0: beae 96bd c6a9 2cbd afb2 2d3e 7ac8 6d3c
000002e0: 1b03 033e 20e2 6a3e b063 dd3d 1257 1f3e
000002f0: 7113 143e 3df6 91bd 9ffb 0b3e 83f7 31bd

mlp.0.weight f4 [256, 54]
-0.05206164 -0.09457902 0.10177926 -0.0084957 -0.018445164 0.059535693 0.005043777 -0.050325397
-0.1278642 -0.04676767 -0.022372177 0.13165225 -0.053584278 0.09278738 -0.10981101 -0.04792074
0.059699476 -0.021713316 -0.07578558 -0.03202458 -0.12588106 0.13573876 0.09246562 0.12674497
-0.13072136 0.047984112 0.032367863 0.025694884 -0.12793174 0.14681984 0.098523624 -0.11432276
0.02902394 0.090119 0.0011072397 0.119123995 -0.09530402 0.0325183 0.079648875 0.10427297
0.1252906 0.09256448 -0.08543155 0.0762089 -0.0353223 -0.08394449 0.03256852 -0.018108334
-0.022675 -0.033980194 0.022138493 -0.0393555 0.111784086 0.008760391 0.056272704 -0.08860893
-0.0599176 0.076686814 0.057334717 0.034401756 -0.012357284 -0.1656163 -0.028953735 0.07158223
-0.1584345 0.047362186 0.068187796 -0.06881672 -0.11958147 0.08040193 0.086473145 -0.11090458
0.012141333 0.12826644 0.17071618 0.05538297 0.01768905 0.032076746 0.15979488 0.09804928
-0.10455751 0.13416673 0.19432633 -0.06927912 -0.084349535 0.11885238 -0.0066480245 -0.1336946
-0.0433944 -0.16105688 0.14210202 0.14479773 -0.0730563 -0.041033633 0.09697984 0.058536626
-0.059158202 0.09151156 -0.1320433 0.21302573 0.081282765 -0.27485952 -0.17545883 0.0698276
0.14391117 -0.16882451 -0.15069194 -0.09869065 -0.09442233 -0.11760488 0.0890297 -0.12526836
0.08719685 0.08366794 0.13166797 -0.041275784 -0.062999524 0.004099791 -0.091423415 -0.05157341
-0.090487905 0.0029698643 -0.121243134 0.06161428 0.13233651 -0.050513264 0.12841403 -0.0947164
0.085067935 -0.12958057 -0.10346443 0.0038538026 0.18356305 0.15915637 -0.10256247 0.038366474
0.09099315 0.08786542 0.0879257 0.14857848 -0.05353571 -0.082336314 -0.14517629 0.05960654
0.100028 -0.005660266 0.024987862 -0.018007556 0.07164624 0.048212126 -0.060678568 -0.13246138
0.016605966 -0.032276627 -0.07227059 -0.03195497 -0.0112497015 0.1098186 0.021421557 -0.14791313
0.1173976 -0.07856225 -0.0035268685 0.009789131 -0.0649692 -0.05609679 -0.08279521 -0.10278298
0.0839198 -0.17527401 0.13555343 0.0567289 -0.13920754 -0.044799857 -0.1034869 -0.20878519
-0.071517356 -0.069454536 0.17415969 -0.07544811 0.035210364 0.14409345 -0.07451821 0.012100268
0.0048373975 0.015541173 0.10342053 0.11964576 -0.1930402 0.20379853 0.031303428 -0.03338011
-0.11013227 -0.090933025 -0.1018494 -0.115764044 -0.0708647 -0.1420382 0.061196394 0.103444375
0.104155414 0.0482876 0.17521548 -0.004793044 0.024128158 -0.13399728 -0.008916213 0.14164998
0.103253566 -0.23959486 -0.11471532 0.18157098 0.11332002 0.09309325 -0.10678237 0.0099036535
0.02618863 0.0026982569 -0.12438391 0.105914555 -0.04039158 0.038768854 -0.018858885 -0.11636123
-0.06562421 0.0005154618 0.042722914 -0.06300746 -0.021882148 -0.10836284 -0.08712026 0.08971408
-0.081824735 0.082040586 0.15771568 -0.009371178 0.014501872 0.04279537 0.022093046 0.007392561
0.07701993 0.18038069 -0.16013782 0.18953834 -0.027624248 0.08629047 -0.15312256 -0.065958984
-0.16820121 0.046969187 -0.09696367 -0.13312106 0.031212818 0.15401436 -0.09031686 0.13303722
00000000: 963e 55bd a5b2 c1bd a571 d03d 8c31 0bbc
00000010: 501a 97bc b3db 733d 4546 a53b 0122 4ebd
00000020: d5ee 02be 758f 3fbd db45 b7bc d9cf 063e
00000030: 307b 5bbd 4f07 be3d 98e4 e0bd 8a48 44bd
00000040: 7087 743d 20e0 b1bc 7835 9bbd 352c 03bd
00000050: f7e6 00be 1aff 0a3e 9d5e bd3d 6fc9 013e
00000060: d2db 05be fd8a 443d 2a94 043d 147e d23c
00000070: 8a00 03be f157 163e c1c6 c93d 0d22 eabd
00000080: 9dc3 ed3c 4f90 b83d cd20 913a 48f7 f33d
00000090: c12e c3bd e931 053d f31e a33d 118d d53d
000000a0: 2e4c 003e 7292 bd3d bdf6 aebd 6913 9c3d
000000b0: 1eae 10bd 17eb abbd 9266 053d ee57 94bc
000000c0: ecc0 b9bc d12e 0bbd c95b b53c 3c33 21bd
000000d0: 0eef e43d be87 0f3c 357e 663d 9978 b5bd
000000e0: 286c 75bd fa0d 9d3d cfd7 6a3d dbe8 0c3d
000000f0: 3576 4abc 5297 29be 6230 edbc b499 923d
00000100: a73c 22be dafe 413d 0ba6 8b3d c8ef 8cbd
00000110: 21e7 f4bd c4a9 a43d d518 b13d f121 e3bd
00000120: 71ec 463c 4758 033e 39d0 2e3e 41d9 623d
00000130: a0e8 903c e862 033d 45a1 233e 10ce c83d
00000140: 3f22 d6bd 0163 093e 7bfd 463e 36e2 8dbd
00000150: 73bf acbd e068 f33d acd7 d9bb 3de7 08be
00000160: 54be 31bd 18ec 24be 3183 113e db45 143e
00000170: 8b9e 95bd e212 28bd 5e9d c63d 1ac4 6f3d
00000180: df4f 72bd 6a6a bb3d 5c36 07be 6b23 5a3e
00000190: 9477 a63d 63ba 8cbe 7bab 33be c601 8f3d
000001a0: 735d 133e 55e0 2cbe fd4e 1abe 531e cabd
000001b0: 7f60 c1bd d4da f0bd 3455 b63d 5946 00be
000001c0: 4394 b23d 195a ab3d f8d3 063e cc10 29bd
000001d0: e505 81bd 8a57 863b 333c bbbd a43e 53bd
000001e0: b951 b9bd 0ea2 423b 524e f8bd 415f 7c3d
000001f0: 3983 073e ffe6 4ebd f87e 033e acfa c1bd
00000200: 1938 ae3d c5b0 04be 29e5 d3bd 1490 7c3b
00000210: f4f7 3b3e e3f9 223e 460c d2bd 2a26 1d3d
00000220: 9e5a ba3d c9f2 b33d 6412 b43d f524 183e
00000230: 4348 5bbd f19f a8bd 18a9 14be fd25 743d
00000240: 7bdb cc3d c179 b9bb 58b3 cc3c 9584 93bc
00000250: 44bb 923d 147a 453d 178a 78bd f5a3 07be
00000260: 3c09 883c 7f34 04bd 9a02 94bd 37e3 02bd
00000270: ab50 38bc 93e8 e03d 437c af3c 8a76 17be
00000280: 276e f03d 3fe5 a0bd 0923 67bb 9762 203c
00000290: 920e 85bd bfc5 65bd 8990 a9bd e27f d2bd
000002a0: 25de ab3d 087b 33be 85ce 0a3e 905c 683d
000002b0: 6c8c 0ebe 0e80 37bd f1f0 d3bd c9cb 55be
000002c0: b177 92bd 2e3e 8ebd eb56 323e 8a84 9abd
000002d0: be38 103d 3c8d 133e 019d 98bd 3440 463c
000002e0: 0883 9e3b 67a0 7e3c 25ce d33d d608 f53d
000002f0: 55ac 45be 90b0 503e 0638 003d 95b9 08bd
00000300: 078d e1bd 183b babd 6b96 d0bd b315 edbd
00000310: 8321 91bd 7672 11be 12a9 7a3d a5da d33d
00000320: 6f4f d53d 38c9 453d b06b 333e f80e 9dbb
00000330: 6aa8 c53c 9536 09be 4f15 12bc b10c 113e
00000340: 9b76 d33d 5b58 75be deef eabd beed 393e
00000350: 5414 e83d ada7 be3d b7b0 dabd ef42 223c
00000360: 8a89 d63c 3dd5 303b febc febd bbe9 d83d
00000370: a471 25bd 17cc 1e3d f37d 9abc cc4e eebd
00000380: fc65 86bd 0e20 073a 39fe 2e3d 0e0a 81bd
00000390: 3142 b3bc 56ed ddbd 1b6c b2bd 04bc b73d
000003a0: ba93 a7bd e504 a83d 3880 213e 9289 19bc
000003b0: 4299 6d3c 334a 2f3d 7afc b43c 4c3d f23b
000003c0: a0bc 9d3d b7b5 383e 2bfb 23be 5716 423e
000003d0: 3f4c e2bc 0fb9 b03d 29cc 1cbe 8115 87bd
000003e0: f03c 2cbe c362 403d e394 c6bd e350 08be
000003f0: 06b2 ff3c f1b5 1d3e 0cf8 b8bd e93a 083e

mlp.0.bias f4 [256]
0.025318697 -0.0917755 0.080050476 0.12824053 0.09388615 -0.11539076 -0.09332555 0.010442118
0.06306512 -0.13314706 -0.103344984 -0.11453978 0.095771015 0.13543768 0.009712665 -0.0069989488
0.005775448 -0.10112532 0.05246657 0.03489029 -0.010440525 -0.0028072125 -0.048171595 -0.06408697
-0.111256726 0.120744884 0.031472877 -0.023265313 0.05495954 0.048752565 0.07900103 0.1110379
-0.13540496 -0.080014646 0.026909556 -0.023656908 -0.06352449 0.13763559 0.04859775 0.03248258
0.016322903 -0.035164468 0.063567385 0.010423523 0.0032817961 0.015568392 0.005023235 0.040332343
0.16599557 -0.07286453 -0.08611039 0.1341855 -0.08678419 -0.109090924 -0.027577924 -0.06674942
0.015056945 -0.022911893 0.028134951 0.12842657 -0.1020372 -0.068920515 -0.012859068 -0.11749286
0.008546184 -0.09137598 -0.050626792 0.055534147 -0.10488941 -0.12636305 0.019979827 0.082055576
-0.13027355 -0.013563015 0.045081433 -0.017598204 -0.09102981 0.02927683 -0.016251424 -0.09008184
-0.12856743 0.13339514 -0.09484448 -0.1058734 -0.11554351 0.014326693 -0.04509728 0.12354853
0.020709159 0.12150696 0.07079603 -0.134514 -0.078824475 5.398907e-05 0.075364366 0.14996001
0.07208842 0.10207788 0.041344345 0.05903533 0.11535071 -0.052195378 0.033921 -0.02643434
0.035157416 -0.052014656 -0.08022098 0.004403617 -0.09590998 0.06003218 -0.023927705 0.12120511
-0.09334152 0.06294295 0.12895298 -0.02042028 -0.08371352 0.012134435 -0.05474622 -0.014148052
0.052443735 0.05100625 0.13334577 -0.045711063 0.054927424 0.04568731 -0.13400564 -0.1277386
0.04285773 -0.13932411 0.12174236 0.12166708 0.0561863 0.084935635 -0.11105107 0.04100637
0.06627947 0.016058497 0.11453608 0.042759243 0.12964047 -0.041126613 0.111746 -0.042414077
-0.08327846 -0.07824467 -0.123806976 -0.08968054 0.1082241 -0.058400515 0.03822465 0.149388
0.06388202 -0.082213596 -0.10324853 0.14864796 -0.0011736095 -0.029371286 -0.061996985 -0.021004682
0.05756541 -0.091489084 -0.02634451 -0.048615612 -0.058039177 0.0784529 0.036467362 -0.06724839
0.05894374 -0.112562925 0.038860053 0.015639372 -0.109907486 -0.060940992 -0.079741955 0.11800003
0.1423854 -0.12748258 0.18204121 0.111309506 -0.12498109 -0.12799956 0.14115609 0.03112279
-0.09657619 0.121275 -0.11655686 -0.048926063 0.045796372 -0.09075743 -0.08106113 0.09935274
0.12000907 0.042787097 -0.12442472 -0.0052608876 0.04473108 -0.0079571735 -0.078743175 0.03009501
-0.0034061805 -0.09401978 0.07689866 -0.12482384 -0.0859823 -0.0101739215 -0.049704056 0.039868124
-0.10584292 0.08941063 0.05020366 0.07963736 -0.008244915 -0.08842003 -0.032498408 -0.01961189
0.11980689 0.07141805 0.045370117 0.05207523 -0.092781 0.117340825 0.02453344 -0.05600292
0.03898371 -0.08769851 0.13484405 -0.0970356 -0.032622058 -0.08194559 0.086884946 -0.031723186
-0.017201064 -0.12833102 -0.015376296 0.025132006 -0.08870525 -0.02049419 0.060988564 -0.017787572
0.0018418389 -0.009905231 -0.089545056 -0.017909229 0.118041255 -0.081525095 -0.13311456 -0.1308274
0.04568388 0.007004283 -0.070519865 -0.03653967 -0.03626583 0.04786006 0.017627515 -0.0983513
00000000: 2869 cf3c cbf4 bbbd 81f1 a33d 7c51 033e
00000010: 6247 c03d fe51 ecbd 7721 bfbd 6b15 2b3c
00000020: 4928 813d b457 08be 89a6 d3bd d593 eabd
00000030: 9823 c43d 2db0 0a3e df21 1f3c 7057 e5bb
00000040: f83f bd3b cb1a cfbd 30e7 563d 1fe9 0e3d
00000050: bc0e 2bbc 36f9 37bb 944f 45bd 0840 83bd
00000060: 91da e3bd 1849 f73d b4e9 003d e696 bebc
00000070: 411d 613d c5b0 473d 4bcb a13d d767 e33d
00000080: 99a7 0abe b8de a3bd 6e71 dc3c 22cc c1bc
00000090: 2119 82bd 58f0 0c3e 6f0e 473d 740c 053d
000000a0: 9cb7 853c 9e08 10bd 9e2f 823d 6dc7 2a3c
000000b0: 6713 573b 9212 7f3c f399 a43b 8733 253d
000000c0: befa 293e 003a 95bd a55a b0bd ec67 093e
000000d0: e9bb b1bd 106b dfbd 19eb e1bc ebb3 88bd
000000e0: 68b1 763c b9b1 bbbc 457b e63c 4182 033e
000000f0: e1f8 d0bd 3326 8dbd d7ae 52bc 19a0 f0bd
00000100: 4b05 0c3c 5423 bbbd 0a5e 4fbd c677 633d
00000110: 42d0 d6bd 5165 01be bcac a33c c10c a83d
00000120: 6e66 05be 6837 5ebc 4fa7 383d 1c2a 90bc
00000130: d66d babd f6d5 ef3c b521 85bc d47c b8bd
00000140: 2ea7 03be bc98 083e d33d c2bd 27d4 d8bd
00000150: 13a2 ecbd 81ba 6a3c edb7 38bd 0307 fd3d
00000160: 41a6 a93c a4d8 f83d 82fd 903d 0abe 09be
00000170: ba6e a1bd 5372 6238 a258 9a3d 1e8f 193e
00000180: 18a3 933d 350e d13d b058 293d 08cf 713d
00000190: fe3c ec3d d2ca 55bd bff0 0a3d d48c d8bc
000001a0: 3901 103d 520d 55bd e64a a4bd 374c 903b
000001b0: 746c c4bd 4ee4 753d 0904 c4bc 623a f83d
000001c0: d729 bfbd 3ce8 803d 400c 043e 6e48 a7bc
000001d0: fe71 abbd 82cf 463c 933d 60bd 3bcd 67bc
000001e0: 3ecf 563d eeeb 503d cb8b 083e 863b 3bbd
000001f0: 94fb 603d 9e22 3b3d c638 09be e8cd 02be
00000200: 968b 2f3d fbaa 0ebe 0f54 f93d 972c f93d
00000210: 9b23 663d bcf2 ad3d be6e e3bd 4cf6 273d
00000220: 88bd 873d 1c8d 833c e491 ea3d 5124 2f3d
00000230: 79c0 043e 6174 28bd 16db e43d 62ba 2dbd
00000240: e68d aabd be3e a0bd 838e fdbd 6eaa b7bd
00000250: 99a4 dd3d 6135 6fbd 7391 1c3d 2bf9 183e
00000260: 94d4 823d 9a5f a8bd f773 d3bd 2c37 183e
00000270: cdd3 99ba 0d9c f0bc 8df0 7dbd 0312 acbc
00000280: b5c9 6b3d a15e bbbd 71d0 d7bc 2a21 47bd
00000290: 7dba 6dbd eaab a03d cd5e 153d 86b9 89bd
000002a0: fe6e 713d 6487 e6bd b82b 1f3d 241e 803c
000002b0: 2d17 e1bd 439d 79bd c04f a3bd 00aa f13d
000002c0: 7acd 113e cb8a 02be 0369 3a3e 3df6 e33d
000002d0: 16f6 ffbd 5112 03be 398b 103e 39f5 fe3c
000002e0: bdc9 c5bd 075f f83d 5db5 eebd b266 48bd
000002f0: fa94 3b3d 08df b9bd 6103 a6bd 7379 cb3d
00000300: 51c7 f53d 8641 2f3d 63d2 febd 8663 acbb
00000310: f037 373d ce5e 02bc 1a44 a1bd cf89 f63c
00000320: 3a3a 5fbb 718d c0bd 0b7d 9d3d a4a3 ffbd
00000330: 7d17 b0bd 85b0 26bc 7b96 4bbd c24c 233d
00000340: 2cc4 d8bd ec1c b73d 5aa2 4d3d ea18 a33d
00000350: ae15 07bc 9015 b5bd 0d1d 05bd 1da9 a0bc
00000360: 515d f53d a043 923d 04d6 393d d64c 553d
00000370: f703 bebd 6350 f03d 5afa c83c 5163 65bd
00000380: 62ad 1f3d 479b b3bd 8f14 0a3e 9aba c6bd
00000390: b59e 05bd 17d3 a7bd bcf0 b13d 2cf0 01bd
000003a0: 3fe9 8cbc 3569 03be dcec 7bbc a3e1 cd3c
000003b0: 19ab b5bd 6ee3 a7bc 25cf 793d 3eb7 91bc
000003c0: dc69 f13a 8d49 22bc 6663 b7bd 60b6 92bc
000003d0: 9dbf f13d a1f6 a6bd 2f4f 08be 9ef7 05be
000003e0: 051f 3b3d 2f84 e53b b86c 90bd 9faa 15bd
000003f0: 7b8b 14bd e908 443d 9467 903c 686c c9bd

mlp.2.weight f4 [128, 256]
0.022325382 0.02494863 0.06361753 -0.033391807 -0.043743704 -0.017176919 -0.03227656 0.05055919
-0.059402406 -0.011265238 -0.04456495 -0.033416763 0.018548926 0.06014574 0.03467637 0.0002066576
-0.009805233 0.023725208 -0.04899797 0.08259374 -0.058083363 -0.012443118 0.0024045242 0.047857497
-0.02915314 -0.007955057 -0.052167848 0.038879387 -0.011900536 0.021582978 0.045804963 -0.02681511
0.044961497 -0.049257386 -0.063726045 0.06593767 0.02608007 -0.010581556 0.028909724 0.00823159
0.010974422 0.041879967 0.05966545 -0.04795318 -0.049992483 0.000314644 0.057018206 0.01232466
0.031337097 -0.059302118 -0.03394931 -0.08487276 -0.0070303963 0.09984979 0.022430712 0.050541915
-0.062374763 0.042231582 -0.060246874 0.04177128 0.039830744 0.0021761288 0.06100949 -0.019946672
-0.0596817 -0.0024329377 0.009330855 -0.0018948251 0.02556919 -0.056544278 -0.026876353 0.013059586
-0.03603166 -0.10854082 0.026527114 -0.042602573 0.01242017 0.0046382262 -0.014586786 0.045739926
0.0785155 -0.042227436 0.06054679 -0.049728487 -0.04854102 -0.046083674 -0.04227412 -0.029697848
-0.021514494 0.012246951 0.0701213 0.04154867 0.046543792 -0.047851358 0.027963512 -0.019921906
0.013162045 0.09445726 -0.029645829 0.025021745 0.0048275595 -0.0029365874 -0.047043085 0.022781063
0.006770833 0.07617843 0.025939554 0.039878692 0.03581632 -0.009620021 -0.00078350346 0.04851345
-0.060290717 -0.0142796915 0.010922199 0.022287212 0.026823144 -0.021206059 0.06172178 -0.081720494
-0.049755313 0.009036407 0.00687074 0.01969896 -0.0566199 0.038526367 -0.05212824 -0.028961938
-0.045995194 -0.00811383 0.049066477 0.016502611 0.021762345 0.072921604 0.025999466 0.021813544
0.04876172 -0.046175074 0.0061141406 0.09205533 -0.0060126972 -0.01996 0.04642695 0.019493036
-0.038862478 -0.058807626 0.021628281 -0.07472523 -0.01607558 -0.00047738483 0.00064782554 0.011585696
0.03534426 -0.049547367 0.015253881 -0.040610075 0.06157665 -0.045508407 -0.071926564 -0.05155613
-0.027392503 0.05892998 -0.037086822 -0.05150309 -0.009785198 -0.03140517 -0.016329173 -0.077336624
0.04001397 -0.07509181 0.018004147 -0.023515072 0.09267402 0.050314203 0.006070563 -0.05790641
-0.05418878 -0.010490642 0.01559217 0.033523828 0.011525372 -0.00044600293 -0.025248185 0.0040820306
-0.052860275 0.041165967 0.06774014 0.0031808733 -0.033855688 -0.030441046 -0.034713 -0.04988118
0.04602954 0.023739109 0.0010029809 0.015816558 -0.026631493 -0.01999741 -0.0076381713 0.022701425
0.048035003 0.08350737 0.08026596 0.028492248 -0.03793145 -0.056173753 0.016049627 -0.050556354
-0.04798953 0.051902786 0.056471076 0.0033369886 0.112217106 -0.036495455 -0.056758318 0.028150588
0.05019959 0.007529244 -0.032184634 0.049818594 -0.047745112 0.057925068 0.11637322 -0.047444686
-0.011753401 0.027087333 0.0046325577 0.050206635 0.016395371 0.031002956 0.009476794 -0.042541742
-0.0062452783 -0.02854159 0.023715192 0.078407094 0.061427932 0.05626695 0.054098904 0.0024163227
-0.015639562 0.03742669 0.0027904874 -0.02987548 -0.067441806 0.0121944565 -0.0012649879 -0.0071244193
-0.03771177 -0.035923433 0.05148386 0.027833754 0.036086027 -0.02393887 0.02553615 0.0347662
00000000: b8e3 b63c 1261 cc3c e849 823d d9c5 08bd
00000010: 992c 33bd 9cb6 8cbc 6d34 04bd 2717 4f3d
00000020: f04f 73bd d591 38bc bd89 36bd 04e0 08bd
00000030: ebf3 973c 615b 763d cf08 0e3d 3ab2 5839
00000040: 21a6 20bc 5e5b c23c 18b2 48bd e826 a93d
00000050: d2e8 6dbd 38de 4bbc 3995 1d3b 3906 443d
00000060: 91d2 eebc ed55 02bc f4ad 55bd fe3f 1f3d
00000070: 77fa 42bc c9ce b03c fc9d 3b3d 5dab dbbc
00000080: 8c29 383d 1dc2 49bd cd82 82bd 540a 873d
00000090: dfa5 d53c 435e 2dbc 16d4 ec3c cadd 063c
000000a0: 10ce 333c 548a 2b3d c263 743d 8e6a 44bd
000000b0: ebc4 4cbd cef6 a439 ec8b 693d 5fed 493c
000000c0: 545b 003d c7e6 72bd 6f0e 0bbd c5d1 adbd
000000d0: 3d5f e6bb 0c7e cc3d 9dc0 b73c 0a05 4f3d
000000e0: ae7c 7fbd 06fb 2c3d 6dc5 76bd 5d18 2b3d
000000f0: 9025 233d 629d 0e3b 16e5 793d 3467 a3bc
00000100: cc74 74bd ec71 1fbb 71e0 183c c85b f8ba
00000110: 7a76 d13c f99a 67bd cc2b dcbc e0f7 553c
00000120: ef95 13bd a64a debd 644f d93c 0980 2ebd
00000130: f87d 4b3c 43fc 973b 6afd 6ebc ca59 3b3d
00000140: bccc a03d adf6 2cbd e9ff 773d 19b0 4bbd
00000150: f3d2 46bd 3cc2 3cbd a127 2dbd e748 f3bc
00000160: 2a3f b0bc 70a7 483c c29b 8f3d f02e 2a3d
00000170: b4a4 3e3d c9ff 43bd bc13 e53c 4433 a3bc
00000180: 9ea5 573c cf72 c13d cfdb f2bc 67fa cc3c
00000190: 8130 9e3b c373 40bb 40b0 40bd 5a9f ba3c
000001a0: dddd dd3b 7003 9c3d 307f d43c d757 233d
000001b0: 22b4 123d 4b9d 1dbc 0764 4dba 0ab6 463d
000001c0: 66f3 76bd 5ef5 69bc 06f3 323c ac93 b63c
000001d0: 36bc db3c 54b8 adbc facf 7c3d 135d a7bd
000001e0: 3acc 4bbd 700d 143c f223 e13b b75f a13c
000001f0: 45ea 67bd d3cd 1d3d 6c84 55bd 9641 edbc
00000200: 7565 3cbd dfef 04bc eef9 483d 7c30 873c
00000210: f246 b23c ec57 953d d5fc d43c 51b2 b23c
00000220: 5fba 473d 1322 3dbd 2159 c83b 8187 bc3d
00000230: 2906 c5bb 2783 a3bc 2f2a 3e3d dcaf 9f3c
00000240: 432e 1fbd 44e0 70bd cb2d b13c 8b09 99bd
00000250: efb0 83bc 8249 fab9 d6d2 293a eed1 3d3c
00000260: 25c5 103d 2ef2 4abd 6aeb 793c c056 26bd
00000270: cc37 7c3d 0667 3abd 3c4e 93bd 852c 53bd
00000280: 3e66 e0bc 9060 713d 5ae8 17bd e7f4 52bd
00000290: 1852 20bc b5a2 00bd c2c4 85bc aa62 9ebd
000002a0: b0e5 233d bcc9 99bd 6f7d 933c aea2 c0bc
000002b0: e0cb bd3d 4416 4e3d 93eb c63b 462f 6dbd
000002c0: 0ef5 5dbd f1e0 2bbc 4d76 7f3c 4850 093d
000002d0: ead4 3c3c 80d5 e9b9 48d5 cebc 8ec2 853b
000002e0: 0484 58bd a59d 283d 58bb 8a3d 3376 503b
000002f0: 43ac 0abd 805f f9bc 382f 0ebd 3550 4cbd
00000300: 7989 3c3d 8578 c23c 7476 833a ba91 813c
00000310: 4a2a dabc 9cd1 a3bc a049 fabb 57f8 b93c
00000320: 5ac0 443d e905 ab3d 7b62 a43d 9368 e93c
00000330: 025e 1bbd 7316 66bd 827a 833c 2e14 4fbd
00000340: ab90 44bd 0498 543d 374e 673d 61b1 5a3b
00000350: 15d2 e53d 427c 15bd 697b 68bd 109c e63c
00000360: 169e 4d3d e0b7 f63b 09d4 03bd 950e 4c3d
00000370: 6190 43bd d642 6d3d 1555 ee3d 5c55 42bd
00000380: 5691 40bc 41e6 dd3c b6cc 973b 79a5 4d3d
00000390: 964f 863c e9f9 fd3c 8e44 1b3c 4040 2ebd
000003a0: 31a5 ccbb 0dd0 e9bc 5d46 c23c e693 a03d
000003b0: db9b 7b3d 2c78 663d d096 5d3d 2b5b 1e3b
000003c0: 8a1e 80bc bb4c 193d 9ce0 363b 6cbd f4bc
000003d0: ee1e 8abd 42cb 473c f3cd a5ba f673 e9bb
000003e0: a877 1abd 7324 13bd bde0 523d 9d03 e43c
000003f0: f1ce 133d 731b c4bc 3031 d13c 0167 0e3d

mlp.2.bias f4 [128]
0.055041805 0.03789771 -0.05401703 -0.0030678206 0.012585831 -0.017517127 0.04672031 0.014119085
0.0059200544 0.029493935 -0.038113892 -0.044812303 -0.026169054 -0.03757426 0.012002769 -0.03880338
-0.059746478 -0.040684633 -0.016801044 -0.019682784 0.0014586503 0.004950599 -0.057326693 -0.013154173
0.030226467 -0.0097474605 -0.017191546 0.07034652 -0.049729288 -0.02072153 0.09344966 0.026323922
-0.06850372 0.044364195 -0.02292787 -0.026430747 -0.01906669 -0.026844798 0.039138988 0.045128122
0.054046106 -0.043305602 0.066222064 -0.03518028 0.060696468 0.047756925 0.047628954 -0.05400049
0.01016438 0.05997571 -0.0057812855 -0.043639217 0.025880763 0.011287941 -0.015709115 0.033630673
0.05068119 0.029753033 -0.010813069 0.0033799156 -0.044515327 0.0006356523 -0.030643629 -0.062459968
0.03210516 0.024473881 -0.032318443 -0.051338743 -0.064321406 0.079881094 -0.0313922 0.0027946564
-0.058555424 0.042946428 0.04492297 -0.016393714 0.02763426 0.056663826 0.050087277 0.059130646
-0.04774016 -0.0072860625 0.057978313 -0.031980358 -0.029889328 0.02716336 0.038731843 -0.03103505
-0.07027687 -0.042888638 -0.036870465 0.0046734237 -0.018626347 0.012156999 0.024881534 -0.006049007
0.035322785 0.0082227215 0.013685626 0.03676569 0.031270668 0.067525715 0.050803613 0.07325779
0.052735873 0.025135994 -0.014872203 0.09924039 0.013947807 0.050180204 0.06547165 -0.022215318
0.01971535 0.022894999 -0.02380885 -0.021718992 0.077368826 0.053829018 0.0029713227 0.048963606
-0.04099273 -0.03702644 -0.008096213 -0.044419862 -0.06249597 0.05544884 -0.046342164 0.012110074
00000000: 8473 613d a13a 1b3d f640 5dbd 7d0d 49bb
00000010: cd34 4e3c 1480 8fbc cc5d 3f3d bc53 673c
00000020: 04fd c13b 449d f13c 501d 1cbd 1b8d 37bd
00000030: 7c60 d6bc 78e7 19bd 43a7 443c 4bf0 1ebd
00000040: b9b8 74bd eea4 26bd 58a2 89bc ca3d a1bc
00000050: 2f30 bf3a a238 a23b 65cf 6abd 9a84 57bc
00000060: 7f9d f73c d0b3 1fbc 49d5 8cbc d611 903d
00000070: f0b0 4bbd 33c0 a9bc 8962 bf3d 44a5 d73c
00000080: ae4b 8cbd 3bb7 353d 3ad3 bbbc 4b85 d8bc
00000090: bf31 9cbc 9fe9 dbbc 3450 203d 44d8 383d
000000a0: 735f 5d3d 3761 31bd 6f9f 873d 3319 10bd
000000b0: dc9c 783d c49c 433d 9416 433d 9e2f 5dbd
000000c0: 8088 263c 17a9 753d f070 bdbb 09bf 32bd
000000d0: e503 d43c 0ef1 383c 67b0 80bc 51c0 093d
000000e0: 1497 4f3d a2bc f33c 4c29 31bc 9381 5d3b
000000f0: b455 36bd e7a1 263a 5908 fbbc 06d6 7fbd
00000100: b380 033d 737d c83c 5860 04bd 9348 52bd
00000110: f1ba 83bd b398 a33d 1c95 00bd 8e26 373b
00000120: d0d7 6fbd 98e8 2f3d 2601 383d 1c4c 86bc
00000130: 3e61 e23c 5418 683d 5128 4d3d fa32 723d
00000140: 308b 43bd ecbf eebb ab7a 6d3d d6fd 02bd
00000150: 77da f4bc b285 de3c 48a5 1e3d 383d febc
00000160: 52ed 8fbd ffab 2fbd 7c05 17bd 8523 993b
00000170: 4896 98bc 262e 473c 5cd4 cb3c c036 c6bb
00000180: a0ae 103d 98b8 063c ad39 603c 9f97 163d
00000190: ac15 003d ec4a 8a3d 7317 503d 2e08 963d
000001a0: 9201 583d 00ea cd3c 8aaa 73bc 8c3e cb3d
000001b0: 5885 643c c289 4d3d 0016 863d e6fc b5bc
000001c0: 1682 a13c 4b8e bb3c c70a c3bc 07ec b1bc
000001d0: 8c73 9e3d d17b 5c3d 86ba 423b 108e 483d
000001e0: fee7 27bd 09a9 17bd fba5 04bc 9af1 35bd
000001f0: c6fb 7fbd 531e 633d 48d1 3dbd 5569 463c

mlp.4.weight f4 [80, 128]
0.02848432 -0.029249571 0.04902052 -0.050390813 0.0698629 -0.06823877 0.080747284 0.045493506
0.0051347003 0.07275016 -0.015922328 -0.043028854 -0.05932346 0.057255108 0.027710797 0.103957
-0.022995448 0.0006578618 0.070007935 0.028346252 0.00559144 -0.04249708 0.07190533 0.08787865
-0.026111946 0.028922705 0.06628556 0.01096919 -0.06549994 0.07499008 0.05371179 0.09081066
-0.023579288 0.10845034 0.009647758 -0.056830946 -0.039577026 0.06976298 -0.007593035 -0.035430714
-0.00840893 0.027910436 -0.015106592 0.028499972 0.019837057 0.0058449567 -0.086662166 -0.061015043
-0.086933725 0.09849937 0.03734157 0.05870652 0.04867572 -0.0053889416 0.08392118 0.012409154
0.04617533 -0.050942797 -0.06304581 0.020996716 -0.07588919 -0.076450676 0.0052493373 -0.00081951387
0.026848566 0.04508948 0.062364805 0.027712902 0.015431651 0.03945552 -0.011220116 -0.038838945
0.042513017 0.08836632 0.006663775 -0.01752042 0.09059683 0.051425222 0.048151214 -0.08269337
-0.025482586 0.05799955 -0.06718527 0.02684123 -0.012435292 0.036279052 0.102570586 0.030725889
0.08764011 0.07079965 0.03806382 0.049024384 0.08358737 0.07902282 -0.02305237 0.020810533
0.01639759 -0.05755169 -0.057736505 0.06647303 -0.003640294 -0.01295292 -0.003564991 0.081578724
0.099732116 -0.03427033 -0.013527942 -0.063598275 0.0059363656 0.016294073 0.07959542 0.047811292
0.004655061 0.022714779 -0.0019029729 -0.03191159 0.050371923 0.0679126 0.031225236 0.01080995
0.025901455 0.0364987 -0.03238618 0.011834878 0.07933396 0.014189492 -0.0012730455 -0.0009356185
-0.03723408 -0.01550412 -0.02927496 0.06217639 0.03353929 0.1025285 -0.04488968 -0.017605996
-0.029085496 -0.04522601 -0.06258633 -0.009359864 0.051547434 -0.007883037 -0.011465428 -0.035114616
-0.077749394 -0.029985227 0.08807352 0.093184486 0.047886424 0.017437994 -0.06197332 -0.034267943
0.013126753 0.017432157 0.018798666 -0.005876059 0.111129045 -0.05314012 0.02049391 0.02371472
0.049489815 -0.060756166 -0.046798367 0.0379476 0.07407615 0.080291 0.090354376 0.09503274
0.027103117 0.08813769 0.06971473 0.05771055 0.0425061 0.07375731 0.076978184 0.015408571
-0.052827142 0.0456792 -0.06635073 0.04786597 0.10024517 -0.064468615 0.06282418 0.030145999
0.09069675 -0.007754098 0.005001224 0.06355184 -0.074884266 -0.085033156 -0.070596255 0.009856567
-0.004356202 0.06488675 0.0062160385 0.038379338 -0.082893886 0.084075995 -0.011304812 0.09082756
-0.01189674 0.08568245 0.037234474 0.10365425 0.023094293 0.08394038 0.015462266 -0.009240823
0.026935419 0.03665419 0.03453212 0.068284094 0.04099811 0.021436077 0.0027801222 0.051640872
0.02187659 -0.06771508 0.015893413 -0.0050932677 -0.040044934 -0.06437525 -0.061707508 0.054506063
0.024250505 0.00047522679 0.080761455 -0.044541117 -0.023533415 0.09742325 -0.07540849 0.07675444
0.0920896 0.10987858 0.0055826735 0.046543818 0.013053822 0.07998103 0.03956392 0.03578405
-0.056838762 -0.034369096 0.07901632 0.099417135 -0.024653077 0.06702377 -0.009640409 -0.011324837
0.06185412 -0.015807755 -0.035633396 0.025491029 -0.0024971375 0.09072947 0.045030113 0.030025218
00000000: f357 e93c cc9c efbc bec9 483d 9966 4ebd
00000010: 4814 8f3d c5c0 8bbd d55e a53d 6657 3a3d
00000020: fd40 a83b 09fe 943d 8b6f 82bc 063f 30bd
00000030: 28fd 72bd 5584 6a3d c101 e33c 68e7 d43d
00000040: f360 bcbc 5c74 2c3a 5260 8f3d 6636 e83c
00000050: 6638 b73b 6b11 2ebd 1a43 933d b9f9 b33d
00000060: b8e8 d5bc 4fef ec3c b9c0 873d 1eb8 333c
00000070: d524 86bd 6694 993d e500 5c3d f0fa b93d
00000080: 5a29 c1bc 361b de3d a111 1e3c 91c7 68bd
00000090: 851b 22bd e5df 8e3d ffce f8bb cc1f 11bd
000000a0: 9cc5 09bc 6da4 e43c a481 77bc c678 e93c
000000b0: 5381 a23c 0d87 bf3b ef7b b1bd e9ea 79bd
000000c0: 4f0a b2bd 0aba c93d 79f3 183d 3f76 703d
000000d0: 3160 473d b895 b0bb dede ab3d c44f 4b3c
000000e0: 5822 3d3d 65a9 50bd 291e 81bd 4e01 ac3c
000000f0: cb6b 9bbd 2c92 9cbd a202 ac3b a5d4 56ba
00000100: 86f1 db3c bfaf 383d 3d72 7f3d 2b06 e33c
00000110: 09d5 7c3c 1d9c 213d 94d4 37bc 9615 1fbd
00000120: 2122 2e3d 67f9 b43d cc5b da3b fc86 8fbc
00000130: d58a b93d 41a3 523d 353a 453d 245b a9bd
00000140: dbc0 d0bc f090 6d3d 6e98 89bd 24e2 db3c
00000150: 65bd 4bbc 5899 143d 8710 d23d dcb4 fb3c
00000160: a87c b33d 68ff 903d cfe8 1b3d cbcd 483d
00000170: db2f ab3d b7d6 a13d 53d8 bcbc da7a aa3c
00000180: 3d54 863c 52bb 6bbd 1d7d 6cbd 0323 883d
00000190: 0092 6ebb 7c38 54bc a0a2 69bb bf12 a73d
000001a0: 5a40 cc3d 0c5f 0cbd 4da4 5dbc d03f 82bd
000001b0: d885 c23b 267b 853c ec02 a33d c6d5 433d
000001c0: 7b89 983b 5814 ba3c 2d6d f9ba bab5 02bd
000001d0: ca52 4e3d c315 8b3d 11cc ff3c 371c 313c
000001e0: 4a2f d43c a97f 153d 5fa7 04bd 13e7 413c
000001f0: d879 a23d 0b7b 683c 52dc a6ba 4b44 75ba
00000200: c382 18bd fe04 7ebc 0ad2 efbc acac 7e3d
00000210: 7f60 093d 76fa d13d 3ede 37bd 733a 90bc
00000220: b544 eebc e93e 39bd 432d 80bd 1d5a 19bc
00000230: 6723 533d db27 01bc 7ed9 3bbc 58d4 0fbd
00000240: 133b 9fbd 94a3 f5bc e45f b43d 82d7 be3d
00000250: 8e24 443d 20da 8e3c bcd7 7dbd 8b5c 0cbd
00000260: 9811 573c e2cd 8e3c a9ff 993c f58b c0bb
00000270: a097 e33d 74a9 59bd d8e2 a73c 5f45 c23c
00000280: d5b5 4a3d 75db 78bd a5af 3fbd f16e 1b3d
00000290: 3db5 973d 9c6f a43d b70b b93d 86a0 c23d
000002a0: 5b07 de3c 8981 b43d 99c6 8e3d e661 6c3d
000002b0: e01a 2e3d 130e 973d bda6 9d3d 3b74 7c3c
000002c0: 4661 58bd 1d1a 3b3d e4e2 87bd 1b0f 443d
000002d0: 574d cd3d 1f08 84bd f7a9 803d bef4 f63c
000002e0: 38bf b93d 1716 febb 4fe1 a33b 7827 823d
000002f0: ec5c 99bd dd25 aebd c594 90bd 707d 213c
00000300: 79be 8ebb 58e3 843d e9af cb3b a733 1d3d
00000310: 45c4 a9bd 0930 ac3d d137 39bc cd03 ba3d
00000320: 8bea 42bc 487a af3d 2d83 183d ae48 d43d
00000330: 3e30 bd3c efe8 ab3d 7255 7d3c d266 17bc
00000340: aba7 dc3c b422 163d 8d71 0d3d 88d8 8b3d
00000350: a2ed 273d b69a af3c b632 363b 6185 533d
00000360: 8936 b33c 34ae 8abd e732 823c 6de5 a6bb
00000370: 2806 24bd 2cd7 83bd 03c1 7cbd c041 5f3d
00000380: ffa8 c63c dc27 f939 4366 a53d bf70 36bd
00000390: 26c9 c0bc d785 c73d c46f 9abd 6f31 9d3d
000003a0: 7999 bc3d 0508 e13d dcee b63b bba4 3e3d
000003b0: b3df 553c 18cd a33d c70d 223d 4c92 123d
000003c0: c3cf 68bd 9cc6 0cbd 4fd3 a13d 369b cb3d
000003d0: 40f5 c9bc c243 893d cef2 1dbc cf8b 39bc
000003e0: bf5a 7d3d 447f 81bc 53f4 11bd 90d2 d03c
000003f0: 04a7 23bb 5fd0 b93d 7f71 383d 72f7 f53c
