weights/steps_20001.pth (torch, 276343 bytes, 10 tensors)

lstm.weight_ih_l0 f4 [192, 7]
0	0x3e29b6ce	0.1657364
1	0xbe1e7ebb	-0.15478031
2	0x3d94b873	0.072617434
3	0xbde6675e	-0.112501845
4	0x3e827d3d	0.25486174
5	0x3daa5408	0.08316809
6	0x3e27621d	0.16346021
7	0x3e090844	0.1338206
8	0xbd9aa688	-0.075512946
9	0x3e5386de	0.20656916
10	0xbd562843	-0.05228449
11	0xbd11ecfc	-0.035626397
12	0x3e5d1235	0.21588977
13	0x3e6be303	0.23035817
14	0x3e89a9d6	0.26887387
15	0xbd9f89e5	-0.07789973
16	0x3e6e0a02	0.23246005
17	0xbcc190fe	-0.023628708
18	0x3ccc37e9	0.024929004
19	0x3e92e525	0.28690448
20	0x3e0f7ad8	0.14011705
21	0x3cd5d29d	0.026101405
22	0x3e281153	0.16412859
23	0x3d97dbd7	0.07414978
24	0x3e8d482e	0.2759413
25	0x3c949b0e	0.018140342
26	0x3e247bb6	0.16062817
27	0x3d963c9c	0.07335779
28	0x3e66493c	0.22488874
29	0x3db52475	0.08844844
30	0x3df487a8	0.11939937
31	0xbe039c88	-0.1285268
32	0x3eea5bb4	0.4577309
33	0x3eb48ef1	0.35265306
34	0x3e8dd12a	0.27698642
35	0x3e66e34f	0.22547649
36	0xbe2c341b	-0.16816752
37	0x3ea97756	0.3309886
38	0xbe2bbac4	-0.16770464
39	0x3d8181f9	0.063236184
40	0x3e544f4d	0.20733376
41	0x3dfb0c9a	0.12258263
42	0x3eef02e2	0.46681887
43	0x3dde32dd	0.10849545
44	0x3d5eed62	0.054425605
45	0xbc28d0d6	-0.010303697
46	0x3dd50407	0.10401159
47	0x3e834ddb	0.25645337
48	0x3e83652b	0.25663123
49	0x3eaaf4c9	0.3338988
50	0xbca7f8b4	-0.020504333
51	0x3e4500f0	0.19238639
52	0x3db50dbc	0.0884051
53	0x3e10e7cd	0.14150925
54	0x3e9d663d	0.30742064
55	0x3e7ddb14	0.24790603
56	0x3e2950fb	0.16534798
57	0x3c519821	0.012792618
58	0x3dd54728	0.104139626
59	0xbe2f356c	-0.17110223
60	0x3e035526	0.1282545
61	0x3e83f21d	0.25770655
62	0x3e4ab5cb	0.19795911
63	0x3e52ff9a	0.20605317
64	0xbdcf1d4a	-0.10113008
65	0x3dd8b0c4	0.1058059
66	0x3d29d847	0.041466024
67	0xbd1a6119	-0.037690256
68	0x3e108be2	0.14115861
69	0xbdbf9ba0	-0.09355855
70	0x3d39ea98	0.04538974
71	0x3e5dd79c	0.2166428
72	0x3daa3a59	0.0831191
73	0xbe23deaf	-0.16002916
74	0x3d02519b	0.031816106
75	0x3e4fed17	0.20305286
76	0x3e602714	0.21889907
77	0x3e77a8f8	0.2418555
78	0xbd3e038c	-0.0463901
79	0x3e256bab	0.16154353
80	0x3db59457	0.08866184
81	0xbcb4bd4a	-0.022062916
82	0x3e8277d2	0.2548204
83	0x3df03739	0.11729283
84	0x3dc4dad1	0.096120484
85	0x3e0b91cb	0.13629834
86	0xbd32086b	-0.04346506
87	0xbe29bd7a	-0.16576186
88	0x3dac0f4c	0.08401355
89	0x3d9633b1	0.07334078
90	0x3dbab225	0.091160096
91	0x3df646bc	0.1202521
92	0x3e35f351	0.17768599
93	0xbe8696bb	-0.26286873
94	0x3dac3b9c	0.08409807
95	0x3de863f4	0.113471895
96	0x3e971ab3	0.29512557
97	0x3e0c77bf	0.13717555
98	0x3ddc7c85	0.10765938
99	0x3e3b08e8	0.18265116
100	0x3e20bd85	0.15697296
101	0x3e7cdb64	0.24693066
102	0xbcac792d	-0.021053875
103	0x3e70db59	0.23521174
104	0x3e1cc512	0.15309551
105	0x3e964539	0.29349688
106	0xbd0ff09e	-0.03514158
107	0x3ca78457	0.020448847
108	0x3dad7c31	0.08470953
109	0x3d07109f	0.032974835
110	0x3e1e9017	0.15484653
111	0xbdb64eff	-0.08901786
112	0x3e788624	0.2426992
113	0xbca15e6a	-0.01969834
114	0x3d45e837	0.04831716
115	0xbca0c3ce	-0.019624617
116	0x3e85eec2	0.2615872
117	0x3e3e79f1	0.18601204
118	0x3da13d34	0.07873002
119	0x3b5cea56	0.003370901
120	0x3e0607c1	0.13088895
121	0xbda07d8b	-0.078364454
122	0x3cc7b430	0.024377912
123	0x3e2d9895	0.16952737
124	0x3e00667d	0.12539096
125	0xbd3f91aa	-0.046769775
126	0x3e38ffc7	0.18066321
127	0x3d10b2d6	0.0353268
128	0xbdbcc4c5	-0.09217218
129	0xbce88f1f	-0.028388558
130	0x3e021140	0.12701893
131	0x3e834c8d	0.2564434
132	0x3afb9791	0.0019194951
133	0x3ead561c	0.3385476
134	0x3e210a35	0.1572655
135	0x3e68dd56	0.22740683
136	0xbe5a80c4	-0.21338183
137	0x3e93d846	0.2887594
138	0x3e8e7f15	0.2783133
139	0x3e9394b8	0.288244
140	0x3e569a4d	0.20957299
141	0x3dcb939c	0.09940264
142	0xbcbcd013	-0.023048436
143	0x3d9a158e	0.075236425
144	0x3e7f0b8d	0.2490675
145	0x3e72d938	0.23715675
146	0x3e7acac7	0.24491416
147	0x3e82a72d	0.2551817
148	0x3e0a13be	0.13484094
149	0xbe5032f7	-0.20331942
150	0x3e1ffd72	0.15624025
151	0x3e88e118	0.26734233
152	0x3ebf49a1	0.37360862
153	0x3d4b70ee	0.049668245
154	0x3eb12fe4	0.3460685
155	0x3e30b4d7	0.17256485
156	0xbe329381	-0.17439081
157	0xbd3f615f	-0.04672372
158	0x3d9966ed	0.07490335
159	0x3dd8665e	0.105664
160	0x3b9eb339	0.0048431423
161	0x3e9e3469	0.3089936
162	0x3e396254	0.18103915
163	0xbc9300ee	-0.01794478
164	0x3e8a5fea	0.27026302
165	0x3df90bef	0.12160479
166	0x3e933a59	0.28755453
167	0x3e260939	0.16214456
168	0x3e844ec0	0.2584133
169	0x3e6bf0c0	0.23041058
170	0xbe324ab3	-0.17411308
171	0xbc5ae236	-0.013359597
172	0x3df7f7e2	0.12107827
173	0x3e608c36	0.21928486
174	0x3dcf8d60	0.10134387
175	0x3e10e0ac	0.14148206
176	0x3e271c6e	0.16319439
177	0xbd930630	-0.071789145
178	0x3d6c9546	0.057759546
179	0x3e8d963f	0.2765369
180	0x3ea139ec	0.31489503
181	0x3c1c7335	0.009548952
182	0x3edbe64d	0.42949143
183	0x3df6f8ed	0.120591976
184	0xba0c9527	-0.00053628016
185	0xbe17e648	-0.14833939
186	0x3e93574e	0.28777546
187	0x3e8b0ddb	0.27159008
188	0x3e36f604	0.17867285
189	0x3e4f0c4e	0.20219538
190	0x3dcbc87a	0.09950347
191	0xbe0d3d9c	-0.13793033
192	0x3ebe3ac8	0.37154222
193	0x3e99a200	0.3000641
194	0x3e505db7	0.2034825
195	0x3e63b956	0.22238669
196	0x3e9e74b8	0.30948424
197	0x3b765cae	0.0037591862
198	0x3e5862d4	0.2113145
199	0x3ddd662b	0.108105026
200	0x3c85b4f8	0.016321644
201	0x3e51181c	0.20419353
202	0xbdd2ee49	-0.102993555
203	0x3e77743e	0.24165437
204	0x3e01af04	0.1266442
205	0x3cbf70a3	0.023369139
206	0xbe4c039d	-0.19923253
207	0x3ea569cb	0.32307276
208	0x3e5b2af8	0.2140311
209	0x3e799ac6	0.24375448
210	0x3e54e03a	0.2078866
211	0x3dee184d	0.11625729
212	0xbd834c39	-0.06411023
213	0xbd800a1f	-0.062519304
214	0x3eb53f26	0.3539974
215	0x3e2b634b	0.16737096
216	0x3e7825d2	0.24233177
217	0x3e5e04fd	0.2168159
218	0xbdd14eb5	-0.1022009
219	0x3ca326cb	0.019915959
220	0x3c57c09b	0.013168479
221	0x3da4814b	0.08032473
222	0x3e61264f	0.2198727
223	0xbd4f0e1f	-0.050550576
224	0x3dbb32da	0.091405585
225	0x3da011d9	0.07815904
226	0x3e405a54	0.18784457
227	0x3df1d8df	0.11808943
228	0x3e5f3ac5	0.21799763
229	0x3dd53225	0.10409955
230	0x3e3fb0d5	0.187198
231	0x3e8d2b8a	0.2757228
232	0x3d9b81df	0.0759313
233	0xbe83ca32	-0.257402
234	0x3d56a27c	0.05240105
235	0x3e26547c	0.16243166
236	0x3eb72e18	0.35777354
237	0x3e6439ec	0.2228772
238	0x3e8a659e	0.27030653
239	0x3d32fcff	0.043698307
240	0xbe927a86	-0.28609103
241	0x3ea19f5a	0.31566888
242	0x3e064906	0.13113794
243	0x3e551b0c	0.20811099
244	0x3e258a70	0.16166091
245	0x3e7a1166	0.244207
246	0xbca959f6	-0.02067278
247	0xbceccc49	-0.028906005
248	0x3e517a19	0.20456733
249	0xba5eceff	-0.0008499473
250	0x3e8e7454	0.27823126
251	0x3dede998	0.1161682
252	0x3eb2ab40	0.34896278
253	0x3d8c30c2	0.06845237
254	0xbd192127	-0.037385132
255	0x3e6ba4ef	0.23012136

lstm.weight_hh_l0 f4 [192, 48]
0	0xbc085577	-0.008321158
1	0x3d815251	0.06314529
2	0xbde74e76	-0.11294262
3	0x3d11666b	0.035498064
4	0xbe57f6e7	-0.2109028
5	0x3d3a6911	0.045510355
6	0xbdd7c6b1	-0.10535944
7	0x3de70046	0.11279349
8	0xbdf0a76c	-0.11750683
9	0x3e14f87d	0.14547916
10	0xbe089ff2	-0.13342264
11	0xbccafd16	-0.024778884
12	0xbe17ca71	-0.14823319
13	0x3e0365cc	0.12831801
14	0x3b5b63d6	0.0033476255
15	0xbd2b52de	-0.041827075
16	0x3dcc2640	0.09968233
17	0xbd9af357	-0.07565945
18	0xbaac8127	-0.0013161049
19	0xbd2b9ddb	-0.04189859
20	0xbd288bbe	-0.041148894
21	0xbbf4cd21	-0.0074707423
22	0xbdbb7ffa	-0.09155269
23	0xbdeec3e6	-0.116584584
24	0x3c7abea1	0.015304239
25	0xbd758ed7	-0.059950676
26	0x3b14b3a0	0.0022690073
27	0xbca70a21	-0.020390572
28	0x3e0fab4d	0.1403019
29	0xbd57cb4f	-0.052684125
30	0xbd2fdd0d	-0.04293542
31	0x3d870410	0.06592572
32	0xbc15cc23	-0.009142908
33	0xbdf1cd96	-0.118067905
34	0x3d5c7c8a	0.053829707
35	0xbe0d28ae	-0.1378505
36	0x3d87e8af	0.06636178
37	0x3ce3db84	0.027814634
38	0xbdfeef6f	-0.12448012
39	0xbda47f79	-0.08032126
40	0x3d8053d0	0.06265986
41	0x3d5d46e5	0.05402269
42	0x3dbd82df	0.09253477
43	0xbd09c3ff	-0.033634182
44	0x3dbd7d38	0.09252399
45	0x3df3374b	0.11875781
46	0x3dd183cc	0.102302164
47	0xbe17778c	-0.14791697
48	0xbc1fede9	-0.009761312
49	0xbdc76bf8	-0.0973739
50	0xbc5bf300	-0.013424635
51	0xbe40da28	-0.1883322
52	0xbe2dba2c	-0.1696555
53	0xbd6f717e	-0.058457844
54	0xbcace533	-0.021105384
55	0xbdcb84fd	-0.09937475
56	0x3e1e4bce	0.15458605
57	0x3e1658e8	0.14682353
58	0x3de9b099	0.114106365
59	0xbd0966f1	-0.03354544
60	0xbe083f38	-0.13305366
61	0xbdda588a	-0.10661419
62	0xbcec27c1	-0.02882755
63	0x3d388f46	0.04505851
64	0x3d09b96a	0.03362409
65	0xbe1b9a41	-0.15195562
66	0xbd9d42ca	-0.07678755
67	0xbde3af5f	-0.11117434
68	0x3cfe2305	0.031022558
69	0xbcb9b245	-0.022668013
70	0xbd76bdb1	-0.060239498
71	0x3dd0e62b	0.10200151
72	0xbd4870ff	-0.048935886
73	0x3cbf11b4	0.023323871
74	0x3d9c01cb	0.076175295
75	0xbd7c1ed3	-0.061552834
76	0xbca1698d	-0.01970365
77	0x3e092e18	0.1339649
78	0xbe4e8e77	-0.20171534
79	0xbdc02b40	-0.09383249
80	0xbe3c1dfc	-0.18370813
81	0xbd8a4bbe	-0.06752728
82	0x3dc6920b	0.09695824
83	0x3d3b8338	0.045779437
84	0x3de198ce	0.11015473
85	0xbc6bc588	-0.014390357
86	0xbdcf5391	-0.10123361
87	0x3df3433b	0.118780576
88	0x3db6ae3f	0.089199536
89	0x3d8e6a20	0.069538355
90	0x3cc86ec9	0.024466889
91	0xbdc7987a	-0.097458795
92	0x3d3ec2be	0.04657244
93	0x3e11d407	0.14241038
94	0xbdf0a932	-0.117510214
95	0xbdc26924	-0.0949271
96	0x3d094ec2	0.033522375
97	0x3cf95bcb	0.030439278
98	0xbe33f600	-0.1757431
99	0x3dd0d4d4	0.10196844
100	0x3c408522	0.011750491
101	0xbdd83903	-0.10557749
102	0x3d7a1775	0.061057527
103	0x3d3b468b	0.045721572
104	0xbbd4353c	-0.0064760726
105	0xbdd90e10	-0.10598385
106	0xbd3468a6	-0.044045113
107	0x3d6c0e10	0.0576306
108	0xbc736ee8	-0.014857985
109	0x3cc2d965	0.023785302
110	0x3e1dc19a	0.15405884
111	0xbddbe30a	-0.10736664
112	0x3e0c5841	0.13705541
113	0xbd8fc343	-0.07019665
114	0xbcc2224a	-0.02369799
115	0xbd8c34e1	-0.06846023
116	0xbdf8379e	-0.12119983
117	0x3e1174f1	0.14204766
118	0xba1a30a1	-0.000588188
119	0x3d8b2c96	0.067956135
120	0x3c4d4b72	0.012530195
121	0xbe17fe6b	-0.14843147
122	0x3cade322	0.02122647
123	0x3caed06c	0.021339618
124	0x3e02e79c	0.12783664
125	0x3e1276f8	0.14303195
126	0x3e322407	0.17396556
127	0xbd9b97a1	-0.0759728
128	0xbbcae6de	-0.0061920723
129	0xbdcca718	-0.09992808
130	0xbcdddb2a	-0.027082045
131	0x3cc4ff06	0.024047386
132	0x3b8be966	0.0042697666
133	0x3c74546d	0.014912707
134	0x3dc94b0d	0.09828768
135	0xbcc5b9ce	-0.02413645
136	0x3d92562d	0.07145343
137	0x3bc4a16c	0.0060006883
138	0x3d9acc7b	0.07558533
139	0x3db98b90	0.090598226
140	0xbd1d1870	-0.038353384
141	0xbc9a6be9	-0.018850284
142	0x3c368c3f	0.011141836
143	0x3daeb899	0.08531303
144	0x3e136f03	0.14397816
145	0xbe3c11a4	-0.18366104
146	0xbdc97a9c	-0.09837839
147	0xbe3a2a1f	-0.1818013
148	0xbd33ddb3	-0.0439126
149	0xbd1addbe	-0.037809126
150	0xbe093b4b	-0.13401525
151	0x3df95696	0.12174718
152	0x3dcb7d79	0.099360414
153	0xbd10273f	-0.035193678
154	0x3c8eb3aa	0.017419655
155	0x3e0c493a	0.13699809
156	0xbe316186	-0.17322358
157	0x3dfe3808	0.12413031
158	0xbe367b7b	-0.17820542
159	0x3d2b884b	0.041878026
160	0x3ccb0266	0.024781417
161	0xbe77f172	-0.24213198
162	0xbce0dbc2	-0.027448539
163	0xbe2e633b	-0.17030041
164	0xbd69b359	-0.057055805
165	0x3e28a4c6	0.16469106
166	0xbda8d2be	-0.08243321
167	0x3d0ab470	0.033863485
168	0xbe19668b	-0.14980523
169	0x3da8cbe2	0.082420126
170	0x3e2af716	0.16695818
171	0x3e060287	0.13086902
172	0x3b045b3d	0.0020195984
173	0x3dabe410	0.08393109
174	0x3d1ab6e3	0.03777207
175	0xbe6a6213	-0.22888975
176	0xbd8d2306	-0.06891446
177	0xbd45cee7	-0.04829302
178	0xbd58ec9a	-0.052960016
179	0x3ce27e9c	0.027648263
180	0xbd9f4059	-0.07775945
181	0xbe2f4a03	-0.17118077
182	0xbe0f9070	-0.14019942
183	0xbc493dc9	-0.012282797
184	0xbe3a3a75	-0.18186362
185	0x3caefdcb	0.021361252
186	0xbd8f63ff	-0.070014946
187	0xbc8e9a9b	-0.017407706
188	0xbd69da58	-0.057092994
189	0x3e71e874	0.2362383
190	0xbd39dc49	-0.045376096
191	0xbd9cc2c8	-0.07654339
192	0x3e0078a6	0.12546024
193	0x3c5d2494	0.01349749
194	0xbe59ef4b	-0.2128269
195	0xbd658dbf	-0.056043383
196	0xbe30248c	-0.17201442
197	0x3d321e82	0.043486126
198	0xbe905ace	-0.28194278
199	0x3d8aab38	0.06770939
200	0x3e15085c	0.1455397
201	0xbe545293	-0.20734625
202	0xbcddfb96	-0.027097505
203	0x3db8c986	0.090228125
204	0xbe7710d9	-0.2412752
205	0x3e131d8a	0.14366737
206	0xbd42f93e	-0.047600977
207	0x3d889815	0.06669632
208	0xbe705973	-0.23471622
209	0xbe56a6ca	-0.20962062
210	0xbd18230c	-0.0371428
211	0xbe1fb4f8	-0.15596378
212	0xbd3c729f	-0.04600775
213	0x3b908b36	0.0044111265
214	0xbe215dfc	-0.15758508
215	0xbe4c06aa	-0.19924417
216	0xbdd1fcfc	-0.10253331
217	0x3e20ecde	0.15715358
218	0x3e12b586	0.14327058
219	0x3d9b1584	0.07572463
220	0xbc1eaebb	-0.009685214
221	0x3df78969	0.12086756
222	0x3c17cd9d	0.009265331
223	0xbe259777	-0.1617106
224	0xbe11e8c9	-0.14248957
225	0x3dc8260e	0.09772883
226	0xbe4e418d	-0.20142193
227	0xbe5f6b79	-0.21818341
228	0xb9bee765	-0.00036412026
229	0xbcfc74ce	-0.030817416
230	0xbe37e215	-0.17957337
231	0x3c8dbd22	0.0173021
232	0xbe7ba233	-0.24573593
233	0x3c95c181	0.018280746
234	0xbddf28cf	-0.108964555
235	0x3e8f098d	0.27936974
236	0x3d2cb7fd	0.042167652
237	0x3de5ca55	0.112202324
238	0xbe7a92f5	-0.24470122
239	0x3c1798fa	0.009252781
240	0xbe1c5f90	-0.15270829
241	0x3b94d23f	0.004541665
242	0x3d3c7bb8	0.046016425
243	0xbe69f27f	-0.22846411
244	0xbe08bad5	-0.13352521
245	0x3de222da	0.11041804
246	0x3dce3ba8	0.10069972
247	0x3dd08c3a	0.10182996
248	0x3cc99c0c	0.024610542
249	0x3e530c8d	0.20610256
250	0xbcb197fe	-0.02167892
251	0xbe426d83	-0.18987088
252	0xbd56e548	-0.052464753
253	0x3d476924	0.048684254
254	0x3b7a19c8	0.003816234
255	0xbe17d6ac	-0.14827985

lstm.bias_ih_l0 f4 [192]
0	0x3dc79dc3	0.097468875
1	0x3ca84a24	0.020543166
2	0x3cbeda83	0.023297554
3	0xbd39857d	-0.04529332
4	0x3eedc1d6	0.46436948
5	0xbd81be13	-0.06335082
6	0x3dfefc97	0.124505214
7	0x3ec0eae9	0.37679222
8	0x3dc4f89d	0.09617732
9	0x3dc1cac7	0.09462505
10	0x3dc14567	0.094370656
11	0x3de9de5e	0.11419366
12	0x3e9c9970	0.30585814
13	0xbaa64eb9	-0.0012688256
14	0x3d358599	0.04431686
15	0x3d14b758	0.036307663
16	0x3e9dde01	0.30833438
17	0x3df98a4e	0.12184583
18	0xbcb12ea7	-0.02162869
19	0x3ea8d986	0.32978457
20	0x3e88bdff	0.26707456
21	0x3df0b7c8	0.117538035
22	0x3dfb02d2	0.12256397
23	0x3d9ef8fa	0.07762332
24	0x3e5915d3	0.21199732
25	0x3e2e8ada	0.17045155
26	0x3db31fb1	0.08746279
27	0x3e7c108f	0.24615692
28	0x3c21ff5d	0.0098875435
29	0x3e23ddec	0.16002625
30	0x3e9aa04b	0.3020042
31	0x3b39fadf	0.002837829
32	0x3daf57f5	0.08561698
33	0x3e8c2d3c	0.2737826
34	0x3e07da32	0.13266829
35	0x3d765af8	0.06014535
36	0x3c98a457	0.01863305
37	0x3e348908	0.17630398
38	0x3e6e1df6	0.23253617
39	0x3de68400	0.11255646
40	0x3e7a3bb0	0.24436831
41	0x3ce77913	0.028255975
42	0x3e7b4121	0.24536563
43	0x3c04180a	0.008062372
44	0x3ded0938	0.11574024
45	0x3e855e30	0.26048422
46	0x3e7bd73c	0.24593824
47	0x3e6ddf9f	0.23229836
48	0x3d8ef65e	0.069805846
49	0xbda8cb25	-0.08241872
50	0xbd7c9a9c	-0.061670884
51	0x3c47f49b	0.012204315
52	0x397c8774	0.00024083053
53	0x3cedfa6d	0.029050076
54	0xbda056d3	-0.078290604
55	0xbd80616c	-0.06268582
56	0x3d9a1c3c	0.075249165
57	0x3ba28f6e	0.004960946
58	0x3e140f6e	0.14459011
59	0xbda7faab	-0.08202108
60	0xbc44b85a	-0.012006843
61	0xbd9d117a	-0.07669349
62	0xbd9b4c21	-0.0758288
63	0x3db4567f	0.0880556
64	0xbd98c716	-0.07459848
65	0x3d20fa28	0.039301068
66	0xbd74f019	-0.059799287
67	0xbdd075dc	-0.1017873
68	0xbc06b3d4	-0.008221585
69	0x3d4bb338	0.049731463
70	0xbd9bbf5a	-0.07604857
71	0xbc9f6176	-0.019455653
72	0x3dc9dd68	0.09856683
73	0x3e3090ca	0.17242733
74	0xbdfe49d2	-0.12416424
75	0x3c96f006	0.018424999
76	0x3dcd1d36	0.10015337
77	0xb97c0ce2	-0.00024037392
78	0xbe213e62	-0.15746453
79	0x3d9992d6	0.0749871
80	0xbc5ca6a9	-0.013467469
81	0xbda0b911	-0.078477986
82	0x3d10686d	0.03525584
83	0xbe032a65	-0.12809141
84	0xbdd72868	-0.10505754
85	0xbd7fa243	-0.062410604
86	0x3e1378d8	0.14401567
87	0x3db34ac0	0.08754492
88	0x3e215ae8	0.15757334
89	0xbc04838f	-0.008088007
90	0x3dcbde4c	0.09954509
91	0x3d2bee86	0.04197552
92	0xbbd2024f	-0.0064089666
93	0x3e0acb6a	0.13554159
94	0x3e5e12c7	0.2168685
95	0x3db6de94	0.08929172
96	0xbd1d08cf	-0.03833848
97	0xbc52b52b	-0.012860577
98	0x3d7b336c	0.061328337
99	0x3db821d3	0.089908265
100	0x3e22af77	0.15887247
101	0xbdfcd6cd	-0.123456575
102	0x3d8916b0	0.066937804
103	0x3dace7d6	0.08442657
104	0xbd9f1521	-0.07767702
105	0xbe0d6778	-0.13809001
106	0xbd14b2d9	-0.036303375
107	0xbdc8152d	-0.09769664
108	0x3d953f3b	0.07287451
109	0xbd367cfc	-0.04455279
110	0xbdbdbc68	-0.09264451
111	0xbd416dce	-0.04722386
112	0xbe247b3f	-0.1606264
113	0xbccedc6f	-0.025251595
114	0x3b726381	0.0036985578
115	0x3d3c9239	0.046037886
116	0xbc9b4f4d	-0.018958712
117	0x3e03892d	0.12845297
118	0x3cd529b4	0.026020862
119	0xbde53ca7	-0.11193209
120	0xbd338b35	-0.04383393
121	0xbcd2f215	-0.0257502
122	0x3e0c4cdd	0.13701196
123	0xbe3dcaf1	-0.18534447
124	0x3d88d24e	0.066807374
125	0xbc5f78dc	-0.013639655
126	0x3e4ceca0	0.2001214
127	0xbde9482c	-0.11390719
128	0xbc2221a1	-0.009895713
129	0xbd03c0bc	-0.032166228
130	0xbd0ce75e	-0.034400336
131	0xbdfa77ec	-0.122299045
132	0xbd1f157f	-0.03883886
133	0xbda76163	-0.08172872
134	0x3cbbcf52	0.022926006
135	0x3ca341da	0.019928861
136	0x3b8b082a	0.0042429166
137	0x3e69d583	0.22835355
138	0xbd956f38	-0.07296604
139	0x3df498fd	0.11943243
140	0xbe1a7123	-0.1508222
141	0xbc59c96a	-0.01329265
142	0x3d8e8d26	0.06960516
143	0x3da9c9a2	0.082904115
144	0xbdd4fcdf	-0.10399794
145	0x3e0f300b	0.1398317
146	0x3d36ce96	0.04463061
147	0x3e709900	0.23495865
148	0x3d3a8ee4	0.045546427
149	0x3dfd44e4	0.123666555
150	0x3e046790	0.12930131
151	0x3e5aac98	0.21354902
152	0xbdb61e2a	-0.08892472
153	0xbc85ae71	-0.016318532
154	0x3e669bdb	0.22520392
155	0x3b2eb46f	0.002665784
156	0x3e06afcf	0.13153003
157	0x3cc363e2	0.023851339
158	0x3dd4d203	0.10391619
159	0x3e8dfb5b	0.27730832
160	0x3dcf30b4	0.10116711
161	0xbc6c0808	-0.014406212
162	0x3dcd478b	0.10023411
163	0x3e0fec90	0.14055085
164	0x3c7e1c83	0.015509727
165	0x3e9f7092	0.31140572
166	0x3e81f445	0.25381675
167	0x3e0951f5	0.1341017
168	0x3e15088f	0.14554046
169	0x3e2a33d6	0.16621336
170	0x3e29c9b0	0.16580844
171	0x3e0dc940	0.13846302
172	0xbcf7fc9a	-0.030271817
173	0x3e592ee0	0.21209288
174	0x3e1ff6c3	0.15621476
175	0xbd5e59e5	-0.05428495
176	0x3e47ad21	0.19499637
177	0x3dc49d3a	0.09600301
178	0xbd4ecfab	-0.050491016
179	0x3d69f046	0.05711391
180	0x3dc0269e	0.09382366
181	0x3d8a0e51	0.06741012
182	0x3ddb5ed9	0.1071145
183	0x3c15e80d	0.0091495635
184	0x3d989553	0.07450356
185	0x3d934ac3	0.07191994
186	0x3e0c4954	0.13699847
187	0x3e3029e4	0.1720348
188	0xbcca9a29	-0.024731712
189	0xbd1fd4f4	-0.039021447
190	0x3e82cde9	0.25547722
191	0xbd1fa915	-0.03897961

lstm.bias_hh_l0 f4 [192]
0	0x3df76e4d	0.12081585
1	0x3cc7d4d0	0.02439347
2	0x3dc45d53	0.09588113
3	0x3de363f8	0.11103052
4	0x3e816647	0.25273344
5	0x3ddd3b6e	0.10802351
6	0x3dee303b	0.11630293
7	0x3e8afe00	0.27146912
8	0x3ea81972	0.32831913
9	0xbdacb43d	-0.08432815
10	0x3c576dcb	0.013148735
11	0x3e33d32b	0.17561023
12	0x3e9aded6	0.30248135
13	0x3e063041	0.13104345
14	0x3df5eeb3	0.12008419
15	0xbc869b5c	-0.016431503
16	0x3d630143	0.055421125
17	0xbd8ce92a	-0.0688041
18	0x3d538c10	0.051647246
19	0x3e9a2c17	0.30111763
20	0x3e84874a	0.25884467
21	0x3e84a10a	0.25904113
22	0x3defbdf7	0.11706155
23	0x3e2e709e	0.17035148
24	0x3de9aa3a	0.11409421
25	0x3e8cb515	0.27481905
26	0x3e528199	0.2055725
27	0x3e1fb947	0.15598021
28	0xbcdd83c8	-0.027040377
29	0x3db97b8e	0.09056769
30	0x3eae628f	0.3405957
31	0x3d94daed	0.07268319
32	0x3dc44a19	0.095844455
33	0x3e6410a3	0.22271971
34	0x3cba352b	0.02273043
35	0x3e383261	0.17987968
36	0x3e7b2f38	0.24529731
37	0x3e551711	0.2080958
38	0x3c1ee4a9	0.0096980715
39	0x3e807b52	0.25094086
40	0x3e04826d	0.12940378
41	0x3d767960	0.060174346
42	0x3e9a7313	0.3016592
43	0x3d93bfc3	0.0721431
44	0x3e3001e9	0.17188229
45	0x3e8fb152	0.28064972
46	0x3ea1e8aa	0.3162282
47	0x3e88fa69	0.26753548
48	0xbdf85d90	-0.12127221
49	0xbd8e7b24	-0.06957081
50	0x3dbf45d9	0.09339494
51	0xbbd890ee	-0.006609074
52	0x3e17912c	0.14801472
53	0xbde95c03	-0.11394503
54	0xbe985ea0	-0.29759693
55	0x3de8f815	0.11375443
56	0x3dcf528b	0.10123166
57	0x3d083265	0.033251185
58	0x3d54cc16	0.051952444
59	0xbd91d404	-0.07120517
60	0x3da9acc4	0.082849056
61	0x3dd30781	0.10304166
62	0x3d9e8df4	0.07741919
63	0x3dc22da2	0.0948136
64	0xbe74f1cb	-0.23920362
65	0xbd41e3e2	-0.047336467
66	0x3e1060cc	0.14099425
67	0x3d1e40ad	0.0386359
68	0x3d2a2a1e	0.041544072
69	0x3da032ef	0.07822215
70	0x3d30fc03	0.043209087
71	0x3d747056	0.059677444
72	0x3d213902	0.039361008
73	0xbd88b84d	-0.066757776
74	0xbe938c9d	-0.28818217
75	0xbd103066	-0.035202406
76	0x3e311295	0.17292245
77	0x3d958d16	0.07302301
78	0xbcf4aeb3	-0.02986846
79	0xbe016894	-0.1263755
80	0x3e054bed	0.13017245
81	0xbe1ac3aa	-0.15113702
82	0xbdf14c90	-0.11782181
83	0x3d61a15d	0.05508553
84	0x3ca6f682	0.020381216
85	0x3e102951	0.14078261
86	0x3e32bf12	0.174557
87	0xbcbd432f	-0.023103325
88	0x3d217eeb	0.03942768
89	0x3d7a6f74	0.061141446
90	0x3e1c5e30	0.15270305
91	0x3e2f582d	0.1712348
92	0x3bcbcbe4	0.006219374
93	0x3cfac91e	0.030613478
94	0x3db00812	0.08595289
95	0x3ded16d6	0.11576621
96	0xbce27d13	-0.02764753
97	0x3c5bd62f	0.013417765
98	0xbd749b65	-0.05971851
99	0x3c1cb3bd	0.009564337
100	0x3e0ff888	0.14059651
101	0xbe111715	-0.14168961
102	0xbd8e828a	-0.06958492
103	0xbdffab51	-0.12483848
104	0xbd6d3450	-0.057911217
105	0xbc1dfc02	-0.009642603
106	0x3e11c652	0.1423581
107	0x3d6994d0	0.057026684
108	0x3db37799	0.08763046
109	0xbca43254	-0.02004353
110	0xbcf70c72	-0.030157302
111	0xbc80fb7e	-0.01574492
112	0x3d42d6ef	0.047568258
113	0x3e2b14ca	0.16707149
114	0x3dd513a3	0.10404136
115	0x3e257b19	0.1616024
116	0x3c762a06	0.015024668
117	0x3d154d1d	0.036450494
118	0x3d15360c	0.036428496
119	0x3d925673	0.07145395
120	0x3de08963	0.109637044
121	0x3d99e7c2	0.075149074
122	0x3e128525	0.14308603
123	0x3dbdb372	0.09262742
124	0xbc154410	-0.009110466
125	0xbdb1c547	-0.08680206
126	0x3dc9033a	0.098150685
127	0x3d7a9ebc	0.061186537
128	0x3e7a2e21	0.2443166
129	0x3d4c2361	0.049838427
130	0x3dd8fe48	0.10595375
131	0x3db6eadf	0.08931517
132	0x3d35bc23	0.044368874
133	0x3d9e6256	0.077336
134	0x3e1020a0	0.14074945
135	0x3d436705	0.04770567
136	0xbe0924e8	-0.13392985
137	0xbb95b7d0	-0.0045690313
138	0x3e0923c1	0.13392545
139	0x3d818877	0.06324857
140	0xbe336436	-0.17518696
141	0x3bba97e1	0.005694375
142	0xbdc41d13	-0.09575858
143	0x3dea0327	0.114263825
144	0x3c54ead0	0.012995437
145	0x3d9475d2	0.07249035
146	0x3dd51ee3	0.10406282
147	0x3e71b8f0	0.23605704
148	0x3e8ccc6f	0.2749972
149	0x3d228717	0.039679613
150	0x3e74391d	0.23849912
151	0x3e8895f4	0.26676905
152	0x3dd76d5d	0.10518906
153	0xbded21e6	-0.11578731
154	0x3e5a79ee	0.21335575
155	0x3d197dcd	0.03747349
156	0xbcaa32b7	-0.020776136
157	0x3c92fcbc	0.017942779
158	0x3e813263	0.25233755
159	0x3d6915cb	0.05690555
160	0x3e29ac71	0.16569687
161	0x3e385bb1	0.18003727
162	0x3cc663d8	0.024217531
163	0x3c282e21	0.010264904
164	0x3e384182	0.17993739
165	0x3db24eb2	0.08706416
166	0x3e35b6f5	0.17745574
167	0xbc854aec	-0.016271077
168	0x3e0e7a19	0.13913764
169	0x3dbb1ad7	0.09135979
170	0x3deba498	0.11506003
171	0x3e45a588	0.19301426
172	0xbde6ac41	-0.112633236
173	0x3e0cb0fd	0.1373939
174	0x3e2a9270	0.16657424
175	0x3be80014	0.0070800874
176	0x3da49725	0.08036641
177	0xbd79a222	-0.060945638
178	0xbd6e1b92	-0.05813176
179	0xbdee48d2	-0.11634983
180	0x3e4d56d7	0.20052658
181	0xbcc88c09	-0.024480836
182	0xbe04132b	-0.12897937
183	0x3e536a4c	0.20646018
184	0xbab9763a	-0.0014149614
185	0x3e8af86f	0.27142665
186	0x3e06f088	0.13177693
187	0x3e97c13e	0.2963962
188	0x3d301cd0	0.042996228
189	0x3d27e20a	0.040987052
190	0x3d8f2585	0.06989578
191	0x3d5b6f5a	0.05357299

mlp.0.weight f4 [256, 54]
0	0x3f8eeca7	1.116597
1	0x3f6330a1	0.88746077
2	0x3d3ace54	0.045606926
3	0xbd8ab79a	-0.067733005
4	0x3f67e735	0.9058717
5	0x3f6dcf5e	0.9289454
6	0x3f907cf1	1.1288129
7	0xbf9009c0	-1.1252975
8	0xbf79d749	-0.97594124
9	0xbf56b352	-0.8386737
10	0xbf8b1f52	-1.0868933
11	0xbf91f2c3	-1.140221
12	0xbf77eec3	-0.96848696
13	0x3f81ff8a	1.0156109
14	0x3f94021c	1.1563144
15	0xbf8934a7	-1.0719193
16	0xbf6d74d3	-0.92756385
17	0x3f6e3030	0.9304228
18	0xbf6b2c89	-0.9186483
19	0x3f802684	1.0011754
20	0xbf79ea40	-0.9762306
21	0x3f707a5e	0.9393672
22	0xbf7c717f	-0.9861068
23	0xbf806953	-1.0032142
24	0x3f91feb4	1.1405854
25	0xbf76a197	-0.96340317
26	0xbf8c2353	-1.094828
27	0x3f7b8533	0.9825012
28	0xbf86dac2	-1.053551
29	0xbf65d38f	-0.8977594
30	0xbf6b074c	-0.9180801
31	0x3f92c7c6	1.1467216
32	0x3f4560e5	0.77100974
33	0x3f782c23	0.9694235
34	0x3f8432f2	1.0328047
35	0x3f90da9c	1.1316714
36	0xbf729195	-0.9475339
37	0xbf6b257a	-0.9185406
38	0xbf73f9dc	-0.9530313
39	0x3f7e955e	0.99446666
40	0xbf775025	-0.96606666
41	0xbf80d403	-1.0064701
42	0xbf80ffaf	-1.0078028
43	0xbf68f579	-0.9099956
44	0xbf84deab	-1.0380453
45	0x3f8d3ff1	1.1035138
46	0xbf8a2f5b	-1.0795702
47	0x3f431b3e	0.76213443
48	0xbf749883	-0.95545214
49	0x3f8cd111	1.1001302
50	0xbf8e0e32	-1.1098082
51	0x3f62c025	0.8857444
52	0xbf8f5d90	-1.1200428
53	0xbf8a7139	-1.0815803
54	0xbd20283c	-0.03910087
55	0xbc951f6d	-0.018203462
56	0xbcfab2f1	-0.030602904
57	0xbbdacea4	-0.0066774655
58	0xbd5dab30	-0.054118335
59	0x3db0dfd3	0.08636441
60	0xbd58c53d	-0.052922476
61	0xbdaac210	-0.08337796
62	0xbda9ecd2	-0.08297123
63	0x3dab080b	0.083511434
64	0xbde66cf5	-0.11251251
65	0x3d5cc800	0.053901672
66	0xbd9be191	-0.07611383
67	0xbdc6575f	-0.096846335
68	0xbcf9ecd5	-0.030508438
69	0x3d69a314	0.05704029
70	0x3c3b7af5	0.011442889
71	0xbe0ce7ff	-0.13760374
72	0x3cd1b6cf	0.025599865
73	0xbda60391	-0.08106149
74	0x3e1cce26	0.15313014
75	0xbd9c5d40	-0.076349735
76	0x3dd65ab4	0.10466519
77	0xbdbd7a06	-0.0925179
78	0x3ce5504f	0.027992396
79	0xbca2392a	-0.019802649
80	0x3da2922f	0.079380386
81	0x3da752d6	0.081700966
82	0xbddc2b2c	-0.10750422
83	0xbcff8b08	-0.031194225
84	0xbd234edb	-0.039870124
85	0xbe1e128f	-0.15436767
86	0xbb923b9e	-0.0044626733
87	0xbd1902aa	-0.037356056
88	0xbde55bef	-0.111991756
89	0x3dc59390	0.09647286
90	0xbbd3c00f	-0.006462104
91	0x3c017a89	0.00790275
92	0xbc91cb6b	-0.017797193
93	0x3dc03131	0.093843825
94	0x3dd536ad	0.10410819
95	0x3ddfd833	0.109299086
96	0xbd88f2cf	-0.06686937
97	0x3db8f112	0.090303555
98	0xbbe4c8bc	-0.006981937
99	0xbcb2bf7f	-0.021819828
100	0x3dad9e1c	0.084774226
101	0xbe0cee5a	-0.13762799
102	0x3b917e13	0.004440078
103	0xbdc97c5a	-0.09838171
104	0x3da1cbbb	0.07900187
105	0x3d9844b6	0.074349806
106	0xbe14a6a7	-0.14516698
107	0x3c4c1701	0.012456656
108	0x3f8b1a66	1.0867431
109	0x3f76144f	0.9612474
110	0x3e1208be	0.14261147
111	0x3db42f43	0.08798077
112	0x3f8e0085	1.1093909
113	0x3f6b3e4f	0.9189195
114	0x3f79ecd5	0.97627
115	0xbf886c51	-1.0658056
116	0xbf64edeb	-0.89425534
117	0xbf5897c3	-0.8460657
118	0xbf90b1e4	-1.1304288
119	0xbf8e82ed	-1.1133705
120	0xbf5cbeb9	-0.8622852
121	0x3f8b87e4	1.0900846
122	0x3f7c1a5a	0.9847771
123	0xbf82f7f6	-1.0231922
124	0xbf7b3cdb	-0.98139733
125	0x3f60b556	0.87776697
126	0xbf7eef18	-0.9958358
127	0x3f5ed02e	0.87036407
128	0xbf8b4c5c	-1.0882678
129	0x3f821dec	1.0165381
130	0xbf5fb6d3	-0.8738834
131	0xbf9034b8	-1.1266088
132	0x3f86da19	1.0535308
133	0xbf819347	-1.012307
134	0xbf6ac063	-0.9169981
135	0x3f721651	0.945653
136	0xbf811d3e	-1.0087049
137	0xbf81058d	-1.0079819
138	0xbf88d08f	-1.0688647
139	0x3f7f7db3	0.99801177
140	0x3f79085d	0.97278386
141	0x3f74fd99	0.9569946
142	0x3f76da9f	0.9642734
143	0x3f915661	1.1354486
144	0xbf60d488	-0.87824297
145	0xbf7efbe7	-0.9960312
146	0xbf6817f3	-0.90661544
147	0x3f6ecb68	0.93279123
148	0xbf7d5237	-0.98953575
149	0xbf82153f	-1.0162734
150	0xbf8a61be	-1.0811079
151	0xbf64022b	-0.8906581
152	0xbf88b1ee	-1.06793
153	0x3f6acdd3	0.9172031
154	0xbf6ee878	-0.9332347
155	0x3f5ac811	0.8546153
156	0xbf8d3fc3	-1.1035084
157	0x3f79926e	0.9748906
158	0xbf93a83a	-1.1535714
159	0x3f87fa51	1.0623266
160	0xbf808845	-1.0041586
161	0xbf8141e1	-1.009823
162	0xbdc5aaf7	-0.096517496
163	0xbdb99a5d	-0.090626456
164	0x3da49833	0.08036842
165	0x3d5d8a5d	0.05408703
166	0xbb553985	-0.0032535505
167	0xbe075aa2	-0.13218167
168	0xbc44f2bc	-0.012020763
169	0xbc7cdeb6	-0.015433958
170	0x3c5b749d	0.013394502
171	0xbcbc042b	-0.022951206
172	0x3b1e6a07	0.0024172084
173	0x3d90cb87	0.0707007
174	0xbd2e0906	-0.042489074
175	0xbd97b3d0	-0.074073434
176	0x3dee0eb6	0.116239
177	0xbd0d174b	-0.034446042
178	0xbdff7a9a	-0.12474556
179	0xbdb53abb	-0.088490926
180	0x3e002b06	0.12516412
181	0xbdd72004	-0.10504153
182	0xbb04aa2d	-0.0020243034
183	0xbdf075a1	-0.11741186
184	0xbadb18f6	-0.0016715813
185	0x3def6c48	0.11690575
186	0xbc94a9f6	-0.01814745
187	0xbdc12bd9	-0.094321914
188	0x3d2a32a8	0.041552216
189	0x3ce44b92	0.027868066
190	0xbd6380fa	-0.055542924
191	0xbdecd220	-0.11563516
192	0x3d3dc80d	0.04633336
193	0x3dc46ce1	0.095910795
194	0x3d8da73c	0.06916663
195	0xbd9265a1	-0.071482904
196	0x3dd38fec	0.10330185
197	0xbda2e8f4	-0.079545885
198	0x3d5c4e13	0.053785395
199	0x3dc4fb02	0.096181884
200	0xbd0ab701	-0.033865932
201	0xbae6038f	-0.0017548668
202	0x3e03bd0c	0.12865084
203	0x3c1dee99	0.009639406
204	0x3e097539	0.13423623
205	0xba917ef1	-0.0011100454
206	0x3cea40c9	0.028595345
207	0xbb8d0f0f	-0.0043047736
208	0x3dded097	0.10879629
209	0xbc5fb1ce	-0.013653232
210	0x3d452a27	0.048135903
211	0x3d82e1e0	0.063907385
212	0x3df84f2b	0.12124475
213	0xbdde9a3e	-0.10869263
214	0x3d1718d0	0.036888897
215	0x3de01c28	0.109428704
216	0x3f81966b	1.0124029
217	0x3f5e9633	0.86947936
218	0x3def537e	0.11685847
219	0x3e55270c	0.20815676
220	0x3f831008	1.0239267
221	0x3f738e26	0.95138776
222	0x3f877e90	1.0585499
223	0xbf831f1d	-1.024387
224	0xbf8c2c87	-1.0951089
225	0xbf755e93	-0.95847434
226	0xbf82c7f7	-1.0217274
227	0xbf7ce749	-0.98790413
228	0xbf84ac01	-1.0364991
229	0x3f6d8a3e	0.92789066
230	0x3f801c82	1.00087
231	0xbf6ddb11	-0.92912394
232	0xbf92c133	-1.146521
233	0x3f8342e2	1.0254786
234	0xbf722c93	-0.94599265
235	0x3f83e520	1.0304298
236	0xbf746464	-0.95465684
237	0x3f81c0c1	1.0136949
238	0xbf823c6d	-1.017469
239	0xbf8198ba	-1.0124733
240	0x3f8ceb8a	1.1009381
241	0xbf712370	-0.941947
242	0xbf8b9e03	-1.0907596
243	0x3f6094b4	0.877269
244	0xbf6ef16f	-0.9333715
245	0xbf7f0595	-0.9961789
246	0xbf699ee5	-0.9125808
247	0x3f8900c0	1.0703354
248	0x3f5a940d	0.8538216
249	0x3f8e6735	1.1125246
250	0x3f6ca0d5	0.9243291
251	0x3f8a7a0b	1.0818495
252	0xbf805a17	-1.0027493
253	0xbf8c56a4	-1.0963941
254	0xbf78cbb1	-0.9718581
255	0x3f84e4fa	1.0382378

mlp.0.bias f4 [256]
0	0x3f806779	1.0031577
1	0xbdf785db	-0.12086078
2	0x3f8208f4	1.0158982
3	0x3d262652	0.04056389
4	0x3f8db623	1.1071209
5	0x3f92121c	1.1411777
6	0x3f6bbf24	0.9208853
7	0xbd795b11	-0.060877863
8	0x3f81f9cc	1.0154357
9	0x3f66a381	0.9009324
10	0xbc41cdea	-0.011828879
11	0xbdc4119f	-0.095736735
12	0x3f837d21	1.0272561
13	0xbc49b08e	-0.01231016
14	0x3f8da0fa	1.1064751
15	0xbcd5b712	-0.026088271
16	0x3f66313d	0.8991888
17	0x3f843527	1.0328721
18	0x3f7eeee7	0.99583286
19	0xbe01fa34	-0.12693101
20	0x3f68c950	0.9093218
21	0x3f7181a8	0.94338465
22	0x3d7d004c	0.06176786
23	0xbe0a34fa	-0.13496771
24	0x3f70dfba	0.9409138
25	0x3c8a4524	0.016878672
26	0xbdc14f3f	-0.09438943
27	0x3f852b2b	1.0403799
28	0x3f703b78	0.9384074
29	0x3f7536f1	0.9578696
30	0x3f81f38a	1.0152447
31	0x3f7eb93a	0.99501383
32	0x3f8d0698	1.1017637
33	0x3f6f14a8	0.93390894
34	0x3d52bebe	0.051451437
35	0xbdad23a8	-0.084540665
36	0xbcb2dca8	-0.021833733
37	0xbda77b65	-0.081778325
38	0x3d942e50	0.07235396
39	0x3db2f306	0.08737759
40	0x3d9eec76	0.07759945
41	0x3f87cbb6	1.0609043
42	0x3f6fc916	0.9366621
43	0x3f8bb429	1.0914356
44	0x3f6436ee	0.89146316
45	0x3f7b1134	0.98073125
46	0x3d108768	0.035285383
47	0x3edfa0cf	0.43677375
48	0xbdbfe523	-0.09369876
49	0x3f6573ab	0.8962962
50	0x3f705540	0.9388008
51	0xbd112973	-0.03543992
52	0x3f62b678	0.88559675
53	0x3f8dd94e	1.1081941
54	0x3f73a481	0.9517289
55	0x3f6ff586	0.93734014
56	0x3f65412f	0.8955259
57	0x3bb00bb1	0.0053724875
58	0x3d1a198b	0.037622016
59	0x3f915093	1.1352714
60	0xbcc57759	-0.024104761
61	0x3f68e698	0.9097686
62	0x3f78645a	0.97028124
63	0xbdb70c38	-0.089378774
64	0x3f819f3e	1.0126722
65	0x3d2a4f5d	0.041579593
66	0x3db46a1a	0.088093
67	0xbdbb81ea	-0.091556385
68	0x3f907ce8	1.1288118
69	0x3d926195	0.071475185
70	0xbb02aa2e	-0.001993786
71	0x3f8ee8ac	1.1164756
72	0x3d32e01b	0.043670755
73	0xbd4fd830	-0.05074328
74	0x3f94066e	1.1564462
75	0x3f7cded5	0.98777515
76	0x3f6e48fb	0.9308011
77	0x3f66387b	0.8992993
78	0x3d2da729	0.042395744
79	0x3d0a8686	0.033819698
80	0xbd42cc9a	-0.047558405
81	0x3f942342	1.157326
82	0x3f80723f	1.0034865
83	0xbd5bb50f	-0.053639468
84	0x3f741fa6	0.9536079
85	0x3f82a50a	1.0206616
86	0x3f71e993	0.9449703
87	0x3f75135d	0.9573267
88	0x3f79eb9b	0.9762513
89	0xbc78be47	-0.015182084
90	0x3f916bb0	1.1360989
91	0x3f82a3ae	1.0206201
92	0x3f91a78d	1.1379257
93	0xbd906804	-0.070510894
94	0x3dbdb5b6	0.09263174
95	0x3f6975cb	0.9119536
96	0x3cc77ea0	0.024352372
97	0xbdeab818	-0.11460894
98	0x3f71be79	0.94431263
99	0x3bce6ed4	0.006299833
100	0xbe018090	-0.12646699
101	0x3f83c387	1.0294045
102	0x3f678edc	0.9045236
103	0x3f8eaa9f	1.114582
104	0x3f7144a5	0.9424537
105	0x3f928398	1.1446409
106	0x3f9362e6	1.1514556
107	0x3f6e54fb	0.9309842
108	0x3d63851f	0.055546876
109	0x3f902236	1.126044
110	0x3f823893	1.0173515
111	0x3f71ab52	0.9440204
112	0x3f93762a	1.1520436
113	0xbe134416	-0.14381441
114	0x3f653d79	0.89546925
115	0xbdebea4c	-0.11519298
116	0x3f6efc83	0.9335405
117	0x3d47bf4a	0.04876641
118	0xbe03e966	-0.12882003
119	0x3d709e99	0.058745
120	0xbbb3b996	-0.00548477
121	0x3f5e032d	0.86723596
122	0x3f86f012	1.0542014
123	0xbd6b92d5	-0.057513077
124	0x3f729d1f	0.94771
125	0x3f92410f	1.1426104
126	0x3f7d2e7f	0.9889907
127	0xbddd176e	-0.107954845
128	0x3f9019dd	1.1257893
129	0x3f83545d	1.0260121
130	0x3ca315c9	0.019907849
131	0x3cf7f690	0.030268937
132	0x3f6c5cae	0.9232892
133	0x3d592e67	0.05302277
134	0x3f8f8000	1.1210938
135	0x3f64c90d	0.8936928
136	0x3f71917e	0.9436263
137	0xbce142a0	-0.02749759
138	0x3f85b6af	1.0446376
139	0x3f7892ac	0.97098804
140	0x3f80911b	1.0044283
141	0x3db37554	0.08762613
142	0x3b7a2660	0.0038169846
143	0x3f8307f0	1.0236797
144	0x3d613ee5	0.05499162
145	0x3f5a8ad9	0.85368115
146	0x3f6ef501	0.93342596
147	0x3f736ddb	0.950895
148	0x3f9127d1	1.1340276
149	0x3d4ca2a9	0.049959812
150	0x3d9ed3cb	0.0775524
151	0x3f8f25f3	1.1183456
152	0x3f715788	0.9427419
153	0x3f910cb0	1.1331997
154	0x3f802064	1.0009885
155	0x3f883182	1.0640109
156	0x3f82beb9	1.0214454
157	0x3f8d8e24	1.1059003
158	0x3f69fa23	0.91397303
159	0x3f389bf9	0.72112995
160	0xbdb0b83b	-0.08628889
161	0x3f78de85	0.9721454
162	0x3d7f1684	0.062277332
163	0x3f83db1e	1.0301244
164	0x3e6b4102	0.22974017
165	0x3f675cd5	0.90376025
166	0x3f81c82c	1.0139213
167	0xbe106a71	-0.14103104
168	0x3f84a12c	1.0361686
169	0x3f729c56	0.947698
170	0x3f933193	1.1499504
171	0x3f86a0f8	1.0517874
172	0x3f92957e	1.1451871
173	0x3f82fbd4	1.0233102
174	0x3f8db64e	1.107126
175	0xbd739bc3	-0.059474718
176	0xbe09ff0a	-0.13476196
177	0xbd1af5e9	-0.037832174
178	0xbde415e0	-0.11136985
179	0x3f82cb23	1.0218242
180	0x3f7611ac	0.96120715
181	0x3c31c177	0.010849348
182	0x3f6a1cad	0.91450006
183	0x3f93a8b5	1.153586
184	0x3c9dedf5	0.019278506
185	0x3da6d99c	0.081469744
186	0xbd63c296	-0.055605493
187	0x3f82e82d	1.0227104
188	0x3f861d10	1.0477619
189	0x3d088f23	0.03333963
190	0x3f74d8aa	0.95643103
191	0x3f93e51f	1.1554297
192	0x3f862a4b	1.0481657
193	0x3f72999c	0.9476564
194	0x3f8d2f1c	1.1030002
195	0x3f7ed953	0.9955036
196	0x3f73389b	0.9500825
197	0x3f9495c7	1.1608208
198	0xbe00c102	-0.12573627
199	0x3f8e4611	1.1115133
200	0x3f8cf414	1.1011987
201	0xbc7d4818	-0.015459083
202	0x3f6373b1	0.88848406
203	0xb9c3569b	-0.00037257824
204	0x3f8bf9c6	1.09356
205	0x3f83e708	1.030488
206	0xbd3805c7	-0.044927385
207	0x3f90112e	1.1255243
208	0x3f86e958	1.0539961
209	0x3f899e26	1.0751388
210	0xbddf3b62	-0.10899998
211	0x3f7f4f90	0.9973078
212	0x3d1eaf1f	0.038741227
213	0x3f838879	1.0276023
214	0x3d983c0c	0.07433328
215	0x3f684325	0.90727454
216	0x3b237002	0.0024938588
217	0x3f7151e3	0.94265574
218	0x3f9249f4	1.1428819
219	0x3c440889	0.011964926
220	0x3f8b4469	1.0880252
221	0xbe24c15f	-0.1608939
222	0x3ced65e7	0.028979255
223	0xbd52ac9a	-0.051434137
224	0x3f73b339	0.9519535
225	0x3f8bb1f3	1.0913681
226	0x3f84610d	1.0342118
227	0x3d04af21	0.03239358
228	0x3f8ea015	1.1142603
229	0x3d7fd478	0.062458485
230	0x3ee22015	0.44165102
231	0x3f7dc8e8	0.99134684
232	0x3d094ab5	0.03351851
233	0x3ec3d8f4	0.3825146
234	0xbb8cc7aa	-0.0042962627
235	0x3ce49330	0.027902216
236	0x3f8057f8	1.0026846
237	0xbd1d48a5	-0.038399357
238	0x3f733e90	0.9501734
239	0x3f8755b1	1.0573026
240	0x3dd51aaa	0.104054764
241	0x3f7ddf53	0.9916889
242	0xbc200197	-0.009766004
243	0x3cbb4d69	0.02286406
244	0x3f63da4b	0.89004964
245	0x3f73fe86	0.95310247
246	0x3f7ec0e9	0.9951311
247	0x3e005693	0.12533025
248	0x3d6e5195	0.05818327
249	0x3f65fcc9	0.89838845
250	0xbd7eeea2	-0.062239297
251	0x3f8c716e	1.0972116
252	0x3f6e7952	0.9315387
253	0x3f68152c	0.90657306
254	0xbb957116	-0.0045606
255	0x3f880716	1.0627162

mlp.2.weight f4 [128, 256]
0	0x3c0e54f6	0.008687248
1	0x3b3eb620	0.0029100254
2	0x3cbe3aa0	0.023221314
3	0x3d771814	0.060325697
4	0xbc721656	-0.014775833
5	0xbc91efd1	-0.017814549
6	0xbc37afbf	-0.011211335
7	0x3d562262	0.052278884
8	0xbd5eb4f3	-0.054371785
9	0x3d4e849d	0.05041944
10	0x3cb99a24	0.022656508
11	0xbd59eaac	-0.053202316
12	0x3d4fa530	0.050694644
13	0x3c86b7e0	0.0164451
14	0xbcd40b54	-0.025884308
15	0xbd7072b2	-0.058703132
16	0x3d3505c7	0.044194963
17	0xbc76a817	-0.015054724
18	0xbcbc1c59	-0.022962736
19	0x3d45623c	0.048189387
20	0x3cea8a14	0.028630294
21	0x395a0a7c	0.00020794006
22	0x3d506d5c	0.050885543
23	0xbd1aaa0a	-0.037759818
24	0x3d418fe1	0.047256354
25	0x3c952824	0.018207617
26	0xbd31ff42	-0.043456323
27	0xbd7e714b	-0.062119763
28	0xbc0d567d	-0.008626577
29	0x3d162200	0.03665352
30	0xbd05dc29	-0.032680664
31	0xbb7d86e6	-0.0038685142
32	0x3bed93e6	0.007250297
33	0x3bfb13d6	0.0076622767
34	0xbcae5d5c	-0.021284752
35	0xbc941188	-0.018074766
36	0xbd6d7ba4	-0.05797924
37	0xbc869f58	-0.016433403
38	0x3c9e61d4	0.019333757
39	0xbd4c6042	-0.049896486
40	0xbbcc98f0	-0.0062438175
41	0x3cb90134	0.022583582
42	0xbcc468f8	-0.023975834
43	0xbd8ccff0	-0.068755984
44	0x3b593406	0.003314258
45	0xbd5f6d9e	-0.0545479
46	0x3d5fb0aa	0.05461184
47	0x3d5cd42a	0.053913273
48	0x3d2cdc20	0.042202115
49	0x3d512f12	0.05107028
50	0xbd478072	-0.04870648
51	0xbcd0c090	-0.025482446
52	0xbd2dffc9	-0.042480264
53	0x3d40ecb5	0.04710074
54	0xbc635e1a	-0.013877416
55	0x3c85da43	0.016339427
56	0xbcfc5d83	-0.030806309
57	0x3d12746e	0.035755567
58	0x3c86811c	0.016418986
59	0xbd465160	-0.04841745
60	0x3bb9d450	0.0056710616
61	0xbbb17270	-0.0054152533
62	0xbc4a7abe	-0.012358366
63	0xbc2e0810	-0.010622039
64	0xbc367df0	-0.011138424
65	0x3c106fe0	0.008815736
66	0xbcb6e520	-0.022326052
67	0x3d1b486e	0.03791087
68	0xbcab6c30	-0.020925611
69	0x3d15281a	0.036415197
70	0xbd1c8f16	-0.038222395
71	0xbd30d4ec	-0.043171808
72	0xbc37bab8	-0.011213951
73	0xbd490734	-0.049079135
74	0x3d3ce7d3	0.046119522
75	0x3cd03b1e	0.025418814
76	0xbd26351e	-0.040578
77	0x3ca800e7	0.020508243
78	0xbd57a526	-0.052647732
79	0xbc6a6440	-0.014306128
80	0xbcd73430	-0.026270002
81	0x3c83c8be	0.016086932
82	0x3ab79dff	0.0014008878
83	0xbcca3ea4	-0.024688073
84	0xbd57f2d8	-0.05272183
85	0x3b2e6991	0.0026613215
86	0xbd838ca6	-0.06423311
87	0xbd1b0230	-0.037843883
88	0xbd8207e0	-0.06349158
89	0xbbeb8d40	-0.007188469
90	0x3d1ce475	0.03830381
91	0xbd877f8d	-0.06616125
92	0x3d552e87	0.052046325
93	0xbd0e5c7c	-0.03475617
94	0xbd61f732	-0.055167384
95	0xbd8b2704	-0.06794551
96	0x3d224e9c	0.03962575
97	0xbd68218a	-0.05667261
98	0x3b34761d	0.0027536221
99	0xbca98f2c	-0.020698152
100	0xbd1e08a2	-0.03858245
101	0x3cc0bfc8	0.023528948
102	0xbbe76afc	-0.007062314
103	0xbcc2890b	-0.023746988
104	0xbb922fc5	-0.004461261
105	0x3d2f224b	0.042757314
106	0xbd52cbfa	-0.05146406
107	0x3ca026c5	0.019549737
108	0xbd05f7a0	-0.032706857
109	0xbd1d8c0b	-0.038463634
110	0x3d4e3ac1	0.050349
111	0x3d3e93fd	0.04652785
112	0xbc842240	-0.016129613
113	0x3d75dab6	0.060023032
114	0xbb269925	-0.002542087
115	0x3cb5d1b4	0.02219472
116	0x3b7cf003	0.0038595207
117	0x3c9712d7	0.0184416
118	0xbc658188	-0.014007933
119	0x3c4b5388	0.012410052
120	0x3d14121a	0.036150075
121	0x3d0598f4	0.03261657
122	0xbc1504a8	-0.009095348
123	0xbd264ddc	-0.040601596
124	0xbd349d6e	-0.04409545
125	0x3cbfd133	0.023415184
126	0x3d2b0925	0.041756768
127	0xbc6f6360	-0.014611095
128	0x3cad88ed	0.021183455
129	0xbd4cb71a	-0.049979307
130	0xbd5ac6b2	-0.053412147
131	0xbaada2c0	-0.0013247356
132	0xbcef10ce	-0.029182818
133	0x3c93edcc	0.018057726
134	0xbcd5c19f	-0.026093302
135	0xbc7805c7	-0.015138096
136	0x3d80a638	0.06281704
137	0xbd1fd010	-0.039016783
138	0xbb40fbc9	-0.002944695
139	0xba9ac234	-0.0011807145
140	0xbd865ac0	-0.06560278
141	0x3ccd3378	0.025048956
142	0xbcb6e260	-0.02232474
143	0xbd6cfefc	-0.05786036
144	0xbbbed330	-0.0058235154
145	0x3cb667ab	0.02226623
146	0x3d1ed128	0.038773686
147	0xbd8959ce	-0.06706582
148	0xbb9cdf5c	-0.0047873687
149	0x3d742f58	0.059615463
150	0x3c02bc38	0.007979445
151	0x3ce43a23	0.027859753
152	0xba878b0a	-0.001034112
153	0xbd0949b3	-0.03351755
154	0xbd1321ba	-0.035920836
155	0xbd3ce87a	-0.046120144
156	0xbc714816	-0.014726659
157	0x3b9a5bfe	0.0047106734
158	0xbd260ec5	-0.04054143
159	0x3d2fb10c	0.042893454
160	0xbd7fe956	-0.062478386
161	0x3d089f9d	0.033355344
162	0x3d3f75fe	0.046743385
163	0xbd696689	-0.05698255
164	0xbcac74c0	-0.021051764
165	0xbd82736f	-0.063696735
166	0x391a2ab9	0.000147025
167	0xbc6a76b0	-0.014310524
168	0xbceb982d	-0.028759087
169	0x3d87470a	0.066053465
170	0xbd6b9158	-0.057511657
171	0xbc1e0c3f	-0.009646474
172	0xbc990456	-0.018678825
173	0xbd73079c	-0.05933343
174	0xbb774113	-0.0037727996
175	0x3ce7ba60	0.028287113
176	0x3d4e2a1a	0.05033312
177	0x3c2f1920	0.010687143
178	0x3d49289a	0.049110986
179	0x3b61c5a0	0.003445007
180	0xbd2ba89f	-0.041908856
181	0xbcf45f68	-0.02983065
182	0x3c82a45d	0.015947515
183	0x3d0f8008	0.03503421
184	0xbc517288	-0.012783654
185	0x3d7c50fc	0.06160067
186	0x3c3b5360	0.011433452
187	0xbce914a5	-0.028452227
188	0xbd9035e6	-0.0704153
189	0x3b86aa60	0.0041096658
190	0x3cbe1a66	0.023205947
191	0xbbec8d0a	-0.0072189616
192	0xbb4185b3	-0.0029529154
193	0xbd5d667f	-0.054052826
194	0xbccf754e	-0.02532449
195	0xbc529fb2	-0.012855457
196	0xbd266f98	-0.040633768
197	0xbc129d14	-0.008948583
198	0x3d1aaa52	0.037760086
199	0x3cac5466	0.021036338
200	0xbd43d191	-0.04780728
201	0x3d39dc3a	0.04537604
202	0xbd8feb69	-0.07027323
203	0xbc42b828	-0.011884727
204	0x3cd3578b	0.02579858
205	0xbcb8f85b	-0.022579363
206	0xbd03183a	-0.032005526
207	0xbb85fc60	-0.0040889233
208	0xbd1604af	-0.03662556
209	0xbcddcea1	-0.027076067
210	0xbd62a9d4	-0.055337742
211	0xbd616f77	-0.05503794
212	0x3d169db6	0.0367715
213	0x3d0a4f05	0.033766765
214	0x3cabf220	0.020989478
215	0x3cbe926e	0.023263182
216	0x3d38122e	0.044939213
217	0xbd6074d8	-0.05479893
218	0xbd55ec58	-0.052227348
219	0xbcf65e04	-0.030074127
220	0x3d34a93d	0.04410671
221	0x3ca41faf	0.02003464
222	0xbd638480	-0.055546284
223	0xbce4e088	-0.027939096
224	0x3ada7cb9	0.001666925
225	0xbc696330	-0.01424484
226	0x3d2d6a5f	0.04233777
227	0xbd0e9a70	-0.03481525
228	0x3cccf1e9	0.025017696
229	0x3cb6b8fc	0.022305004
230	0x3d12e592	0.035863467
231	0x3d079502	0.03310109
232	0x3b4d3f80	0.0031318367
233	0x3d3a86c1	0.045538668
234	0x3d5956d2	0.053061314
235	0xbc795a80	-0.015219331
236	0xbd08f55f	-0.03343713
237	0x3cb6a624	0.022296019
238	0x3c30b1a9	0.010784545
239	0x3d3ad129	0.045609627
240	0x3d79e9fc	0.06101416
241	0xbbde9266	-0.0067923544
242	0xbb6dc9e0	-0.0036283657
243	0x3d5ad988	0.05343011
244	0x3d2fec20	0.042949796
245	0xbcf68eb8	-0.03009735
246	0xbd2b3438	-0.041797847
247	0x3d7727ee	0.060340814
248	0xbc30d6fc	-0.010793444
249	0xbd603d36	-0.054745875
250	0x3d65cde2	0.05610455
251	0xbcef0756	-0.029178303
252	0x3cd1dc17	0.025617642
253	0xbd75628d	-0.05990844
254	0xbd256518	-0.040379614
255	0x3d39830b	0.045290988

mlp.2.bias f4 [128]
0	0x3c26df1d	0.01018503
1	0x3f77f03d	0.9685095
2	0x3cff99e8	0.031201318
3	0x3f5f01f3	0.8711235
4	0xbd24f83c	-0.040275797
5	0x3f739927	0.95155567
6	0xbd22feae	-0.039793663
7	0xbd7e8b02	-0.062144287
8	0x3f6aac61	0.9166928
9	0x3b5e9900	0.0033965707
10	0xbd66a72a	-0.056311764
11	0x3d637e83	0.055540573
12	0xbd5c3fd2	-0.0537718
13	0xbb086100	-0.002080977
14	0x3f686cdc	0.90791106
15	0xbc5caa1d	-0.013468293
16	0x3f75bdbe	0.9599265
17	0xbd29517e	-0.041337483
18	0x3d12a219	0.03579912
19	0xbd574a7c	-0.05256127
20	0x3bccf3c8	0.006254647
21	0xbd7dccd4	-0.061962917
22	0x3f805906	1.0027168
23	0x3cd55aec	0.026044331
24	0xbc998ef0	-0.018744916
25	0xbb73ab20	-0.0037180856
26	0x3f7b00bd	0.98048
27	0x3d502244	0.05081393
28	0xbccd8a88	-0.02509047
29	0xbd2f82fa	-0.04284952
30	0xbd7829fc	-0.060586914
31	0x3d366870	0.044533193
32	0x3f6763af	0.9038648
33	0x3f6e20a0	0.9301853
34	0x3d031b8a	0.032008685
35	0xbd08beed	-0.033385206
36	0x3f74fc1c	0.9569719
37	0x3f80c350	1.0059605
38	0x3f725110	0.9465494
39	0x3f7d004c	0.9882858
40	0xbd1cc3a4	-0.038272515
41	0x3f66b723	0.90123194
42	0x3cb98e7a	0.022650946
43	0x3a7b64ad	0.0009589892
44	0xbd53a5a4	-0.05167164
45	0x3f7f0fa4	0.9963324
46	0xbcc27ddb	-0.023741653
47	0x3f79bf9a	0.97557986
48	0xbd48fe46	-0.04907062
49	0x3cdf5224	0.027260847
50	0x3d0999b9	0.033593867
51	0xbca073d7	-0.019586487
52	0x3c41d51a	0.0118305925
53	0x3f73fd2d	0.9530819
54	0x3f74e67d	0.956642
55	0x3f780869	0.9688783
56	0x3d49eb6c	0.04929678
57	0x3d4e3b1c	0.05034934
58	0xbcf0c8aa	-0.02939256
59	0xbb8986e0	-0.0041969866
60	0x3d3f60f6	0.04672333
61	0xbd7231fe	-0.059129708
62	0x3c0cf0d8	0.0086023435
63	0x3c6b4d10	0.014361635
64	0x3f6339f8	0.8876033
65	0x3b9a3120	0.004705563
66	0xbcb45814	-0.022014655
67	0x3f6dc485	0.9287799
68	0xbd6823be	-0.05667471
69	0x3d04b113	0.032395434
70	0x3d477aea	0.048701204
71	0xbd8f1a00	-0.06987381
72	0x3f5ebbbb	0.87005204
73	0x3bf76540	0.0075499117
74	0x3d0c887b	0.034309845
75	0x3f6e23e5	0.9302352
76	0x3d010921	0.031502847
77	0xbd6eff03	-0.058348667
78	0x3c915c21	0.017744126
79	0x3f7458b1	0.9544783
80	0x3f722e07	0.9460148
81	0xbbbb4a6b	-0.0057156584
82	0xbd6d63bf	-0.057956453
83	0x3f740afc	0.9532926
84	0x3f786822	0.97033894
85	0xbd00ae23	-0.03141607
86	0xbcca80a2	-0.02471954
87	0x3d5fde66	0.054655455
88	0x3f6821df	0.90676683
89	0xbd7d41b4	-0.061830238
90	0xbcf43284	-0.029809244
91	0x3d62bf5a	0.05535827
92	0xbd3ef2a0	-0.046618104
93	0x3f788d78	0.97090864
94	0xbd88f367	-0.0668705
95	0xbd5f21be	-0.05447554
96	0xbc9421c0	-0.0180825
97	0x3c5474d3	0.012967306
98	0x3cfd6f3b	0.030936828
99	0x3d280997	0.04102477
100	0xbbeef839	-0.007292774
101	0x3d1d03a2	0.038333543
102	0x3d0c6528	0.034276158
103	0xbd1733e3	-0.036914717
104	0x3bcb39a7	0.006201941
105	0x3f62d727	0.88609546
106	0xbd6912a6	-0.05690255
107	0x3f7d81d6	0.9902624
108	0x3f611611	0.87924296
109	0x3f778e04	0.96701074
110	0x3d2e2d31	0.042523567
111	0xbd7b6a4f	-0.06138068
112	0x3f609a20	0.87735176
113	0x3f6e38c7	0.93055385
114	0x3d592692	0.0530153
115	0x3ccf1084	0.02527643
116	0xba07a302	-0.00051741314
117	0x3f4a9a58	0.7914176
118	0x3f6b39b3	0.9188492
119	0x3a89ebc0	0.001052253
120	0x3f6a3069	0.9148012
121	0x3d11da26	0.035608433
122	0xbb0cd8e8	-0.002149159
123	0x3d5155ac	0.051107094
124	0xbbae2770	-0.00531476
125	0xbbbfbc01	-0.0058512692
126	0x3ab327df	0.0013668499
127	0x3f7874a7	0.97053
