weights/steps_370001.pth (torch, 276355 bytes, 10 tensors)

lstm.weight_ih_l0 f4 [192, 7]
000000 f5 b4 db bd a3 b3 b2 bd 7b 84 85 bd 8b 3f 26 bc
       -0.10727874 -0.08725669 -0.06519409 -0.010146986
000010 b3 2d 23 3e ef 88 c8 bd 3b 0a 89 bd a4 ca ea bd
       0.15935402 -0.09791743 -0.066914044 -0.11464432
000020 63 a0 27 be c5 77 8f bd 6c 15 83 bc 51 04 c7 bb
       -0.16369776 -0.07005266 -0.016001426 -0.0060735126
000030 0d 52 76 3d 32 e3 04 bd 42 90 57 3d 1d 59 a0 3d
       0.060136843 -0.032443233 0.05262781 0.07829497
000040 e4 40 45 3d 39 97 87 3d 9b 81 8b 3d ec 33 91 3d
       0.048157588 0.0662064 0.0681183 0.070899814
000050 f0 97 68 3d 53 8f 17 be 8e 4e 87 3c 5b 93 ff 3d
       0.056785524 -0.14800768 0.01651695 0.12479278
000060 80 b0 2d 3e 20 fd 0f 3e f0 69 97 3d d2 dc af 3d
       0.1696186 0.14061403 0.07393253 0.0858704
000070 0a 61 7d 3d 07 45 a0 3d 77 f5 51 bc fe a1 73 bc
       0.06186012 0.07825666 -0.012814871 -0.014870165
000080 1b 34 8b 3c fe d0 0b 3e d3 82 95 bc 71 15 2e bd
       0.01699262 0.13653943 -0.018250858 -0.042500917
000090 76 a0 cc bd ca e8 f7 3d 48 ca 7c bd 93 d7 de 3d
       -0.09991543 0.12104948 -0.061716348 0.10880961
0000a0 fa b0 43 bd a2 f6 c5 3d f1 cf 03 be 64 0f cc 3c
       -0.0477762 0.09666182 -0.12872292 0.024909683
0000b0 69 fa 7a 3d 17 7a d0 3d a6 64 12 3e 17 80 cb bd
       0.061273966 0.10179537 0.14296207 -0.099365406
0000c0 1c 7a 96 bd af d6 4f bd fc 66 67 bd c8 7c 8a bd
       -0.07347509 -0.050741848 -0.056494698 -0.067620814
0000d0 9a 3d b0 3a 26 da 80 bd 61 83 b6 bd ee 4a df 3b
       0.0013446093 -0.062916085 -0.08911777 0.0068143522
0000e0 c2 c0 b7 bd 46 49 82 3c 10 5c 89 3d 0a 8f 81 bd
       -0.089723125 0.01590408 0.06707013 -0.06326111
0000f0 a5 0a 84 3d 7a 68 cf bd 7b da 0e bd 63 01 64 3e
       0.06447343 -0.10127349 -0.034876328 0.22266154
000100 87 54 f3 bc 5f 33 90 3d 39 fb 77 3d 47 96 21 3c
       -0.029703392 0.07041048 0.06054232 0.009862489
000110 57 73 04 3e 3d e6 02 bd 9d 64 d5 bd 04 d6 b1 bd
       0.12934624 -0.031957854 -0.10419581 -0.08683398
000120 dc ea 4c 3d 89 20 26 3e 67 a1 1d 3e cf 82 91 bd
       0.050028667 0.16223349 0.15393601 -0.07105028
000130 74 24 12 3e 96 db 17 be 75 d2 a3 3a f0 86 fe 3d
       0.14271718 -0.14829859 0.0012498634 0.12428081
000140 ed 4d 05 3b 3e ef 76 3d 7e 4f 4c 3d ca 70 9f 3b
       0.0020340637 0.060286753 0.049880497 0.0048657404
000150 03 1d 23 bd b2 11 48 3c 1b 40 ed bd 6e 76 97 3c
       -0.03982259 0.01221125 -0.11584493 0.018489089
000160 98 46 9e bc d4 34 15 3d f9 39 a4 bd a1 63 3d 3d
       -0.019320771 0.036427334 -0.0801887 0.04623759
000170 17 e3 be bb 8d 2b 67 3d 87 b4 fa 3c e5 c4 fe bd
       -0.005825411 0.056438018 0.03060366 -0.124398984
000180 2b 0b e8 3d c3 a8 f7 bd 94 9a 4f bd dc 53 40 bd
       0.11330255 -0.120927356 -0.050684527 -0.046954975
000190 39 88 ea 3d 79 ce 7c bd 85 e8 a2 bd 94 64 5e bd
       0.11451764 -0.061720345 -0.07954506 -0.054295138
0001a0 09 ce 1f 3e b1 ab 29 be e0 47 2c be 9f 9b 9d bd
       0.1560594 -0.16569401 -0.16824293 -0.07695698
0001b0 7f 70 79 3d 10 23 cd bd 22 e2 b1 3d 8c 47 aa bd
       0.0608983 -0.10016453 0.086857095 -0.08314428
0001c0 c2 33 cc 3d 2b 80 21 3e 70 65 a8 3d 10 1f 97 bd
       0.099708095 0.15771548 0.08222473 -0.073789716
0001d0 47 85 78 3d 35 67 c6 3c 5a c1 47 3e 4c df c2 bd
       0.06067398 0.024219135 0.19507352 -0.09515247
0001e0 88 2a 16 be 74 5c f2 3d 8d e5 b6 3d c2 61 09 3e
       -0.14664662 0.1183404 0.08930502 0.13416198
0001f0 7d 11 05 3e 3b e5 22 3e ee d4 2a bd a7 30 0e 3d
       0.12994952 0.15907757 -0.04170697 0.034714367
000200 7f 99 e3 3d aa 73 8b bd 70 0c 32 3e 18 7a b3 3d
       0.111132614 -0.068091705 0.17387557 0.08763522
000210 e3 61 76 3d 1d 21 bd 3d 2e 15 35 3e a1 b8 eb 3d
       0.060151946 0.092348315 0.1768386 0.115098245
000220 9d 78 91 3a 8b 76 c9 bd bb 6f 30 3e 6c 24 f9 3d
       0.0011098568 -0.098370634 0.17230122 0.1216515
000230 93 5e 66 bd 08 e8 c8 3c de f6 a8 3d cf 6e a5 3d
       -0.056242537 0.024524704 0.08250211 0.08077776
000240 89 30 8f 3d b1 5c f6 bd 42 3f a2 3d 4a cb 80 bd
       0.06991679 -0.12029398 0.07922222 -0.06288774
000250 61 e0 97 bd c3 0d 17 3d 91 eb 27 bc 40 ed b7 3c
       -0.07415844 0.03687836 -0.0102490345 0.022451997
000260 42 72 77 bd 93 8b 4b bc 52 ab 0f be 70 7f d7 bd
       -0.0604117 -0.012423414 -0.14030197 -0.10522354
000270 a2 7e 98 bd 11 e8 34 bd 7a fc a0 3d d8 87 d3 bd
       -0.07446028 -0.04416663 0.07860656 -0.103286445
000280 e3 65 fb 3b d1 34 6a bc 07 b3 73 bc 77 44 0a 3d
       0.007672058 -0.014294819 -0.014874226 0.0337567
000290 ef 9b 68 3d 65 d4 0b 3e e9 b7 3e bd 80 c7 0a 3e
       0.056789335 0.13655241 -0.04656211 0.13552666
0002a0 b7 da 3f 3e 52 3b 80 3d e2 01 c9 3d 46 a5 51 bd
       0.18735777 0.062613145 0.09814812 -0.051183008
0002b0 0f 17 3f 3d 70 b4 02 3e 02 e9 5f bd 4c 52 1f 3e
       0.04665285 0.12764144 -0.054665573 0.15558738
0002c0 41 5a fc 3d f5 49 a9 3d 09 e7 30 3e 58 b3 5b 3d
       0.12321902 0.08266059 0.17275633 0.053637832
0002d0 c6 f8 f4 bd 7c e7 06 3d da f2 2d 3e 87 f9 a0 bd
       -0.11961512 0.032935604 0.16987172 -0.078600936
0002e0 87 82 c1 3d 94 c0 09 3e 82 e0 03 3e 1e 31 82 3d
       0.09448724 0.13452369 0.12878612 0.063570246
0002f0 8d 23 0e 3e 0f 0e 16 bd 72 8f 1f 3e 45 14 8d 3d
       0.13880749 -0.0366345 0.15582064 0.06888632
000300 a2 68 d7 3d a9 b3 70 bd b1 13 1b 3e 3a 88 48 3d
       0.10518004 -0.058765087 0.1514423 0.04895804
000310 6e 5e cd 3d 4f d1 d9 bc 76 0e 28 bd 84 15 32 bc
       0.10027777 -0.026589064 -0.041029416 -0.010869388
000320 2a 4f f8 3d 1a 9f 86 bb e7 f7 1a 3e 40 f1 2d 3e
       0.12124474 -0.004108322 0.1513363 0.16986561
000330 f1 39 41 3d 5d 38 cd 3d 35 a6 37 3d cb 79 45 3d
       0.047174398 0.10020516 0.04483624 0.048211854
000340 4b ee 0c 3e 1b 3a 91 bd a8 0d 0c 3c 27 5f 05 be
       0.13762777 -0.07091161 0.008548178 -0.13024579
000350 17 40 0d 3e ce 1c 8f 3c 4c 8c aa 3d 0f 2a 4f 3d
       0.1379398 0.01746979 0.08327541 0.05057722
000360 c7 d8 25 3e 72 53 b7 bd 16 76 52 bd e1 c4 01 3b
       0.16195975 -0.08951463 -0.051382147 0.0019801187
000370 87 c4 c1 3d 74 0e 89 3d 0b 50 02 be 05 e5 2b 3e
       0.09461313 0.0669221 -0.12725846 0.16786583
000380 d9 d8 27 3d df 98 26 3e 65 16 40 3d 26 df 5d 3d
       0.040978286 0.16269253 0.046896357 0.05416789
000390 e0 b4 34 3e 11 db a4 bc 73 77 0c bd 95 4d 93 3d
       0.17647123 -0.02012399 -0.034293603 0.07192532
0003a0 c6 10 c5 3a a2 22 be bc 84 88 a1 3d 7d 38 a1 bd
       0.0015034906 -0.023209874 0.078873664 -0.078721024
0003b0 ba f0 e0 3c d6 c7 df 3d c3 96 ba bd 75 6c 9e bd
       0.027458537 0.109267876 -0.09110787 -0.0773553
0003c0 a1 93 bf 3a 86 2c 03 3d 00 90 89 bb 7b 15 05 be
       0.001461614 0.032024883 -0.0041980743 -0.12996475
0003d0 bd 3e dd 3b 49 13 25 be 05 80 d1 3d eb b6 84 3d
       0.0067518638 -0.16120638 0.10229496 0.06480201
0003e0 6c 4e b4 3b 42 cc fe 3d 5d d1 b9 3d 16 9c 6f bd
       0.0055025127 0.12441303 0.09073136 -0.058498465
0003f0 82 c0 ff bd ff 8d c9 bd 5d 7e 1b 3e d8 9e 80 3d
       -0.1248789 -0.09841537 0.15184923 0.06280297

lstm.weight_hh_l0 f4 [192, 48]
000000 57 10 f1 3d 66 d2 a7 3d c6 68 e8 bd 61 cf 3a 3d
       0.11770695 0.08194427 -0.11348109 0.04560793
000010 c4 1b 39 3d b5 4c 1d be 01 fe 2f be 97 6d 15 bc
       0.045192495 -0.15361293 -0.17186739 -0.009120367
000020 c0 2a 56 bd 22 39 7f 3d 22 4a 3f bc bf 0a 0f 3d
       -0.052286863 0.062310345 -0.0116753895 0.034922358
000030 72 1b 19 3e eb fb 0e 3d 31 79 78 bd d2 c9 e2 3d
       0.14951876 0.034908216 -0.060662452 0.110736504
000040 27 d3 33 bd 43 ed dc 3d 83 86 81 bc 61 b6 11 be
       -0.043902542 0.107874416 -0.01581121 -0.14229728
000050 09 64 6f bb a8 ef 14 3e 79 5d 75 3d b3 c3 1c bd
       -0.0036528131 0.14544547 0.059903596 -0.03827257
000060 a6 64 82 b9 9b ec 38 3d 27 9e 96 bd 95 37 75 ba
       -0.0002487052 0.04514752 -0.07354384 -0.00093542907
000070 72 94 3f be 53 37 0d be 63 36 27 bd 96 76 11 bd
       -0.18708971 -0.13790636 -0.04082335 -0.035513483
000080 5d 76 2a bd 55 74 9c bd 53 c1 85 bd 1a ee 85 3c
       -0.041616786 -0.07639376 -0.06531014 0.016348887
000090 60 d6 7f 3d 50 d5 b9 bd 62 89 2e be f1 f8 f3 3b
       0.062460303 -0.09073889 -0.17044595 0.0074454476
0000a0 14 af 8c bd 70 75 b7 bd b9 15 5f be b8 14 e6 bc
       -0.06869331 -0.08957946 -0.2178563 -0.028086051
0000b0 f3 aa 34 3d a4 af c4 bd 4f ab 86 bc f1 5d b6 3d
       0.044108342 -0.09603813 -0.016439108 0.08904637
0000c0 3b 47 c3 bd a7 b5 2d bd 49 ce b9 bd a6 80 b6 3d
       -0.095350705 -0.042409565 -0.09072549 0.089112565
0000d0 35 0e 95 bd 16 0a 3b bc e5 d6 df 3d bb ad 37 be
       -0.072781004 -0.011415979 0.1092966 -0.17937367
0000e0 88 c8 72 3c b8 db bb bc cc 27 f3 3d 34 25 0d bd
       0.014818318 -0.022931919 0.11872825 -0.034459308
0000f0 65 ad 06 3e b2 c0 b6 bd 51 65 a6 3d 86 f3 57 bd
       0.13152082 -0.089234725 0.08124793 -0.052722476
000100 03 7c ec 3d 56 c8 f9 3d 15 f5 66 3b e5 5b 20 be
       0.11547091 0.12196414 0.0035241295 -0.15660055
000110 19 16 98 3d c2 8d 4c 3e f0 7c 54 3d d6 f4 aa bd
       0.0742609 0.19975951 0.051876962 -0.0834748
000120 91 ec f9 b9 93 6c 11 be 34 7e 51 bd 99 f7 c4 bd
       -0.00047669237 -0.14201574 -0.051145747 -0.09617538
000130 8a 44 1b be fc 09 93 bd e8 5e 63 bd 18 37 c5 3d
       -0.15162864 -0.07179639 -0.05551043 0.09629649
000140 61 29 09 be f7 4d ac bd d7 a5 94 3d d5 2e 01 3c
       -0.13394691 -0.08413308 0.07258194 0.007884701
000150 d9 ed c3 bd 1d 08 99 3c 7f 41 85 3d 85 63 29 3e
       -0.0956685 0.018680627 0.06506633 0.1654187
000160 d3 3b be 3c 58 92 42 bd 08 8f ab bb b5 d3 66 bd
       0.023221886 -0.047502846 -0.0052355565 -0.056354243
000170 99 93 ed 3c 1b 36 80 bd 08 bf 32 be a0 ce 8a bd
       0.029001044 -0.0626032 -0.17455685 -0.06777692
000180 75 86 d2 bb 21 5f e2 bd 8b 1b e6 3d 36 a5 87 bd
       -0.00642472 -0.11053301 0.11235722 -0.06623308
000190 4b c6 0a be cd 0d 30 be 19 35 80 bd ae b1 48 bc
       -0.13552205 -0.17192765 -0.062601276 -0.012249393
0001a0 7d 67 9f 3c c1 b8 90 3c ca ec 30 3e 1d 19 a7 bc
       0.019458527 0.017666223 0.17277828 -0.020397717
0001b0 17 84 b5 3d 45 8c 49 3d 57 ad a6 bc 47 4e ce bd
       0.08863085 0.049206037 -0.020346327 -0.10073524
0001c0 84 8b 8e 3d 2f 19 33 be 5c 44 b7 bd 11 ec 02 bd
       0.06960204 -0.17490076 -0.089485854 -0.03196341
0001d0 7c cb 00 be 32 8d a6 3d eb 7b 83 3c ad bb ff bd
       -0.12577623 0.081323996 0.0160503 -0.12486968
0001e0 3f 6e ca bd aa b6 27 3d 01 3c 30 be a0 38 53 be
       -0.09884309 0.040945686 -0.1721039 -0.2062707
0001f0 8b 73 16 be e7 86 00 be 85 33 d9 3d 49 83 57 3d
       -0.14692514 -0.12551461 0.1060553 0.052615438
000200 47 6e 19 3e 77 f5 22 3e d5 ee 7a bc 8e e8 70 bc
       0.14983474 0.1591395 -0.015315731 -0.014703883
000210 6b 99 2b 3d 2f 49 ee 3c 37 94 87 3b 74 1c 1a 3e
       0.041894358 0.029087631 0.0041375416 0.15049917
000220 8d 47 c4 3c 2a 84 d5 3d 14 d4 30 3d 4a 25 49 3e
       0.0239599 0.10425599 0.043171003 0.19643131
000230 df 1f d0 3c 70 d7 24 bd 49 4c 0d be 3a 79 83 bc
       0.025405822 -0.04024452 -0.13798632 -0.016049016
000240 ca 1d a3 3c c8 2e b1 3c 1e b8 85 bd cf b6 ce 3c
       0.019911665 0.021628752 -0.06529258 0.025233654
000250 ff 45 2a be fd c4 58 be d9 bc 4d bd f1 ff 41 be
       -0.16628264 -0.21168895 -0.050228927 -0.1894529
000260 6c 0d 98 bc 33 f3 30 3e fa 10 01 3d 0f aa 16 be
       -0.018561088 0.17280273 0.03151033 -0.1471331
000270 82 0b f9 3d 4b 62 6f 3c f7 29 b8 3c 84 ca 84 3c
       0.12160398 0.014610837 0.022480948 0.016209848
000280 71 2e b9 3c 02 30 ec bd 20 5c 26 3e c6 0b 9d bd
       0.022605153 -0.11532594 0.1624608 -0.07668261
000290 49 3d c8 3b c4 28 41 3e cc f8 86 bd fd 36 f6 bd
       0.0061108214 0.18863207 -0.06590423 -0.12022207
0002a0 26 a9 f3 bd b0 bb 55 bb c7 23 93 3b 3d 5c c4 3c
       -0.11897497 -0.0032613091 0.004490349 0.023969764
0002b0 62 c8 c4 bd 8f d7 1a be 50 ff 6b 3d 3b db 33 3e
       -0.096085325 -0.15121292 0.05761653 0.17564099
0002c0 00 18 70 3d 3b 60 a6 bb 2c 05 88 3c df ce ba 3d
       0.05861664 -0.0050773895 0.016604029 0.09121489
0002d0 d5 a7 eb 3c e4 fa f7 bd 97 79 ff bb c8 4e 2a 3e
       0.028766552 -0.121084005 -0.007796477 0.16631615
0002e0 03 fd 34 3e 65 2b 20 be d8 b9 9f 3c 7d 25 9b bd
       0.17674641 -0.15641554 0.019497797 -0.0757551
0002f0 aa bf c6 bc 8d 8a a4 bd 1b ea 2c be 6e 9f fd 3d
       -0.024261314 -0.08034239 -0.16886179 0.123839244
000300 87 99 89 3e 0d a5 d7 bd ef 87 58 3e ca 5e 1c be
       0.26874945 -0.10529528 0.21145605 -0.15270534
000310 0d 7d 5b be 3c c3 3a be 0c c1 3a be 3c 43 28 be
       -0.21434422 -0.18238539 -0.18237704 -0.16431898
000320 34 10 a4 3c b5 05 03 3e 7d c9 7e 3e 5d f9 97 3b
       0.020027258 0.12795146 0.24881549 0.0046378807
000330 35 72 89 bc 72 69 fa 3d a7 32 69 3e 71 7d 5b be
       -0.016778091 0.12227143 0.22773229 -0.21434571
000340 4b 71 1c 3e 97 26 99 be b7 30 6e 3e 83 e0 7f 3d
       0.15277593 -0.29912254 0.2326077 0.06246997
000350 02 f8 31 be 17 2f c8 38 74 88 4c 3e 20 09 45 be
       -0.17379764 9.545514e-05 0.19973928 -0.19241762
000360 b4 ce 17 be dc ba 90 3e a5 cf 6c be 9a 19 8e be
       -0.14824945 0.28267562 -0.23126085 -0.27753907
000370 e4 59 96 bb 2e e6 ce bd 05 42 72 3d a0 78 00 3e
       -0.0045883525 -0.10102497 0.059144992 0.12546015
000380 0c 62 51 3d eb 4d a8 3b 3b 1f 9b 3d 86 c5 97 3e
       0.051118895 0.0051362417 0.07574316 0.29642886
000390 83 fa 89 bc 6d 7e 0d be a4 a5 54 bd d8 11 ad 3c
       -0.016843086 -0.13817759 -0.05191578 0.021126673
0003a0 cf e8 21 3e 15 95 35 bc cc 1c 29 be 97 17 e8 3d
       0.15811466 -0.011082907 -0.16514891 0.113326244
0003b0 b4 fc 85 3d 72 69 1c bb a0 83 8e be 62 6e 65 3d
       0.0654234 -0.0023866561 -0.27834797 0.056013472
0003c0 35 00 3b 3d 88 cc 58 be b4 cb c7 3d b3 2b 27 bd
       0.045654494 -0.21171772 0.0975565 -0.04081316
0003d0 b2 59 98 bc 1a 60 5e be e4 2b d5 3b 6f d6 4b 39
       -0.018597458 -0.21716347 0.0065054763 0.00019439471
0003e0 f1 27 5c be f6 00 04 3e 41 31 5c 3e 0d 7a 1a 3d
       -0.21499611 0.12890992 0.21503164 0.037714053
0003f0 01 17 0f 3e 64 92 89 bc b2 d0 5e bd 52 5b d1 bd
       0.13973619 -0.016793437 -0.054398246 -0.10222496

lstm.bias_ih_l0 f4 [192]
000000 80 d1 87 3d e7 4f 78 3d 87 ef 71 bd 6c 9c 8c bd
       0.06631756 0.060623076 -0.05906632 -0.068657726
000010 cd 94 0c bd c5 5c 4d bd fa 09 ae 3d 25 8c 78 3d
       -0.034321595 -0.0501373 0.08497997 0.060680527
000020 b1 fe 9d 3d 33 ac 03 3e 5b ee e2 3c 37 c4 ec bd
       0.07714594 0.12858658 0.027701547 -0.115608625
000030 48 0e 2b bd df 9e 91 3d d1 7a 9c bd 2d 58 e5 3c
       -0.041761667 0.071103804 -0.07640613 0.027996147
000040 48 40 0c bd 2d 63 92 3d fe 8e 26 3e 62 67 60 bd
       -0.03424099 0.071478225 0.16265485 -0.054786094
000050 b2 3e 23 3e 04 1a a7 3d 1f 36 05 3e 0a b7 ab 3d
       0.15941885 0.08159259 0.13008927 0.08384521
000060 af a8 2e bd a7 91 66 3d 14 ea 10 3e 65 52 b0 3d
       -0.042641338 0.05629125 0.14151794 0.086094655
000070 4c 73 25 3b 69 d1 27 3d 79 3e c5 bd 05 08 14 3e
       0.0025245724 0.040971193 -0.09631056 0.14456184
000080 47 bb a6 bd fa e8 00 3c 4b 3f 03 3e b0 9c a1 bd
       -0.08141189 0.007868046 0.12817113 -0.07891214
000090 5b b5 ce bd ab 84 e3 3d c5 81 a9 bd 9a df c9 3d
       -0.100931846 0.11109289 -0.08276705 0.09857102
0000a0 09 f4 a9 bd fb 42 4d 3e 47 3f c4 3d 13 b1 6e bc
       -0.08298499 0.20045082 0.09582382 -0.014568585
0000b0 02 e6 9b 3d e1 d6 a2 3c 6d 45 91 3d 4c 2c bc bd
       0.0761223 0.019877853 0.0709332 -0.091881365
0000c0 49 7d bd 3b ce a3 40 3d 21 72 0a 3c 95 74 06 3e
       0.0057827574 0.047031216 0.008450062 0.1313041
0000d0 65 5b e2 bc 7c d1 d4 bd 30 b7 c1 3d 5f bf 32 3e
       -0.027631471 -0.103915185 0.09458768 0.17455815
0000e0 93 87 8c 3c e4 3e de 3d 61 0a 45 bd 5c 7f c2 bd
       0.01715449 0.10851839 -0.0481056 -0.09496948
0000f0 0a a4 04 3c de 81 95 3c 5a 50 29 bd 6e b1 c6 3d
       0.008095751 0.018250402 -0.041336395 0.09701811
000100 d3 bd f1 3d ad a3 d2 bc 81 09 da bd 94 c5 c4 bd
       0.11803784 -0.025712812 -0.10646344 -0.096079975
000110 2b 7a 8d 3d 8d 2f 46 3e 69 f5 16 3d e4 55 ff 3d
       0.06908067 0.19354077 0.036855135 0.12467554
000120 29 a2 05 3d b4 2b 81 bd 09 15 75 3d 4a 9c df bc
       0.03262535 -0.06307164 0.059834514 -0.027296204
000130 09 72 cd 3d d6 8e ff 3b 57 5f b5 3d 85 4e ca bd
       0.10031516 0.00779901 0.08856075 -0.09878258
000140 5c 17 83 bc 0e 7e df bd 6f 7d 6a bd d8 05 18 3e
       -0.01600235 -0.10912715 -0.05724853 0.14845979
000150 7b 75 a5 bd c1 23 18 3e df ac e0 3d be 58 2c 3c
       -0.08079048 0.14857389 0.109704725 0.010519205
000160 75 f1 0e 3e a7 b4 a7 bc 95 54 f3 3d d3 82 3c 3d
       0.13959296 -0.020471884 0.11881367 0.0460232
000170 b4 8c ce bd 16 15 eb bd d7 9a 33 3c 1e 1e 86 3d
       -0.10085431 -0.11478631 0.01096221 0.06548713
000180 bc a9 f8 3c a9 64 45 3d 86 b1 d1 3d c5 2d b0 bd
       0.030354373 0.0481917 0.10238938 -0.0860248
000190 12 03 e0 3d 95 83 99 3d 3e f8 e2 bc a0 7d 5e bd
       0.109380856 0.074958004 -0.027706262 -0.054319024
0001a0 5e a8 03 3e 5e 38 15 bd 26 88 bf bd 22 9c 0c be
       0.12857196 -0.03643071 -0.0935214 -0.13731435
0001b0 f4 5c cf bc aa 8c 8e 3c da 07 75 bd 85 f1 0b 3e
       -0.025312878 0.017401058 -0.05982194 0.13666351
0001c0 13 35 19 3e 4f 7a 1e 3e ca b8 52 3d 0e 3a 14 be
       0.14961652 0.15476345 0.05144576 -0.14475271
0001d0 f3 ab 25 bc f4 4a 18 bd f9 a1 dc 3d fd 05 ed bd
       -0.010111797 -0.037180856 0.10773081 -0.11573408
0001e0 1d a6 85 3d b7 e1 4a bd a3 b9 5a bd 1f 24 6e bd
       0.06525824 -0.049531665 -0.053399693 -0.058139917
0001f0 ce ff c9 bd c0 ea bd bd a2 1b 72 bd f2 21 ba 3d
       -0.09863244 -0.09273291 -0.059108384 0.09088506
000200 1c aa 80 3d 05 b8 99 3d 51 e5 1f be 2e 5a 89 3d
       0.06282446 0.07505802 -0.15614821 0.067066535
000210 a9 f3 9e bc 38 bf 95 bc 56 a2 e5 bd 27 3a c2 3d
       -0.019403296 -0.018279657 -0.11212604 0.09483748
000220 cb c7 54 3d ef de d6 bd 5d 35 01 3e b7 1e d2 bc
       0.05194835 -0.1049174 0.12618013 -0.025649412
000230 d8 94 27 bd 51 8d c9 bd 80 a7 01 be a3 37 1f bd
       -0.040913433 -0.09841407 -0.12661552 -0.03887142
000240 0b c6 3d 3e 78 2c fe 3d 86 ec df 3d 20 4d 24 3e
       0.18532579 0.124108255 0.10933785 0.16045046
000250 85 89 cb bd 1b 5a 58 3b 5f 57 47 3d 23 27 91 3d
       -0.09938339 0.0033012691 0.048667308 0.07087543
000260 f2 82 3e 3d ca f3 dc 3d 42 2e dd bd d1 ae e0 bc
       0.046511598 0.107886866 -0.107998386 -0.027427109
000270 0f 53 e7 3d 97 3f 63 bd b3 44 33 3e a2 b6 2e 3e
       0.11295139 -0.055480566 0.17506675 0.17061856
000280 5e de a0 bc 75 5e 48 3e 9c 5d 26 3c ec 7f bb bd
       -0.019637283 0.19567282 0.010154154 -0.091552585
000290 c3 b6 d5 3d 4e 6a 21 3e 80 86 e1 3d 2e ad 2f 3c
       0.1043525 0.15763208 0.11011982 0.010722442
0002a0 52 2d 0f 3d 5c 1a 43 3e f5 66 15 3e 16 9b 1d bd
       0.03495533 0.19053024 0.14590056 -0.03847798
0002b0 28 81 2e bc ad 85 87 3b 73 d2 58 3d e5 b2 48 3e
       -0.01065091 0.0041358084 0.052935075 0.19599493
0002c0 cb c9 60 bd 64 64 f1 3d 38 86 53 3e 47 1d 94 3c
       -0.054879945 0.11786726 0.20656669 0.018080367
0002d0 d4 e3 f9 3d a3 cb c5 3d 87 b9 3f 3e bd 49 4f bd
       0.12201658 0.09657981 0.18723117 -0.05060743
0002e0 e3 39 ae 3c d4 a3 78 3e 62 37 80 3d 4b 36 a0 3d
       0.021267837 0.24281245 0.062605634 0.078228556
0002f0 63 c6 a0 bc 72 bf 26 bd 67 a1 15 3e a5 78 a4 3d
       -0.019625848 -0.04070992 0.14612351 0.080308236

lstm.bias_hh_l0 f4 [192]
000000 83 c2 bb 3d cc 3a c3 3d 37 e4 4b 3d c9 d2 54 bd
       0.091679595 0.09532699 0.04977819 -0.051958833
000010 2e fb 3c 3d 45 71 12 3e 78 1c 85 3c 60 e0 87 bc
       0.04613798 0.14301021 0.016248927 -0.016586483
000020 9d ab 0f 3e e6 c8 e7 3d f6 be 02 3d 68 58 d9 3d
       0.14030309 0.11317615 0.031920396 0.10612565
000030 db c7 8d bd 11 e2 fa 3d 8c ea b9 bd da b3 09 3d
       -0.06922885 0.1225015 -0.090779394 0.033618785
000040 a8 95 bd 3d 46 0a 87 3b 01 17 b5 3d 80 2f b4 bd
       0.0925706 0.0041210977 0.08842278 -0.087981224
000050 0d a9 a3 3d 97 1c c7 bd 9e df 21 3c 35 e7 43 bd
       0.07991228 -0.0972225 0.009879975 -0.047827918
000060 17 bd 56 bd 5e 26 f4 3d b2 37 82 bb 53 6f 3d bd
       -0.052426424 0.119213805 -0.0039739246 -0.046248745
000070 72 8f ae 3d 4a e7 1d bd 38 8c e3 bd a5 c1 cf 3d
       0.08523454 -0.038550653 -0.11110729 0.10144357
000080 15 d6 f6 3d 4b b9 8b 3d ba 1b 32 3e 08 11 09 3e
       0.12052552 0.06822451 0.1739339 0.13385403
000090 70 66 c0 bd 9c 2b 34 bc 5a 37 b5 3d d0 83 03 3d
       -0.093945384 -0.010996725 0.08848448 0.032108128
0000a0 08 b8 6a bb 33 2a 20 3e 43 6a 30 3e 65 2f d6 3b
       -0.0035815258 0.15641098 0.17228036 0.0065364116
0000b0 e2 3f 39 3e ee bd 66 3d f4 48 b3 bd 07 9b 01 3e
       0.18090776 0.056333475 -0.08754149 0.12656794
0000c0 3f 9b e5 3d 77 ab cd bd ce 68 dc bd 3a d9 af 3b
       0.112112515 -0.1004247 -0.107621774 0.0053664716
0000d0 47 e5 17 3d 3c 4a f5 bd 9a 2f d7 3d df 9e 09 3e
       0.03708389 -0.1197705 0.10507126 0.13439511
0000e0 86 55 08 3c a8 f0 fe bd 9d c4 f5 bc 4e 51 9d 3d
       0.008321172 -0.12448245 -0.03000098 0.07681523
0000f0 f6 60 d3 3b d8 72 eb 3d 8b 93 8c 3d 0e d2 a0 bd
       0.0064507676 0.11496514 0.06864079 -0.07852565
000100 7b e5 23 bd ff d1 da bb 38 22 ea 3d 82 e5 c0 bd
       -0.04001377 -0.0066778655 0.11432308 -0.09418775
000110 92 ad c7 bd f3 c1 3d 3e 54 13 ab bc 8f d0 88 3d
       -0.09749903 0.18531017 -0.02088324 0.066804044
000120 87 fe 07 bd 17 db 14 bd 5b b0 05 3e 34 21 aa 3c
       -0.03320172 -0.036341753 0.13055556 0.020767786
000130 ef 7d f3 bd 09 43 8b 3d 73 bd 64 3b 94 2e cb bd
       -0.11889254 0.06799895 0.003490296 -0.099209934
000140 5f 67 92 bd 21 d3 94 3d ab 1f 82 bd ea bf f3 bc
       -0.07148623 0.07266832 -0.063536964 -0.029754598
000150 53 69 02 bd c3 2b 66 3d c1 a2 56 bd 47 6a 2f 3b
       -0.031838726 0.05619408 -0.052401308 0.0026766227
000160 5a b7 74 3d ad 90 e8 3d 3e d4 ae bd 87 65 64 3d
       0.05974517 0.1135572 -0.08536576 0.055760887
000170 7c 17 f8 bd 77 aa d0 3d 8f ce c4 bd 0c c4 8b bc
       -0.12113854 0.101887636 -0.096097104 -0.017061256
000180 54 c4 89 3d 2a d6 27 bb fb 6d 9e bc 4a ee 10 be
       0.067269 -0.002560983 -0.019339552 -0.141534
000190 81 b1 b9 bb 88 cf 59 3d f8 a6 ee 3c 45 85 3e 3d
       -0.005666912 0.053176433 0.029132351 0.046513814
0001a0 b7 4b 1f bb da a7 0a be 26 12 5c 3c b4 a0 f6 bd
       -0.0024306604 -0.13540593 0.013432061 -0.120423704
0001b0 1d 05 da bc fa a4 57 bd c0 98 0f 3d fe e2 c8 3d
       -0.026613766 -0.05264757 0.035057783 0.0980892
0001c0 c3 9f 85 3d 56 22 ed 3d 27 6d 89 3d dd 7f 6c 3d
       0.06524613 0.11578815 0.06710272 0.057739127
0001d0 7b 0a ec bd 78 33 9b bc d7 e0 cf 3d f8 68 90 bd
       -0.115254365 -0.01894544 0.10150307 -0.07051271
0001e0 d2 4d 86 3d d3 ad 23 be 2c d4 a2 3d a7 b9 be 3d
       0.06557812 -0.15984277 0.07950625 0.09312754
0001f0 57 84 ca bd 9b 1e 98 3d de 7a 34 bd 55 f8 16 be
       -0.09888523 0.074277125 -0.044062488 -0.14743169
000200 84 5e a6 3b da 60 a9 bd a9 2a ad 3d ed ee f0 ba
       0.005077185 -0.08270426 0.084554024 -0.0018381752
000210 f4 fa 71 3d 0c 4b 0b 3e b0 5c 16 3e 72 cd 6f 3d
       0.05907722 0.13602847 0.14683795 0.058545537
000220 7a 7c 07 be 08 19 9e 3b 6c 40 7b bd 5d 26 2d bc
       -0.13231078 0.0048247613 -0.061340734 -0.010568229
000230 2b 1d 08 bc 59 ad 23 be 59 09 a9 3d 6c 00 67 3d
       -0.008307735 -0.15984096 0.08253736 0.056396887
000240 a9 75 34 3c 0a 35 af bc db 65 11 3e f3 d7 32 3e
       0.0110143805 -0.021387596 0.14199011 0.1746519
000250 c1 27 33 bd da d7 a6 bc 49 8d 8e bc 01 3f 51 3d
       -0.043739084 -0.020366598 -0.017401354 0.051085476
000260 5a 90 2a 3e 42 3c f0 3c df f3 ab bc 6c db 0a 3e
       0.16656628 0.029325608 -0.02099031 0.13560265
000270 cc 78 91 3d 21 42 a9 bd cd a7 d7 3d 2e 81 26 bd
       0.07103118 -0.08264566 0.10530052 -0.04065054
000280 57 0f ea 3c 8a 6c 33 3e d7 0d 73 bd 85 b6 ab bc
       0.028571768 0.17521873 -0.05933937 -0.020961056
000290 0e 6c be 3c 96 9a 20 3e 67 51 24 3e b9 ce 8b 3c
       0.023244884 0.1568397 0.16046678 0.017066346
0002a0 6a 17 cc bd d1 8e 49 3e a4 59 ea 3d 67 43 c4 3d
       -0.099654034 0.19683386 0.11442879 0.095831685
0002b0 13 c2 32 3d ee 3e 48 bd ee b8 ad bd 97 0f 35 3e
       0.043642115 -0.04888814 -0.08482538 0.17681728
0002c0 f6 3b bd bd 3a 15 b5 bd 49 9f 83 3d ae fe 1f 3e
       -0.09239952 -0.08841939 0.064268656 0.15624496
0002d0 da 07 9b bd 3d 63 a7 bd 36 f4 1b 3e f6 b0 3d 3c
       -0.07569857 -0.08173225 0.15229878 0.011577835
0002e0 a6 f1 03 3e 5e b4 50 3e 96 d7 db 3d bf d1 24 3e
       0.1288515 0.20381305 0.10734479 0.16095637
0002f0 d4 4b 04 3e 8a 1b ab bd fc fe 09 3e 75 18 48 bd
       0.12919551 -0.08354862 0.13476175 -0.04885145

mlp.0.weight f4 [256, 54]
000000 3b 61 45 bd 22 08 c7 bd e7 d8 d6 3d b4 dd 3c bc
       -0.04818843 -0.09718348 0.104905896 -0.0115274675
000010 6a a1 81 bc f1 97 7e 3d 1d 99 ee 3b bb 4f 61 bd
       -0.015824039 0.06215662 0.007281436 -0.055007678
000020 75 c7 01 be da 9a 4a bd 6c de d2 bc 3f c0 05 3e
       -0.12673743 -0.049464084 -0.025740825 0.13061617
000030 81 8c 62 bd ef 4c c5 3d 48 dc e8 bd 05 ea 2c bd
       -0.055309776 0.096338145 -0.1137014 -0.042215366
000040 72 4b 64 3d 23 93 d8 bc ee bb 90 bd 44 cc 08 bd
       0.055736013 -0.026437348 -0.07067095 -0.033397928
000050 a6 58 f9 bd e4 41 04 3e 29 13 c1 3d 8d 4d 01 3e
       -0.121751115 0.1291576 0.09427483 0.1262724
000060 6a 89 04 be fd 6f 45 3d 11 4e e6 3c 35 20 f5 3c
       -0.12943044 0.048202503 0.028113397 0.029922584
000070 b5 e9 fe bd 64 e2 14 3e 43 45 c1 3d 12 0b e6 bd
       -0.1244692 0.14539486 0.09437039 -0.1123258
000080 aa 66 dc 3c 69 c1 b4 3d 0e 0f 92 bb 61 ea e8 3d
       0.026904423 0.088259526 -0.004457361 0.11372829
000090 c6 85 cb bd 91 2d 10 3d 37 9a a6 3d ad 6a d8 3d
       -0.09937625 0.035199706 0.08134883 0.10567222
0000a0 69 63 03 3e b4 9d a4 3d b5 e8 b9 bd be 6c 99 3d
       0.1283089 0.08037892 -0.090775885 0.07491444
0000b0 f2 f5 22 bd 69 d2 a9 bd a8 fb 09 3d d8 fc d6 bc
       -0.039785333 -0.08292086 0.033687264 -0.026243612
0000c0 6e 57 e3 bc a7 4d ee bc 54 5f c9 3c 39 3d 32 bd
       -0.02775165 -0.029089762 0.024581589 -0.043515418
0000d0 0c 3e d6 3d 11 6e 09 3c 78 d2 51 3d b8 da c0 bd
       0.10461053 0.008388058 0.05122611 -0.09416717
0000e0 12 03 5c bd c3 1b 84 3d 3e 57 74 3d 47 68 16 3d
       -0.053713866 0.06450608 0.059653513 0.03672054
0000f0 d6 5b 03 bc 22 ae 24 be 76 52 d0 bc 9c 9e 88 3d
       -0.008017501 -0.16082051 -0.025429945 0.06670877
000100 87 e8 28 be 66 e9 22 3d f2 6f 81 3d ff b0 99 bd
       -0.16494952 0.039773367 0.0632018 -0.075044625
000110 a8 5c 02 be f4 c4 b4 3d 36 9a c1 3d 0d 17 e2 bd
       -0.12730658 0.08826628 0.094532415 -0.11039553
000120 2b 90 0a 3c 15 ef fe 3d c4 e8 39 3e 10 1a 6a 3d
       0.008457224 0.12447945 0.181552 0.05715376
000130 ef 3b 6d 3c 69 10 ca 3c 5e e6 f2 3d dc 3a 9f 3d
       0.014479621 0.024666028 0.11860345 0.077748984
000140 92 46 dd bd 56 47 10 3e c6 9f 46 3e 1d 9b 9c bd
       -0.10804476 0.14089713 0.19396886 -0.07646773
000150 7f d6 b7 bd f8 aa fb 3d 6a e2 20 bc 22 73 07 be
       -0.08976459 0.12288469 -0.009819606 -0.13227513
000160 a2 7a 3a bd bd f4 29 be 47 a6 12 3e a6 0d 13 3e
       -0.045527108 -0.16597266 0.14321242 0.14360675
000170 3b 18 8e bd bd 78 24 bd fc 82 c9 3d a1 c4 96 3d
       -0.06938215 -0.040154207 0.098394364 0.07361723
000180 1d 04 6e bd bd f3 ac 3d dc 17 07 be c6 31 56 3e
       -0.05810939 0.08444927 -0.13192695 0.20917425
000190 3d 9f b2 3d 72 ef 89 be 44 89 39 be 22 6e 97 3d
       0.087217785 -0.26940495 -0.18118769 0.07394053
0001a0 6f fb 1b 3e 4e 31 36 be bc 94 1e be 03 a3 c0 bd
       0.15232633 -0.17792246 -0.15486425 -0.09406092
0001b0 a0 37 ce bd de 2e 02 be e8 ff b8 3d 36 98 ec bd
       -0.100692034 -0.12713191 0.09033185 -0.115524694
0001c0 6e ce b7 3d 46 94 b0 3d cf 64 05 3e 0c 41 2e bd
       0.0897492 0.08622031 0.13026737 -0.042542502
0001d0 30 e4 79 bd a6 31 49 3a bc ad c3 bd e6 6d 68 bd
       -0.061008632 0.00076749397 -0.095546216 -0.056745432
0001e0 26 03 c1 bd 46 0b 1b bc d4 90 fc bd 0a ad 7c 3d
       -0.09424429 -0.009463137 -0.12332311 0.06168846
0001f0 23 b4 09 3e 93 37 3d bd f4 10 db 3d 7a 34 e2 bd
       0.13447623 -0.046195578 0.10696593 -0.11045165
000200 3a eb b8 3d 10 7b 08 be 7e 26 d5 bd 75 18 00 ba
       0.09029241 -0.13328195 -0.104077324 -0.0004886457
000210 44 db 0d 3e a4 22 0b 3e 47 00 df bd 8a a0 4a 3d
       0.13853174 0.13587433 -0.10888725 0.04946951
000220 ee 50 b4 3d 53 8a ae 3d 42 e3 ad 3d 40 8f 1a 3e
       0.088044986 0.08522477 0.084906116 0.15093708
000230 3a 7e 4d bd 4e 0f 95 bd 14 7f 07 be bb 19 69 3d
       -0.050169207 -0.0727831 -0.1323207 0.056909304
000240 4e 1d e2 3d 03 5f ed bc b7 3e b4 3c cd fe 6c bc
       0.11040746 -0.02897597 0.022002561 -0.014465046
000250 0f 78 72 3d df 93 93 3d 3d 17 5a bd 4d 90 0d be
       0.059196528 0.072059385 -0.053244818 -0.13824578
000260 e4 98 39 3c ca d6 e2 bc 05 f6 6e bd 99 71 05 bd
       0.011327956 -0.02769031 -0.05834009 -0.03257904
000270 a5 6a 2c bc b6 48 ef 3d c4 39 a8 3c 74 e5 1f be
       -0.010523473 0.116837904 0.020535357 -0.15614873
000280 e4 0a e2 3d 37 76 a0 bd d7 91 0b bc df 86 78 3a
       0.110372335 -0.07835048 -0.008518658 0.00094805466
000290 5f 8a 80 bd fc 80 80 bd 03 30 ac bd 5a 1f d5 bd
       -0.06276392 -0.06274602 -0.08407595 -0.104063705
0002a0 82 f3 b4 3d 58 0d 2a be 97 bd 0b 3e e5 d8 55 3d
       0.08835508 -0.16606653 0.13646542 0.0522088
0002b0 24 69 12 be 86 f6 58 bd e0 64 dd bd e2 e4 58 be
       -0.1429792 -0.052969478 -0.10810256 -0.21181062
0002c0 f5 27 a2 bd d7 79 7e bd a5 f8 3a 3e f2 b0 96 bd
       -0.079177774 -0.062127914 0.18258913 -0.073579684
0002d0 80 37 0f 3d d9 f9 14 3e 99 e2 84 bd fb ee 61 3c
       0.03496504 0.14548434 -0.064885326 0.013789888
0002e0 69 aa d5 39 a8 ee 27 3c 3a 6b 78 3d ae 7c de 3d
       0.0004075349 0.010249771 0.060649134 0.108636245
0002f0 ea e8 47 be bd e9 54 3e 84 fe ea 3c 99 ac 36 bd
       -0.19522443 0.20792289 0.028685816 -0.044598196
000300 7f 9b e9 bd 7c 18 b6 bd a9 f8 da bd 2e c7 f2 bd
       -0.11406612 -0.08891389 -0.106919594 -0.11854397
000310 88 e7 9c bd b7 31 14 be af 2d 74 3d 36 14 df 3d
       -0.076613486 -0.1447209 0.05961388 0.10892527
000320 d3 08 e1 3d 01 4d 46 3d e4 6c 35 3e e0 a5 d9 3b
       0.10988011 0.04841328 0.1771732 0.0066420883
000330 16 00 d9 3c d7 0c 0e be 0a ad 2d bc f1 64 0b 3e
       0.026489299 -0.13872086 -0.010600338 0.13612725
000340 f5 b1 d9 3d 69 0f 72 be 2a 09 f6 bd 8a a6 3b 3e
       0.10629646 -0.23638691 -0.12013467 0.18325248
000350 6b c7 f8 3d 33 e5 a9 3d 93 8e e0 bd 67 6d 6d 3c
       0.12147411 0.082956694 -0.10964694 0.014491416
000360 18 c3 b7 3c d5 a6 aa bb d0 fc f4 bd 67 58 cb 3d
       0.022431895 -0.005207876 -0.11962283 0.09928971
000370 1a 82 2f bd b1 bb 14 3d 17 50 47 bc 1e c8 df bd
       -0.042848684 0.03631181 -0.012165091 -0.10926841
000380 38 93 84 bd 84 e5 c8 39 c2 ce 23 3d e4 55 91 bd
       -0.06473392 0.00038317975 0.0399921 -0.070964605
000390 81 c6 bf bc 93 b1 db bd e7 bd c4 bd ba e0 c7 3d
       -0.023410084 -0.10727229 -0.096065335 0.0975966
0003a0 4a df 91 bd ed 4c a8 3d 9d 43 26 3e 6c 3e 80 bb
       -0.07122667 0.082177974 0.1623673 -0.0039136913
0003b0 6b b0 d1 3c 6e 72 49 3d 5a 70 67 3c 58 0e 0a 3b
       0.025596818 0.049181394 0.014125908 0.0021065678
0003c0 22 79 34 3d 09 c2 27 3e 82 f7 22 be 2a 53 44 3e
       0.044060834 0.16382612 -0.15914729 0.1917235
0003d0 6f f9 f5 bc a8 74 96 3d 24 89 1f be 15 42 82 bd
       -0.030026166 0.07346469 -0.15579659 -0.063602604
0003e0 b5 b3 31 be fc ac 42 3d f3 8f d4 bd c4 c1 09 be
       -0.17353709 0.047528252 -0.10379019 -0.13452822
0003f0 b0 64 ef 3c be 08 27 3e 05 1d b8 bd ed 54 04 3e
       0.029222816 0.16311929 -0.0898991 0.12923022

mlp.0.bias f4 [256]
000000 0e e2 e4 3c f8 34 b7 bd ab 2b a9 3d 0d 02 02 3e
       0.027939823 -0.0894565 0.08260282 0.12696095
000010 4a 3f bb 3d b5 e7 e6 bd 63 51 b9 bd 64 1d 43 3c
       0.09142931 -0.11274663 -0.090487264 0.011908863
000020 26 f8 76 3d e1 b8 08 be 6a c0 d3 bd 30 a0 eb bd
       0.060295247 -0.13351776 -0.103394344 -0.11505163
000030 03 13 bc 3d 57 4e 0b 3e 3c 09 0a bc 42 dc 82 bc
       0.09183314 0.13604103 -0.008425053 -0.015974168
000040 49 4d 82 3b 7f 93 d8 bd be 86 5b 3d 3b 0e 0f 3d
       0.0039764983 -0.10575008 0.053595297 0.03492568
000050 6d 16 29 bc 11 bf 93 bb 52 1b 38 bd 6d cd 87 bd
       -0.010320288 -0.004508861 -0.04494793 -0.06630979
000060 4f db de bd 45 70 f1 3d 31 b0 f8 3c 2f 95 a2 bc
       -0.108816735 0.11788992 0.030357452 -0.019846527
000070 d7 e8 69 3d ac 0e 3c 3d 5a 4b 9e 3d 6a a7 e9 3d
       0.05710682 0.04591243 0.07729216 0.11408885
000080 10 2a 0f be 87 5e a5 bd 47 49 ba 3c d8 e1 19 bd
       -0.1398089 -0.0807467 0.02274002 -0.037568897
000090 8a bb 61 bd f7 84 08 3e 17 17 52 3d c8 e4 01 3d
       -0.05511049 0.13331972 0.05129155 0.031712323
0000a0 93 e4 7b 3c 82 e4 18 bd e9 3a 80 3d 1c 1b 3d 3c
       0.015374321 -0.037327297 0.06261236 0.011542108
0000b0 a0 be e1 3b e4 fd 7d 3c 75 96 90 3b 4f df 26 3d
       0.0068891793 0.015502427 0.004412467 0.040740307
0000c0 7a 35 28 3e 18 d7 95 bd 9d d6 a1 bd f8 66 06 3e
       0.1642665 -0.073164165 -0.07902262 0.13125217
0000d0 a5 7a 9c bd 30 e9 ef bd 2b fc ab bc c2 00 81 bd
       -0.0764058 -0.11714399 -0.020994266 -0.06298973
0000e0 11 03 0a 3c 73 98 bc bc 3a 2a b3 3c 3e 02 03 3e
       0.008423583 -0.023021912 0.021870721 0.12793824
0000f0 0b ca cf bd fa 92 85 bd bf e0 6b bc 85 25 f1 bd
       -0.101459585 -0.06522174 -0.014396845 -0.117747344
000100 09 8c e9 3b 58 6a b8 bd 4f a8 40 bd fc b7 22 3d
       0.007127289 -0.090046585 -0.04703551 0.039726242
000110 37 59 d5 bd be b1 fa bd 0e 5d ab 3c d9 70 88 3d
       -0.10417407 -0.12240933 0.020918395 0.06662149
000120 78 23 04 be 61 55 a5 bc 4f a7 38 3d 50 ba 91 bc
       -0.12904155 -0.020182313 0.045081433 -0.017789036
000130 d6 6d ba bd 48 d8 00 3d 0b d6 a0 bc e4 be bf bd
       -0.09102981 0.031456262 -0.019633314 -0.09362581
000140 93 8d fd bd 75 a9 07 3e 52 cc c3 bd e2 56 d4 bd
       -0.12380519 0.13248236 -0.095604554 -0.10368134
000150 fa 33 e7 bd f5 88 7d 3c a5 94 38 bd 7d 4d fb 3d
       -0.112892106 0.015474548 -0.045063633 0.12270639
000160 41 a6 a9 3c e4 2d f0 3d 86 4e 95 3d d4 6a 09 be
       0.020709159 0.11727503 0.07290368 -0.13419658
000170 d0 d6 b2 bd 49 ed 5b 3b 62 45 96 3d e6 83 18 3e
       -0.087323785 0.003355818 0.073374525 0.14894065
000180 4a 61 8e 3d 89 a3 d8 3d c4 8b 19 3d a0 76 87 3d
       0.0695215 0.10578067 0.037486807 0.06614423
000190 dc 24 f1 3d 31 81 44 bd 50 e2 08 3d 5a 02 6a bc
       0.117746085 -0.04797477 0.033418953 -0.014282787
0001a0 ad c7 24 3d b4 57 59 bd 3d ce 9d bd 5b ac 24 3c
       0.04022949 -0.053062156 -0.077053525 0.010050858
0001b0 bf 28 c2 bd 7a 1a 92 3d ff e9 b9 bc 97 08 ff 3d
       -0.09480428 0.07133956 -0.022694586 0.1245281
0001c0 d7 29 bf bd 25 ec 81 3d 90 9e f7 3d eb a6 90 bc
       -0.09334152 0.06343869 0.1209079 -0.017657718
0001d0 70 15 a6 bd 82 cf 46 3c 9c 56 63 bd d6 ca aa bc
       -0.08109558 0.012134435 -0.05550252 -0.020848673
0001e0 e5 03 30 3d f7 01 5b 3d 90 b0 05 3e 96 57 2e bd
       0.042972464 0.05346867 0.13055634 -0.042563997
0001f0 c5 8c 4b 3d 7b a4 3a 3d bd 52 0a be 5c da 01 be
       0.049694795 0.045567017 -0.13508125 -0.12680954
000200 9c 39 1f 3d 14 21 0a be d3 91 f5 3d 9f 9c f3 3d
       0.0388733 -0.13489181 0.119907044 0.118951075
000210 d1 ca 6b 3d a4 32 a9 3d 59 37 d9 bd 1b 1e 2b 3d
       0.057566468 0.08261612 -0.1060626 0.041776758
000220 38 f4 8c 3d af 47 a8 3c ab 0a d9 3d 5d b4 38 3d
       0.068825185 0.020541994 0.10597738 0.045093883
000230 37 c9 00 3e eb fc 1c bd 7b 2f e4 3d 67 6d 2c bd
       0.12576757 -0.03832714 0.11141869 -0.04209652
000240 2d 92 ac bd 2f 9f 9a bd 04 87 ff bd 89 a1 bd bd
       -0.08426318 -0.07549893 -0.12476924 -0.09259326
000250 1c 7b ef 3d c3 95 69 bd 5c 2c 25 3d 93 a8 16 3e
       0.11693403 -0.05702759 0.040325508 0.14712743
000260 b5 b2 83 3d 09 da a1 bd 1f 9b d3 bd c6 d2 1a 3e
       0.0643057 -0.07902915 -0.103323214 0.15119466
000270 7b fe c0 bb 29 c2 1b bd 23 3d 77 bd 28 7a d8 bc
       -0.0058897114 -0.038026962 -0.06036104 -0.026425436
000280 d3 55 6f 3d f2 5a cf bd 2d 3f f5 bc 04 c0 5a bd
       0.058431458 -0.10124768 -0.029937351 -0.053405777
000290 62 9b 75 bd be 7c 9e 3d bd 0c 1a 3d 96 92 88 bd
       -0.059962638 0.077386364 0.037609804 -0.06668584
0002a0 16 94 75 3d 89 ce f0 bd 03 7c 22 3d 3d ff 6f 3b
       0.05995568 -0.117581435 0.039669048 0.003662064
0002b0 97 81 d6 bd cf 70 78 bd c9 e3 96 bd 32 a7 f2 3d
       -0.10473936 -0.060654458 -0.07367665 0.11848296
0002c0 55 7b 0e 3e bc 31 01 be 82 82 32 3e e1 25 e1 3d
       0.13914235 -0.12616628 0.17432597 0.10993553
0002d0 87 a8 f0 bd 51 12 03 be 80 28 15 3e f0 87 0c 3d
       -0.11750894 -0.12799956 0.14566231 0.034309328
0002e0 ba 08 d0 bd 88 2c f8 3d 99 d7 e5 bd 95 c1 5b bd
       -0.101579145 0.12117869 -0.112227626 -0.05365141
0002f0 1c 1c 35 3d 08 df b9 bd a0 8d a6 bd e9 b8 cc 3d
       0.04421626 -0.09075743 -0.081324816 0.09996206
000300 cb 5e f3 3d ba c9 30 3d 49 b5 f7 bd 25 b7 f7 ba
       0.11883315 0.04316113 -0.12095124 -0.0018899186
000310 36 3b 34 3d 46 12 8e ba 30 29 b6 bd 9c 43 df 3c
       0.04400178 -0.0010839186 -0.08894575 0.027253918
000320 c3 ce af bb 22 ca b6 bd 38 a2 a5 3d 45 97 ff bd
       -0.005365224 -0.089252725 0.080875814 -0.12480024
000330 42 6f b0 bd e0 83 41 bc a4 93 78 bd c5 6e 22 3d
       -0.08614971 -0.011811227 -0.060687676 0.03965642
000340 72 b1 d3 bd ec cc b4 3d d1 c9 4a 3d e1 bd a5 3d
       -0.103365794 0.08828148 0.049508873 0.08092857
000350 b6 a2 05 bb 67 af b5 bd 77 b7 0a bd 1d a9 a0 bc
       -0.0020391173 -0.08871346 -0.033866372 -0.01961189
000360 7c 66 f4 3d 3d 68 90 3d d2 af 31 3d a7 da 65 3d
       0.1193361 0.07051132 0.043380566 0.056116726
000370 93 59 b8 bd 23 e6 e4 3d ea ac b8 3c 50 b3 7f bd
       -0.0900146 0.111767076 0.02254339 -0.062426865
000380 d9 5e 28 3d a1 f9 b3 bd be cd 07 3e 66 39 c8 bd
       0.04110608 -0.08787847 0.13262078 -0.09776573
000390 9b 51 f2 bc 95 45 a3 bd 6d 38 b4 3d 16 72 02 bd
       -0.029579928 -0.07972256 0.08799825 -0.031847082
0003a0 98 20 95 bc d0 58 ff bd 41 4a 87 bc 7e 4d e8 3c
       -0.018204018 -0.124681115 -0.0165149 0.028357264
0003b0 b4 4a b5 bd 6e e3 a7 bc 78 16 78 3d 43 4b 95 bc
       -0.08852139 -0.02049419 0.060568303 -0.018224364
0003c0 7b 14 14 3b 3e 51 9b bc db 9f b7 bd f0 f0 8a bc
       0.0022595215 -0.018959638 -0.08966037 -0.016960591
0003d0 57 6a e8 3d b4 90 a1 bd a0 99 04 be 9d fd 03 be
       0.11348408 -0.07888928 -0.12949228 -0.12889715
0003e0 4d a1 f0 3c 27 0b 9d 3b 0a e5 92 bd 05 2d 0e bd
       0.02937379 0.004792589 -0.07172592 -0.034710903
0003f0 45 19 03 bd cd 6c 56 3d 61 3e 71 3c b8 a6 c4 bd
       -0.03200652 0.052349854 0.014724345 -0.096021116

mlp.2.weight f4 [128, 256]
000000 1a a8 ac 3c 9e 8d c1 3c ab d8 74 3d 42 ec 19 bd
       0.02107625 0.023627099 0.059776943 -0.03757883
000010 e7 58 2e bd 2e 21 80 bc 35 48 19 bd 55 f9 3a 3d
       -0.042565253 -0.015640821 -0.037422378 0.045647938
000020 b1 95 66 bd 20 29 07 bd 89 71 46 bd 04 e0 08 bd
       -0.0562951 -0.032998204 -0.04844812 -0.033416763
000030 4a 32 66 3c 02 36 70 3d 36 be f6 3c e1 ef f0 3a
       0.014050076 0.058645256 0.030119997 0.0018382036
000040 4e 36 10 bc 44 e7 ce 3c 64 59 e1 bc 90 98 a8 3d
       -0.00880201 0.02525676 -0.027508445 0.08232224
000050 b8 3a 67 bd b2 9a 50 bc cc f7 85 3a c1 c8 39 3d
       -0.056452483 -0.012732195 0.0010220944 0.04535747
000060 cf e0 11 bd c9 d8 34 bc 70 b5 62 bd b3 16 0f 3d
       -0.035614785 -0.011038014 -0.055348814 0.034933757
000070 3b 4c 75 bc e4 c3 b2 3c 34 50 24 3d 69 8e 06 bd
       -0.014971788 0.021821924 0.04011555 -0.032850657
000080 e6 75 36 3d b4 78 55 bd 3e 47 89 bd d4 93 42 3d
       0.04454603 -0.052117065 -0.067030415 0.04750426
000090 24 24 82 3c 79 23 7c bc 0b e3 dd 3c 33 ab 72 3b
       0.015886374 -0.015389317 0.027085802 0.0037028312
0000a0 2b e0 0d 3c 3f 5c 28 3c 49 a3 65 3d 0f a3 4f bd
       0.008659403 0.010275899 0.056063924 -0.050692614
0000b0 d3 1d 5d bd 68 e5 ea b9 96 ef 67 3d 78 a1 08 3c
       -0.05398352 -0.0004480288 0.05662497 0.008339278
0000c0 aa 54 14 3d 8a 10 81 bd c4 93 26 bd 42 9c a0 bd
       0.036213554 -0.06301983 -0.040668264 -0.07842304
0000d0 f1 62 3e bc 5c 69 87 3d c3 8f 92 3c ab c6 3d 3d
       -0.011620269 0.066118926 0.017890817 0.046332043
0000e0 ae 7c 7f bd 06 fb 2c 3d 6d c5 76 bd 13 82 1c 3d
       -0.062374763 0.042231582 -0.060246874 0.038209986
0000f0 0c 1c 10 3d dd b9 60 ba 27 f2 66 3d 34 67 a3 bc
       0.035182998 -0.00085726177 0.05638328 -0.019946672
000100 3c a7 81 bd 94 6d ea bb c5 1b 84 3b 76 a3 c1 ba
       -0.063307256 -0.007154176 0.0040316307 -0.0014773447
000110 2d 39 c8 3c f8 aa 42 bd c0 fe ee bc e0 f7 55 3c
       0.024441326 -0.04752633 -0.029174209 0.013059586
000120 67 3d 0d bd 00 3f 91 bd 64 4f d9 3c 37 c5 30 bd
       -0.034482386 -0.070920944 0.026527114 -0.04315683
000130 f8 7d 4b 3c bc 2b 0e 3b ee 4d a0 bc 74 35 36 3d
       0.01242017 0.0021693548 -0.01956841 0.04448457
000140 bd 4f 93 3d d9 64 f6 bb 37 44 70 3d 5e 8d 17 bd
       0.07192943 -0.007519346 0.058658805 -0.037000053
000150 41 40 54 bd 23 f0 42 bd 50 2e 34 bd 4e b3 08 bd
       -0.05181909 -0.047592293 -0.04398948 -0.033374123
000160 2a 3f b0 bc 70 a7 48 3c 29 c7 89 3d f0 2e 2a 3d
       -0.021514494 0.012246951 0.0672744 0.04154867
000170 1c 6a 1d 3d 3d e8 51 bd b2 55 c8 3c 07 1b d8 bc
       0.038431272 -0.05124687 0.024454925 -0.026380075
000180 09 67 3e 3c e5 01 97 3d c3 50 08 bd cb 7d aa 3c
       0.011621245 0.07373408 -0.033280145 0.020811936
000190 94 0c a2 3a 7d c8 07 bc 56 93 3e bd 21 a6 43 bc
       0.0012363368 -0.008287546 -0.04652723 -0.011941464
0001a0 57 30 e7 3c 63 ce 95 3d 6e dd dc 3c 6e 8f 14 3d
       0.028221292 0.07314756 0.026961055 0.036269598
0001b0 9a 8a 0d 3d bb 2a 98 bc 5e ce c3 bb ac a3 46 3d
       0.03455601 -0.018575063 -0.0059755286 0.048495933
0001c0 66 f3 76 bd ad cc 9e bc 42 67 3a 3c 48 87 a5 3c
       -0.060290717 -0.019384706 0.011377158 0.020206109
0001d0 54 8a 29 3c 54 b8 ad bc 4f 5a 72 3d b4 c6 7c bd
       0.010347921 -0.021206059 0.059168156 -0.061712936
0001e0 db 5e 1c bd ac db b5 bb 61 4f 5a 3b e8 60 33 3c
       -0.0381764 -0.0055498686 0.0033311474 0.010948397
0001f0 40 d2 69 bd 04 e1 10 3d 3e 16 52 bd ed e9 00 bd
       -0.057085276 0.03537084 -0.051290743 -0.03147309
000200 ca 02 38 bd f1 71 5a bc cc b4 33 3d 1f 93 49 3c
       -0.044924535 -0.01333283 0.043873593 0.012303143
000210 fe 8d dc 3c 7b 40 8d 3d 34 19 bc 3b b2 d3 9a 3c
       0.026923176 0.06897064 0.005740309 0.018899772
000220 4b 03 3c 3d ba 21 51 bd 1f 06 e7 bc 16 b5 a6 3d
       0.045901578 -0.051057555 -0.028201161 0.08140008
000230 3d 8a 00 bc 49 a0 c2 bc 86 4c 02 3d dc af 9f 3c
       -0.007845459 -0.02375807 0.03181126 0.019493036
000240 0d 43 26 bd 15 5d 7e bd b0 be 83 bc f2 20 81 bd
       -0.04059129 -0.06210049 -0.016082138 -0.06305112
000250 a1 47 ff bc 81 23 b2 b9 9d 18 06 bb e8 b6 e8 3b
       -0.031162085 -0.00033977258 -0.0020461448 0.0071018822
000260 d8 13 f1 3c 2b 61 48 bd 7a 23 6e 3c b6 cc 38 bd
       0.029428408 -0.04892079 0.014534825 -0.045117103
000270 cc 37 7c 3d 87 b7 4d bd bc c7 90 bd de 8c 41 bd
       0.06157665 -0.050223853 -0.07069346 -0.047253482
000280 2c 82 f4 bc 90 60 71 3d 8f 87 1f bd f4 6f 2c bd
       -0.029847227 0.05892998 -0.038947638 -0.042098954
000290 60 2a a6 39 20 59 15 bd 7b b7 ac bc 75 f0 9c bd
       0.0003169356 -0.03646195 -0.021083584 -0.07663051
0002a0 97 41 16 3d 5e 28 96 bd 74 59 99 3c 38 2b ba bc
       0.036683645 -0.07331918 0.018719412 -0.022725686
0002b0 1a db 14 3d 08 f0 3e 3d 9e 57 8d ba bb c5 75 bd
       0.036341764 0.04661563 -0.0010783558 -0.060003024
0002c0 e4 a9 70 bd 14 72 22 bc 3e d2 59 3c 4e fd ed 3c
       -0.05875577 -0.009914894 0.013294755 0.02905145
0002d0 74 28 d7 3b 80 d5 e9 b9 4c c6 d2 bc b6 1e 1b 3b
       0.0065661017 -0.00044600293 -0.025729321 0.0023669428
0002e0 81 64 5d bd b6 63 18 3d dc d4 81 3d ce 69 23 b9
       -0.054050926 0.037204467 0.06339428 -0.00015584307
0002f0 26 5c 1d bd 80 5f f9 bc ba 55 04 bd 02 a9 44 bd
       -0.038417958 -0.030441046 -0.032308318 -0.04801274
000300 22 a3 4c 3d d8 01 11 3c bc 2e d6 bb e4 e2 21 3c
       0.049960263 0.008850537 -0.006536333 0.009880755
000310 f3 ee e8 bc 92 78 a1 bc a0 49 fa bb ec ad ba 3c
       -0.028434252 -0.019710813 -0.0076381713 0.02278801
000320 df 2a 34 3d cb 86 a2 3d f4 62 92 3d a5 2f c7 3c
       0.043986198 0.07935866 0.0714778 0.02431471
000330 1d 64 22 bd cd cc 69 bd 06 56 8a bb 7b 26 55 bd
       -0.039646257 -0.05708008 -0.0042216806 -0.05203865
000340 2d 2a 5e bd 72 99 41 3d 3a b6 59 3d 47 74 bb ba
       -0.05423944 0.047265477 0.0531523 -0.0014301621
000350 0a 0b ae 3d 1b 8a 23 bd 98 11 4b bd 10 9c e6 3c
       0.08498199 -0.03992663 -0.049577326 0.028150588
000360 66 eb 1a 3d 48 58 ad 3b c5 1f 05 bd 65 d5 45 3d
       0.03782215 0.005290065 -0.032501 0.048299212
000370 3b ee 50 bd b7 75 60 3d 7d 78 aa 3d 5c 55 42 bd
       -0.051008444 0.05479976 0.083237626 -0.047444686
000380 be ed 1f bc 31 00 e2 3c 78 8a aa 3b 26 90 3f 3d
       -0.009761272 0.027587982 0.005204495 0.04676833
000390 21 c2 1a 3c 6d ba ef 3c 95 78 d2 3b 52 67 3c bd
       0.009445698 0.0292637 0.006423066 -0.04599697
0003a0 74 64 30 bc b7 4e f2 bc 1c 45 8c 3c b8 e0 95 3d
       -0.010766137 -0.02957855 0.017122798 0.07318252
0003b0 26 6e 6e 3d 2c 78 66 3d 97 6c 4b 3d 61 96 48 3a
       0.058210514 0.05626695 0.049664106 0.0007651803
0003c0 4b e9 9e bc a6 f1 15 3d 4a 73 90 3a c3 32 07 bd
       -0.019398352 0.036607407 0.0011020687 -0.033007395
0003d0 d4 53 8e bd 17 79 85 3c 39 2d 4e 3b 6e c3 2e bc
       -0.06949583 0.016293092 0.003146006 -0.010666711
0003e0 46 4f 96 bc 28 79 0c bd be 9d 34 3d 4e 76 b8 3c
       -0.018348347 -0.03429523 0.044095747 0.02251735
0003f0 55 9d c9 ba 53 76 df bc 5b 45 e2 bb a6 5c 05 3d
       -0.0015381972 -0.027278101 -0.0069052405 0.03255906

mlp.2.bias f4 [128]
000000 43 b8 49 3d 05 82 19 3d 85 7d 58 bd 90 97 4d bc
       0.04924799 0.037477512 -0.05285408 -0.012548342
000010 b7 6a fd 3b 7c 00 b4 bc b4 42 4b 3d a3 90 81 3c
       0.0077336687 -0.021972887 0.04962416 0.015816038
000020 b9 25 ad 3b 44 9d f1 3c 23 89 1c bd ba ff 37 bd
       0.005284038 0.029493935 -0.03821672 -0.044921614
000030 7c 60 d6 bc 13 9d 2c bd 97 39 a3 3c 24 e3 0c bd
       -0.026169054 -0.042141985 0.019924922 -0.034396306
000040 b9 b8 74 bd 8f e7 27 bd 58 a2 89 bc 57 e2 d0 bc
       -0.059746478 -0.040992316 -0.016801044 -0.025498552
000050 49 c1 73 3a 21 e3 8d 3b 65 cf 6a bd 9a 84 57 bc
       0.0009298516 0.0043300544 -0.057326693 -0.013154173
000060 8c 55 dc 3c d0 b3 1f bc 62 33 8f bc 36 3c 78 3d
       0.02689626 -0.0097474605 -0.017480556 0.060604297
000070 cd 93 30 bd a6 48 89 bc 02 eb a8 3d 99 b6 02 3d
       -0.043109704 -0.016758274 0.08247949 0.03191242
000080 b4 86 80 bd e3 4b 43 3d a1 4c c7 bc a7 87 b9 bc
       -0.062756926 0.047679793 -0.024328532 -0.022647692
000090 99 ea 61 bc c7 27 dd bc 94 20 07 3d 3c 67 0c 3d
       -0.013788843 -0.026996506 0.032990053 0.03427814
0000a0 33 d5 74 3d 9b b5 3b bd 04 0c 8e 3d 33 19 10 bd
       0.059773635 -0.04582749 0.069358855 -0.03518028
0000b0 dc 9c 78 3d c4 9c 43 3d 94 16 43 3d 76 10 5f bd
       0.060696468 0.047756925 0.047628954 -0.054459058
0000c0 80 88 26 3c 95 06 80 3d f0 70 bd bb c4 55 3a bd
       0.01016438 0.062512554 -0.0057812855 -0.04549195
0000d0 b4 ef bd 3c 9b 59 43 3c 3d 2e 2d bc 1b a2 f8 3c
       0.023185588 0.011923219 -0.010570106 0.030350735
0000e0 74 01 45 3d 71 2e d3 3c fd c0 87 bc 93 81 5d 3b
       0.04809709 0.02577898 -0.016571516 0.0033799156
0000f0 b4 55 36 bd f0 d9 79 3a 59 08 fb bc 06 d6 7f bd
       -0.044515327 0.00095310714 -0.030643629 -0.062459968
000100 19 d0 e8 3c 69 8e 90 3c 58 60 04 bd 00 e9 33 bd
       0.028419541 0.017646031 -0.032318443 -0.043923378
000110 f4 5c 81 bd ec 09 98 3d bb 93 d0 bc 84 c6 d2 3b
       -0.063165575 0.074237674 -0.025461068 0.0064323563
000120 d0 d7 6f bd 1d 7a 2e 3d 7a a8 3b 3d c3 6e a5 bc
       -0.058555424 0.042596925 0.04581497 -0.020194417
000130 4c 8f ed 3c 54 18 68 3d 51 28 4d 3d fa 32 72 3d
       0.028998993 0.056663826 0.050087277 0.059130646
000140 30 8b 43 bd 45 e4 1d bb 4a 53 78 3d e8 f9 0b bd
       -0.04774016 -0.0024092358 0.060626306 -0.034173876
000150 f8 cd 0a bd e6 00 01 3d 6f cc 32 3d f3 1b ed bc
       -0.033887833 0.031494997 0.043651994 -0.028943991
000160 02 4a 8e bd ff ab 2f bd 10 0e 0d bd 27 73 1a 3b
       -0.069477096 -0.042888638 -0.03443724 0.0023567171
000170 a1 d4 cc bc e8 d4 a0 3c e3 03 c7 3c c0 36 c6 bb
       -0.025003733 0.019632772 0.024293846 -0.006049007
000180 a0 ae 10 3d 98 b8 06 3c a1 1d 71 3c 73 23 fd 3c
       0.035322785 0.0082227215 0.014716537 0.030900693
000190 fc cb 0f 3d 96 d1 87 3d 73 17 50 3d 83 d1 86 3d
       0.035106644 0.06631772 0.050803613 0.0658293
0001a0 56 69 41 3d fc 46 cd 3c 2c 79 43 bc 0e e2 bf 3d
       0.047219597 0.025058262 -0.011930745 0.093692884
0001b0 dc ca 85 3c 9c fa 56 3d 71 6a 89 3d cf e7 a0 bc
       0.016332082 0.052485093 0.06709755 -0.019641785
0001c0 97 8a b7 3c ed 0d c8 3c aa 77 0b bd f5 61 a8 bc
       0.022404952 0.024420703 -0.034049667 -0.020554522
0001d0 23 87 9a 3d ee 97 49 3d 62 95 80 3b 10 8e 48 3d
       0.075453065 0.049217157 0.003924058 0.048963606
0001e0 7f 4c 23 bd 53 52 f7 bc 58 be 38 bb 7e db 39 bd
       -0.039867874 -0.030190622 -0.0028189626 -0.04537534
0001f0 c6 fb 7f bd ad f4 53 3d 48 d1 3d bd 08 ad e1 3b
       -0.06249597 0.051747013 -0.046342164 0.006887082
