weights/steps_640001.pth (torch, 276355 bytes, 10 tensors)

lstm.weight_ih_l0 f4 [192, 7]
000000 43 08 d5 bd ae 2d cc bd 57 4d 7e bd 70 87 2c 3d
       -0.104019664 -0.0996965 -0.062085476 0.04212135
000010 8b 4b 29 3e ee ec c2 bd c1 99 79 bd 69 a4 d6 bd
       0.16532724 -0.09517847 -0.060937647 -0.104805775
000020 7e de 36 be 94 54 a2 bd 01 11 ba bb 5f 3e 32 bb
       -0.17858312 -0.07926288 -0.0056782966 -0.002719782
000030 2b d3 76 3d c2 4b ee bc 3e eb c8 3d fc 2b 8d 3d
       0.06025998 -0.029088859 0.09810494 0.06893155
000040 9a 92 a4 3d c2 d5 07 3e 79 4a b9 3d 7b ff 99 3d
       0.080357745 0.13265136 0.09047408 0.07519432
000050 ca 14 a2 3d c1 96 e1 bd fc bb eb 3b ea dc 04 3e
       0.079141214 -0.11015082 0.0071940403 0.12974897
000060 1a 97 71 3e 06 6e 21 3e ea fa a2 3d 29 be d2 3d
       0.23592797 0.15764627 0.07958014 0.102901764
000070 ab d2 df 3d 92 49 70 3d e8 9b 09 3d 61 28 4d 3d
       0.109288536 0.058663912 0.03359595 0.050087336
000080 c5 84 43 3d 3b 31 0f 3e 1d a9 4c 3c 41 5f 73 bc
       0.04773404 0.13983624 0.012491492 -0.014854253
000090 cf cc ec bd c1 fb f9 3d ab 7e 2d bd 56 5b ec 3d
       -0.11562502 0.12206221 -0.042357128 0.115408584
0000a0 ed f7 54 bd 65 7a d3 3d e8 fe f5 bd 63 21 2f 3c
       -0.051994253 0.10326079 -0.1201151 0.010689112
0000b0 9b c7 89 3d ac 0e 18 3e 7b 97 1f 3e 3a 4e d4 bd
       0.06727525 0.14849347 0.15585129 -0.10366483
0000c0 16 2a 78 bd 25 fe 05 bd 91 30 86 bd cd c8 89 bd
       -0.06058701 -0.032713074 -0.06552232 -0.06727753
0000d0 63 e2 17 3d 17 2a 4b bd 9a 3d b2 bd 27 e8 a4 3c
       0.037081134 -0.049600687 -0.08703156 0.02013023
0000e0 77 f8 d5 bd f0 f3 c5 3c ca d2 63 3d fe 89 b4 bc
       -0.104477815 0.02416417 0.055620946 -0.022038456
0000f0 30 25 9e 3d 47 c4 a9 bd 3a 4a b5 bc 7f 19 58 3e
       0.07721937 -0.0828939 -0.02213012 0.21103476
000100 78 5a 25 bd 55 b5 a5 3d d1 0c d6 3d ac 06 0c 3c
       -0.04036948 0.08091227 0.10451663 0.008546513
000110 0d 17 05 3e 90 49 08 bd 56 29 9d bd 48 1f cf bd
       0.12997074 -0.03327328 -0.076739 -0.10113388
000120 80 05 34 3d 74 ce 44 3e d9 36 30 3e bb 9b 9a bd
       0.043950558 0.1921938 0.17208423 -0.075492345
000130 ea b9 24 3e 1c 78 0e be ee 8f d7 bc 04 be f8 3d
       0.16086546 -0.13913006 -0.026313748 0.121456176
000140 41 0c 50 3d ee 91 52 3d a3 17 16 3d c1 7a 83 bb
       0.050792936 0.0514087 0.036643635 -0.004012436
000150 94 53 1c 3b 2e 7e 13 bc d5 75 f1 bd 64 e8 73 3d
       0.0023853527 -0.009002252 -0.11790053 0.059547797
000160 aa 6a 1b bc bf 3c de 3c bc 15 90 bd 67 7a b6 3d
       -0.00948588 0.027128575 -0.070353955 0.08910065
000170 3e 71 0a bd 4a 9f 84 3d 18 b6 35 3d fa 98 f2 bd
       -0.033799402 0.064756945 0.04436311 -0.11845584
000180 67 fb e8 3d eb 7c eb bd d0 7e 26 bd 52 4a 79 bd
       0.11376076 -0.114984356 -0.04064828 -0.060861893
000190 8a c7 c0 3d 9c 4e 20 bd c6 b1 9c bd 2f f0 6b bd
       0.09413059 -0.039137468 -0.07651095 -0.057602104
0001a0 c6 e8 22 3e 8c cf 29 be f8 50 2a be 0f b0 b7 bd
       0.15909109 -0.16583079 -0.1663245 -0.089691274
0001b0 d0 14 da 3d 67 60 db bd 82 c4 c6 3d e4 84 b8 bd
       0.10648501 -0.10711747 0.0970545 -0.09009722
0001c0 21 a3 b8 3d 7b fa 05 3e 47 25 38 3d 42 9f c1 bd
       0.09015489 0.13083832 0.044957425 -0.09454204
0001d0 1f ea 4c 3d 62 f3 7c 3d 1f da 3c 3e fa 4f 93 bd
       0.050027963 0.061755545 0.18442582 -0.07192989
0001e0 47 91 2d be 1a 25 02 3e e9 5d 06 3e 68 03 04 3e
       -0.1694995 0.12709466 0.13121761 0.12891924
0001f0 30 c3 e4 3d e2 86 1d 3e 92 dd 88 3c 0b d3 2c bd
       0.111700416 0.15383485 0.016707215 -0.042193454
000200 0d 78 c9 3d bb 94 22 bd 49 ef 53 3e e4 7d e6 3d
       0.09837351 -0.03969262 0.20696749 0.112544805
000210 4b f6 be 3d b6 ad 0b 3e a0 d1 4b 3e 43 a4 fb 3d
       0.093243204 0.13640484 0.19904184 0.1228719
000220 6a a6 7d 3d a5 42 af bd bf cd 48 3e a3 ac 09 3e
       0.061926283 -0.08557633 0.19609736 0.13444762
000230 9a 28 34 bd 54 f9 bf 3c a2 c7 bd 3d 2f e3 06 3e
       -0.043984033 0.023434319 0.092665926 0.13172601
000240 5a 2e b4 3d dd e5 ea bd 1b 3d c7 3d 9a 1d 3e bd
       0.08797903 -0.11469624 0.09728452 -0.04641495
000250 4b 9e b5 bd 9e 0d 03 3d d3 98 8d 3c 25 4e f4 3c
       -0.088680826 0.03199541 0.017284786 0.029822418
000260 02 f6 7b bd 4c 92 a5 bb 99 1f 0e be 2a b1 fd bd
       -0.06151391 -0.0050528403 -0.13879241 -0.12387307
000270 8a 81 87 bd 68 62 85 3b e7 1f 9d 3d 1d 63 de bd
       -0.066165045 0.004070569 0.076721005 -0.10858748
000280 51 a5 bd 3b 9f ad 45 bd d8 25 79 bc 97 39 0e 3d
       0.0057875295 -0.04826128 -0.015206777 0.03472289
000290 50 14 f0 3d d7 8c 1b 3e 71 fa d0 bc fd 7f 1a 3e
       0.11722624 0.15190445 -0.025510045 0.15087886
0002a0 e6 d7 44 3e da 4c 4a 3d ae 52 04 3e 42 e9 da 3b
       0.19222984 0.049389698 0.12922165 0.0066806385
0002b0 47 ff 6e 3d de 19 02 3e b9 00 30 bd ba 7e 36 3e
       0.05834892 0.1270518 -0.04296944 0.1782178
0002c0 83 b7 f7 3d 83 09 da 3d d4 43 68 3e 8c 98 9c 3d
       0.12095549 0.106463455 0.22682124 0.076462835
0002d0 81 3d db bd c9 65 64 3d ed 8f 17 3e 75 4e b1 bd
       -0.1070509 0.055761132 0.14800997 -0.086575426
0002e0 3e 27 c2 3d 00 5b 28 3e 91 60 f6 3d fa 4f 86 3d
       0.09480141 0.16440964 0.12030137 0.06558223
0002f0 b2 73 05 3e 81 e0 9d 3b d0 07 3a 3e c8 62 c4 3d
       0.13032416 0.0048180227 0.18167043 0.095891535
000300 ec 02 38 3e ce 30 1a bd 50 3f 2c 3e c0 85 8f 3d
       0.17969865 -0.0376442 0.16821027 0.07007933
000310 00 9b 8c 3d a5 b0 d2 bb 2d b5 14 bd e2 4c c1 3c
       0.068655014 -0.006429749 -0.036305595 0.02359623
000320 cc 04 0a 3e f1 22 9e 3c 0c d5 28 3e 94 8a 2c 3e
       0.13478392 0.01930377 0.16487521 0.16849738
000330 c7 38 b9 3c d3 ba 00 3e f5 fc d2 3d 82 a4 6c 3d
       0.022610081 0.12571268 0.10302154 0.057774074
000340 b8 63 10 3e 59 49 7b bd 53 77 e6 3c d8 53 15 be
       0.1410054 -0.061349247 0.02813307 -0.14582765
000350 28 67 12 3e 4d 15 87 3d e5 17 b6 3d 77 a3 3b 3d
       0.14297163 0.0659586 0.08891276 0.04581019
000360 3c 9e 2b 3e 70 e3 e3 bd 03 54 88 bd 60 79 cd bc
       0.1675958 -0.11127365 -0.06656649 -0.02508229
000370 9b ce ed 3d 38 14 94 3d d5 3c 02 be 37 68 31 3e
       0.116116725 0.07230419 -0.12718518 0.17324911
000380 b7 56 78 3d f6 fc 12 3e 99 73 54 3d 70 79 d0 3d
       0.060629573 0.1435431 0.051868055 0.10179412
000390 cc ac 3a 3e 19 2d 64 bc 3e 30 e9 bc d6 e4 5e 3d
       0.1822998 -0.013926768 -0.028465386 0.054417454
0003a0 d3 e5 3c bb e3 2e 7d 3b 44 20 08 3e 95 8d 98 bd
       -0.002882351 0.0038632683 0.13293558 -0.0744888
0003b0 70 3f 38 3d c1 72 e8 3d 17 84 e6 bd f6 dc af bd
       0.044982374 0.113500126 -0.11255663 -0.08587067
0003c0 ae ef 2d bc 9a 57 7c 3d f2 13 45 b9 32 d3 f8 bd
       -0.010616226 0.06160698 -0.00018794814 -0.12149657
0003d0 2a 53 30 3c a5 3d 0a be 82 21 da 3d 9d 23 a3 3d
       0.010762015 -0.13500078 0.10650922 0.07965777
0003e0 e6 bd 68 3d 29 81 17 3e 8f c2 cc 3d ca 31 0f bd
       0.056821726 0.14795364 0.099980466 -0.034959592
0003f0 ea 14 0f be 71 4b d1 bd db 25 15 3e 44 77 cb 3d
       -0.13972822 -0.102194674 0.14565222 0.099348575

lstm.weight_hh_l0 f4 [192, 48]
000000 52 5f f2 3d 19 4a a7 3d de c1 e1 bd 96 01 33 3d
       0.11834587 0.0816843 -0.11023305 0.043702684
000010 66 f3 66 3d 7e c3 17 be 66 90 39 be 3c 12 37 3b
       0.056384467 -0.14820668 -0.1812149 0.0027934453
000020 af 02 42 bd e7 5c 71 3d 03 05 7d bc 1b 7d 06 3d
       -0.04736584 0.05892649 -0.015443089 0.032834154
000030 2f f2 1a 3e de c4 25 3d c1 98 7f bd ec f3 ce 3d
       0.15131448 0.04047095 -0.062401537 0.10105118
000040 cc 4c 27 bd aa e3 e2 3d 2e b2 1c 3c 6a 59 0e be
       -0.040844724 0.1107858 0.009563966 -0.13901296
000050 db ce 18 3c ce 45 09 3e ef 2e 74 3d 8a 3d 47 bd
       0.009326662 0.13405535 0.059615072 -0.048642673
000060 4c 92 24 3c 6b d3 08 3d a8 f6 9d bd 7d 49 7a bb
       0.0100446455 0.03340475 -0.077130616 -0.0038190775
000070 90 54 4c be a5 da 0e be 0e f8 62 bd 48 7b c4 bc
       -0.19954133 -0.13950594 -0.055412345 -0.023984566
000080 a6 66 22 bd bc 39 99 bd 90 93 8a bd e4 b0 ad bb
       -0.039648674 -0.07481715 -0.067664266 -0.005300628
000090 d6 a8 85 3d 34 b0 bf bd b3 48 27 be 72 af cd bb
       0.065263435 -0.0935978 -0.16336326 -0.006277018
0000a0 a6 a3 8b bd d2 72 a1 bd 84 8e 5a be 1d e8 dd bc
       -0.06818323 -0.07883228 -0.21343428 -0.02708822
0000b0 5b 05 2f 3d c4 0f d6 bd 9e 3f 6f bc d2 db b8 3d
       0.042729717 -0.10452226 -0.01460257 0.090263024
0000c0 69 75 e4 bd c6 2c 44 bd c5 28 b4 bd fa 01 c4 3d
       -0.11155207 -0.04789426 -0.08796839 0.095706895
0000d0 a6 82 60 bd 26 11 c9 3b 10 76 f0 3d 80 06 1f be
       -0.054812096 0.0061360775 0.11741269 -0.15529823
0000e0 20 63 fe 3c 5c 3e 21 bd 20 2e db 3d 61 fb 0f bd
       0.031053126 -0.03936611 0.10702157 -0.035151843
0000f0 e0 ba e5 3d 84 fa a7 bd ba be 7a 3d d8 e5 55 bd
       0.11217284 -0.08202079 0.061217047 -0.05222115
000100 79 71 f0 3d 35 9d 00 3e 4d 9a b1 3b 18 86 31 be
       0.11740393 0.1255997 0.0054200054 -0.17336309
000110 a8 87 ce 3d c2 47 34 3e ce 8f 36 3d 90 0b 89 bd
       0.10084468 0.17605498 0.044570737 -0.066916585
000120 9c a0 9d 3c 89 28 25 be 3f 52 45 bd 09 ad 9e bd
       0.019241624 -0.16128744 -0.04817414 -0.077478476
000130 e6 18 16 be b6 00 91 bd b6 f4 a4 bd c2 b7 b2 3d
       -0.14657936 -0.07080214 -0.080544874 0.08726455
000140 e3 3a 10 be 98 4c af bd 0e 43 84 3d 39 d0 f7 bc
       -0.14084964 -0.08559531 0.06458102 -0.030250655
000150 c5 e2 b7 bd 1e 8b 95 3c 7d 0d b2 3d 6b 23 0a 3e
       -0.089788 0.018254813 0.08693979 0.13490073
000160 33 82 bd 3c 67 e4 f2 bc d7 6e cf 3a cf 80 6f bd
       0.023133373 -0.029649926 0.001582588 -0.05847245
000170 2a 65 e1 3c 3d 53 63 bd 9a 1b 28 be 71 ce 9a bd
       0.02751406 -0.055499304 -0.16416779 -0.07558907
000180 e0 fb a9 3c b0 db 05 be dd 69 18 3e 5a 9e c0 bd
       0.020749986 -0.13072085 0.14884134 -0.09405203
000190 d6 74 2c be 7b f2 52 be fe 79 02 be 12 e1 42 bd
       -0.16841444 -0.20600311 -0.12741849 -0.047577925
0001a0 fa 0e 7e 3b 40 f7 f8 3c 35 e3 47 3e 5a f2 03 bd
       0.003876625 0.030391335 0.19520266 -0.032213546
0001b0 34 9c cb 3d c6 3c b1 3d b1 87 96 bc 7b 2d ce bd
       0.09941903 0.0865417 -0.01837525 -0.100672685
0001c0 42 4f d3 3d be 72 41 be b8 d9 b4 bd 04 13 9e 3c
       0.103178516 -0.18891427 -0.08830589 0.019296177
0001d0 aa d9 23 be e7 bd e7 3d 49 3f 5b 3d 28 14 0c be
       -0.16001001 0.11315518 0.05352715 -0.13679564
0001e0 9f 0c 01 be 14 d3 97 3d 75 33 43 be 87 9a 78 be
       -0.12602471 0.07413307 -0.19062598 -0.24277698
0001f0 b1 04 33 be d6 92 18 be a1 41 22 3e ed c9 84 3d
       -0.17482258 -0.14899763 0.15845348 0.06483827
000200 e5 ad 36 3e a0 16 43 3e 63 6e b0 39 4d fe 3f 3d
       0.17839773 0.190516 0.0003365158 0.04687338
000210 31 1a b9 3c 04 b2 dc 3b b7 b7 1d bd f5 79 5e 3e
       0.022595497 0.0067350883 -0.038505282 0.2172621
000220 82 16 5a 3d 9d 63 ba 3d 83 73 bb 3c 50 96 6a 3e
       0.05324412 0.09101031 0.022882229 0.22908902
000230 09 4d 13 3d fc 5f 7d bd f7 b8 30 be 44 73 87 3c
       0.03596214 -0.061859116 -0.17258058 0.016534455
000240 1b 09 1f 3d 1a 78 51 3c e3 3f 3a bd 3d e2 09 bb
       0.038827043 0.012784982 -0.045471083 -0.002103939
000250 4e 36 47 be 00 ba 75 be b9 23 d3 bd 70 84 60 be
       -0.1945431 -0.23996735 -0.10309548 -0.21925521
000260 56 1c e1 bc e5 a0 40 3e 70 53 39 3d 54 bd 19 be
       -0.027479332 0.18811376 0.045245588 -0.15013629
000270 60 dc 0b 3e a9 80 41 3d ed e3 ef 3c a2 32 8a bb
       0.13658285 0.04724184 0.029283488 -0.0042174617
000280 d0 bf 1d 3d ac 22 f1 bd b1 fb 1f 3e 42 84 fc bc
       0.038513005 -0.11774191 0.15623356 -0.030824784
000290 93 6a ce bc 11 04 5b 3e d2 ad 36 bd 3e 50 0b be
       -0.025197303 0.2138827 -0.04459936 -0.13604829
0002a0 1f 3a 0f be 1b e5 dd 3c a2 df 3e bc 0f 94 08 bd
       -0.13987015 0.027086785 -0.011649998 -0.033344325
0002b0 67 c1 0a be 72 c5 24 be 3c e1 c9 3d 0e fe 56 3e
       -0.1355034 -0.16090944 0.09857413 0.20995352
0002c0 c0 38 b4 3d c3 39 eb 3b 24 f2 0c 3d 47 df 18 3e
       0.08799887 0.0071785166 0.03441061 0.14928924
0002d0 69 05 84 3c 02 5f 00 be 25 ce 2e bd ce 4a 53 3e
       0.016115861 -0.12536243 -0.042677063 0.20634004
0002e0 bd c0 3e 3e 3a ff 1c be 93 4f a0 3b 83 2e 56 bd
       0.18628211 -0.15331736 0.0048922985 -0.05229045
0002f0 14 30 94 bc 9e d1 c9 bd f4 d0 47 be 3d 42 13 3e
       -0.018089332 -0.098544344 -0.19513303 0.14380737
000300 9d 34 a2 3e a4 49 15 be a4 98 88 3e 72 51 43 be
       0.31680766 -0.14578873 0.26678956 -0.19074038
000310 4e bb 88 be fd 50 80 be ce 20 81 be 51 2b 6a be
       -0.26705402 -0.2506179 -0.2522034 -0.22868086
000320 4a e1 84 bc 1f ed 26 3e 70 31 98 3e d9 42 d5 bc
       -0.016220707 0.16301392 0.29725218 -0.026032852
000330 66 c8 d5 3c 19 b8 32 3e 9d 83 7a 3e eb 22 30 be
       0.026096534 0.1745304 0.24464269 -0.1720082
000340 8e b7 46 3e b8 c8 a5 be b8 cf 77 3e fe 36 cb 3d
       0.19405958 -0.323797 0.24200332 0.09922598
000350 82 67 72 be 60 19 7a 3d fd 41 87 3e 9e 86 5f be
       -0.23672298 0.061059356 0.26417533 -0.21828696
000360 fb bb 4b be 02 ec ac 3e 8e 8e 86 be 4f 53 97 be
       -0.19895928 0.3377381 -0.26280636 -0.29555747
000370 84 92 78 bd d1 2f 16 be e6 ea 10 3e 13 16 26 3e
       -0.060686603 -0.14666678 0.14152107 0.16219358
000380 d3 da a4 3d c1 fb 22 3d a0 96 f2 3d db ff c5 3e
       0.0804955 0.039790872 0.11845136 0.38671765
000390 c1 b0 88 bd 39 29 2e be 35 2b c2 bd 54 f7 fa 3d
       -0.06674338 -0.17007913 -0.09480897 0.12254205
0003a0 75 d6 4e 3e b0 20 3e bd 7c 66 57 be db f9 31 3e
       0.20198996 -0.046417892 -0.21035188 0.17380469
0003b0 c2 ea c0 3d c0 b2 27 bd ad 61 ad be 5a d3 da 3d
       0.094197765 -0.040941954 -0.33863583 0.10684843
0003c0 a2 2b 6b 3d fc 15 58 be 48 10 e0 3d 9c d1 77 bd
       0.05741466 -0.21102136 0.109406054 -0.060502633
0003d0 0b e1 c6 bc 66 4e 6d be d8 f1 f2 bc 3c b6 fc bb
       -0.02427723 -0.23174438 -0.029656336 -0.0077121537
0003e0 1b 65 5c be 90 eb 05 3e 00 c7 66 3e 33 a3 17 3d
       -0.21522944 0.13078141 0.2253685 0.037020873
0003f0 60 f7 19 3e f4 2a 9b 3b f5 96 6b bd ff 6b 01 be
       0.15035772 0.004735345 -0.05751701 -0.12638853

lstm.bias_ih_l0 f4 [192]
000000 91 0e 94 3d 83 06 83 3d 2e 5e 16 bd 6d 76 53 bd
       0.07229341 0.063977264 -0.03671091 -0.05162661
000010 d0 89 6a bb 70 55 32 bd fd 6e c8 3d 6e 8b 97 3d
       -0.003578771 -0.04353851 0.09786794 0.07399641
000020 42 19 b8 3d df 52 02 3e fd ce 3b 3d 58 f2 fe bd
       0.089891925 0.12726925 0.045851696 -0.12448567
000030 d4 c5 02 bd 54 cb 9d 3d 07 44 96 bd 68 64 ac 3c
       -0.031926945 0.077047974 -0.07337194 0.021043971
000040 8f db 37 bd 1c a6 87 3d df 71 48 3e 36 ff 2b bd
       -0.04488712 0.0662348 0.19574688 -0.041991435
000050 1f be 35 3e 9c 32 b6 3d 0c 48 03 3e a6 28 cb 3d
       0.17748307 0.08896372 0.12820452 0.099198624
000060 93 80 fd bc f5 07 a2 3d 3e 3a 08 3e 85 94 db 3d
       -0.030945098 0.07911674 0.13303468 0.10721687
000070 1a 9a 83 3c 38 fc 4e 3d df b2 b9 bd 36 8b 19 3e
       0.016064692 0.050533503 -0.0906732 0.14994511
000080 9a cb 9a bd 46 3f 46 3c c8 5a 07 3e 4e cf 62 bd
       -0.07558365 0.0121000465 0.13218224 -0.055373482
000090 ee f1 d9 bd b2 83 04 3e 0d bb 8e bd 7a d2 f6 3d
       -0.106418476 0.12940863 -0.06969271 0.12051864
0000a0 64 18 a3 bd 70 9d 59 3e 08 0a d3 3d 5e 76 d8 bb
       -0.079636365 0.21251464 0.10304648 -0.0066059073
0000b0 b3 44 9c 3d 1f 6b 83 3d 40 0a c0 3d 0e 88 b2 bd
       0.07630291 0.06416916 0.09376955 -0.087173566
0000c0 8e 77 81 3c dd e9 5d 3d 24 1a d2 3c c8 e1 0a 3e
       0.015804078 0.054178108 0.02564723 0.13562691
0000d0 30 3d 0d bc 29 50 c7 bd 8e 5a 13 3e 16 2a 44 3e
       -0.008620545 -0.09732086 0.14390013 0.1915668
0000e0 81 b4 09 3c 5a bd bf 3d e8 68 c5 bc 4d 9b d0 bd
       0.008404852 0.09362288 -0.024097875 -0.10185871
0000f0 83 87 b3 3b 97 02 32 3d 77 e9 3e bd d5 cd b1 3d
       0.0054788007 0.0434595 -0.04660937 0.086818375
000100 58 11 11 3e 01 8f db bc 4f b8 95 bd 34 0e 9a bd
       0.14166772 -0.026801588 -0.07310545 -0.0752224
000110 1b cf b2 3d fb 1b 46 3e 3a 5f 2b 3d 7c 6f 0f 3e
       0.087309085 0.19346611 0.041838862 0.14007372
000120 c2 0a 1d 3d fb ba 27 bd 52 7a 78 3d b7 d6 a8 bc
       0.038340338 -0.040949803 0.06066353 -0.020610197
000130 90 2c bd 3d ef 76 61 3d 28 96 af 3d 85 b2 d7 bd
       0.09237015 0.055045065 0.08573562 -0.10532097
000140 8c a1 c3 bb 63 60 b8 bd 0d 33 7a bd ef 31 23 3e
       -0.0059701856 -0.09002759 -0.061083842 0.15937017
000150 03 07 b3 bd b3 64 29 3e e9 04 fb 3d 00 d6 34 3d
       -0.08741572 0.1654232 0.12256796 0.0441494
000160 c4 01 0e 3e 53 42 0f bc 79 c5 02 3e fc 95 67 3d
       0.13867861 -0.00874384 0.12770642 0.05653952
000170 45 c5 d1 bd b8 dd a3 bd 78 9e 08 3d b0 68 92 3d
       -0.10242704 -0.08001274 0.033354253 0.07148874
000180 44 1c 56 3d 87 d2 d6 3c 16 92 ed 3d 0c ae b9 bd
       0.05227305 0.026223434 0.11600129 -0.090664
000190 fd 9e 9c 3d b6 60 40 3d 20 7f 98 bc 6e ec b6 bd
       0.07647512 0.04696723 -0.018615305 -0.08931814
0001a0 c8 6c c2 3d e5 41 90 bb fd 69 9c bd 4e 4d 26 be
       0.094934046 -0.0044023865 -0.07637403 -0.16240427
0001b0 5f 20 c1 39 31 80 ec 3b 03 aa ab bc fa f0 00 3e
       0.00036835947 0.00721743 -0.020955091 0.12591925
0001c0 2a 84 d4 3d 86 8e 02 3e d5 b2 68 3d a4 a3 18 be
       0.10376771 0.12749681 0.056811173 -0.14906174
0001d0 97 dc 42 bd 8c b8 5d bb 0f 2b f3 3d f0 c8 fd bd
       -0.047573652 -0.0033831922 0.11873447 -0.123918414
0001e0 9f dc 06 3d d2 9f 22 bb 85 c2 a9 bd d6 58 6d bd
       0.032925244 -0.0024814499 -0.08289055 -0.05794605
0001f0 0b 87 f3 bd 07 35 14 be 19 05 04 bd 03 b8 fe 3d
       -0.11890992 -0.14473353 -0.032231424 0.12437441
000200 30 36 74 3d a5 e4 b8 3d 3f ba 0a be 3e b5 95 3d
       0.05962199 0.090279855 -0.1354761 0.0730996
000210 c5 50 36 bd a5 20 1b bc dd 3b f5 bd c7 96 f2 3d
       -0.04451062 -0.009468232 -0.11974309 0.11845165
000220 f7 b0 97 3d 8b 18 c3 bd 90 34 c7 3d aa c2 96 3b
       0.074068 -0.095261656 0.097268224 0.0046008425
000230 6d 56 84 bc 4f ab eb bd c7 bb 26 be 9f 7a 72 bc
       -0.016154492 -0.11507284 -0.16282569 -0.014799743
000240 a9 d5 48 3e c4 71 0a 3e 81 0a f1 3d 07 44 29 3e
       0.19612755 0.1351996 0.117695816 0.16529857
000250 ec d6 b4 bd 34 fb b9 3c 49 14 a2 3d 1f b2 ce 3d
       -0.088300556 0.02270279 0.07914025 0.10092568
000260 c6 13 97 3d 06 da d9 3d 8d 3a 98 bd 27 13 f4 bb
       0.07376818 0.10637288 -0.07433043 -0.007448572
000270 0a 84 ea 3d dc 5b b1 bc 62 7e 45 3e 02 4e 3c 3e
       0.11450966 -0.021650247 0.19286492 0.18389133
000280 2f f3 b4 bc 22 4d 42 3e 67 0e f6 3c 58 06 de bc
       -0.022088615 0.18974736 0.030036164 -0.027102634
000290 80 f5 f1 3d 92 e6 32 3e 12 91 f2 3d c2 a5 e7 3c
       0.118144035 0.17470768 0.11844076 0.028277282
0002a0 7c cf 19 3d b4 13 50 3e a3 7a 1a 3e bd 9a 49 bb
       0.03755139 0.20320016 0.15085845 -0.0030762397
0002b0 fe 29 63 ba 4b 41 5e 3c 88 cf 60 3d 32 ec 60 3e
       -0.000866562 0.013565372 0.054885417 0.21965101
0002c0 a1 22 e8 bc 15 94 02 3e 8d 2e 6c 3e 88 33 5d 3d
       -0.028336825 0.12751801 0.23064633 0.054004222
0002d0 b6 7e 00 3e b0 e5 0c 3e ff 25 53 3e d2 61 45 bd
       0.12548336 0.13759494 0.20619963 -0.04818899
0002e0 7b b3 a8 3c c5 8f 89 3e 1e 7c 83 3d 3f fd 93 3d
       0.020593395 0.268675 0.06420158 0.07226037
0002f0 e5 42 09 bb f3 26 de bc 7f d9 17 3e 53 40 b5 3d
       -0.0020944413 -0.027118182 0.14829062 0.088501595

lstm.bias_hh_l0 f4 [192]
000000 95 ff c7 3d 7d 19 ca 3d b3 ba 93 3d 2b 10 0f bd
       0.09765545 0.09868143 0.072133444 -0.03492753
000010 7c 73 9d 3d a5 32 19 3e 5d b2 ee 3c c4 56 56 bb
       0.076880425 0.14960726 0.029137785 -0.0032705525
000020 ad b9 1c 3e 7f 16 e5 3d dc 16 4d 3d 48 2a c7 3d
       0.15305205 0.111859314 0.05007063 0.097248614
000030 5e 47 73 bd 50 87 03 3e c5 b3 b3 bd 47 74 da 3c
       -0.059394233 0.12844586 -0.08774523 0.026666773
000040 ff c7 a7 3d 37 24 93 ba 21 dc f8 3d 96 fb 99 bd
       0.08192443 -0.0011226003 0.12151361 -0.07518689
000050 e8 a6 c8 3d 00 04 b8 bd 51 fe 02 3c 5f 04 05 bd
       0.0979746 -0.08985138 0.007995204 -0.03247487
000060 be d4 26 bd 16 73 11 3e 68 22 4c bc ab d8 cd bc
       -0.04073023 0.14204058 -0.012459375 -0.02512773
000070 39 4a ca 3d 3d 79 ed bc 9f 00 d8 bd 6b c7 da 3d
       0.09877438 -0.028988475 -0.105469935 0.10682567
000080 ce 62 01 3e 32 64 94 3d 37 37 36 3e f1 2b 21 3e
       0.12635347 0.07245673 0.177945 0.15739419
000090 03 a3 cb bd c2 c8 ef 3b 12 fe cf 3d 21 69 5d 3d
       -0.099432014 0.0073176334 0.10155882 0.054055337
0000a0 c3 e1 74 b9 a8 84 2c 3e 6e d0 37 3e 9a 8d 6d 3c
       -0.00023353756 0.1684748 0.17950603 0.0144990925
0000b0 6c 6f 39 3e 1e 14 ce 3d 21 84 84 bd 3c 6d 06 3e
       0.1810891 0.10062431 -0.06470514 0.13127607
0000c0 76 21 fa 3d 07 08 bf bd c7 30 b9 bd 44 bf 1e 3c
       0.122134134 -0.09327703 -0.09042507 0.009689156
0000d0 02 c4 65 3d e7 c8 e7 bd ba 16 1e 3e 96 09 1b 3e
       0.05609513 -0.11317616 0.15438357 0.15140375
0000e0 85 8b e0 b9 8b b8 0e be 92 5f c4 bb 5e 35 8f 3d
       -0.0004282856 -0.13937585 -0.005992838 0.06992601
0000f0 38 41 7b 3b b0 89 0f 3e cc c6 81 3d a7 b5 b5 bd
       0.0038338434 0.14017367 0.063367456 -0.08872538
000100 9c 37 86 bc ea 80 fe bb 3f 39 17 3e 20 2e 96 bd
       -0.016383938 -0.0077668326 0.14767931 -0.073330164
000110 a3 58 a2 bd 61 ae 3d 3e 89 3f 82 bc 18 59 a8 3d
       -0.07927062 0.18523552 -0.015899437 0.08220118
000120 22 2b e1 bc 20 fc 68 bc 53 89 06 3e 24 e6 e0 3c
       -0.027486388 -0.0142202675 0.13138323 0.02745349
000130 e0 e1 01 be f4 04 ec 3d 03 32 2e 3a 93 92 d8 bd
       -0.1268382 0.11524382 0.00066450256 -0.10574832
000140 a5 b7 7b bd cc f0 bb 3d 61 fa 89 bd 1c 5e 9a bc
       -0.061454434 0.09176788 -0.06737209 -0.018843703
000150 fb 8c 1d bd b2 97 95 3d 02 f3 21 bd 60 b6 14 3d
       -0.038464528 0.07304324 -0.03953839 0.03630674
000160 24 f9 70 3d d0 4a 00 3e 04 9e 9c bd a8 bc 87 3d
       0.05883135 0.12528539 -0.076473266 0.0662778
000170 df 50 fb bd c8 f0 0b 3e a8 f2 96 bd 3c 36 35 bc
       -0.12271284 0.1366607 -0.07370502 -0.011060294
000180 0b a8 b6 3d c5 f1 c8 bc d1 ab bb bb 68 ae 15 be
       0.089187704 -0.024529347 -0.005727269 -0.14617312
000190 58 ff 1d bd 2a 53 ce 3c 31 90 1c 3d 5a a6 3c 3c
       -0.038573593 0.02518614 0.03822345 0.011514271
0001a0 07 bc 13 bd 46 b8 d3 bd 21 81 fa 3c c4 01 15 be
       -0.03606799 -0.10337882 0.030579152 -0.14551455
0001b0 99 76 74 ba 58 ad 80 bd 75 65 97 3d d8 e0 b2 3d
       -0.0009325534 -0.06283063 0.07392398 0.08734292
0001c0 e7 e7 9e 3c 3c 4a b5 3d 83 6a 94 3d ab d8 5a 3d
       0.019397689 0.0885205 0.07246878 0.053429287
0001d0 6b 61 1c be 1f 57 73 3c ed 69 e6 3d ed 2b a1 bd
       -0.15271537 0.014852314 0.112506725 -0.07869706
0001e0 fe 2b 08 3d ee fe e6 bd 7d dc 4c 3d 3b 1f bf 3d
       0.03324508 -0.11279093 0.05001496 0.093321286
0001f0 96 0b f4 bd c2 7d b6 3c 70 c8 8c bc db 59 e9 bd
       -0.11916272 0.022276763 -0.01718542 -0.11394092
000200 d2 a6 f5 3a 39 34 8a bd 2a 81 d7 3d 6f 74 89 3b
       0.0018741733 -0.06748242 0.10522683 0.004194788
000210 e6 23 0b 3d e7 50 14 3e d8 8f 0e 3e 77 43 a8 3d
       0.033969782 0.14483987 0.1392206 0.08215993
000220 f2 ab e1 bd c0 3f 6d 3c 76 d6 b8 bd ab 3c a1 3c
       -0.11019124 0.014480531 -0.0902528 0.019682249
000230 68 c4 86 3c a3 bb 34 be 9c c2 3d 3d ad cc a4 3d
       0.016451076 -0.17649703 0.046328172 0.08046851
000240 19 b7 b2 3c a3 aa 28 bc 9e f5 19 3e da ce 37 3e
       0.021815823 -0.010294589 0.15035102 0.17950001
000250 25 c2 05 bd 1e f8 7c ba 76 2b 56 3c f4 2a a6 3d
       -0.032655854 -0.00096500095 0.013071885 0.081136614
000260 e2 79 46 3e fb d4 e3 3c 95 b3 4f 3c b8 50 1f 3e
       0.19382432 0.027811518 0.012677093 0.15558136
000270 c8 a9 94 3d b2 f2 47 bd aa 1b fc 3d 1a 45 e0 bc
       0.07258946 -0.048815437 0.12309964 -0.0273767
000280 82 fa d5 3c 36 5b 2d 3e f1 9d 21 bd 8a 21 32 3d
       0.026120428 0.16929325 -0.039457265 0.043489017
000290 a4 b3 17 3d d9 16 32 3e 78 d6 2c 3e da ce 0d 3d
       0.037036553 0.17391528 0.16878688 0.034621097
0002a0 fa c6 c6 bd 28 88 56 3e 00 81 f4 3d be 61 06 3e
       -0.097059205 0.20950377 0.11938667 0.13123223
0002b0 d0 d5 5a 3d 81 9f 21 bd 3d ba a9 bd e4 48 4d 3e
       0.053426564 -0.039458755 -0.08287475 0.20047337
0002c0 e5 df 86 bd 5b 51 a1 bd 87 f0 b4 3d b0 c7 44 3e
       -0.06585673 -0.078768454 0.088349395 0.192168
0002d0 71 ee 93 bd 83 c8 26 bd ae 60 2f 3e bf 4f 65 3c
       -0.072232135 -0.040718567 0.17126724 0.013996064
0002e0 20 41 03 3e 71 2f 6b 3e 7c 1c df 3d b2 b4 1e 3e
       0.12817812 0.22967316 0.10894105 0.15498617
0002f0 89 3f 16 3e 08 45 8f bd 15 37 0c 3e 49 8a 26 bd
       0.14672674 -0.069955885 0.13692887 -0.040659223

mlp.0.weight f4 [256, 54]
000000 96 3e 55 bd a5 b2 c1 bd a5 71 d0 3d 8c 31 0b bc
       -0.05206164 -0.09457902 0.10177926 -0.0084957
000010 50 1a 97 bc b3 db 73 3d 45 46 a5 3b 01 22 4e bd
       -0.018445164 0.059535693 0.005043777 -0.050325397
000020 d5 ee 02 be 75 8f 3f bd db 45 b7 bc d9 cf 06 3e
       -0.1278642 -0.04676767 -0.022372177 0.13165225
000030 30 7b 5b bd 4f 07 be 3d 98 e4 e0 bd 8a 48 44 bd
       -0.053584278 0.09278738 -0.10981101 -0.04792074
000040 70 87 74 3d 20 e0 b1 bc 78 35 9b bd 35 2c 03 bd
       0.059699476 -0.021713316 -0.07578558 -0.03202458
000050 f7 e6 00 be 1a ff 0a 3e 9d 5e bd 3d 6f c9 01 3e
       -0.12588106 0.13573876 0.09246562 0.12674497
000060 d2 db 05 be fd 8a 44 3d 2a 94 04 3d 14 7e d2 3c
       -0.13072136 0.047984112 0.032367863 0.025694884
000070 8a 00 03 be f1 57 16 3e c1 c6 c9 3d 0d 22 ea bd
       -0.12793174 0.14681984 0.098523624 -0.11432276
000080 9d c3 ed 3c 4f 90 b8 3d cd 20 91 3a 48 f7 f3 3d
       0.02902394 0.090119 0.0011072397 0.119123995
000090 c1 2e c3 bd e9 31 05 3d f3 1e a3 3d 11 8d d5 3d
       -0.09530402 0.0325183 0.079648875 0.10427297
0000a0 2e 4c 00 3e 72 92 bd 3d bd f6 ae bd 69 13 9c 3d
       0.1252906 0.09256448 -0.08543155 0.0762089
0000b0 1e ae 10 bd 17 eb ab bd 92 66 05 3d ee 57 94 bc
       -0.0353223 -0.08394449 0.03256852 -0.018108334
0000c0 ec c0 b9 bc d1 2e 0b bd c9 5b b5 3c 3c 33 21 bd
       -0.022675 -0.033980194 0.022138493 -0.0393555
0000d0 0e ef e4 3d be 87 0f 3c 05 71 5b 3d 21 1c b2 bd
       0.111784086 0.008760391 0.05357458 -0.086967714
0000e0 c0 0c 74 bd 3e 3f 99 3d 15 e5 67 3d 1e f6 09 3d
       -0.05958247 0.074827656 0.056614954 0.03368198
0000f0 5d 7b 46 bc a7 31 2a be 47 87 f5 bc 7d 57 93 3d
       -0.012114373 -0.16620503 -0.029971732 0.071944214
000100 ce 67 21 be 37 fd 44 3d 11 c6 90 3d 42 66 89 bd
       -0.15762255 0.048093047 0.07069028 -0.06708957
000110 cc 96 f3 bd 64 1f a2 3d 80 d9 af 3d 17 21 e4 bd
       -0.118939966 0.079161435 0.08586407 -0.11139124
000120 68 89 6c 3c f9 c8 02 3e 2b b1 2d 3e 4d 6e 62 3d
       0.014437057 0.12771977 0.16962115 0.055280972
000130 41 db a9 3c d0 de 07 3d 7e de 2a 3e fa 8f c6 3d
       0.020734431 0.033171475 0.16686437 0.0969543
000140 95 fa d3 bd 97 95 06 3e 0f 5b 47 3e 22 49 8d bd
       -0.10350529 0.13143001 0.1946833 -0.068987146
000150 27 76 aa bd b3 96 f1 3d 4e 01 c5 bb ad d8 04 be
       -0.08323317 0.11796322 -0.0060121184 -0.1297328
000160 c9 d3 32 bd 53 ee 23 be 8c 8b 10 3e b2 4f 14 3e
       -0.043659005 -0.16008882 0.14115733 0.14483526
000170 d2 43 99 bd 2e a5 2b bd ae 63 c6 3d 2e 7c 66 3d
       -0.07483639 -0.041905575 0.09686981 0.05627077
000180 d0 2c 75 bd 1c 74 bc 3d 39 32 06 be 53 73 5a 3e
       -0.05985719 0.092018336 -0.13105096 0.21333055
000190 a4 94 a4 3d 01 10 8d be be c6 32 be c3 a5 8c 3d
       0.080361634 -0.27551273 -0.17458627 0.06867554
0001a0 cf d2 11 3e a1 09 2b be b7 5f 19 be 2c 9d cc bd
       0.14240573 -0.16702892 -0.14977919 -0.09990916
0001b0 da 85 c0 bd b6 e8 e4 bd 91 3c b2 3d fd 78 09 be
       -0.0940053 -0.111771986 0.087029584 -0.1342506
0001c0 64 a9 b5 3d 44 6f ae 3d 8a 84 07 3e 35 b4 27 bd
       0.08870199 0.08517316 0.13234153 -0.040943343
0001d0 c4 52 7e bd 91 17 ae 3b b0 13 ba bd e4 b0 47 bd
       -0.06209065 0.005312868 -0.09085786 -0.04875268
0001e0 59 c2 b1 bd 62 9a f9 3b ac c7 f8 bd d9 92 7d 3d
       -0.08679647 0.007617281 -0.121474594 0.061907623
0001f0 26 17 07 3e a7 98 5a bd f2 0a 09 3e 48 83 c6 bd
       0.13192424 -0.053368237 0.13383082 -0.09693009
000200 10 28 ac 3d fa 8b 04 be 18 a8 d6 bd f7 b4 41 3b
       0.08406079 -0.12944022 -0.1048128 0.0029557326
000210 27 ea 4c 3e 02 13 1e 3e d9 41 cc bd 11 88 f9 3c
       0.20011197 0.15436938 -0.09973497 0.03046039
000220 3f f0 ba 3d 64 3d b1 3d fd af b5 3d 2a c6 18 3e
       0.091278546 0.086542875 0.08871458 0.14919344
000230 09 e6 5b bd 2f 14 9f bd 61 b5 16 be 1b 51 72 3d
       -0.053686175 -0.077675216 -0.14717628 0.05915938
000240 ab c9 c3 3d 5a 58 63 bb f2 e5 bc 3c a3 fd 8f bc
       0.095599495 -0.0034690113 0.023058865 -0.017576998
000250 0d 10 96 3d ba 14 32 3d a8 dd 7e bd 6d 56 07 be
       0.0732728 0.043476798 -0.062223107 -0.13216563
000260 e5 d6 99 3c 43 4e 10 bd 53 a9 99 bd 55 54 f4 bc
       0.018779228 -0.035230886 -0.07502999 -0.029825369
000270 6d b1 4c bc 3a 24 dd 3d 5c 04 ab 3c 78 06 16 be
       -0.0124934735 0.10797925 0.020876102 -0.14650905
000280 a2 2d f2 3d d6 f1 a0 bd 6f 8b be bb 53 0a 31 3c
       0.1182511 -0.078586265 -0.0058149616 0.010805684
000290 8e a2 83 bd 51 7f 6a bd 5e 2a ab bd af 19 d4 bd
       -0.06427489 -0.057250325 -0.0835769 -0.10356461
0002a0 58 2a ac 3d 67 d4 34 be c3 dd 09 3e 6a 81 6b 3d
       0.08406514 -0.1765915 0.13463502 0.057496466
0002b0 91 57 0e be 6f 2c 37 bd c3 fd d1 bd 74 9c 55 be
       -0.13900591 -0.04472011 -0.10253479 -0.20860463
0002c0 a5 37 91 bd 83 db 91 bd de 0c 32 3e e7 ca 99 bd
       -0.070906915 -0.07121947 0.17387721 -0.07509404
0002d0 54 6c 11 3d 91 7a 14 3e bc 69 9a bd 6f 29 5b 3c
       0.0355037 0.1449988 -0.075396985 0.013376578
0002e0 ea 72 dd 3b 90 a9 87 3c 6a e3 d9 3d c5 54 f3 3d
       0.0067580836 0.016560346 0.10639079 0.11881403
0002f0 41 4c 45 be e7 14 50 3e 38 89 02 3d 0b 67 04 bd
       -0.1926737 0.20320474 0.031869143 -0.032324832
000300 fe ed df bd 9f ad bb bd fe 47 cf bd 16 94 e6 bd
       -0.10934065 -0.09163975 -0.10121153 -0.11258714
000310 f7 8b 8e bd 9b 49 10 be f8 43 7f 3d 07 24 cf 3d
       -0.0696029 -0.14090578 0.06232068 0.101142935
000320 f7 ff cf 3d 80 f5 41 3d d4 c3 32 3e 36 be be bb
       0.10156243 0.047353268 0.17457515 -0.0058210148
000330 87 f6 c6 3c 49 f5 08 be ca ba 07 bc c9 ad 12 3e
       0.024287475 -0.13374819 -0.00828428 0.14324106
000340 95 83 d4 3d 48 70 75 be ce 41 e8 bd 8a 26 39 3e
       0.1037666 -0.23968613 -0.11340676 0.18081108
000350 c1 6d e5 3d c2 8a c2 3d 1a 31 d9 bd 36 f0 0e 3c
       0.112025745 0.09499122 -0.106050685 0.008724263
000360 8a 17 c4 3c 41 7b 50 3b 9d d8 f9 bd 99 ab d8 3d
       0.023937006 0.0031811746 -0.12199519 0.10579605
000370 67 93 27 bd 5b aa 1c 3d 45 5d 99 bc 52 c8 f0 bd
       -0.04091206 0.0382484 -0.018721232 -0.11756958
000380 6f a9 87 bd 74 68 47 b8 74 58 2d 3d 96 80 82 bd
       -0.06624114 -4.7542577e-05 0.042320684 -0.06372182
000390 59 ee bd bc 11 66 e0 bd 89 ba b1 bd 2c 85 b4 3d
       -0.023184942 -0.109569676 -0.08678157 0.08814463
0003a0 e1 0e a7 bd d6 3e aa 3d 17 67 20 3e a9 d6 0c bc
       -0.08157135 0.08312766 0.15664326 -0.008596101
0003b0 16 be 68 3c ba e0 32 3d 06 ca d0 3c 08 69 04 3c
       0.014205476 0.043671347 0.025486957 0.008081682
0003c0 0a 79 9c 3d ed 84 39 3e 0f bf 24 be 64 e3 42 3e
       0.07640274 0.18117113 -0.16088508 0.19032055
0003d0 16 db dc bc cf 0e b3 3d 31 bd 1c be 62 a9 87 bd
       -0.026959937 0.08743059 -0.15306546 -0.06624104
0003e0 32 f5 2b be e6 9c 42 3d e9 55 c3 bd e5 7c 07 be
       -0.16792753 0.04751291 -0.095378704 -0.13231237
0003f0 1b 47 06 3d d3 51 1a 3e 65 98 ba bd d7 1e 08 3e
       0.032782655 0.15070276 -0.09111098 0.13293014

mlp.0.bias f4 [256]
000000 28 69 cf 3c ed 6d bd bd a2 06 a7 3d 6a 84 02 3e
       0.025318697 -0.09249482 0.08155562 0.12745824
000010 66 36 bf 3d 59 40 ee bd 4b c5 be bd 3f 00 3b 3c
       0.093365476 -0.11633367 -0.093149744 0.011413633
000020 46 04 80 3d f4 41 03 be 87 3f d4 bd d5 93 ea bd
       0.06250815 -0.12818128 -0.103636794 -0.11453978
000030 34 3b c3 3d 77 66 0a 3e 88 08 4c 3c 19 39 0d bc
       0.095327765 0.1351565 0.012453206 -0.00861957
000040 99 0d a3 3b 82 71 d0 bd 7a b1 60 3d 4c 2c 0f 3d
       0.004975986 -0.101779 0.054856755 0.034954354
000050 77 ea 28 bc 53 2a 5f bb 7d f4 49 bd ce e8 82 bd
       -0.010309807 -0.0034052327 -0.049305428 -0.0639206
000060 e4 c9 e4 bd 5f aa f5 3d 44 f4 f9 3c d0 10 c2 bc
       -0.1117132 0.11995386 0.030511983 -0.023689657
000070 dc 71 5e 3d 29 c3 45 3d ab 69 a0 3d 78 7b e2 3d
       0.054307804 0.048281822 0.078326546 0.11058706
000080 1f 71 0b be eb 9e a5 bd a2 c1 d3 3c 49 af db bc
       -0.13617371 -0.08086952 0.025849167 -0.02681698
000090 b0 01 83 bd 04 d6 0b 3e db 63 44 3d cf ac 03 3d
       -0.06396806 0.13655859 0.047946792 0.032147225
0000a0 92 0d 81 3c ca 83 02 bd 4c d0 80 3d 34 ee 19 3c
       0.015753541 -0.031863965 0.062897295 0.009395171
0000b0 6d ce 4c 3b 42 44 6f 3c ab 12 8c 3b 3f 98 23 3d
       0.003125097 0.014603676 0.0042746863 0.039940115
0000c0 89 9d 2a 3e ca b3 95 bd 41 b8 b5 bd 34 25 08 3e
       0.16661657 -0.07309683 -0.08873034 0.13295442
0000d0 55 75 b5 bd ca 4c dc bd 04 dc e4 bc b3 2d 89 bd
       -0.0886027 -0.10756834 -0.027936943 -0.066981696
0000e0 b9 23 5c 3c 85 eb da bc cf 70 e8 3c 9a 0c 03 3e
       0.013436251 -0.026723633 0.028374104 0.12797776
0000f0 2f a0 d1 bd 1b 68 8b bd 7e 65 3d bc 19 a0 f0 bd
       -0.10235631 -0.06806966 -0.011559842 -0.11749286
000100 ca 95 f8 3b bd 28 be bd 08 14 50 bd 36 80 62 3d
       0.0075862156 -0.09285114 -0.050800353 0.055298053
000110 fd 96 d7 bd ea 25 02 be 43 84 9c 3c 16 dd a8 3d
       -0.105268456 -0.12709776 0.019106036 0.08245294
000120 87 04 06 be ea 82 85 bc 4f a7 38 3d 9e 29 96 bc
       -0.13087665 -0.016297776 0.045081433 -0.018330391
000130 d6 6d ba bd 70 58 f4 3c 6b be 8c bc d4 e5 b9 bd
       -0.09102981 0.029827327 -0.017180642 -0.09077039
000140 02 e9 03 be f6 6c 07 3e 37 ac c2 bd db 37 d6 bd
       -0.12881854 0.13225159 -0.095055036 -0.10459872
000150 e2 be ec bd 77 20 62 3c 90 79 37 bd ef e3 fa 3d
       -0.115598455 0.013801686 -0.044793665 0.12250506
000160 41 a6 a9 3c 91 68 f2 3d cf 8f 91 3d 0a be 09 be
       0.020709159 0.11836351 0.071075074 -0.134514
000170 45 b4 a4 bd 49 d1 4e ba 76 20 99 3d 50 66 19 3e
       -0.08042196 -0.0007889462 0.074768946 0.14980435
000180 a3 d0 90 3d 45 51 c9 3d 15 08 27 3d 7d 67 68 3d
       0.07071044 0.09829954 0.040779192 0.05673932
000190 ed 5d ea 3d 6d 8d 54 bd 63 29 08 3d 3d e6 d7 bc
       0.11443696 -0.051892687 0.033242594 -0.026354903
0001a0 ab 6b 1d 3d e5 db 51 bd fa 01 a8 bd 60 89 97 3b
       0.03843276 -0.0512351 -0.08203502 0.0046245307
0001b0 83 7d c5 bd f0 d2 74 3d 45 e6 c3 bc 99 43 f8 3d
       -0.0964308 0.05977148 -0.023913512 0.12122268
0001c0 d7 29 bf bd 6a 08 80 3d 2f 64 04 3e 17 da ac bc
       -0.09334152 0.06251605 0.12928842 -0.021100087
0001d0 9c 5f a9 bd 82 cf 46 3c a4 8d 61 bd 75 3f 5f bc
       -0.08270189 0.012134435 -0.05506672 -0.013625969
0001e0 a8 6a 59 3d 1c 5b 48 3d 57 ad 07 3e bc 06 3d bd
       0.05308023 0.048915014 0.13249718 -0.046149
0001f0 cf 1c 53 3d 93 01 38 3d a0 9d 09 be d7 ca 02 be
       0.051541146 0.044923376 -0.13439035 -0.1277269
000200 12 a3 2c 3d b0 7a 0f be 0b 6c f8 3d 3e 73 f8 3d
       0.042147703 -0.14011645 0.121299826 0.12131356
000210 1e 75 66 3d 96 8f b0 3d f4 f1 dd bd 1f a1 28 3d
       0.056264035 0.08621137 -0.108371645 0.041169282
000220 f3 2a 89 3d 0a cb 7f 3c 6b a1 eb 3d 50 dc 2c 3d
       0.06697645 0.015612373 0.115053974 0.042202294
000230 48 75 03 3e 0f bd 27 bd bb 13 e7 3d 62 ba 2d bd
       0.12837708 -0.040951785 0.1128306 -0.042414077
000240 5b 45 ac bd ae 20 a2 bd 29 47 fb bd 97 4a b8 bd
       -0.08411666 -0.079163894 -0.12269432 -0.08998602
000250 f1 b5 dd 3d fe f7 72 bd 84 9b 18 3d a0 f4 17 3e
       0.10825718 -0.059318535 0.037257686 0.14839411
000260 df f6 82 3d 59 81 a8 bd d7 f9 d5 bd 75 10 18 3e
       0.06394743 -0.08227796 -0.10448044 0.14850028
000270 48 cf e2 3a cd df fc bc 18 84 80 bd f8 d0 af bc
       0.0017304206 -0.030868435 -0.06275195 -0.021461949
000280 6c ad 6a 3d 5a c2 bb bd 84 de dd bc 2a 48 43 bd
       0.057294294 -0.09167929 -0.027083643 -0.047676243
000290 0d 12 68 bd 69 d6 9f 3d 08 1b 15 3d 00 20 8b bd
       -0.05665784 0.07804567 0.036402732 -0.06793213
0002a0 39 a4 6f 3d 95 da e7 bd f8 b9 1c 3d 0c fa 7a 3c
       0.058506224 -0.11320988 0.03826329 0.015318405
0002b0 dd 21 df bd ed 7a 79 bd 04 7e a7 bd 58 79 f0 3d
       -0.10895131 -0.060908247 -0.081783324 0.117418945
0002c0 be ea 10 3e 1f 93 03 be e6 b9 40 3e ad 3c e3 3d
       0.14152047 -0.12849091 0.18820915 0.11095557
0002d0 d7 02 00 be 51 12 03 be 40 32 0c 3e c9 2c f8 3c
       -0.12501083 -0.12799956 0.13691044 0.030294793
0002e0 68 fb c6 bd 6a 17 f7 3d 8b 12 f0 bd 88 e4 4b bd
       -0.09715921 0.12065013 -0.11722287 -0.04977849
0002f0 0e ad 39 3d 08 df b9 bd 05 b2 a6 bd fa f9 c9 3d
       0.045331053 -0.09075743 -0.08139423 0.09862132
000300 32 ad f3 3d 69 31 40 3d c7 13 01 be 95 a9 e0 bb
       0.11898269 0.04692212 -0.126052 -0.0068561533
000310 95 d5 33 3d f7 d4 ed bb 31 23 a1 bd 20 b3 f2 3c
       0.04390486 -0.0072580534 -0.0786804 0.02962643
000320 7c d1 6c bb 63 85 c2 bd 88 00 a0 3d 45 0c 00 be
       -0.0036135605 -0.09498098 0.07812601 -0.1250468
000330 84 3a b0 bd e9 2b 36 bc c7 99 3b bd a6 74 22 3d
       -0.08604911 -0.011118867 -0.04580095 0.039662026
000340 9a ad d9 bd f6 e2 b5 3d 2a 82 4b 3d f7 58 a3 3d
       -0.10628815 0.0888118 0.04968468 0.07975953
000350 68 02 0e bc ab e9 b6 bd d1 a8 01 bd 1d a9 a0 bc
       -0.008667566 -0.089312874 -0.031655136 -0.01961189
000360 dd 18 f7 3d cf 39 90 3d 96 fe 37 3d 3f 3b 5b 3d
       0.12065289 0.07042276 0.044920526 0.0535233
000370 de 17 be bd ea 27 ee 3d 71 1e cd 3c 2f e1 6e bd
       -0.09281896 0.11628707 0.02503893 -0.05832022
000380 8d 7d 1d 3d 5f ff b4 bd 36 72 09 3e d8 d6 c6 bd
       0.038449813 -0.08837771 0.13422474 -0.09708947
000390 57 b3 08 bd fe 47 a9 bd 15 12 b1 3d d1 d9 04 bd
       -0.033374157 -0.082656845 0.08646027 -0.03243429
0003a0 d4 3e 93 bc bc 89 04 be 9b 73 7d bc 19 b0 d4 3c
       -0.017974295 -0.12943166 -0.015469457 0.025962876
0003b0 f8 04 b6 bd 6e e3 a7 bc 62 e5 76 3d e9 2d 92 bc
       -0.088876665 -0.02049419 0.06027735 -0.017844157
0003c0 db 94 6e 3a f2 c4 00 bc fe cc b6 bd e8 e2 95 bc
       0.00091011607 -0.007859455 -0.08925818 -0.018296674
0003d0 68 fd ef 3d 1a 47 a8 bd 92 71 09 be e5 af 06 be
       0.11718255 -0.082166865 -0.1342223 -0.13153036
0003e0 8c d4 38 3d 4d 53 dc 3b 28 ae 8f bd 4f 72 17 bd
       0.045124575 0.0067237974 -0.070156395 -0.036974248
0003f0 26 08 1e bd 37 21 42 3d dc 41 9a 3c 92 35 ca bd
       -0.03858199 0.047394957 0.018830232 -0.09873499

mlp.2.weight f4 [128, 256]
000000 b8 e3 b6 3c 45 84 d1 3c 09 3e 82 3d 34 8e 06 bd
       0.022325382 0.025575766 0.063594885 -0.03285046
000010 92 30 30 bd 40 4b 96 bc 18 16 02 bd df 78 49 3d
       -0.04301507 -0.018346429 -0.03175935 0.049187537
000020 03 62 79 bd a3 15 00 bc c7 72 36 bd 04 e0 08 bd
       -0.060884487 -0.007817659 -0.044543054 -0.033416763
000030 9d 3b 9b 3c a5 bb 79 3d de 02 da 3c ed a9 72 bb
       0.018949324 0.060969967 0.026612695 -0.0037027553
000040 40 3f 31 bc 22 7f af 3c 7d e6 53 bd 86 ce a5 3d
       -0.010818303 0.021422926 -0.051733483 0.08096032
000050 87 78 75 bd 4f 49 3e bc d7 c9 a2 3a a7 72 3f 3d
       -0.059929397 -0.011614158 0.0012419772 0.0467402
000060 35 af d6 bc cc fc f3 bb 3e c3 53 bd 68 26 21 3d
       -0.026206592 -0.007445907 -0.05169987 0.039343268
000070 06 be 24 bc a2 9c b3 3c 00 e9 43 3d 85 22 c6 bc
       -0.010055071 0.021925274 0.047829628 -0.024186382
000080 9f ad 39 3d ad 66 48 bd 2d ad 80 bd 68 55 8a 3d
       0.045331594 -0.048926044 -0.06283031 0.06754571
000090 96 f5 d4 3c f4 ad 31 bc 14 87 f3 3c a9 04 11 3c
       0.02599601 -0.010844696 0.029727496 0.008851209
0000a0 ad 59 40 3c f6 0c 3a 3d 7a 33 76 3d d0 65 42 bd
       0.01174013 0.045422517 0.060107686 -0.047460377
0000b0 21 c7 4d bd 8c 0c aa b8 65 a7 64 3d c1 0b 50 3c
       -0.050238732 -8.108569e-05 0.055823702 0.012698115
0000c0 13 46 f3 3c 23 4b 70 bd df f5 02 bd 47 fb b0 bd
       0.0296965 -0.058665406 -0.031972762 -0.08641677
0000d0 58 0c bf bb 2c c6 d8 3d ff 53 d3 3c 94 1a 52 3d
       -0.005830329 0.10584673 0.025796888 0.051294878
0000e0 ae 7c 7f bd 06 fb 2c 3d 6d c5 76 bd b8 fc 2f 3d
       -0.062374763 0.042231582 -0.060246874 0.04296562
0000f0 61 00 28 3d 98 23 a9 3a 2b ba 73 3d 34 67 a3 bc
       0.041015986 0.0012904285 0.059503715 -0.019946672
000100 ac be 73 bd 0c bf 27 bb d2 66 21 3c 72 a9 45 bb
       -0.05950801 -0.002559605 0.009851174 -0.0030160812
000110 8e 80 d1 3c ae f3 54 bd 4a 40 d4 bc e0 f7 55 3c
       0.025573995 -0.051990204 -0.025909562 0.013059586
000120 0a 86 0d bd b9 b7 f2 bd 64 4f d9 3c a4 77 30 bd
       -0.034551658 -0.118514486 0.026527114 -0.04308285
000130 f8 7d 4b 3c f1 8b 6f 3b db 77 64 bc ac f4 39 3d
       0.01242017 0.0036551917 -0.013944591 0.045399353
000140 42 e8 a3 3d f0 00 39 bd 42 a0 7a 3d 9b 8b 57 bd
       0.08003284 -0.04516691 0.06118799 -0.052623373
000150 23 04 41 bd b7 4c 3f bd 57 25 2d bd 31 50 f3 bc
       -0.047123086 -0.04670402 -0.04227194 -0.029701324
000160 2a 3f b0 bc 70 a7 48 3c 19 0b 8e 3d f0 2e 2a 3d
       -0.021514494 0.012246951 0.069357105 0.04154867
000170 c3 77 52 3d fe ff 3c bd 03 e9 ec 3c e2 07 a5 bc
       0.051383745 -0.04614257 0.028919702 -0.02014536
000180 63 20 58 3c 63 07 c0 3d 8d c1 f3 bc bb 8a ca 3c
       0.013191315 0.09376409 -0.029755378 0.024724355
000190 94 bc b7 3b e7 e7 a0 ba 8c e2 44 bd fe 66 b6 3c
       0.005607197 -0.0012276144 -0.048067614 0.022265907
0001a0 6c 35 90 3b f2 4f 9b 3d ad 72 ad 3c f1 1d 25 3d
       0.0044008996 0.07583608 0.021172846 0.040311757
0001b0 74 2f 14 3d ae 44 15 bc ac bb a7 b8 ee 1c 2e 3d
       0.036178067 -0.009110613 -7.998137e-05 0.04250806
0001c0 66 f3 76 bd c4 07 5f bc e1 f2 54 3c 67 e8 a4 3c
       -0.060290717 -0.013612691 0.01299736 0.02013035
0001d0 07 51 06 3d 54 b8 ad bc 0a 17 80 3d a2 25 aa bd
       0.032792117 -0.021206059 0.06254394 -0.08307959
0001e0 a2 02 5a bd ef 18 1c 3c e3 89 bf 3b e3 d5 b6 3c
       -0.053225167 0.009527429 0.005845295 0.022318786
0001f0 9b 72 61 bd 2c 42 1f 3d f6 83 59 bd 6d 63 f9 bc
       -0.055040937 0.038881466 -0.053104363 -0.030442918
000200 dd 67 3a bd d9 95 b7 bb ed ca 53 3d e8 b0 8c 3c
       -0.045509208 -0.00560258 0.051707197 0.0171742
000210 81 51 9c 3c 7a 82 93 3d 82 26 02 3d e9 f7 b6 3c
       0.019081833 0.07202621 0.031775005 0.02233501
000220 6c 9f 47 3d e0 5e 3a bd 00 07 8f 3b 72 09 bc 3d
       0.04873602 -0.045500636 0.004364848 0.09181489
000230 8b 83 0b bc 84 fc a2 bc 20 ab 3e 3d dc af 9f 3c
       -0.008515249 -0.0198958 0.046549916 0.019493036
000240 72 af 1c bd 87 98 69 bd 2f 9b ce 3c 18 23 9a bd
       -0.038253255 -0.057030227 0.025220482 -0.07526225
000250 6c 1a 78 bc 23 88 f0 ba fa 9f 92 3a f9 e1 43 3c
       -0.015143018 -0.0018351119 0.0011186593 0.011955732
000260 a7 d4 18 3d 37 e4 54 bd 7a 50 2f 3c 8f 08 23 bd
       0.037312176 -0.051975455 0.010700339 -0.039803084
000270 53 d6 85 3d d2 8c 45 bd bf 73 94 bd e6 f6 52 bd
       0.0653502 -0.04823 -0.07248639 -0.051504992
000280 9a 25 e6 bc fc 53 6c 3d e1 67 0f bd 13 b6 4b bd
       -0.028094102 0.05769728 -0.035011176 -0.049734186
000290 10 bf 5a bc ae 9d 03 bd 56 bc 75 bc 0d 8e 98 bd
       -0.013351217 -0.032132797 -0.014998516 -0.07448969
0002a0 14 93 24 3d 32 6c 9c bd 55 54 85 3c 9f 5f cf bc
       0.040179327 -0.07637824 0.016275564 -0.02531415
0002b0 1e d6 be 3d 13 ae 4e 3d 6d be ff 3b a1 4f 6b bd
       0.09318183 0.05045898 0.007804683 -0.057448987
0002c0 fe 81 5b bd b1 64 2f bc b6 c0 a2 3c 7f 96 07 3d
       -0.053590767 -0.010705159 0.019867282 0.03310251
0002d0 6f cc 43 3c 80 d5 e9 b9 37 4a d9 bc 10 6d 81 3b
       0.011950596 -0.00044600293 -0.026524646 0.003949769
0002e0 b6 00 58 bd c3 8e 2b 3d ac 2b 8d 3d 75 05 3e 3b
       -0.052735053 0.041884195 0.068930954 0.0028994952
0002f0 a4 0b 09 bd 80 5f f9 bc d7 d3 13 bd 71 ac 52 bd
       -0.033458367 -0.030441046 -0.036090698 -0.051433984
000300 cf 7c 30 3d d3 00 dd 3c d9 05 9d b9 11 54 8b 3c
       0.043087777 0.026977932 -0.0002994973 0.01700786
000310 2e 4d d3 bc 2d c7 96 bc d8 67 ff bb 39 aa b3 3c
       -0.025793638 -0.018405521 -0.0077943616 0.021931754
000320 28 66 52 3d 3c dc a9 3d 50 df a9 3d 73 94 f1 3c
       0.051366955 0.082939595 0.082945466 0.029489731
000330 79 da 18 bd f5 5c 66 bd c9 8d b2 3c 51 ce 4c bd
       -0.037317727 -0.056240994 0.021796124 -0.050001446
000340 b7 0f 40 bd 90 bb 5b 3d 99 66 6d 3d 05 5a 73 3b
       -0.046889987 0.05364567 0.057959173 0.0037132513
000350 b9 ad e6 3d dd 57 11 bd 91 9a 74 bd 10 9c e6 3c
       0.11263604 -0.035484184 -0.05971772 0.028150588
000360 2d 54 57 3d 55 97 0f 3c 0e d8 03 bd 49 dd 41 3d
       0.05257051 0.008764108 -0.032188468 0.047330175
000370 79 a6 43 bd 1c bb 71 3d 49 f5 f4 3d 5c 55 42 bd
       -0.047766183 0.059016332 0.11960847 -0.047444686
000380 a9 df 65 bc 02 32 d4 3c 59 98 bb 3b 26 df 54 3d
       -0.0140303755 0.025902752 0.0057249484 0.051970623
000390 89 56 94 3c 56 6e 02 3d 83 03 2f 3c f4 86 2c bd
       0.01810767 0.031843506 0.01068199 -0.04212089
0003a0 ea 57 a6 bb 3f 10 e9 bc 1d 62 d5 3c 4c d6 a8 3d
       -0.005076398 -0.02845013 0.02604776 0.08243999
0003b0 8f 04 80 3d 2c 78 66 3d a3 26 62 3d ca 5f 3e 3b
       0.062508695 0.05626695 0.055212628 0.0029048794
0003c0 6a 50 50 bc 31 ab 09 3d 1c 83 fe 3a 49 b2 f7 bc
       -0.012714485 0.033610526 0.0019417736 -0.03023638
0003d0 76 36 88 bd 7c a1 34 3c cd 8f 50 bb 07 2f df bb
       -0.066510126 0.011024829 -0.0031823993 -0.006811026
0003e0 5a 6f 1b bd ec 5f 12 bd 49 97 57 3d 33 b6 ee 3c
       -0.03794799 -0.03573601 0.05263451 0.029139614
0003f0 dc 37 19 3d 13 cb ad bc 10 86 eb 3c e9 3b 0d 3d
       0.037406787 -0.021214997 0.02875045 0.034480963

mlp.2.bias f4 [128]
000000 38 89 67 3d 5f 8f 21 3d bc b9 5f bd 38 b8 3b bb
       0.056527346 0.03944337 -0.05462049 -0.0028643738
000010 5d d4 4d 3c de ab 81 bc 81 54 3a 3d b5 82 77 3c
       0.012562838 -0.015829023 0.045490745 0.015106847
000020 79 5f b8 3b 44 9d f1 3c b8 1f 1b bd 1b 65 31 bd
       0.0056266156 0.029493935 -0.037872046 -0.043309312
000030 7c 60 d6 bc db 13 1b bd 48 01 45 3c 29 23 1d bd
       -0.026169054 -0.037860733 0.012024231 -0.03836361
000040 b9 b8 74 bd 38 cc 24 bd 58 a2 89 bc 37 1a a6 bc
       -0.059746478 -0.04023382 -0.016801044 -0.020276172
000050 bf f0 62 39 cc 5d 93 3b 65 cf 6a bd 9a 84 57 bc
       0.00021642724 0.0044972654 -0.057326693 -0.013154173
000060 9c fe fa 3c d0 b3 1f bc 19 96 94 bc d2 44 8c 3d
       0.030638985 -0.0097474605 -0.018137978 0.06849064
000070 dc 1c 50 bd 94 d9 a6 bc 2c 0a bd 3d a6 38 d3 3c
       -0.050808772 -0.020367421 0.09230456 0.025783848
000080 a8 08 8d bd 93 b6 35 3d 8e 84 c0 bc fa 66 d6 bc
       -0.06886417 0.04436357 -0.023500707 -0.02617215
000090 23 c7 a1 bc 5d a0 e8 bc b6 46 1f 3d 7f a5 34 3d
       -0.019748276 -0.02839678 0.038885795 0.044103142
0000a0 93 37 58 3d aa e9 2e bd 2d 05 86 3d 33 19 10 bd
       0.052787375 -0.04270331 0.06543956 -0.03518028
0000b0 dc 9c 78 3d ae b3 45 3d 94 16 43 3d 5a 01 5f bd
       0.060696468 0.04826706 0.047628954 -0.05444465
0000c0 80 88 26 3c f8 2e 74 3d f0 70 bd bb 80 a6 31 bd
       0.01016438 0.059615105 -0.0057812855 -0.043371677
0000d0 52 4b d0 3c 0e f1 38 3c 89 8a 71 bc 88 fb 09 3d
       0.02542654 0.011287941 -0.014742502 0.033687145
0000e0 36 0d 53 3d ce 6f ef 3c b8 14 2d bc 93 81 5d 3b
       0.05152627 0.029228117 -0.010564022 0.0033799156
0000f0 b4 55 36 bd e7 a1 26 3a 59 08 fb bc 06 d6 7f bd
       -0.044515327 0.0006356523 -0.030643629 -0.062459968
000100 47 64 07 3d d1 a5 c1 3c 58 60 04 bd d6 be 4d bd
       0.033054616 0.023638638 -0.032318443 -0.050230823
000110 e0 c1 86 bd cf f1 a0 3d 8f 03 02 bd 72 f3 75 3b
       -0.065799475 0.07858621 -0.031741675 0.0037529138
000120 d0 d7 6f bd f3 67 30 3d 26 01 38 3d e4 6c 8c bc
       -0.058555424 0.043067884 0.04492297 -0.017141767
000130 2f f2 df 3c 54 18 68 3d 51 28 4d 3d fa 32 72 3d
       0.027337162 0.056663826 0.050087277 0.059130646
000140 30 8b 43 bd e0 26 04 bc aa 5b 6c 3d 94 ec 04 bd
       -0.04774016 -0.008065909 0.057704605 -0.03245218
000150 b7 0e f4 bc 7e 40 de 3c 91 24 1c 3d 42 17 00 bd
       -0.029792173 0.027130362 0.03812081 -0.03127218
000160 b8 9c 8e bd ff ab 2f bd 22 3f 16 bd 35 c5 8e 3b
       -0.069634855 -0.042888638 -0.036681302 0.004357005
000170 58 25 96 bc ef 69 3f 3c 3b 46 d0 3c c0 36 c6 bb
       -0.018328354 0.011682971 0.025424113 -0.006049007
000180 a0 ae 10 3d 98 b8 06 3c da 5c 5c 3c de b1 12 3d
       0.035322785 0.0082227215 0.013449872 0.03581416
000190 63 f1 fe 3c ad 30 8a 3d 73 17 50 3d 62 f7 95 3d
       0.031120962 0.067475654 0.050803613 0.07322575
0001a0 04 12 56 3d bb e1 be 3c 23 a8 72 bc d6 8e c9 3d
       0.052263275 0.023300996 -0.014810595 0.09841697
0001b0 0e 06 5b 3c 8e 9d 4e 3d 79 f3 83 3d b7 d6 ba bc
       0.013368143 0.050443225 0.06442923 -0.022807462
0001c0 84 7a a7 3c 21 fe ba 3c 32 4c c5 bc 72 bc b0 bc
       0.020444162 0.022826256 -0.024084184 -0.021574233
0001d0 25 75 9c 3d d7 fd 58 3d 37 a0 30 3b 10 8e 48 3d
       0.07639531 0.052976456 0.0026950964 0.048963606
0001e0 c8 5c 27 bd eb 9a 1a bd dd 57 08 bc 4a 1d 35 bd
       -0.040859967 -0.037745398 -0.0083217295 -0.044217385
0001f0 c6 fb 7f bd be 2b 60 3d 48 d1 3d bd fc 88 50 3c
       -0.06249597 0.054729216 -0.046342164 0.012727972
