weights/steps_130001.pth (torch, 276355 bytes, 10 tensors)

lstm.weight_ih_l0 f4 [192, 7]
00000000: eca8 bbbd a7d8 b1bd a562 d5bd a35c 3abd
00000010: 622a 243e c609 a6bd a10f 87bd 64de d4bd
00000020: c222 08be c339 d0bd e117 30bd de83 abbb
00000030: 3d39 b93d b172 01bd a465 613d 8987 aa3d
00000040: 1820 9c3a 78a0 e13c a02d 7b3d f976 403d
00000050: d2c2 4c3d 0138 d8bd d7a8 4e3c dc70 9e3d
00000060: 87c2 053e 0173 153e 3a88 b83d a6c8 ba3d
00000070: c450 743d 1fd6 d73d fa11 39bd 7a64 12bd
00000080: c5d3 883b 52b3 f83d ad81 febc b57e 12bd
00000090: cbea a1bd 56a8 c13d 2561 b8bd 04c5 dc3d
000000a0: 543b cfbc 1ce4 c33d 383d 7abd 52f0 793c
000000b0: e4eb 0e3d f8e0 913d 8ca1 143e 38c4 d3bd
000000c0: 0200 92bd 7461 3dbb d7e8 64bd 5fd8 cdbd
000000d0: b5d6 fabc 7840 aabd 2509 c8bd 638d 5bbc
000000e0: 6226 ccbd c35a 983d 8701 1c3d 8f84 babd
000000f0: 83cb 783d 886f 72bd ad23 1ebd 4a84 2d3e
00000100: 5ca2 813c c21e 3d3d cfbf 123d 16c7 3dbb
00000110: c44c 363e 5328 37bd 3d0a 86bd 9e0d 9bbd
00000120: aba9 383c 473f 073e 8c04 233e e23b 63bd
00000130: 9887 173e 75bd e8bd f002 d83c 0968 bf3d
00000140: 38a1 0bbd beb0 4e3d 0991 a13d 9780 a2bb
00000150: 9e89 18bd 9216 c83c 1d0d 0fbe 8d72 37bc
00000160: ca92 4abd f152 513d 97f1 e1bd 312c 813d
00000170: 919c d13c 5214 df3c 175f 1f3c 0821 fdbd
00000180: ef32 b23d 5804 f6bd 6057 cdbc dc3e e5bc
00000190: 24d0 b63d 6183 c5bd 4a44 81bd dbfb a5bc
000001a0: f29f 303e 8360 16be 4294 10be d772 d1bd
000001b0: 20cf 143d e956 b3bd 223d fc3d 647b 90bd
000001c0: a55b 843d 87e0 f73d 9857 a03d 0c6f 8fbd
000001d0: 1e8a a93c 4395 3d3c 8ed1 1e3e 47c2 bdbd
000001e0: 4266 f3bd 62ac ca3d ebda 913d 9965 003e
000001f0: e99b 113e 18e9 193e de2a b7bd 6ed5 4d3d
00000200: 2a88 ed3d b824 8dbd 2a66 013e 0c5c 5f3d
00000210: eb21 4f3c 0b83 fc3d a72e 0c3e 1be2 a13d
00000220: 9cd2 1cbd 1e00 61bd 5275 183e 6c0d 293e
00000230: 4346 97bd 48b2 803d d24b 503d 04b3 403d
00000240: c9b2 723d a5fd c7bd b568 8c3d 3e05 91bd
00000250: 25dd 5fbd e532 473c 239a 2cbd 8139 223c
00000260: 34fe 2ebd 6096 ccbc 9a5c febd bb5c bdbd
00000270: 8e18 e0bd 1635 a6bd 7b06 9f3d 9b22 a4bd
00000280: 0e09 dc3b 23c3 253c 9cb4 77bb 7dc5 0dbc
00000290: 61f8 b43c 0cd2 0a3e 5bf0 d2bc 24c5 093e
000002a0: a1d1 173e d89a c53d 98aa 7c3d 0c96 b7bd
000002b0: 913e e43c 9640 0e3e 0f70 96bd cfb6 eb3d
000002c0: bcf4 223e b08d 513d 37f6 0f3e cf5b e23c
000002d0: 8540 e6bd 9a0e e33b 7525 0c3e fdbb 3dbd
000002e0: 280e 9a3d a75c d33d 80cd ed3d e98b c13d
000002f0: df29 013e 3e27 02bd ca89 f93d 33df 9b3c
00000300: 3dd2 823d ecb4 3dbd 4c5e 093e 7786 7b3d
00000310: 44a4 a73d df13 37ba 7698 8fbd b2c5 40bd
00000320: cc6d e93d 5c20 9b3c 1e87 133e 8b65 fe3d
00000330: f740 963d b3fa 7b3d 74a9 3d3c ac37 af3c
00000340: 6084 1d3e 5729 c8bd 2205 b53b dae6 debd
00000350: 4d1f d93d 957c 8ebc bb85 a13d bb45 803d
00000360: 9455 213e 60fc afbd a5eb cdbc b09f ebbb
00000370: c7c5 9c3d bdfb 4d3d 3ee4 c5bd b0dc 1a3e
00000380: ee52 3e3d 2975 0c3e 1d7a df3b 90bf 4e3c
00000390: c3fc 293e 0df7 45bd 4555 37bd 7b92 383d
000003a0: b9d9 2b3c 50a1 66bd 05b7 363d 3dac acbd
000003b0: 743e e83c 1c54 d43d 510a 50bd 6b50 99bd
000003c0: 5ed9 13bd 90ee b4bb 1e86 9dbc ebf9 02be
000003d0: 35a5 07bc 3dac debd f3ee d33d f504 943c
000003e0: 68ed 10bd 9a73 1a3e 603b ef3d 4066 03bd
000003f0: 7d21 e5bd 81d5 82bd 332c fd3d 1bda ff3c
-0.09163079 -0.08683901 -0.104192056 -0.0454985 0.16031793 -0.08107333 -0.06594778 -0.1039398
-0.13294509 -0.10167267 -0.042991523 -0.0052342257 0.090441205 -0.03160352 0.055028573 0.083266325
0.001191142 0.027542338 0.06132281 0.04698846 0.049990483 -0.10557557 0.012613497 0.0773637
0.13062488 0.14594652 0.09010358 0.09120302 0.059647337 0.10538887 -0.04518316 -0.035740353
0.0041756355 0.12143578 -0.031067694 -0.03576537 -0.07906111 0.09455936 -0.09002904 0.10779765
-0.025296845 0.09564993 -0.06109354 0.015255051 0.03489293 0.071229875 0.1451475 -0.1034016
-0.07128908 -0.0028897198 -0.055886116 -0.10051035 -0.030619958 -0.08313078 -0.09767369 -0.013400408
-0.099682584 0.074391864 0.038087394 -0.09107315 0.06074096 -0.059188396 -0.03860824 0.16944996
0.01582449 0.04617191 0.035827454 -0.0028957776 0.17802721 -0.04471619 -0.065449215 -0.07570957
0.011270921 0.13207732 0.15919703 -0.05547703 0.14797819 -0.11364261 0.026368588 0.09346015
-0.034089297 0.050461523 0.078889914 -0.0049591768 -0.037240617 0.024424825 -0.13969846 -0.011196745
-0.049456395 0.05110449 -0.11032408 0.06307257 0.025587352 0.02723137 0.009727261 -0.12359816
0.08701121 -0.12012547 -0.025066078 -0.027984075 0.089264184 -0.09644199 -0.06311853 -0.020261696
0.17248514 -0.14685254 -0.14119056 -0.10226982 0.036330342 -0.08756811 0.12316348 -0.07054785
0.06462792 0.12103372 0.07829207 -0.070036024 0.020695742 0.011571231 0.15509626 -0.09265571
-0.118847385 0.09896161 0.071218334 0.12538756 0.14219631 0.15030324 -0.08943723 0.05025237
0.11598237 -0.06891769 0.12636629 0.054531142 0.012642364 0.12329682 0.13689671 0.07904454
-0.03828679 -0.054931752 0.14888504 0.16509026 -0.07386448 0.062840044 0.050853558 0.047045723
0.059252534 -0.09765176 0.06855909 -0.07081078 -0.05465426 0.01215813 -0.042139184 0.009901405
-0.042722896 -0.024974048 -0.12420006 -0.092462026 -0.109421834 -0.08115594 0.07764908 -0.08014413
0.0067149466 0.010117325 -0.003779686 -0.008653042 0.022091093 0.13556689 -0.025749376 0.1345411
0.14826061 0.09648675 0.06168613 -0.08964166 0.027861865 0.13891825 -0.07345592 0.11509477
0.15913671 0.051160514 0.14058767 0.027631668 -0.11242775 0.006929231 0.13686164 -0.046321858
0.07522231 0.103204064 0.11611462 0.09450514 0.12613629 -0.031775706 0.12184484 0.019027328
0.06387756 -0.04631512 0.13414878 0.061407533 0.08185628 -0.0006983857 -0.070115015 -0.047063537
0.11397895 0.018936329 0.14407012 0.124217115 0.0733661 0.061518382 0.011576045 0.021388851
0.15382528 -0.0977351 0.0055242935 -0.10883875 0.10601673 -0.01739339 0.07886835 0.062633
0.15755302 -0.085930586 -0.025136778 -0.007190667 0.076549105 0.050288904 -0.09662674 0.15123248
0.046465807 0.13716568 0.006819977 0.012618914 0.16600327 -0.04833131 -0.044759054 0.04506157
0.010488921 -0.056306183 0.044608135 -0.08431289 0.028350092 0.10367605 -0.05079109 -0.07486042
-0.03609597 -0.005521603 -0.019228991 -0.12790649 -0.0082791345 -0.108726956 0.1034831 0.01806877
-0.03538266 0.15083161 0.11681247 -0.032079935 -0.11188028 -0.06388379 0.12361946 0.03123193

lstm.weight_hh_l0 f4 [192, 48]
00000000: f64c e03d 2b94 b23d dae4 d7bd f151 393d
00000010: 7558 223d 345f 06be d4bc 1ebe a5cb 933c
00000020: 1aa6 25bd 529b 403d 7429 7abc 2e99 373d
00000030: a7a1 e33d 4905 423d 4228 8bbd e970 d63d
00000040: 6bcd 1dbd fb47 c53d 15e8 23bd c7cf f2bd
00000050: 09ff ef3c f23f e73d 2e7f 223d 0fb7 33bd
00000060: 94db 7b3c 7b5d 563d 5dd6 90bd 35e3 29bb
00000070: eb3a 1ebe ad16 07be 24f0 dbbc 3010 a9bd
00000080: af0d 00bd 5fd9 72bd 0ad4 c3bd 422d c9bc
00000090: 2377 b43d 2844 cbbd 5440 21be 4da1 8bbc
000000a0: 8ed7 9fbd 841c d3bc 29eb 4cbe ec95 3abd
000000b0: 4d0f 423d 36ce b6bd 771f a3bb df35 c23d
000000c0: ab33 c1bd aac3 07bd 2dd4 9bbd 72fe a03d
000000d0: 0d53 a9bd ff04 88bb 470c ec3d 0d3b 29be
000000e0: 5dc4 923c 65dc dbbc ba3d 003e 05a6 0fbd
000000f0: 77cc de3d 7191 94bd a844 b73d ad89 6fbd
00000100: 5b62 003e 00a1 d33d a626 193c c5ad f4bd
00000110: f03d b03d 0882 383e f0c6 143d eeb6 d0bd
00000120: dabb a23b c1e2 febd fbd9 84bd 494f f3bd
00000130: 8a3d 04be 6a75 92bd 8dee 35bd 9359 943d
00000140: 5ecd eebd c7cf 78bd 74ed 653d a458 713a
00000150: 8396 a6bd 56d4 343a 25d3 8e3d 36c8 133e
00000160: 202f 663c 0f1b f03b abb7 db3a 44e3 7fbd
00000170: 79c0 3d3d e02c 8bbd 6c00 2bbe 333c 49bd
00000180: 4883 98bc 3c3b aebd d791 b23d 47dc 62bd
00000190: ca86 cbbd e5d7 00be c987 32bd 9f80 d23c
000001a0: a05b 443d d719 7ebb f539 153e 86e2 ed3a
000001b0: 354f 5f3d f12e 893c 1c5d bfbc 0d6d 01be
000001c0: f872 573d 698c 0ebe 0095 c7bd 3f9d 25bd
000001d0: 2589 b9bd c806 133d 0717 3dbc 928c fbbd
000001e0: a255 82bd 289a 58bb 1547 11be 7fef 44be
000001f0: c66e ecbd 81b0 d4bd f653 a13d 339e 5d3c
00000200: eea6 0e3e 6f73 0f3e ce16 62bd 0f17 91bd
00000210: 55f5 a23d 8636 4e3d 0f75 fc3c 1227 d53d
00000220: ed05 bdbb 2c6c 113e 7e49 9d3d fa15 2c3e
00000230: d9f7 2bbb a29d 12bd 8201 e8bd 7558 37bd
00000240: 869d 8f3c 2236 6a3c e603 47bd 5095 e33c
00000250: 6a8a 2ebe 8415 48be a702 59bd c5ae 1fbe
00000260: 5e54 a3bc 073d 2d3e 8e8c 363d e424 21be
00000270: de9f d33d 2817 fb3c 3da6 373d c096 69bc
00000280: 6d19 1d3d 45e6 0bbe 9d52 123e 6471 38bd
00000290: 2e60 2f3d c5d9 253e f922 a1bd b9e8 18be
000002a0: f037 d5bd 66fc 9dba 1cf4 d1bb 5643 b83c
000002b0: cd7a 95bd a10a 2abe 85e6 473d 7c7c 0f3e
000002c0: 679c a63d 3d4c 023d 168f 18bc 7b15 ea3c
000002d0: 2793 143d 56cb 1ebe 1d61 b43c 1102 f43d
000002e0: 6638 3c3e f2e0 a6bd 5e3a c53c 21ea aebd
000002f0: 1fe1 923b 1045 a8bd e3d5 21be 60b3 0f3e
00000300: 3736 4a3e a7b4 4abd 92c1 063e de1f 6abd
00000310: 1143 ddbd 6ae5 dcbd 624a 09be 4e10 afbd
00000320: 7d82 8f3d 7b1a a03d 8135 353e c2bd 3c3d
00000330: 10d8 87bd 3f11 d93c defd 483e 7a53 49be
00000340: f474 ae3d b082 58be 2336 2c3e ba7f 25bd
00000350: cbd9 d9bd d2c1 7abd c725 0b3e 475c 08be
00000360: 3e85 a1bd a47c 413e 8531 20be 4c41 32be
00000370: a3ed 883d 16b8 52bd b109 1abd 8c10 873d
00000380: e520 11bd 0d4f 6ebd a2d7 c73b c092 273e
00000390: 9239 d83c d89b 86bd 5626 793d d86f b0bd
000003a0: fbc5 c73d 2a57 50bd a6d5 f5bd 884e 5e3d
000003b0: c93f bd3c 5a10 a53d 13ea 48be 0e20 d8bc
000003c0: 742b c93c cb92 3dbe 0e74 ba3d 30b3 15bd
000003d0: ed61 cebb 7e3b 26be 64d2 f33c 9872 293d
000003e0: fec6 2fbe 6b23 b73d 7501 403e 75e0 913d
000003f0: e28a 9d3d 2320 bcbc 45ed a4bd 3ca5 ccbd
0.10952179 0.08719667 -0.10541697 0.04524416 0.03963514 -0.13122255 -0.1550172 0.018041441
-0.04044161 0.047023125 -0.015268672 0.044823818 0.11114817 0.04736832 -0.06794788 0.10470755
-0.03852598 0.0963287 -0.040016253 -0.11856037 0.029296415 0.112914935 0.03967207 -0.04387575
0.015372176 0.052335244 -0.070721366 -0.002592278 -0.15452163 -0.13192244 -0.026847906 -0.08255041
-0.03126305 -0.059289332 -0.095619276 -0.024557713 0.08811786 -0.09925109 -0.15747195 -0.017044688
-0.07804786 -0.025770433 -0.20011581 -0.045553133 0.047377873 -0.0892605 -0.004978116 0.09482931
-0.09433683 -0.033145584 -0.07608829 0.078610316 -0.08267794 -0.004150986 0.11525779 -0.16526432
0.017915899 -0.02683849 0.12523547 -0.035070438 0.10878842 -0.07254303 0.08948642 -0.058480907
0.1253752 0.10333443 0.009347593 -0.119472064 0.08605564 0.18018353 0.036322534 -0.10191141
0.0049662413 -0.124455936 -0.06486889 -0.11880357 -0.129141 -0.07151301 -0.044416953 0.072436474
-0.116602644 -0.060745027 0.056134656 0.0009206629 -0.081341766 0.00068980956 0.069738664 0.14431843
0.014049321 0.0073274444 0.0016763111 -0.062472597 0.046326134 -0.067956686 -0.1669938 -0.049129676
-0.018617287 -0.08507392 0.08719223 -0.055385854 -0.09937818 -0.12582357 -0.043586526 0.025696097
0.047938943 -0.0038772726 0.1457289 0.0018149174 0.054518897 0.016746016 -0.023359828 -0.12639256
0.052599877 -0.1392075 -0.09745216 -0.040433165 -0.09059361 0.03589514 -0.011541135 -0.12282671
-0.063639894 -0.0033050869 -0.14187272 -0.19231986 -0.11544566 -0.10385228 0.078773424 0.013526487
0.13930866 0.14008878 -0.05519753 -0.07084476 0.079569496 0.050344966 0.030817537 0.10407843
-0.0057685287 0.1420142 0.07680033 0.16805258 -0.0026240258 -0.03579486 -0.113284126 -0.044762094
0.017531168 0.014295133 -0.048587702 0.027781159 -0.17044988 -0.19539458 -0.052981045 -0.15594013
-0.01993769 0.16917811 0.044567637 -0.15736729 0.103332266 0.03065069 0.04483627 -0.014257133
0.038354326 -0.1366206 0.14289327 -0.045030013 0.042816333 0.16196354 -0.07867999 -0.14932527
-0.1041106 -0.001205337 -0.006407274 0.022493046 -0.07298813 -0.16605617 0.048803825 0.14012331
0.081353 0.031810988 -0.009311458 0.028574696 0.036273148 -0.15507254 0.022018963 0.11914457
0.1838089 -0.08148374 0.024075683 -0.0854075 0.004482403 -0.082162976 -0.15804248 0.1403327
0.19747244 -0.04948869 0.13159779 -0.057159297 -0.108038075 -0.10785945 -0.13407281 -0.08548032
0.070073105 0.07817551 0.17696191 0.046079405 -0.066330075 0.026497481 0.19628093 -0.1966075
0.08518401 -0.21143603 0.16817527 -0.040405013 -0.10637244 -0.061219998 0.1358863 -0.13316451
-0.07886742 0.18895203 -0.1564389 -0.17407721 0.066859506 -0.05144509 -0.0376069 0.06594953
-0.03543176 -0.058180857 0.0060987035 0.16364574 0.02639464 -0.065726936 0.060827576 -0.086150825
0.09754559 -0.050864376 -0.12003641 0.054274112 0.023101704 0.080597594 -0.19620542 -0.026382472
0.024556853 -0.18513028 0.09104167 -0.03654784 -0.0062982948 -0.16233632 0.029763408 0.04136905
-0.17165753 0.08942302 0.18750556 0.0712289 0.076925054 -0.022964543 -0.08053068 -0.099924535

lstm.bias_ih_l0 f4 [192]
00000000: 1ccc 893d 5fc0 7b3d 8fe2 86bd 96b0 81bd
00000010: 4a14 41bd 5581 51bd 0c84 b23d eebe 253d
00000020: df59 963d 0e37 ed3d 3702 073d b871 00be
00000030: d53e 93bd 6f43 933d 32ad 75bd 2f43 263d
00000040: 8f00 98bd d06a 803d 65d1 eb3d 38e8 39bc
00000050: 1e53 183e a665 8d3d 5a3b 043e c6b1 a93d
00000060: 27a0 7bbd 4518 f83c 5cf0 033e 27d2 c93d
00000070: ed62 9bbb f1cc 673c 0945 cebd b0ff 023e
00000080: 6e2a bcbd 781a 153b 7fb6 e73d 5003 57bd
00000090: 5010 debd d9e3 af3d fbff 89bd 54e2 a13d
000000a0: 77bc a8bd 7fc1 453e 480e c23d 2e39 c9bc
000000b0: bb2e 4f3d 7db2 223d 8095 6b3d 2e0a babd
000000c0: b646 de3c 6d8f 763d 88dd e53c 164a 0d3e
000000d0: 82b6 a8bc 0788 c2bd d755 e23d b036 093e
000000e0: 41af 313c 6f69 173e 3c9f 8ebc 83c4 cabd
000000f0: bfa1 453d 98b7 cd3c fce1 a7bc 2768 dc3d
00000100: 8ae9 dc3d b55e c6bc 7650 a7bd 7746 c6bd
00000110: f6e4 5c3d 5e4c 343e 5366 f03c 2f28 1e3e
00000120: 59a1 1a3d ab84 7dbd 0986 993d 2f07 16bd
00000130: 2146 043e 492c 3c3c 9bfc b83d 55a4 d2bd
00000140: 7509 30bc 3296 c3bd d027 8dbd a543 fa3d
00000150: 9d4d 9abd 44a9 283e 039e ff3d 2bfc 1cbd
00000160: ddf9 213e cce0 90bd 844a f73d 9230 363d
00000170: 68dc a3bd ee76 d8bd 3d79 bf3b b7ba b03d
00000180: 4a9b c23c eacf 213d 0b52 e83d 5aee 96bd
00000190: a95f e13d f3d5 823d 6e53 04bd 2fcf 80bd
000001a0: c823 043e 5e6f 2dbd 9851 90bd 2e49 0abe
000001b0: d7a2 90bc cc24 d73c 4500 3cbd a354 0d3e
000001c0: 93e5 0f3e 0aba 1d3e 8edf 643d 88cf fbbd
000001d0: b01f 66bc 65ea 18bd 728a c63d 150e 02be
000001e0: 67f7 783d faf0 25bd 943c a4bd 1b8e 6abd
000001f0: ac4b f2bd e94c b3bd fd45 72bd 7d18 fa3d
00000200: 2ea5 8d3d 5b9e 7f3d a443 0abe b834 893d
00000210: f873 a6bc 49d0 05bd 0f26 01be f9a5 ce3d
00000220: 34b4 5a3d c42f c0bd ea61 003e 1b77 fabc
00000230: 7dec 0dbd 7496 d6bd 36fb f4bd 3bdb 99bc
00000240: 23fd 3c3e 1c6d f13d edbe e73d 61d0 1e3e
00000250: 4b8e cdbd ac59 4fbc 8241 1b3d c9f4 1d3d
00000260: 2aed f13c 63e4 e03d 6802 e9bd 26ff 1cbd
00000270: 0cab c33d 8d17 2fbd c140 3f3e 702f 3d3e
00000280: fa80 83bd 41f6 3e3e 8bbf 85b9 cd32 bfbd
00000290: 4f17 9b3d dfca 003e a14f b43d dafa a33c
000002a0: 7041 f03c 999f 363e 5565 e83d a0f6 00bd
000002b0: 439e fcbc 85a5 1e3b 3411 273d 0ce4 0f3e
000002c0: f21d 48bd 7a92 f83d 0c42 2f3e d9bd 03bc
000002d0: c729 e93d 2d67 d23d 8e21 1f3e bf47 adbd
000002e0: 8aec 923c b06a 6a3e abce 5a3d 0e81 973d
000002f0: ec49 e1bc b597 60bd f43f 113e 4bdb 903d
0.06728384 0.061462756 -0.06586181 -0.06332509 -0.04713849 -0.05114873 0.08716592 0.040465288
0.0734136 0.115827665 0.032961097 -0.1254338 -0.07189719 0.07190596 -0.059979625 0.040591415
-0.074219815 0.06270373 0.11514548 -0.011346869 0.14875457 0.069041535 0.12913266 0.08285861
-0.06143203 0.03028501 0.12884659 0.098545365 -0.0047420175 0.014147983 -0.10071761 0.1279285
-0.0918778 0.0022751372 0.11314105 -0.052493393 -0.10842955 0.0858838 -0.067382775 0.07904497
-0.08239072 0.19312094 0.0947538 -0.024563398 0.050581675 0.039721 0.05751562 -0.09083973
0.027133327 0.060195375 0.028059736 0.13797793 -0.020594839 -0.094986014 0.11051529 0.13399768
0.010845006 0.14786313 -0.017409913 -0.09900763 0.048249956 0.025111958 -0.0204935 0.10762053
0.107867315 -0.024215082 -0.081696436 -0.09681409 0.05392929 0.17607257 0.029345667 0.15445016
0.03775153 -0.0618941 0.07496268 -0.036627945 0.12917377 0.011485168 0.09032556 -0.1028525
-0.010744442 -0.09550132 -0.06892359 0.122199334 -0.07534335 0.1647082 0.1248131 -0.038326424
0.15817972 -0.070741266 0.120747596 0.044479914 -0.080010235 -0.10569559 0.00584331 0.08629363
0.023755688 0.039504923 0.113437735 -0.07369681 0.11004574 0.06388464 -0.032306127 -0.06289517
0.12904274 -0.042342536 -0.07046813 -0.13504478 -0.017655773 0.026262663 -0.045898695 0.13801818
0.1405242 0.15403 0.05587726 -0.12295443 -0.014045641 -0.03733291 0.09694375 -0.12700684
0.060782816 -0.040513016 -0.08019367 -0.05726443 -0.118308395 -0.08754904 -0.059148777 0.12211702
0.06916271 0.06240688 -0.13502365 0.066995084 -0.02031897 -0.03266934 -0.12612174 0.100902505
0.05339451 -0.093841106 0.12537351 -0.030574372 -0.03464936 -0.104779154 -0.11961977 -0.018781295
0.18455939 0.11788389 0.11315713 0.15509178 -0.10036906 -0.012655657 0.03790427 0.038563523
0.029532034 0.10981061 -0.11377412 -0.038329266 0.09554109 -0.04274707 0.18677045 0.18475127
-0.06421085 0.18648626 -0.00025510447 -0.09335861 0.07572805 0.12577389 0.088042505 0.020017076
0.029328078 0.17834319 0.113474526 -0.0314852 -0.030837184 0.0024207544 0.04078789 0.14051837
-0.048856683 0.12137313 0.17115039 -0.008040869 0.113849215 0.102735855 0.15540144 -0.0846095
0.017935056 0.2289226 0.05341975 0.07397662 -0.027501069 -0.05483218 0.14184552 0.07073077

lstm.bias_hh_l0 f4 [192]
00000000: 20bd bd3d e6f2 c43d 1e0f 303d 4bfb 3ebd
00000010: b27b 083d d468 113e 3c05 973c 10bd 16bd
00000020: 3fd9 0b3e b2a7 cd3d 514a 183d 2c39 c53d
00000030: 7b7f cbbd a086 fc3d 4b46 98bd 0d4b 3d3d
00000040: 1f6a 573d b770 98bb 2f94 273d 3e72 36bd
00000050: 81d2 8d3d f6d0 e0bd 3f31 123c 36f2 47bd
00000060: 21da 91bd 9be3 be3d cd5d 88bc 1771 0abd
00000070: 1aae 9f3d 90e2 85bd c792 ecbd 31b1 ad3d
00000080: ee66 e13d 5c45 803d d1b7 223e 7d1e 243e
00000090: 66c1 cfbd 2f4c 14bd 25b9 d43d c127 4e3c
000000a0: 14c7 43bb b8a8 183e 3b52 2f3e 0da9 62bb
000000b0: a818 1f3e 6d02 9c3d e0c3 cebd d0ab 023e
000000c0: 6baa 083e 7eb5 b2bd cd3f b4bd 0441 453c
000000d0: 82b7 343d c800 e3bd 41ce f73d 382c c03d
000000e0: ded6 033b ae5c aebd 380f 363a 290c 953d
000000f0: c7e4 3e3d 0180 f93d 6643 b73d 571b 8bbd
00000100: b58d 4dbd 06bd a9bb a56d 0e3e 6366 c2bd
00000110: 44b5 e6bd c3de 2b3e ec97 e8bc 94cb c53d
00000120: c7fd e5bc d808 10bd 712e 153e 0c5f 3b3c
00000130: ec63 b8bd 54cf 923d ab2f ac3b 6484 d3bd
00000140: d3a2 87bd feba b03d c608 9abd cb70 65bd
00000150: e433 d8bc da1f 943d 6fc0 18bd b31b 3dbd
00000160: c56c a03d 0a9d 813d 50de aabd 4713 5e3d
00000170: 3167 cdbd b948 e33d 914a cfbd 4b75 753b
00000180: 2981 783d 984a 38bc fcd7 07bc 234e 04be
00000190: dee4 a3bb b673 2c3d cef8 c83c 7b64 1b3d
000001a0: ea82 00bb c9b5 10be e672 153d 4bfa f1bd
000001b0: 034b 9bbc 2259 33bd 56a0 483d 13aa cb3d
000001c0: be03 663d a6a1 eb3d 9680 923d d8e4 a23d
000001d0: e418 f4bd b170 9cbc 52c9 b93d a17f a7bd
000001e0: d746 7a3d c471 1abe 24e9 573d e584 c03d
000001f0: 34d0 f2bd 72bc a23d 68a5 34bd 73f8 edbd
00000200: 1709 3b3c ac49 c3bd 7a6e d83d 244c faba
00000210: 853b 6e3d b11d f93d 7c07 083e 8252 843d
00000220: 2501 06be b143 823c db8e 7ebd bfd8 7dbc
00000230: dee2 05bb 7632 2abe f85c b73d 35a5 9c3d
00000240: 07ef 273c 1133 e2bc 514e 153e 335b 2d3e
00000250: aa30 37bd 25c8 14bd ceb8 e6bc 5dcb 993c
00000260: f32c 193e a3fc ff3c f342 dbbc f462 ff3d
00000270: 9da1 5b3d a82e 8fbd 069f ef3d 8d37 d9bc
00000280: 2916 83bc 5604 2a3e d0d8 8ebd d482 babc
00000290: 393f b0bb 47f6 ff3d f8b5 0d3e fcf2 d73c
000002a0: 339e d7bd 0f14 3d3e 6af0 a73d ac95 d23d
000002b0: 3026 c03c da44 4fbd 409a c6bd fc80 f83d
000002c0: c9e5 b0bd 24e7 adbd f35d ec3c dc3e 053e
000002d0: e7c1 abbd b3c7 9abd 87b8 f63d e7b2 b7bc
000002e0: 6787 003e 387b 423e ef07 c93d 4d77 203e
000002f0: ad76 f83d 8607 c8bd 879d 053e dd51 6fbd
0.09264588 0.09616642 0.042983167 -0.04662637 0.03332109 0.14200145 0.018435113 -0.036801398
0.13657092 0.10041751 0.03718025 0.09630045 -0.09936424 0.12330365 -0.07435282 0.046214152
0.05259144 -0.0046521085 0.040912803 -0.044542544 0.06924916 -0.10977356 0.008922874 -0.048814975
-0.07121683 0.09320756 -0.01664629 -0.033799257 0.07796879 -0.06537354 -0.11551433 0.08481062
0.110059604 0.06263229 0.15890433 0.16027255 -0.1014431 -0.036205467 0.10386876 0.01258272
-0.0029873298 0.14908111 0.17121212 -0.0034585625 0.1553675 0.0761765 -0.10095954 0.12760854
0.1334626 -0.08726023 -0.088012315 0.012039427 0.04412032 -0.110841334 0.12099887 0.09383434
0.0020117084 -0.08513771 0.0006945017 0.0727771 0.046604898 0.12182618 0.08948402 -0.06792324
-0.05018397 -0.005180004 0.13909014 -0.09492185 -0.112650424 0.16784196 -0.028392754 0.0965797
-0.028075112 -0.035164684 0.14568497 0.011436235 -0.090034336 0.07168451 0.005254706 -0.10327986
-0.06622853 0.08629416 -0.07521205 -0.05601577 -0.02639193 0.07232638 -0.037292894 -0.046168994
0.07833246 0.06328781 -0.08343184 0.054217603 -0.10029448 0.11097855 -0.10121644 0.0037453945
0.06067005 -0.011248253 -0.008291241 -0.12920432 -0.0050016483 0.042102538 0.024532702 0.037937623
-0.001960928 -0.14131846 0.03648653 -0.11815318 -0.018956667 -0.043786176 0.048981033 0.099445485
0.056155913 0.11505441 0.07153432 0.07953805 -0.1191881 -0.019096704 0.09071602 -0.0817864
0.061102714 -0.1508246 0.052712575 0.094003476 -0.11856118 0.07946099 -0.044103056 -0.116196536
0.011415741 -0.09535536 0.10567947 -0.0019096178 0.05816223 0.12163866 0.13284105 0.064610496
-0.13086374 0.015901418 -0.062147956 -0.015493571 -0.0020429413 -0.16620812 0.08953279 0.07648698
0.01024986 -0.027612241 0.14580657 0.16929321 -0.044724144 -0.036323685 -0.028164294 0.018773729
0.14958553 0.031248396 -0.026765322 0.12470046 0.053620923 -0.06991321 0.11700253 -0.026515746
-0.016001778 0.16603217 -0.069749475 -0.022767462 -0.0053786305 0.124981456 0.13838947 0.026360981
-0.10528221 0.18464683 0.08200152 0.10282454 0.02345571 -0.05060277 -0.096973896 0.12133977
-0.08637578 -0.08491352 0.028853392 0.1301226 -0.08386593 -0.07557621 0.120469145 -0.022424174
0.12551652 0.18992317 0.09815966 0.1567051 0.121320106 -0.0976706 0.13048373 -0.05842768

mlp.0.weight f4 [256, 54]
00000000: 6e76 3dbd cd00 c3bd 2421 da3d b21d 5cbc
00000010: 1b62 6bbc d04e 823d 7f6f 383c 5c1c 82bd
00000020: 5e08 febd 3348 4dbd da5b c6bc 81d7 043e
00000030: 279f 73bd 72a1 c63d f177 f3bd 6d50 1abd
00000040: be0e 5a3d 0222 ffbc 55cb 81bd aab5 1abd
00000050: dfbf efbd ed5e 013e 6815 c93d 6652 043e
00000060: 83d9 01be e5e9 363d 7635 b03c 78a5 1a3d
00000070: 0fd5 efbd f3f7 0e3e 85b4 b33d 3382 e3bd
00000080: 7d54 bc3c 4d12 b83d 7725 3ebc cce6 d73d
00000090: a5c6 d0bd 9fde 213d fad0 9f3d b5e8 d63d
000000a0: 1221 073e dbc5 a43d 5d7b c6bd b792 973d
000000b0: 3528 2dbd e71b 94bd 7f24 153d 5cd2 2fbd
000000c0: 4716 09bd a168 9fbc 71b2 f53c a452 39bd
000000d0: ac89 d13d d98e 5a3c 729c 9d3d c39a 92bd
000000e0: 13f8 85bd 87c1 993d bd09 913d 7e24 443d
000000f0: c2e8 dfbc 316c 08be 0204 bdbc 8752 963d
00000100: c77a 1dbe 60e0 a93d 4362 b33d 45e8 03bd
00000110: d02e e6bd 3c15 893d 48e3 8e3d 88c5 bfbd
00000120: 7d1b c6bc d2fd 023e d8d8 283e d25e ac3d
00000130: 5fc9 5d3c c8d4 d23c d88d d03d 1940 6d3d
00000140: 82b0 a0bd cf24 b23d 9107 313e e162 8cbd
00000150: 0510 96bd be33 e73d d575 8e3b 796f f0bd
00000160: 171e 0abc 6c75 18be 16ac d93d 8a32 c13d
00000170: 06bb 8bbd 2671 22bd 1c45 883d 5943 063d
00000180: a4d4 0cbd 559f c83d a473 cbbd b129 233e
00000190: 9f4c 6b3d 2b52 27be d0d1 1bbe b6f5 4b3d
000001a0: b03f 0d3e 1aa2 24be 9370 09be 54ec cebd
000001b0: e1ab e4bd eebd 0bbe 92f8 8f3d 7893 b2bd
000001c0: 5ac1 a93d 3d87 a23d c670 da3d 6bb1 6abc
000001d0: 1d00 98bd feb7 703c 726a 9bbd 6726 6ebc
000001e0: 0790 8fbd c0b9 ab3c 0f59 cfbd 7dc6 1d3d
000001f0: af07 d33d 11c2 bfbc ffa3 8e3d f11c 00be
00000200: d031 783d 4caf d5bd c6e3 eebd 9ce9 703c
00000210: 0686 c83d d312 da3d 5127 a9bd f1a2 283c
00000220: 3568 913d adf0 dc3d 06d2 d73d f93d 003e
00000230: 0594 9abc 6811 56bd a84f c0bd cdf2 9b3d
00000240: 2e49 9a3d 3d90 abbd cacb dd3b ca64 e2bc
00000250: ca7d e33c 0dc8 113d d5a0 babc d639 f1bd
00000260: c244 173d 9170 61bd 0a00 aebd e7d4 04bb
00000270: d661 853c 79ff c13d ba54 73bb 7b52 0dbe
00000280: a755 013e 347f d2bd f84f 4e3c a22b b13c
00000290: 03ed 85bd 8b2f 5cbd 485b 9cbd b04a c5bd
000002a0: 8d95 933d 954a 0fbe 178d 0a3e a900 733d
000002b0: f29b 05be fd46 50bc 7ca0 b5bd 6df1 2dbe
000002c0: 3560 83bd b2a0 a9bd 8e33 243e 5596 67bd
000002d0: 270f b73b 669b 143e a547 9fbd 2b7e 1a3d
000002e0: 0880 44bb 3496 943c ae28 3d3d 3f7a bc3d
000002f0: 8881 2ebe 386b 213e 7535 0b3c bf4c 18bd
00000300: 1214 ccbd 0cc5 ccbd 5f12 bcbd 9034 d4bd
00000310: 67e8 32bd 626a 04be 36ad bf3c 3a2f 803d
00000320: 5bbb dd3d acd3 403d 8d36 163e 9e7b eebc
00000330: 37b4 443d d4dd 01be a2ce 783c 84de af3d
00000340: bb7e a23d 9e92 16be 323a c4bd 6071 223e
00000350: cce5 d63d cd0e c63d 680c b9bd 183a a43b
00000360: ecf9 1d3d 252f 843c ecc6 edbd 691d cd3d
00000370: e78a 1fbd ddb2 243d 547e c6bc 1556 b1bd
00000380: 0d74 8dbd e650 2a3c db5b 5b3d 5ab0 0fbd
00000390: c275 18bc 58ba 8dbd fc4d a7bd 6cc7 9a3d
000003a0: 301d b2bd 1578 cb3d 867c 0a3e 35b2 d2bb
000003b0: 2c6a a23c 4c45 913d 639f 013c 672c 9b3c
000003c0: 1d24 0e3d c9e4 183e 1f79 10be 781a 183e
000003d0: e26a 4ebd 9266 9e3d f742 14be 62a9 92bd
000003e0: 53d9 1fbe ff39 863d 9867 98bd 3fe4 f5bd
000003f0: 9ab2 b13a a83c e83d 2614 c5bd c77a 013e
-0.04625552 -0.09521637 0.10650852 -0.013434814 -0.014366652 0.063626885 0.0112570515 -0.06353065
-0.1240394 -0.050117683 -0.02421372 0.12972833 -0.05947795 0.09698762 -0.118881114 -0.037674356
0.053236715 -0.031144146 -0.06337611 -0.037770905 -0.117065184 0.12633868 0.09818536 0.12922058
-0.1268063 0.044656653 0.021509867 0.03775546 -0.117105596 0.13961773 0.08774666 -0.11108818
0.022989506 0.089878656 -0.011605612 0.10542068 -0.101941384 0.03951895 0.07803531 0.10493604
0.13196209 0.080455504 -0.096914984 0.074010305 -0.042274673 -0.072318844 0.03641176 -0.042925224
-0.03346851 -0.01945907 0.029992314 -0.045244828 0.10231337 0.013339722 0.07695855 -0.07158425
-0.06541457 0.075076155 0.070819356 0.047886364 -0.027332667 -0.13322522 -0.0230732 0.073399596
-0.15378867 0.08294749 0.08758976 -0.03220393 -0.112393975 0.06693503 0.06976944 -0.09363848
-0.02418303 0.12792137 0.1648897 0.08416523 0.01353678 0.025736228 0.101833045 0.057922456
-0.07846166 0.08698427 0.17288043 -0.06854797 -0.07327274 0.11289166 0.0043475428 -0.11740012
-0.008430026 -0.14888543 0.10628526 0.09433468 -0.06822781 -0.039658688 0.066538066 0.03277907
-0.034382477 0.09796015 -0.09934166 0.15933873 0.05744612 -0.16339938 -0.15216756 0.049794875
0.13793826 -0.16077462 -0.1342185 -0.1010367 -0.11165596 -0.13646671 0.07029833 -0.08719534
0.08288832 0.07935951 0.10666041 -0.014324526 -0.074218966 0.014692305 -0.07588662 -0.014535523
-0.07009893 0.020962596 -0.101244085 0.03851937 0.103042 -0.023407968 0.069648735 -0.1251104
0.06059438 -0.10433826 -0.11664538 0.014704134 0.09791188 0.10648122 -0.08259452 0.0102927545
0.07099954 0.10788093 0.10538106 0.1252364 -0.01886941 -0.052262694 -0.09390193 0.0761467
0.07533489 -0.08377121 0.0067686783 -0.02763595 0.027769942 0.035591174 -0.022781769 -0.117786095
0.036930807 -0.055038992 -0.08496101 -0.0020268501 0.016282003 0.09472556 -0.0037129358 -0.13800995
0.1263033 -0.10278168 0.012592308 0.021627251 -0.06539347 -0.053756278 -0.07634598 -0.09633386
0.07206259 -0.13993295 0.13530384 0.0593268 -0.1304777 -0.012712237 -0.088685006 -0.16986628
-0.064148344 -0.08282603 0.16035292 -0.056539852 0.005586523 0.14512405 -0.07777337 0.03771798
-0.002998354 0.018138029 0.046181373 0.09203004 -0.170416 0.15763557 0.008496632 -0.037182566
-0.099647656 -0.09998521 -0.091831915 -0.10361588 -0.043678667 -0.12931207 0.023398023 0.06259008
0.10826751 0.047076866 0.14669247 -0.02911168 0.04802343 -0.12682277 0.015185984 0.08587363
0.07934328 -0.14704368 -0.095814124 0.15863562 0.10493049 0.09670792 -0.090355694 0.005011808
0.038568422 0.016135762 -0.11610207 0.10015375 -0.038950827 0.04020964 -0.02423016 -0.08658997
-0.069069006 0.010395264 0.053554397 -0.03508029 -0.009305419 -0.06920308 -0.08169171 0.07557568
-0.08696973 0.09935013 0.13524064 -0.0064299353 0.019826017 0.070932955 0.007911536 0.018942071
0.03470241 0.14931025 -0.14108704 0.14853847 -0.0503949 0.077344075 -0.1447867 -0.071612135
-0.15610246 0.065540306 -0.07441634 -0.12006425 0.0013557256 0.11339694 -0.09622984 0.12644492

mlp.0.bias f4 [256]
00000000: 92d2 f03c 0557 a0bd 981e 9b3d 56ec 093e
00000010: 8b3a c33d f6c1 cebd 64cd e0bd 5f65 cd3b
00000020: bdcc 863d 224d f7bd c798 bebd dc73 eabd
00000030: 1801 db3d 7665 0c3e e4f5 b2bc 1550 1fbd
00000040: 8e35 4a3c 71f3 03be 5dff 5f3d d5c9 9d3c
00000050: 0cb1 00bd 098e 6e3b 6fd9 15bd 2c91 6dbd
00000060: 4321 c8bd 826b 013e 6549 0e3d f738 ddbb
00000070: 948c 913d 9512 643d b78e b43d e043 fd3d
00000080: 9a03 0abe 56a2 98bd 3e44 c03c 89a3 5dbd
00000090: d830 59bd 1d51 f33d 8c56 803d a4d5 313d
000000a0: d0f3 d93c b2b7 ebbc c574 933d 8e3d 973c
000000b0: d5c0 c53c 9fdf af3c 8e39 633c 7ee0 523d
000000c0: 8752 133e a431 7dbd 0256 97bd 1167 ff3d
000000d0: c3a8 86bd 2cae f9bd b2c2 babc 05ad 69bd
000000e0: ccf6 75bc 1420 2fbd aab1 d6ba 975d 0b3e
000000f0: a101 b6bd d0fe 90bd a65e d7bc 498c efbd
00000100: 3720 433c 1749 c8bd 83e2 f3bc d748 df3c
00000110: 788b bebd 37df eebd 2dbc 013d d970 883d
00000120: 08ec f0bd baca 4bbd 4fa7 383d f4e5 0dbc
00000130: d66d babd 8dd0 0f3d 2cce 72bc 205d b6bd
00000140: 97c2 02be 9aa5 de3d 4257 afbd 82d0 ccbd
00000150: 192b d0bd 8dfc d73c 5230 f1bc 620f 053e
00000160: 73ea b33c fc0f b43d 27a7 553d d46a 09be
00000170: e6e4 b8bd c0fb 1f3c a51a 3b3d 2094 0c3e
00000180: d904 843d aab8 cb3d 156e 2f3d 1278 7c3d
00000190: e7da 023e 9431 1dbd 320c 303d 49af c1bb
000001a0: 51cc 063d 5a48 8dbd c97e 9fbd f900 f03c
000001b0: e4df a8bd 4624 a63d e5b1 15bc 4b0e b23d
000001c0: d729 bfbd 64b8 943d 0976 f33d cc49 36bc
000001d0: ed6e bcbd 3639 e83b 798a 35bd 188f 7fbc
000001e0: e9ea d53c 3fa0 5c3d 52ca 043e 9675 32bd
000001f0: d121 3f3d 3c9f 5a3d 2296 03be fb1e efbd
00000200: 5f47 3d3d 4962 fabd f05b 013e 28d0 033e
00000210: da45 913d 6f8b 993d f20d e4bd 9b40 593d
00000220: dc38 5f3d 792f 153d 7b41 8d3d 545f 4d3d
00000230: 7c7d df3d 4a27 bfbc aea2 dd3d 9e7b 27bd
00000240: 4234 95bd 1f76 81bd 50a3 05be 7648 b1bd
00000250: 9aa8 f73d 7d11 3fbd 8630 533d e980 133e
00000260: 5a1e 9f3d 4c7f 98bd c9c4 e5bd ebee 0e3e
00000270: 7bfe c0bb 2ca7 64bd 0a94 44bd 4df6 d9bc
00000280: 7dfc 8b3d aed3 03be ce33 e0bc bd87 a3bd
00000290: 2123 6fbd de79 933d b9ba 533d 77c8 81bd
000002a0: b694 8d3d fb67 e4bd c01a 393d cb81 99bc
000002b0: 57fc e1bd a40d 39bd 3396 b4bd 0fe3 003e
000002c0: 64f2 153e 8d32 efbd 01ed 153e febe f83d
000002d0: 6aa5 f3bd 5112 03be 17fc 083e 50a7 3b3d
000002e0: f74d c9bd ac55 043e 663a c7bd 4890 3fbd
000002f0: 5d7f 563d 08df b9bd 2ebd a5bd 46a9 e43d
00000300: f496 dc3d 24be 633d a383 f6bd 1cbe 6dbb
00000310: 1857 573d 1207 fbbc b2be eabd 4bbf 0d3d
00000320: 33b8 2dbb d3a8 d0bd 8e06 a53d 4cf1 e7bd
00000330: b018 d0bd f125 a8bb 3bae 5dbd 09a9 503d
00000340: 8115 b4bd 4dd7 ce3d 8d8c 763d 9f99 bc3d
00000350: 16b1 17bc b887 afbd 5e1b ecbc 1da9 a0bc
00000360: 1f1c dd3d da1a 9d3d b3d5 5e3d bd7b 113d
00000370: e0f7 98bd 46f0 ef3d e885 953c 1ead acbd
00000380: 1178 b13c e722 a0bd 49c7 073e 1294 b1bd
00000390: c9d4 b5bc abff 84bd e085 be3d 5b22 c6bc
000003a0: c83a 26bc 5a26 ebbd c91e 01bc 4afa d33c
000003b0: 642a 96bd 6ee3 a7bc 1e40 913d 703e edbb
000003c0: 31fd dfbb e8a8 3bbd 9d23 c9bd 7b47 dcbb
000003d0: 7272 f43d cdce 8abd 5d3f f9bd 291c fabd
000003e0: 9b25 cdbb 373e 583c 3ca0 71bd 6222 d4bc
000003f0: c9fe 12bd e8e1 873d b13b ce3c 1432 b4bd
0.029397283 -0.07829098 0.07574195 0.13469061 0.095326506 -0.10095589 -0.10976675 0.006268188
0.065820195 -0.12075259 -0.09306484 -0.1144788 0.10693568 0.1371058 -0.021845765 -0.03889473
0.01234187 -0.12885834 0.054686893 0.01926128 -0.031418845 0.0036400578 -0.036584314 -0.057999775
-0.09771969 0.12638667 0.034737963 -0.0067511755 0.07106891 0.055681784 0.08816283 0.12366462
-0.13477936 -0.07452838 0.02347004 -0.054111037 -0.053025097 0.118807055 0.062665075 0.043416634
0.026605517 -0.028774116 0.072000064 0.018461969 0.024139801 0.021468936 0.013868703 0.051483624
0.1438695 -0.06181492 -0.073894516 0.1247083 -0.065751575 -0.12191424 -0.022797916 -0.05704977
-0.015012454 -0.0427552 -0.0016379852 0.1360992 -0.088870294 -0.070798516 -0.02629025 -0.11696679
0.011909536 -0.09779566 -0.029771095 0.027256412 -0.09303945 -0.116636686 0.0316736 0.06662149
-0.117637694 -0.049753882 0.045081433 -0.008660782 -0.09102981 0.035111 -0.014819663 -0.08904481
-0.12769543 0.1087143 -0.08561565 -0.10000707 -0.1016447 0.026365543 -0.029441986 0.1299415
0.02196238 0.08792111 0.052161362 -0.13419658 -0.09028034 0.009764612 0.045679707 0.1372838
0.06446237 0.09947331 0.04282959 0.061637945 0.12778817 -0.03837736 0.04298038 -0.005910788
0.032909695 -0.068985656 -0.07787854 0.029297339 -0.08245829 0.08112387 -0.009136652 0.086941324
-0.09334152 0.07261732 0.11887748 -0.011125993 -0.09200845 0.007086898 -0.04432151 -0.015598081
0.02611299 0.05386376 0.12967804 -0.04356917 0.04666311 0.053374514 -0.1285024 -0.11675831
0.046210643 -0.12225778 0.12632728 0.12872374 0.07093401 0.07497298 -0.11135472 0.05304013
0.054497585 0.036422227 0.06897255 0.05013974 0.10912606 -0.023334164 0.10822044 -0.040889375
-0.07285358 -0.06321358 -0.1305058 -0.08656399 0.12092705 -0.046647537 0.051559947 0.14404644
0.07769461 -0.07446155 -0.112191744 0.13958327 -0.0058897114 -0.05582349 -0.047992744 -0.026606703
0.06835268 -0.12873718 -0.027368452 -0.079848744 -0.05838311 0.07200979 0.051691744 -0.06337064
0.0691313 -0.11152645 0.045191526 -0.018738648 -0.11034458 -0.045179024 -0.08817711 0.12586616
0.14643246 -0.11679564 0.14641191 0.12145804 -0.118967846 -0.12799956 0.13377415 0.04581386
-0.09829324 0.12923306 -0.097279355 -0.046768457 0.052367557 -0.09075743 -0.08092724 0.11165099
0.107709795 0.055601254 -0.120368265 -0.0036276644 0.052573293 -0.03064302 -0.114621535 0.03460626
-0.0026507496 -0.10188451 0.08057891 -0.113253206 -0.10160959 -0.005131476 -0.054121237 0.050942454
-0.08793164 0.10099659 0.060192633 0.092089884 -0.009258529 -0.08570808 -0.028821643 -0.01961189
0.10796379 0.07671137 0.05440302 0.035518397 -0.074691534 0.117157504 0.018252328 -0.08431457
0.021663697 -0.07819157 0.13259615 -0.0867082 -0.02219619 -0.06494077 0.093028784 -0.024186304
-0.0101458505 -0.11481924 -0.007880875 0.025876183 -0.07332304 -0.02049419 0.070923075 -0.007240109
-0.0068356027 -0.04581538 -0.09821246 -0.0067223883 0.11935891 -0.06777725 -0.12170289 -0.122124024
-0.0062605864 0.013198427 -0.058990702 -0.025895301 -0.035887513 0.06634885 0.025174947 -0.08798614

mlp.2.weight f4 [128, 256]
00000000: f7d8 673c 2e13 fe3c 8ee1 6d3d d324 08bd
00000010: d8e1 03bd 9620 b6bb f631 1ebd 746c 263d
00000020: 0037 34bd e659 28bd 2704 2bbd 04e0 08bd
00000030: 30a8 873c b2cd 833d c2db 6a3c 3fae 32bc
00000040: 27b7 ec39 44e7 ce3c 5d52 02bc 02e7 a93d
00000050: b83a 67bd 7072 a5bb 9a9e f53b f257 4c3d
00000060: f7bb 01bd b2bd babb a62d 44bd a7ea 1b3d
00000070: bbd6 1dbc 4f0a 053d 60ce 363d f220 ebbc
00000080: 8c2e 5c3d 6c40 3ebd e542 71bd bc3f 033d
00000090: e166 623c 6476 8dbc 75f9 123d 5706 233c
000000a0: 6525 633c 31f3 07bc 9529 773d 7072 2fbd
000000b0: c323 46bd f1b8 fa3b a9d9 813d 6924 523c
000000c0: 0801 303d b9ca 69bd 447f 34bd 5f81 7ebd
000000d0: 44eb 03bc 8fce 133d 0050 7f3c 8893 4a3d
000000e0: f0db 5fbd 4a64 3a3d a4c7 6fbd 85c0 363d
000000f0: e01c 213d 0822 47bb 3dca 3d3d 3467 a3bc
00000100: dc4c 6cbd c20d 1cbc 37b2 133c 9580 07b9
00000110: c784 053d eb14 f5bc b162 c5bc e0f7 553c
00000120: 9bfd afbc ddb6 febc 644f d93c 3705 0dbd
00000130: f87d 4b3c 646f 823b e3dd 7abc a24b 553d
00000140: e1d2 8b3d e87b e83c eb65 853d 67da babc
00000150: 0377 40bd 32f5 24bd 07ea 17bd 7324 f0bc
00000160: da03 b7bc 70a7 483c fc72 803d f02e 2a3d
00000170: 275b 7d3c e7c7 35bd 6ed2 c13c 6394 d9bc
00000180: 357c a43c 5bb3 443d 2441 e9bc 4e16 a13c
00000190: 6a1e c33b 34ed cabb 4a9b 18bd 7664 e5bc
000001a0: e9ba 203d 45aa 8d3d 261d 293d 90c0 2f3d
000001b0: 5642 2d3d cd03 dcbc 2a3b ebba 2d5e 533d
000001c0: 66f3 76bd cbce 88bc f88d 833c 4f4e c83c
000001d0: db69 063b 54b8 adbc 61a7 853d 0ea9 30bd
000001e0: a626 6bbc 8ca1 50bc 0c0a a7ba 359f a33b
000001f0: 30b4 44bd 3b70 2d3d 287d 19bd bf91 e1bc
00000200: a89a 09bd fea6 23bc 658b 443d 0e79 813c
00000210: 227f 213d d341 853d 3544 47bb 70eb c93c
00000220: 1705 343d 0a2f 40bd e85c edbc e35a 943d
00000230: 7c83 d4bb e17e a0bc 5bc7 ae3c f348 be3c
00000240: 28ad 0bbd 30b4 61bd c02a 1ebd 4337 23bd
00000250: 93dd 2fbd 3209 fb3b 6d6b 843b 826e 763c
00000260: 886f 033d 7ace 70bd 4d74 bc3c 1b87 33bd
00000270: cc37 7c3d 92b9 3fbd e339 77bd 9f4e 10bd
00000280: 07a4 cebc 9060 713d 66a4 01bd 2287 2dbd
00000290: 4c53 373c 6734 31bd f26a 99bc 2103 81bd
000002a0: a7b8 2c3d 2e99 7fbd 7189 db3c 382b babc
000002b0: a171 74bc 061a 593d 0213 d4bb 41e5 5dbd
000002c0: 5a3f 60bd a8a3 cd37 6628 e73c 0b2d 093d
000002d0: a604 8a3b 80d5 e9b9 e14b bcbc 262b 203c
000002e0: 2564 34bd ffff 253d 7608 873d 7d74 893b
000002f0: cf6a 0abd 805f f9bc 8c32 b4bc bf53 19bd
00000300: 5bfe 673d 5efd 853b fc33 8cbc 9de5 823b
00000310: f207 b1bc dcb6 acbc a049 fabb 7340 083d
00000320: 9067 473d 1329 9d3d 3f1f 863d 855a e33c
00000330: 02f0 14bd 605e 46bd d280 e3bb 9b60 37bd
00000340: ff9a 4fbd c7aa 543d ae6f 6e3d 4082 3e3b
00000350: 5605 fa3c 934a 06bd 0f80 1cbd 109c e63c
00000360: ae9f f73c 69d9 493c b554 adbc 178b 4a3d
00000370: ffc7 39bd 71a8 763d 2089 233d 5c55 42bd
00000380: 723b d7bb f0a4 143d ea6a 733c e8f1 583d
00000390: 6135 453c 13cc 233d 188b 333c d8cc 2dbd
000003a0: 7c39 4dbb d731 a8bc d414 a43c 27ce 953d
000003b0: ed73 7e3d 2c78 663d 5750 673d 90ea 093c
000003c0: ddfb 5dbc a6f1 153d 700b 4e3b 7b4d ebbc
000003d0: c7a9 73bd 3122 e23c 009f 7f3c 96a6 adbb
000003e0: c092 a6bb 51e3 babc 0318 253d 6ab2 c93c
000003f0: 50df 2fbd b119 a9bc d5ab 90bc 92c4 193d
0.01415085 0.031015005 0.058076434 -0.033238243 -0.032197803 -0.0055580838 -0.038621865 0.040630773
-0.043997765 -0.04110136 -0.041752007 -0.033416763 0.01655969 0.06435718 0.014334621 -0.010905801
0.00045149887 0.02525676 -0.007954207 0.08296014 -0.056452483 -0.0050490424 0.0074957134 0.04988856
-0.031673398 -0.005698883 -0.047895096 0.03806558 -0.009633715 0.032480534 0.04463041 -0.028702233
0.053755328 -0.046448156 -0.058901686 0.032043204 0.013818474 -0.017268367 0.035882432 0.009950242
0.013863896 -0.008297727 0.06034239 -0.042833745 -0.04837395 0.0076514413 0.063403435 0.012826064
0.042969733 -0.057078097 -0.044066682 -0.062135097 -0.008051697 0.03608566 0.015583038 0.049457103
-0.054653108 0.0455058 -0.05854 0.044617195 0.039334178 -0.0030385274 0.046335448 -0.019946672
-0.057690486 -0.0095247645 0.009014658 -0.00012922504 0.03259733 -0.029917201 -0.024094911 0.013059586
-0.021483233 -0.031093055 0.026527114 -0.0344288 0.01242017 0.003980564 -0.015311691 0.052074082
0.06827331 0.028379396 0.0651358 -0.02280922 -0.0469885 -0.0402729 -0.03708842 -0.029314255
-0.022340704 0.012246951 0.062719315 0.04154867 0.015463627 -0.044380095 0.023659911 -0.026560014
0.020078758 0.04802261 -0.028473444 0.019663956 0.0059545534 -0.0061928276 -0.03725747 -0.028002005
0.03924075 0.06917242 0.041287564 0.04290825 0.04229959 -0.026857281 -0.0017946709 0.051603485
-0.060290717 -0.01670017 0.016058907 0.024451403 0.0020509872 -0.021206059 0.065260656 -0.043129973
-0.014352476 -0.012733828 -0.0012744083 0.004993344 -0.048023403 0.04234336 -0.037472874 -0.027535317
-0.033594757 -0.0099885445 0.0479845 0.015804794 0.039427884 0.065066956 -0.0030405645 0.024648398
0.043950167 -0.04691986 -0.028974965 0.07243898 -0.0064854007 -0.01959175 0.021335294 0.023228144
-0.03410068 -0.05510348 -0.03861499 -0.039847624 -0.04293592 0.0076610083 0.0040411265 0.015040996
0.032088786 -0.05879066 0.023004675 -0.04383002 0.06157665 -0.046807833 -0.06035794 -0.03523123
-0.025224699 0.05892998 -0.031650923 -0.0423652 0.011189293 -0.043262865 -0.018727753 -0.06299425
0.042168286 -0.062401943 0.026798936 -0.022725686 -0.014919669 0.053003334 -0.0064719925 -0.05417371
-0.054747917 2.4514113e-05 0.028217506 0.033490222 0.00421198 -0.00044600293 -0.0229854 0.009775912
-0.044040818 0.04052734 0.06593411 0.0041947947 -0.033793267 -0.030441046 -0.021996759 -0.037433382
0.056639057 0.0040890416 -0.017114632 0.003994657 -0.021610234 -0.021083288 -0.0076381713 0.03326459
0.04868275 0.0767385 0.065489285 0.027753124 -0.0363617 -0.048429847 -0.006942847 -0.044769865
-0.050684925 0.05192068 0.058211975 0.0029069334 0.030520122 -0.032785963 -0.038208064 0.028150588
0.030227508 0.012319901 -0.021158556 0.049449053 -0.045356747 0.060219232 0.039925694 -0.047444686
-0.0065683657 0.03629011 0.014857033 0.052965075 0.012036652 0.039989542 0.0109584555 -0.042431682
-0.003131478 -0.020531578 0.020029463 0.07314711 0.062122274 0.05626695 0.056473102 0.00841774
-0.013548818 0.036607407 0.0031439923 -0.028723469 -0.059488084 0.027604194 0.015601873 -0.0052993996
-0.005083412 -0.022813471 0.040306102 0.024621207 -0.042937577 -0.020642133 -0.01766006 0.03754098

mlp.2.bias f4 [128]
00000000: 2f08 543d 1296 4b3d ca64 59bd a445 f6bb
00000010: d8cd 78bc 049f bebc 7512 4f3d 1f03 e03c
00000020: 890d 893c 449d f13c 222c 0dbd 8794 e9bc
00000030: 7c60 d6bc c884 39bd 6d99 cb3c 90c9 c6bc
00000040: b9b8 74bd 6295 27bd 58a2 89bc 6f6c b3bc
00000050: ca94 21bb 1c6f a63a 9582 69bd 9a84 57bc
00000060: 4a0c f13c d0b3 1fbc ff83 9cbc e98c ff3c
00000070: f176 13bd 7bc3 48bc fe7a 833d ae9e 213d
00000080: 6d37 5bbd d624 5e3d f4ad 72bc 092e 47bb
00000090: 6d97 1cbc ea3c 2cbd b6c0 333d 30d2 0a3c
000000a0: 8a12 3f3d 1e8e 1dbd 3199 813d e8b8 0dbd
000000b0: fa54 783d 81b5 3f3d 9416 433d f7ac 50bd
000000c0: 8088 263c e191 6f3d f070 bdbb 5e1d 39bd
000000d0: 10a7 833c bc16 4a3c 1936 cfb9 0e00 083d
000000e0: 3911 673d 6e4f bb3c 7cc3 46bc 3d8a 803b
000000f0: b455 36bd f0d9 793a 5908 fbbc 06d6 7fbd
00000100: 3393 183d c615 a53c 5860 04bd 331b f0bc
00000110: fd12 80bd 6577 863d 0f57 2abc 8d74 783c
00000120: d0d7 6fbd 6430 5e3d 8ed2 3a3d d5f5 cfbc
00000130: 8185 203d 843b 6e3d 32af 543d 9004 603d
00000140: 3765 48bd 075d f33b e981 703d a270 19bd
00000150: c717 32bd e245 363d f367 403d f4f6 d4bc
00000160: 8d2c 74bd ffab 2fbd 4953 d0bc 2a4e af3b
00000170: 7dda cdbc ea26 123d 8f59 063d c036 c6bb
00000180: d25f 0d3d 98b8 063c 0e21 b53c e646 123d
00000190: ad79 213d 9aa3 703d 0cf0 5c3d af94 893d
000001a0: 4911 533d 0565 fa3b 8c58 a3bb bdad ae3d
000001b0: f45c 6c3c 1fb7 5b3d f8c4 923d 12da 8dbc
000001c0: 527e c63c e5e7 e93c 2d1d 1cbd 73c5 bfbc
000001d0: eac9 8f3d 4dc7 253d c233 943c 108e 483d
000001e0: 91d0 2cbd 37f7 c9bc 46a2 193b b606 33bd
000001f0: c6fb 7fbd 93a1 343d 48d1 3dbd 9c8a 653c
0.051765617 0.049703665 -0.053074636 -0.007515626 -0.015185796 -0.023269184 0.05055471 0.027345238
0.016730087 0.029493935 -0.034465916 -0.028513206 -0.026169054 -0.045292646 0.024853433 -0.024266034
-0.059746478 -0.040913947 -0.016801044 -0.021902291 -0.0024655336 0.0012697908 -0.0570093 -0.013154173
0.029424805 -0.0097474605 -0.01910591 0.03119512 -0.036002103 -0.012253637 0.06419943 0.03945797
-0.053519655 0.05423435 -0.0148119815 -0.003039243 -0.009557587 -0.04205028 0.043884955 0.008472964
0.04664854 -0.03846561 0.06328047 -0.03460017 0.060627915 0.046803955 0.047628954 -0.050946202
0.01016438 0.05848873 -0.0057812855 -0.045194022 0.016070873 0.012334522 -0.00039522423 0.033203177
0.05641291 0.022865023 -0.012131568 0.0039227293 -0.044515327 0.00095310714 -0.030643629 -0.062459968
0.037249755 0.020151984 -0.032318443 -0.029309845 -0.06253622 0.065657414 -0.010396733 0.015164507
-0.058555424 0.054245368 0.045610957 -0.025385777 0.03918982 0.058162227 0.05192489 0.05469185
-0.04892465 0.007426861 0.058717642 -0.03746093 -0.043479707 0.04450024 0.046974134 -0.025996663
-0.0596128 -0.042888638 -0.025430338 0.005349894 -0.025128597 0.035681643 0.032800253 -0.006049007
0.03451521 0.0082227215 0.022110488 0.035712145 0.03942268 0.058749773 0.053939864 0.06717812
0.051530156 0.007641437 -0.004984921 0.08529232 0.014426459 0.053641435 0.07166475 -0.017315898
0.024230156 0.028552959 -0.03811376 -0.02340958 0.07020934 0.04047327 0.018091086 0.048963606
-0.042191092 -0.024654014 0.002344267 -0.043707572 -0.06249597 0.0440994 -0.046342164 0.014010098
