weights/steps_360001.pth (torch, 276355 bytes, 10 tensors)

lstm.weight_ih_l0 f4 [192, 7]
00000000: 892d debd fbec b3bd 2a63 86bd 044f 48bc
00000010: be58 233e 4f9b c7bd 45b4 88bd 5b45 eebd
00000020: 81af 26be f464 8fbd 2f40 86bc 42c1 d4bb
00000030: 3796 783d db9a 06bd 436f 533d adff 9f3d
00000040: c388 3f3d abb4 813d 44bd 893d 613a 923d
00000050: 850f 653d ae82 16be 8e8f 6b3c 7332 fe3d
00000060: 74ec 2a3e 46f9 0f3e fad3 983d ddd4 af3d
00000070: 409b 773d 125a a03d b314 77bc 1408 8fbc
00000080: 6584 793c 41cf 0b3e c3f4 a3bc 83d1 29bd
00000090: ffda cbbd 5ddb f83d c7be 81bd d44d df3d
000000a0: 9312 42bd e26c c63d b7b0 01be db63 b43c
000000b0: 5c29 783d d996 cc3d 3763 123e fd59 cfbd
000000c0: c87c 96bd d7e8 4fbd 9000 69bd c41f 8abd
000000d0: 280e 45ba 4f06 82bd adda b6bd be87 cc3b
000000e0: f9b1 b8bd 3133 8b3c c3dd 893d 0ce3 85bd
000000f0: 34a6 843d bd3a cdbd 6ba3 0dbd fef7 613e
00000100: 46c7 e2bc 108d 903d 5583 6f3d 7045 313c
00000110: 903d 063e fcf4 fdbc d129 d9bd ba23 b2bd
00000120: 8864 4b3d 55af 243e bdc9 1c3e 20be 91bd
00000130: c84c 113e da09 17be bfd6 a33a 8fd2 fe3d
00000140: a366 98b9 b06a 783d 6a78 523d 514c ab3b
00000150: 9d64 22bd 1f9f 4f3c 672c ecbd 6734 883c
00000160: 85da 9fbc 3070 1c3d d99e a4bd 925b 3b3d
00000170: 21b4 73bb 10cb 5f3d 0120 e83c 4a61 00be
00000180: fa53 e93d 56a6 f9bd 72d9 4dbd 72e4 3fbd
00000190: 48b9 ed3d 07e0 80bd 2aa5 a2bd 06d0 5dbd
000001a0: b2ef 1f3e 6e7b 29be aeea 2abe 2af6 9cbd
000001b0: 1d6b 723d cfc5 cabd 70c8 b53d 4bea a7bd
000001c0: 5d26 c53d 6a21 1f3e 2bd7 a83d 40a7 92bd
000001d0: d190 733d 3fca b13c 5284 463e b375 c2bd
000001e0: 5851 15be c9e7 f13d 04af b23d ec98 093e
000001f0: ecd5 063e 651c 233e 93a3 48bd 3809 0a3d
00000200: e613 e83d 9644 8cbd e3ef 2a3e 7f8b a63d
00000210: 3def 593d b3e1 be3d b26a 313e f489 ea3d
00000220: 845d 09ba 16db c8bd dd37 303e e1bf f93d
00000230: 7d64 69bd bea1 cd3c fbd8 a83d 778e a03d
00000240: 6b7b 8e3d 8b45 f5bd 238a a13d 1a1a 81bd
00000250: 027e 97bd 2932 183d 54cf 45bc 0321 b73c
00000260: 66dd 75bd e223 4dbc dc71 10be f64a d8bd
00000270: 7766 99bd 21c3 3dbd 5857 a23d e664 d1bd
00000280: 8b89 083c a440 88bc d21d 69bc 506f 083d
00000290: c9df 643d 2fdb 0a3e d77a 3dbd 4ace 093e
000002a0: 01eb 3f3e 7299 823d ddc3 c73d 7393 5bbd
000002b0: d31d 3e3d bcf4 023e 40e2 60bd 70de 1e3e
000002c0: 3617 fe3d f59a a73d 4570 2e3e fbb5 5c3d
000002d0: ed25 f3bd 1fea 073d b210 2e3e ce81 9ebd
000002e0: b4d3 c33d ba67 083e 9089 043e ca0a 843d
000002f0: 9bcc 0e3e af50 10bd df67 1b3e 857c 893d
00000300: b567 d13d 8cb5 72bd 7aeb 1a3e 5786 463d
00000310: de72 d03d 3720 d9bc dbf9 24bd af40 4dbc
00000320: 0478 f83d ca72 7bbb 640c 1b3e 0633 2c3e
00000330: 2753 453d a971 cb3d ea7c 2e3d 5c55 423d
00000340: eafe 0c3e 3dcc 92bd 814b 053c c6da 04be
00000350: f62c 0d3e bd3e 793c 2409 aa3d 678f 523d
00000360: 2297 253e 4cb7 bcbd c56b 51bd 75d6 773b
00000370: 4ac4 bf3d b071 863d 8de3 01be 8f96 2a3e
00000380: afcf 203d 9fda 253e f47c 3d3d 6818 533d
00000390: 82b7 333e 61a3 a1bc e36c 10bd 7ce1 8c3d
000003a0: 0dc9 513b afb6 c2bc 6718 9d3d 2d56 a0bd
000003b0: c595 f43c 27aa e03d b4a5 b9bd b643 a0bd
000003c0: 4f1b e13a 3294 f83c c0cf 91bb 9355 05be
000003d0: f8fe d43b 2dee 22be 0cca cb3d 3a91 823d
000003e0: c2eb 533b 0c7b 003e ae5b bc3d 7e48 6bbd
000003f0: 2f3f febd b3e8 c8bd db95 1b3e 53a8 793d
-0.10848529 -0.08785435 -0.06561883 -0.01222587 0.15951821 -0.0974642 -0.06675009 -0.11634322
-0.16277887 -0.07001677 -0.016388027 -0.0064927647 0.06069013 -0.032862525 0.05161978 0.07812438
0.046761286 0.06333288 0.06725553 0.07140041 0.055923004 -0.14698288 0.014377488 0.12411966
0.16691762 0.14059934 0.07462306 0.08585522 0.060450792 0.078296795 -0.015080619 -0.017459907
0.015229319 0.1365328 -0.020014172 -0.04145957 -0.099538796 0.12151215 -0.06335216 0.109035164
-0.047380995 0.096887365 -0.12665068 0.022020271 0.06058632 0.099897094 0.1429566 -0.10124586
-0.07348019 -0.050759163 -0.056885302 -0.0674434 -0.0007517063 -0.063488595 -0.08928428 0.0062417677
-0.090183206 0.016992183 0.06731751 -0.065374464 0.06477013 -0.10020969 -0.034579676 0.22067258
-0.027682912 0.070581555 0.058474857 0.010819778 0.13109422 -0.031000607 -0.10603679 -0.086982206
0.04965642 0.16082509 0.15311332 -0.071163416 0.14189446 -0.14749852 0.0012499912 0.124425046
-0.0002906817 0.06064862 0.051384367 0.0052276035 -0.039646734 0.012672215 -0.115319066 0.01662655
-0.019513378 0.038192928 -0.0803811 0.045741625 -0.0037186223 0.054637015 0.028335573 -0.12537113
0.113929704 -0.12189929 -0.0502562 -0.04684872 0.11607605 -0.0629273 -0.07941659 -0.054153465
0.1561878 -0.16550991 -0.16691086 -0.076641396 0.059184182 -0.0990101 0.08876121 -0.08198985
0.09626458 0.1554009 0.08244165 -0.07160807 0.05946428 0.021702884 0.19386414 -0.094951056
-0.14581811 0.11811788 0.08724788 0.13437241 0.13167542 0.159288 -0.04898412 0.033700198
0.1133192 -0.06849019 0.16693072 0.081320755 0.05320667 0.093203925 0.17325857 0.11452094
-0.000524007 -0.09807412 0.1720881 0.12194801 -0.0569806 0.025101539 0.08244511 0.07839673
0.06957134 -0.11976155 0.078876756 -0.063038066 -0.07397081 0.03715721 -0.012073357 0.022354608
-0.060025595 -0.012520762 -0.14105934 -0.10561173 -0.07490247 -0.046328668 0.07926816 -0.10224323
0.008333574 -0.016632386 -0.014228301 0.03330928 0.05587748 0.13560174 -0.046259727 0.134576
0.1874199 0.063769236 0.09754155 -0.053607415 0.04641516 0.12788671 -0.05490327 0.1551454
0.12406771 0.081838526 0.17035015 0.053884488 -0.11872468 0.03318226 0.16998556 -0.07739602
0.095618635 0.13320819 0.12943101 0.0644737 0.13945238 -0.035233196 0.15176342 0.06713203
0.10224859 -0.059255168 0.1512889 0.04846796 0.10178159 -0.026504619 -0.040277343 -0.012527629
0.12132266 -0.003836798 0.15141445 0.16816339 0.048175003 0.09933788 0.042599596 0.047444686
0.13769117 -0.071678616 0.008135677 -0.1297408 0.13786682 0.015212712 0.08302525 0.05140629
0.16170934 -0.092146486 -0.051128168 0.0037817035 0.09363611 0.06564653 -0.1268446 0.16658996
0.039260563 0.16196679 0.046261743 0.051536947 0.17550471 -0.019731225 -0.035260092 0.06878945
0.0032010705 -0.023768751 0.0767067 -0.07828937 0.029856572 0.10969954 -0.090648085 -0.07825415
0.0017174276 0.030344103 -0.0044498146 -0.13020925 0.006500121 -0.1591117 0.09950647 0.06375356
0.0032336568 0.12546939 0.09197174 -0.05744218 -0.12414395 -0.09810009 0.15193884 0.060951542

lstm.weight_hh_l0 f4 [192, 48]
00000000: 283c f13d b095 a63d 66c0 e7bd 4203 3c3d
00000010: 8a9a 363d 2b49 1dbe 450c 2ebe e942 19bc
00000020: ae56 57bd 3ee7 7f3d fc9f 3ebc 6520 0d3d
00000030: 9c66 183e cfe2 0f3d 6e2c 7bbd 6168 e53d
00000040: 3486 32bd 5396 db3d a519 9bbc 8e7c 11be
00000050: 847b 85bb a749 153e 3dc0 773d b43f 1abd
00000060: 0f35 4fba b864 3c3d 1582 96bd 43de af39
00000070: 4de8 3ebe bd97 0dbe 9e71 20bd 2d9e 18bd
00000080: a6e9 2bbd 7d28 9bbd 9f9e 85bd 515a 5c3c
00000090: b3c0 7e3d 2c1c babd c46c 2ebe 1be6 043c
000000a0: 68b1 8cbd 2711 b7bd 10ae 5fbe 6655 e4bc
000000b0: 2727 373d 7364 c3bd ae08 8abc 4057 b63d
000000c0: eb21 c1bd eb97 2cbd 5c9c b9bd 69b2 b63d
000000d0: 662c 95bd daa4 3abc c838 e13d 7c17 38be
000000e0: 9fde 6f3c 5fb6 bbbc 93ad f33d 1864 0fbd
000000f0: 9cda 053e 318a b7bd 83de a63d 95da 51bd
00000100: 178e ec3d 3306 f93d 529a 143b c06a 1fbe
00000110: b2e4 963d d2bb 4c3e 9ec5 583d 9f18 acbd
00000120: 5be5 20ba d50d 11be a116 52bd f25f c5bd
00000130: 0b2d 1abe cc02 93bd 9d16 5ebd 7c07 c43d
00000140: 5680 09be c46c abbd cede 953d a8eb c03b
00000150: 96c4 c3bd 0c87 963c ed5c 853d de68 2a3e
00000160: 66cb b93c c962 47bd 4c58 aabb 1aa7 67bd
00000170: 08e7 f23c f695 80bd f8c0 32be a841 8abd
00000180: 8965 debb dce6 e1bd ce72 e43d f527 87bd
00000190: 9f20 0bbe 8fab 2ebe 8809 72bd 8cde 2fbc
000001a0: 9899 a03c 52e2 933c d615 303e 8a12 a6bc
000001b0: 69f6 b43d b86f 493d 7bec 9ebc 2e77 d4bd
000001c0: c596 8c3d 9bf3 33be ab16 b7bd 1d67 03bd
000001d0: 3b07 ffbd 859b a43d df3f 6c3c 7ad5 ffbd
000001e0: 9115 c9bd 5d88 273d aaac 30be 6cd8 52be
000001f0: 9066 15be eff9 ffbd 40b1 d73d 09a0 583d
00000200: 8edb 193e 02e3 223e 5069 81bc d54d a6bc
00000210: 53b2 2f3d 4174 f23c 6f29 ae3b b561 173e
00000220: a7df be3c e05e de3d a636 333d 76f8 473e
00000230: 1030 d33c d06b 22bd f31f 0cbe 5908 89bc
00000240: 168b a43c 0a03 a53c 8aa7 83bd 788d d13c
00000250: 89f3 2bbe 5110 59be 226e 46bd 9657 41be
00000260: daaa 9cbc bfb8 313e a78f 063d fa95 17be
00000270: 6da9 f93d db00 823c c1b5 bc3c 7e8c 853c
00000280: 2725 c13c d33a f0bd 66d5 233e 50af 9abd
00000290: 9a7a df3b b963 413e d946 86bd 8d06 f7bd
000002a0: 79c9 f4bd 308e 24bb 36f3 753b eeca d03c
000002b0: 85a2 c4bd 0a58 1cbe 1048 6f3d ba4e 323e
000002c0: 2523 713d b44f 5cbb ba8f 883c 4f11 b23d
000002d0: 037b e63c a6a7 fbbd 42cb 01bc 1586 293e
000002e0: b980 363e 0e2e 1dbe e99c 953c 0e03 9bbd
000002f0: ab5c babc d2bc a4bd 3ebd 2dbe c165 fe3d
00000300: ee1f 883e ffcd d1bd eb4d 553e f02e 1abe
00000310: 6d48 5abe e048 36be c4d7 34be a703 24be
00000320: 01fa b83c c1eb 003e f6d4 7a3e 6c45 ea3b
00000330: 1cb3 a4bc ad19 f73d 293c 683e c63d 60be
00000340: 13f8 183e 32ad 98be 9b16 6d3e c139 793d
00000350: 2f0d 2ebe 7ed7 68bb a0f7 473e f785 42be
00000360: bca4 14be 1ea4 8f3e b52c 6bbe b492 8dbe
00000370: e166 20ba 9f0b c8bd 9dd9 653d 03ce fc3d
00000380: cb70 4d3d 6df7 3a3b e1f0 943d f003 943e
00000390: 0185 54bc ec65 0abe f7d8 49bd 68fd 823c
000003a0: b644 1f3e 209d b9bb 27df 25be b673 e03d
000003b0: 3fda 813d 8910 0e3a 8ca6 8cbe b3f4 583d
000003c0: 833b 3a3d d320 59be 52fa c73d f971 24bd
000003d0: 2164 97bc e036 5dbe 075f 053c 3c28 8b3a
000003e0: 81bc 5bbe 3da1 033e 58a6 5b3e 78d7 193d
000003f0: 615d 0d3e 12b3 8bbc b9b3 61bd 7d6f cebd
0.11779052 0.081340194 -0.11315994 0.045901544 0.044580974 -0.15359943 -0.16996868 -0.0093543315
-0.0525729 0.06247639 -0.011634823 0.034454722 0.14882892 0.03512841 -0.06132167 0.11201549
-0.043585017 0.107220314 -0.018933127 -0.1420767 -0.004073562 0.14578877 0.060486067 -0.03765841
-0.00079043297 0.04599449 -0.0734903 0.000335442 -0.18643303 -0.13827415 -0.039170854 -0.037260223
-0.04197087 -0.07576082 -0.06524395 0.0134492675 0.06219549 -0.090874046 -0.17033678 0.008111502
-0.06869775 -0.089388184 -0.21843743 -0.027872752 0.044715073 -0.095406435 -0.016849842 0.0890336
-0.094302975 -0.042137068 -0.09063026 0.08920748 -0.07283859 -0.011391843 0.10997158 -0.17977709
0.014640479 -0.02291411 0.11898341 -0.035007566 0.13071674 -0.08961905 0.081479095 -0.051233847
0.11550539 0.121593855 0.002267499 -0.15568066 0.07367839 0.19993523 0.052922837 -0.084031336
-0.0006137692 -0.14165433 -0.05129111 -0.09637441 -0.15056245 -0.07178268 -0.054220784 0.0957174
-0.13427863 -0.08370355 0.07317887 0.0058874674 -0.0955898 0.018374942 0.06511865 0.16641566
0.022679996 -0.048678193 -0.005198514 -0.056555845 0.02965118 -0.06278603 -0.17456424 -0.06750804
-0.0067870063 -0.11030361 0.1115471 -0.06599418 -0.13586663 -0.17057632 -0.05909112 -0.010734212
0.01960449 0.018052254 0.1719583 -0.020272512 0.088360615 0.04917881 -0.019399872 -0.10374294
0.068646945 -0.17573397 -0.089398704 -0.03208076 -0.12452551 0.080374755 0.014419525 -0.12491889
-0.098185666 0.04090153 -0.17253366 -0.20590371 -0.14589906 -0.12498843 0.10531855 0.052886996
0.1502516 0.15906909 -0.015797287 -0.020300785 0.042894673 0.02959645 0.005314998 0.14783366
0.023300005 0.1085794 0.04375329 0.19528374 0.025779754 -0.0396536 -0.13684063 -0.016727613
0.020085853 0.02014305 -0.0642844 0.025580153 -0.1679212 -0.2119763 -0.048444875 -0.18881068
-0.019124437 0.17355631 0.03285184 -0.14803305 0.121905185 0.015869549 0.023035886 0.016302343
0.023577286 -0.1172997 0.15999374 -0.075529695 0.006820035 0.18885697 -0.06556482 -0.12061796
-0.1195249 -0.0025109164 0.0037528998 0.02548739 -0.09601311 -0.15267959 0.058418334 0.17412844
0.058871407 -0.0033616843 0.016670097 0.086947076 0.028134828 -0.12287836 -0.007921996 0.16555054
0.17822541 -0.153496 0.018263297 -0.07568942 -0.022749266 -0.08043827 -0.16966721 0.12421752
0.2658686 -0.10244369 0.20830505 -0.15056968 -0.2131669 -0.17801237 -0.17660433 -0.16017018
0.022580149 0.12589933 0.244953 0.007149389 -0.020104937 0.12065444 0.226792 -0.21898565
0.14938383 -0.29819638 0.23153155 0.060846094 -0.16997217 -0.0035528834 0.19528055 -0.18996416
-0.14515966 0.280549 -0.22966273 -0.27650988 -0.0006118846 -0.097678415 0.056115735 0.12343981
0.050156396 0.0028528825 0.072725065 0.28909254 -0.012971164 -0.13515443 -0.04927918 0.015989974
0.15553555 -0.0056644827 -0.16198407 0.1095957 0.06340455 0.0005419334 -0.27470815 0.05296774
0.04546691 -0.21203928 0.09764542 -0.040147755 -0.018480362 -0.21602964 0.008140332 0.0010616849
-0.21458627 0.12854476 0.21450174 0.037559003 0.13805152 -0.01705316 -0.055103038 -0.100798585

lstm.bias_ih_l0 f4 [192]
00000000: 7627 883d 3c98 763d f577 75bd 61a4 8cbd
00000010: c9cd 13bd 5b70 4cbd 4d07 ae3d b833 763d
00000020: 419a 9e3d 16a7 043e b630 dc3c 7d06 ecbd
00000030: 3bd8 2bbd 4ca1 8f3d 7637 9cbd 1ccd ee3c
00000040: c234 11bd 8dd1 923d 6a72 1f3e 7330 5fbd
00000050: 24e4 223e eee6 a63d 77e3 053e 71c4 a93d
00000060: eda1 2fbd 4a94 673d 2293 113e 6651 af3d
00000070: f18f 2a3b f9ac 243d a1c1 c5bd 8fb9 123e
00000080: dfb5 a8bd 15fb 073c 55fd 023e de72 9fbd
00000090: 517b cdbd 5d93 d33d fe7e a8bd 93bc c83d
000000a0: cf49 a9bd 144f 4d3e 6154 c43d 1f2c 68bc
000000b0: 7dbd 9d3d c7ed a63c 217a 8e3d 8b9a babd
000000c0: b1fc e93b 8d38 433d 3691 103c 00c0 063e
000000d0: 3d96 e6bc 9e20 d3bd 281e c13d 5ba6 303e
000000e0: cbde 933c fd08 e33d e0ae 40bd 3c7e c0bd
000000f0: c5a5 233c 6a5d 8e3c 4353 26bd 7d2a c63d
00000100: b7b4 ed3d adf6 cabc 36ff dbbd 8fbf c6bd
00000110: 2330 8b3d 02be 453e b9ef 1b3d c74a 003e
00000120: 3de0 0a3d c8f6 7fbd fd9b 793d bde2 e9bc
00000130: 94fa d13d 7376 f53b 2a37 b63d 0deb c8bd
00000140: 0a1e 84bc ba60 debd a678 67bd bb74 163e
00000150: 48ee a1bd 00dc 163e 3bb3 e23d 4f37 0a3c
00000160: b5a3 0f3e 2b58 ccbc 4c51 f33d 7b41 3a3d
00000170: fd8f cabd 2634 ebbd 120a 363c 848b 873d
00000180: 599d fe3c c517 453d 7b79 d13d 0e61 afbd
00000190: 3bc5 e33d 789f 993d 1efd eebc 344d 5dbd
000001a0: 51f8 033e 1174 19bd cb3d bdbd f30f 0dbe
000001b0: ee89 c7bc d4f0 843c 4a72 75bd fed9 0b3e
000001c0: eb11 193e b4a6 1e3e db4f 5f3d 451d 14be
000001d0: 0719 19bc abcb 1bbd 919a de3d 7b0b f0bd
000001e0: 2bba 873d d40c 50bd c5bc 5dbd 9543 6fbd
000001f0: eed0 cbbd a7c2 b9bd 177b 74bd 928c bb3d
00000200: 9fcd 803d 0b14 983d e83c 1fbe 3822 8a3d
00000210: ca12 a0bc f3fb 95bc 6f32 e5bd 023f c23d
00000220: b22a 543d c435 d9bd e874 023e 7823 d7bc
00000230: 8fc1 28bd f1be cabd 2c94 ffbd f41f 1ebd
00000240: a11f 3e3e 448c fc3d 7803 e03d b0eb 243e
00000250: 5787 cabd 8090 5a3b 4fe1 443d df14 8f3d
00000260: e33f 3c3d 5dcc de3d b9a7 debd fe3b dfbc
00000270: c4ac e63d 82af 60bd 4514 343e b924 303e
00000280: 21d1 afbc c00f 493e a41c 043c 65f3 b8bd
00000290: 395d d43d 8470 213e e2ac e33d 6ab8 2d3c
000002a0: 7aeb 113d b1c0 433e 1add 153e 0a0e 1ebd
000002b0: 7582 32bc 5dad 8e3b df6e 583d c0e8 473e
000002c0: 171b 62bd 388b f13d 1967 533e 10b0 863c
000002d0: d6f6 fa3d 705b c43d 0f38 3f3e 4be7 50bd
000002e0: 5b9e ac3c de44 723e 30a3 813d 81af a13d
000002f0: 2b85 9abc d3c0 28bd af1b 163e 10ae a53d
0.066481516 0.060203776 -0.059928853 -0.0686729 -0.036084924 -0.049911838 0.08497486 0.060107917
0.07744265 0.12954363 0.026878696 -0.11524675 -0.04195426 0.07013187 -0.07627766 0.029150538
-0.035450704 0.07168875 0.15570989 -0.054489564 0.15907341 0.08149515 0.13075052 0.08289421
-0.042879034 0.056537904 0.14216283 0.085604474 0.0026025737 0.040204022 -0.096560724 0.14328597
-0.08237814 0.008299609 0.12791951 -0.07785581 -0.10033286 0.10330842 -0.08227347 0.09801593
-0.08266031 0.20049697 0.095864065 -0.014170676 0.07702158 0.020377053 0.06956888 -0.09111508
0.007140719 0.047661353 0.0088236835 0.1315918 -0.028147811 -0.103089556 0.0942958 0.1725096
0.018050572 0.11085699 -0.047041774 -0.09399077 0.009988253 0.017378528 -0.04060675 0.09676073
0.11606734 -0.024775827 -0.10742037 -0.09704506 0.06796291 0.19310763 0.038070414 0.12528525
0.033905257 -0.06249121 0.060939778 -0.0285505 0.10252872 0.007490927 0.088972405 -0.098104574
-0.016127605 -0.10858293 -0.056511544 0.14692967 -0.07906777 0.14732361 0.11069342 0.008436038
0.14027293 -0.024944386 0.118807405 0.045472603 -0.09890745 -0.11484556 0.011110799 0.06618407
0.031080889 0.04811837 0.10228249 -0.085634336 0.11121603 0.075011194 -0.02917343 -0.054028705
0.12887694 -0.037464205 -0.09240302 -0.13775615 -0.024357762 0.016228117 -0.059923448 0.13657376
0.14948241 0.1549328 0.054519515 -0.1446429 -0.009344346 -0.03803603 0.10869325 -0.1172094
0.066273056 -0.050793484 -0.054135103 -0.05841406 -0.099519596 -0.0907033 -0.0596877 0.09157671
0.06289219 0.07425698 -0.15550578 0.06744808 -0.01954021 -0.018308615 -0.1119126 0.09484674
0.05179853 -0.10605958 0.12739909 -0.02626203 -0.041200217 -0.098997004 -0.124794334 -0.03860469
0.18566753 0.12331441 0.109381616 0.16105533 -0.09889095 0.003335029 0.048066434 0.06986403
0.045959365 0.10878823 -0.10871834 -0.027250286 0.11263421 -0.054854877 0.17585857 0.17201509
-0.021462025 0.19634914 0.008063469 -0.09030799 0.10369343 0.15765578 0.11116959 0.01060305
0.03562496 0.19116475 0.14635125 -0.038587607 -0.010895361 0.0043541626 0.05284011 0.19522381
-0.055201616 0.11794132 0.20644797 0.016441375 0.122541115 0.09587753 0.18673728 -0.05100183
0.021071604 0.23659083 0.06329954 0.07894803 -0.018862328 -0.041199517 0.14658998 0.080898404

lstm.bias_hh_l0 f4 [192]
00000000: 7918 bc3d fc5e c23d ca5b 483d 7ce2 54bd
00000010: 32c2 353d 6aac 123e aa11 853c 3891 8cbc
00000020: 8bf9 0f3e dcbe e93d 82c0 fe3c 2216 da3d
00000030: bc2c 8ebd 7de4 f83d 31a7 b9bd 4e6e 0e3d
00000040: 4e1b bb3d e8f0 8d3b 7bdd a63d 0b94 b3bd
00000050: eef3 a23d ad4f c7bd 3cb6 2c3c 73cc 47bd
00000060: 55b6 57bd a0a7 f43d eb2e 5abb 3771 3fbd
00000070: 4eb8 ae3d ba0b 21bd 600f e4bd e124 cd3d
00000080: 7ddb f43d 9c9b 8c3d c4d9 313e ec25 0a3e
00000090: 662c bfbd 6fdb 99bc 203a b63d c03d 013d
000000a0: 0c72 55bb 4c36 203e dd74 303e 6a39 e33b
000000b0: 9b2b 3a3e 4dc9 683d 4014 b6bd f363 023e
000000c0: 4063 e83d 1e61 ccbd ffa4 dbbd 5e45 b93b
000000d0: cac7 153d 5e99 f3bd 9296 d63d db85 073e
000000e0: de03 173c 8f26 fabd ab0d edbc 6d52 9f3d
000000f0: 37b2 083c c0a9 e93d 1a12 8e3d ff58 a1bd
00000100: d0f7 2bbd 461e bcbb 832c e83d 7ddf c2bd
00000110: 9af7 c9bd 6850 3d3e be1e a1bc 3e10 8a3d
00000120: 73c0 02bd 497a 12bd 11d2 063e c1da 9f3c
00000130: 64f5 eebd 75a1 8a3d 81b7 7f3b 1bcb c9bd
00000140: 1ea9 92bd 75f0 953d 469d 80bd 5e24 00bd
00000150: 79b5 f6bc ac0c 613d 1296 52bd 4094 1b3a
00000160: 3880 773d d167 df3d 87d7 aebd 2f24 623d
00000170: c51a f4bd 678b d03d b580 c4bd 300e 86bc
00000180: 4541 8b3d 88a5 2cbb 094e 9fbc f887 10be
00000190: af1d 7bbb 0507 5a3d 18a2 e23c b1b5 3f3d
000001a0: 9a4e 0bbb b8b6 0bbe 1f66 6e3c 3888 f7bd
000001b0: 1732 d2bc f872 5cbd 502e 0f3d 34b4 c83d
000001c0: bf59 853d 0f7b ed3d c1b8 8f3d 18f3 6c3d
000001d0: 0f78 eabd e334 a2bc 6fd9 d13d 766e 93bd
000001e0: e061 883d 9af8 24be 9652 a13d ee29 be3d
000001f0: 7755 ccbd b446 9c3d 53da 36bd e642 16be
00000200: 0d96 a83b d404 abbd aa7b ae3d 42ed beba
00000210: 566b 713d 8843 0b3e aa94 163e 12d7 6f3d
00000220: cfa3 07be b456 713b 5542 76bd e82f 37bc
00000230: f4cf 0cbc 4b46 24be 01c4 ac3d 1b18 683d
00000240: 1c10 3a3c b0b5 b5bc 4371 113e 8376 333e
00000250: 6823 31bd 2691 a6bc 6979 93bc 801a 4d3d
00000260: 92ff 293e f29d f73c 7ed9 b1bc c609 0b3e
00000270: 81d2 903d 25fa a7bd 0047 d93d dac8 20bd
00000280: 951c db3c d51d 343e 169e 7bbd 5784 a1bc
00000290: 1706 b93c cca0 203e 9864 253e 51d4 8a3c
000002a0: 7db8 cabd 2635 4a3e c645 eb3d f909 c43d
000002b0: dcc1 313d 015a 47bd a9ea adbd 7245 343e
000002c0: ade4 bdbd 66ee b4bd 1c61 833d 0851 1e3e
000002d0: d8f4 99bd 70d3 a8bd be72 1b3e 203b 373c
000002e0: 2cbe 033e 6855 4a3e 6443 dd3d 638e 253e
000002f0: 0414 053e 0c1c acbd 4479 0a3e 96ad 45bd
0.09184355 0.09490773 0.048915662 -0.051973805 0.044374652 0.14323583 0.016243774 -0.01715909
0.14060037 0.11413357 0.031097654 0.10648753 -0.06942126 0.12152956 -0.09065092 0.034773163
0.09136067 0.004331697 0.08147713 -0.08768471 0.07956682 -0.09731994 0.010541495 -0.048778962
-0.05266412 0.119460344 -0.0033292125 -0.04673883 0.08531247 -0.039317824 -0.11135745 0.100168
0.119559266 0.06865618 0.17368227 0.13491029 -0.0933464 -0.018781392 0.08897805 0.03155303
-0.0032569198 0.15645713 0.1723208 0.0069343345 0.18180697 0.0568326 -0.08890581 0.1273344
0.113470554 -0.09979461 -0.1072483 0.005654021 0.036567487 -0.11894487 0.10477938 0.13234656
0.009217231 -0.12214386 -0.028937181 0.07779393 0.008343271 0.1140933 0.06937046 -0.07878303
-0.04198438 -0.0057409136 0.11336615 -0.09515283 -0.098616794 0.18487704 -0.01966798 0.06741379
-0.031921815 -0.03576115 0.13166071 0.01951349 -0.11667898 0.06769077 0.003901929 -0.098531924
-0.07161163 0.07321254 -0.062799975 -0.031284682 -0.03011583 0.054943725 -0.05141265 0.0005934872
0.060425013 0.10908473 -0.08537202 0.05521029 -0.119191684 0.10182839 -0.095948614 -0.016364187
0.067995586 -0.0026343782 -0.01944639 -0.14114368 -0.0038317253 0.05322935 0.027665183 0.046804134
-0.0021256567 -0.1364392 0.014550715 -0.120865285 -0.02565865 -0.05382058 0.034956276 0.09799996
0.06511258 0.11595737 0.07017661 0.05784902 -0.114486806 -0.019800609 0.1024655 -0.07198803
0.06659293 -0.16110459 0.0787708 0.09285341 -0.099772386 0.07630673 -0.044641804 -0.14673957
0.0051448406 -0.0835053 0.08519681 -0.0014566558 0.058940254 0.1359998 0.14705148 0.058554716
-0.13246082 0.003682536 -0.060121853 -0.011180855 -0.008594502 -0.1604244 0.08435822 0.056663614
0.01135638 -0.022181362 0.14203362 0.17525677 -0.043246657 -0.020332884 -0.018002229 0.0500741
0.16601399 0.030226681 -0.021710154 0.13577947 0.070714004 -0.08202008 0.10609245 -0.039254047
0.026747027 0.17589505 -0.06143006 -0.019716425 0.022585912 0.15686339 0.16151655 0.016946943
-0.098984696 0.19746837 0.114879176 0.09572215 0.04339777 -0.04866982 -0.084920235 0.17604616
-0.09272132 -0.088345334 0.064150065 0.15460598 -0.07517403 -0.082434535 0.1518049 0.01118353
0.12865514 0.19759142 0.10803869 0.16167597 0.12995917 -0.08403787 0.13522822 -0.048261248

mlp.0.weight f4 [256, 54]
00000000: 4922 3ebd 943a c9bd d524 d93d 4bae 4ebc
00000010: f18a 71bc fe82 813d 4ffd 083c e81c 67bd
00000020: 4afa 00be 953e 4fbd 59c0 dcbc a0f2 043e
00000030: 98d9 66bd 6ba9 c53d 5889 ebbd 10ff 25bd
00000040: a95b 643d 7ebb e4bc b889 8dbd 3083 06bd
00000050: af82 f6bd cc69 023e 12fb c23d 0190 003e
00000060: df9d 03be cef7 473d 5a9b d93c b6ae ff3c
00000070: f237 fcbd 39d8 133e 266b be3d a62b e4bd
00000080: 1160 d43c 34b4 b23d 0635 c8bb aa93 e53d
00000090: 3258 ccbd 6cde 143d 6c70 a83d 3834 da3d
000000a0: 9ba1 043e 29b1 a33d f51b bdbd e22d 973d
000000b0: 220a 29bd 34d7 a7bd ace8 0c3d 23e8 e5bc
000000c0: 7b3a f0bc 20b2 e1bc c894 d23c 7431 38bd
000000d0: 3647 d23d 08f3 103c 21b7 4f3d 54b1 bebd
000000e0: 703e 5abd 8a7c 843d df05 783d e916 1a3d
000000f0: e38f 03bc 6be8 23be 5d99 c9bc 0088 873d
00000100: 09a3 29be 9eef 263d 4b00 833d d559 97bd
00000110: 6450 02be 59bc b53d 1d59 c03d bd4d e2bd
00000120: 79f5 e23b 4b66 003e 3f85 393e 6aee 6b3d
00000130: c206 783c f5c7 c03c 02c9 ec3d d2fb 9d3d
00000140: 4e2f dcbd 8bdc 0e3e 8bfd 463e 0c8f 9cbd
00000150: ef85 b8bd 5dde fc3d d3e5 21bc da6c 07be
00000160: 1ea9 34bd 7560 2abe 802a 113e 19fc 103e
00000170: 41cc 8cbd 9b06 21bd 381a c93d e7fb 923d
00000180: 04b0 6bbd 860c ac3d 1624 07be bfb1 543e
00000190: 9e7d b13d 80e9 87be 4adb 39be b2ed 963d
000001a0: 383c 1c3e 5c8e 36be cbf5 1ebe b311 c0bd
000001b0: ad8e cfbd 7001 02be 36e1 b83d 810c e7bd
000001c0: 2e47 b93d 040d b23d 9008 053e ebb4 2abd
000001d0: 4cf2 77bd ab12 e139 043b c4bd 3e31 64bd
000001e0: ec47 c0bd cb6e 14bc 3419 fcbd 7328 7c3d
000001f0: 50c4 083e e547 3cbd 61a2 d63d 052b e1bd
00000200: 32ce b63d 3f72 07be 042a d4bd 419e 87ba
00000210: afca 093e 1500 0b3e 8a76 debd 557f 463d
00000220: b3cd b43d 1f7b af3d 8ac2 ad3d 4ccb 1a3e
00000230: 98d0 4bbd b93b 95bd 62df 05be b75f 683d
00000240: b2b1 df3d 8319 02bd a488 b63c 1dcc 63bc
00000250: 4ebf 6f3d 7cf9 913d 6e83 55bd 9fd9 0dbe
00000260: fcd2 353c b882 e6bc 2017 71bd 8810 f4bc
00000270: a2e9 2abc 6814 ef3d d225 a83c 6e22 20be
00000280: 1fa6 e13d 08a2 a0bd e662 15bc a094 db3a
00000290: cee2 7fbd f5bb 7cbd 40da aabd 97c9 d3bd
000002a0: 82b3 b43d b331 29be 0661 0c3e 783b 543d
000002b0: 6fef 12be 2a77 55bd 9878 dbbd a5af 57be
000002c0: e810 a2bd 9029 7dbd 954d 3a3e 48ab 96bd
000002d0: a675 093d 36c3 153e 83f6 85bd ef49 6a3c
000002e0: 7ded 623a 4a71 183c e879 6a3d 477c dd3d
000002f0: e059 47be 1b94 533e e84f ec3c cd69 36bd
00000300: 31e8 e9bd 961b b5bd 31b3 dbbd 96ee f2bd
00000310: 1563 9abd 9e6b 14be 718e 6d3d 1c83 db3d
00000320: 9f21 e23d 3af1 483d 0541 353e eb41 9d3b
00000330: 45ae de3c ff50 0ebe ba05 2ebc d2e7 093e
00000340: 7c4d d83d d208 6ebe dd75 f6bd 0052 3b3e
00000350: 572f f93d a55e a93d e8dc e0bd cd1c 713c
00000360: d5b1 b13c f0a4 93bb 40a5 f3bd e2c6 cc3d
00000370: 9145 2dbd 39f8 163d e792 45bc 6322 dfbd
00000380: f52f 83bd de9f 1a39 645b 213d 4a82 90bd
00000390: 9e6e b5bc 11d6 d9bd 6f6f c5bd 4acc c83d
000003a0: 300e 92bd fe06 a83d a327 253e 7263 46bb
000003b0: c23c d03c e257 4b3d 24df 6e3c e8e8 873a
000003c0: c404 263d b8d1 263e ef8c 22be 4984 433e
000003d0: e31c f4bc eddf 953d 59bc 1fbe 47d5 80bd
000003e0: 3654 32be abef 423d 41b3 d2bd 22e7 09be
000003f0: 1d95 e63c 8127 253e 258c b7bd d800 053e
-0.046419416 -0.09825626 0.10602728 -0.012614797 -0.014742599 0.06323813 0.008361175 -0.05642405
-0.12595478 -0.050596792 -0.026947187 0.12983179 -0.056359857 0.096514545 -0.115008056 -0.04052645
0.055751476 -0.027921434 -0.069110334 -0.032839954 -0.12036645 0.12735671 0.09520544 0.12554933
-0.12853192 0.04882031 0.026563335 0.031211238 -0.12315358 0.14437951 0.09297781 -0.11141138
0.025924714 0.08725777 -0.0061098365 0.11209805 -0.099777594 0.03634493 0.08224568 0.10654491
0.12952273 0.07992775 -0.09233848 0.07381798 -0.04126943 -0.081953436 0.03440158 -0.028064793
-0.02932476 -0.027550757 0.02570571 -0.044969037 0.10267489 0.008847006 0.050711755 -0.093111664
-0.0532822 0.064690664 0.060552474 0.037619505 -0.008029911 -0.16006629 -0.024609262 0.06617737
-0.16566099 0.04075586 0.0639654 -0.07390181 -0.12725979 0.08873815 0.09391997 -0.11049984
0.0069262353 0.12539022 0.18117236 0.057600416 0.01513833 0.023532847 0.11561777 0.077140465
-0.1075121 0.13951318 0.19432656 -0.076444715 -0.09009921 0.123471 -0.0098814545 -0.13225117
-0.044106595 -0.16638358 0.14176369 0.14158668 -0.06874896 -0.03931294 0.09819454 0.07176953
-0.05754091 0.08400826 -0.1319736 0.2077093 0.08666538 -0.26545334 -0.18150058 0.073695555
0.15257347 -0.17827743 -0.1552345 -0.09378376 -0.10134635 -0.12695861 0.090273306 -0.11281682
0.090467796 0.08693889 0.12991548 -0.041676443 -0.060533807 0.00042929253 -0.09581569 -0.055711024
-0.09388718 -0.009059618 -0.123094946 0.061562013 0.13356137 -0.045967 0.1048019 -0.109945334
0.089260474 -0.13227175 -0.10359576 -0.0010346846 0.13456224 0.1357425 -0.10862453 0.048461277
0.088282965 0.08568405 0.08484371 0.15116614 -0.049759477 -0.07286782 -0.13073495 0.056731906
0.109225646 -0.03176261 0.022281952 -0.013903645 0.05853205 0.071276635 -0.052127294 -0.13852547
0.011097666 -0.028138503 -0.058859944 -0.029793039 -0.010431679 0.11673814 0.020525847 -0.15638134
0.11018013 -0.07843405 -0.0091178175 0.0016752668 -0.062472157 -0.061702687 -0.08342409 -0.103411846
0.08823301 -0.16522865 0.13708887 0.051814526 -0.14349149 -0.052115597 -0.10716361 -0.21063097
-0.07913381 -0.061807215 0.18193658 -0.07356888 0.033559464 0.14625248 -0.06541159 0.014299854
0.00086566043 0.009304354 0.057245165 0.1081472 -0.19467878 0.20661967 0.028846696 -0.044534493
-0.1142124 -0.08843152 -0.107275374 -0.11861913 -0.0753843 -0.14494178 0.05799717 0.107183665
0.11041569 0.049058177 0.17700584 0.004799118 0.027182708 -0.13898085 -0.0106214825 0.13467339
0.10561654 -0.23245552 -0.120341994 0.18293 0.121672325 0.08270005 -0.109796345 0.014716339
0.021691242 -0.004505746 -0.11896753 0.099988714 -0.04230267 0.036857817 -0.01205895 -0.108952306
-0.064056315 0.0001474614 0.039393798 -0.07056101 -0.022147473 -0.10636533 -0.09640395 0.0980459
-0.07131612 0.08204459 0.16128401 -0.0030271676 0.025419597 0.04964436 0.014579568 0.0010369094
0.04053189 0.16290939 -0.15874074 0.19093432 -0.02979893 0.07318101 -0.15599193 -0.062906794
-0.17414936 0.047591846 -0.10288096 -0.13467076 0.028147275 0.16128351 -0.08962277 0.12988603

mlp.0.bias f4 [256]
00000000: 11be ed3c b05d b5bd 6ba4 aa3d e5ac 023e
00000010: 8d5d bc3d 191f e5bd 84c3 b7bd 2597 323c
00000020: fcf5 783d 07c2 06be 6024 d2bd 30a0 ebbd
00000030: a5d4 bd3d 53ff 0b3e 6b9d fdbb b7af 88bc
00000040: 79f4 9c3b 958e dabd 4107 613d da73 143d
00000050: edb6 2abc f0f2 7dbb c7be 34bd 7e9f 86bd
00000060: cc81 ddbd 6fe5 f23d 975f fd3c 6d97 9cbc
00000070: f688 6d3d a455 3e3d a06e 9f3d ee4e ea3d
00000080: eadb 0ebe 8f16 a4bd e468 bd3c aba2 1dbd
00000090: 9a59 60bd 2d47 073e a035 553d 2bd0 043d
000000a0: 6e50 843c 115e 12bd 4c9a 813d 25bd 473c
000000b0: 474e fb3b ac44 843c 6c16 a43b 0b19 2a3d
000000c0: 95ee 283e a197 94bd 00ca a0bd d07f 063e
000000d0: e36f 9abd 602b edbd 4ffe aebc 6de9 7ebd
000000e0: e871 143c ae26 b5bc e0f3 b43c 64df 033e
000000f0: bb28 cebd d66a 83bd 3015 82bc 8525 f1bd
00000100: 4529 f93b d0bd babd 0adc 3cbd f4ef 243d
00000110: bbc9 d3bd 0733 f9bd abd5 b13c d970 883d
00000120: 6b2f 03be 50d1 a7bc 4fa7 383d c096 8cbc
00000130: d66d babd 542a 033d 4bdc 9bbc 8cad bebd
00000140: d234 ffbd 7094 083e 5a52 c2bd fa0f d2bd
00000150: 7d97 e5bd ca5b 853c 8927 35bd acaf fc3d
00000160: 41a6 a93c 7d15 f03d 2cfc 923d d46a 09be
00000170: 4483 b0bd c28b 843b 9aa3 963d cc2c 193e
00000180: 80f2 8e3d 0f21 d73d e193 1b3d 6101 893d
00000190: 25fb f23d bb71 41bd 267f 0b3d a144 75bc
000001a0: 53f3 273d f21f 5dbd 3e75 9cbd 77b8 343c
000001b0: af7c c0bd e9ce 903d b302 b4bc 721b fe3d
000001c0: d729 bfbd e85b 833d b5c2 f43d d450 8bbc
000001d0: 50d7 a6bd 82cf 463c 422b 60bd 2df9 a7bc
000001e0: c36f 2e3d 0dfc 553d f1dc 043e 4f56 32bd
000001f0: 9c79 443d b322 3d3d d2ec 09be 3020 01be
00000200: 0281 213d bd3c 09be c574 f63d b1bc f43d
00000210: 1f19 6f3d d7ea a63d 6add d8bd 71a5 2e3d
00000220: fc18 8f3d 0d00 b03c d049 d73d 1a2e 373d
00000230: 1d9a 013e b090 18bd 4a5f e23d 676d 2cbd
00000240: b00b abbd cbeb 98bd 5180 00be bc43 bdbd
00000250: bfba ef3d e98a 66bd 2643 283d cc26 173e
00000260: 463f 853d 7c19 a2bd 8b52 d2bd a761 1b3e
00000270: 7bfe c0bb 0aec 21bd 90d8 73bd 2a05 d6bc
00000280: a149 723d cb4d cebd 70fb f0bc 8d6b 5cbd
00000290: 51e1 70bd 8384 9c3d 7e3e 1d3d 6589 87bd
000002a0: 7a55 783d 14aa efbd db38 253d 94e1 8c3b
000002b0: 16ad d7bd 9fe7 74bd cb70 96bd 33e8 f33d
000002c0: 6931 0f3e 9868 00be da9b 313e 5e91 e23d
000002d0: f635 efbd 5112 03be 323a 143e ebe7 0f3d
000002e0: fbfc cebd 2073 f93d 2109 e4bd 9405 59bd
000002f0: 1084 373d 08df b9bd 704e a5bd 1a2b ce3d
00000300: 8f0e f53d 7029 373d d0ce f8bd 7af5 1bbb
00000310: fca4 363d ed02 dbba c13e b6bd 4d70 e43c
00000320: 32d1 99bb c5a8 b8bd 9271 a43d 072b febd
00000330: 2374 afbd 50a1 37bc 595e 77bd 349e 253d
00000340: b9f4 d1bd 316b b63d 7bde 4d3d 6a1d a73d
00000350: a135 7fbb 64b3 b4bd f30a 08bd 1da9 a0bc
00000360: 64fa f13d a680 913d 3712 353d 09bd 603d
00000370: e6ca b6bd 906e e53d 687e bc3c 8330 80bd
00000380: 633e 2d3d 4685 b2bd 0061 083e 8401 c7bd
00000390: 45b2 ebbc 54b4 a1bd 5483 b53d 4010 ffbc
000003a0: a182 90bc 558d fdbd 74f5 81bc c1f1 ed3c
000003b0: c2b8 b3bd 6ee3 a7bc 7821 7b3d 6890 8fbc
000003c0: 9cd8 043b 0855 a2bc a355 b6bd 6011 84bc
000003d0: 1788 e93d 5f1f a0bd 0ecd 03be 3f25 03be
000003e0: 0f62 ef3c d88f b43b 6d6c 91bd 1ea3 0abd
000003f0: 02ca 06bd 344a 5a3d 5ac6 843c aa35 c3bd
0.029021295 -0.0885576 0.083321415 0.12761267 0.09197531 -0.11187572 -0.089728385 0.0109002935
0.060781464 -0.13159953 -0.10260844 -0.11505163 0.09269074 0.13671617 -0.007739713 -0.01668535
0.0047898856 -0.106717266 0.05493856 0.036243297 -0.0104195895 -0.0038749538 -0.044127252 -0.065733895
-0.108157724 0.11860167 0.03092937 -0.019115174 0.057991944 0.046468392 0.07784772 0.11440836
-0.13951078 -0.08012115 0.023121305 -0.03848521 -0.05477295 0.13210745 0.052053094 0.032425087
0.016151633 -0.03573424 0.06328258 0.012191092 0.0076692435 0.016146027 0.0050075557 0.04152779
0.16497262 -0.072554834 -0.078510284 0.13134694 -0.07540872 -0.11580539 -0.021361498 -0.06223433
0.0090603605 -0.02211317 0.022088945 0.12878186 -0.100663625 -0.06416862 -0.015879244 -0.117747344
0.0076037967 -0.09118235 -0.046108283 0.0402679 -0.103412114 -0.12167936 0.02170833 0.06662149
-0.12811057 -0.02048555 0.045081433 -0.017161727 -0.09102981 0.03202279 -0.019025942 -0.09310445
-0.124612466 0.13337874 -0.094883636 -0.102569535 -0.11210535 0.01627912 -0.044227157 0.12338194
0.020709159 0.117228486 0.07177004 -0.13419658 -0.08618787 0.0040449807 0.07355423 0.14958495
0.06979847 0.10504352 0.037982825 0.06689716 0.11864308 -0.047227602 0.034056805 -0.014969976
0.041003536 -0.053985544 -0.0763955 0.011030308 -0.093987815 0.07070715 -0.021973943 0.124075785
-0.09334152 0.06414014 0.119512 -0.017006315 -0.08146536 0.012134435 -0.054728754 -0.020504558
0.042587053 0.052242327 0.12974907 -0.04353934 0.04796754 0.04617567 -0.13469246 -0.12609935
0.039429672 -0.13402076 0.12033991 0.119500525 0.058373567 0.08150261 -0.105891064 0.042638246
0.06987187 0.0214844 0.105121255 0.0447217 0.12656446 -0.03724736 0.11053331 -0.04209652
-0.083518386 -0.07466849 -0.12548949 -0.09241435 0.11705541 -0.05628482 0.041079663 0.14760894
0.06506209 -0.07915017 -0.1026965 0.1517397 -0.0058897114 -0.039531745 -0.059532702 -0.02612551
0.05915225 -0.100734316 -0.02941677 -0.053813506 -0.05880863 0.07642462 0.038389675 -0.06618003
0.06062839 -0.11702362 0.040337425 0.004299352 -0.105310604 -0.059791204 -0.07345732 0.11909523
0.13983692 -0.125399 0.17344609 0.11062883 -0.11680214 -0.12799956 0.14475325 0.035133284
-0.10106846 0.121801615 -0.11134554 -0.052983835 0.04480368 -0.09075743 -0.080716014 0.10066815
0.119656675 0.044717252 -0.12148821 -0.0023797438 0.044590935 -0.0016709246 -0.08898688 0.02788558
-0.0046941275 -0.09016565 0.08029474 -0.124105506 -0.08567073 -0.0112078935 -0.06039271 0.040434077
-0.10251755 0.08907164 0.050261002 0.08159907 -0.0038941877 -0.088232785 -0.033213567 -0.01961189
0.11815336 0.07104616 0.044206824 0.054867778 -0.089254186 0.11202729 0.023009494 -0.06259253
0.042295825 -0.08716826 0.13318253 -0.09717086 -0.028771529 -0.07895723 0.088629395 -0.031135678
-0.017640414 -0.123804726 -0.015864111 0.029045941 -0.08775474 -0.02049419 0.061311215 -0.017524913
0.002027071 -0.019815937 -0.08903053 -0.016121566 0.1140291 -0.078184836 -0.12871191 -0.12807177
0.029221563 0.0055103116 -0.07100759 -0.033846967 -0.032907493 0.053293422 0.016207863 -0.0953172

mlp.2.weight f4 [128, 256]
00000000: 0cbc ad3c 5258 c53c 9098 753d c1f7 18bd
00000010: b7c3 2bbd 073f 76bc 7cc1 18bd af1d 3b3d
00000020: aa35 63bd 5d63 09bd 6eca 45bd 04e0 08bd
00000030: 3aec 673c c7f4 713d 5485 f93c 6c5f 2b3b
00000040: 9b85 0abc 44e7 ce3c 3716 d4bc f37b a93d
00000050: b83a 67bd 3e33 49bc 1027 af3a 6712 3b3d
00000060: 278c 11bd 01fe 2fbc f29c 61bd 43d4 0f3d
00000070: 0cb9 6fbc a1a3 b63c bde8 243d 20f0 05bd
00000080: 3ac3 383d 134f 54bd 8bba 88bd 3509 363d
00000090: 50da 7d3c 5fdd 76bc 9f56 e13c e423 7c3b
000000a0: 172b 133c 9319 153c 7b9a 663d 547d 4ebd
000000b0: 4696 5cbd af5e 9eb7 b265 693d c283 0c3c
000000c0: a73b 173d 8f84 80bd 39e9 26bd fbb7 9ebd
000000d0: 09f4 3ebc cf7c 833d 67d8 923c 03ab 3e3d
000000e0: ae7c 7fbd 06fb 2c3d 6dc5 76bd c066 1d3d
000000f0: d3e4 103d 71d4 26ba e4c4 663d 3467 a3bc
00000100: 3e2b 81bd 2205 e6bb 19bc 863b 76a3 c1ba
00000110: d16f cb3c b20d 3ebd f2ad ecbc e0f7 553c
00000120: 215c 0abd c335 8bbd 644f d93c 6bb9 2ebd
00000130: f87d 4b3c ec45 223b df8e 9fbc 99da 373d
00000140: 032b 933d bebd 94bb b9ed 713d 066d 13bd
00000150: d505 53bd 1f5c 41bd 61d6 32bd 46cd 07bd
00000160: 2a3f b0bc 70a7 483c c356 8a3d f02e 2a3d
00000170: 5677 1d3d e2b7 50bd 20c4 ca3c 2052 d7bc
00000180: 985f 453c 8b5d 933d 2a1d 07bd 79d9 ab3c
00000190: 5731 cb3a 3165 06bc f99f 3cbd e97f 76bc
000001a0: 137a ef3c 8e38 963d 6cde dc3c f8a6 153d
000001b0: db28 0f3d f10d 9abc d7f1 c0bb aca3 463d
000001c0: 66f3 76bd 0fd5 9dbc 6666 523c 2d21 a73c
000001d0: ce86 1d3c 54b8 adbc e8ab 733d 093c 73bd
000001e0: d2b5 15bd 0cc5 c3bb 40fb 673b 835b 2f3c
000001f0: bdcb 64bd 2cd7 113d f319 50bd 97ed ffbc
00000200: 5692 35bd ac57 58bc 7841 343d a130 4c3c
00000210: 4407 e33c a0a9 8d3d bd3b 9e3b 2d6a 9d3c
00000220: 9025 3d3d 37ad 50bd 8d3a f6bc 80ad a53d
00000230: 7698 f9bb 138e c1bc b91d ff3c dcaf 9f3c
00000240: 05b0 24bd 8d08 7dbd d7b7 99bc ec87 7dbd
00000250: 80b9 03bd b7aa 9838 2e9f e2ba fb55 ef3b
00000260: e5ec f03c 8568 4abd 7a23 6e3c 830e 38bd
00000270: cc37 7c3d 87b7 4dbd eaa2 8fbd 80c8 3ebd
00000280: e96d f2bc 9060 713d e1c7 1dbd 6b3d 28bd
00000290: 3a81 b83a d54e 15bd 0532 abbc 1994 9bbd
000002a0: 405d 173d 912f 95bd cdd0 9d3c 382b babc
000002b0: c1da 033d 762d 403d 53af 95ba 082e 74bd
000002c0: 1ae9 6fbd 469c 19bc b2ce 5c3c 7e36 ef3c
000002d0: 05f2 d73b 80d5 e9b9 4cc6 d2bc 6884 363b
000002e0: 7f93 5bbd 0e04 193d b431 823d 6c3a 8b37
000002f0: 3aba 1cbd 805f f9bc ddb3 01bd 0963 42bd
00000300: a641 4f3d d290 113c 52af e0bb 034a 213c
00000310: e993 e5bc 9278 a1bc a049 fabb 960d bf3c
00000320: b1fb 343d 630f a33d ebec 913d f7cf c83c
00000330: 39ca 20bd 90e1 67bd a4e8 90bb d0a2 53bd
00000340: 83e0 5dbd d34c 423d 8dea 5a3d bf47 acba
00000350: 6841 a63d b45d 22bd 7b86 47bd 109c e63c
00000360: 98aa 183d dac9 b93b 9adc 02bd 65d5 453d
00000370: 4300 50bd 347e 613d 6981 a43d 5c55 42bd
00000380: 908f 18bc e8be e53c fd42 bd3b 14ae 403d
00000390: 0c6b 1b3c 6b61 f33c c511 dd3b 9c9a 3bbd
000003a0: 1e00 2cbc 0036 eebc 924a 8c3c 835b 963d
000003b0: 1b6f 6f3d 2c78 663d c589 4c3d 7a87 933a
000003c0: 4a0d 9dbc a6f1 153d a4b5 b33a 6d07 06bd
000003d0: 6977 8dbd b99b 8b3c 2b49 7e3b c95c 2abc
000003e0: 5dee 8abc 7204 0abd 0236 343d 6a46 b93c
000003f0: de56 a4bb 9057 ddbc d9df 00bc 546f 063d
0.021207832 0.024089966 0.059959948 -0.03734565 -0.041934695 -0.015029675 -0.037293896 0.045682605
-0.0554711 -0.033542026 -0.048288755 -0.033416763 0.014155442 0.05907133 0.030459084 0.0026149405
-0.008454706 0.02525676 -0.0258895 0.082755946 -0.056452483 -0.0122802835 0.0013363082 0.045671847
-0.03553405 -0.010741712 -0.055081315 0.035114538 -0.014631521 0.022294821 0.04026102 -0.032699704
0.045108058 -0.051833224 -0.06676205 0.044442374 0.015493944 -0.015067427 0.027507124 0.003847354
0.008982441 0.009100336 0.056299668 -0.05041249 -0.05385425 -1.8879158e-05 0.05698175 0.008576335
0.036922123 -0.062752835 -0.040749762 -0.07749935 -0.011654862 0.0642029 0.017925454 0.04654981
-0.062374763 0.042231582 -0.060246874 0.03842807 0.035374474 -0.00063640537 0.056340113 -0.019946672
-0.06307076 -0.007019655 0.0041117785 -0.0014773447 0.024833592 -0.04639978 -0.028891537 0.013059586
-0.033779267 -0.067973636 0.026527114 -0.042657297 0.01242017 0.0024760915 -0.019477306 0.044886205
0.07185938 -0.0045392206 0.0590646 -0.035992645 -0.051519234 -0.047206994 -0.04366148 -0.03315475
-0.021514494 0.012246951 0.0675483 0.04154867 0.038443886 -0.050956614 0.024751723 -0.026284277
0.012046717 0.07195576 -0.032986797 0.020977722 0.0015502375 -0.008202837 -0.046051 -0.015045145
0.029233014 0.07335006 0.026961528 0.036536187 0.034951072 -0.018805476 -0.0058882046 0.048495933
-0.060290717 -0.019266633 0.0128417965 0.020401562 0.0096146595 -0.021206059 0.059490114 -0.059383426
-0.03655035 -0.0059744176 0.003539756 0.01070297 -0.055858362 0.035605595 -0.050805997 -0.031241221
-0.04432901 -0.013204496 0.04400775 0.012462766 0.027713425 0.06917119 0.0048288987 0.019215668
0.0461784 -0.05094644 -0.030057216 0.08089733 -0.0076170517 -0.023627317 0.031142103 0.019493036
-0.040206928 -0.061775733 -0.01876442 -0.061897203 -0.03215933 7.279723e-05 -0.0017289871 0.007303951
0.029409835 -0.049416084 0.014534825 -0.044935714 0.06157665 -0.050223853 -0.07013495 -0.04657793
-0.029593425 0.05892998 -0.038520698 -0.041074198 0.0014076598 -0.036452133 -0.020897875 -0.07596607
0.036954165 -0.07284463 0.019264603 -0.022725686 0.03219104 0.046918355 -0.0011420049 -0.05961421
-0.058571912 -0.009375637 0.013477014 0.029200789 0.0065901303 -0.00044600293 -0.025729321 0.0027849916
-0.05360746 0.037357382 0.06357136 1.6597296e-05 -0.038263537 -0.030441046 -0.03166567 -0.04745773
0.050599717 0.0088846255 -0.0068568373 0.009844306 -0.02802463 -0.019710813 -0.0076381713 0.023321908
0.044185344 0.07961919 0.07125267 0.024513228 -0.039255355 -0.056611598 -0.004422264 -0.051668942
-0.05416919 0.047436547 0.05344634 -0.0013143941 0.08117944 -0.039640144 -0.048712235 0.028150588
0.037272066 0.0056698145 -0.031948663 0.048299212 -0.0507815 0.055051997 0.080324955 -0.047444686
-0.009311572 0.028045133 0.005775808 0.047041014 0.009485971 0.029709538 0.006746503 -0.045801744
-0.010498075 -0.029078484 0.017125402 0.07341673 0.058455568 0.05626695 0.049936075 0.0011255585
-0.019171376 0.036607407 0.0013710749 -0.032721926 -0.06907541 0.017042028 0.0038800936 -0.010398098
-0.016959364 -0.033695646 0.04399682 0.022616584 -0.005015238 -0.027019292 -0.007865869 0.032821015

mlp.2.bias f4 [128]
00000000: 2b2c 4a3d c676 1b3d c896 58bd a3bc 4dbc
00000010: 68f3 e03b 7117 b3bc e19f 4d3d a0e5 853c
00000020: 87e7 c93b 449d f13c 2442 1dbd e821 35bd
00000030: 7c60 d6bc 691f 2cbd 3ebe a33c 0ede 0abd
00000040: b9b8 74bd 8fe7 27bd 58a2 89bc 09e2 cfbc
00000050: 1d9f 843a 4b60 993b 65cf 6abd 9a84 57bc
00000060: 0cb9 dc3c d0b3 1fbc 438b 8ebc 2d4e 743d
00000070: 605c 2ebd e3fe 85bc 552c a83d 7803 053d
00000080: f878 7dbd c628 443d c93d c5bc f14b b1bc
00000090: 9385 5fbc aa96 dcbc b2f6 083d 8c4a 093d
000000a0: 6d7e 763d dd7e 3abd 7a3b 8e3d 3319 10bd
000000b0: dc9c 783d c49c 433d 9416 433d 0edf 5dbd
000000c0: 8088 263c 1b42 803d f070 bdbb 377d 3abd
000000d0: eeb9 c13c 9b59 433c 2e14 24bc 80ce f93c
000000e0: 8c1f 463d 1cb1 d23c 7239 87bc 9381 5d3b
000000f0: b455 36bd f0d9 793a 5908 fbbc 06d6 7fbd
00000100: e4d9 ed3c 1090 913c 5860 04bd 2416 31bd
00000110: f45c 81bd 4dcc 963d 9faf cbbc 9cda ee3b
00000120: d0d7 6fbd e4a5 303d 7aa8 3b3d 9c8c a7bc
00000130: 65d6 f13c 5418 683d 5128 4d3d fa32 723d
00000140: 308b 43bd 3f30 03bb 2a16 793d 73c9 0dbd
00000150: e517 0cbd 0bc2 033d 5540 343d ed59 e8bc
00000160: 230c 8dbd ffab 2fbd 3c4c 0cbd 2a48 363b
00000170: 78c5 cdbc ce95 a63c 3380 c83c c036 c6bb
00000180: a0ae 103d 98b8 063c 2bd5 7c3c 20d0 fd3c
00000190: a8ec 113d 10d9 863d 7317 503d f397 863d
000001a0: 140a 423d 1ffc c73c 7e58 3cbc 4944 bf3d
000001b0: 857c 853c 6fcc 573d 38a1 8a3d 516b 9cbc
000001c0: 34b8 b93c 8e23 cb3c 8473 0cbd 0213 a3bc
000001d0: 29ac 9a3d 25f7 483d c3ec 963b 108e 483d
000001e0: e4c7 22bd 0089 f8bc 6c3f 0cbb 383a 38bd
000001f0: c6fb 7fbd c852 533d 48d1 3dbd fa6f ea3b
0.049358528 0.037955068 -0.05287817 -0.0125571815 0.006864954 -0.021861764 0.0502013 0.016344845
0.0061616334 0.029493935 -0.038393155 -0.04422179 -0.026169054 -0.042022143 0.019988175 -0.033903174
-0.059746478 -0.040992316 -0.016801044 -0.025376337 0.001011822 0.0046806685 -0.057326693 -0.013154173
0.026943706 -0.0097474605 -0.01740039 0.059644867 -0.042568564 -0.016356891 0.08211581 0.03247401
-0.061882943 0.047890447 -0.024077313 -0.021642657 -0.013642686 -0.026927311 0.033438392 0.03351836
0.060179163 -0.045531143 0.06944938 -0.03518028 0.060696468 0.047756925 0.047628954 -0.0541678
0.01016438 0.062626086 -0.0057812855 -0.04552957 0.023648228 0.011923219 -0.010014577 0.030493975
0.04836993 0.025719218 -0.016506884 0.0033799156 -0.044515327 0.00095310714 -0.030643629 -0.062459968
0.029034562 0.01776889 -0.032318443 -0.043234006 -0.063165575 0.07363186 -0.024864016 0.007289244
-0.058555424 0.043126956 0.04581497 -0.02045279 0.029521177 0.056663826 0.050087277 0.059130646
-0.04774016 -0.002001777 0.060812153 -0.034615945 -0.034202475 0.032167476 0.044006664 -0.028363192
-0.068870805 -0.042888638 -0.03425239 0.002781401 -0.025118575 0.020335104 0.024475193 -0.006049007
0.035322785 0.0082227215 0.015431683 0.03098303 0.035626084 0.0658437 0.050803613 0.06571951
0.047372892 0.024412213 -0.011495708 0.09339196 0.016294727 0.052685197 0.06769031 -0.019094141
0.022670843 0.024797227 -0.03428985 -0.019906525 0.07552368 0.04906382 0.004605861 0.048963606
-0.03974141 -0.030338764 -0.0021400107 -0.044977397 -0.06249597 0.05159262 -0.046342164 0.007154462
