weights/steps_210001.pth (torch, 276355 bytes, 10 tensors)

lstm.weight_ih_l0 f4 [192, 7]
00000000: de46 cfbd 6c33 c1bd 186f c2bd 01ae 08bd
00000010: c626 213e 79e5 b4bd b717 8dbd c8ad f5bd
00000020: b1cb 12be 342c c6bd d3c1 febc d7d8 1dbc
00000030: 0f53 a63d 5b78 13bd 4fd0 633d d1c9 913d
00000040: 9abb 6a3c 7a5c 343d 4625 6a3d b6b5 823d
00000050: 74ba 3b3d 14b2 ebbd 5651 e9bb f1d8 b33d
00000060: ec45 123e 71ad 0f3e 5d84 b33d 4b3d af3d
00000070: 2b6e 723d 5fdb a83d ecf9 1bbd 3149 d1bc
00000080: 3a9d 463c ff04 0c3e 0768 bdbc 7453 edbc
00000090: 3576 c0bd 732b d23d b194 a0bd d36d d73d
000000a0: 1846 22bd e68c be3d d9e8 adbd ba53 a83b
000000b0: 6512 173d a657 aa3d 2d6f 143e 76ce dabd
000000c0: e264 92bd cb46 00bd 9bac 7bbd ec66 c0bd
000000d0: 302f 88bc f286 9ebd bb54 bdbd 1984 fbbb
000000e0: 4816 debd b5a9 5b3d 85c6 2b3d fb9b a6bd
000000f0: e299 7f3d 3d24 8dbd 5155 17bd c622 483e
00000100: 9b90 51bb 5fe5 633d 8805 283d 104a 113c
00000110: 111a 1f3e 73f9 06bd e355 b6bd a60e aabd
00000120: d0b0 ad3c 2ae2 133e d539 1d3e a440 76bd
00000130: e0bc 113e b9a1 04be 3f99 993b 4075 c43d
00000140: e855 bbbc 77dc 493d 12af 863d 5625 c9bb
00000150: 7aa1 12bd 5be2 463c ade2 0bbe f91c 28b9
00000160: 896b 23bd c715 3e3d f45d cebd 2a8e 5f3d
00000170: 2c54 2a3c 25e8 143d 9d39 ad3c 9b7f fbbd
00000180: 6518 e53d 1663 f4bd d605 35bd 9221 0dbd
00000190: fe0d cc3d 6b5a adbd 2458 96bd 6b1f 0dbd
000001a0: 0d16 263e 5f3e 26be a2ac 15be 885b d2bd
000001b0: b39f 213d 3eea bfbd 4a9e ec3d bc0e 9dbd
000001c0: d8c4 a53d aa55 033e f3af a53d 4b8a 84bd
000001d0: 4ab4 5b3d e6ad cd3c 6b8d 403e 3ba6 c1bd
000001e0: 8579 0dbe 71e5 d23d 37c7 a13d 00a3 083e
000001f0: 3ab0 113e 7a26 223e d842 c3bd 3e97 033d
00000200: 050e e53d 36d5 8cbd 73b6 093e 8b89 463d
00000210: 1d14 aa3c c6f8 f83d c730 093e 081e b63d
00000220: 6f26 c2bc 690f 94bd 6aba 333e ca45 173e
00000230: d7c8 9dbd 5391 423d 8066 683d 4d64 6e3d
00000240: 103e 6c3d ca5d d3bd 3f2e 893d faf6 95bd
00000250: 24d9 89bd 4764 573c 79e2 f3bc a150 233c
00000260: 33b6 55bd ac0a ccbc b775 0fbe 9123 e0bd
00000270: 48a6 d5bd 2110 8dbd 7578 9d3d 81e5 b6bd
00000280: 4f24 c33b 8c19 4fbb efb5 7dbb 9ec6 aeb8
00000290: 129c 133d 05c4 063e 6fc3 f7bc 20b7 053e
000002a0: 2608 2e3e 53fb a23d ab81 953d 2fbe 95bd
000002b0: 3b1e f23c 93f0 063e 56f8 92bd fa57 0a3e
000002c0: 0c61 133e fbf0 6f3d 5547 203e da37 343d
000002d0: 7e56 debd d3d7 be3c a926 223e 52b1 80bd
000002e0: f35a ad3d 54a1 eb3d e5d4 eb3d e3b9 9f3d
000002f0: 692d 003e 5152 dabc ec40 e23d 42bd 063d
00000300: f737 a23d fa7f 6cbd e913 143e 57bb 4c3d
00000310: 133f cc3d e379 91bc f6de 74bd bf1f fbbc
00000320: c324 e23d d9c9 a43b 91e2 0f3e d61c 123e
00000330: e58b 6f3d 2a25 9a3d 73af d53c e8ff e23c
00000340: 8cc8 153e 5337 bbbd 06e6 76bb 4f72 f1bd
00000350: 5d49 e93d d8c1 4dbb c1e5 993d 6711 7e3d
00000360: 5a85 1d3e ea78 d3bd f587 31bd 8f0e 04bc
00000370: 33ab a73d ac03 493d 74aa e4bd b59e 193e
00000380: b206 273d 2f15 143e 707c 813c 0f1d f13c
00000390: a817 2d3e 76fa cbbc 67ea 2abd 12b5 563d
000003a0: 7b5a c23b 10dd 45bd 76a3 6d3d 525a afbd
000003b0: e4c9 043d 06a6 d13d 7022 99bd fa06 b0bd
000003c0: 81c9 e2bc 1018 1a3c 26ec 6abc 3d7a 03be
000003d0: 2515 5ebb 38db f0bd f894 9f3d e26d de3c
000003e0: df7d b7bc e24a 0f3e e9c9 e63d dc08 30bd
000003f0: 63b6 febd 8cc6 a6bd 7312 023e 627d 2d3d
-0.10120939 -0.09433636 -0.09493846 -0.033369068 0.15737447 -0.08832831 -0.06889289 -0.11996037
-0.14335515 -0.096764 -0.031098282 -0.009634218 0.08121311 -0.03600345 0.05561858 0.071185715
0.014326954 0.044033505 0.057164453 0.06382315 0.045832112 -0.11508575 -0.0071202917 0.08781613
0.14284486 0.14031006 0.08765481 0.085566126 0.059187096 0.08244967 -0.03808014 -0.025547596
0.012122447 0.13673781 -0.023120893 -0.028970458 -0.09397546 0.102621935 -0.07840861 0.10518994
-0.039617628 0.09304218 -0.08491678 0.005136934 0.036882777 0.08317499 0.14495535 -0.106839105
-0.07148148 -0.031317513 -0.061443906 -0.09394631 -0.016624063 -0.077405825 -0.09244677 -0.0076756594
-0.108440936 0.053628642 0.04193737 -0.0813522 0.062402613 -0.068916775 -0.0369466 0.19544515
-0.003197706 0.055638667 0.0410209 0.0088677555 0.15537287 -0.032952737 -0.089031 -0.08303575
0.021202475 0.14441743 0.15354092 -0.06012024 0.14232206 -0.12952317 0.004687458 0.09592676
-0.022868112 0.049282517 0.06576361 -0.006138484 -0.035798527 0.012138928 -0.13660689 -0.00016032522
-0.039897475 0.046407487 -0.10076514 0.054578938 0.010396045 0.036354203 0.021145636 -0.12280198
0.111862935 -0.11932962 -0.04419502 -0.034455843 0.09963606 -0.084645115 -0.0734103 -0.03445379
0.16219349 -0.1623473 -0.14616635 -0.102713645 0.03945894 -0.0937085 0.11553629 -0.07668826
0.080941856 0.12825647 0.080902 -0.0647169 0.053638734 0.025107335 0.18803947 -0.09455534
-0.13815887 0.10297669 0.07899325 0.1334343 0.14227381 0.1583499 -0.09534234 0.032126658
0.11184315 -0.06876604 0.13448505 0.048471015 0.020761544 0.12156825 0.13397513 0.08892447
-0.023699967 -0.07229502 0.1755158 0.14772716 -0.07704323 0.047501873 0.056738377 0.058201123
0.057676375 -0.10320623 0.06698274 -0.07322498 -0.067308694 0.013146467 -0.029771077 0.009967954
-0.05217571 -0.024907432 -0.14009748 -0.10944284 -0.10432106 -0.06887842 0.07688991 -0.08930493
0.005955256 -0.003160092 -0.0038713177 -8.333962e-05 0.036037512 0.13160713 -0.030244557 0.13058138
0.16995296 0.079580925 0.07300123 -0.07311665 0.02955543 0.1317771 -0.071762726 0.13510123
0.14392489 0.058579426 0.15652211 0.043998577 -0.10856341 0.023296272 0.1583506 -0.06283821
0.08464613 0.1150538 0.11515216 0.07799127 0.12517323 -0.02665058 0.11047539 0.032895334
0.07920831 -0.057739235 0.1446072 0.04998335 0.09972968 -0.017758315 -0.059782945 -0.030654786
0.11042168 0.005028945 0.14051272 0.14268813 0.058483023 0.0752662 0.026084637 0.027709916
0.14627284 -0.09141412 -0.0037673726 -0.11789381 0.11390946 -0.0031396057 0.07514525 0.062028315
0.15382901 -0.10325797 -0.04334255 -0.008060112 0.081869505 0.049075767 -0.11165324 0.15001948
0.04077787 0.14461206 0.015806407 0.029432802 0.16903555 -0.024899703 -0.04172745 0.052418776
0.0059311963 -0.048306525 0.058017217 -0.08562149 0.0324191 0.102367446 -0.074772716 -0.08595081
-0.027683975 0.009405151 -0.014338529 -0.12839599 -0.0033887115 -0.11760563 0.077920854 0.027152006
-0.022398887 0.1399341 0.1126898 -0.0429772 -0.12437131 -0.081433386 0.1270235 0.042355902

lstm.weight_hh_l0 f4 [192, 48]
00000000: 001c e13d 0fce a63d 25a3 dcbd 875c 533d
00000010: e6d9 293d e56f 11be 0439 23be ccc9 0c3c
00000020: 8c64 3dbd e8ce 603d 71c8 5ebc 9a61 1e3d
00000030: ba61 033e b53a 323d 3496 94bd 49b1 e53d
00000040: d271 24bd 972b c73d 9a56 36bd f484 08be
00000050: 64ea 843c cf4c 043e bc79 513d fbd4 0bbd
00000060: 6a98 ee3b 60a1 493d c1b3 8ebd f206 ed3b
00000070: 0fa8 2cbe 4bd5 0dbe 4601 05bd 1dab 88bd
00000080: d04e 20bd fd16 85bd cb59 a7bd 987b c7bc
00000090: 3f3e 983d 032c c7bd db0b 24be 71ad 09bc
000000a0: ce37 90bd 55c1 75bd c4e5 58be b4a7 1abd
000000b0: 54e4 463d 2829 b2bd 0e6b 3dbc 8b8c b93d
000000c0: 4785 c9bd 4a5e 06bd ca07 afbd 29cb b83d
000000d0: f2e0 93bd ad41 63bb 3140 f63d 9a67 2bbe
000000e0: 8797 a73c eb47 f2bc 4ea4 f03d 3f72 05bd
000000f0: 548c e83d f56e aabd 896b 9d3d 1ce8 34bd
00000100: 5abc ef3d 967e e63d ec07 2dbb 18b3 0cbe
00000110: 0a8d ae3d d2fb 3d3e 5464 2b3d f953 afbd
00000120: 527c de3b 6428 0abe 6093 62bd edc6 d2bd
00000130: ec4f 08be ef47 8bbd ebb2 56bd dc7f a13d
00000140: a68d 05be 464d 98bd 0be6 7c3d f5d2 1fbc
00000150: a2f4 aabd 0233 433c 91c0 963d 13e5 1a3e
00000160: 27d2 423c 9f24 c3bc 4d1e 523b 0c97 85bd
00000170: b579 193d a238 6ebd 1f1f 29be 4ccf 76bd
00000180: 0332 c0bc f913 c0bd 19c4 c23d 3633 56bd
00000190: b952 00be 3269 10be 47b1 16bd bac4 a13c
000001a0: be77 273d 2eaf 673b 8f6c 1b3e 3221 a0b8
000001b0: 963e 773d ea02 193d 1901 03bd b926 fabd
000001c0: 38e0 5c3d 56ed 2abe ce01 e5bd 20f0 22bd
000001d0: c497 bbbd 6e7f 4a3d 63c2 28bc 01c1 e6bd
000001e0: 16ae 98bd 84f9 983c e871 19be be79 47be
000001f0: eb26 f5bd 6b40 e1bd a659 b33d b540 ac3c
00000200: bccc 113e ad99 153e c2de 3bbd 480b 8abd
00000210: b345 923d 16c0 2b3d 7f20 db3c 1e76 e83d
00000220: 2b97 ad3b 8851 243e a80b 893d c1db 2e3e
00000230: 096d fb3b 110c dbbc 681f f4bd 7c32 14bd
00000240: a748 513c 62ce 0f3c eef1 46bd d3b7 143d
00000250: 59dc 36be 33b7 53be 3ace 45bd 548e 28be
00000260: 1b1b a7bc 7feb 2f3e a80e 3b3d a5de 1dbe
00000270: 75b0 e13d c6c4 0f3d 5ac6 bf3c e078 703a
00000280: 2b87 113d 1cb8 12be 024b fb3d a692 72bd
00000290: 40ee 123d 3777 323e 462f 94bd 6724 03be
000002a0: ff17 e8bd 2dfd 363b 2dc0 28bb a333 0c3d
000002b0: 6392 a8bd 699d 2bbe 8aa6 593d 30a0 153e
000002c0: 8a1d 943d 73ce c23c d22e e53a 4858 ff3c
000002d0: 9ee8 f83c 71f2 1abe 8b76 503c ef78 093e
000002e0: 4ca4 443e c03f c6bd 6db6 863c 068e abbd
000002f0: 8f2e b4b9 7e6f 94bd b6cc 2abe 19da 0b3e
00000300: 6e27 703e bc7f b2bd a2f3 383e c21b d5bd
00000310: 4dd4 34be 8f53 17be 5107 1ebe f2f5 00be
00000320: 8aff 2d3d 5917 ce3d ff4a 5f3e 1141 c33c
00000330: ac08 34bd ade7 b63d 0009 513e 8f7a 52be
00000340: 6d77 ff3d 72ba 8bbe b284 3e3e eb0e 8a3c
00000350: a6be 0abe 95c2 f8bc 8004 2e3e 59fd 26be
00000360: 0887 f2bd 4df0 7e3e f812 49be ccf0 69be
00000370: ddc5 013d 63e7 a4bd 0c1a a53c 683c bb3d
00000380: 3647 743c 129f 9ebc 6c9b 373d 6cd1 5e3e
00000390: 2c7b a13b 4156 dfbd c1db 243b 345a f2bc
000003a0: 7252 0b3e 1a5b 8d3a c15e 13be 9b5d a83d
000003b0: 7cd6 4b3d c6e1 3a3d ab45 78be 8fda af3c
000003c0: 0655 e43c ff53 48be ba81 bc3d 94dd f5bc
000003d0: cf28 14bc 0d5a 3cbe a9d4 e33c 8a36 e33c
000003e0: 3d09 43be 8c21 dc3d 340b 463e 4386 663d
000003f0: 74bf d23d d87b a2bc c05b 9ebd d161 b7bd
0.10991669 0.08144771 -0.10773305 0.051601913 0.04146757 -0.1420284 -0.15939718 0.008593034
-0.046238467 0.05488482 -0.013597594 0.0386673 0.12830248 0.04351302 -0.072552115 0.11215455
-0.04014761 0.09725111 -0.044516183 -0.13331968 0.016225047 0.12919925 0.051141486 -0.03413866
0.0072813528 0.049226165 -0.06967879 0.007233494 -0.16860984 -0.13850896 -0.032471918 -0.06673262
-0.03913766 -0.06498525 -0.081714235 -0.024350926 0.074337475 -0.097251914 -0.16020148 -0.008403168
-0.07041894 -0.05999883 -0.21181399 -0.03775759 0.048557594 -0.08699256 -0.011561168 0.090600096
-0.09839874 -0.032804765 -0.085464075 0.09023125 -0.07220639 -0.0034676597 0.12023962 -0.1673874
0.020457996 -0.029575309 0.11750089 -0.032579657 0.113548905 -0.083219446 0.07686526 -0.04416667
0.11705847 0.11254613 -0.0026402427 -0.13740194 0.08522995 0.18553093 0.041843727 -0.085609384
0.0067897225 -0.1349197 -0.05531633 -0.10291848 -0.13311738 -0.068008296 -0.052416723 0.07885715
-0.13042316 -0.07436614 0.061742824 -0.009754886 -0.08347441 0.011914017 0.07360948 0.15126447
0.011890925 -0.023821173 0.0032061518 -0.065229505 0.037469584 -0.058159478 -0.16515778 -0.060256287
-0.023461347 -0.093788095 0.09510059 -0.052294932 -0.12531556 -0.14102629 -0.03679016 0.019747127
0.04088568 0.0035352218 0.1517813 -7.635578e-05 0.06036242 0.037356295 -0.03198347 -0.12214417
0.05392477 -0.16692099 -0.11181985 -0.039779782 -0.09159806 0.049437933 -0.010300252 -0.11267281
-0.07455079 0.018673666 -0.14984858 -0.19480035 -0.11970314 -0.10998615 0.087573335 0.021026948
0.14238256 0.14609404 -0.045866735 -0.06740433 0.071422 0.041931234 0.026748894 0.11350654
0.0052975616 0.16046727 0.066916764 0.17076017 0.00767291 -0.026739152 -0.11920053 -0.03618096
0.012773669 0.008777233 -0.048570566 0.03630812 -0.17857493 -0.20675354 -0.048292376 -0.16460544
-0.020398667 0.17179678 0.045668274 -0.15416963 0.11019985 0.035099767 0.023410011 0.0009173285
0.035529297 -0.14328045 0.12270166 -0.059221886 0.035871744 0.1742829 -0.07235579 -0.12806855
-0.11332702 0.00279219 -0.0025749311 0.034228932 -0.08231046 -0.16759266 0.05313734 0.14611888
0.07232197 0.023780083 0.0017485267 0.031170025 0.030384358 -0.15131547 0.012723575 0.13425039
0.192033 -0.09680128 0.01644441 -0.08376698 -0.00034366964 -0.07247828 -0.16679654 0.13657416
0.23452541 -0.0871577 0.18061689 -0.10405685 -0.17659111 -0.14777969 -0.15432478 -0.1259382
0.04248003 0.10063047 0.21805952 0.023834737 -0.043953583 0.089309074 0.2041359 -0.20554565
0.124739505 -0.27290684 0.18605307 0.016852817 -0.13549289 -0.030366221 0.16993904 -0.16307582
-0.118421614 0.24896355 -0.19636142 -0.22845763 0.031682838 -0.08051946 0.020154022 0.09142381
0.014909556 -0.01936296 0.044825956 0.21759576 0.0049280133 -0.109051235 0.0025155398 -0.029584028
0.13605669 0.0010784597 -0.14391614 0.08220979 0.049765095 0.04562547 -0.24245326 0.021466522
0.027872574 -0.19563292 0.09204431 -0.030012883 -0.009042933 -0.18393727 0.027811365 0.027735967
-0.19046493 0.10748586 0.19340211 0.056280386 0.10290423 -0.019834444 -0.07732344 -0.08954204

lstm.bias_ih_l0 f4 [192]
00000000: 06c4 833d b9ba 693d 8166 8fbd f23b 8dbd
00000010: 9087 20bd fd2f 5cbd 311f b23d e931 3d3d
00000020: f1c0 993d 38a7 023e 19b0 df3c f5a6 01be
00000030: 9656 7fbd b2e4 943d 67ea 8fbd fd1c 0d3d
00000040: 5911 29bd 61e5 903d 0172 fc3d 4f31 ebbc
00000050: bfb5 163e 9a88 8d3d f973 033e ee94 a13d
00000060: 7fb0 74bd 2916 3f3d f2f3 023e 966c b23d
00000070: cff9 07bc c9ae a73c 07e5 d5bd b7c1 013e
00000080: ecf4 b5bd 5866 7d3a 95ba f13d 58d3 81bd
00000090: cc07 dfbd 7a9e a43d 0223 90bd a0fe a63d
000000a0: 6457 a8bd 53d9 4e3e ab94 bf3d 7b41 a3bc
000000b0: e277 793d db93 313d f826 633d 1701 b8bd
000000c0: 2e5f 813c 742e 653d dd64 783c 3ff6 023e
000000d0: 1bf6 d4bc 53ff d1bd 90c3 d13d 2653 0c3e
000000e0: c315 333c 994c 033e 5439 05bd 2891 cdbd
000000f0: a6bf 053d f03f 943c 7ab2 02bd d1a7 c83d
00000100: 0eb4 ee3d c021 a5bc 4d23 b5bd 592b cebd
00000110: 07d4 433d 7de3 333e 2cd4 003d d3ed 073e
00000120: df1f 083d 4026 81bd 8e6d 813d 76f9 19bd
00000130: 8bee ef3d 4444 cd3b 9566 b23d ca0b d8bd
00000140: e932 6cbc 3808 debd 6242 87bd 494f ec3d
00000150: a320 9dbd 99db 183e 7a29 e73d 853b 0abd
00000160: dca8 193e 5db4 87bd 25b0 ea3d b304 133d
00000170: 4c8c c1bd 620c f5bd 3525 d63b c4a7 923d
00000180: c5e1 af3c e79f 4a3d 8038 c53d 72da 9bbd
00000190: e7aa fa3d 7a0f a83d 7033 0fbd 6939 42bd
000001a0: d499 0f3e ddfc 55bd 3258 b3bd 8e7a 06be
000001b0: e811 c1bc a2d2 0f3c 8f0e 6dbd df0b 123e
000001c0: c1bf 293e b72d 2a3e 3c6e 943d 61fe 07be
000001d0: b10e 183a 3bb3 57bd eec6 cb3d 868b 07be
000001e0: 5ac1 a13d 3ad4 70bd 4e6d 84bd a6fb 51bd
000001f0: f744 d4bd 04b4 93bd 6e58 91bd e057 d83d
00000200: 9d0d 693d 87aa 623d 8d23 1abe bbba 7c3d
00000210: 8ef8 0abc 03f4 7abc 87c4 e5bd ab0e b43d
00000220: 1301 303d 6542 c7bd ab79 103e 44b4 14bd
00000230: ca6f 48bd fbe2 f1bd 0493 d9bd c796 1ebd
00000240: f85c 393e e398 f53d 87c8 da3d 8661 1d3e
00000250: 248c bdbd 5471 59bb 58b0 253d a5b4 4b3d
00000260: d46d f13c 3614 e43d f612 e6bd 0d0b 07bd
00000270: 07d2 cc3d a62f 36bd 8ea9 383e dfb5 403e
00000280: be07 1bbd 6e15 4c3e 5c60 073b aff5 aebd
00000290: 6de0 a83d f667 0e3e cca8 d83d e02e 6b3c
000002a0: 2e8c 063d fa4a 443e b142 003e 686a 11bd
000002b0: 9411 d1bc 6d96 a63b 8b1b 2d3d 0ca0 1e3e
000002c0: 72eb 55bd af92 e93d 7b5e 3b3e ba85 21bc
000002d0: c817 ed3d 2927 da3d 00ca 2a3e 0419 99bd
000002e0: 23cf 853c 82c5 5d3e 2726 773d 766a 963d
000002f0: a2fd 95bc f00f 4ebd cdfa 123e 8a69 a93d
0.06433873 0.05706284 -0.07001973 -0.06896199 -0.039191782 -0.053756703 0.086973555 0.046190176
0.07507504 0.12759101 0.02730565 -0.12661345 -0.062338434 0.07270183 -0.070271306 0.034451474
-0.04127631 0.070750006 0.12326432 -0.028710036 0.14717768 0.0691082 0.12837209 0.07889734
-0.059738632 0.046651993 0.1278837 0.087121174 -0.008299305 0.020469086 -0.10444074 0.12671553
-0.08884606 0.00096664345 0.11803166 -0.06339139 -0.10890159 0.080380395 -0.07037927 0.081540346
-0.082197934 0.2020009 0.09354528 -0.019928684 0.060905345 0.043353897 0.055457085 -0.08984583
0.015792456 0.055952504 0.015160766 0.12789248 -0.025996258 -0.10253777 0.10242379 0.13703594
0.010930481 0.12822188 -0.032525375 -0.10037452 0.032653473 0.018096894 -0.03190849 0.097976334
0.116554365 -0.020157695 -0.08844624 -0.10066862 0.047809627 0.17567249 0.031452343 0.13274316
0.03323352 -0.06306124 0.06319724 -0.03759142 0.1171542 0.0062642414 0.08710972 -0.105491236
-0.014416435 -0.10841411 -0.066044584 0.1153856 -0.076722406 0.1492752 0.11287208 -0.03374817
0.15005821 -0.066261984 0.11459378 0.035893153 -0.09450588 -0.119652525 0.006535197 0.07160905
0.02146996 0.0494689 0.09629917 -0.076100245 0.12239628 0.08206077 -0.034961164 -0.04741803
0.14023525 -0.052243102 -0.08757056 -0.13132688 -0.023568109 0.008778246 -0.057875212 0.14262341
0.16577055 0.16619001 0.07247588 -0.13280632 0.0005800529 -0.052661162 0.09950052 -0.13236818
0.07898207 -0.058796145 -0.06466161 -0.05126538 -0.103647165 -0.0721207 -0.07096945 0.10563636
0.05689775 0.05533841 -0.15052624 0.061701518 -0.008482112 -0.015316966 -0.11219125 0.0879186
0.042969774 -0.097294606 0.14108913 -0.036304727 -0.048934735 -0.11810871 -0.10623744 -0.03871801
0.18101871 0.119920515 0.10682779 0.15369233 -0.09255245 -0.003317912 0.040451378 0.049732823
0.029471315 0.111366674 -0.11234085 -0.032969523 0.10000997 -0.044479035 0.1803343 0.18819378
-0.03784918 0.1993005 0.00206568 -0.08542954 0.08245931 0.13906845 0.105790704 0.014354438
0.03284853 0.19169226 0.12525441 -0.035501868 -0.025521077 0.00508385 0.042262595 0.1549074
-0.05222649 0.11404931 0.1829776 -0.009858543 0.115768015 0.106520005 0.1667862 -0.074754745
0.016334122 0.21657375 0.06033912 0.073445246 -0.018309418 -0.050308168 0.14353485 0.08272083

lstm.bias_hh_l0 f4 [192]
00000000: 09b5 b73d 08f0 bb3d b906 1f3d d111 56bd
00000010: 6d08 293d 17bd 0e3e c071 953c 3994 febc
00000020: 0a8d 0d3e 3ebf e53d fa1f 013d d3ce c23d
00000030: d8eb b7bd e327 fe3d 245a adbd dc24 243d
00000040: e92c af3d b26c 5e3b f2d5 483d b590 7dbd
00000050: 0a98 8a3d 02ae e0bd efbe 053c 2c2b 58bd
00000060: 6862 8ebd af68 e03d 8740 90bc 373c 39bd
00000070: 0865 983d 1be1 71bd c632 f4bd 3f35 ab3d
00000080: 709c e73d a32e 7b3d 76b9 273e c1f5 183e
00000090: e2b8 d0bd 89d6 2abd 1e96 ce3d 7f09 773c
000000a0: f826 37bb 8cc0 213e 5415 2e3e b32b 9a3a
000000b0: d6aa 293e 0f73 a33d 40fb d2bd 38b0 033e
000000c0: 521b fa3d 5366 bbbd 79aa cebd 2814 003b
000000d0: b397 1e3d 1378 f2bd fa3b e73d 0d65 c63d
000000e0: e670 093b 4096 d6bd ac45 6cbc 823f 923d
000000f0: 4705 fe3c 1d22 eb3d d5e2 9f3d acdb 9ebd
00000100: 29f9 29bd 1d27 93ba 3b84 073e 454b cabd
00000110: bc3d f3bd e375 2b3e fd55 d7bc 6656 993d
00000120: 8f80 05bd f0cf 14bd 0822 093e 5695 2b3c
00000130: 6d01 d1bd 031e 883d bd9d 053b d8eb d8bd
00000140: db27 8fbd f848 963d 5823 94bd 6bac 80bd
00000150: 977f e3bc 0f0b 693d 5fa9 49bd 0f5b 2abd
00000160: c6ca 8f3d 78c9 8a3d af78 b7bd 67e7 3a3d
00000170: 1517 ebbd 45b3 c63d c3df cdbd 623a 33bc
00000180: 0b25 6f3d 514c a8ba 8252 d0bc 46c4 06be
00000190: 1cce f03b b0e6 763d 6138 b33c 7dc9 5a3d
000001a0: 3b3f 173c 2cd9 1abe a4ca 9e3c 0b5d eabd
000001b0: 13ba cbbc d1f6 7abd 0c92 173d 6518 d53d
000001c0: 26b6 a63d 7c44 023e 037f b43d 86b7 8e3d
000001d0: 0825 d6bd 7701 0dbd ce05 bf3d 5d7a b2bd
000001e0: 0f69 a23d 8c2a 2dbe d9c3 8b3d f4cd cc3d
000001f0: 7fc9 d4bd 5655 c23d 3710 65bd b1dc 07be
00000200: 7fb4 5eba 92c3 d1bd 63ae b83d 9109 ecbb
00000210: 8c5b 8f3d ad53 0e3e 9f4b 163e 5076 533d
00000220: 02ae 10be aaf1 4b3c cc2f 3ebd eedd adbc
00000230: 02c4 85bc 5ad8 37be 2ac5 d23d 48a1 673d
00000240: afd1 db3b 8484 d1bc 91d3 0e3e 58ec 2b3e
00000250: f02c 17bd ca11 ddbc 5bdb d1bc 4f4b f53c
00000260: 3d1d 193e 0a5e 063d 6b85 cfbc a82e 053e
00000270: 1cef 6d3d d1ba 92bd 3171 e23d ea05 bdbc
00000280: 2cbc 293c 8323 373e ed17 8abd 721c 73bc
00000290: 2138 b13a 3d98 0d3e 8ee2 1f3e 818f a93c
000002a0: 6368 d0bd 70bf 4a3e 6e10 c03d c35b ca3d
000002b0: dcb2 eb3c 905c 44bd 1595 c3bd bdfc 0a3e
000002c0: 8dcc b7bd eee6 bcbd 60a0 263d 4662 033e
000002d0: e6d3 a7bd b707 93bd af04 073e 06ef 4dbc
000002e0: ffc7 fd3d 0bd6 353e 5933 d73d 19ec 1f3e
000002f0: cba4 053e afc3 bebd 6158 073e 4636 3ebd
0.089700766 0.09176642 0.03882477 -0.052263085 0.0412678 0.1393932 0.018242717 -0.031076537
0.13823333 0.11218117 0.031524636 0.09512105 -0.089805305 0.124099515 -0.084644586 0.040074214
0.08553488 0.00339393 0.04903216 -0.06190558 0.067672804 -0.10970689 0.008163198 -0.052775547
-0.06952363 0.10957467 -0.017608894 -0.04522344 0.07441145 -0.059052568 -0.11923747 0.08359765
0.11309135 0.061323773 0.16379341 0.14937498 -0.101915136 -0.041708503 0.10087226 0.015077948
-0.0027946811 0.15796107 0.17000324 0.0011762291 0.16569075 0.0798093 -0.103018284 0.12860191
0.12212242 -0.09150376 -0.10091109 0.0019543264 0.03871889 -0.118393086 0.112907365 0.09687243
0.0020971834 -0.10477877 -0.014420908 0.071410194 0.031008376 0.11481116 0.07806937 -0.07756743
-0.041497383 -0.0011226867 0.13234036 -0.09877638 -0.11877009 0.16744189 -0.02628612 0.07487182
-0.032593306 -0.036331117 0.13391888 0.010472616 -0.1020535 0.06646349 0.0020388209 -0.105918586
-0.06990024 0.073381364 -0.07233304 -0.06282886 -0.0277708 0.056895312 -0.04923379 -0.041590746
0.07021098 0.06776708 -0.089585654 0.04563084 -0.11479012 0.09702162 -0.10052445 -0.0109392125
0.058384936 -0.0012840127 -0.025429968 -0.1316081 0.007348789 0.060278594 0.02187747 0.05341481
0.009231384 -0.15121907 0.019383736 -0.11443528 -0.024869 -0.06127054 0.037004516 0.104050435
0.08140211 0.12721437 0.08813288 0.06968598 -0.10456282 -0.034425225 0.09327279 -0.08714745
0.079301946 -0.16910762 0.06824464 0.1000022 -0.10389995 0.09488933 -0.055923667 -0.13267781
-0.0008495524 -0.1024238 0.090176366 -0.007203289 0.06999883 0.13899107 0.14677285 0.051626503
-0.14128879 0.012447754 -0.0464323 -0.021223988 -0.016328815 -0.17953625 0.10291512 0.056550294
0.006708346 -0.025575884 0.13947894 0.16789377 -0.03690809 -0.026986022 -0.025617292 0.029943136
0.1495256 0.032804526 -0.025332173 0.13006079 0.05808936 -0.07164539 0.11056746 -0.02307411
0.010359805 0.1788464 -0.06742845 -0.014838325 0.0013520756 0.13827606 0.15613768 0.02069831
-0.1017616 0.1979959 0.09378134 0.098807834 0.02877181 -0.047939837 -0.095499195 0.13572975
-0.08974562 -0.09223734 0.04068029 0.12830457 -0.08194713 -0.07179206 0.1318538 -0.012569195
0.12391662 0.17757432 0.10507841 0.15617408 0.13051145 -0.093146674 0.13217308 -0.046438478

mlp.0.weight f4 [256, 54]
00000000: d289 45bd fd51 c7bd e398 d43d 5f9e 39bc
00000010: 5e97 8dbc 32ab 783d 94f1 153c 5166 6abd
00000020: 0569 03be 38b1 4fbd 69f1 d7bc 1c26 043e
00000030: 209d 61bd 435b cf3d ee91 e9bd 354f 1abd
00000040: b94a 593d 676a debc e08f 8cbd fb48 11bd
00000050: dd75 f3bd 9774 fe3d 03ad bf3d 6e0b 023e
00000060: 4277 05be 801d 3f3d b04e d33c 675a 043d
00000070: 915a fcbd b6e0 123e ec9a be3d 06bf e6bd
00000080: 7fdd e43c d816 b43d bb24 e0bb 927d e33d
00000090: c848 cebd 8c67 0e3d a8d8 a33d c853 d73d
000000a0: 28e7 023e 0bbb a43d 3b77 bdbd 2f9b 993d
000000b0: 1f94 2bbd abf3 a2bd db1c 143d cdb2 21bd
000000c0: 33e8 fcbc f965 d1bc ef37 cb3c ec75 3dbd
000000d0: 1a2d cd3d 13a2 e03b df52 833d 8613 a8bd
000000e0: 01e8 77bd 25bf 8e3d 05e5 8c3d dfda 3b3d
000000f0: 9000 8dbc c4a3 15be 2fc1 96bc 843b 8b3d
00000100: 9442 2abe 367c 863d 020f 9e3d 71e1 3bbd
00000110: cbe0 f7bd ca2c ad3d c407 a43d b8d1 d2bd
00000120: f4ca 19bc 5a5a 093e 57e7 303e c278 8b3d
00000130: 2919 903c e925 813c d8bf d83d b995 893d
00000140: e8bf bbbd 1eb0 d93d 944e 3e3e 3cfb 92bd
00000150: 43ea b0bd eb30 fe3d 1905 2fbb b8a6 00be
00000160: 6bf8 bbbc a23a 26be 734b f73d 2d14 e33d
00000170: b4c1 82bd 71e4 08bd 8abd a73d 28a8 313d
00000180: a6fa 43bd 9781 b43d d7dd edbd 39cc 353e
00000190: 53c2 943d d8ee 50be 611d 30be 0641 7c3d
000001a0: 46d3 163e d4b0 2ebe 75a3 19be e3ae c1bd
000001b0: 1200 d3bd 498c 06be 9d99 af3d 5891 c9bd
000001c0: 5bcc c13d 3292 ba3d f383 f93d b9f7 f1bc
000001d0: b07c 77bd 1c23 c53a e534 bdbd a061 08bd
000001e0: 0279 afbd e8cc bf3b 2a69 ecbd c637 633d
000001f0: a77b f23d 2a96 1bbd 230c b13d 5390 e1bd
00000200: 62f5 9a3d ee94 f6bd d054 d3bd 2023 05ba
00000210: ea12 e63d fc77 ff3d ab06 cbbd 7709 df3c
00000220: fd67 b03d b72a c03d e10a b63d a52a 133e
00000230: da7b 0abd a9de 89bd fa46 e3bd 41ab 763d
00000240: 288e be3d afe3 87bd 622a a43c eb41 5cbc
00000250: ac42 373d 0a95 583d cbe4 21bd 6714 09be
00000260: 172d 953c f5ea 19bd e6c3 8cbd 68c2 5bbc
00000270: a0ce 28bb 8729 e23d 65ec 463c c5d8 1bbe
00000280: 0da5 e23d fcdb b2bd 7ee4 f23a 1438 213c
00000290: 09a0 87bd 0453 52bd 2bf7 9dbd 89e6 c6bd
000002a0: 4bf7 a23d 6eac 1bbe 92ee 103e 27cf 5b3d
000002b0: b40f 13be 0734 ebbc 0745 c3bd b58c 3abe
000002c0: 4bd7 94bd 4c34 89bd 6a2b 2d3e 449d 86bd
000002d0: d00a 923c 6eed 1d3e 2112 95bd 5331 bd3c
000002e0: 517b 0d3b ee3a 8c3b 5046 3e3d f3ef cd3d
000002f0: f348 38be c3ee 323e e013 a13c 7beb 24bd
00000300: acbe e1bd 834b b3bd d4f8 cfbd 652b e7bd
00000310: cd38 65bd ad27 10be 7c01 143d 6a62 a03d
00000320: 43b8 ea3d 82b3 5d3d 7b32 253e 56df a9bc
00000330: a53d 153d 63a3 0abe 019e 203b 715d d13d
00000340: 1a30 be3d 2786 34be db21 e5bd d1f3 2d3e
00000350: 796c ec3d 3c9e b53d be51 d6bd 9040 523c
00000360: 56db f23c 0dba 4d3b 635f f3bd 22b2 e03d
00000370: 6b18 1ebd 5b25 263d 87c1 9cbc 8989 cbbd
00000380: ca01 7cbd 07f5 a63b b5f9 213d bd57 52bd
00000390: 68d0 48bc 4bc6 a7bd 3873 babd 69c8 bb3d
000003a0: 3b12 a3bd 9008 b83d 05c0 143e 407c b33b
000003b0: cfe1 ac3c 1edf 6a3d 1ee6 673c 1e5e 2fba
000003c0: a9af f33c 365a 1d3e d37e 16be 728f 293e
000003d0: 3a21 20bd 3161 9c3d c940 1cbe 272a 73bd
000003e0: 0a65 2cbe c786 693d 60e8 adbd fdd4 04be
000003f0: 237f 583c 44ed 033e dbe0 b5bd b32a 093e
-0.04822714 -0.09732435 0.10380723 -0.0113292625 -0.017284092 0.06071014 0.009151835 -0.057226483
-0.1283303 -0.05070612 -0.02636023 0.12905163 -0.055081487 0.10124829 -0.11404787 -0.037673194
0.053049777 -0.027150346 -0.068633795 -0.03546999 -0.11887715 0.124245815 0.09359171 0.12699673
-0.13033774 0.046658993 0.025794357 0.032312777 -0.12321962 0.14343533 0.09306893 -0.112669036
0.027937649 0.087934196 -0.006840316 0.11107935 -0.10072476 0.03476672 0.08000308 0.10514027
0.12783492 0.08043488 -0.09251257 0.07500302 -0.041889306 -0.07956632 0.03616033 -0.03947716
-0.03087244 -0.02556132 0.024806945 -0.046255037 0.10018368 0.0068552583 0.06412291 -0.08206849
-0.06052399 0.06970052 0.068796195 0.04586303 -0.017212182 -0.14613253 -0.018402664 0.06798461
-0.1662696 0.0656666 0.07717706 -0.045869295 -0.12103423 0.084558085 0.08009294 -0.10293907
-0.009386767 0.13413373 0.17275749 0.06810142 0.017590122 0.015765147 0.10583466 0.067180105
-0.091674626 0.10629295 0.18584663 -0.071768254 -0.08638432 0.12411674 -0.002670592 -0.12563598
-0.022945603 -0.16233304 0.12074938 0.110878326 -0.06384602 -0.033420984 0.081904486 0.043373257
-0.04784646 0.0881378 -0.11614578 0.17753686 0.07263627 -0.20403612 -0.17198707 0.06158545
0.14729032 -0.17059642 -0.1500376 -0.09457185 -0.10302748 -0.13139452 0.08574221 -0.09842175
0.09462806 0.09109916 0.121833704 -0.029537069 -0.060421646 0.0015040371 -0.092386045 -0.033296227
-0.08568002 0.005853284 -0.11543496 0.05547311 0.11839991 -0.037985004 0.08644893 -0.11013856
0.07566334 -0.12040125 -0.10318911 -0.00050787814 0.11234076 0.12474057 -0.09913381 0.027226193
0.08613584 0.09383147 0.08888794 0.14371736 -0.03380952 -0.06731922 -0.11097522 0.060221914
0.09304458 -0.06635224 0.020039741 -0.01344345 0.044741318 0.05287651 -0.039524835 -0.13386689
0.018209977 -0.037577588 -0.06873302 -0.013413049 -0.0025757924 0.11043077 0.012141322 -0.1521941
0.11066637 -0.08733365 0.0018531231 0.00984003 -0.06622321 -0.0513487 -0.07713159 -0.0971194
0.07957324 -0.15202495 0.14153507 0.053664353 -0.14361459 -0.028711332 -0.0953465 -0.18217738
-0.072676264 -0.06699428 0.16911092 -0.06572965 0.017827421 0.15422603 -0.072788484 0.023094809
0.0021588395 0.004279486 0.046453774 0.10055532 -0.17996578 0.17473893 0.019662797 -0.040263634
-0.11022696 -0.08754637 -0.10154882 -0.11287574 -0.055962373 -0.14077635 0.036134228 0.07831271
0.114609264 0.05412627 0.16132538 -0.020736378 0.036435742 -0.1353889 0.002450824 0.10222901
0.092865184 -0.176293 -0.11188098 0.1698754 0.11544127 0.088680714 -0.1046481 0.012832776
0.029645603 0.0031391412 -0.11883428 0.10971476 -0.038597506 0.04056297 -0.01913525 -0.09938342
-0.061525144 0.0050951275 0.03954478 -0.051353205 -0.012256719 -0.08192118 -0.091040075 0.091690846
-0.079624616 0.08986008 0.14526375 0.0054774582 0.021103768 0.057341687 0.014153985 -0.0006689745
0.029746847 0.15366444 -0.14696817 0.16558626 -0.039094187 0.07635725 -0.15259089 -0.05936637
-0.16835418 0.0570133 -0.08491588 -0.12971874 0.0132139055 0.12883478 -0.088807784 0.13395195

mlp.0.bias f4 [256]
00000000: 47ec d83c bc7b a4bd 9729 b33d 881e 093e
00000010: 89f3 c33d fc40 d4bd 1307 bdbd f974 343b
00000020: a90a 853d 3e3f f7bd f6a0 c4bd dc73 eabd
00000030: c779 ce3d fd20 0e3e 15d9 feb9 324e debc
00000040: 8c67 233c 3ce4 fdbd a35c 783d 8ca1 2e3d
00000050: 3970 cfbc e83e 303b f24c 19bd 3b94 77bd
00000060: 9888 ccbd 309b fd3d bc2e 103d 500b 1ebc
00000070: d259 893d af18 583d 8622 ac3d 9c53 f83d
00000080: 7f97 0cbe a641 9abd 16bd ce3c a084 6bbd
00000090: 664a 50bd bcd8 f53d 7398 763d fd4c 233d
000000a0: c009 bf3c 1174 cabc daab 8f3d 1a91 953c
000000b0: 7516 953c f9af b13c 472e 453c 14db 473d
000000c0: 44c6 223e 0217 84bd ac0a 95bd 10a0 033e
000000d0: e39c 83bd 4d3c efbd 75a6 adbc 7bb2 64bd
000000e0: acb9 a83b 564e b0bc 19e1 803c fa0d 0b3e
000000f0: 3ee5 bcbd 9dfb 7fbd 71a0 09bd 498c efbd
00000100: 3525 393c c7cc cabd 6b96 0cbd ec4b fc3c
00000110: 56df c4bd 17c5 f0bd 0abb f13c d970 883d
00000120: 8bb4 f6bd b1ea 1bbd 4fa7 383d cafe 38bc
00000130: d66d babd 68e0 0c3d ed74 84bc 75c8 b6bd
00000140: 73e4 01be 6f2b ff3d 4c83 b3bd a5f6 c4bd
00000150: 9f65 d2bd bbb7 bf3c c204 0cbd db51 033e
00000160: 9f3f ac3c 6a39 bc3d a617 753d d46a 09be
00000170: 7f63 bdbd eb99 2f3c 2936 843d daad 1a3e
00000180: 56b4 873d 7c8d cf3d 9fd5 2c3d 576f 933d
00000190: 4374 013e 0112 1ebd 1ed0 253d 22f3 86bc
000001a0: 5c0d 233d 7732 8bbd 53f7 9fbd 2771 c33c
000001b0: f431 b0bd e07f 9a3d 52e5 59bc 38be ec3d
000001c0: d729 bfbd 55a6 913d 4729 f23d e5dd 3bbc
000001d0: 892b b3bd 11e7 3c3c f75c 40bd 82e6 8dbc
000001e0: d4df 143d d514 523d 9ab9 fd3d 6732 39bd
000001f0: 7a37 453d 3d6e 573d bb03 06be b796 f4bd
00000200: b88f 353d 4c18 00be 5ce4 003e 169e 013e
00000210: 25cb 8a3d 366c 9b3d fc2c dfbd 9839 503d
00000220: ad30 993d 6261 033d d790 a53d 0bda 4c3d
00000230: 83da f93d 4167 dcbc 681a e03d ece5 2cbd
00000240: f325 9cbd 298a 87bd db6b 08be 7258 b6bd
00000250: d377 f33d de33 46bd 1766 473d 843f 183e
00000260: 54e9 963d 3a9c 9abd cdfd d8bd 2215 1b3e
00000270: 7bfe c0bb fee2 5cbd ffee 53bd f7e9 d9bc
00000280: 5bca 883d 7741 f0bd 653c ddbc c6fa 82bd
00000290: c2de 61bd 7b8b 993d e20b 423d 70b0 80bd
000002a0: 14ea 8a3d 62db e9bd 0796 343d b22d 69bc
000002b0: 9487 e4bd 2090 4dbd 748f 9cbd 87e1 ff3d
000002c0: 5174 143e 5ad5 f3bd 037e 243e e037 f33d
000002d0: b059 e9bd 5112 03be f33c 113e e060 313d
000002e0: 0276 cabd 9c1a 023e cf94 cfbd a23f 45bd
000002f0: 9044 523d 08df b9bd 39e7 a4bd d201 de3d
00000300: fc7f f93d 3a47 633d 6a4e fcbd 90bd 8bbb
00000310: 043c 523d 6a5a 2bbc 9edc bdbd 1349 0a3d
00000320: 2a5d 7eba ccd0 c3bd 7da1 a53d 03ef eebd
00000330: 3019 b1bd e354 c8bb 8909 65bd 0751 443d
00000340: f1de bdbd bac8 c73d 8908 6e3d c84d b93d
00000350: 91f7 e5bb cbca acbd 6e8b efbc 1da9 a0bc
00000360: c8f5 dc3d 4f54 9a3d 26b9 563d 633d 3a3d
00000370: e43c a1bd 0838 eb3d 51fa 973c a0e8 9abd
00000380: 94f1 073d 62df a3bd 262d 0a3e 7dea b6bd
00000390: dbff aebc 5858 8ebd 1269 bb3d e250 cdbc
000003a0: 1014 45bc add8 eebd eb60 0ebc 8e73 033d
000003b0: 4f42 a2bd 6ee3 a7bc 7754 8b3d 74fa 25bc
000003c0: 20fc ceba cdcc 07bd d936 b6bd 9d85 1fbc
000003d0: 0375 f43d 26ed 8ebd 019f fabd 7c33 fbbd
000003e0: 3285 a73a 7755 3b3c e53c 7cbd 5e6e dcbc
000003f0: 0c50 13bd d32f 823d 0ff5 bb3c 4f19 b6bd
0.026479853 -0.08031413 0.08748167 0.13390553 0.09567935 -0.10363957 -0.09229865 0.0027535541
0.06496174 -0.12072609 -0.09601013 -0.1144788 0.10081821 0.13879772 -0.00048608394 -0.027136896
0.009973418 -0.12397048 0.06063522 0.04263453 -0.025322067 0.0026892964 -0.037426896 -0.060444098
-0.09986991 0.12383115 0.03520082 -0.009646252 0.06706585 0.052757915 0.08405022 0.12125322
-0.13729666 -0.07532053 0.025236648 -0.057499528 -0.050852202 0.120042294 0.06020398 0.039868344
0.023320079 -0.024713548 0.070152 0.018257666 0.018199185 0.021690356 0.012034959 0.048792914
0.15895945 -0.06449701 -0.07277426 0.12854028 -0.06426408 -0.11681423 -0.021197537 -0.055834275
0.005149087 -0.021521728 0.015732335 0.1357955 -0.09223412 -0.062495816 -0.033600274 -0.11696679
0.011300375 -0.099023394 -0.034323137 0.030797921 -0.096129104 -0.11756342 0.029508132 0.06662149
-0.120461546 -0.038065616 0.045081433 -0.011291215 -0.09102981 0.034393698 -0.016169036 -0.08924953
-0.12684803 0.12459456 -0.08765277 -0.09617356 -0.10273289 0.02340304 -0.034184225 0.12824194
0.02102643 0.09190638 0.059837006 -0.13419658 -0.09247493 0.010717849 0.06455643 0.15105382
0.06626193 0.10134408 0.042195912 0.07198971 0.12642007 -0.03859139 0.04048168 -0.016473357
0.039807662 -0.06796735 -0.07810845 0.023857666 -0.08603278 0.075439215 -0.013299303 0.11559719
-0.09334152 0.071118034 0.11824279 -0.011466478 -0.08748538 0.0115297 -0.04696366 -0.017321829
0.03634627 0.0512894 0.12388916 -0.045214083 0.04814861 0.052595366 -0.1308736 -0.11942809
0.044326514 -0.12509269 0.12587112 0.12657961 0.06777028 0.07588999 -0.10897252 0.050836176
0.07479987 0.032075293 0.08084267 0.05001263 0.12199881 -0.026904704 0.109425366 -0.042211458
-0.07624426 -0.06618149 -0.13322394 -0.08903588 0.11888089 -0.04838931 0.048681345 0.1486798
0.073687226 -0.07549329 -0.10595284 0.1514478 -0.0058897114 -0.053927414 -0.051741596 -0.026600821
0.06679221 -0.117312364 -0.027006337 -0.063954875 -0.05514408 0.07497307 0.047374614 -0.06283653
0.06782928 -0.11418797 0.04408839 -0.014232086 -0.11158672 -0.050186276 -0.07644549 0.12494188
0.14497496 -0.11905928 0.16063695 0.11875892 -0.1139406 -0.12799956 0.14183407 0.043305278
-0.098857895 0.12705463 -0.10135805 -0.048156388 0.051334918 -0.09075743 -0.08051915 0.10840191
0.12182614 0.05548785 -0.12319644 -0.004264541 0.051326767 -0.010458568 -0.09270595 0.033761095
-0.00097032136 -0.09561309 0.08087442 -0.116666816 -0.08647382 -0.006113635 -0.055917297 0.047928836
-0.09271038 0.097550824 0.05811361 0.09048039 -0.0070180376 -0.08437117 -0.02924129 -0.01961189
0.107890666 0.07535612 0.052422665 0.0454687 -0.07872942 0.114852965 0.018551977 -0.07563901
0.03318937 -0.08001591 0.13493785 -0.08931444 -0.021362236 -0.06950444 0.091509 -0.025062982
-0.012028709 -0.116624214 -0.008690099 0.032092623 -0.079228036 -0.02049419 0.0680322 -0.010130513
-0.0015791692 -0.033154298 -0.0889718 -0.009736446 0.11936381 -0.06978826 -0.12237359 -0.12265679
0.0012780784 0.011433951 -0.06158151 -0.026908096 -0.03596501 0.06356778 0.022944001 -0.08891546

mlp.2.weight f4 [128, 256]
00000000: 70cf 4b3c 10ba f03c 7c29 7b3d edde 0ebd
00000010: bbdb 0dbd aab4 06bc 996e 15bd 8010 373d
00000020: 80d3 3fbd dab2 18bd 5ed1 3abd 04e0 08bd
00000030: 184f 763c d4d8 823d fcab ab3c af1d 3d3a
00000040: cfaa 7abb 44e7 ce3c 6bbf 54bc c041 b03d
00000050: b83a 67bd 7d1a edbb e82d 9b3b 20ef 453d
00000060: b7a0 08bd 305d ebbb d0fd 4fbd 124b 183d
00000070: b98c 33bc 692f e93c 608b 2f3d 04eb 02bd
00000080: cb27 513d 26fa 46bd f44b 80bd bc3f 033d
00000090: 668c 543c 0e2b 41bc 803d 063d 998f d03b
000000a0: 768a 4d3c aba2 4ebb d81d 723d 3790 3ebd
000000b0: 6191 51bd 5817 ae3b b6b5 7b3d e661 383c
000000c0: bc3d 2a3d 33d5 72bd 2fb0 29bd 1801 87bd
000000d0: 5e51 2ebc ba62 1d3d 6dc6 983c 2b14 493d
000000e0: 8d65 69bd 06fb 2c3d 6dc5 76bd 3d48 2c3d
000000f0: 6bf4 1a3d c3c2 943a c567 543d 3467 a3bc
00000100: 2de2 77bd c0e3 dbbb f0e3 bc3b 76a3 c1ba
00000110: 178d f03c abac 0bbd 43ac d1bc e0f7 553c
00000120: d616 d0bc cf41 23bd 644f d93c 2271 18bd
00000130: f87d 4b3c e70e ac3b 27cf 93bc 7b26 483d
00000140: fca2 913d 7902 c53c 6bd9 813d 2a55 dcbc
00000150: e80c 46bd 9a49 30bd 3721 24bd 8c9a fdbc
00000160: def1 b1bc 70a7 483c 469d 8e3d f02e 2a3d
00000170: 0aef 833c 5618 41bd 6f9e df3c a965 d2bc
00000180: 41af 8c3c a0e9 443d 68e9 f4bc 171c b83c
00000190: f1d8 903b 79da e6bb ce56 26bd c1f0 f3bc
000001a0: 19c1 143d fed4 983d 8cb9 103d 444d 233d
000001b0: db86 223d 9b16 bdbc 5fc0 7fbb aca3 463d
000001c0: 66f3 76bd 91e1 91bc 3889 883c 127e b83c
000001d0: a8f7 313b 54b8 adbc 9807 823d 2a01 44bd
000001e0: 48c4 8dbc c02b 34bc 79ea 9e3b 836f e03b
000001f0: 589c 37bd 2a1e 203d cd97 30bd 4e6a ebbc
00000200: 6ead 18bd d742 36bc 6500 3d3d 5bcf 693c
00000210: 2503 163d 80f4 8f3d 03cf d8ba f507 b73c
00000220: c47f 443d 3e3c 48bd e85c edbc 9141 993d
00000230: 2af9 05bc bfa0 b3bc 0761 cb3c 37df 9d3c
00000240: e84a 12bd 8a56 6bbd 03ec 22bd 2ca2 3dbd
00000250: 8cc3 28bd 3af8 8e3b 4c57 c33a fca4 383c
00000260: ea54 f53c 6d84 7cbd 5989 8e3c 6fb1 2fbd
00000270: cc37 7c3d 87b7 4dbd 018e 82bd 1012 1fbd
00000280: aaf9 dcbc 9060 713d 0ea1 0bbd d6d7 0bbd
00000290: b8d2 2d3c dbf3 19bd 2303 9fbc 8e76 8bbd
000002a0: 983f 243d dd75 87bd 5a42 cd3c 382b babc
000002b0: e6db 2ebc 410f 4f3d 95bd 19bb 8331 64bd
000002c0: 708c 66bd ccfe 4abb 429e c33c b40b 013d
000002d0: 8c56 d93b 80d5 e9b9 0891 e0bc 3698 ea3b
000002e0: a9a4 43bd 6d50 213d b02d 853d 5bdd 003b
000002f0: 287a 13bd 805f f9bc df07 cdbc ca7b 27bd
00000300: f333 683d ab0f 093c 68ef 45bc 4bf9 0a3c
00000310: 75d7 c1bc 8c76 a1bc a049 fabb 2808 f23c
00000320: c092 413d 41a0 a63d 0a6b 8a3d 1799 da3c
00000330: 7980 12bd ac6b 52bd e33e 34bc eefa 42bd
00000340: f891 56bd 6db5 4c3d 1413 683d 305a c839
00000350: 53f0 013d 82e8 11bd 098f 26bd 109c e63c
00000360: 46fc ff3c a327 213c d24e cebc 493b 463d
00000370: 70c1 44bd 6401 6f3d 21d4 263d 5c55 42bd
00000380: c089 b3bb e4ad 073d 638b 403c 3d4b 4e3d
00000390: fb03 2b3c 91b8 113d f72e 283c dcef 31bd
000003a0: 35eb d3bb f48e bdbc 5d83 923c 00bf 9c3d
000003b0: d7e3 793d 2c78 663d da6b 5b3d 0e0b b43b
000003c0: 7405 83bc a6f1 153d 224a 903b 689a f4bc
000003d0: 833c 82bd 31e1 c73c 727c 3a3c f554 f7bb
000003e0: c092 a6bb 4d5f d5bc d2d2 2d3d fed9 c33c
000003f0: e464 29bd 9db6 babc 385c 49bc d92f 143d
0.012439594 0.029385597 0.06131886 -0.034880567 -0.03463338 -0.008221785 -0.036482427 0.04469347
-0.04683256 -0.03727994 -0.045609824 -0.033416763 0.015033506 0.06389013 0.020956032 0.0007214201
-0.0038248783 0.02525676 -0.012985091 0.08606291 -0.056452483 -0.0072358237 0.004735697 0.04832375
-0.033356395 -0.0071827397 -0.050779164 0.037180968 -0.010958844 0.02846499 0.042857528 -0.03196241
0.05106334 -0.048578404 -0.06264487 0.032043204 0.012972927 -0.01179005 0.032773495 0.0063647744
0.012545219 -0.0031530063 0.059110492 -0.046524253 -0.051164035 0.0053128414 0.06145259 0.01125381
0.04156278 -0.059285354 -0.041427787 -0.065920055 -0.010639517 0.03842423 0.018649304 0.0490915
-0.056981612 0.042231582 -0.060246874 0.04206108 0.03783075 0.0011349547 0.051856775 -0.019946672
-0.060518432 -0.0067104995 0.005764477 -0.0014773447 0.029364152 -0.034100216 -0.025594836 0.013059586
-0.025401514 -0.03985768 0.026527114 -0.037217267 0.01242017 0.0052508 -0.018043114 0.048864823
0.07111165 0.02404903 0.06340297 -0.026896078 -0.048352152 -0.043038942 -0.04007074 -0.030957483
-0.021721777 0.012246951 0.06963591 0.04154867 0.016105194 -0.04714235 0.027297227 -0.025683241
0.017173411 0.048074365 -0.029896453 0.022474332 0.0044203927 -0.007045087 -0.040610127 -0.029777886
0.036316965 0.074625 0.0353332 0.039868608 0.03967939 -0.023082068 -0.0039024574 0.048495933
-0.060290717 -0.017807754 0.016666993 0.022521053 0.0027155671 -0.021206059 0.06349105 -0.047852673
-0.017305508 -0.010996759 0.0048497287 0.0068492307 -0.044826835 0.039091267 -0.04311352 -0.028737213
-0.03727477 -0.011124334 0.046142954 0.014270629 0.036624093 0.070290565 -0.0016541186 0.022342661
0.04797341 -0.048885576 -0.028974965 0.07483209 -0.008177081 -0.021927236 0.02482654 0.019271476
-0.035715967 -0.057455577 -0.03977586 -0.046297237 -0.041202113 0.004363087 0.0014903336 0.011269804
0.029947717 -0.06164973 0.017399477 -0.042893823 0.06157665 -0.050223853 -0.06374741 -0.038835585
-0.026974518 0.05892998 -0.03408914 -0.034141384 0.010609321 -0.037586074 -0.019410675 -0.06809722
0.04009971 -0.066142775 0.025056053 -0.022725686 -0.010672545 0.050551657 -0.0023458947 -0.05571128
-0.056286275 -0.0030974625 0.023879174 0.0315053 0.0066326316 -0.00044600293 -0.027412906 0.0071592582
-0.047764454 0.03938334 0.06502855 0.0019663188 -0.03600517 -0.030441046 -0.025028167 -0.04088954
0.056690168 0.008365552 -0.012081005 0.008482288 -0.023662308 -0.019709848 -0.0076381713 0.029544905
0.047259092 0.08136035 0.06758697 0.026684327 -0.035767052 -0.051372215 -0.0110013215 -0.047602586
-0.0523853 0.04997771 0.05665882 0.00038214168 0.03172333 -0.035622127 -0.040663753 0.028150588
0.031248223 0.00983611 -0.025184069 0.048396382 -0.04803604 0.058350936 0.040729646 -0.047444686
-0.0054790676 0.03312482 0.011751982 0.05036472 0.010437961 0.035576407 0.010265104 -0.04344164
-0.006467248 -0.023139454 0.017884905 0.07653618 0.0610083 0.05626695 0.053569652 0.005494482
-0.015993811 0.036607407 0.0044033686 -0.029858783 -0.06359198 0.024399372 0.011382209 -0.0075479695
-0.005083412 -0.02604642 0.042437382 0.023907658 -0.041355982 -0.022792155 -0.012290053 0.036178444

mlp.2.bias f4 [128]
00000000: 1833 4d3d c220 3c3d a39b 5dbd d447 32bc
00000010: e1cf adbb 81db c7bc a26e 4d3d d02e d13c
00000020: 7caf 553c 449d f13c 296e 14bd 4160 0abd
00000030: 7c60 d6bc 132e 35bd 66a3 c83c 5318 d7bc
00000040: b9b8 74bd 6295 27bd 58a2 89bc f09f c6bc
00000050: abab 10b9 5e2f ad3b 9582 69bd 9a84 57bc
00000060: f092 f63c d0b3 1fbc 372e 93bc 8168 293d
00000070: 7669 1cbd c131 37bc cfb5 8e3d 83cc 1a3d
00000080: 8e90 67bd 5234 5f3d 2f3a b7bc f186 41bc
00000090: e9f9 36bc b820 0ebd da32 203d 8050 953c
000000a0: 2ec2 603d 0a3c 21bd 8536 873d 3319 10bd
000000b0: c0d2 783d 7cf1 483d 9416 433d 9a6c 54bd
000000c0: 8088 263c 5017 7a3d f070 bdbb 5730 3cbd
000000d0: a4fc b23c 2309 393c 1b05 15bb d13a 043d
000000e0: 7841 593d 08e6 bd3c 7f5c 7abc 9381 5d3b
000000f0: b455 36bd f0d9 793a 5908 fbbc 06d6 7fbd
00000100: da6b 113d c018 a63c 5860 04bd 80a2 05bd
00000110: 2286 80bd ea26 8c3d 665e 81bc b8eb 743c
00000120: d0d7 6fbd f2f5 543d c61a 3c3d 8b50 b2bc
00000130: 9b71 0f3d 5418 683d 8471 4e3d 2ba7 683d
00000140: d5d9 43bd 5d57 ed3a 0532 743d 8a4e 1cbd
00000150: c1ec 22bd efd5 1e3d ec89 433d 070e c9bc
00000160: 7f88 7fbd ffab 2fbd a168 debc 5b3d d73b
00000170: 4fa2 bebc f1d5 013d 4a7f fc3c c036 c6bb
00000180: 4e95 0d3d 98b8 063c 97f8 a63c 26a1 0c3d
00000190: a595 203d 4d7d 7c3d b157 513d e49b 893d
000001a0: ee52 483d 6f59 793c aa54 aebb 307e b63d
000001b0: 97b5 903c 5e3c 673d 07f9 8c3d 3e64 88bc
000001c0: 6d1d cb3c f82a d53c 59e2 15bd dffb 92bc
000001d0: eae3 963d da41 2f3d 1b6b 533c 108e 483d
000001e0: 3ac2 23bd 9d2c dbbc e221 4e3b 3f4b 2cbd
000001f0: c6fb 7fbd 3cb1 473d 48d1 3dbd ea66 433c
0.050097555 0.045929678 -0.054103505 -0.010881383 -0.005304322 -0.02439666 0.050154336 0.025535017
0.013042327 0.029493935 -0.03623787 -0.0337832 -0.026169054 -0.044233393 0.024491977 -0.026256716
-0.059746478 -0.040913947 -0.016801044 -0.024246186 -0.00013796861 0.0052851876 -0.0570093 -0.013154173
0.030099362 -0.0097474605 -0.017966373 0.04135943 -0.038186513 -0.011181296 0.06968271 0.037792694
-0.056534342 0.054493256 -0.022366611 -0.011811958 -0.011167982 -0.03469917 0.039110996 0.018226862
0.054872684 -0.0393639 0.06602196 -0.03518028 0.06074786 0.049058422 0.047628954 -0.051861383
0.01016438 0.06105739 -0.0057812855 -0.045944538 0.021848984 0.011293682 -0.0022738639 0.032282654
0.05304095 0.023180977 -0.015280842 0.0033799156 -0.044515327 0.00095310714 -0.030643629 -0.062459968
0.035503246 0.020275474 -0.032318443 -0.032625675 -0.06275584 0.0684336 -0.015792083 0.014948778
-0.058555424 0.051992364 0.04592397 -0.021766922 0.035020452 0.056663826 0.050401226 0.05680005
-0.047815163 0.0018107701 0.059618015 -0.03816084 -0.039776567 0.03877824 0.047738954 -0.024542822
-0.062386032 -0.042888638 -0.0271495 0.0065685934 -0.023270754 0.03169817 0.030822415 -0.006049007
0.034566216 0.0082227215 0.020382209 0.03433337 0.039205212 0.061642934 0.05110902 0.06719187
0.048907213 0.015219077 -0.0053201513 0.08910787 0.017664714 0.056454055 0.06883436 -0.016649362
0.024794305 0.026021466 -0.036592815 -0.017942367 0.0736769 0.04278741 0.012903954 0.048963606
-0.03998015 -0.026754672 0.0031453301 -0.042063948 -0.06249597 0.04875301 -0.046342164 0.011926392
