weights/steps_230001.pth (torch, 276355 bytes, 10 tensors)

lstm.weight_ih_l0 f4 [192, 7]
000000 04 8e cf bd 63 30 c9 bd fa cc b9 bd 5a 45 03 bd
       -0.10134509 -0.09823682 -0.09072299 -0.03204856
000010 3c 0b 21 3e 29 95 ba bd cf 4e 8d bd 80 15 fa bd
       0.15726942 -0.09110481 -0.06899797 -0.12211132
000020 b6 3e 15 be c3 12 be bd 6e 57 f9 bc 75 6f 13 bc
       -0.14574704 -0.09280922 -0.030437198 -0.008998741
000030 a0 e4 a2 3d 26 de 10 bd d7 7b 67 3d 5f 7c 8b 3d
       0.07953763 -0.035368107 0.056514587 0.06810831
000040 da 92 91 3c 3f 68 3a 3d a3 24 6e 3d 76 5c 8a 3d
       0.01777022 0.045509573 0.05814041 0.06755917
000050 d2 b9 3f 3d 74 28 f0 bd 60 f5 43 bc 3e ed bc 3d
       0.04680807 -0.11726466 -0.011960357 0.09224938
000060 4d c2 13 3e f3 6c 10 3e dd f9 b1 3d 9b bc b0 3d
       0.14429589 0.14104061 0.08690236 0.08629724
000070 89 35 71 3d 23 bd 9e 3d 8f 4e 11 bd 02 5f d2 bc
       0.058888946 0.07750919 -0.03547531 -0.025680069
000080 40 10 54 3c b9 ac 0d 3e 9e ae b6 bc 93 08 e4 bc
       0.012943327 0.1383542 -0.02230006 -0.02783612
000090 42 31 cc bd 66 d5 d9 3d 2e 50 a0 bd 9f 83 d5 3d
       -0.09970333 0.10636406 -0.07827793 0.10425495
0000a0 bd f0 32 bd b1 a2 bc 3d ed 63 b6 bd 8b 93 29 3a
       -0.043686617 0.092107184 -0.08905778 0.0006468824
0000b0 dd 91 21 3d ab e0 ac 3d e1 62 14 3e 7e 42 df bd
       0.039445747 0.084412895 0.14490844 -0.10901354
0000c0 74 7d 92 bd 58 54 0c bd 09 32 86 bd 63 98 b7 bd
       -0.071528345 -0.034260124 -0.06552512 -0.08964612
0000d0 00 43 82 bc 8e c4 9b bd 41 12 be bd a0 5b cf bb
       -0.015901089 -0.07605849 -0.092808254 -0.006328061
0000e0 1c e6 da bd 92 5e 42 3d 71 25 3a 3d 12 8c a5 bd
       -0.10688421 0.04745347 0.045445863 -0.08083357
0000f0 30 6d 83 3d 11 43 92 bd c6 14 10 bd 7d 52 4c 3e
       0.0641731 -0.07141698 -0.03517606 0.19953342
000100 e0 a9 e1 bb b5 71 6f 3d 33 d2 28 3d ac 24 17 3c
       -0.0068867058 0.05845805 0.041216087 0.009225052
000110 02 e3 1a 3e d4 82 05 bd 9e 72 bc bd d1 52 b6 bd
       0.15125659 -0.03259547 -0.09201549 -0.08902515
000120 10 d7 cd 3c ba df 14 3e 2a ad 1b 3e bd f7 84 bd
       0.025126964 0.1453847 0.15202776 -0.06492565
000130 35 30 10 3e 86 6e 06 be 31 3c 9a ba 9e 8a cb 3d
       0.1408089 -0.13128099 -0.0011767206 0.099385485
000140 d6 e6 b6 bc 23 f7 4f 3d 1e 46 82 3d 0a 50 98 bb
       -0.022326868 0.050772797 0.0636103 -0.0046482133
000150 fb e9 06 bd 83 24 0f 3c db 5b 08 be bc 8b 57 39
       -0.032937985 0.008736732 -0.1331629 0.00020556053
000160 92 10 15 bd ee 2b 41 3d 77 30 c7 bd 11 9c 57 3d
       -0.036392756 0.047161035 -0.09726041 0.05263907
000170 2c 40 ac 3b 8a 8e 1e 3d 12 c6 aa 3c de 49 fc bd
       0.0052566733 0.038710155 0.0208464 -0.123187765
000180 fc 3e ea 3d 57 2d f5 bd c6 bb 38 bd 4b 42 21 bd
       0.114377946 -0.119715385 -0.04510095 -0.039369863
000190 6a fb d4 3d 97 36 a9 bd e8 ea 9a bd 5b c9 23 bd
       0.10399516 -0.08262365 -0.07564336 -0.03998695
0001a0 ca cc 23 3e 76 2b 28 be 35 2b 16 be 33 b5 ca bd
       0.1599609 -0.16422829 -0.1466492 -0.09897842
0001b0 48 f0 27 3d e7 2b bf bd 4b dd ec 3d 65 50 9c bd
       0.041000634 -0.093345456 0.11565646 -0.076325215
0001c0 3e 26 ad 3d 65 01 07 3e 31 c2 a6 3d e1 88 84 bd
       0.0845456 0.13184126 0.08142508 -0.0647142
0001d0 7e 4c 6a 3d 40 72 da 3c 92 33 44 3e d7 3f c2 bd
       0.057201855 0.026665807 0.19160298 -0.09484833
0001e0 62 5e 11 be c7 9c d7 3d db 81 a0 3d 78 ef 08 3e
       -0.1419616 0.1052795 0.07837268 0.133726
0001f0 8f 20 11 3e f2 72 22 3e d7 3d bd bd 73 b4 df 3c
       0.14172576 0.1586416 -0.09240311 0.027307725
000200 53 88 e2 3d 8b b3 8e bd 54 ad 0c 3e a7 12 4a 3d
       0.11061158 -0.06967839 0.13737994 0.049334195
000210 3a ca c1 3c 5b a3 f3 3d 88 ab 07 3e 47 79 bb 3d
       0.023656 0.11896392 0.13249028 0.09153991
000220 bd 1a a4 bc 24 b2 9d bd 8a 38 37 3e 85 74 12 3e
       -0.020032281 -0.07699993 0.17892662 0.14302261
000230 e1 7a 93 bd 41 58 26 3d 3b 96 76 3d 6e 39 73 3d
       -0.07201172 0.04061151 0.060201865 0.05938094
000240 27 e6 72 3d 60 2c d9 bd 04 82 8c 3d f9 e1 8a bd
       0.05930152 -0.10604167 0.06860736 -0.06781382
000250 92 40 96 bd 3e 60 8a 3c 5c a7 f0 bc e3 54 2f 3c
       -0.073365346 0.016891595 -0.029376678 0.010701391
000260 7c cb 64 bd 89 08 c6 bc d8 2d 0f be 27 64 ea bd
       -0.05585812 -0.024173992 -0.13982332 -0.11444884
000270 77 a5 ce bd c4 74 8a bd 55 ab 9e 3d 5b 0b bc bd
       -0.10090154 -0.067605525 0.07747523 -0.091818534
000280 78 53 d6 3b f0 b7 c0 bb be b0 fd bb 9b ea 7f 3b
       0.006540712 -0.005881302 -0.0077420166 0.0039049748
000290 39 99 1b 3d 0f 35 06 3e b3 56 0e bd 29 28 05 3e
       0.03798792 0.13106178 -0.03475065 0.13003601
0002a0 ca b7 31 3e fe cb 99 3d dd 7a 9c 3d 49 46 93 bd
       0.17355266 0.075096115 0.07640622 -0.0719114
0002b0 eb bc 01 3d 0d 19 06 3e 8b a1 8e bd fc 95 13 3e
       0.031674307 0.13095494 -0.069644056 0.14412683
0002c0 b6 54 0c 3e a7 4f 7c 3d 2f af 20 3e c3 90 3d 3d
       0.1370419 0.0615994 0.15691827 0.046280634
0002d0 f5 14 e4 bd 83 89 d1 3c 4b 9d 27 3e da e9 8a bd
       -0.1113681 0.025578266 0.16368596 -0.06782885
0002e0 81 d7 b2 3d 1b 79 ed 3d 2d 21 ec 3d a7 80 96 3d
       0.0873251 0.11595365 0.11529765 0.07348757
0002f0 aa 53 00 3e b4 8e cd bc 3c ce e1 3d 70 f8 16 3d
       0.12531915 -0.02509246 0.11025664 0.036858022
000300 4f 4d a7 3d d5 a7 6f bd 17 11 17 3e 7d 93 49 3d
       0.08169042 -0.058509666 0.14752613 0.04921292
000310 e6 72 d8 3d 41 7a bf bc f4 14 65 bd 1f 81 f3 bc
       0.1056879 -0.023373725 -0.055928186 -0.029724656
000320 d8 b2 e1 3d a5 90 8e 3a 99 a9 0f 3e 9b 65 15 3e
       0.1102044 0.0010876848 0.1402954 0.1458954
000330 44 e3 62 3d 66 68 a1 3d f7 09 dc 3c d7 4e f8 3c
       0.05539252 0.078812405 0.02686022 0.030311031
000340 38 b2 14 3e 94 e3 b5 bd af 77 de b9 03 78 fc bd
       0.1452111 -0.08881298 -0.0004243231 -0.12327578
000350 89 90 f1 3d 99 27 02 bb ae c8 99 3d 07 4f 74 3d
       0.11795146 -0.0019860028 0.0750898 0.05964568
000360 f2 76 1d 3e c2 d8 d5 bd 8b 7f 4a bd 93 19 91 bb
       0.15377405 -0.10441734 -0.04943804 -0.0044280975
000370 df 08 a8 3d 86 8f 49 3d f7 28 ed bd a6 c1 19 3e
       0.08204817 0.04920914 -0.11580079 0.15015277
000380 8d c7 2f 3d 3c f3 12 3e ae a0 9c 3c 2e 9e 01 3d
       0.042914916 0.14350599 0.019119587 0.031644993
000390 8b 61 2e 3e b2 6c c4 bc 86 c3 25 bd 08 bd 60 3d
       0.17029397 -0.023977611 -0.04046967 0.054867774
0003a0 91 93 a3 3b c5 fc 38 bd 35 9f 73 3d 6a c8 ad bd
       0.0049919565 -0.045162935 0.059478004 -0.084854916
0003b0 f5 26 0b 3d ee 37 d3 3d 67 f5 9f bd b5 ae b9 bd
       0.0339727 0.10313402 -0.07810479 -0.09066526
0003c0 ba 9c bf bc fb 69 2e 3c f5 73 59 bc a2 5d 04 be
       -0.023390163 0.010645385 -0.013272275 -0.12926343
0003d0 6a 34 18 bb be 49 f5 bd 42 38 92 3d 08 fb fc 3c
       -0.00232246 -0.11976956 0.071396366 0.03088142
0003e0 7c 30 a7 bc 5d 08 0e 3e 86 79 e5 3d 65 12 35 bd
       -0.020408861 0.13870378 0.112048194 -0.044206996
0003f0 8c 10 fd bd c2 fd b0 bd 0a b0 05 3e 01 6d 30 3d
       -0.12356672 -0.086421505 0.13055435 0.043072704

lstm.weight_hh_l0 f4 [192, 48]
000000 5c 4c e2 3d 4a cf a3 3d 7a aa dd bd 9a 51 59 3d
       0.11049721 0.079985216 -0.108235314 0.053056337
000010 16 06 2d 3d 2a 10 14 be 40 89 23 be 39 9c a2 3b
       0.042242132 -0.14459291 -0.15970325 0.004962471
000020 c3 5d 41 bd 8c 26 63 3d 10 68 5d bc 7a 27 1a 3d
       -0.04720856 0.055456683 -0.01351358 0.037635304
000030 2f 79 07 3e 3f 44 2e 3d 15 7d 98 bd fc f2 eb 3d
       0.13229822 0.042545553 -0.074457325 0.11520955
000040 63 a8 25 bd af d2 c8 3d 03 4f 39 bd ca 92 0a be
       -0.04044379 0.0980581 -0.045241367 -0.13532558
000050 50 6b 45 3c bb 93 08 3e 81 6d 5d 3d 93 85 04 bd
       0.012049511 0.13337605 0.05405951 -0.03235395
000060 7b 03 aa 3b b7 12 4b 3d c5 ae 8e bd 40 74 1b 3c
       0.005188403 0.049578395 -0.069669284 0.009488165
000070 18 2a 30 be ee 15 0e be c0 1b fd bc 40 5a 81 bd
       -0.17203557 -0.13875553 -0.030897021 -0.06316042
000080 4f d7 28 bd 5f 15 88 bd ec 4b 9f bd 07 88 bc bc
       -0.04122096 -0.06644701 -0.07778153 -0.023014082
000090 ec 12 92 3d 96 13 c4 bd b7 1d 26 be 3a 4e 77 bb
       0.07132515 -0.09574048 -0.16222273 -0.0037735836
0000a0 ad 53 8e bd 43 31 87 bd f2 e8 5a be 77 6a 13 bd
       -0.06949554 -0.06601193 -0.21377924 -0.035990205
0000b0 fd 98 45 3d 59 6c b0 bd 88 bd 4f bc 5b d2 b7 3d
       0.048241604 -0.08614416 -0.012679465 0.08975669
0000c0 dc 0a c6 bd dc df 0f bd 6b 04 b1 bd 5e 87 ba 3d
       -0.0967004 -0.0351256 -0.08643421 0.091078505
0000d0 66 e7 91 bd f5 34 a4 bb c9 e3 f4 3d e4 24 2f be
       -0.07124214 -0.005011196 0.11957509 -0.17103916
0000e0 5b 73 9f 3c a4 60 ed bc 03 5d f0 3d 9b 25 09 bd
       0.019464185 -0.028976746 0.117364906 -0.03348313
0000f0 99 82 ef 3d c8 7b ad bd 42 17 9b 3d f0 23 30 bd
       0.116948314 -0.08470875 0.075727955 -0.043003023
000100 5c 25 ef 3d a7 a0 e9 3d cc 79 57 bb 3b 13 0f be
       0.116770476 0.11407595 -0.0032878993 -0.1397218
000110 6d 5f a7 3d 23 d7 41 3e 51 8d 3b 3d d2 80 ac bd
       0.08172498 0.18929724 0.045789067 -0.08423008
000120 fd 4c ab 3b e1 22 0b be 1c dc 5e bd 25 62 ce bd
       0.0052276836 -0.13587524 -0.05440913 -0.10077313
000130 76 a2 0b be a6 f4 8b bd f5 26 4d bd cf 47 a8 3d
       -0.13636193 -0.06833772 -0.05008598 0.082168214
000140 2c 90 07 be 91 56 9c bd 65 6d 86 3d 95 ac 25 bc
       -0.13238591 -0.07633699 0.06563834 -0.010111948
000150 42 1c b0 bd f1 f6 64 3c 8b bc 91 3d de f1 20 3e
       -0.0859914 0.013974891 0.0711604 0.15717265
000160 84 f5 58 3c 90 d4 f6 bc 4d ea 01 3b 44 6f 82 bd
       0.013242129 -0.030130655 0.0019823492 -0.063688785
000170 e9 cc 13 3d d5 a0 6d bd ce f7 2a be e5 9d 7c bd
       0.03608409 -0.05801471 -0.16696092 -0.061674017
000180 2d 44 b4 bc 17 a6 c6 bd 57 79 c9 3d 2d 5f 5b bd
       -0.022005165 -0.09699648 0.09837597 -0.053557564
000190 40 2d 06 be 42 ca 15 be c8 42 1a bd 99 8a 83 3c
       -0.13103199 -0.14627936 -0.037661344 0.0160573
0001a0 12 55 1a 3d 98 84 c1 3b 4e f4 1e 3e 73 97 26 bb
       0.037678786 0.005905699 0.15522882 -0.002541986
0001b0 23 f0 82 3d a1 c6 2e 3d 8b 97 01 bd dd 62 f8 bd
       0.06393459 0.042669896 -0.031638663 -0.12128232
0001c0 db 91 64 3d f1 0f 31 be 7b 14 e4 bd f3 49 19 bd
       0.05580316 -0.17291237 -0.11136719 -0.03742404
0001d0 d7 3a c2 bd f5 19 5e 3d 15 01 fe bb 4a f5 e7 bd
       -0.09483879 0.054223973 -0.007751594 -0.11326082
0001e0 af cf a0 bd db 17 c9 3c 34 71 1d be e9 f2 48 be
       -0.078521125 0.024547508 -0.15375215 -0.19623913
0001f0 af ab fb bd 01 53 e6 bd 18 74 bc 3d da 87 ce 3c
       -0.122886054 -0.112463005 0.092018306 0.025211263
000200 27 b8 13 3e 6f 94 18 3e 7d 2b 2a bd 1b 84 83 bd
       0.14425717 0.14900373 -0.04154538 -0.064216815
000210 a9 98 8a 3d 2a 38 1e 3d 7a f6 bf 3c 9e 81 f2 3d
       0.06767399 0.03862778 0.023432959 0.11841129
000220 32 54 0e 3c 49 d8 24 3e 27 65 81 3d 8d ae 31 3e
       0.008687066 0.16098131 0.063181214 0.17351742
000230 b6 33 37 3c ca e0 de bc bd 6e f9 bd 76 fb 05 bd
       0.011181762 -0.027206797 -0.12179325 -0.032710515
000240 67 0e 6c 3c 65 41 cc 3b 28 e7 44 bd cf 7d 16 3d
       0.014407731 0.0062333816 -0.04807201 0.036741074
000250 4a 32 39 be 7c e3 57 be 35 50 47 bd 2c 72 2d be
       -0.1808559 -0.21082872 -0.048660476 -0.16938084
000260 62 4c b2 bc b6 b5 31 3e 47 d6 3f 3d 73 74 1e be
       -0.021764938 0.17354473 0.04683521 -0.1547411
000270 43 81 e9 3d 91 c1 14 3d 68 f7 a5 3c ea e1 71 3b
       0.11401608 0.03631741 0.020259574 0.0036908337
000280 b4 01 13 3d 31 74 13 be b4 9a f9 3d d9 4e 7a bd
       0.035890296 -0.14399792 0.121877104 -0.06111035
000290 62 39 fe 3c ca 8c 37 3e 05 e9 8c bd bc cc 00 be
       0.031033222 0.179248 -0.068803824 -0.125781
0002a0 7d 8e ef bd c7 37 8a 3b d1 6a 37 bb 1c 35 15 3d
       -0.11697099 0.004218075 -0.0027987252 0.036427602
0002b0 66 d5 b1 bd bb 53 2c be 4c aa 6c 3d 02 a6 19 3e
       -0.08683281 -0.16828816 0.057779595 0.15004733
0002c0 b0 d3 90 3d c6 bc b6 3c 75 bf d7 3b 35 99 09 3d
       0.07071626 0.022306811 0.0065841028 0.033593375
0002d0 3b 23 e0 3c 36 c1 19 be c0 c3 f6 3b f3 bd 10 3e
       0.02736055 -0.1501511 0.0075306594 0.1413496
0002e0 a0 38 47 3e b5 76 d2 bd 69 94 5e 3c 5c 45 a6 bd
       0.19455194 -0.10276548 0.013585188 -0.08118698
0002f0 e8 dc ef ba 9f 05 95 bd a7 c9 2e be 5c 22 0b 3e
       -0.0018300088 -0.07276463 -0.17069112 0.13587326
000300 87 44 77 3e 7c b9 be bd 3a b4 42 3e 06 fc e7 bd
       0.24147235 -0.09312722 0.19014063 -0.113273665
000310 37 8c 43 be bd 4b 1f be a5 dc 21 be 50 f3 08 be
       -0.19096456 -0.15556236 -0.15806825 -0.13374066
000320 39 fc 18 3d 9c e7 d8 3d a5 99 67 3e 7d a8 a3 3c
       0.037349913 0.10591051 0.22617204 0.019977802
000330 a1 ea 20 bd 77 46 d1 3d 8b 7b 53 3e 9c 5c 56 be
       -0.03928626 0.10218518 0.20652597 -0.20933765
000340 ae 10 07 3e b0 dd 91 be a0 6f 43 3e d7 86 f4 3c
       0.13189957 -0.28489447 0.1908555 0.029849453
000350 27 98 10 be ae ea c5 bc dc c1 33 3e 8e ce 2c be
       -0.14120542 -0.024159756 0.1755442 -0.1687567
000360 06 18 01 be 7f 79 85 3e ef ad 51 be d3 92 75 be
       -0.1260682 0.26069257 -0.20476507 -0.2398179
000370 b5 b7 c9 3c 83 82 af bd 93 db 05 3d 5c e5 c5 3d
       0.024623731 -0.08569815 0.032680105 0.096628875
000380 9e 66 cd 3c 2e a1 35 bc dd b5 53 3d f4 04 6b 3e
       0.025073346 -0.0110857915 0.05168711 0.22951108
000390 7e 21 71 3a 56 e7 f3 bd 1a d8 2a bc 41 2a 95 bc
       0.0009198411 -0.11909358 -0.010427499 -0.018208625
0003a0 36 26 12 3e 8c 98 30 3c b9 34 18 be 99 42 b4 3d
       0.14272389 0.0107785575 -0.14863862 0.08801765
0003b0 60 48 5e 3d d5 f6 1e 3d b0 cc 80 be 67 3a f9 3c
       0.05426824 0.038809616 -0.25156164 0.030423356
0003c0 bb 22 e8 3c 0f 36 4a be 11 cf ba 3d 19 7e e6 bc
       0.028336873 -0.19747184 0.09121526 -0.0281363
0003d0 b2 d5 02 bc 2d ea 3f be 68 fe e3 3c 4b 15 d2 3c
       -0.007985519 -0.18741675 0.027831271 0.025644919
0003e0 57 00 45 be 88 03 de 3d 4a d5 46 3e 7e 40 60 3d
       -0.19238411 0.10840517 0.19417301 0.054749005
0003f0 62 42 d9 3d b2 c5 ab bc ad 87 a0 bd 9e 1e b1 bd
       0.10608365 -0.020968292 -0.07838378 -0.08648418

lstm.bias_ih_l0 f4 [192]
000000 ee 8c 83 3d ef 54 6c 3d bb 66 8d bd a2 bc 8b bd
       0.064233646 0.057698186 -0.0690436 -0.06823088
000010 c6 2a 1d bd 4c 04 60 bd 9e 06 b2 3d 13 b7 42 3d
       -0.03837087 -0.054691598 0.086926684 0.047537874
000020 39 61 9d 3d e4 04 03 3e 11 4a d3 3c 3f 20 00 be
       0.076845594 0.12794834 0.025792154 -0.12512301
000030 9f fb 70 bd 6d 1a 94 3d 30 7d 94 bd f1 99 0e 3d
       -0.058833715 0.07231603 -0.0725044 0.03481478
000040 16 79 1a bd 61 7e 91 3d cf 2f 01 3e 3c de 08 bd
       -0.037713133 0.07104183 0.12615894 -0.033415064
000050 c1 5f 18 3e 3a 09 8f 3d 71 0d 04 3e f6 76 a0 3d
       0.14880277 0.06984182 0.12895752 0.0783519
000060 d4 02 6c bd 15 6f 48 3d 33 1a 03 3e 93 d8 b0 3d
       -0.057619885 0.04893406 0.12802963 0.08635058
000070 92 89 0b bc c0 fd bc 3c 1b 02 d6 bd a9 e4 01 3e
       -0.008516686 0.023070216 -0.1044962 0.12684883
000080 5d 61 b3 bd 85 33 e3 3a a7 e9 f3 3d f6 57 84 bd
       -0.08758805 0.001733408 0.119098 -0.0646209
000090 2b 61 db bd 82 d8 a6 3d 7f 3b 94 bd 19 e5 ab 3d
       -0.10711893 0.08146764 -0.072379105 0.08393306
0000a0 94 97 a6 bd 98 66 4c 3e fd 02 be 3d 34 67 9f bc
       -0.0813438 0.19961011 0.09277914 -0.01945839
0000b0 a7 d0 82 3d 85 01 3c 3d 86 f4 68 3d 2a bb b7 bd
       0.063874535 0.045899887 0.05687382 -0.089712456
0000c0 3b b4 7e 3c c8 8a 66 3d f6 3e 66 3c 02 79 02 3e
       0.0155459 0.056284696 0.014053097 0.12741473
0000d0 6c 16 db bc 60 9f d3 bd 46 51 d1 3d a2 4b 0f 3e
       -0.02674409 -0.10333133 0.1022058 0.13993695
0000e0 22 5a 50 3c 88 9a ff 3d 28 0f 0a bd f3 db ca bd
       0.012716802 0.12480646 -0.03370586 -0.09905233
0000f0 4d 50 fa 3c 02 ba 91 3c 42 26 08 bd b7 75 c5 3d
       0.030555869 0.01778889 -0.03323961 0.09641593
000100 e4 ce ef 3d 3c 0c 9f bc 87 57 b3 bd 87 33 d1 bd
       0.11709383 -0.019415013 -0.08756929 -0.10214906
000110 f8 8e 46 3d cf cf 34 3e 0d a4 0b 3d 7e 9a 04 3e
       0.04847619 0.17657398 0.034091998 0.12949559
000120 a1 c3 09 3d 77 69 81 bd 28 b9 7a 3d fb 47 1c bd
       0.033633832 -0.06318944 0.061211735 -0.038154583
000130 a6 8c ec 3d b8 0d da 3b c0 60 b2 3d 4a 2d d6 bd
       0.11550264 0.0066544674 0.0870986 -0.10457857
000140 bf 79 5b bc 72 61 e0 bd 4e 43 83 bd ea 77 ec 3d
       -0.013395726 -0.10956086 -0.06409322 0.11546309
000150 c7 b5 99 bd c6 57 18 3e dd 38 e4 3d 0b 97 f1 bc
       -0.075053744 0.14877233 0.11143658 -0.029490968
000160 9a c2 18 3e 77 d4 84 bd f2 5e e9 3d 23 e9 0a 3d
       0.14917985 -0.06485837 0.113950625 0.033913743
000170 3b 52 c4 bd 03 f4 f3 bd 91 cf 05 3c d2 d0 8e 3d
       -0.09585997 -0.11911776 0.0081671635 0.06973423
000180 07 77 c3 3c 1a 39 48 3d 65 e0 c2 3d 63 38 9d bd
       0.023860468 0.04888258 0.09515456 -0.076767705
000190 2b 0d fb 3d 8d 75 a9 3d e4 b2 11 bd e0 49 3f bd
       0.12258371 0.08274374 -0.035570994 -0.046701312
0001a0 c2 c4 0e 3e 1e e5 53 bd 90 e7 b5 bd d4 dc 07 be
       0.13942245 -0.051732175 -0.08882058 -0.13267833
0001b0 65 fc bb bc 56 47 f8 3b a9 61 6d bd fb 0b 11 3e
       -0.0229475 0.0075768633 -0.057954464 0.14164726
0001c0 78 0a 29 3e e0 b9 29 3e 1d 26 9c 3d bd 51 0b be
       0.165079 0.16574812 0.07624457 -0.136054
0001d0 9f df 9f 39 9e 7a 56 bd 08 e7 d0 3d 47 f3 09 be
       0.00030493454 -0.05236303 0.10200316 -0.13471709
0001e0 b9 81 a3 3d b3 91 77 bd 79 cd 7e bd 7d e1 54 bd
       0.07983727 -0.060441684 -0.062207673 -0.051972855
0001f0 1e 8f d1 bd 99 30 94 bd 8d d1 90 bd 44 88 d4 3d
       -0.102323756 -0.07235832 -0.07071219 0.10377553
000200 38 a9 66 3d 9c 5b 67 3d 5c ef 1b be e5 2b 7a 3d
       0.056313723 0.05648385 -0.15228027 0.061077017
000210 96 64 18 bc 06 0b 67 bc 93 af de bd 61 6f b4 3d
       -0.009301325 -0.014101749 -0.10873332 0.08810306
000220 8d ee 32 3d e9 03 cb bd 60 d0 10 3e 4d f2 13 bd
       0.04368453 -0.09912855 0.14141989 -0.036119748
000230 b3 aa 4a bd e9 d7 f1 bd 0e 1a da bd f0 04 26 bd
       -0.049479198 -0.1180876 -0.10649501 -0.040532053
000240 19 cf 39 3e 59 70 f7 3d 33 15 da 3d 1d d3 1e 3e
       0.18145408 0.120819755 0.10648575 0.15510221
000250 d0 1e bd bd 63 d5 e0 ba bb 23 2d 3d d9 aa 5d 3d
       -0.09234393 -0.0017153438 0.042270403 0.05411801
000260 80 35 fa 3c 1b f8 e3 3d 66 76 e3 bd 24 f8 00 bd
       0.030543089 0.11131307 -0.11106567 -0.031486645
000270 41 2f cf 3d ff 9e 36 bd c8 4a 38 3e d8 0b 3f 3e
       0.10116435 -0.044585224 0.17997277 0.18656862
000280 b5 cc 04 bd 7d 36 4d 3e 43 00 b1 3a 1b 2c a9 bd
       -0.032421786 0.20040317 0.0013504106 -0.082603656
000290 f1 7f ad 3d 1f d1 12 3e 66 1b e1 3d 6b 41 72 3c
       0.084716685 0.14337586 0.10991554 0.014786105
0002a0 c1 80 0a 3d 8c 16 45 3e e7 76 04 3e 9b 8d 15 bd
       0.033814196 0.19246882 0.12935983 -0.036512
0002b0 20 b2 c2 bc a3 68 be 3b 59 85 32 3d ac a3 23 3e
       -0.023766577 0.0058108135 0.0435842 0.15980405
0002c0 9c 74 56 bd 54 39 e8 3d 5e c8 3f 3e a9 3d 07 bc
       -0.0523573 0.113390595 0.18728778 -0.008254447
0002d0 03 24 ee 3d 60 ee da 3d 89 dd 2d 3e 7b 8c 93 bd
       0.116279624 0.10689998 0.1697904 -0.07204529
0002e0 0b f7 82 3c e0 1d 5b 3e 8b bf 7e 3d 02 d1 97 3d
       0.01598694 0.21398115 0.06219439 0.07412912
0002f0 57 19 88 bc 7f e0 47 bd cb 7a 13 3e 99 09 ac 3d
       -0.016613645 -0.04879808 0.1440231 0.08400268

lstm.bias_hh_l0 f4 [192]
000000 f1 7d b7 3d 24 3d bd 3d 18 06 23 3d 79 13 53 bd
       0.08959568 0.09240177 0.039800733 -0.051532242
000010 36 65 2c 3d e4 c7 0d 3e 4e 0f 95 3c 40 8a f3 bc
       0.04208871 0.13845783 0.018195774 -0.029729009
000020 4c 5d 0f 3e a6 7a e6 3d d9 d9 f5 3c 23 dc c5 3d
       0.14000434 0.11253862 0.030011104 0.09661128
000030 5b be b0 bd 9e 5d fd 3d ec ec b1 bd d0 a1 25 3d
       -0.086300574 0.12371372 -0.086877674 0.04043752
000040 ed 78 b6 3d 5b 8b 71 3b de b0 54 3d 10 6b 88 bd
       0.089097835 0.0036856744 0.051926486 -0.066610456
000050 cf eb 8d 3d 62 2d df bd 5f 56 0f 3c ff 66 5a bd
       0.069297425 -0.10897328 0.00874862 -0.05332088
000060 9c 0b 8a bd 25 15 e5 3d 1f 0f 8f bc 10 64 3c bd
       -0.067404956 0.111856736 -0.017463265 -0.045993865
000070 20 f3 97 3d c6 39 67 bd da 4f f4 bd 1e 7b ab 3d
       0.07419419 -0.05645158 -0.11929293 0.08373092
000080 ff 2f ea 3d b4 52 7e 3d ee d0 28 3e 3c b3 17 3e
       0.11434936 0.06209059 0.1648595 0.14814466
000090 41 12 cd bd ed 62 26 bd a0 7d ca 3d 18 1e 8f 3c
       -0.10013247 -0.040621687 0.09887242 0.017470405
0000a0 d0 54 fe ba d1 4d 1f 3e 49 4c 2d 3e 4f cf d7 3a
       -0.0019403938 0.15557028 0.16923632 0.0016464981
0000b0 2c b5 2c 3e f6 a9 a8 3d 6c 14 d0 bd 29 d3 03 3e
       0.16865987 0.082355425 -0.10160145 0.1287352
0000c0 f1 99 f9 3d ef b7 ba bd 49 ef d0 bd 16 94 c1 3a
       0.12187565 -0.09117114 -0.1020189 0.0014768864
0000d0 a3 87 1b 3d 20 18 f4 bd b0 c9 e6 3d 19 56 cc 3d
       0.03797115 -0.11918664 0.112689376 0.09977359
0000e0 4c 82 7e 3b 05 95 dd bd df 9c 7f bc b7 f4 94 3d
       0.0038834987 -0.10819439 -0.015601366 0.07273238
0000f0 67 d6 ec 3c b4 80 ea 3d d5 28 9d 3d c6 0d a2 bd
       0.028910829 0.114503294 0.07673804 -0.07912783
000100 71 c3 27 bd 6e 3a c7 b9 11 6a 08 3e 73 53 cd bd
       -0.04095787 -0.0003799977 0.13321711 -0.10025682
000110 3d e0 f1 bd 35 62 2c 3e 55 b6 c1 bc 99 af 92 3d
       -0.11810348 0.16834338 -0.023646513 0.07162399
000120 cd dc 03 bd a5 56 15 bd 82 19 07 3e 08 5b 22 3c
       -0.032192994 -0.036459584 0.13193324 0.009909399
000130 52 63 d4 bd d5 ea 88 3d 17 e8 04 3b 58 0d d7 bd
       -0.10370506 0.06685416 0.0020279938 -0.10500592
000140 a5 10 8d bd be ef 93 3d 44 24 90 bd e2 83 80 bd
       -0.0688794 0.072234616 -0.07038167 -0.06275155
000150 04 d4 d5 bc cc fb 66 3d e5 8a 4f bd f9 ea 18 bd
       -0.026102073 0.056392476 -0.05066957 -0.037333462
000160 72 fe 8d 3d 5e a9 8d 3d e2 c9 b8 bd d7 cb 32 3d
       0.06933297 0.0691707 -0.09022881 0.043651428
000170 04 dd ed bd a3 cb c7 3d 37 88 ca bd 49 f2 51 bc
       -0.11614421 0.097556375 -0.09889262 -0.012814113
000180 a2 ef 78 3d 2e 24 f5 ba dc b2 d9 bc 34 73 07 be
       0.060775407 -0.0018702799 -0.026574545 -0.1322754
000190 45 f1 f6 3b d5 b2 79 3d 1f 39 ae 3c 06 b9 5d 3d
       0.007536086 0.060961563 0.021267472 0.05413153
0001a0 c4 ee 09 3c 4d 53 1a be f0 8c 94 3c 51 21 ed bd
       0.008418743 -0.15070839 0.01813361 -0.1157862
0001b0 90 a4 c6 bc a9 e2 7f bd f3 3e 17 3d 73 18 d3 3d
       -0.024248391 -0.06247202 0.036925267 0.10307398
0001c0 49 4b a5 3d a3 d0 01 3e e4 36 bc 3d ac 10 88 3d
       0.08071 0.12677245 0.09190157 0.06643805
0001d0 35 b5 d6 bd da c8 0b bd e7 25 c4 3d f5 49 b7 bd
       -0.10483781 -0.034127094 0.09577542 -0.08949653
0001e0 6f 29 a4 3d e8 d9 2e be 6b ca 90 3d 14 5b cb 3d
       0.08015715 -0.17075312 0.07069858 0.09929481
0001f0 a7 13 d2 bd c1 d8 c1 3d 56 02 64 bd 89 c4 09 be
       -0.10257655 0.09465171 -0.05566629 -0.13453878
000200 3b e8 bb ba 24 6b cf bd 8e 16 b5 3d 62 3f 00 bc
       -0.0014336178 -0.10127857 0.088421926 -0.007827612
000210 ea ad 8d 3d 22 92 0f 3e 2a d6 19 3e b4 37 54 3d
       0.06917937 0.14020589 0.15023103 0.051810935
000220 b6 f2 0f be 4b e5 2d 3c 7b d4 3c bd ff 59 ac bc
       -0.1405743 0.01061375 -0.046101075 -0.021039007
000230 f1 39 8a bc c6 d2 37 be 20 3e d2 3d 1f 33 60 3d
       -0.016873332 -0.17951497 0.10265756 0.054736253
000240 b3 16 ea 3b 72 26 ca bc fc 79 0e 3e ef 5d 2d 3e
       0.0071438192 -0.024676535 0.13913721 0.16930364
000250 70 52 16 bd cc f0 cf bc 48 f4 c2 bc d5 9b 0c 3d
       -0.036699712 -0.025383376 -0.023798123 0.0343283
000260 31 36 1a 3e f2 25 06 3d 44 13 c5 bc 58 b3 06 3e
       0.15059735 0.03275103 -0.024057038 0.13154352
000270 b1 a9 72 3d 4e f2 92 bd 9d b3 e1 3d 8f 56 ca bc
       0.05924386 -0.07175122 0.11020587 -0.024699477
000280 1c 54 81 3c 92 44 38 3e ca 8e 8b bd 8f cf 44 bc
       0.015787177 0.17994907 -0.06814344 -0.012012376
000290 88 8d 6c 3b 66 01 12 3e d7 1b 24 3e d4 18 ad 3c
       0.0036095101 0.14258346 0.16026245 0.021130003
0002a0 ee 6d ce bd 02 8b 4b 3e 17 79 c8 3d 26 4a c8 3d
       -0.10079561 0.19877246 0.09788721 0.09779768
0002b0 4f 12 fa 3c 4a 62 41 bd 1b e0 c0 bd 5d 00 10 3e
       0.030526308 -0.047212876 -0.09417745 0.14062639
0002c0 2a 11 b8 bd 49 40 be bd d9 47 38 3d c7 06 05 3e
       -0.08987649 -0.09289605 0.044990394 0.12990867
0002d0 ab c7 a6 bd 80 40 92 bd 38 18 0a 3e 8d 8a 21 bc
       -0.081435524 -0.07141209 0.13485801 -0.009859693
0002e0 0b 12 fd 3d 69 2e 33 3e 04 00 db 3d 2b 9f 20 3e
       0.12356957 0.17498173 0.10693362 0.15685718
0002f0 62 61 07 3e d9 ab bb bd 5f d8 07 3e 3e f6 38 bd
       0.13220742 -0.09163637 0.13266133 -0.04515671

mlp.0.weight f4 [256, 54]
000000 5d 70 3d bd 8d 94 c5 bd 64 08 d7 3d 3c b8 2f bc
       -0.046249736 -0.096474744 0.10499647 -0.010725077
000010 7b 15 84 bc ce 67 7d 3d 82 62 f4 3b 3d 5c 67 bd
       -0.016123524 0.061866574 0.007458032 -0.05648445
000020 9a 45 03 be cb e5 49 bd 4a f9 d2 bc 98 f0 05 3e
       -0.1281952 -0.049291413 -0.025753636 0.1308006
000030 79 99 62 bd ab 6f cf 3d 3d a5 e9 bd 89 bd 22 bd
       -0.055322144 0.10128721 -0.1140847 -0.039731536
000040 84 10 53 3d 03 64 e2 bc d2 dc 8c bd 64 0d 13 bd
       0.051529422 -0.02763558 -0.06878056 -0.035901442
000050 2c 45 f6 bd 5d 7e 00 3e b9 64 bf 3d 08 19 03 3e
       -0.12024912 0.12548204 0.09345383 0.12802517
000060 61 98 04 be 1d b3 3b 3d 62 75 d0 3c 49 54 01 3d
       -0.12948753 0.045825113 0.025446597 0.03157452
000070 a3 1e fd bd 93 41 14 3e d5 d6 be 3d 47 43 e8 bd
       -0.12359359 0.1447814 0.0931832 -0.11340957
000080 e8 e3 e3 3c e2 cb b5 3d 05 5f e4 bb b4 c9 e4 3d
       0.027818635 0.08876778 -0.006969335 0.11171284
000090 2c 90 d1 bd e5 f9 0e 3d c4 53 a3 3d dc 4a d5 3d
       -0.10232577 0.034906287 0.079749614 0.10414669
0000a0 ff 55 03 3e 4c ae a2 3d 5c f6 bd bd 14 2c 9a 3d
       0.12825774 0.07943401 -0.09275505 0.075279385
0000b0 b4 23 29 bd 49 63 a6 bd b8 ed 09 3d 22 ee 22 bd
       -0.041293815 -0.08124406 0.033673972 -0.039777882
0000c0 0a 4e f1 bc 22 39 d8 bc dd e1 c9 3c b9 a7 38 bd
       -0.029456157 -0.02639443 0.024643833 -0.045081828
0000d0 e0 95 ce 3d 2f f5 b4 3b e4 7b 80 3d 0c ff a8 bd
       0.1008718 0.005522392 0.0627363 -0.08251771
0000e0 30 b5 6f bd 36 64 8f 3d db 97 8b 3d 83 40 39 3d
       -0.058522403 0.070015356 0.068160735 0.04522754
0000f0 32 9e 7c bc 37 35 18 be cf 37 96 bc 4f 61 8a 3d
       -0.015418576 -0.1486405 -0.018337158 0.067568414
000100 df 62 2b be 12 27 7d 3d 85 82 9a 3d 9c c0 4c bd
       -0.16736935 0.06180484 0.07544426 -0.049988374
000110 ee 57 fa bd f0 48 b1 3d 98 2c a7 3d 3e 8a d6 bd
       -0.122238025 0.0865649 0.081628025 -0.10475586
000120 d0 a7 f1 bb 5d 90 09 3e a9 99 31 3e 34 6b 87 3d
       -0.007374741 0.13433976 0.17343773 0.06612244
000130 4e e9 93 3c db 4a 7c 3c ad e9 d6 3d ad b2 8c 3d
       0.018055584 0.015398706 0.10493789 0.06870017
000140 c5 03 c0 bd 92 dc e3 3d c2 34 41 3e b5 f9 93 bd
       -0.09375719 0.11126055 0.18867782 -0.07225362
000150 ee 1a b4 bd d3 52 00 3e b0 fd 7e bb 2f 76 01 be
       -0.08794199 0.12531595 -0.0038908534 -0.1264274
000160 87 29 d2 bc 6b e6 27 be 2a bc fb 3d 08 3e ea 3d
       -0.025654567 -0.16396491 0.12291749 0.11437613
000170 56 e7 82 bd d2 b6 07 bd 8f 55 af 3d 5a 4f 3a 3d
       -0.0639178 -0.033133335 0.08561241 0.04548583
000180 b6 0f 4b bd 77 b0 b1 3d 63 e7 f3 bd 0f ea 3a 3e
       -0.04957553 0.08676236 -0.11909368 0.18253349
000190 d9 0a 9a 3d 65 26 59 be 2e 01 33 be a3 fe 82 3d
       0.075216 -0.21206053 -0.17480919 0.06396224
0001a0 f8 33 18 3e dc 1a 30 be af b1 1b be 4b 3a c0 bd
       0.14863575 -0.17197746 -0.152045 -0.093861185
0001b0 9b 96 d2 bd d7 dd 04 be 85 dd b1 3d ea 77 c9 bd
       -0.10282632 -0.1297525 0.086848296 -0.09837325
0001c0 9d 7c c0 3d 71 42 b9 3d 0d d1 fa 3d 75 47 fa bc
       0.09398768 0.09045876 0.122469045 -0.030551651
0001d0 2d 20 78 bd c2 bc f6 3a 46 0c be bd 1d bf 12 bd
       -0.06057756 0.0018824565 -0.09279685 -0.03582679
0001e0 49 03 b1 bd 67 bb 87 3b 89 7c ed bd e2 4c 67 3d
       -0.08643205 0.004142213 -0.11596019 0.056469806
0001f0 0a 1c f4 3d fb b7 1f bd a4 42 b3 3d ce a0 e1 bd
       0.119194105 -0.038993817 0.08752945 -0.11016999
000200 57 6c 9c 3d 79 06 f8 bd 96 ab d3 bd 26 87 d2 b9
       0.07637852 -0.121106096 -0.10335462 -0.00040155015
000210 9e b7 e6 3d c6 0e 01 3e c7 ed cc bd 60 a2 f4 3c
       0.11265491 0.12603292 -0.1000629 0.029862583
000220 9f a1 b1 3d bb 91 bf 3d 57 8c b4 3d a7 9e 14 3e
       0.08673405 0.09353968 0.0881583 0.14513646
000230 6c cc 0e bd 1a 3c 8a bd 33 5a e6 bd 8c ea 73 3d
       -0.03486292 -0.06749745 -0.11247673 0.059549853
000240 87 b1 c0 3d a6 76 82 bd ec c5 a1 3c 5d db 5b bc
       0.09408861 -0.06370287 0.019747697 -0.0134189995
000250 ae e9 3e 3d a9 b8 5e 3d c7 f2 26 bd e3 d7 09 be
       0.046609573 0.054375324 -0.040758874 -0.1346126
000260 5b 37 8c 3c 7c 26 13 bd b9 ad 8a bd d2 4a 95 bc
       0.01711624 -0.035925373 -0.06771416 -0.018224154
000270 dc e8 83 bb 2e 16 e4 3d 05 d9 58 3c ba ec 1b be
       -0.0040255617 0.11137043 0.013235335 -0.15227023
000280 d1 54 e2 3d cd 12 b1 bd 8e 4a 79 3a c2 0c 21 3c
       0.11051334 -0.08646164 0.00095097057 0.009829702
000290 50 76 86 bd 48 b3 50 bd d2 ee 9e bd 2f de c7 bd
       -0.06565535 -0.050952226 -0.07760395 -0.09759175
0002a0 33 e8 a5 3d be 09 1e be 20 31 11 3e a4 02 5a 3d
       0.08100929 -0.15433404 0.14178896 0.053225175
0002b0 d4 3d 14 be b8 5c 04 bd d5 a0 c5 bd be 9e 3e be
       -0.1447671 -0.032314986 -0.09649817 -0.18615243
0002c0 5e 4d 97 bd a0 76 85 bd ed 8b 2e 3e b3 14 8a bd
       -0.073878035 -0.065167665 0.17045565 -0.06742229
0002d0 d9 a4 a0 3c 6d 67 1e 3e 29 84 94 bd c4 72 af 3c
       0.019609855 0.15469141 -0.0725177 0.02141703
0002e0 db ce 31 3b 41 28 5d 3b f1 21 39 3d 78 27 d1 3d
       0.0027131352 0.0033745917 0.045198385 0.10212606
0002f0 fc 0d 3a be 60 a2 37 3e c4 d8 b5 3c e5 a2 26 bd
       -0.18169397 0.17933035 0.022198088 -0.040682692
000300 b7 6a e4 bd 90 ad b0 bd bb 24 d3 bd 6e ce e8 bd
       -0.11153167 -0.086268544 -0.1030974 -0.11367498
000310 f5 1b 6f bd d0 86 11 be 44 d3 1c 3d ca 2a a7 3d
       -0.05837627 -0.14211583 0.038287416 0.08162458
000320 44 f6 ea 3d ae fb 5e 3d 33 d4 28 3e a4 60 9c bc
       0.11472753 0.05443924 0.16487198 -0.01908905
000330 d1 2c 0f 3d 49 c1 0b be 4e 53 84 b7 b9 5b db 3d
       0.03495485 -0.13647951 -1.5774418e-05 0.10710854
000340 1f e5 c2 3d a3 8b 3a be be f6 e9 bd d0 3e 30 3e
       0.09516358 -0.1821733 -0.114240155 0.17211461
000350 fb 7d ef 3d 48 9b b3 3d 8d e3 d9 bd f1 24 61 3c
       0.11693951 0.08769852 -0.10639105 0.013741718
000360 7c b5 ec 3c ae 44 27 3b ca 23 f3 bd 52 8d e2 3d
       0.028895132 0.0025523114 -0.118720606 0.11062111
000370 2a 9f 1e bd 9f 9e 25 3d 76 0c 93 bc f6 51 d0 bd
       -0.03872601 0.040434476 -0.017950278 -0.10171883
000380 4e 89 79 bd 04 68 93 3b d7 94 1c 3d 7b e5 60 bd
       -0.06092196 0.0044984836 0.038227882 -0.05490635
000390 86 55 53 bc 66 11 b0 bd 64 14 bd bd 7b 39 c0 3d
       -0.012898808 -0.085970685 -0.09232405 0.093859635
0003a0 7a c5 a0 bd 8f 8b b4 3d 58 7c 16 3e 32 59 ca 3b
       -0.07850166 0.08815681 0.14695871 0.0061751837
0003b0 23 fc a9 3c 1d 63 65 3d e2 fc 75 3c f5 d0 2a bb
       0.020750111 0.056002725 0.015013905 -0.002606449
0003c0 41 76 e2 3c e1 89 1e 3e f6 ef 17 be 37 fe 2d 3e
       0.027644278 0.15482284 -0.14837632 0.16991507
0003d0 7f ef 14 bd 22 d6 9b 3d 78 61 1d be 5f 27 6f bd
       -0.036361214 0.07609202 -0.15369213 -0.058387157
0003e0 ca 66 2e be 17 0c 66 3d a5 83 b2 bd e2 2a 06 be
       -0.17031398 0.056163874 -0.087165155 -0.13102296
0003f0 b2 d1 78 3c b7 2b 07 3e 9e 01 b5 bd ab 9c 09 3e
       0.015186714 0.1320027 -0.08838199 0.1343867

mlp.0.bias f4 [256]
000000 2b 6e e2 3c e6 c8 a5 bd d9 d9 b1 3d a2 a2 08 3e
       0.027640423 -0.08094959 0.08684129 0.1334329
000010 3f b0 c3 3d 68 b7 d5 bd 6f dd b9 bd 29 b8 9a 3b
       0.09555101 -0.104353726 -0.09075438 0.0047216606
000020 2c 8f 84 3d 05 86 fc bd e5 e5 c5 bd 30 a0 eb bd
       0.0647262 -0.1233025 -0.096629895 -0.11505163
000030 94 03 cc 3d 34 59 0e 3e b1 2c 3d 3a 08 39 cb bc
       0.0996162 0.13901216 0.00072164374 -0.024807468
000040 4c a1 1f 3c aa 41 fa bd 63 4a 75 3d a3 f0 30 3d
       0.009743046 -0.12219556 0.059885394 0.04319824
000050 df 9e ac bc 76 6a 09 3b 46 cd 1a bd 1f eb 79 bd
       -0.02107185 0.0020967997 -0.03779342 -0.061015245
000060 e7 44 ce bd a1 d4 fc 3d ee 6e 0f 3d a2 e5 30 bc
       -0.10071736 0.12345243 0.0350179 -0.010796936
000070 5e 15 87 3d 06 66 55 3d 48 3c aa 3d fb 11 f7 3d
       0.06595872 0.05209925 0.08312279 0.120639764
000080 1c a0 0c be cc da 9a bd 13 86 d0 3c 91 e1 69 bd
       -0.13732952 -0.075612634 0.025454557 -0.057099883
000090 a2 00 57 bd 8e 9c fc 3d 2c d2 73 3d d8 86 1f 3d
       -0.052490838 0.12334548 0.059526607 0.038946956
0000a0 d9 13 b8 3c 3b ac e2 bc 90 12 8e 3d b1 8c 90 3c
       0.022470402 -0.027670017 0.06937134 0.017645212
0000b0 6f 33 8a 3c 89 04 af 3c 71 b9 3d 3c 99 17 46 3d
       0.016870229 0.021364467 0.011579857 0.04836235
0000c0 de be 24 3e 56 e3 85 bd 15 66 96 bd 87 78 04 3e
       0.16088435 -0.065375015 -0.07343689 0.12936603
0000d0 4b a7 86 bd 47 cf ef bd b9 df b5 bc b7 20 66 bd
       -0.06574877 -0.11709457 -0.022201406 -0.056183543
0000e0 fc 72 f3 3b 98 4d af bc 33 58 8c 3c 5b 9c 0a 3e
       0.0074294787 -0.021399304 0.0171319 0.13536207
0000f0 13 ce be bd dc b6 81 bd 7f e8 01 bd 49 8c ef bd
       -0.09316649 -0.06333706 -0.031715866 -0.11696679
000100 0e c3 33 3c 6e 57 c9 bd f6 7c 12 bd 02 be 02 3d
       0.010971798 -0.09831129 -0.035763703 0.031919487
000110 86 6f c6 bd ef 90 f0 bd dc bb eb 3c d9 70 88 3d
       -0.0968924 -0.11746394 0.028776102 0.06662149
000120 30 69 f8 bd 25 5a 10 bd 4f a7 38 3d e4 77 41 bc
       -0.12129438 -0.03524222 0.045081433 -0.011808369
000130 d6 6d ba bd d1 a2 0c 3d d4 94 85 bc 42 79 b7 bd
       -0.09102981 0.03433496 -0.016306318 -0.08958675
000140 4d e0 02 be a7 cc 02 3e b2 08 b5 bd 84 1a c7 bd
       -0.12780876 0.12773381 -0.08839549 -0.09721854
000150 89 e0 d3 bd 0b 23 ba 3c 26 36 11 bd 4a fe 02 3e
       -0.10345561 0.022721788 -0.03545203 0.12792316
000160 41 a6 a9 3c 42 99 c6 3d 3b fa 7a 3d d4 6a 09 be
       0.020709159 0.096972 0.061273795 -0.13419658
000170 06 ea be bd 42 d8 29 3c b0 2c 8a 3d 5e 6c 1b 3e
       -0.0932198 0.010366501 0.06746805 0.15178058
000180 ff 7d 89 3d b0 47 d3 3d 0e 73 2b 3d 17 2c 92 3d
       0.06713485 0.10316408 0.04185777 0.07137316
000190 03 f2 00 3e 56 c5 20 bd d4 ba 22 3d 22 92 93 bc
       0.1259232 -0.039250694 0.039728954 -0.018014017
0001a0 49 04 2a 3d b4 62 8a bd 7f b8 9d bd d7 16 b8 3c
       0.041507993 -0.067571074 -0.077012055 0.022471828
0001b0 29 0c b2 bd d8 f4 97 3d 8b a4 69 bc 97 41 f2 3d
       -0.086937256 0.07419747 -0.0142604215 0.118289165
0001c0 d7 29 bf bd 9b 89 90 3d 47 29 f2 3d bd d2 3e bc
       -0.09334152 0.07057496 0.11824279 -0.011646924
0001d0 c9 34 b0 bd ae 21 46 3c df 6f 43 bd 32 3d 8d bc
       -0.08603818 0.012092991 -0.04771411 -0.017241094
0001e0 1d 68 1c 3d 21 d9 4e 3d 98 ad fd 3d 23 02 38 bd
       0.038185228 0.05050004 0.12386626 -0.044923913
0001f0 01 08 43 3d a6 ea 55 3d e7 5e 06 be 43 1e f6 bd
       0.047615055 0.05222573 -0.1312214 -0.12017491
000200 7e a5 32 3d 62 dd 00 be 75 4b 00 3e 63 da 00 3e
       0.043614857 -0.12584451 0.12528785 0.12583308
000210 82 b8 88 3d 95 d8 9a 3d 18 52 db bd 93 ac 4c 3d
       0.06675817 0.07560841 -0.107090175 0.049969267
000220 52 67 97 3d bd 29 fe 3c 1d 0f b1 3d 2e 8a 4c 3d
       0.07392754 0.031025762 0.08645461 0.049936466
000230 74 51 fb 3d 2a 78 e4 bc da b5 e0 3d 9a 4f 2a bd
       0.12271395 -0.02788933 0.109721854 -0.04157982
000240 9b a2 9d bd 0b df 88 bd a2 8e 08 be 67 8e b7 bd
       -0.0769703 -0.06683167 -0.1333566 -0.08962708
000250 f8 a9 f2 3d ab cc 48 bd 31 b2 44 3d d1 97 18 3e
       0.11848825 -0.04902331 0.0480215 0.14901663
000260 dd c2 94 3d 29 cf 9a bd b8 3d d8 bd 5c 04 1c 3e
       0.0726373 -0.07559044 -0.10558647 0.15236038
000270 7b fe c0 bb 46 33 53 bd 18 90 57 bd 4e 27 d7 bc
       -0.0058897114 -0.05156257 -0.052627653 -0.02626386
000280 ad 4d 87 3d 54 8e e7 bd 86 b4 da bc 3e bf 7c bd
       0.06606612 -0.11306444 -0.026697408 -0.06170582
000290 8e e9 65 bd c3 a0 9b 3d 9c 84 3e 3d 4d 92 80 bd
       -0.05613094 0.07599022 0.046513185 -0.06277905
0002a0 70 b4 89 3d f3 5e ea bd c0 bb 33 3d 76 9c 33 bc
       0.06723869 -0.114438914 0.043880224 -0.010962596
0002b0 54 2b e4 bd 2d d1 51 bd 40 88 99 bd b0 e5 fe 3d
       -0.11141077 -0.051224876 -0.07496691 0.12446153
0002c0 f0 2e 14 3e 2a db f4 bd 1d af 27 3e 55 72 f1 3d
       0.1447103 -0.11955865 0.16375394 0.11789385
0002d0 aa 8c e6 bd 51 12 03 be db 05 14 3e 1f c7 2d 3d
       -0.11257298 -0.12799956 0.14455359 0.042426225
0002e0 5d a3 ca bd 2c 7f 01 3e 47 a3 d1 bd ab 1b 47 bd
       -0.0989444 0.12646168 -0.10236221 -0.04861037
0002f0 6d 58 4f 3d 08 df b9 bd 59 91 a3 bd 14 39 dc 3d
       0.05062144 -0.09075743 -0.07986707 0.10753074
000300 9a e9 f7 3d b1 0e 59 3d 5f 89 fd bd e1 5d 90 bb
       0.12105103 0.052992526 -0.12379717 -0.0044057225
000310 c2 9f 4f 3d a3 dd 18 bc b0 5c b9 bd c3 76 08 3d
       0.050689466 -0.009330186 -0.09050882 0.033316385
000320 c3 43 89 ba 14 22 c3 bd 2e 9d a4 3d 84 af f0 bd
       -0.0010472465 -0.09527984 0.08037792 -0.11752227
000330 06 36 ae bd c0 77 ce bb b7 db 65 bd 6f 4d 40 3d
       -0.08506398 -0.0063008964 -0.05611774 0.046948846
000340 23 3c c0 bd e7 b3 c5 3d 1a 4b 6b 3d 26 4b b7 3d
       -0.0938647 0.09653454 0.05744467 0.0894988
000350 51 17 e0 bb 07 1b ad bd 8d 26 f1 bc 1d a9 a0 bc
       -0.006838717 -0.08452421 -0.029437328 -0.01961189
000360 a0 65 de 3d a6 bb 99 3d fb 04 54 3d 66 1b 3f 3d
       0.10859227 0.07506494 0.051762562 0.04665699
000370 0b cf a3 bd 82 12 ea 3d e0 9e ab 3c 22 f9 96 bd
       -0.07998475 0.11429311 0.020949781 -0.07371737
000380 22 1c 0d 3d 8b 37 a5 bd e7 7f 0a 3e e7 bc b8 bd
       0.034450658 -0.080672346 0.13525353 -0.09020405
000390 87 a4 b3 bc 58 25 91 bd b0 aa ba 3d 09 76 d0 bc
       -0.021929039 -0.07087201 0.09114587 -0.025446909
0003a0 70 f5 50 bc d8 e1 ef bd 0c 9b 1e bc 96 88 03 3d
       -0.012753829 -0.11712998 -0.009680521 0.03211268
0003b0 bc b5 a4 bd 6e e3 a7 bc e4 47 8a 3d 0f 97 33 bc
       -0.080424756 -0.02049419 0.06751993 -0.010961308
0003c0 7e 0e 43 ba 01 f0 db bc 26 82 b4 bd a1 c9 2a bc
       -0.0007440819 -0.026847841 -0.08813886 -0.010424049
0003d0 5a 6d f4 3d a3 49 90 bd a2 8b fa bd 67 7b fb bd
       0.1193492 -0.07045295 -0.12233664 -0.122793965
0003e0 72 23 c1 3b 26 b2 35 3c 42 1a 7f bd f0 ba df bc
       0.005894118 0.011089837 -0.0622809 -0.027310818
0003f0 67 06 13 bd 38 c5 7f 3d 87 66 c6 3c b7 65 b7 bd
       -0.035894778 0.06244394 0.02421881 -0.089549474

mlp.2.weight f4 [128, 256]
000000 31 aa 40 3c 19 e1 e5 3c 46 8b 75 3d d2 36 14 bd
       0.011759327 0.028061436 0.059947275 -0.036185093
000010 2a 5a 13 bd 47 5d 1d bc ed 52 1b bd 5e c5 30 3d
       -0.03597466 -0.009604759 -0.03792088 0.043156974
000020 53 d7 45 bd 1f b9 1e bd f7 50 3f bd 04 e0 08 bd
       -0.048301052 -0.038750764 -0.046708073 -0.033416763
000030 87 14 60 3c 70 fc 7f 3d ed e4 a1 3c 80 ee 51 3a
       0.013676769 0.062496603 0.01976248 0.00080082566
000040 9e ca a5 bb 44 e7 ce 3c f1 3d 4e bc 7c 54 ad 3d
       -0.0050595542 0.02525676 -0.01258801 0.0846338
000050 b8 3a 67 bd e7 dd 0b bc f7 bc 60 3b a5 2a 40 3d
       -0.056452483 -0.008536792 0.003429232 0.04691567
000060 af 94 0d bd e4 dc 0b bc d1 56 55 bd 23 ed 12 3d
       -0.034565624 -0.008536551 -0.052084748 0.035870682
000070 e6 8d 48 bc 80 50 de 3c 88 41 2a 3d b1 8a 08 bd
       -0.0122408625 0.027137995 0.0415664 -0.03333539
000080 25 ba 4b 3d 84 67 4c bd 7b f2 82 bd bc 3f 03 3d
       0.049738068 -0.049903408 -0.06393906 0.032043204
000090 ab 37 3e 3c fe d8 5a bc e9 d0 00 3d 48 a4 a5 3b
       0.011609952 -0.013357399 0.031449232 0.0050549842
0000a0 0b 5b 37 3c 93 59 94 bb 63 80 6c 3d a2 ad 43 bd
       0.01119114 -0.0045272796 0.057739627 -0.04777301
0000b0 15 cc 56 bd 9e 1e 81 3b ae 1f 76 3d aa 61 24 3c
       -0.05244072 0.0039404174 0.060088806 0.010033051
0000c0 53 8d 28 3d a3 42 78 bd 83 00 2f bd 33 b1 89 bd
       0.041150402 -0.060610425 -0.042725097 -0.06723251
0000d0 ce 12 4b bc e2 01 1b 3d a6 7d 8d 3c f6 a8 43 3d
       -0.01239462 0.037843592 0.017271828 0.047768556
0000e0 8b 39 6b bd 06 fb 2c 3d 6d c5 76 bd 78 ec 26 3d
       -0.057427924 0.042231582 -0.060246874 0.040752858
0000f0 6f a6 15 3d 07 cd 50 b9 be 1d 52 3d 34 67 a3 bc
       0.036535677 -0.00019912804 0.051297896 -0.019946672
000100 78 41 7d bd 0c 61 02 bc 0f 30 95 3b 76 a3 c1 ba
       -0.061830014 -0.007957708 0.004552848 -0.0014773447
000110 93 53 e6 3c 6a 3c 11 bd 8c 38 dc bc e0 f7 55 3c
       0.028116023 -0.035458006 -0.026882432 0.013059586
000120 04 4f da bc ab b5 21 bd 64 4f d9 3c 64 bb 1d bd
       -0.026649006 -0.039479893 0.026527114 -0.038508788
000130 f8 7d 4b 3c 5d 19 7b 3b 39 18 9e bc d7 91 42 3d
       0.01242017 0.0038314678 -0.01929866 0.047502365
000140 97 bc 8e 3d 79 02 c5 3c 09 5c 7e 3d 8b aa de bc
       0.069695644 0.02404903 0.06209949 -0.02718093
000150 38 2d 4b bd e0 5d 35 bd 3e 35 29 bd ec 34 04 bd
       -0.04960367 -0.04427898 -0.04131054 -0.032277033
000160 2a 3f b0 bc 70 a7 48 3c 8a bb 8b 3d f0 2e 2a 3d
       -0.021514494 0.012246951 0.068228796 0.04154867
000170 92 14 84 3c 67 5c 46 bd 6d 19 d4 3c f0 5a de bc
       0.01612309 -0.048427965 0.02589103 -0.027142972
000180 ba 47 82 3c 6c f8 3e 3d a0 70 ff bc f7 ec ab 3c
       0.015903343 0.046623632 -0.031181633 0.020987017
000190 d9 f7 4d 3b bc 99 08 bc 9b 88 2b bd a2 42 f3 bc
       0.0031428246 -0.008337434 -0.041878324 -0.029694859
0001a0 14 b8 1c 3d e0 bc 95 3d 8c b9 10 3d 93 20 1e 3d
       0.038261488 0.07311416 0.0353332 0.038605284
0001b0 ac 50 1d 3d 20 b5 c7 bc 3c 3c a8 bb ac a3 46 3d
       0.038407013 -0.02437836 -0.0051341336 0.048495933
0001c0 66 f3 76 bd 6e 73 9d bc 38 89 88 3c ae cf ae 3c
       -0.060290717 -0.01922008 0.016666993 0.021339264
0001d0 04 87 cb 3a 54 b8 ad bc de b8 7e 3d 0e 3f 49 bd
       0.0015527909 -0.021206059 0.06218802 -0.0491324
0001e0 a7 72 9a bc 8e b9 47 bc a9 b0 67 3b a1 18 b3 3b
       -0.018853499 -0.012190236 0.00353531 0.0054655825
0001f0 35 cd 36 bd 9f e2 1a 3d 6f 2f 35 bd c3 95 f6 bc
       -0.044629294 0.03781378 -0.04423469 -0.030100709
000200 59 fa 1d bd 2a d6 4a bc 73 12 37 3d 5c 3f 54 3c
       -0.03856883 -0.012380162 0.04469533 0.012954559
000210 50 9f 10 3d 62 53 8d 3d 62 ac 37 bb 8e 61 ac 3c
       0.035308182 0.0690067 -0.0028026332 0.021042611
000220 a8 93 3e 3d be 58 4d bd e8 5c ed bc da 98 96 3d
       0.046527535 -0.05013346 -0.028974965 0.07353373
000230 78 dd f8 bb 07 1c be bc 25 00 c1 3c 37 df 9d 3c
       -0.0075947605 -0.023206724 0.02355964 0.019271476
000240 6a a6 17 bd b5 8e 70 bd 3e 1e 26 bd 3d 56 42 bd
       -0.03702394 -0.058729846 -0.040556185 -0.047445524
000250 6a 82 2d bd e6 7e 46 3b e9 88 7d 39 a5 f2 25 3c
       -0.0423607 0.003028804 0.00024178963 0.010128652
000260 f8 3d eb 3c d3 f5 7b bd 4a 0b 8b 3c bd 84 35 bd
       0.028716072 -0.061513733 0.016973156 -0.044316042
000270 cc 37 7c 3d 87 b7 4d bd 4b 38 85 bd ee 75 23 bd
       0.06157665 -0.050223853 -0.06504878 -0.03990739
000280 ab 03 e8 bc 90 60 71 3d ed e6 10 bd fa c3 11 bd
       -0.028322062 0.05892998 -0.035376478 -0.03558729
000290 3f ce 15 3c 2d 68 1f bd 5d ce a9 bc 5d 13 8e bd
       0.009143411 -0.03891771 -0.020728284 -0.06937287
0002a0 d2 b9 1e 3d 5d 1c 8a bd 7f 0b c2 3c 38 2b ba bc
       0.03875143 -0.06743691 0.023687122 -0.022725686
0002b0 f8 cd 39 bc 13 e5 49 3d ef 2e 72 bb 34 be 69 bd
       -0.011340611 0.049290728 -0.0036954244 -0.057066157
0002c0 4e 05 6c bd fc ed 8e bb 3d 1a c3 3c cd 0f f7 3c
       -0.057622246 -0.004361866 0.023816222 0.030158902
0002d0 73 67 ad 3b 80 d5 e9 b9 08 91 e0 bc c0 ba c0 3b
       0.005291873 -0.00044600293 -0.027412906 0.0058816373
0002e0 bb ef 48 bd 17 b6 1b 3d cf 74 82 3d fd 7c 23 3a
       -0.04905675 0.03801545 0.06369936 0.0006236581
0002f0 be a8 18 bd 80 5f f9 bc 41 91 d8 bc d8 9b 2c bd
       -0.0372703 -0.030441046 -0.02643645 -0.04214081
000300 a6 cb 62 3d 22 ad df 3b 3b 3b 57 bc 8a ed e5 3b
       0.055369996 0.006826059 -0.01313668 0.0070168423
000310 a2 e9 cc bc 3c fe a1 bc a0 49 fa bb cc 04 e7 3c
       -0.025013749 -0.019774549 -0.0076381713 0.02820053
000320 b2 e5 3b 3d be f6 a3 3d 94 ee 87 3d e9 0a d0 3c
       0.04587335 0.08006047 0.06637302 0.025395827
000330 f4 62 18 bd 6e fc 57 bd e0 9a 49 bc a3 13 48 bd
       -0.037203744 -0.05273097 -0.0123049915 -0.048846852
000340 99 a9 5b bd a6 76 47 3d 81 ae 62 3d a1 fb 65 ba
       -0.053628538 0.048697136 0.0553422 -0.00087731524
000350 df cf fb 3c bb de 16 bd d9 25 2d bd 10 9c e6 3c
       0.03073877 -0.036833506 -0.042272422 0.028150588
000360 c8 22 f5 3c 5b 1b 0b 3c da 4b d8 bc 19 cf 45 3d
       0.029923812 0.008490409 -0.026403356 0.048293207
000370 ed bc 49 bd ea a4 69 3d 16 2e 37 3d 5c 55 42 bd
       -0.04925244 0.05704204 0.044721685 -0.047444686
000380 3a 57 e6 bb 32 a9 02 3d 1d dd 29 3c 9d 07 49 3d
       -0.007029441 0.03189964 0.010367659 0.049079526
000390 d5 61 16 3c 54 b6 0c 3d e9 8f 12 3c e9 86 37 bd
       0.009178598 0.03435357 0.008945444 -0.044806395
0003a0 38 61 ff bb 15 45 c8 bc bf 81 88 3c 83 f4 99 3d
       -0.007793572 -0.024447003 0.01666343 0.0751734
0003b0 43 ab 74 3d 2c 78 66 3d b4 8b 56 3d 3a fc 88 3b
       0.05973364 0.05626695 0.052379325 0.0041804584
0003c0 f5 fe 8c bc a6 f1 15 3d bd 4b 3d 3b fb d0 ff bc
       -0.017211417 0.036607407 0.0028884255 -0.03122758
0003d0 39 bf 84 bd 45 5e be 3c 2e 7a 2a 3c 8b eb 0f bc
       -0.06481785 0.02323831 0.0104051065 -0.008784185
0003e0 c5 d9 b0 bb d9 87 df bc e8 58 28 3d 31 11 b9 3c
       -0.005397054 -0.027286457 0.041100413 0.022591205
0003f0 a2 2a 2d bd 8c 4e c5 bc 13 9e 5c bc 1b 85 0e 3d
       -0.042276986 -0.024085306 -0.013465422 0.034794908

mlp.2.bias f4 [128]
000000 53 5a 47 3d be bf 36 3d 94 72 5c bd c0 f3 38 bc
       0.048670124 0.044616453 -0.053820208 -0.011288583
000010 df fd 40 bb 86 02 cb bc 72 b8 4c 3d 85 9a c9 3c
       -0.0029448194 -0.024781477 0.04998059 0.024609813
000020 8d f3 46 3c 44 9d f1 3c 0d aa 15 bd a3 dc 0f bd
       0.012143028 0.029493935 -0.036539126 -0.035122525
000030 7c 60 d6 bc cd 16 34 bd 41 1f c4 3c 03 e5 dd bc
       -0.026169054 -0.043967057 0.023940684 -0.02708674
000040 b9 b8 74 bd 62 95 27 bd 58 a2 89 bc 54 63 c9 bc
       -0.059746478 -0.040913947 -0.016801044 -0.024583496
000050 46 eb e8 38 36 35 b6 3b 95 82 69 bd 9a 84 57 bc
       0.00011106445 0.0055605425 -0.0570093 -0.013154173
000060 b8 84 f4 3c d0 b3 1f bc 32 c8 90 bc 75 66 35 3d
       0.029848441 -0.0097474605 -0.017673586 0.044287164
000070 77 df 1c bd 47 fc 40 bc 60 6b 93 3d 08 46 19 3d
       -0.03829905 -0.011778898 0.071982145 0.037420303
000080 18 1c 6b bd 7c b7 5d 3d 87 d0 bb bc d3 dd 59 bc
       -0.05739984 0.054130062 -0.022926582 -0.013297516
000090 36 82 3e bc 6c f1 06 bd 65 b0 1b 3d 98 11 a5 3c
       -0.011627724 -0.03294508 0.03801002 0.02014999
0000a0 83 b0 65 3d 7e 11 24 bd 2f 3b 88 3d 33 19 10 bd
       0.056076538 -0.040055744 0.066519134 -0.03518028
0000b0 4f 92 78 3d 7f a9 46 3d 94 16 43 3d 91 92 54 bd
       0.060686406 0.048501488 0.047628954 -0.05189759
0000c0 80 88 26 3c 62 a2 7c 3d f0 70 bd bb 27 32 3d bd
       0.01016438 0.061678298 -0.0057812855 -0.046190407
0000d0 f5 f7 c1 3c 56 25 43 3c 0d 7f 4b bb 46 13 02 3d
       0.023677805 0.011910757 -0.003105107 0.03175666
0000e0 31 32 54 3d c6 b6 c3 3c 9f d2 81 bc 93 81 5d 3b
       0.05180568 0.023890864 -0.015847502 0.0033799156
0000f0 b4 55 36 bd f0 d9 79 3a 59 08 fb bc 06 d6 7f bd
       -0.044515327 0.00095310714 -0.030643629 -0.062459968
000100 b1 78 0e 3d c4 1d a4 3c 58 60 04 bd 22 f9 0a bd
       0.03478307 0.020033725 -0.032318443 -0.033928998
000110 a1 2c 81 bd 0c 4a 8d 3d cc 37 8b bc 32 69 6c 3c
       -0.063073404 0.06898889 -0.01699438 0.014429377
000120 d0 d7 6f bd ad d7 50 3d 3e c0 3a 3d 99 50 af bc
       -0.058555424 0.050986934 0.045593493 -0.021400737
000130 6c 74 0e 3d 54 18 68 3d 51 28 4d 3d ef 1f 73 3d
       0.034778997 0.056663826 0.050087277 0.059356626
000140 3f 1e 44 bd 1a e8 88 3a d0 0d 76 3d 30 42 1b bd
       -0.047880407 0.0010445148 0.060071766 -0.03790492
000150 f9 e6 1f bd 8a 9d 1a 3d 4b 15 44 3d 3a 48 c8 bc
       -0.039038632 0.037747897 0.04787187 -0.024448503
000160 23 9c 81 bd ff ab 2f bd 7c 16 e4 bc 9f ef de 3b
       -0.06328609 -0.042888638 -0.027842753 0.0068034674
000170 19 6b be bc f2 e8 f7 3c 78 7a f7 3c c0 36 c6 bb
       -0.023244428 0.030262444 0.030209765 -0.006049007
000180 5b d6 10 3d 98 b8 06 3c d4 fd 9e 3c 51 6f 0c 3d
       0.035360675 0.0082227215 0.019408144 0.034285847
000190 e9 b3 20 3d f0 25 7f 3d 73 17 50 3d 8c 93 88 3d
       0.039234076 0.06229204 0.050803613 0.06668767
0001a0 ae af 47 3d 45 2f 88 3c 1f 89 b9 bb e2 53 b8 3d
       0.048751526 0.016624102 -0.005662098 0.090003744
0001b0 d6 9d 93 3c 07 e2 68 3d 11 4a 8c 3d ca 38 89 bc
       0.018019598 0.05685618 0.068500645 -0.016750712
0001c0 42 52 c9 3c 14 cd d5 3c 4c 15 15 bd d4 bc 88 bc
       0.024575356 0.026098765 -0.036397263 -0.016691603
0001d0 3e bd 97 3d a9 1c 33 3d 5a 1b 3e 3c 10 8e 48 3d
       0.07409142 0.043728504 0.011603201 0.048963606
0001e0 57 4b 23 bd 20 c5 e1 bc 79 29 33 3b 84 d0 2c bd
       -0.03986677 -0.027559817 0.0027337952 -0.042191043
0001f0 c6 fb 7f bd 01 7a 4c 3d 48 d1 3d bd 8a 9d 34 3c
       -0.06249597 0.04992104 -0.046342164 0.011023888
