weights/steps_420001.pth (torch, 276355 bytes, 10 tensors)

lstm.weight_ih_l0 f4 [192, 7]
00000000: 7d6c c8bd 8d23 b0bd 4c2a 7fbd d88d 0e3b
00000010: 1839 243e 1db9 c8bd 16f3 86bd a545 dabd
00000020: 85a1 2dbe 77b4 8dbd fd00 64bc 1006 b7bb
00000030: 0994 6c3d 58e3 02bd 888c 7d3d 6cf7 a13d
00000040: 82ad 6d3d 90b3 a73d e841 943d 1a24 913d
00000050: 6818 7a3d 5415 13be 2bf1 d93c d911 033e
00000060: c2db 3d3e c961 153e 2e44 9d3d dda5 ba3d
00000070: 89eb 983d 8281 9f3d 3411 3dba 83a4 e7b9
00000080: d4f5 d13c f0a0 0d3e 9781 1dbc fc7e 29bd
00000090: 54a6 cebd 6956 f93d dd5f 5dbd 51fb e13d
000000a0: b512 3fbd 611a c93d 0b33 06be f51b 0b3d
000000b0: 7599 823d 59bb ec3d a5d3 173e dabd bcbd
000000c0: 0e9c 8bbd 1cf4 48bd 186a 64bd f7d4 8abd
000000d0: c67a 453c 0913 72bd f167 b1bd 412b 2e3c
000000e0: 2af0 b2bd 13b9 4d3c 191e 883d 8926 57bd
000000f0: d42e 873d 7ea0 d2bd 5d92 08bd 65cf 693e
00000100: 276f 14bd 1fbd 973d f457 8f3d de0e e33b
00000110: bfb3 ff3d f6e9 0ebd 18d3 bcbd 5123 b6bd
00000120: 077d 543d 863d 2f3e d554 223e daff 91bd
00000130: e1d7 163e 4eef 14be 5762 8cba 03c5 003e
00000140: d71e 683c 01d5 793d ac57 3d3d 479e b63b
00000150: 07b6 f5bc 7a90 3b3c 83c9 eabd 18fa de3c
00000160: bf2f 81bc 69fd 093d 35f4 9cbd 2bd5 443d
00000170: be5d 7dbc e131 7e3d 87db 283d b0e2 fbbd
00000180: b308 e13d 8fc6 f4bd 7a32 59bd 516f 45bd
00000190: 0ddd e13d 6e0a 5ebd d1ca a3bd 5fbe 5ebd
000001a0: ae5c 1f3e 131f 29be 7b2f 2ebe 0a98 a2bd
000001b0: 20b3 943d cd10 cfbd 351d ad3d 4a35 acbd
000001c0: e9b5 d73d c8e0 203e 2f9e 9b3d 6988 adbd
000001d0: 44d4 783d 9c73 fb3c ead4 473e 3088 b2bd
000001e0: 0c43 16be f2c0 fb3d 4894 cc3d 14ae 0b3e
000001f0: 62f4 023e 8d31 253e d5e2 44bc c471 003d
00000200: 4506 d73d d174 85bd 2c35 4b3e f099 e13d
00000210: 3882 ad3d 4864 c13d dbcd 453e c928 f03d
00000220: f3c7 783c a4eb c2bd eda9 373e 53af ff3d
00000230: 4292 5bbd 05f8 bc3c 6ef0 ac3d d360 bf3d
00000240: 14be 973d d183 f4bd cdcc aa3d db48 75bd
00000250: 4d18 9abd d860 183d 39fb 9dba 9980 cd3c
00000260: 7ea5 75bd 7b64 20bc 17c7 0bbe 4f42 d6bd
00000270: e614 91bd b045 00bd a63a 9f3d 2d10 d7bd
00000280: 6449 df3b 0573 8eba 0c5e 94bc 7507 183d
00000290: b913 8b3d 20f8 103e 1a1f 43bd 3ceb 0f3e
000002a0: dab7 3e3e c4e7 6b3d ebe0 d63d d269 1ebd
000002b0: a7e9 473d 3ee7 043e 6616 57bd 3380 273e
000002c0: 28b8 f83d ebb1 b63d c9e6 3c3e 5e3c 623d
000002d0: cbed f6bd 7c70 0d3d b244 2d3e 5f22 a8bd
000002e0: f69e bf3d d0b9 0f3e 2639 013e e5fe 7f3d
000002f0: 2d7c 0b3e 6741 10bd 91a9 333e 2c6d 9d3d
00000300: cec5 fb3d 701e 58bd 3633 203e 701d 613d
00000310: e30f bc3d 788a bbbc c0b5 25bd 1d66 4fbb
00000320: 1dad fc3d 2f78 9fb7 0727 1d3e a80c 2b3e
00000330: 9156 263d a46f dd3d c8ba 653d 9aed 4b3d
00000340: 0179 123e 3900 8ebd 0ed4 893c 6281 07be
00000350: 6099 0f3e d5ba f13c 7b82 b03d 6650 473d
00000360: ded3 283e a1a9 b7bd 400e 51bd 164f 43bb
00000370: 303c cb3d b2f9 923d 53d0 ffbd c1da 303e
00000380: 6430 573d f41a 243e 1113 463d c5c7 8a3d
00000390: 52ec 363e df77 d2bc bd99 03bd e88b b63d
000003a0: 961b 88bb c088 89bc 0ac5 b93d 63c3 a3bd
000003b0: 9b1a 9a3c f13c dd3d f702 c2bd ebf0 98bd
000003c0: 4a9d 513a 5b20 263d 922f 11bb d94a 01be
000003d0: 6a1b 0f3c 387d 24be 2256 e93d 3e0a 8a3d
000003e0: ee40 a13c 76d8 023e efdb bc3d f7d2 61bd
000003f0: 2418 fdbd b70b ccbd 322b 1c3e 4883 933d
-0.097863175 -0.08600531 -0.062296197 0.0021752026 0.16037405 -0.098009326 -0.06589334 -0.10657815
-0.16956146 -0.069191866 -0.013916251 -0.0055854395 0.057758365 -0.031955093 0.0619016 0.0790852
0.058026798 0.08188546 0.07239133 0.07086964 0.061058432 -0.14363605 0.026604256 0.12799777
0.18540862 0.14588083 0.0767902 0.09113667 0.074668 0.077883735 -0.00072123413 -0.00044182324
0.025629915 0.13830924 -0.009613416 -0.041380867 -0.10090318 0.121746846 -0.0540465 0.11034263
-0.0466487 0.098194845 -0.13105409 0.03396221 0.06376926 0.11559171 0.1482683 -0.09215899
-0.068168744 -0.049060926 -0.05576524 -0.06778901 0.012053197 -0.059100185 -0.086624034 0.01063043
-0.08737214 0.012556332 0.06646366 -0.052526984 0.06600729 -0.10284518 -0.033342708 0.22833021
-0.036238816 0.07409119 0.069991976 0.0069292625 0.12485456 -0.03489109 -0.092199504 -0.08893455
0.051877048 0.17113313 0.15852673 -0.07128878 0.14730789 -0.14544412 -0.001071046 0.12575154
0.014167509 0.060994152 0.04622619 0.0055730673 -0.029994024 0.01144802 -0.114642166 0.027218863
-0.015769837 0.033688936 -0.07663766 0.048054855 -0.015464244 0.062059287 0.041224983 -0.122990966
0.10987987 -0.119519345 -0.053026654 -0.048201863 0.1102849 -0.054209165 -0.079976685 -0.05438077
0.15562698 -0.1651576 -0.170103 -0.079391554 0.07260728 -0.10110626 0.084528364 -0.084086016
0.105327435 0.15710747 0.075985305 -0.08473284 0.060749307 0.030694775 0.19514814 -0.08717382
-0.14674014 0.12292661 0.0998922 0.13640624 0.12788537 0.16132183 -0.012016972 0.031358495
0.10499243 -0.065164216 0.19844502 0.110156894 0.08472103 0.09442955 0.19316809 0.11726529
0.01518439 -0.09517601 0.17935915 0.12484612 -0.05360628 0.023067484 0.08444296 0.0934464
0.074093014 -0.119392045 0.08339844 -0.059883934 -0.07524166 0.037201732 -0.001205302 0.025085734
-0.05997228 -0.009789581 -0.13650165 -0.10461866 -0.07084064 -0.03131646 0.07774858 -0.10501132
0.0068141688 -0.0010868019 -0.018111251 0.037116487 0.06790871 0.14157152 -0.047637083 0.14054579
0.18624821 0.057594076 0.104921184 -0.038675137 0.048806813 0.12978837 -0.052511595 0.16357498
0.121445 0.08920654 0.18447413 0.055233352 -0.12057074 0.0345311 0.16920736 -0.08209681
0.09356491 0.14035726 0.12619457 0.062498946 0.13621588 -0.035218623 0.17545153 0.076868385
0.122935876 -0.052763402 0.15644535 0.054959714 0.09182718 -0.022893175 -0.040456533 -0.0031646558
0.12337706 -1.9010242e-05 0.15346919 0.16704047 0.0406099 0.108123094 0.05608633 0.04978714
0.14303972 -0.06933636 0.016824748 -0.1323295 0.14023352 0.029508034 0.08618637 0.04866066
0.16487071 -0.08967901 -0.05103898 -0.0029801778 0.09923589 0.07176532 -0.124909066 0.17270948
0.052536383 0.16025907 0.048358027 0.06776384 0.17863587 -0.025691925 -0.032129038 0.08913404
-0.004153679 -0.01678884 0.09070785 -0.079962514 0.018811515 0.10802639 -0.09473222 -0.074678265
0.0007996155 0.0405582 -0.0022153598 -0.12626208 0.008734563 -0.16063392 0.11393382 0.06740235
0.019684281 0.12777886 0.092216365 -0.055132832 -0.1235812 -0.09963172 0.15250853 0.07202774

lstm.weight_hh_l0 f4 [192, 48]
00000000: 4aae f13d e657 a93d fb37 e6bd 8bf8 313d
00000010: 4d2d 3c3d 79ce 1dbe e269 3abe 4c39 03bc
00000020: 4060 54bd 3307 823d a582 38bc e8ae 113d
00000030: f02a 1d3e 45fb 163d 1b9b 6dbd 7303 d73d
00000040: 06a3 2fbd 8ec0 de3d 7c19 acba 0c43 0fbe
00000050: 17f6 06bb 5453 143e d79c 703d a13e 31bd
00000060: 2bfa 1e3a 7047 313d 5692 9abd b1a6 00bc
00000070: 9f54 44be b2ab 0dbe a294 3abd 56c3 ebbc
00000080: eb62 1cbd 3168 9cbd ba39 85bd 2fa1 b43c
00000090: c50f 7f3d 1fb6 bdbd 9940 30be 34f9 a73b
000000a0: b9f0 8abd a7b5 b1bd 801c 5fbe 44a7 e0bc
000000b0: 6ac5 313d 5ee5 cebd 7534 85bc 7e76 b83d
000000c0: df02 cfbd 4f4d 36bd 1fc9 b8bd 675f b73d
000000d0: 1946 94bd 8ea5 20bc 5c3a dd3d 5d03 34be
000000e0: 75c7 8e3c 8f51 c5bc 13ea ee3d 6d68 04bd
000000f0: 59f9 063e 607c b2bd ad70 9e3d 874c 69bd
00000100: 17c8 ed3d 3af4 fb3d 4fc0 c03b 716a 23be
00000110: dd30 a03d a4c7 4a3e cb70 463d 5396 a1bd
00000120: a100 5b3a 1e62 13be cc41 4bbd c915 bfbd
00000130: b1f4 1dbe ec44 94bd ba9a 77bd d15b c33d
00000140: bc9e 08be 66d4 acbd fef6 8e3d 3d36 163c
00000150: 7650 c4bd fdbb 9c3c a92f 873d 228e 243e
00000160: a94a d03c ff98 2bbd 092f c2bb 0399 63bd
00000170: 6c69 de3c 9df3 78bd 9f0d 33be 5a9a 8ebd
00000180: a9f2 89bb c00e e8bd dbc4 f43d a2ce 8fbd
00000190: b8c5 0fbe 630a 37be 1861 a8bd a5cc a2bc
000001a0: 974f 913c aa22 9c3c 2fb6 353e 58fd aabc
000001b0: 49c8 b53d b81c 643d 0193 bebc a2a5 c4bd
000001c0: 974a 9c3d 9bbe 33be 1497 babd 92be 9dbc
000001d0: 06c1 06be 3562 b23d 142e b73c 0339 01be
000001e0: e27b d5bd 7741 403d 0abd 31be 2630 5ebe
000001f0: d507 1bbe b9f0 04be db8e ea3d aaf5 503d
00000200: 6208 1e3e 19a2 273e 3126 63bc 88aa 1a3c
00000210: 4ca2 1a3d 08ad be3c b0bb a9bb 7850 273e
00000220: 3a06 ed3c b7fa c73d 24f8 1a3d 7ac1 4f3e
00000230: 2498 d23c 2fad 3abd 48cd 13be bd30 27bc
00000240: 9c24 c53c 668e ba3c eae9 7ebd e8a0 873c
00000250: c1cf 2bbe 2b25 5dbe 76d6 8cbd e0a3 49be
00000260: b871 acbc 66c0 343e fed0 003d c3ea 16be
00000270: f71c fe3d fa50 903c 234b c53c cf10 043c
00000280: b401 cf3c 357d e8bd 112c 313e e5fa 8dbd
00000290: 0ec0 02bb 2f73 463e a083 80bd 988d 00be
000002a0: 7307 fcbd 9f51 b43a 26d0 f439 d4c3 b13b
000002b0: 7895 d1bd d78b 1abe 2903 803d 7e6b 3d3e
000002c0: d1fe 883d 2f4b 8fbb 1afe a73c 22cf e73d
000002d0: ef26 db3c 26c1 f6bd 3b4f 8dbc 4bc7 333e
000002e0: 7c0a 343e e3b1 23be 6324 923c 2a19 90bd
000002f0: 2717 c9bc 7197 b5bd f4a6 2fbe 8c01 043e
00000300: 66ad 8f3e 6bb5 f1bd 57ed 683e 750a 27be
00000310: 8f8f 66be de87 4ebe 4d40 58be 4591 3abe
00000320: bdab 1b3c 6d61 0d3e 7c9c 873e 8e1e 95bb
00000330: 5ae3 6cbb 0a55 093e 37c4 6c3e a7cd 4bbe
00000340: 6b80 2c3e 2484 9cbe e15f 703e 917b a53d
00000350: 1d88 41be bac1 813c 6698 5e3e 8add 4ebe
00000360: e742 26be aa8e 973e d30e 75be 309c 94be
00000370: 325a b0bc 4822 eebd d1ad 9b3d a56f 083e
00000380: d025 763d 5e45 883c 9efd b23d 9086 a73e
00000390: 23ba 08bd e1d1 1cbe 45fe 85bd 65bb 343d
000003a0: 476c 2e3e bcdb cebc 38b9 38be 5efe 043e
000003b0: a1b7 973d a448 84bc da33 96be 9289 903d
000003c0: 58b4 443d 723a 59be edba ce3d 4590 3cbd
000003d0: fc53 b7bc 3665 64be d264 92bb b3dc 84bb
000003e0: 2a82 5ebe 9362 073e a53f 603e 1fda 193d
000003f0: b0b8 153e e43c 2cbc c0f0 54bd 7b0e e3bd
0.11800821 0.082687184 -0.11241146 0.04344992 0.04594164 -0.15410794 -0.18204454 -0.008009266
-0.051849604 0.063490294 -0.011261617 0.035567194 0.1534841 0.036860723 -0.05800925 0.10498705
-0.04288008 0.10876571 -0.0013130154 -0.1399042 -0.0020593458 0.14484912 0.058743324 -0.04327262
0.00060644996 0.04328102 -0.075474426 -0.007852242 -0.19172905 -0.13835028 -0.045551904 -0.028779667
-0.038180273 -0.076370604 -0.06505151 0.022049515 0.0622709 -0.092632525 -0.17212142 0.005126143
-0.067841955 -0.086772256 -0.21788216 -0.027423508 0.04340116 -0.10102342 -0.016260365 0.090069756
-0.101079695 -0.04450732 -0.09022736 0.089537434 -0.072399326 -0.009805096 0.10802147 -0.17579408
0.017429093 -0.024086742 0.1166574 -0.03232615 0.13181056 -0.08715129 0.07736335 -0.056957748
0.1161043 0.12302442 0.0058823 -0.15958573 0.0782182 0.1980272 0.04844741 -0.0789
0.0008354281 -0.14392897 -0.049623296 -0.09330327 -0.15425374 -0.07239708 -0.060450293 0.09538997
-0.13341802 -0.08438949 0.06980704 0.009168205 -0.09585659 0.019132609 0.06600887 0.16069844
0.025426226 -0.041893955 -0.005926017 -0.055565845 0.027149878 -0.060779203 -0.17485665 -0.06963034
-0.0042098355 -0.11330938 0.1195161 -0.07021834 -0.14040267 -0.17875056 -0.08221644 -0.019872973
0.017738147 0.019059498 0.17745279 -0.020872757 0.08876092 0.05569145 -0.023263456 -0.096019045
0.076314144 -0.17553179 -0.09110847 -0.01925591 -0.1315957 0.08710138 0.022360839 -0.12619404
-0.104240194 0.046937432 -0.17357269 -0.21698055 -0.15139706 -0.12982453 0.11453029 0.051015534
0.15432885 0.16370429 -0.013864086 0.009440072 0.037752435 0.023275867 -0.005179845 0.1633929
0.028933633 0.09764617 0.0378343 0.20288649 0.025707312 -0.045575317 -0.14433777 -0.010204491
0.024065308 0.022772979 -0.062234797 0.016556218 -0.1677847 -0.2159621 -0.06876843 -0.1969142
-0.02105032 0.17651519 0.03144931 -0.14737992 0.12407868 0.017616738 0.02408368 0.008060648
0.025269367 -0.11352006 0.17301966 -0.0693262 -0.00199509 0.19379877 -0.062751055 -0.12554014
-0.12306108 0.0013757235 0.0004669439 0.005424956 -0.10233587 -0.15092407 0.06250603 0.18498036
0.06689227 -0.0043729763 0.020506907 0.11318804 0.026751963 -0.12048559 -0.017249694 0.17556493
0.17582124 -0.15985827 0.017839616 -0.0703605 -0.024547173 -0.08866776 -0.17153531 0.12891215
0.2806198 -0.11802181 0.22746788 -0.16312583 -0.22515701 -0.20169017 -0.21118279 -0.18219478
0.009501395 0.13806696 0.26486576 -0.0045507615 -0.0036146254 0.13411346 0.23121725 -0.19902669
0.16845863 -0.30569565 0.23474075 0.08080209 -0.1889958 0.015839446 0.21737823 -0.20201698
-0.16236459 0.29601032 -0.23931436 -0.29025412 -0.021527383 -0.116276324 0.07601512 0.13323839
0.060094655 0.01663464 0.0873978 0.3271985 -0.03338064 -0.15314437 -0.06542639 0.044124026
0.17033492 -0.025251262 -0.18039405 0.12987658 0.07408071 -0.016147919 -0.29336435 0.070574895
0.04802355 -0.21213701 0.10094247 -0.046036024 -0.022378914 -0.22304234 -0.004467585 -0.0040546297
-0.21729341 0.13221197 0.21899278 0.037561532 0.14621234 -0.010512564 -0.05198741 -0.11086746

lstm.bias_ih_l0 f4 [192]
00000000: a5e8 893d c34f 7a3d 116f 60bd 60d3 81bd
00000010: 8b67 d2bc 3e15 47bd 08e8 b83d b916 843d
00000020: e222 a13d 29ab 003e ed44 043d 4f51 ebbd
00000030: d982 1cbd 1381 943d 1d5d 9dbd 2fa1 dd3c
00000040: 3af1 0bbd 45fb 963d c3b7 3f3e 6651 53bd
00000050: 9b85 273e 0e7f ac3d 4755 043e a9fe b53d
00000060: 13d6 25bd a61a 6d3d b542 0e3e 0d9d bc3d
00000070: ec9a 983b 4345 2e3d 4b48 bfbd c2fd 183e
00000080: 4c4c a2bd 9821 d93b 0b47 053e 3bb8 9abd
00000090: e200 d0bd ffc7 003e dc88 a3bd aa25 d53d
000000a0: 13d6 a8bd 8eaa 4e3e 47f7 c53d 5738 61bc
000000b0: e52c 983d 572a b53c 90ed 9d3d 9da5 bdbd
000000c0: dc2f 773b d519 3f3d 9264 2b3c fb31 0a3e
000000d0: 2b40 b1bc 90e0 d5bd fd78 d73d d860 3a3e
000000e0: ec97 7d3c 3498 d33d 6d4f 44bd f848 c7bd
000000f0: acd8 bb3b 8256 aa3c 8e1f 33bd e881 ca3d
00000100: 0ba3 f73d 0a8d d0bc dbe0 c0bd d6b2 aebd
00000110: 307f 9a3d a7cf 483e 4772 0e3d 79b5 003e
00000120: 4b37 043d 5c1f 7fbd 2512 753d 5bc9 8abc
00000130: a24b c63d 1359 763c 8dee b53d 7c18 ccbd
00000140: 084a 52bc cd4f e0bd 15de 6ebd 3f3f 203e
00000150: 55df adbd 03a7 1c3e da5f e63d 8576 a33c
00000160: 272a 0e3e ea13 24bc 05ca f83d 0fb3 513d
00000170: 6d68 d7bd 5b75 e2bd c647 6f3c d131 883d
00000180: 11ca fa3c 4ca4 3e3d 3c3e d13d d897 b1bd
00000190: 24a2 d13d 41dc 913d 7a1d bbbc 61a2 70bd
000001a0: e704 fd3d 843a 00bd 7238 c5bd d228 0fbe
000001b0: 4e99 b0bc 2b13 843c 3824 60bd 9823 0a3e
000001c0: 7311 143e b6a4 1c3e 79bb 4d3d 55ed 14be
000001d0: 1cce 87bc f0c5 fcbc 2d65 da3d 6923 e7bd
000001e0: e8ee 713d f382 33bd 5ec0 64bd e374 68bd
000001f0: 7224 cfbd 41d9 ccbd cf5b 64bd edc5 c13d
00000200: 9d57 693d b628 9e3d a762 1ebe 7d30 8b3d
00000210: 60d5 b5bc 480a 3ebc 19a7 e4bd 955c cc3d
00000220: 3b3b 623d 3eae d2bd 6ba5 f63d 83ff b0bc
00000230: a83a 1abd 42e6 c2bd 6c89 08be adb6 15bd
00000240: d70c 3e3e dc85 023e 010c e23d 9613 243e
00000250: 6018 c8bd 288e c23b 37c2 683d 4057 9f3d
00000260: 25da 4d3d e6dc db3d d15e d1bd 26e3 cfbc
00000270: d8ae e83d 87b8 59bd 41e2 313e 781b 2e3e
00000280: 84ec 9fbc 2155 473e 6c56 893c 4975 aebd
00000290: 5696 dc3d 5e20 253e 34f6 dc3d fc1e 673c
000002a0: 853d 113d 2b49 443e 8388 153e 456c fbbc
000002b0: e7a5 13bc 843a a23b 1f0f 633d d15a 4b3e
000002c0: 3bea 4ebd 09d0 f53d 2a8c 553e 9d71 f23c
000002d0: 549f f83d 5990 d53d eb0f 453e 22c1 47bd
000002e0: 812e ba3c f7b8 853e 033f 803d 6439 9e3d
000002f0: 8375 96bc 0a99 16bd ea42 163e d96e a43d
0.067338265 0.061111223 -0.05479342 -0.06339145 -0.025684139 -0.048604243 0.090286314 0.064496465
0.078679815 0.12565292 0.032292295 -0.11490118 -0.038210724 0.072511815 -0.076837756 0.027054397
-0.0341656 0.073721446 0.18722443 -0.0515913 0.1635956 0.08422671 0.12923156 0.08886463
-0.04048736 0.057886742 0.13892634 0.092096426 0.00465714 0.042546522 -0.09339961 0.14940551
-0.07924709 0.006626319 0.13015382 -0.075546704 -0.101564184 0.12576292 -0.07985088 0.104075745
-0.082439564 0.20182249 0.09666305 -0.013746343 0.07430438 0.022114916 0.07711327 -0.09260104
0.0037717735 0.046655495 0.01046099 0.13495629 -0.021637043 -0.104432225 0.105211236 0.18201005
0.0154781155 0.10331765 -0.04792731 -0.097307146 0.0057326164 0.020793203 -0.043731265 0.09888059
0.12091645 -0.025457878 -0.09417888 -0.08530204 0.0754379 0.19610463 0.034776952 0.12569226
0.032279294 -0.062285766 0.059831757 -0.016941717 0.096823946 0.015035885 0.088833906 -0.099656075
-0.012835033 -0.10952721 -0.058317263 0.15649126 -0.08489863 0.15298085 0.11248751 0.019953975
0.13883267 -0.0100145135 0.12147907 0.051196154 -0.105179645 -0.1105754 0.014604514 0.06650127
0.03061393 0.046543404 0.102169484 -0.0867154 0.10236004 0.07122088 -0.022841204 -0.058748607
0.12354451 -0.031305805 -0.09629907 -0.13980415 -0.021557476 0.016122421 -0.05472204 0.1349014
0.14459781 0.15297207 0.050227616 -0.1454366 -0.016577773 -0.030856103 0.10663829 -0.11286051
0.05906573 -0.043826055 -0.05584752 -0.056752097 -0.10114373 -0.100023754 -0.055751618 0.094615795
0.05696832 0.07722609 -0.1546732 0.06796358 -0.022196472 -0.011599131 -0.11164684 0.09978596
0.055232268 -0.1028714 0.1204327 -0.021606212 -0.037653595 -0.095165744 -0.13333672 -0.036551166
0.18559586 0.12746376 0.11037446 0.16023096 -0.09770274 0.0059373565 0.056825843 0.077803135
0.050256867 0.107354924 -0.10223163 -0.025376868 0.11361474 -0.053154495 0.17371465 0.17002666
-0.01952196 0.19466068 0.016764842 -0.08518464 0.10770862 0.16125628 0.10789147 0.014106508
0.03545906 0.19168536 0.14602856 -0.030691275 -0.009011722 0.0049508233 0.055434342 0.19858862
-0.05051635 0.1200257 0.2085425 0.02959519 0.121397644 0.10427923 0.19244353 -0.04876817
0.022727253 0.2611768 0.062620185 0.0772579 -0.01836658 -0.036767043 0.14673963 0.08028955

lstm.bias_hh_l0 f4 [192]
00000000: a8d9 bd3d c83a c43d ad64 5d3d 2c40 3fbd
00000010: 4c5c 603d 2403 143e 6794 b03c e63a 51bc
00000020: e33d 113e 35c7 e13d cc8c 153d 4fcb da3d
00000030: 1682 86bd 45c4 fd3d d8cc babd 81d8 053d
00000040: 36bd bd3d a78c d03b 5168 e73d 99a4 adbd
00000050: 9736 ac3d 8eb7 c1bd 32d1 133c 6458 2fbd
00000060: 7bea 4dbd 0c6b f73d 0e2a d7bb 1dda 24bd
00000070: 66ed b23d 7073 17bd 0a96 ddbd e1ac d93d
00000080: 1045 fb3d 652e 893d 7a23 343e 3e83 0c3e
00000090: f7b1 c1bd 86b5 703b 4330 bb3d 790f 1a3d
000000a0: 72fe 46bb c691 213e 5c46 313e 8321 f13b
000000b0: 4e63 373e 78e7 6f3d d1a0 a6bd 7fde 003e
000000c0: 047d e13d 5770 cebd 554a d8bd 79c3 133c
000000d0: 3a73 303d 4f59 f6bd 68f1 ec3d 5840 113e
000000e0: e9bc d93b 99cb 04be 4b4e f4bc b287 983d
000000f0: 92f1 853b dda7 f03d 0bac 873d 9401 9dbd
00000100: 581a 18bd ad77 d2bb 6ea5 013e c4d2 aabd
00000110: 8fa8 babd 0d62 403e 1119 bcbc 78e5 8a3d
00000120: 6769 09bd 97a3 11bd 78af 053e 22f4 fe3c
00000130: 57a4 fabd 0415 9a3d 8da0 763b 8af8 ccbd
00000140: 8aea 8bbd 6201 943d 0e50 84bd a3f3 b1bc
00000150: c53c 13bd 4238 783d bb3c 4bbd 1c6f 463c
00000160: a49a 713d 4efb fd3d ce5e a9bd c395 793d
00000170: ee79 00be 324a d93d e558 bdbd 4875 83bc
00000180: 614c 8a3d 37ee 89bb 3e3b a0bc 50a3 11be
00000190: 63e0 4fbc 6681 4a3d e340 0b3d 8460 2c3d
000001a0: 9f5f f4bb 8a68 05be 6990 2e3c abba fbbd
000001b0: 7641 bbbc cce1 5cbd 627c 243d 1747 c53d
000001c0: e8b0 763d 7a77 e93d bcee 863d 5bb3 693d
000001d0: 9948 f9bd fdc6 4ebc 0ba4 cd3d 6486 8abd
000001e0: 473e 733d efd5 1dbe eed0 9d3d 9f91 c13d
000001f0: fba8 cfbd 1b30 893d 0bbb 26bd 4c26 13be
00000200: 1642 4cba 29f0 a4bd e32f b03d 4dbc 76ba
00000210: 018a 663d 3b22 123e 7eda 163e 4509 823d
00000220: c61f 04be 9826 e13b 9c65 89bd d5ce d5bb
00000230: f169 a5bb a959 20be ab45 9b3d 6281 703d
00000240: d3e3 383c 70b6 93bc ce75 123e 699e 323e
00000250: b645 2cbd 723f 91bc a76e 17bc a59f 6d3d
00000260: 2966 2e3e 48e0 eb3c 676d 79bc c3f4 0c3e
00000270: 95d4 923d 527e a4bd f6e2 d43d 1aee 28bd
00000280: 3001 eb3c 3563 323e c9f9 57bd 9018 6fbc
00000290: 0ceb d93c a550 243e 3909 223e a187 a73c
000002a0: 470f cbbd a0bd 4a3e f89c ea3d a435 d43d
000002b0: ed78 393d 83e8 44bd 849a a8bd 83b7 373e
000002c0: 6a4c b4bd 96a9 b0bd 63ab 873d 3ec9 2b3e
000002d0: 584c 9cbd 879e 97bd 9a4a 213e cfd3 5b3c
000002e0: 5770 053e 0482 633e 4bdf db3d 0bd3 233e
000002f0: e895 053e 1d08 a3bd 7fa0 0a3e af2b 48bd
0.0927003 0.09581524 0.05405109 -0.04669206 0.05477552 0.14454323 0.021555139 -0.01277039
0.14183764 0.11024324 0.036511227 0.10683309 -0.06567781 0.12390951 -0.09121102 0.032677177
0.09264605 0.0063644233 0.11299194 -0.0847866 0.0840885 -0.094588384 0.009022044 -0.042808905
-0.050272446 0.120809644 -0.0065662926 -0.04024707 0.087366864 -0.036975324 -0.10819633 0.10628677
0.12269032 0.06698302 0.17591658 0.1372194 -0.09457772 0.003672929 0.091400646 0.037612412
-0.0030364064 0.15778264 0.17311996 0.0073587312 0.17908975 0.058570355 -0.08136142 0.12584876
0.11010173 -0.10080021 -0.10561053 0.009018772 0.04307864 -0.12028753 0.11569482 0.14184701
0.0066448343 -0.12968291 -0.02982249 0.07447757 0.0040876353 0.117507674 0.066246115 -0.07666317
-0.0371345 -0.006422958 0.12660763 -0.083409816 -0.09114181 0.18787403 -0.022961171 0.06782049
-0.033547785 -0.035556402 0.13055217 0.031122271 -0.122383766 0.0752354 0.0037632317 -0.100083426
-0.06831844 0.07226826 -0.06460582 -0.02172262 -0.035946626 0.060600527 -0.049618464 0.0121114515
0.058985367 0.12401448 -0.08270036 0.06093384 -0.12546512 0.10609855 -0.09245471 -0.016047135
0.06752849 -0.0042093056 -0.019559499 -0.14222455 -0.012687775 0.04943981 0.033997428 0.042084232
-0.007457688 -0.1302816 0.010654547 -0.122914635 -0.022858363 -0.053926274 0.040157683 0.096327
0.060227305 0.113997415 0.06588504 0.057055812 -0.1217205 -0.012620685 0.10041054 -0.06763914
0.059385564 -0.1541364 0.07705866 0.09451603 -0.10139652 0.066986285 -0.04070572 -0.14370078
-0.000779183 -0.080536194 0.08602884 -0.0009412214 0.056283955 0.1427087 0.14731786 0.06349424
-0.12902746 0.006871056 -0.067088336 -0.0065249004 -0.0050480296 -0.15659203 0.075816475 0.05871714
0.011284786 -0.018031329 0.14302751 0.17443241 -0.04205867 -0.017730448 -0.00924269 0.058013577
0.17031159 0.02879347 -0.015223837 0.13765244 0.07169453 -0.08031906 0.10394852 -0.041242696
0.02868709 0.17420657 -0.052728448 -0.0145932585 0.026601337 0.16046388 0.1582383 0.020450415
-0.09915023 0.19798899 0.11455721 0.10361794 0.04528134 -0.048073303 -0.082325965 0.17941098
-0.08803637 -0.08626096 0.06624486 0.16775987 -0.07631749 -0.074032836 0.15751114 0.013417198
0.13031135 0.22217566 0.10735949 0.15998475 0.13045466 -0.07960532 0.13537787 -0.048869785

mlp.0.weight f4 [256, 54]
00000000: c997 50bd 715a c3bd d784 d23d 1aaf 17bc
00000010: 007b 90bc 752b 773d 0dd5 ba3b f87d 54bd
00000020: 5d98 02be acd0 42bd 145f bfbc 5495 063e
00000030: 1f55 5dbd 2df6 bf3d cb63 e3bd 5230 3dbd
00000040: 29ca 6e3d bbea bdbc 4f0d 98bd 9e60 06bd
00000050: 7032 ffbd fcfb 083e 817e be3d 2bb8 013e
00000060: 0770 05be c2de 443d 6d90 ff3c 93b1 dd3c
00000070: 45f4 01be a3f7 153e 6748 c73d e9d8 e8bd
00000080: 315c e83c 1386 b73d e531 12ba 74af f03d
00000090: 5464 c5bd b669 083d 8d34 a43d aa5a d63d
000000a0: 932d 013e 861d b43d 0540 b2bd 4523 9c3d
000000b0: 16fe 15bd 9b9b abbd aae1 063d 9985 a7bc
000000c0: a42d c6bc 1834 05bd e6c6 ba3c 390e 26bd
000000d0: eb8f e03d 0267 0e3c 2d46 633d d95c c4bd
000000e0: 301a 67bd 8ef2 883d 3eae 6c3d 3fbf 0e3d
000000f0: 823e 02bc 06e3 28be 2d1e ddbc c519 8c3d
00000100: 98fd 26be 606f 183d 45b0 743d 6996 9fbd
00000110: 1666 02be b866 b13d 60a0 c43d 6db8 e2bd
00000120: d078 5a3c bdd9 fe3d 0618 3a3e 1d6c 673d
00000130: 16fe 5b3c 74dc e63c 2e91 073e 0ef0 ab3d
00000140: 291d e0bd edf2 143e 3b87 463e ed96 9bbd
00000150: 81ef b5bd e9be f93d 77c9 16bc 1bf8 08be
00000160: cfc1 49bd 17d0 28be 6d42 183e 6f32 183e
00000170: a1c0 90bd 256b 2bbd 4762 cb3d dfb1 9e3d
00000180: 03d7 78bd 47b2 af3d 6e72 07be 7bb5 5b3e
00000190: 5615 b63d c7eb 8ebe 1910 39be 8cf4 993d
000001a0: fb83 1b3e add7 34be 7260 1dbe 70ba c1bd
000001b0: 56c6 c6bd 1e5c 01be 4029 b83d 4cc1 fabd
000001c0: ad5d b33d 8523 ac3d 7622 073e ae4d 3cbd
000001d0: 4561 7fbd d22a 3d3b 4a66 c1bd 0376 74bd
000001e0: 8d4a c3bd 9eb5 16bc 7ae2 febd a12b 803d
000001f0: fb60 0c3e c9f6 43bd 4315 ed3d 4719 e0bd
00000200: 1cbb be3d 368b 09be 3b0b d8bd 4737 dd3a
00000210: f0e9 1e3e 74ed 0d3e 676c dfbd b4e7 563d
00000220: 24fa b43d c3fb ab3d 5929 ae3d 66ff 193e
00000230: 2e96 50bd 2936 96bd 98aa 0dbe ee8c 6b3d
00000240: 241e ea3d 1b6b a1bc 13c4 a73c fe61 86bc
00000250: 2f15 803d 3081 903d fe55 6dbd e765 0cbe
00000260: d51c 553c c51f d7bc e13c 6ebd 1527 1fbd
00000270: 310d 3ebc 789d ef3d d527 ad3c 8d03 1ebe
00000280: c24e e43d 84db 9fbd c56d 8fbb df66 083a
00000290: 5d17 85bd a181 7abd 71fb adbd cdea d6bd
000002a0: d540 b43d 4ea5 2ebe f8d4 0a3e 4d46 5a3d
000002b0: db2f 11be 330d 60bd 1f96 e4bd 654e 5cbe
000002c0: cddf a0bd a574 82bd c31b 3c3e 0d6e 97bd
000002d0: 1a66 1c3d 4566 143e c210 85bd 0b48 463c
000002e0: 1ddc 3d38 2ebf 563c e09f 9a3d 155f e83d
000002f0: b452 49be ca30 593e 5988 ed3c eb64 30bd
00000300: 3a83 e8bd 5670 b7bd b34c d7bd 0fe6 f3bd
00000310: b899 a1bd eaa5 13be ce7e 853d a9dd e43d
00000320: 423b df3d 0854 423d 09bb 353e d451 373c
00000330: 3a33 c33c 7e31 0dbe fca4 33bc fe8c 103e
00000340: 66da de3d 00e6 7bbe 7fd9 f4bd 9147 3d3e
00000350: 287a f73d 9d98 ac3d 2acf dfbd c6c4 633c
00000360: 0725 db3c 1ce4 a9bb fe63 f9bd 6280 d23d
00000370: 2269 2fbd a8d4 143d 55ff 5ebc 5863 e5bd
00000380: bbce 85bd bbea 8fb8 b195 273d 87e6 92bd
00000390: af7d e9bc 5c44 e2bd 2963 c1bd 43ea c33d
000003a0: 836e 93bd 3d0f a83d 0995 273e 5a30 93bb
000003b0: 4b79 c23c ad09 3f3d ebbc 6a3c c9e6 9f3b
000003c0: f97c 6c3d 486f 2f3e 64be 24be bb74 473e
000003d0: 65e7 f2bc 0490 9d3d f52c 1fbe 3a09 84bd
000003e0: bb2a 30be 57d5 383d a273 d6bd e3f9 09be
000003f0: 4bfb 053d e744 293e af25 b5bd 6e13 043e
-0.050926004 -0.09538735 0.102792434 -0.009258056 -0.017636776 0.06034418 0.005701667 -0.051877946
-0.12753434 -0.047562286 -0.023360766 0.13142902 -0.054036256 0.09373126 -0.111030184 -0.04618866
0.058298264 -0.023183217 -0.074244134 -0.032806985 -0.12460792 0.13377374 0.093014725 0.12667911
-0.13031016 0.048064 0.031196797 0.027062213 -0.12690838 0.14645247 0.097306065 -0.11369497
0.028364273 0.089611195 -0.0005576893 0.11752215 -0.09638277 0.03330394 0.08017836 0.104665115
0.12615041 0.08794694 -0.08703617 0.07623915 -0.03661927 -0.08379289 0.032930054 -0.020449447
-0.024191685 -0.032520384 0.02279992 -0.040540908 0.1096495 0.008691551 0.055486847 -0.09588022
-0.05642146 0.06686889 0.057783358 0.034850355 -0.007949473 -0.16492853 -0.026991928 0.06840853
-0.16307676 0.03721559 0.059738416 -0.0779236 -0.12734255 0.0866217 0.096009016 -0.11070333
0.013334468 0.12443874 0.18173227 0.05649959 0.013427278 0.028181292 0.13238975 0.08395396
-0.10943062 0.14545794 0.19387524 -0.07597146 -0.08883572 0.12194616 -0.009203306 -0.13375895
-0.049257096 -0.1648563 0.1486909 0.14862989 -0.07067991 -0.041850228 0.09930854 0.0774877
-0.060751926 0.085789256 -0.13227245 0.21455948 0.08890788 -0.2791426 -0.18072547 0.07517347
0.15187065 -0.17660399 -0.15368822 -0.09459388 -0.09705798 -0.12632796 0.08992243 -0.122439
0.087581016 0.08405212 0.1319674 -0.04597252 -0.062348623 0.0028864634 -0.09443338 -0.059682857
-0.09535704 -0.009198574 -0.12445541 0.062583216 0.1370887 -0.047842775 0.11576321 -0.10942321
0.09313032 -0.13432011 -0.10549017 0.0016877436 0.15518928 0.13860112 -0.10909348 0.052467063
0.08836773 0.08397629 0.0850398 0.15038833 -0.050924473 -0.07334549 -0.13834608 0.057507448
0.1143153 -0.019704392 0.020479238 -0.016404148 0.062540404 0.070558906 -0.057943337 -0.13710748
0.013007362 -0.026260266 -0.058163527 -0.03885563 -0.011599825 0.11699957 0.021137157 -0.15431042
0.11147834 -0.07805541 -0.004377099 0.0005203317 -0.06498597 -0.06115878 -0.08495224 -0.104940034
0.08801428 -0.17055246 0.13557804 0.0532897 -0.14178412 -0.054700088 -0.11161446 -0.2151428
-0.078551866 -0.063699044 0.18369965 -0.073940374 0.03818331 0.14492138 -0.06497337 0.012102137
4.5266108e-05 0.013107104 0.07550025 0.113462605 -0.19660455 0.21210018 0.02899568 -0.043064993
-0.113531545 -0.08956973 -0.10512676 -0.119091146 -0.07890648 -0.1441876 0.06518327 0.11175091
0.108999744 0.04744342 0.1774713 0.011188943 0.023828138 -0.13788411 -0.010964628 0.14116284
0.108815 -0.24599457 -0.119555466 0.18484332 0.12083846 0.08427546 -0.10928185 0.013901895
0.026751054 -0.0051846635 -0.12177275 0.10278393 -0.04282487 0.036335617 -0.013610681 -0.11200589
-0.06533571 -6.862493e-05 0.04091424 -0.07172876 -0.028502313 -0.11048195 -0.094427414 0.09566166
-0.07198813 0.082060315 0.16365446 -0.004491848 0.023739478 0.046640087 0.014327268 0.0048798067
0.05773637 0.17132294 -0.16088253 0.19478123 -0.029651353 0.076934844 -0.15544493 -0.06447072
-0.172038 0.04512533 -0.10471274 -0.1347423 0.032710355 0.1653019 -0.08845078 0.12898037

mlp.0.bias f4 [256]
00000000: 7808 d63c 6709 bbbd ebba a43d 421c 013e
00000010: 884b bb3d a74d ebbd 799c bcbd 2e09 5d3c
00000020: 8aa3 773d 8ecf 0dbe 82a9 d5bd d553 e9bd
00000030: 5726 bb3d 5518 0a3e e556 89bb 9ae4 4dbc
00000040: 1790 5d3b 7989 d1bd 6380 4c3d 59a3 043d
00000050: 3d03 2abc 8533 9bbb d3cf 40bd 499c 88bd
00000060: 3f57 e1bd bded f03d d2b0 f43c 15e1 b4bc
00000070: 12d5 623d d76e 3a3d 2462 9d3d 6b0a e93d
00000080: 1c1b 0ebe 4f09 a7bd 1bcc be3c 2d7c 01bd
00000090: 3d13 69bd b73c 0c3e 443c 4a3d a3c3 fb3c
000000a0: 277a 703c 6ca0 2bbd 19a8 7d3d 05e0 263c
000000b0: 4ce1 8e3b 6566 6f3c e46a 4f3b e554 223d
000000c0: f083 263e 3ce0 97bd 11c2 a5bd bc53 063e
000000d0: cdc8 a5bd 098b f1bd 0605 b4bc 7e86 85bd
000000e0: f6a2 053c b7ee bdbc bbac c93c efce 013e
000000f0: 17c4 d2bd edf7 8cbd b284 46bc 9ef1 f0bd
00000100: bada c63b 8d8b b5bd 7694 49bd 6d7e 2d3d
00000110: 8322 d7bd ef52 fdbd a528 a13c 5f41 8a3d
00000120: ed44 06be 5c35 95bc 4fa7 383d 1f26 9cbc
00000130: d66d babd e5ff f43c 7476 a3bc 5eb8 bfbd
00000140: bb85 fcbd 9fff 043e 1473 c5bd 799d dabd
00000150: 6427 ebbd 1cd3 603c 77db 3cbd 35fe f93d
00000160: 41a6 a93c ad84 f63d a768 993d 0abe 09be
00000170: 01bf b1bd 6192 ee3a 1617 973d c29e 173e
00000180: acf6 8e3d 39bf df3d d9e2 1a3d d764 833d
00000190: 32ee ed3d 6839 4cbd 9eda 033d e497 5cbc
000001a0: 71b3 173d ace6 51bd 6bd9 a0bd eecd ec3b
000001b0: a5f1 c4bd e399 923d 3180 c6bc 1642 ff3d
000001c0: d729 bfbd 616e 7f3d 6ca1 053e 8514 9ebc
000001d0: 03e0 a5bd 82cf 463c 76c3 67bd ce62 9fbc
000001e0: cea8 373d e963 643d 8f4f 083e e8da 2cbd
000001f0: 71d4 703d 9964 383d 84f8 09be c627 03be
00000200: 6d64 1f3d c619 0cbe b1c6 f53d 6369 f23d
00000210: 4b39 653d 0641 ac3d d3dd dbbd 203c 233d
00000220: 7263 843d a266 8f3c 704b e13d 250e 403d
00000230: 8dfe fd3d 677d 26bd 1c82 ea3d 676d 2cbd
00000240: 78de aebd 9d87 9ebd 0c95 ffbd f0a8 bcbd
00000250: 1950 e93d 3ed5 6fbd ec69 1e3d 1766 163e
00000260: cb14 813d 3a9d a2bd fa58 dabd 6225 193e
00000270: 7bfe c0bb 84aa 0abd 6ee3 7cbd 62c1 d2bc
00000280: 8eeb 6a3d 1777 cebd 6480 f2bc fce9 41bd
00000290: c56f 7cbd 96ff a03d e94c 153d e500 89bd
000002a0: 0dc0 713d a0b8 f0bd ac2b 1d3d 9274 9e3b
000002b0: 92da d7bd c962 7ebd f915 9abd 7b89 f03d
000002c0: d14b 0e3e 2a23 03be 11ff 333e 2763 df3d
000002d0: b4ae f4bd 5112 03be 3301 173e 01a9 043d
000002e0: 6084 cfbd 5cb1 f63d cd3a ebbd 7caf 5abd
000002f0: 618b 353d 08df b9bd 8dd9 a8bd 163a c93d
00000300: 33b8 ed3d 13dc 163d f05a f5bd ccbe b837
00000310: 13f9 313d b11a 59bb 2b81 a3bd 817f db3c
00000320: 921c a2bb 9ca6 b4bd 4065 a33d 6fca 00be
00000330: c028 b1bd 22cb 4ebc ee14 78bd 3cde 1e3d
00000340: 6a79 d7bd 5bbb b23d e4c4 463d 5300 a33d
00000350: 1136 c53a 6b44 b6bd 82d2 0ebd 1da9 a0bc
00000360: 684c f73d e2d9 8f3d 2f61 2d3d 5f24 6e3d
00000370: ed7e bcbd 98be e63d 6f76 b63c cae2 6fbd
00000380: e928 183d 3137 b6bd ac0a 083e ef21 c9bd
00000390: e2f8 febc 8394 a6bd 8c2a b13d 094e 06bd
000003a0: fa5d 9abc cee5 01be 5e29 8fbc f84e d93c
000003b0: 9a7b b7bd 6ee3 a7bc acd7 723d c242 9bbc
000003c0: 554b 5d3b 239d 9cbc 22ab babd b049 9abc
000003d0: 853e e93d 669e a4bd 5fa2 06be 41f9 05be
000003e0: 9b41 083d 07cf 8c3b 26b0 94bd 7191 14bd
000003f0: fb11 efbc 5f40 4c3d 9171 4d3c 8264 c7bd
0.026127085 -0.09132653 0.08043464 0.12608436 0.09145266 -0.114894204 -0.09209532 0.013490958
0.060458697 -0.13848707 -0.10432722 -0.11392943 0.09138172 0.13485844 -0.004191267 -0.01256671
0.0033807808 -0.10231299 0.049927127 0.032382343 -0.010376749 -0.004736366 -0.047073197 -0.06670434
-0.11002969 0.11764095 0.02986947 -0.022079984 0.05537898 0.04551586 0.076847345 0.1137894
-0.13877529 -0.08156072 0.023290684 -0.031612564 -0.056903113 0.13695036 0.04937388 0.030732935
0.014677561 -0.041901037 0.06192789 0.010185246 0.0043603536 0.014611815 0.0031649405 0.039631743
0.16261268 -0.07415816 -0.08093656 0.1311788 -0.0809494 -0.11794097 -0.021975052 -0.06519793
0.008156529 -0.023185117 0.024618497 0.12676595 -0.102913074 -0.068832256 -0.012116598 -0.11764835
0.0060685547 -0.08864508 -0.04921385 0.042356897 -0.105046295 -0.12369334 0.019672701 0.0675075
-0.1311223 -0.01821392 0.045081433 -0.019061146 -0.09102981 0.029907176 -0.019953944 -0.09361337
-0.123301946 0.12988137 -0.0964109 -0.10674567 -0.114821225 0.013722207 -0.046107735 0.12206689
0.020709159 0.12037025 0.07490664 -0.134514 -0.08679009 0.0018201583 0.0737745 0.14806655
0.06980643 0.10925145 0.037813995 0.06415718 0.11617698 -0.049859434 0.03219091 -0.013463948
0.037036363 -0.051245376 -0.07853969 0.007226697 -0.096164025 0.07158258 -0.024231048 0.12463777
-0.09334152 0.062361125 0.13049859 -0.019296894 -0.080993675 0.012134435 -0.05658289 -0.019456293
0.04483872 0.055759344 0.13311599 -0.042200953 0.05879635 0.045017812 -0.13473707 -0.12808141
0.038914133 -0.13681707 0.12000788 0.11836507 0.055962842 0.0841084 -0.10735669 0.03985226
0.0646428 0.017504994 0.11000717 0.04688849 0.12402067 -0.040646937 0.11450598 -0.04209652
-0.08538526 -0.0774071 -0.124796 -0.0921191 0.113922305 -0.058552973 0.038675234 0.14687382
0.06302794 -0.07940145 -0.10661502 0.14955667 -0.0058897114 -0.033854023 -0.06174033 -0.025726978
0.05735355 -0.10081308 -0.029602237 -0.047342286 -0.06163003 0.07861249 0.0364503 -0.06689624
0.059021045 -0.117539644 0.038371727 0.0048356736 -0.10539736 -0.062105928 -0.07523722 0.11744972
0.13896109 -0.12806383 0.17577769 0.10907584 -0.119473845 -0.12799956 0.14746551 0.032387737
-0.101326704 0.12045547 -0.11485825 -0.05339001 0.044322375 -0.09075743 -0.082446195 0.09825532
0.11607399 0.036830973 -0.119802356 2.2023356e-05 0.043450426 -0.0033127482 -0.07983621 0.026794197
-0.0049472535 -0.08820841 0.07978296 -0.12577222 -0.086503506 -0.012621673 -0.060566835 0.038786158
-0.10521205 0.087271415 0.048527613 0.07959046 0.001504602 -0.088997684 -0.034868725 -0.01961189
0.1207512 0.0702398 0.04232901 0.058140155 -0.09203897 0.112668216 0.02227327 -0.058565892
0.03714839 -0.08897246 0.13285321 -0.098209254 -0.031124536 -0.08133795 0.08650693 -0.032789264
-0.01884364 -0.1268532 -0.01747578 0.026526913 -0.08959122 -0.02049419 0.059287712 -0.018952731
0.0033766825 -0.019117897 -0.09114672 -0.018833965 0.11388878 -0.080380246 -0.13147877 -0.13083364
0.03326569 0.0042971405 -0.0726016 -0.036271516 -0.029183378 0.049866077 0.012539283 -0.09735967

mlp.2.weight f4 [128, 256]
00000000: 6b48 b63c 528e ba3c 9b15 763d b7d3 18bd
00000010: ebe2 34bd 8305 8dbc 88b3 16bd 947c 3e3d
00000020: 374d 71bd 7e9d cebc 1b46 44bd 04e0 08bd
00000030: 1008 723c 5021 6d3d 27ab f53c 901c 2fb9
00000040: 328f 17bc 2cea 8b3c e7cf 17bd ddd1 a63d
00000050: b83a 67bd 8848 5ebc 6e0d 3e3a 39ac 383d
00000060: 53a8 0dbd d678 35bc da67 62bd 45d4 103d
00000070: 14aa 79bc 8d36 ab3c 510f 273d c915 04bd
00000080: 3f95 313d 5bb7 55bd 0b11 89bd 5deb 713d
00000090: 1eed 9a3c 4ef2 7dbc 788c d83c 41cc 8e3b
000000a0: 0328 093c 1371 a83c 76f9 653d 2650 4fbd
000000b0: 0ce6 5abd 8600 a1ba 7cbc 653d 8eb3 0b3c
000000c0: a41a 0a3d 5ae4 80bd 7b6a 20bd 3707 a7bd
000000d0: 9804 33bc d47f a33d 1e0a 983c 36be 3e3d
000000e0: ae7c 7fbd 06fb 2c3d 6dc5 76bd 3acb 1d3d
000000f0: d7bf 113d fd1d 54ba d151 6b3d 3467 a3bc
00000100: 9278 81bd 3651 d9bb 57df 9f3b 76a3 c1ba
00000110: 09be c33c 116b 53bd 073a f0bc e0f7 553c
00000120: b519 15bd 4311 afbd 644f d93c d927 35bd
00000130: f87d 4b3c c73c 003b 9199 99bc 77e1 333d
00000140: 6a04 963d de7a b1bc 6f02 6e3d 4379 27bd
00000150: ade9 54bd 2751 45bd 80b7 35bd 75d8 07bd
00000160: 2a3f b0bc 70a7 483c 27c0 893d f02e 2a3d
00000170: 14a1 203d 3af8 51bd 92ae c73c 478d d0bc
00000180: aa25 333c f8dd a43d 31c3 08bd c9f2 ad3c
00000190: abb6 903a 15c3 f4bb 0cdc 42bd d9fb f13a
000001a0: 1737 be3c cebb 953d c16f d93c 590d 153d
000001b0: b7e4 0a3d 31dd 86bc e6ee aabb aca3 463d
000001c0: 66f3 76bd d127 99bc a9e6 203c dfae a63c
000001d0: 4cd3 753c 54b8 adbc b589 713d 05b1 9dbd
000001e0: b4e3 33bd 797d 2ebb fdca 5c3b 8064 563c
000001f0: 171a 70bd 75a7 113d 44bf 55bd d871 00bd
00000200: fdc4 3dbd 9ed1 4fbc c878 363d 96f6 503c
00000210: 347a c83c e37c 8d3d c505 3b3c 0115 993c
00000220: 20c3 3b3d a680 4ebd 602c 80bc 2235 ad3d
00000230: 3185 f6bb 4c11 bebc aeb9 123d dcaf 9f3c
00000240: 7ca6 28bd c221 7fbd c632 48bb f6c1 88bd
00000250: 3bed d3bc b8e1 7dba b779 12bb 472d fa3b
00000260: 8ae1 fb3c 2c3f 35bd 7a23 6e3c 4d0e 37bd
00000270: cc37 7c3d 87b7 4dbd b4aa 93bd 8341 4abd
00000280: 5cfd f4bc 9060 713d 8055 22bd 2927 38bd
00000290: 2a38 77bb 6094 11bd 8da0 a9bc 7f37 a0bd
000002a0: 7b37 163d 5b3f 98bd 9ee7 8e3c 382b babc
000002b0: 0827 683d 30e4 3e3d 6017 de39 60e9 77bd
000002c0: dab6 6ebd 28d7 36bc 3ed2 593c 28a1 f23c
000002d0: 214e f63b 80d5 e9b9 4cc6 d2bc a7bb e63a
000002e0: 816e 60bd 6f36 1a3d 18af 823d 5407 c238
000002f0: dae9 1abd 805f f9bc 98e7 0abd 082e 4bbd
00000300: 25fb 423d 6f8e 263c 39f8 93bb f59c 343c
00000310: f1c0 edbc 9278 a1bc a049 fabb 0c68 b03c
00000320: 22a1 353d 8451 a23d 9e51 963d 82b1 c93c
00000330: 9600 25bd 57de 6dbd 9d92 8fbb 533e 57bd
00000340: 4b5e 5abd 0f8c 433d 662f 593d 81a3 3eba
00000350: 8328 c43d 80cc 23bd f2dc 57bd 109c e63c
00000360: 8719 293d 3c7a 9f3b bbdc 09bd 65d5 453d
00000370: c545 50bd 71ce 603d 1a3c cb3d 5c55 42bd
00000380: 3607 35bc 83a5 da3c 259d 6f3b 0fc7 3f3d
00000390: 5107 2d3c 9ad0 ea3c 1d53 cb3b 0066 3bbd
000003a0: 43fa 2cbc b241 fabc 32fd 953c a357 963d
000003b0: 0bcb 6e3d 2c78 663d 0b31 4c3d 5e70 9139
000003c0: 0665 9dbc a6f1 153d 543d 803a 2a8b 07bd
000003d0: a797 8fbd 5fcb 633c 32d8 6c3a 1dba 2cbc
000003e0: ce9c c5bc c28b 12bd 52f5 3a3d e3e2 be3c
000003f0: 7017 483c ac17 dfbc e1b6 c33b 96bd 043d
0.022251328 0.022772942 0.0600792 -0.037311282 -0.04416172 -0.017214542 -0.036792308 0.046505526
-0.05891153 -0.025221583 -0.04791842 -0.033416763 0.01477243 0.057893097 0.029988838 -0.00016699941
-0.009250449 0.017079435 -0.037063506 0.08145497 -0.056452483 -0.0135670975 0.0007249926 0.04508612
-0.034584355 -0.011076173 -0.05527482 0.035358686 -0.015238304 0.020900035 0.04078609 -0.03224734
0.043355223 -0.052176815 -0.06692704 0.05906235 0.018911894 -0.0154996645 0.026434168 0.004357845
0.008371356 0.02056173 0.056146108 -0.050613545 -0.053442046 -0.0012283481 0.056087956 0.008526696
0.033716813 -0.062935546 -0.039164048 -0.08155673 -0.010926388 0.07983366 0.018559512 0.046568118
-0.062374763 0.042231582 -0.060246874 0.03852389 0.035583343 -0.0008091627 0.057451073 -0.019946672
-0.06321825 -0.0066319956 0.004878919 -0.0014773447 0.023894327 -0.05161578 -0.029324545 0.013059586
-0.03640147 -0.08548214 0.026527114 -0.044227455 0.01242017 0.0019567476 -0.018749984 0.043916192
0.07325061 -0.021665033 0.05810779 -0.04088713 -0.051980663 -0.048173096 -0.044364452 -0.033165414
-0.021514494 0.012246951 0.06726103 0.04154867 0.039216116 -0.051262118 0.024375234 -0.025457991
0.010934273 0.0805015 -0.033389274 0.021233933 0.0011040767 -0.0074695447 -0.047573134 0.0018461897
0.023219628 0.073112115 0.026542546 0.036389682 0.033909526 -0.016462894 -0.005216467 0.048495933
-0.060290717 -0.018695744 0.009820619 0.020347057 0.01500399 -0.021206059 0.05896922 -0.076997794
-0.043918326 -0.002662508 0.0033690326 0.0130854845 -0.05861863 0.03556009 -0.05218436 -0.03135857
-0.04633044 -0.012684254 0.04454878 0.012754103 0.024472333 0.06908586 0.01141495 0.018686773
0.045840383 -0.050415657 -0.01564616 0.084574 -0.007523202 -0.023201607 0.03582161 0.019493036
-0.041174397 -0.062288053 -0.0030547841 -0.0667762 -0.025869956 -0.0009684819 -0.002235038 0.007634792
0.030747194 -0.0442497 0.014534825 -0.044691373 0.06157665 -0.050223853 -0.072102934 -0.049378883
-0.029905967 0.05892998 -0.03963232 -0.04495922 -0.0037722685 -0.035541892 -0.02070644 -0.07823085
0.036674004 -0.07433959 0.017444428 -0.022725686 0.056677848 0.046604335 0.00042360555 -0.060525298
-0.05827985 -0.011159696 0.013294755 0.02961786 0.007516638 -0.00044600293 -0.025729321 0.0017603532
-0.054792885 0.03764957 0.06381053 9.252006e-05 -0.037820674 -0.030441046 -0.03391227 -0.049604446
0.04760279 0.010165795 -0.0045156744 0.01102375 -0.029022666 -0.019710813 -0.0076381713 0.021533988
0.04434312 0.07925704 0.07339786 0.024620775 -0.040283762 -0.058073368 -0.0043814913 -0.05254967
-0.05331258 0.047740992 0.05302372 -0.0007272289 0.095780395 -0.03998995 -0.052700944 0.028150588
0.04128411 0.0048668664 -0.03365777 0.048299212 -0.050847787 0.054884378 0.09923573 -0.047444686
-0.0110490825 0.02669025 0.0036562171 0.046820696 0.010560826 0.028663922 0.0062049762 -0.04575157
-0.010557714 -0.030548904 0.01830921 0.07340934 0.058299106 0.05626695 0.04985146 0.00027740275
-0.01921321 0.036607407 0.0009783902 -0.0330917 -0.07011347 0.013903468 0.0009034901 -0.01054242
-0.024122622 -0.035777815 0.045644112 0.023301547 0.012212619 -0.027232967 0.0059727286 0.032407366

mlp.2.bias f4 [128]
00000000: f7d7 4c3d efcc 113d de21 61bd 85b9 2cbc
00000010: 39cc 243c 2ca1 aabc d5fb 413d 35c2 693c
00000020: 2dd4 673b 449d f13c abf3 1bbd 419c 3dbd
00000030: 7c60 d6bc a021 26bd 9653 8f3c c638 16bd
00000040: b9b8 74bd 8fe7 27bd 58a2 89bc eb7f bebc
00000050: 5bf4 b239 c07a 963b 65cf 6abd 9a84 57bc
00000060: b00f ef3c d0b3 1fbc ebcb 95bc 0a80 843d
00000070: 7bfc 38bd f37a 99bc 736a b03d a7a3 ef3c
00000080: 8f01 86bd 74ca 3f3d a8fd c9bc cee8 d0bc
00000090: cd54 70bc a276 e5bc 5c57 083d 3d29 173d
000000a0: 334f 6c3d 0e36 3abd 1f63 8c3d 3319 10bd
000000b0: dc9c 783d c49c 433d 9416 433d da7e 5dbd
000000c0: 8088 263c 4518 7d3d f070 bdbb 01d1 34bd
000000d0: 6b79 c03c 5425 3e3c aa9d 61bc d9dc ff3c
000000e0: 1ce5 453d dfec dc3c 9261 6cbc 9381 5d3b
000000f0: b455 36bd f0d9 793a 5908 fbbc 06d6 7fbd
00000100: aa48 eb3c d9d3 983c 5860 04bd 2c4d 40bd
00000110: 2882 79bd 05ab 9e3d 84e0 e2bc 9d45 843b
00000120: d0d7 6fbd a02a 293d 7aa8 3b3d 3bfd 9bbc
00000130: 7646 df3c 5418 683d 5128 4d3d fa32 723d
00000140: 308b 43bd b45f 92bb 7e80 763d 1ecb 0abd
00000150: 6d58 00bd 3bb5 ec3c 4422 2e3d 18a1 fbbc
00000160: e003 91bd ffab 2fbd bcaf 0fbd aecc f03a
00000170: 6446 bcbc aff3 843c 769c c33c c036 c6bb
00000180: a0ae 103d 98b8 063c 72f3 5b3c 0c5e 033d
00000190: e8b5 073d 407f 893d 7317 503d dcf8 8b3d
000001a0: 7d23 463d fba2 d83c d60d 57bc e1fe c33d
000001b0: f955 783c ff31 563d a446 873d a1c3 afbc
000001c0: 3612 a93c c38a c03c c4f3 febc 82cd adbc
000001d0: 121c 9a3d fd11 543d 0380 493b 108e 483d
000001e0: 9ad3 24bd 285e 02bd 126d aabb 17df 39bd
000001f0: c6fb 7fbd 648b 583d 48d1 3dbd 8f50 093c
0.050010648 0.03559583 -0.05496394 -0.010542278 0.010058456 -0.020828806 0.047359306 0.014267494
0.003537427 0.029493935 -0.038074177 -0.046291593 -0.026169054 -0.04055941 0.017495912 -0.036675237
-0.059746478 -0.040992316 -0.016801044 -0.023254355 0.00034132865 0.0045922697 -0.057326693 -0.013154173
0.029182285 -0.0097474605 -0.018285712 0.06469734 -0.04516266 -0.018735385 0.086140536 0.02925284
-0.06543266 0.046823934 -0.024657086 -0.025501635 -0.014668656 -0.02801067 0.033286437 0.036904562
0.057692718 -0.045461707 0.06854843 -0.03518028 0.060696468 0.047756925 0.047628954 -0.054076053
0.01016438 0.061790723 -0.0057812855 -0.044144634 0.023495397 0.011605579 -0.0137705 0.031233238
0.0483142 0.026968418 -0.014427559 0.0033799156 -0.044515327 0.00095310714 -0.030643629 -0.062459968
0.028721172 0.018655704 -0.032318443 -0.046948597 -0.060915142 0.07747463 -0.027694948 0.004036619
-0.058555424 0.041300416 0.04581497 -0.019041648 0.027255278 0.056663826 0.050087277 0.059130646
-0.04774016 -0.004466975 0.060181133 -0.033885114 -0.03133433 0.028895011 0.042513147 -0.030716464
-0.07080817 -0.042888638 -0.035079703 0.0018371546 -0.022982784 0.016229479 0.023878317 -0.006049007
0.035322785 0.0082227215 0.013424741 0.032072112 0.033132464 0.06713724 0.050803613 0.068345755
0.048373688 0.026444903 -0.013125857 0.09570099 0.015157216 0.052293774 0.066052705 -0.021455588
0.020638566 0.023503667 -0.031122096 -0.021216158 0.07524885 0.051774967 0.0030746467 0.048963606
-0.04024086 -0.031828076 -0.0052009905 -0.04537877 -0.06249597 0.05286731 -0.046342164 0.008381023
