weights/steps_200001.pth (torch, 276355 bytes, 10 tensors)

lstm.weight_ih_l0 f4 [192, 7]
00000000: 6122 d0bd fa38 bcbd d34e c6bd fe71 0fbd
00000010: be7d 213e 2cfc b1bd 9e69 8cbd 53c2 f5bd
00000020: d149 11be a2a8 c8bd 9ef6 05bd 866c 22bc
00000030: fa10 a83d 479d 14bd 0dab 603d ac9c 963d
00000040: 5264 433c 26f3 2c3d 1315 693d 2d50 7c3d
00000050: 40aa 3a3d 0238 ebbd 2304 8dbb f2fd af3d
00000060: 58f0 103e b13c 0f3e 2345 b33d f65b ae3d
00000070: a69c 713d b487 af3d 992b 20bd 3e3c d8bc
00000080: f5f3 393c 67a0 0a3e 98bc c3bc 25e3 f5bc
00000090: e117 babd 935b cf3d eccd a3bd fc88 d83d
000000a0: 1335 1abd 0fa8 bf3d c645 abbd 744c 013c
000000b0: 459e 153d b409 a83d 7b5a 143e ae43 d8bd
000000c0: 5d8e 92bd f15f f6bc 2c89 72bd 409c c3bd
000000d0: b44b 96bc c6e4 9fbd 62a2 bdbd f3af 08bc
000000e0: 6c89 e0bd 52d7 673d 0c51 273d 0f3d a9bd
000000f0: cb5e 7b3d d9b8 8bbd 6790 1bbd 6138 463e
00000100: c3d6 c8ba 5eb0 5e3d 423d 233d d83c 0c3c
00000110: 32fb 203e b53c 08bd df57 b4bd 8ef0 a3bd
00000120: ae2e 9f3c 2c09 123e bac8 1d3e f28b 6ebd
00000130: c54b 123e 975e 04be 04ba 013c 11d8 c23d
00000140: ff0f c5bc 13c0 463d 7da9 883d f808 e2bb
00000150: 7bac 1abd 86cb 6c3c defe 0cbe 1caf a4ba
00000160: ab5e 2abd 55f4 3b3d a5d7 d1bd 164f 623d
00000170: a9af 5f3c 7603 0f3d 168c a43c a339 fbbd
00000180: 5c9e e13d 201d f4bd 8c83 33bd 1818 04bd
00000190: e6bc c83d 6451 b1bd 84ec 93bd e346 03bd
000001a0: cf4b 273e c83e 26be dc3b 15be 7bff d3bd
000001b0: 1675 1d3d a905 c0bd 3fb8 ec3d 262a 9dbd
000001c0: 0c24 a13d 7109 013e 16c4 a73d 8608 83bd
000001d0: ee00 4e3d 5ace be3c 9220 3d3e 973f c2bd
000001e0: 22d2 0abe d53d d13d 8666 a03d 5138 083e
000001f0: abb0 113e cbbb 213e 8cc7 c7bd 2b77 0b3d
00000200: 50b4 e73d b1d3 8bbd ffcc 063e eabf 423d
00000210: 8fc8 923c df32 fb3d 7968 0a3e 423e b33d
00000220: 4fe2 d0bc 72f6 8ebd 0492 313e 29d2 193e
00000230: 336d a2bd 8117 503d 8e27 623d ceb2 673d
00000240: b867 693d 99a7 d1bd 0ec3 873d 688d 9bbd
00000250: dcba 82bd bcb4 4a3c 6537 00bd 1949 213c
00000260: 4397 4dbd 7c0e cdbc 0176 0fbe f172 d9bd
00000270: f63c d8bd 346b 8fbd 551c 9d3d 5f35 b4bd
00000280: 4863 bd3b a73c 35bb 2eba e9ba 52a7 ebba
00000290: 6254 0c3d c4df 063e a012 e7bc dfd2 053e
000002a0: 99e7 2b3e 2fd8 a73d bd79 913d be10 9abd
000002b0: 7bae ea3c 7d3d 073e 25d4 94bd 026e 053e
000002c0: 552f 173e e693 6a3d e1d5 1e3e 99c9 2c3d
000002d0: e566 dcbd 3cfb af3c ab8d 1f3e b4b0 75bd
000002e0: 6194 a93d 1caf e73d 12c0 ec3d 865a a43d
000002f0: 28a3 003e e72f e4bc 0ecc e43d 4863 fb3c
00000300: 5dfb 9e3d 8c2d 69bd 848e 123e c80d 503d
00000310: 1517 c63d dc4d 6cbc f29e 7dbd 1e22 05bd
00000320: 980a e33d 0aea e53b 9255 103e a86b 103e
00000330: 3f1b 773d 7ab4 953d 3bf8 c43c f0af db3c
00000340: 9844 163e 5f0b bdbd 8e8c b6bb cc17 ebbd
00000350: 9a0f e63d d8cc 99bb b039 9a3d 0dcf 803d
00000360: 68af 1d3e 1272 d2bd 9a3d 24bd 93bd 10bc
00000370: b9d8 a43d d5f6 483d 53cb e0bd 899b 193e
00000380: 2013 233d 01f5 143e cfc0 633c feaf e13c
00000390: 4bc1 2c3e d51e d5bc e343 2cbd d39e 523d
000003a0: 98c9 dc3b 63fd 4cbd dbf7 673d 11cd afbd
000003b0: 183a 003d 4733 d13d 2a18 96bd 8186 aabd
000003c0: f3c5 f0bc 7c3e f33b 36c6 73bc 204b 03be
000003d0: b5be 80bb 0d7f f0bd d938 a73d 2776 cf3c
000003e0: d0e7 c3bc 21a3 0f3e ed76 e63d 3ba8 2ebd
000003f0: 8054 00be aabe a0bd 61ee 003e 6b32 273d
-0.10162807 -0.09190555 -0.09683003 -0.03502082 0.15770623 -0.08690676 -0.068560824 -0.11999955
-0.14188315 -0.09797789 -0.032705896 -0.009913569 0.08206363 -0.036282804 0.054850627 0.073541015
0.011925774 0.042224072 0.056904864 0.0615999 0.04557252 -0.11485292 -0.0043034717 0.08593358
0.14154184 0.13987996 0.08753421 0.08513634 0.058987282 0.08570805 -0.039104078 -0.026395913
0.011349668 0.13537751 -0.02389364 -0.030015538 -0.09086586 0.10124888 -0.07998261 0.10573003
-0.03764827 0.093582265 -0.083629176 0.007891763 0.03652789 0.08204976 0.1448764 -0.10559784
-0.0715606 -0.030075045 -0.05921285 -0.09551287 -0.018346645 -0.07807307 -0.09259488 -0.008342731
-0.10963711 0.05660183 0.040848777 -0.08263599 0.0613697 -0.06822366 -0.03797951 0.19357444
-0.0015322793 0.054367416 0.039853342 0.008559428 0.15720823 -0.03326102 -0.088058226 -0.080048665
0.019431438 0.14261311 0.15408602 -0.05823893 0.14286716 -0.12926708 0.007917885 0.09513868
-0.02405548 0.04852302 0.06672952 -0.006898042 -0.037762146 0.014452821 -0.13769099 -0.0012564394
-0.04159419 0.04588731 -0.10246209 0.055251203 0.0136527205 0.03491541 0.02008633 -0.12266853
0.11016533 -0.11919618 -0.043826625 -0.03224954 0.098016545 -0.08658102 -0.07222846 -0.032050025
0.16337512 -0.16234887 -0.14573616 -0.103514634 0.03844174 -0.093760796 0.1155858 -0.07674055
0.078682035 0.12601258 0.08191697 -0.0639811 0.050293855 0.023291755 0.18469456 -0.09484785
-0.13556722 0.10216872 0.07832055 0.13302733 0.1422755 0.15794294 -0.097548574 0.034049194
0.11313689 -0.06827486 0.13164137 0.047546305 0.0179179 0.12265562 0.13516416 0.08752109
-0.025498537 -0.069805995 0.17340857 0.15021576 -0.07930984 0.050803665 0.055213504 0.056567006
0.05698368 -0.10237045 0.066290006 -0.075953305 -0.06383297 0.012372192 -0.03130283 0.009844088
-0.050193083 -0.02503132 -0.14009859 -0.106176265 -0.105585024 -0.07002869 0.076714195 -0.08799242
0.0057796575 -0.002765456 -0.0017831975 -0.0017978942 0.03426016 0.13171297 -0.028207123 0.13068722
0.16787566 0.081955306 0.07103298 -0.075227246 0.028647652 0.1320705 -0.07267026 0.13030246
0.1476415 0.057269953 0.15511276 0.042184446 -0.10761813 0.021482103 0.15581386 -0.05998297
0.08280254 0.11312696 0.11560072 0.080250785 0.12562239 -0.027854873 0.11171733 0.03068699
0.077627875 -0.056928203 0.14312178 0.050794393 0.09672371 -0.01442286 -0.06191916 -0.03250324
0.11086005 0.007016425 0.14095142 0.14103568 0.06032872 0.07309814 0.024044147 0.026817292
0.14674604 -0.092306845 -0.0055709546 -0.11479148 0.112334445 -0.0046936087 0.07530534 0.06289492
0.15398943 -0.102756634 -0.04009781 -0.0088342605 0.08049149 0.049063522 -0.10976281 0.15000738
0.03981316 0.14546587 0.01390095 0.02754974 0.1687061 -0.026015678 -0.04205693 0.051420998
0.006737899 -0.050046336 0.056632858 -0.08584035 0.031305403 0.102148585 -0.07328828 -0.08326436
-0.029391265 0.00742322 -0.0148788 -0.12821627 -0.003928984 -0.11742983 0.0816514 0.025324894
-0.023914248 0.14027072 0.11253152 -0.042640906 -0.12532234 -0.07848866 0.12590934 0.040819567

lstm.weight_hh_l0 f4 [192, 48]
00000000: 1192 e13d 3238 a83d eb70 dcbd 4304 4f3d
00000010: ec78 283d a249 10be 891e 23be 3b5b 243c
00000020: 725d 3cbd 884a 603d 0266 5dbc a659 1f3d
00000030: dbc2 013e 309e 333d 415e 91bd 1e81 e13d
00000040: 73f2 23bd d0bf c63d 2910 31bd d46f 07be
00000050: 0dfc 913c 2074 023e 38fb 4b3d 8c5e 11bd
00000060: f56b 083c da22 483d 6b01 8fbd 7266 bf3b
00000070: 3e2a 2bbe 80af 0dbe bb27 08bd ab09 8bbd
00000080: 505c 1bbd 08c6 83bd 4ed4 aabd fde2 c9bc
00000090: 1fec 9a3d 0e5d c8bd 6c0d 23be 0ece 2cbc
000000a0: c31e 91bd c337 6abd 14bd 57be 8d28 1dbd
000000b0: 628f 473d 9ced b3bd 2efd 35bc f785 ba3d
000000c0: 4b4a cabd c0c1 02bd 0e5b aebd 515e b73d
000000d0: 58ec 94bd 1ae6 3cbb df78 f63d bae2 29be
000000e0: bd7e a93c 5e53 f2bc bc10 f13d 7ad1 04bd
000000f0: 5535 e63d f83d a9bd 4aae 9f3d 74de 39bd
00000100: b606 f03d 1247 e53d f823 e7ba 93ac 0bbe
00000110: 681e b13d d583 3c3e 0c64 243d d990 b1bd
00000120: f0a9 f43b 95f5 09be 1682 64bd a54d d5bd
00000130: ae0c 07be 2c48 8bbd 784b 5bbd 9342 9f3d
00000140: f278 04be 1a6b 96bd bf42 763d b35d 1abc
00000150: b72b a9bd 7f53 343c 7606 993d 8709 183e
00000160: 289f 3c3c 344e acbc 8940 713b a96d 86bd
00000170: b748 1c3d 8861 70bd a886 28be 0322 74bd
00000180: 1338 c0bc 2ec7 bcbd a343 bf3d 494a 56bd
00000190: 1eb9 f9bd 1cde 0dbe 1981 16bd b8ad ac3c
000001a0: a7bb 2c3d b3af 1c3b eccd 193e c437 383a
000001b0: 2438 723d 28c6 0c3d 0254 00bd 80f9 fbbd
000001c0: b2b5 593d a422 27be 9561 e2bd c440 27bd
000001d0: a7cf b9bd 90be 413d 0ee6 36bc d682 e7bd
000001e0: e761 94bd 0210 793c c7c2 17be 574e 47be
000001f0: 3ecf f2bd ff8e debd 28b1 ae3d f05a a13c
00000200: a52f 113e 3112 143e 063b 43bd 20dd 8bbd
00000210: 6d90 953d 2285 333d a33e e63c 905a e43d
00000220: f307 653b ab4a 223e 2874 8d3d 8ae2 2d3e
00000230: c547 c03b 2316 e0bc 8b9d f1bd 72f6 1abd
00000240: 6c60 433c 1aa1 2e3c 1738 4bbd 0470 143d
00000250: 8fbb 34be 490b 51be 4574 43bd a5f5 25be
00000260: b056 9ebc 2c82 2e3e cf5c 353d 615a 1dbe
00000270: fbad dd3d aa9d 093d e08a cd3c 98f9 57b9
00000280: eeaa 0e3d d418 11be d42b fe3d dc5e 71bd
00000290: ea1e 1c3d 76a1 2f3e 6772 98bd dd3b 04be
000002a0: 3e0f e3bd 624a 943a 4dda feba c643 093d
000002b0: 41aa a3bd ef7c 2abe eeb5 4e3d 7fb4 133e
000002c0: bead 943d 4f30 c23c d5fd 7eba 284c f43c
000002d0: 2f28 043d a981 1abe 43a4 7e3c cab4 053e
000002e0: 5b75 423e 4fb4 c2bd 2a60 983c 908f aebd
000002f0: c8e9 d7b9 5f7d 94bd 3d46 28be 486c 0b3e
00000300: 59c3 6b3e 042c aabd 59c0 323e 9e3f cabd
00000310: 3964 2cbe b670 12be 582b 1bbe 3390 f8bd
00000320: ad62 3a3d 0b6d c83d 46ae 593e cc6b d63c
00000330: 6788 3ebd 7943 a73d c507 503e 20cb 50be
00000340: baf3 f53d ddf3 87be 7e8e 3c3e ae15 193c
00000350: 579b 07be 0a9b 0abd 041a 2a3e 942b 23be
00000360: e0d9 e8bd 879f 773e e031 44be faa6 63be
00000370: d2cb 123d b4de 9dbd 86bf 503c 8ad1 b53d
00000380: 9901 133c 508a cabc 1823 263d c0e5 573e
00000390: 1027 f13b 5c33 d2bd 246e 223c b3c7 14bd
000003a0: f96c 063e 2705 9bbb db3c 10be 4f78 a13d
000003b0: d1bd 3f3d 26c6 4a3d f56b 72be 24e5 813c
000003c0: 4c20 e63c b87c 47be e3f0 bc3d 9bfe ffbc
000003d0: a62a 1cbc 1e8f 3abe 8816 e23c d388 ea3c
000003e0: c836 42be d2b5 db3d aed4 453e 2fc2 683d
000003f0: 7fea cf3d 986d a0bc 7de2 9bbd bb51 bcbd
0.11014188 0.082138434 -0.10763725 0.050541174 0.041130945 -0.14090589 -0.15929617 0.010031517
-0.045987554 0.05475858 -0.01351309 0.038903855 0.12671988 0.04385203 -0.07098056 0.11010955
-0.04002614 0.09704554 -0.043228302 -0.13226253 0.017820382 0.1273961 0.049800128 -0.035490558
0.00832652 0.048861362 -0.06982692 0.00584107 -0.16715333 -0.13836479 -0.033241015 -0.067889534
-0.037929833 -0.06434256 -0.08341275 -0.02464437 0.07564568 -0.09783374 -0.15923089 -0.010547174
-0.070859455 -0.057182085 -0.21068221 -0.03836875 0.048720725 -0.08785555 -0.011107726 0.09107583
-0.098774515 -0.031923056 -0.08513461 0.08953536 -0.072716415 -0.0028823675 0.12034773 -0.16590396
0.020690316 -0.029580768 0.1177077 -0.032426335 0.11240641 -0.08263773 0.07796915 -0.045378163
0.1172003 0.11195196 -0.0017634621 -0.1364005 0.08648378 0.18409665 0.040134475 -0.086702056
0.007466547 -0.13472588 -0.055788122 -0.104152 -0.1318843 -0.06800875 -0.05353877 0.0777637
-0.12936762 -0.07344647 0.060122248 -0.009421754 -0.08260291 0.011006235 0.074719355 0.14847384
0.011512555 -0.021033384 0.0036812148 -0.06563885 0.038155284 -0.058686763 -0.16457617 -0.05960275
-0.023464238 -0.09217678 0.093390726 -0.052316938 -0.121935114 -0.13854259 -0.03674421 0.02107893
0.042171147 0.0023908436 0.15019959 0.00070273527 0.05913557 0.034368664 -0.031330116 -0.12303448
0.053151794 -0.16321808 -0.110537685 -0.04083325 -0.0907281 0.047300875 -0.011163248 -0.11304252
-0.07245236 0.0152015705 -0.14820395 -0.19463478 -0.118559346 -0.10867118 0.085298836 0.019696683
0.14178331 0.14460064 -0.04766371 -0.068292856 0.07302938 0.043828137 0.02810604 0.11150086
0.0034947365 0.15848796 0.06906921 0.16980949 0.0058679306 -0.027354306 -0.11797627 -0.037832685
0.011924844 0.010658527 -0.04961404 0.03623964 -0.17649673 -0.20414461 -0.047718305 -0.16206987
-0.019328445 0.17041844 0.044277962 -0.15366508 0.108242 0.033597626 0.025090635 -0.00020596979
0.03483098 -0.14169627 0.12410703 -0.058928356 0.03811542 0.17151436 -0.074436955 -0.12913461
-0.110868916 0.0011313672 -0.0019443721 0.0335119 -0.07991458 -0.16649221 0.05046647 0.14424323
0.07259701 0.023704676 -0.0009727155 0.02982147 0.032264885 -0.15088524 0.015542093 0.13057247
0.1899008 -0.095070474 0.018600542 -0.08523476 -0.00041182176 -0.07250475 -0.16433044 0.13615525
0.23023738 -0.083091766 0.17456187 -0.09875415 -0.16835107 -0.14300808 -0.15153253 -0.12136879
0.04550426 0.09786423 0.21257886 0.026174448 -0.046516802 0.08167166 0.20315464 -0.20389986
0.12009378 -0.2655324 0.18413731 0.009343548 -0.13242851 -0.033839263 0.16611487 -0.15934592
-0.11369681 0.24181949 -0.19159651 -0.22231665 0.03583891 -0.07708493 0.012740975 0.08877857
0.008972549 -0.024724156 0.04056081 0.21083736 0.007359393 -0.10263702 0.009913955 -0.03632326
0.13127507 -0.004730839 -0.14085715 0.07884275 0.046811882 0.049505375 -0.23673995 0.015856333
0.028091572 -0.1948117 0.09225633 -0.031249335 -0.009531653 -0.18218657 0.027598634 0.028629696
-0.1896621 0.10728039 0.19319412 0.056825813 0.101521485 -0.019583508 -0.076115586 -0.09195276

lstm.bias_ih_l0 f4 [192]
00000000: 1f72 843d ca95 683d a6ee 8fbd 471d 8ebd
00000010: dab1 23bd aef9 59bd b4f5 b13d 7376 3a3d
00000020: 4aa3 973d 7e56 023e 0627 e43c 036e 02be
00000030: e224 83bd a72a 953d c77e 8dbd fbe5 0c3d
00000040: bac4 36bd 1c10 903d 1c9f f63d 9dcd d6bc
00000050: 3e00 163e a747 8d3d f845 033e 8fcc a13d
00000060: 6168 78bd e7a7 373d b169 033e c415 b43d
00000070: d3ca 00bc c95e a03c 1691 d5bd 8bbe 013e
00000080: a0a1 b6bd f504 443a 4b9f f03d eb22 81bd
00000090: 4882 e0bd f4d9 a33d 5963 8fbd c28c a43d
000000a0: bd94 a9bd 5bee 4f3e 0099 bf3d 508f a6bc
000000b0: 1e5e 733d 7861 293d 2f3b 623d dfb5 b8bd
000000c0: 8b7b 863c 3376 643d a902 833c 963d 033e
000000d0: c442 d1bc e9bc d0bd 1eb7 d13d d23c 0b3e
000000e0: 57d7 273c 6d05 053e 3094 01bd 0e4b cebd
000000f0: be90 093d 08bd 983c 8141 fdbc c668 cb3d
00000100: e8cc eb3d 2231 aabc b1b7 b6bd 70a6 cbbd
00000110: d4d6 443d 68b6 333e 90b8 f93c 4cdb 093e
00000120: 4f18 073d 9284 81bd 48ec 833d 9b4c 18bd
00000130: 0ddf f13d d338 ca3b 1e95 b23d 3f3b d8bd
00000140: d2a0 6cbc c50c dcbd 9a22 89bd 5352 ed3d
00000150: d0c0 9ebd 2e77 193e c718 ea3d 46c0 11bd
00000160: c8f3 193e 24f3 87bd 871e eb3d b4ed 183d
00000170: b840 c0bd f04e f4bd 7842 c33b 95db 943d
00000180: 9c97 ab3c 3afa 483d 44e1 c73d 469e 9abd
00000190: 934e f93d a2ac a53d 0b16 0fbd d339 47bd
000001a0: 0251 0f3e 672a 54bd 209b b0bd fdd2 05be
000001b0: a5cc c4bc 4c37 273c 062a 6abd a230 123e
000001c0: a1ed 273e ffb8 293e b5b0 8d3d d6d4 05be
000001d0: 9c1c 9938 17d4 54bd 6e81 c93d b6f6 05be
000001e0: a7f8 9e3d eda5 69bd bf77 87bd 0949 52bd
000001f0: 933d d6bd 49ba 95bd 4633 90bd 086e da3d
00000200: 45fb 6c3d dfcc 623d 39d4 18be bcb6 7f3d
00000210: f375 0fbc 78d5 89bc ff07 eabd 0c7b b43d
00000220: 03f0 303d 40ec c5bd 3e69 0f3e 669e 14bd
00000230: f853 45bd b887 eebd 90c3 dabd 9496 17bd
00000240: 54b6 393e 2fb1 f43d 9ed3 db3d f959 1d3e
00000250: 92e9 bebd 3f39 8ebb 3230 223d 353e 433d
00000260: d0bd f13c 5ecc e33d 8790 e7bd cf42 0abd
00000270: 681d cc3d 34d2 34bd d941 393e 737e 413e
00000280: 83db 2cbd 12ff 4a3e 2a9f 0e3b 23a0 b0bd
00000290: 3231 a73d f345 0c3e 4196 d33d 3372 693c
000002a0: 7aea 033d 2c24 433e fd04 fd3d 05c0 0ebd
000002b0: be65 d6bc e89f 903b 2c15 2b3d 3dc5 1c3e
000002c0: fd08 54bd e8ae ea3d 0f8b 393e 0552 1fbc
000002d0: 1908 ed3d 2cfc d73d 7974 293e d208 9bbd
000002e0: 5665 883c bcb2 5f3e 4fcc 713d fb19 963d
000002f0: 61c3 a0bc 1679 51bd fcc2 123e 7fe3 a63d
0.06467079 0.056783475 -0.070279405 -0.06939178 -0.039964534 -0.05321663 0.08689442 0.04552312
0.07404192 0.12728307 0.02785064 -0.12737279 -0.06403519 0.07283526 -0.069089465 0.034399014
-0.044621207 0.070343226 0.120420665 -0.02622109 0.1464853 0.06898432 0.1281966 0.079003446
-0.06064642 0.04483786 0.12833287 0.08793214 -0.007860857 0.019576447 -0.104280636 0.12670343
-0.08917546 0.00074775453 0.11749133 -0.06305488 -0.10962349 0.08000556 -0.07001371 0.0803466
-0.08280323 0.20305769 0.09355354 -0.020332009 0.05941593 0.04135272 0.055232223 -0.09019064
0.016416332 0.055776786 0.01599248 0.12816462 -0.025544532 -0.10192282 0.10240005 0.1359742
0.010244212 0.12990351 -0.031635463 -0.10072909 0.033585303 0.018644825 -0.030915024 0.09932093
0.11513692 -0.020775381 -0.08921755 -0.09943855 0.04805644 0.17550051 0.030483514 0.13462561
0.032982167 -0.06324114 0.064415514 -0.03718243 0.11810122 0.0061713248 0.08719848 -0.10558175
-0.014442639 -0.10744623 -0.06696053 0.11587968 -0.0775162 0.1498687 0.11430507 -0.035583757
0.15034401 -0.06638172 0.11480432 0.037336066 -0.09387344 -0.11929119 0.0059588514 0.072684444
0.020946316 0.04906676 0.09759763 -0.075497195 0.1217319 0.08089568 -0.03493313 -0.04863913
0.13995746 -0.05179825 -0.08623338 -0.13068767 -0.024023363 0.010206055 -0.057168983 0.14276364
0.16399242 0.16574477 0.0691847 -0.13069472 7.3009374e-05 -0.051960077 0.0983914 -0.13082394
0.077622704 -0.057043005 -0.06614637 -0.051339183 -0.10460963 -0.07310922 -0.0704103 0.10665518
0.057856817 0.05537116 -0.14924707 0.06243013 -0.008756149 -0.016825423 -0.114273064 0.08812532
0.043197643 -0.09664202 0.1400499 -0.036283873 -0.048175782 -0.1164698 -0.10681832 -0.037008837
0.18135959 0.119478576 0.10733722 0.15366353 -0.09321894 -0.0043403204 0.039596744 0.047666747
0.029509455 0.11122964 -0.11306863 -0.03375512 0.09966546 -0.044145778 0.18091525 0.18895893
-0.04220153 0.19823864 0.002176235 -0.08624294 0.0816368 0.13698559 0.10331393 0.014248419
0.032206036 0.19056767 0.12354467 -0.034851093 -0.026171561 0.0044135936 0.041768238 0.15309615
-0.051766384 0.11459142 0.18119453 -0.009724145 0.1157381 0.10546145 0.16548337 -0.07570042
0.016649883 0.21845526 0.059032734 0.07329174 -0.019624414 -0.051140867 0.14332193 0.0814886

lstm.bias_hh_l0 f4 [192]
00000000: 2263 b83d 925d bb3d 87f6 1d3d ccd4 57bd
00000010: 23de 253d ad4a 0f3e e0cb 943c 8b05 02bd
00000020: 3a7e 0c3e 891d e53d 645b 033d 8d40 c13d
00000030: 8965 bbbd d86d fe3d 84ee aabd daed 233d
00000040: 2253 a83d 03c4 433b 1130 3d3d e15e 73bd
00000050: da2c 893d f5ee e0bd 66de 023c 12bc 57bd
00000060: 3a3e 90bd 82b1 dc3d 8593 8cbc c5e9 35bd
00000070: dd4a 993d 1189 75bd d5de f3bd c02e ab3d
00000080: bcef e63d 2249 7a3d eb2b 273e ff4d 193e
00000090: 5e33 d2bd 975f 2cbd c755 cf3d 8b7a 633c
000000a0: 2fd0 5ebb 94d5 223e 8317 2e3e 439b 4a3a
000000b0: 4b24 283e e459 9f3d 2b71 d3bd e755 033e
000000c0: 5462 fb3d 8bc2 bbbd 6df6 ccbd f2e8 113b
000000d0: 5071 203d a935 f1bd 882f e73d 7938 c43d
000000e0: bdee b83a e224 d3bd 49b1 5dbc 9d85 913d
000000f0: c6d3 023d 4b41 ec3d aceb a13d b71a 9cbd
00000100: 51c7 2fbd 391c e4ba 1eba 063e 5cc6 c7bd
00000110: 65bc f2bd ce48 2b3e b045 dfbc 3c31 9d3d
00000120: 1f88 06bd 948c 15bd 5a61 0a3e 9b48 323c
00000130: eb10 cfbd 4eed 873d aa6e 0b3b 4d1b d9bd
00000140: 9a35 8fbd 6b44 983d 9003 96bd dd52 7fbd
00000150: 6500 eabc b179 6b3d beca 43bd d0df 31bd
00000160: f660 903d b18a 8a3d 4d0a b7bd 68d0 403d
00000170: 81cb e9bd b770 c73d 010e cfbd 689b 21bc
00000180: ecff 6c3d 1600 ddba 8daf c5bc 2826 06be
00000190: d009 db3b 1121 723d 8073 b33c 14c9 553d
000001a0: a4b2 123c 8d64 1abe 41bf a93c 0a0e e9bd
000001b0: d074 cfbc b41d 75bd 9576 1a3d f061 d53d
000001c0: ee11 a33d c4cf 013e 7cc1 ad3d bb0a 933d
000001d0: d72e d7bd 5322 0abd 4ec0 bc3d d550 afbd
000001e0: 5ca0 9f3d f85e 2bbe 68b9 883d 46a7 cc3d
000001f0: 1bc2 d6bd 114f c03d b5c5 62bd 84d1 06be
00000200: af93 e538 56b2 d1bd 364d bb3d a829 d4bb
00000210: 04cc 8e3d 3cc8 0c3e d329 143e 5a4f 543d
00000220: 3972 10be 10a3 563c 5671 42bd 4ab2 adbc
00000230: ef18 7fbc c42a 36be 9e94 d13d 7ba1 6e3d
00000240: 2efc e63b 3523 d5bc 0759 0f3e cbe4 2b3e
00000250: 90e7 19bd d871 e5bc c1db d8bc 725e e43c
00000260: 4527 193e 4ace 053d b87b d5bc b260 043e
00000270: ea85 6c3d 150c 92bd 84a1 e33d 44c1 b6bc
00000280: fed9 c43b 270d 363e ffdd 89bd 4038 80bc
00000290: a9e6 0a3a 3a76 0b3e 6259 1d3e 33b1 a83c
000002a0: 57b9 d1bd a298 493e 1290 bc3d eab0 cb3d
000002b0: b25e e63c 6a1b 47bd 5298 c4bd ee21 093e
000002c0: 4edb b6bd b5ca bbbd 6f52 1f3d 8585 033e
000002d0: 95e3 a7bd b432 95bd 28af 053e e86d 5dbc
000002e0: 6e6d fe3d 45c3 373e 6a86 d43d d7c3 1f3e
000002f0: 294c 043e 2678 c0bd 9020 073e 1e42 43bd
0.09003283 0.091487065 0.038565185 -0.052693173 0.04049505 0.1399333 0.018163621 -0.031743567
0.13720027 0.11187274 0.03206958 0.0943614 -0.09150226 0.12423295 -0.083462745 0.040021755
0.08218981 0.002987147 0.046188418 -0.059416655 0.06698008 -0.109830774 0.007987594 -0.052669592
-0.07043119 0.107760444 -0.017160187 -0.044412393 0.07484982 -0.05994517 -0.11907736 0.08358526
0.112761945 0.0611049 0.16325347 0.1497116 -0.10263704 -0.04208335 0.101237826 0.013884197
-0.0033998599 0.15901786 0.17001157 0.0007728824 0.16420095 0.07780817 -0.103243195 0.12825738
0.12274614 -0.091679655 -0.100079395 0.002226409 0.039170563 -0.11777813 0.11288363 0.09581084
0.0014109235 -0.10309769 -0.013531038 0.07105563 0.031940244 0.11535891 0.07906279 -0.07622283
-0.042914692 -0.001740343 0.13156936 -0.09754631 -0.1185234 0.16726992 -0.02725491 0.07675406
-0.03284466 -0.03651102 0.13513699 0.010881568 -0.10110649 0.06637059 0.0021275678 -0.1060091
-0.069926456 0.07434925 -0.07324898 -0.062334884 -0.028564641 0.0574891 -0.047800772 -0.043426335
0.07049744 0.067647345 -0.089375116 0.04707375 -0.114157684 0.097382955 -0.10110093 -0.009863712
0.057861254 -0.0016860988 -0.02413156 -0.13100493 0.0066845194 0.059113566 0.02190566 0.052193716
0.008953724 -0.1507742 0.02072108 -0.11379631 -0.025324255 -0.05984278 0.037710745 0.10419071
0.07962404 0.12676913 0.0848417 0.07179781 -0.10506981 -0.03372414 0.09216367 -0.08560339
0.07794258 -0.16735446 0.066759884 0.099928424 -0.104862414 0.09390081 -0.05536433 -0.13165861
0.00010947079 -0.10239093 0.09145586 -0.0064746924 0.06972507 0.13748258 0.1446908 0.051833488
-0.14106072 0.013100401 -0.047471367 -0.021203179 -0.0155699095 -0.17789751 0.102334246 0.05825947
0.007049105 -0.026017765 0.13998805 0.16786496 -0.03757435 -0.028008386 -0.026471974 0.027877066
0.14956386 0.032667436 -0.02605997 0.12927511 0.057744898 -0.07131211 0.11114791 -0.022308953
0.006007432 0.17778455 -0.067317955 -0.015651822 0.0005298653 0.13619319 0.15366128 0.020592308
-0.10240429 0.19687131 0.09207167 0.09945853 0.028121326 -0.04861013 -0.09599365 0.1339185
-0.08928548 -0.09169523 0.038896974 0.12843902 -0.08197705 -0.072850615 0.13055098 -0.013514973
0.12423216 0.17945583 0.103772 0.1560205 0.12919678 -0.093979165 0.13196015 -0.047670476

mlp.0.weight f4 [256, 54]
00000000: 3349 47bd 80eb c8bd ca2b d43d 9b6f 43bc
00000010: d094 8fbc 63ad 773d 73aa 253c 5fcc 6cbd
00000020: 2ade 02be 514c 53bd 7ff9 ddbc 3950 033e
00000030: 146e 62bd f98b cf3d e12f eabd 44f1 16bd
00000040: 35c8 5c3d 0283 debc b1c4 8bbd 474c 0ebd
00000050: 0ac2 f1bd c3f4 fc3d d982 c03d ad47 013e
00000060: 2e73 05be d271 423d f5dc d13c 7db9 053d
00000070: 6754 fbbd 7b0a 123e 0ab1 bd3d e15c e5bd
00000080: a7a7 e13c 4a69 b23d b6c3 e9bb b736 e23d
00000090: 489c ccbd 5583 0f3d 1f46 a53d 32eb d83d
000000a0: 79fc 023e b5b2 a63d 69b2 bdbd 9b1f 983d
000000b0: 64c6 2ebd 2c24 a1bd 9949 183d 13b4 1fbd
000000c0: 8aa3 01bd c355 ccbc 0468 ce3c ef39 41bd
000000d0: 5592 cb3d 6229 f93b 41ac 853d 1bc0 a5bd
000000e0: 6b84 7abd 1d56 8e3d cc67 8e3d 49e0 3e3d
000000f0: d4d4 90bc 44ae 14be 4863 96bc b1f4 8a3d
00000100: 6592 29be edef 893d d80f 9f3d b448 35bd
00000110: 431b f7bd 27ec aa3d cfcc a23d 23cf d1bd
00000120: 5fa5 24bc 0a28 093e 36e0 303e 3313 8d3d
00000130: bc6d 903c bf10 853c a7aa da3d 846e 883d
00000140: 9f64 babd 7fb3 d53d 742a 3d3e db5a 93bd
00000150: 5a65 afbd 496b fc3d 428b 14bb 027b 00be
00000160: 068f b4bc 6082 25be f17a f53d efa7 e03d
00000170: b56a 82bd 795c 09bd 04c2 a43d 9316 2f3d
00000180: 2b8d 41bd bbcd b53d 92b5 ebbd b0a2 333e
00000190: 229c 923d e0be 4dbe 7fa5 2ebe 2404 793d
000001a0: 5540 163e e47b 2ebe 53d2 18be be41 c2bd
000001b0: c3ba d2bd a1af 06be 6ef6 ad3d 894b c8bd
000001c0: 12cb c23d e990 bb3d ffab f93d f84e f1bc
000001d0: 73b4 76bd 5300 8f3a 07eb bcbd 07da 04bd
000001e0: bd53 afbd d899 ca3b 2d87 ecbd da1b 623d
000001f0: 1d4c f23d 5039 1bbd 6e86 b03d d485 e1bd
00000200: dff6 9a3d 6196 f6bd a4cb d2bd 4452 0bba
00000210: 2284 e63d 2d7e fe3d ac98 cabd 7f41 d93c
00000220: c564 b03d afd9 bf3d 717d b63d f66f 123e
00000230: a5a8 09bd b61b 8abd d27f e2bd f811 773d
00000240: e8fe bd3d 6a48 89bd fdd4 a63c eb5a 5abc
00000250: 093c 353d 22f4 563d 38bd 20bd 5bd7 08be
00000260: 2678 973c f15f 1cbd 6b22 8dbd 692b 49bc
00000270: 2b70 00bb 6ccb e13d e2a0 413c 161d 1cbe
00000280: bc6e e23d 9d4e b3bd 5746 363b 2628 313c
00000290: 1b65 87bd a82f 53bd a2da 9cbd 03ca c5bd
000002a0: 9c3d a23d b2d1 1abe 4cd7 103e 0c93 5b3d
000002b0: 8c67 12be e210 dfbc 87c2 c2bd d200 39be
000002c0: f103 94bd bd4d 8bbd 8ba7 2c3e 2d92 85bd
000002d0: 2b16 8d3c d9a9 1d3e aae9 94bd 3461 c23c
000002e0: 449c 083b c0a8 a43b 034d 423d a702 cd3d
000002f0: 04c7 37be d827 313e d9f3 983c bd69 25bd
00000300: a181 e0bd 4cfa b4bd eeb3 cebd b1bc e6bd
00000310: 1f04 62bd 478c 0fbe 83d0 103d e7ee 9d3d
00000320: 64b9 ea3d 3100 5d3d 2cc9 233e ff46 adbc
00000330: 992d 173d b72f 0abe d5e7 4e3b 5950 cd3d
00000340: de6b bc3d 8552 32be 49d5 e2bd 5a29 2d3e
00000350: d510 eb3d b4d3 b53d 6df1 d4bd 7bf4 4b3c
00000360: 6c72 f83c 342d 8a3b dfc7 f2bd ddd5 de3d
00000370: bded 1cbd 0850 273d 5e5d 9ebc 9baf c9bd
00000380: 0930 7dbd c442 a73b 49b7 243d 89be 4cbd
00000390: 8fb0 49bc 599f a4bd 6b75 b9bd 576a b93d
000003a0: 08da a3bd 142d b93d 5d41 143e 43c9 a63b
000003b0: 6d2f b03c 00c8 6c3d 5b5e 633c 9ae9 333a
000003c0: e826 ff3c 145d 1d3e 213e 16be b9e3 273e
000003d0: de91 24bd f0fb 9b3d b4cb 1bbe a8c8 75bd
000003e0: f285 2bbe f437 6a3d 5b97 acbd bb51 04be
000003f0: 6624 4d3c 08c7 023e 3d35 b6bd b2e7 083e
-0.048653793 -0.09810543 0.103599146 -0.011928464 -0.017527014 0.06046809 0.010111439 -0.05781209
-0.12780061 -0.051586453 -0.027096508 0.12823571 -0.05528076 0.101341195 -0.114349134 -0.036851183
0.05390187 -0.027162079 -0.06824625 -0.034740712 -0.11804588 0.12351372 0.09399957 0.12624998
-0.13032219 0.04747183 0.025618056 0.0326476 -0.12271958 0.1426181 0.09262283 -0.11199356
0.027545763 0.087114885 -0.0071339263 0.11045592 -0.09990746 0.035037357 0.08070015 0.10591735
0.12791623 0.081395544 -0.09262545 0.07427903 -0.04266967 -0.07868227 0.037179563 -0.03899009
-0.031650104 -0.024943238 0.025196083 -0.04717439 0.0994002 0.00760381 0.065269955 -0.08093282
-0.06116144 0.069500186 0.069533914 0.046600614 -0.01767961 -0.14519602 -0.018357888 0.067849524
-0.16559751 0.06735215 0.07766694 -0.04425879 -0.12065747 0.08345824 0.079492204 -0.10244586
-0.010049193 0.1339418 0.1727303 0.068884276 0.01763045 0.016243337 0.106770806 0.06661704
-0.09101223 0.10434627 0.18473226 -0.07195064 -0.08564253 0.123251505 -0.0022666012 -0.12546924
-0.022040855 -0.16163015 0.1198634 0.10969531 -0.06368009 -0.033535454 0.08044818 0.042746138
-0.04725377 0.088771306 -0.11509241 0.17542529 0.07158686 -0.20092344 -0.17055319 0.060794964
0.14672978 -0.17039448 -0.14923982 -0.094851956 -0.10289528 -0.13152935 0.08494268 -0.09780032
0.09511389 0.09158499 0.12191009 -0.0294566 -0.060230684 0.0010910131 -0.092245154 -0.03243449
-0.08560894 0.0061828904 -0.1154922 0.055202343 0.11830924 -0.037896454 0.086193904 -0.11011854
0.07566618 -0.12040401 -0.102927476 -0.0005314688 0.11255671 0.1242641 -0.09892401 0.026520489
0.0861297 0.09367692 0.08910645 0.14300522 -0.033608098 -0.06743567 -0.11059536 0.06031987
0.09277135 -0.06703265 0.020365233 -0.013327341 0.044246707 0.052478917 -0.039242953 -0.13363402
0.018489908 -0.038177434 -0.0689133 -0.012278416 -0.0019598107 0.11025128 0.011818143 -0.1524547
0.11056277 -0.08755229 0.0027812922 0.010812795 -0.06611081 -0.05155912 -0.076588884 -0.09657671
0.07921907 -0.15119055 0.14144629 0.05360703 -0.14297312 -0.02722973 -0.095097594 -0.18066719
-0.07227314 -0.06801937 0.16860788 -0.065220214 0.017222485 0.15396823 -0.072711304 0.02372799
0.0020845095 0.0050249994 0.047436725 0.100102715 -0.17947012 0.17300355 0.018670963 -0.040384043
-0.10962225 -0.08836803 -0.100929126 -0.11266459 -0.05517971 -0.14018355 0.035355102 0.07711583
0.11461142 0.05395526 0.1599471 -0.021152018 0.03690872 -0.13494764 0.0031571288 0.10025091
0.092002615 -0.17414291 -0.11075837 0.16910306 0.1147782 0.0887827 -0.10397611 0.012448425
0.030327998 0.0042168144 -0.11854529 0.10880635 -0.038312662 0.040847808 -0.01933163 -0.09847947
-0.061813388 0.0051043946 0.040213857 -0.049986396 -0.012310161 -0.08038206 -0.09055599 0.09053486
-0.080005705 0.09041801 0.14478059 0.0050899102 0.02150699 0.057807922 0.013877477 0.00068631175
0.031146482 0.15367538 -0.14672138 0.16395463 -0.040178172 0.07616413 -0.15214425 -0.060005814
-0.16750315 0.057182267 -0.08427306 -0.12921803 0.012520885 0.12771237 -0.08896873 0.13369635

mlp.0.bias f4 [256]
00000000: d5ee d63c f5f8 a2bd 4e28 b43d b9ac 093e
00000010: f288 c43d ace0 d2bd 12e5 bebd a9e8 263b
00000020: a5c0 853d adbb f5bd 5d4b c3bd dc73 eabd
00000030: fa4f d03d 5b42 0e3e c09c e1ba 5c2c fcbc
00000040: cf33 2e3c 083e 00be 05b0 783d de97 293d
00000050: a88c d9bc 73ce 4a3b c965 16bd 523d 76bd
00000060: 43ee cabd a720 ff3d 155b 123d 5223 10bc
00000070: b54e 8b3d 516e 5b3d 08cf ad3d c5fd f83d
00000080: f017 0cbe c641 99bd ee43 cf3c 6220 68bd
00000090: 99c7 4ebd 5c15 f33d e923 793d 0b52 263d
000000a0: c641 c43c 4dba c3bc 04dd 903d 0d44 9a3c
000000b0: 0b77 9e3c 8145 b43c 211d 543c ab67 4a3d
000000c0: ddd3 213e bea5 82bd 9584 94bd fd9c 033e
000000d0: b9b5 81bd d260 efbd f3a7 adbc e886 63bd
000000e0: 7a4e 4d3b f6ba b6bc 030b 6e3c fa66 0b3e
000000f0: 76ff babd 8732 7dbd f0d0 0bbd 498c efbd
00000100: 3fbe 3d3c 8e08 cbbd b5e8 08bd a615 f63c
00000110: c494 c3bd 14fa efbd 6cbd f73c d970 883d
00000120: b3fa f4bd 2892 20bd 4fa7 383d 3e8c 2bbc
00000130: d66d babd e1fc 0d3d 6592 7dbc 6f22 b6bd
00000140: b7e1 01be 2f78 fc3d 6113 b2bd 9b55 c3bd
00000150: 6f18 d1bd 02f0 c63c 0c95 08bd 83f1 033e
00000160: 9f3f ac3c d830 b83d 8245 763d d46a 09be
00000170: f079 bcbd e1b3 353c 89cb 803d 0a2c 1a3e
00000180: 7de4 873d 0367 cd3d 6eb8 2e3d 22c2 933d
00000190: 2d0d 023e 8e3c 1cbd f775 283d c217 83bc
000001a0: 7a46 1d3d bd7e 8abd acea 9fbd b217 ce3c
000001b0: 39bf aebd 1398 9a3d 10c4 49bc 99ea e83d
000001c0: d729 bfbd 82c3 923d 4729 f23d adf4 33bc
000001d0: 38b0 b3bd c7df 363c ce6d 3dbd 8cc4 8dbc
000001e0: 3287 113d 71ef 513d 2b14 fc3d f65a 3cbd
000001f0: c5f0 3d3d 7d6a 593d 3278 05be 3447 f3bd
00000200: 546c 373d a999 febd 3068 013e dd58 023e
00000210: fc54 8c3d 551e 9b3d e05c dfbd 9794 523d
00000220: 77f7 993d d561 073d a13d a23d 5d39 4c3d
00000230: c4d7 f83d 1c60 d4bc 90ee df3d e580 2dbd
00000240: 65b0 9abd 5444 86bd 1c19 08be ba5e b5bd
00000250: b710 f43d fa08 44bd 43df 4a3d a9d0 173e
00000260: dbd5 983d 6bfa 99bd b0c8 d9bd 0163 1a3e
00000270: 7bfe c0bb e5e1 62bd a7e1 50bd 4407 d7bc
00000280: 97b0 893d edaf f3bd 2cc7 dabc fcd9 87bd
00000290: aa3a 5ebd abae 973d 9363 453d 4f96 80bd
000002a0: cfd5 8b3d bb4b e8bd c562 363d e1da 7ebc
000002b0: b1f5 e4bd 3188 49bd ede7 9dbd 0e6f 003e
000002c0: 26f1 143e c50c f2bd f81a 233e 98bb f43d
000002d0: 48b5 edbd 5112 03be bb55 0f3e b3a8 343d
000002e0: 0874 c9bd 089e 023e 50b7 cdbd bb6d 43bd
000002f0: 360c 543d 08df b9bd 6c0f a5bd e701 e03d
00000300: 138d fa3d 0592 673d 6e4a fdbd 582b b3bb
00000310: 94bc 543d becb 3cbc e395 c0bd 97f2 0b3d
00000320: ce75 64ba 8f03 c5bd 2a42 a53d a65b edbd
00000330: a635 b3bd 64c0 b4bb 8dd5 63bd 99ca 463d
00000340: 5ac2 bbbd d998 c93d 4968 703d e2a7 ba3d
00000350: 0cb3 f8bb 993e acbd 66fa edbc 1da9 a0bc
00000360: e610 dc3d 2d80 9b3d 8c74 593d 9ccd 353d
00000370: a8f2 9ebd 7cbd ec3d 0686 913c a285 9dbd
00000380: bed1 053d a7b8 a2bd ca2e 0a3e fa11 b5bd
00000390: 7f48 acbc d69d 8cbd c053 bc3d b153 c9bc
000003a0: ad79 39bc 3a85 edbd c3fb 05bc 4260 033d
000003b0: 26f6 9fbd 6ee3 a7bc 082f 8d3d e4c8 1bbc
000003c0: 4376 08bb 3b13 19bd fa33 b7bd f424 13bc
000003d0: 573e f53d 56ca 8dbd 2f9e f9bd 7714 fabd
000003e0: c808 0fba 009c 453c 3bda 7bbd 2870 d8bc
000003f0: 39c5 12bd 4adc 833d c3e9 b73c 6a4c b5bd
0.02623693 -0.07957641 0.0879675 0.13444795 0.09596433 -0.10296759 -0.093210354 0.0025468266
0.06530885 -0.11998687 -0.09535859 -0.1144788 0.10171504 0.138925 -0.0017212853 -0.030782871
0.010632469 -0.12523663 0.06071474 0.041404597 -0.026556328 0.0030945807 -0.036718164 -0.060117073
-0.09908726 0.124574 0.035731394 -0.0087974835 0.068021215 0.053572003 0.08486754 0.12157778
-0.13681006 -0.074832484 0.025300946 -0.056671508 -0.05048332 0.11869308 0.060825262 0.040605586
0.023957144 -0.023892546 0.070734054 0.018831277 0.019343873 0.022005798 0.012946398 0.04941527
0.15803476 -0.06379269 -0.072518505 0.12852855 -0.06333489 -0.11688389 -0.021198248 -0.05554858
0.0031327293 -0.022305947 0.014528993 0.13613501 -0.091307566 -0.061815765 -0.034134805 -0.11696679
0.011581003 -0.09913741 -0.03342505 0.03003962 -0.09549859 -0.117176205 0.03024169 0.06662149
-0.119618796 -0.039201885 0.045081433 -0.010470448 -0.09102981 0.034664992 -0.015476798 -0.088932864
-0.1268376 0.12327611 -0.086951025 -0.09537812 -0.102097385 0.024284367 -0.033345267 0.12885098
0.02102643 0.08993691 0.06012488 -0.13419658 -0.09202945 0.01109025 0.06288821 0.15055862
0.066353776 0.100294136 0.042656355 0.07214762 0.12700339 -0.038143687 0.041128125 -0.01600254
0.03839729 -0.06762455 -0.07808432 0.025157783 -0.085325666 0.07548537 -0.012314811 0.11372871
-0.09334152 0.071661964 0.11824279 -0.010983628 -0.087738454 0.011161751 -0.046247296 -0.017305635
0.035529323 0.05125374 0.12308534 -0.045985185 0.046372194 0.05308007 -0.13034132 -0.11878815
0.044781044 -0.12431652 0.126374 0.12729211 0.06852147 0.07574145 -0.109063864 0.051411238
0.07517903 0.033052284 0.07921911 0.049859393 0.12150529 -0.025924735 0.10934174 -0.04235925
-0.07553176 -0.06556001 -0.13290828 -0.08855958 0.119172506 -0.047860123 0.049529325 0.14825691
0.07462665 -0.075184666 -0.10633981 0.1507683 -0.0058897114 -0.05539121 -0.05099645 -0.026248582
0.06723135 -0.118987896 -0.0267063 -0.06633374 -0.054255165 0.07406362 0.048190664 -0.06278669
0.0682789 -0.113425694 0.044527788 -0.0155551145 -0.111796744 -0.049202148 -0.07710252 0.12542364
0.14545116 -0.11818842 0.15928257 0.11949843 -0.11606842 -0.12799956 0.13997547 0.044106197
-0.09836584 0.12755597 -0.1004473 -0.04771207 0.051769458 -0.09075743 -0.08059582 0.10937863
0.12233939 0.05653574 -0.12367712 -0.0054678135 0.051937655 -0.011523185 -0.094035886 0.0341669
-0.0008715064 -0.096198194 0.080692604 -0.11589746 -0.08750467 -0.005516099 -0.05562358 0.048533056
-0.09167929 0.098436065 0.058693204 0.09114052 -0.0075897034 -0.08410377 -0.029050063 -0.01961189
0.107454106 0.07592807 0.053089663 0.044385538 -0.07761127 0.11559579 0.017764103 -0.07691504
0.03267073 -0.07945376 0.13494411 -0.088413194 -0.021030663 -0.06866042 0.091956615 -0.02457604
-0.011320514 -0.115976766 -0.0081777 0.03207422 -0.07810621 -0.02049419 0.06893736 -0.009508345
-0.0020822443 -0.037371855 -0.089454606 -0.008980978 0.11974781 -0.06923358 -0.12188374 -0.122109346
-0.00054563256 0.012061119 -0.061487418 -0.026420668 -0.035832617 0.06438501 0.022450333 -0.088524655

mlp.2.weight f4 [128, 256]
00000000: e51a 453c 3e3a f23c 8491 7b3d bd37 0ebd
00000010: 4953 0dbd 78dc 03bc dea8 14bd 4eff 373d
00000020: 8232 3fbd f30b 18bd dd12 3abd 04e0 08bd
00000030: 9fb2 793c fa2f 833d 3114 ab3c d541 47ba
00000040: d9e6 69bb 44e7 ce3c eef0 54bc 834d b03d
00000050: b83a 67bd 3500 e6bb 7974 a23b 3d40 463d
00000060: 3cbf 07bd cd2b e5bb ce1e 4fbd b6ff 183d
00000070: d87a 30bc 3969 eb3c 2f70 303d 5d28 02bd
00000080: b83d 523d 6325 46bd a284 7fbd bc3f 033d
00000090: a854 543c 0ac8 41bc d049 073d eceb d83b
000000a0: a87c 503c 0997 42bb adee 723d 6f84 3dbd
000000b0: 2ae4 50bd 552b b43b de66 7c3d d591 3a3c
000000c0: 119b 283d 3c15 72bd 9442 29bd 78bf 86bd
000000d0: 48bc 2abc 4db8 1e3d 724d 9a3c 57b5 493d
000000e0: 4e35 6abd 06fb 2c3d 6dc5 76bd 5340 2d3d
000000f0: 8abd 1b3d 9147 a03a 56df 523d 3467 a3bc
00000100: 810e 77bd 0569 d9bb b57e c43b 76a3 c1ba
00000110: 0d5c f23c 6069 0abd 331c d0bc e0f7 553c
00000120: 2102 cebc 6d5b 22bd 644f d93c 44c2 17bd
00000130: f87d 4b3c 22d8 af3b a0f4 91bc 9d13 493d
00000140: e905 923d 7902 c53c ad37 823d e29e dbbc
00000150: 8144 45bd 398c 2fbd 6b30 23bd 5a57 fcbc
00000160: def1 b1bc 70a7 483c 3373 8e3d f02e 2a3d
00000170: 95d9 803c 8f23 40bd 3be0 e03c 3bf9 d1bc
00000180: c489 8e3c 950e 443d f6ed f3bc 6045 b93c
00000190: aeee 943b 2540 e0bb 6078 25bd 04f7 f3bc
000001a0: 20e4 123d d70e 993d 8cb9 103d a51e 243d
000001b0: ac6c 233d a50c bdbc 7556 73bb aca3 463d
000001c0: 66f3 76bd 2b39 90bc 3889 883c 171a b93c
000001d0: 4155 403b 54b8 adbc dd62 823d 8cf0 44bd
000001e0: 1c29 8dbc af25 33bc 09f9 993b 0c01 e73b
000001f0: 173e 3fbd 8210 213d 9792 2fbd 8d8d eabc
00000200: 5499 17bd 1bbf 32bc 032b 3e3d 1ba2 6c3c
00000210: 0f3a 163d 66ea 8f3d 47a4 c0ba f1c7 b83c
00000220: e535 453d a182 47bd e85c edbc c790 993d
00000230: 8193 13bc f1fc b1bc 0852 cc3c 37df 9d3c
00000240: 3c74 11bd 9278 6abd cd9e 22bd 7e1a 3cbd
00000250: 042b 28bd 2bd3 953b f893 df3a 26ce 3b3c
00000260: 1649 f73c dd4b 7ebd d177 913c 4a18 2fbd
00000270: cc37 7c3d 87b7 4dbd 9323 82bd 3927 1ebd
00000280: 77a1 dbbc 9060 713d 619e 0abd ffad 0bbd
00000290: 9aef 2d3c cc19 1abd 709d 9dbc 2bbb 8abd
000002a0: 6ff9 243d da13 87bd 181a ce3c 382b babc
000002b0: 1804 34bc 54a0 4f3d 49e4 0ebb 0386 63bd
000002c0: fed9 65bd 71fd 3dbb a6e6 c63c caa6 013d
000002d0: f0fe e13b 80d5 e9b9 0891 e0bc 8c81 f03b
000002e0: da98 42bd 6d2a 223d 579c 853d d684 0b3b
000002f0: b4c5 12bd 805f f9bc 56f2 ccbc 23b1 26bd
00000300: 3282 673d 5ef7 0b3c 52ca 48bc 087f 0d3c
00000310: bdff bfbc 1e4d a7bc a049 fabb 447c f33c
00000320: 1e80 423d 5eb8 a63d abbf 8a3d dd13 dc3c
00000330: 0db9 11bd 5da1 51bd 99d5 2cbc 7736 42bd
00000340: 8ee6 55bd 139e 4d3d b101 693d 8808 193a
00000350: dd7d 003d b80a 11bd 6522 26bd 109c e63c
00000360: b1cf 003d a082 253c 5f9b ccbc a9b3 473d
00000370: 84fb 43bd 97db 6f3d 4be3 223d 5c55 42bd
00000380: b592 aebb ad6a 083d 3555 443c b14b 4f3d
00000390: f55e 2e3c 0db0 123d a5f9 2a3c f31e 31bd
000003a0: a629 cbbb b5b1 bbbc 4e4a 943c 5525 9d3d
000003b0: 97b6 7a3d 2c78 663d ae39 5c3d 8f90 bb3b
000003c0: 6cfe 80bc a6f1 153d 5d40 953b 2d9d f3bc
000003d0: 4ec6 81bd 2d32 c93c 029b 3c3c b9e2 f1bb
000003e0: c092 a6bb 36d5 d3bc 4d49 2e3d 1e76 c53c
000003f0: aa20 2abd c8b2 b8bc 6db7 48bc 3cee 143d
0.012030338 0.029568788 0.06141807 -0.034721125 -0.034503255 -0.008048169 -0.036293857 0.044921212
-0.046679027 -0.03712077 -0.045428146 -0.033416763 0.0152403405 0.06405635 0.020883651 -0.00076010573
-0.0035690574 0.02525676 -0.012996895 0.08608534 -0.056452483 -0.0070190676 0.0049577323 0.048401106
-0.03314136 -0.006993747 -0.050566487 0.03735324 -0.010771476 0.028736698 0.043075737 -0.031776775
0.05132839 -0.0483755 -0.062382348 0.032043204 0.012959637 -0.011827478 0.033029377 0.006619921
0.012725033 -0.0029692075 0.05930965 -0.046268877 -0.050998844 0.0054983296 0.06162154 0.011387308
0.041163508 -0.059102282 -0.04132326 -0.065794885 -0.010420866 0.03874998 0.018835757 0.049245205
-0.05717974 0.042231582 -0.060246874 0.042297672 0.038022555 0.001222836 0.05148252 -0.019946672
-0.060316566 -0.0066348338 0.00599655 -0.0014773447 0.029584909 -0.0337919 -0.025404071 0.013059586
-0.0251475 -0.03963797 0.026527114 -0.0370505 0.01242017 0.005366341 -0.017816842 0.04909097
0.071300335 0.02404903 0.063582756 -0.02680916 -0.048161034 -0.042858336 -0.039841097 -0.030803371
-0.021721777 0.012246951 0.06955566 0.04154867 0.015728751 -0.04690891 0.027450671 -0.025631538
0.017399676 0.04786547 -0.029776555 0.022616088 0.0045450544 -0.006843584 -0.040398 -0.029780872
0.03586209 0.074735336 0.0353332 0.040068287 0.03989856 -0.023077318 -0.003713039 0.048495933
-0.060290717 -0.017605385 0.016666993 0.022595448 0.002934769 -0.021206059 0.06366513 -0.048080966
-0.017231517 -0.010934277 0.0046988768 0.0070496853 -0.046690073 0.039322384 -0.04286441 -0.02863195
-0.03701146 -0.010909821 0.046427738 0.014442946 0.036676463 0.0702713 -0.0014697396 0.022556277
0.0481471 -0.04870856 -0.028974965 0.07498317 -0.009007336 -0.021727057 0.02494146 0.019271476
-0.03551124 -0.05724389 -0.039702225 -0.045923702 -0.041056648 0.0045722923 0.0017057648 0.011462724
0.030186217 -0.062084068 0.017757328 -0.042747773 0.06157665 -0.050223853 -0.063544415 -0.038611624
-0.02681039 0.05892998 -0.03384245 -0.034101482 0.0106162075 -0.037622258 -0.019240111 -0.06773981
0.04027694 -0.06595583 0.025158927 -0.022725686 -0.010987304 0.05069001 -0.002180355 -0.055547725
-0.056116097 -0.0028990174 0.024279904 0.031653203 0.006896846 -0.00044600293 -0.027412906 0.007339662
-0.04750905 0.03959124 0.0652396 0.0021288893 -0.035833076 -0.030441046 -0.025017899 -0.040696274
0.05652065 0.008542864 -0.012255268 0.008636244 -0.023437375 -0.020422515 -0.0076381713 0.02972234
0.047485463 0.08140634 0.06774839 0.02686494 -0.03557687 -0.05117928 -0.0105489725 -0.047415223
-0.052221827 0.05019958 0.05688638 0.0005837758 0.031370033 -0.035410613 -0.040560145 0.028150588
0.03144807 0.010101944 -0.02497643 0.04875532 -0.047847286 0.058559027 0.039767545 -0.047444686
-0.0053275474 0.03330486 0.011983206 0.050609294 0.010642757 0.035812426 0.010435496 -0.043242406
-0.0062000332 -0.022911886 0.018101837 0.07673136 0.061209287 0.05626695 0.053765945 0.00572402
-0.015746318 0.036607407 0.004554792 -0.029738033 -0.06336652 0.024560058 0.011511566 -0.007381764
-0.005083412 -0.025858503 0.042550374 0.024104174 -0.041535057 -0.022546187 -0.012250763 0.03636001

mlp.2.bias f4 [128]
00000000: 900b 4e3d 10ee 3f3d bdaf 5ebd c110 26bc
00000010: a224 d6bb 01a7 cdbc 8959 4d3d 8f8b d43c
00000020: 74d1 5d3c 449d f13c 2dac 12bd e36c 08bd
00000030: 7c60 d6bc d432 36bd 4a64 c83c 335b d0bc
00000040: b9b8 74bd 6295 27bd 58a2 89bc 7afb c3bc
00000050: 568d 5ab9 e834 9a3b 9582 69bd 9a84 57bc
00000060: 546b f63c d0b3 1fbc 353a 90bc 813d 233d
00000070: 62d8 1abd cdee 39bc 71c0 8c3d f653 1d3d
00000080: c6fc 64bd 651a 5f3d a7cb adbc df9c 28bc
00000090: 5405 34bc 7d24 0fbd 7399 233d 42c0 8d3c
000000a0: 79ec 5b3d 638f 20bd c6f0 873d e8b8 0dbd
000000b0: 1cb9 783d ad09 473d 9416 433d c7f9 53bd
000000c0: 8088 263c f3de 783d f070 bdbb c588 3cbd
000000d0: e0d8 a83c 7306 3c3c 595a e6ba bfdd 043d
000000e0: ff4d 5b3d 3478 bf3c 85db 71bc 9381 5d3b
000000f0: b455 36bd f0d9 793a 5908 fbbc 06d6 7fbd
00000100: 36b9 123d e9cf a53c 5860 04bd 2c83 02bd
00000110: 2286 80bd 3b66 8b3d 4e3d 79bc 9765 7a3c
00000120: d0d7 6fbd 5b5f 583d 53bc 3c3d 4f5d b4bc
00000130: 3159 123d 8d63 693d 1dbd 4f3d a906 653d
00000140: ebb9 44bd e649 253b 169c 723d 98b5 1abd
00000150: b2fe 25bd c26c 233d 7683 433d 27a1 c7bc
00000160: 1523 7dbd ffab 2fbd 197b dbbc 2c8d d93b
00000170: d030 c1bc 6269 023d 431e 003d c036 c6bb
00000180: 75ea 0e3d 98b8 063c d40d a73c fc84 0d3d
00000190: c3c6 223d 5d32 7a3d c83e 533d 9cc7 893d
000001a0: c669 4a3d 9d26 693c 3599 a7bb 970d b63d
000001b0: 3660 8d3c 3607 663d 9312 8e3d bebe 87bc
000001c0: df98 cd3c 9d0d db3c 5a06 16bd 86c8 97bc
000001d0: 33b2 963d 531d 2f3d 1192 5d3c 108e 483d
000001e0: 26a2 23bd a627 d7bc b28b 4c3b 54c1 2cbd
000001f0: c6fb 7fbd e050 453d 48d1 3dbd d08f 493c
0.050303996 0.046857893 -0.054366816 -0.01013583 -0.0065351287 -0.025104048 0.050134216 0.025945453
0.013538707 0.029493935 -0.03580873 -0.033306967 -0.026169054 -0.044482067 0.024461884 -0.025434112
-0.059746478 -0.040913947 -0.016801044 -0.023923624 -0.00020842752 0.004706014 -0.0570093 -0.013154173
0.030080475 -0.0097474605 -0.01760588 0.039853577 -0.037804015 -0.011348438 0.06872643 0.03841015
-0.055905126 0.05446853 -0.021215273 -0.010291307 -0.010987598 -0.034946907 0.039941262 0.01730359
0.053692315 -0.039199244 0.06637721 -0.03460017 0.06072341 0.048593212 0.047628954 -0.051751878
0.01016438 0.060759496 -0.0057812855 -0.04602887 0.020611227 0.011476147 -0.0017574533 0.032438036
0.05354118 0.023372747 -0.01476181 0.0033799156 -0.044515327 0.00095310714 -0.030643629 -0.062459968
0.035821162 0.02024074 -0.032318443 -0.031863376 -0.06275584 0.06806608 -0.01521237 0.01528301
-0.058555424 0.052825313 0.046078037 -0.02201715 0.03572959 0.056979705 0.05071746 0.055914555
-0.048028868 0.002522105 0.059230886 -0.037770838 -0.0405261 0.03989864 0.047732793 -0.024368836
-0.061801035 -0.042888638 -0.026792096 0.0066391435 -0.023582846 0.031838782 0.03127886 -0.006049007
0.034891564 0.0082227215 0.020392336 0.034550652 0.039740335 0.061083186 0.051573545 0.067275256
0.04941728 0.0142303975 -0.0051146992 0.08889311 0.017257791 0.05615922 0.069371365 -0.016570445
0.025097309 0.02673989 -0.03662715 -0.018528234 0.073582076 0.042752575 0.0135235945 0.048963606
-0.03994956 -0.026264023 0.0031211195 -0.04217656 -0.06249597 0.04817283 -0.046342164 0.012302354
