weights/steps_450001.pth (torch, 276355 bytes, 10 tensors)

lstm.weight_ih_l0 f4 [192, 7]
000000 01 ad c1 bd 2e 45 b4 bd a9 7f 7d bd 1d b2 df 3b
       -0.09456826 -0.088022575 -0.061889324 0.0068266527
000010 07 7b 24 3e 2c f0 c6 bd fd 6e 86 bd b2 cd d8 bd
       0.16062556 -0.09713778 -0.06564138 -0.10586108
000020 91 9e 2f be 90 cd 8a bd 35 59 5c bc c3 a8 c7 bb
       -0.17150332 -0.06777489 -0.013449003 -0.006093116
000030 ee 87 6e 3d 95 f7 04 bd f4 f9 87 3d 77 73 9c 3d
       0.0582351 -0.032462675 0.06639472 0.07639211
000040 65 42 7b 3d df bb b4 3d d3 0d 96 3d 23 8f 8f 3d
       0.061342616 0.08824896 0.073268555 0.07009723
000050 17 b0 7d 3d 8c 4d 0c be 64 28 d1 3c 4f 61 03 3e
       0.06193551 -0.13701457 0.025531955 0.12830089
000060 e2 54 44 3e 11 29 17 3e 38 e6 a1 3d 59 34 be 3d
       0.19173005 0.1476176 0.07905239 0.09287328
000070 8d cd 9e 3d c9 07 97 3d 96 0a 86 3b 95 d0 b3 3b
       0.077540495 0.07374532 0.0040906174 0.0054875114
000080 34 09 c5 3c ca ee 09 3e 81 5a 37 bc 2c 3d 08 bd
       0.02405224 0.13469997 -0.011191011 -0.033261463
000090 57 ce d3 bd f4 d0 f7 3d e0 6b 58 bd 39 ca e1 3d
       -0.103420906 0.121004015 -0.052837253 0.11024899
0000a0 46 59 44 bd 49 e9 c8 3d ab 01 02 be 46 26 d0 3c
       -0.0479367 0.098101206 -0.12695949 0.025408875
0000b0 16 f9 84 3d ab 49 f7 3d ed 8c 18 3e 06 51 c4 bd
       0.06492822 0.12074598 0.14897509 -0.095857665
0000c0 a5 29 8a bd b8 fb 2d bd 04 06 69 bd 53 c9 8c bd
       -0.06746224 -0.042476386 -0.056890503 -0.06874337
0000d0 51 ee 70 3c 5d 58 6a bd 83 4c b0 bd db 16 4d 3c
       0.014705257 -0.057213176 -0.086083435 0.012517656
0000e0 98 0a b1 bd a6 cb 4a 3c b0 0f 85 3d 97 7f 4b bd
       -0.08644599 0.012377655 0.06497133 -0.049682226
0000f0 e6 33 89 3d d7 80 d0 bd c2 87 04 bd 31 c0 66 3e
       0.06699352 -0.10180824 -0.03235603 0.22534253
000100 b4 d3 14 bd bb 2f 99 3d 24 d9 94 3d 46 c7 b8 3b
       -0.03633471 0.07479807 0.07267979 0.0056389896
000110 93 49 00 3e dd 32 14 bd 89 fc a6 bd 94 28 be bd
       0.12528066 -0.03618132 -0.08153636 -0.092850834
000120 b1 4d 55 3d e3 4e 31 3e d2 a1 23 3e a3 8c 94 bd
       0.052076045 0.17315249 0.15979698 -0.07253387
000130 df 24 18 3e 5f 52 12 be 0a b6 f6 bb 3e db ff 3d
       0.14857815 -0.14289235 -0.007529025 0.12492989
000140 8d b6 94 3c c2 27 74 3d 9a 58 33 3d b7 33 89 3b
       0.018153453 0.05960823 0.04378567 0.004187073
000150 66 16 c9 bc 7c 66 00 3c 3c fc ed bd dc 2f f2 3c
       -0.024546813 0.007836934 -0.116203755 0.029563837
000160 f0 29 75 bc 36 39 04 3d b0 4d 9b bd 77 05 43 3d
       -0.014963612 0.032281123 -0.07583177 0.047612634
000170 80 d5 ad bc 65 a7 82 3d 84 73 30 3d ec 27 00 be
       -0.021219969 0.06379584 0.043078914 -0.12515229
000180 ef da d9 3d 8b 33 f9 bd 65 76 51 bd eb 43 4d bd
       0.106374614 -0.12168034 -0.0511383 -0.0501136
000190 2a 66 de 3d 94 5d 58 bd e4 03 a5 bd 23 91 61 bd
       0.1085933 -0.052823618 -0.08057383 -0.055070054
0001a0 18 c0 1e 3e 59 c4 2b be 07 af 2c be e8 0f a6 bd
       0.15502965 -0.1677412 -0.16863643 -0.081085026
0001b0 b2 2c 9e 3d e0 2f d5 bd 24 29 b2 3d 5d 54 b2 bd
       0.07723369 -0.10409522 0.08699253 -0.08707497
0001c0 31 00 d4 3d a6 89 1b 3e 4a 8d 97 3d dc f7 b2 bd
       0.10351599 0.15189227 0.073999956 -0.08738682
0001d0 14 e4 6b 3d 54 71 0e 3d f7 98 44 3e 87 e6 a8 bd
       0.05759056 0.034776047 0.19198976 -0.082470946
0001e0 9f 8e 19 be a5 a1 fd 3d 6a af d2 3d ae 49 09 3e
       -0.14995812 0.12384347 0.10287364 0.13407013
0001f0 5c 3b 00 3e 27 cd 22 3e 72 a6 11 bb cc 96 96 3c
       0.12522644 0.15898572 -0.0022224453 0.018382452
000200 de e3 ce 3d b5 64 84 bd ce ca 4f 3e 3b 40 eb 3d
       0.10102056 -0.06464521 0.20292208 0.1148686
000210 6a ad b6 3d d6 e6 c9 3d 3d 6e 48 3e 62 f9 f3 3d
       0.08919795 0.098584816 0.19573303 0.119128
000220 7d 5f b6 3c d8 47 be bd 41 9e 3c 3e 97 29 02 3e
       0.02226233 -0.09291047 0.18419744 0.12711178
000230 9f a7 45 bd c6 f1 b9 3c 36 2c ad 3d 9f 54 c7 3d
       -0.04825556 0.022698294 0.08455698 0.09732937
000240 7f bb 9c 3d 7e 08 f4 bd 39 ca af 3d 93 16 65 bd
       0.076529495 -0.11915682 0.08583493 -0.05592973
000250 3b cd 9c bd c1 ed 14 3d 19 6a 3a 3a ef ce d4 3c
       -0.07656332 0.036359552 0.00071111467 0.02597758
000260 0e 23 74 bd ad c7 11 bc ed 17 0a be 0d c2 dc bd
       -0.059603743 -0.008897704 -0.1348569 -0.107792
000270 2a 8f 8f bd a5 9f d7 bc de c1 9d 3d b1 58 d8 bd
       -0.07009728 -0.026321242 0.07702993 -0.105637915
000280 77 bd c7 3b b9 7f 01 bc b6 1c 91 bc 51 05 1e 3d
       0.006095584 -0.007903987 -0.017713886 0.03857929
000290 66 1b 96 3d 4c 63 14 3e 21 e0 2a bd 69 56 13 3e
       0.073294446 0.14491004 -0.041717652 0.14388432
0002a0 83 54 4c 3e 76 0e 55 3d 06 54 dc 3d 1b 00 0b bd
       0.19954114 0.052015744 0.10758214 -0.033935647
0002b0 7e 3f 44 3d bf 90 f8 3d 92 c0 5a bd 90 f9 27 3e
       0.047912113 0.12136983 -0.053406306 0.16403794
0002c0 e9 45 fc 3d 0f e9 ba 3d 88 b9 40 3e 95 51 69 3d
       0.12318022 0.09126484 0.18820775 0.05696257
0002d0 d3 d8 f0 bd b5 85 14 3d 8f d7 26 3e 09 41 a8 bd
       -0.11760106 0.036260325 0.16293167 -0.082155295
0002e0 7e 41 bc 3d 9c 6f 10 3e 84 8e ff 3d cb c9 82 3d
       0.09192179 0.14105076 0.124783546 0.06386145
0002f0 62 0a 0a 3e c4 3e 00 bd 73 2f 37 3e df 3b a5 3d
       0.13480523 -0.031309858 0.17889194 0.0806806
000300 cc 71 05 3e 10 1c 55 bd 0b 4f 21 3e d0 1f 64 3d
       0.13031691 -0.052028716 0.15752809 0.0556944
000310 9b a0 b4 3d 74 f0 a2 bc 02 ac 2a bd af e3 e5 ba
       0.088196956 -0.019890048 -0.041667946 -0.0017539168
000320 6b 13 fe 3d 58 e6 19 3b f7 d9 1d 3e 5f 65 29 3e
       0.124060474 0.0023483243 0.15415178 0.16542576
000330 00 48 15 3d 92 c4 e2 3d 54 af 77 3d 91 fe 4b 3d
       0.036445618 0.11072649 0.06046994 0.04980332
000340 ed 1a 12 3e d6 f7 8d bd b0 c4 a1 3c da d5 09 be
       0.14268084 -0.069320366 0.019747108 -0.13460484
000350 2c bd 0f 3e 93 b0 0a 3d 7f 76 ae 3d 3e a6 44 3d
       0.14037007 0.0338598 0.08518695 0.048010103
000360 db cd 27 3e d7 e0 b8 bd ba ab 54 bd f7 d1 df bb
       0.16387121 -0.0902726 -0.051921584 -0.0068304497
000370 8a 49 cb 3d ec 71 91 3d d0 02 00 be c9 16 30 3e
       0.09926136 0.07101807 -0.12501073 0.17196192
000380 ed b2 4b 3d 69 07 24 3e 66 1f 45 3d 95 ce 94 3d
       0.049731184 0.16018452 0.048125647 0.07265965
000390 93 ce 36 3e c9 74 88 bc 13 11 04 bd a7 18 a2 3d
       0.1785224 -0.01665725 -0.032242846 0.07914858
0003a0 cb 34 92 ba ff 7c 77 bc 36 3d c1 3d 57 39 a2 bd
       -0.001115465 -0.015105485 0.09435503 -0.07921093
0003b0 bc b6 ca 3c fe c6 de 3d 3d ce bf bd 52 5f 9c bd
       0.024745338 0.108777985 -0.09365509 -0.076353684
0003c0 fe 00 99 ba 9c e4 2d 3d b0 10 24 bb 8d 72 00 be
       -0.0011673269 0.042454347 -0.002503436 -0.12543698
0003d0 25 63 0a 3c eb 81 1e be 06 94 e5 3d 73 e6 8d 3d
       0.008446489 -0.15479247 0.11209874 0.0692872
0003e0 8d fa da 3c 86 6e 05 3e 83 99 c2 3d 2f 7b 57 bd
       0.0267308 0.13030443 0.09501936 -0.05260771
0003f0 19 97 00 be b5 6a d0 bd 45 d3 1a 3e c8 33 98 3d
       -0.12557639 -0.10176603 0.15119655 0.074317515

lstm.weight_hh_l0 f4 [192, 48]
000000 1b 59 ef 3d 99 75 aa 3d 05 b9 e5 bd f4 24 33 3d
       0.116869174 0.08323211 -0.1121693 0.043736413
000010 71 a7 42 3d 11 b5 1b be e5 bc 39 be 19 37 aa bb
       0.047522966 -0.1520579 -0.18138464 -0.0051945564
000020 a4 ce 4c bd ed 3f 7e 3d 63 a3 4f bc 1e 4b 15 3d
       -0.050001755 0.062072683 -0.012673232 0.03644859
000030 0d 53 1c 3e 26 8a 1a 3d 35 0f 77 bd c5 9a d3 3d
       0.15266056 0.037729405 -0.060317237 0.10332254
000040 4d 41 2f bd e5 1f e0 3d 2c c7 11 3a c3 e9 0e be
       -0.042786885 0.109435834 0.000556099 -0.1395636
000050 3a 72 6a 3a e2 1e 12 3e 2e fe 6b 3d a8 2e 33 bd
       0.00089434127 0.14269593 0.05761545 -0.043745667
000060 57 ff 1d 3b 54 00 2a 3d 3b c9 9a bd 59 ac fd bb
       0.0024108493 0.04150422 -0.07557913 -0.0077414927
000070 b1 de 44 be 80 99 0c be 4f 8c 44 bd c8 5b ee bc
       -0.19225575 -0.1373043 -0.04798537 -0.0290965
000080 24 d1 1b bd 67 39 9b bd 54 23 88 bd 87 3f 90 3c
       -0.03804125 -0.07579308 -0.06647363 0.017608417
000090 67 0d 83 3d 66 62 bd bd d5 3c 2f be de 65 24 3b
       0.06399041 -0.09247284 -0.1711305 0.0025085132
0000a0 c9 7d 8c bd a3 5d aa bd d2 82 5d be 56 09 e7 bc
       -0.06859929 -0.08318641 -0.21631935 -0.028202694
0000b0 89 70 2f 3d 0f ea cd bd d5 c8 81 bc 17 de b7 3d
       0.04283193 -0.10054409 -0.015842834 0.08977907
0000c0 1b b0 d6 bd 37 df 36 bd ba 6a ba bd f4 27 bb 3d
       -0.10482808 -0.044646468 -0.09102388 0.0913848
0000d0 23 b6 8d bd 0f 3e b8 bb 06 aa e6 3d 68 60 2f be
       -0.069195054 -0.0056226323 0.11262898 -0.1712662
0000e0 20 1b ac 3c b6 29 e1 bc d9 56 e7 3d cb 46 00 bd
       0.021009028 -0.02748571 0.11295862 -0.031317513
0000f0 f4 bf 03 3e 5d 90 b4 bd 43 ae 93 3d f7 c4 65 bd
       0.12866193 -0.088165976 0.07210972 -0.056096043
000100 90 34 ec 3d 65 e8 ff 3d 1c 2a 6b 3b 13 1d 29 be
       0.11533463 0.124954976 0.0035883253 -0.16514997
000110 83 5c aa 3d 19 cf 46 3e 99 22 3f 3d 87 e9 96 bd
       0.083184265 0.19414939 0.046663854 -0.073687606
000120 d0 2b 92 3b 8a 3c 17 be 81 61 43 bd b8 3d b5 bd
       0.0044607893 -0.14769188 -0.04770041 -0.088496625
000130 14 5d 1c be 66 5f 91 bd e0 d8 85 bd 29 24 be 3d
       -0.15269881 -0.07098274 -0.06535506 0.09284241
000140 5e 43 0b be 13 fb ae bd 8b 69 8b 3d 96 33 a6 3a
       -0.13599917 -0.08543982 0.0680724 0.0012680169
000150 e6 e8 c0 bd 61 75 ad 3c ba e3 90 3d 7c 62 1f 3e
       -0.09419422 0.021174135 0.070746854 0.15564913
000160 66 0f bf 3c a5 a1 24 bd a9 07 80 bb f5 ea 68 bd
       0.023322772 -0.04019322 -0.003907163 -0.056864697
000170 5e 9a d5 3c 10 cd 68 bd d9 e8 30 be 8c c8 93 bd
       0.026074585 -0.056836188 -0.17276324 -0.07215986
000180 88 bd 4b bb 3e c0 e7 bd a2 b4 fa 3d ce 6c 94 bd
       -0.0031088311 -0.11315964 0.12241484 -0.07247315
000190 11 0f 11 be 92 27 37 be 6a 87 b5 bd 02 f0 ac bc
       -0.14165904 -0.17886189 -0.08863719 -0.021110538
0001a0 61 62 9a 3c 82 58 8c 3c e0 87 35 3e 19 c2 a2 bc
       0.018845739 0.017132048 0.17727613 -0.019867944
0001b0 84 64 b0 3d ef ea 6e 3d 35 99 df bc 92 4e c8 bd
       0.08612922 0.05832952 -0.027294734 -0.09780611
0001c0 55 e1 a0 3d ef 37 33 be 5b a5 be bd bf 12 4b bc
       0.07855479 -0.17501806 -0.09308883 -0.012394606
0001d0 0f 69 08 be 74 c6 b3 3d 27 43 ca 3c 74 40 01 be
       -0.13321327 0.08778086 0.024690224 -0.12622243
0001e0 36 7b d7 bd b4 ed 47 3d 58 33 32 be ff 43 62 be
       -0.105215475 0.048810676 -0.17402399 -0.22096251
0001f0 9e a3 1b be f4 d4 04 be 53 39 f2 3d 29 ae 49 3d
       -0.15199134 -0.1297186 0.1182734 0.049238358
000200 61 07 21 3e 46 43 2b 3e fc 6c 6f bc ad 53 87 3c
       0.15725471 0.16724882 -0.014613386 0.016519392
000210 4a c6 1f 3d 04 75 b8 3c 65 9e 32 bc ea e4 2c 3e
       0.039007463 0.022516735 -0.010902022 0.16884199
000220 cf 02 00 3d 79 70 c5 3d e1 0e 1e 3d 59 e6 50 3e
       0.03125268 0.09640593 0.03858841 0.2040037
000230 fa 23 cb 3c 97 da 3e bd 3c 2f 16 be 64 77 fd bb
       0.024797428 -0.046595182 -0.14666456 -0.0077351797
000240 96 84 d2 3c d6 da bf 3c 7e 16 72 bd 40 4b 3d 3c
       0.025697988 0.023419779 -0.05910348 0.0115535855
000250 7a d3 2e be 23 cc 5d be 08 26 9a bd e9 e9 4a be
       -0.1707286 -0.21659903 -0.07526785 -0.19815792
000260 d4 e8 a7 bc 4a 5b 35 3e b2 08 04 3d 70 84 15 be
       -0.020496763 0.17710605 0.032234855 -0.14601302
000270 4b 35 fc 3d e7 fa bd 3c 6a b8 b8 3c a4 21 3d ba
       0.12314852 0.023190929 0.022548873 -0.00072147907
000280 1f f4 df 3c 99 c2 ea bd 81 73 32 3e ae 81 75 bd
       0.027338086 -0.11462898 0.17426874 -0.059938125
000290 b3 e5 77 bb f0 be 47 3e 33 38 80 bd 27 71 03 be
       -0.003782612 0.1950643 -0.06260719 -0.12836133
0002a0 c0 ac ff bd 41 bb 9e 3b c3 5e 3d bb fd 91 f0 bb
       -0.12484121 0.0048440997 -0.0028895594 -0.007341622
0002b0 51 0a d6 bd 00 ad 19 be 12 f0 87 3d bc 95 3e 3e
       -0.104511864 -0.150074 0.06637587 0.18611807
0002c0 89 3a 98 3d 63 d1 b4 b9 6a 59 a6 3c 94 d7 f4 3d
       0.0743304 -0.0003448828 0.020306308 0.11955181
0002d0 ae 5c e8 3c 12 2a f9 bd d8 ac ce bc b0 18 37 3e
       0.028364506 -0.121662274 -0.025228903 0.17880511
0002e0 8d 31 34 3e 2b 15 1e be c9 35 91 3c 62 d2 8d bd
       0.17597027 -0.15437762 0.017725842 -0.06924893
0002f0 79 69 c2 bc 22 c8 bc bd b6 6c 32 be 21 e1 07 3e
       -0.023731934 -0.0921786 -0.17424282 0.13269474
000300 f8 2b 90 3e 24 c7 ec bd 9c a2 69 3e 0d 55 28 be
       0.28158545 -0.115614206 0.22815937 -0.16438694
000310 3a fa 64 be 73 18 4e be bc 7a 5e be 23 38 3b be
       -0.22361079 -0.20126514 -0.21726507 -0.18283133
000320 1e f8 42 3c 15 13 0a 3e 40 85 86 3e 1c 94 0b bb
       0.011899976 0.13483842 0.26273537 -0.0021297997
000330 1e 7d bd bb 11 d1 08 3e 44 7e 67 3e 97 5c 4b be
       -0.0057827374 0.13361003 0.2260676 -0.19859539
000340 17 8d 2c 3e 37 85 9a be fe 81 6f 3e 91 0b af 3d
       0.16850697 -0.3017976 0.23389432 0.08547128
000350 ae 0c 43 be 59 8e 7a 3c c6 b2 60 3e ec 27 4e be
       -0.19047806 0.015292727 0.21943197 -0.20132416
000360 79 74 25 be 1f 4d 97 3e da 72 73 be 41 03 96 be
       -0.16157712 0.29551026 -0.23774281 -0.29299358
000370 e3 4b b5 bc 74 a1 ea bd bb a0 9f 3d b0 dc 06 3e
       -0.022130912 -0.11456576 0.07794329 0.13170123
000380 ae 08 7a 3d 75 a4 90 3c 50 1e b0 3d 4a 22 ae 3e
       0.061043434 0.017656544 0.08599532 0.34010535
000390 40 8b 00 bd 12 b9 19 be 80 4a 91 bd 36 4f 4b 3d
       -0.0313828 -0.15012005 -0.07094288 0.04963609
0003a0 67 de 2d 3e c1 71 0a bd f0 9c 35 be a5 32 05 3e
       0.16979371 -0.03379989 -0.17735648 0.130076
0003b0 38 43 91 3d 74 dd 87 bc b9 9d 96 be af 7e 92 3d
       0.07092899 -0.01658509 -0.29417208 0.07153069
0003c0 bc f4 42 3d 00 88 57 be 1e 8d cf 3d 37 88 41 bd
       0.04759668 -0.21047974 0.10134338 -0.047249045
0003d0 81 eb b0 bc 3b b7 63 be 1d 05 d4 bb ac e8 48 bb
       -0.021596672 -0.22237866 -0.006470336 -0.0030656261
0003e0 d4 5b 5c be dc 58 05 3e 8c ad 5e 3e 97 45 21 3d
       -0.21519405 0.13022178 0.2174589 0.039373007
0003f0 62 97 14 3e 46 be 18 bc c9 1f 63 bd 1c 45 e8 bd
       0.14510873 -0.0093227085 -0.055450235 -0.113413066

lstm.bias_ih_l0 f4 [192]
000000 bf 6c 8a 3d 85 3b 78 3d 5f d7 5c bd ad 89 7c bd
       0.06759023 0.060603637 -0.05391633 -0.061654735
000010 2e 54 df bc aa 77 47 bd 71 5a ba 3d 3a f4 87 3d
       -0.02726182 -0.048698105 0.090992816 0.066383794
000020 f5 27 a3 3d cc b1 fe 3d 43 79 09 3d ea 27 ee bd
       0.079666056 0.12436256 0.03356291 -0.11628707
000030 7f 35 19 bd 1b 14 90 3d 2e 96 9e bd 69 24 c5 3c
       -0.037404533 0.07035085 -0.07743488 0.024065213
000040 7b e1 18 bd 8c 32 92 3d 63 4d 44 3e 00 0a 4a bd
       -0.03732441 0.07138547 0.19170146 -0.049325943
000050 2d 04 2a 3e 6a 52 ae 3d d2 98 03 3e f9 d4 bc 3d
       0.16603155 0.08511813 0.12851265 0.09220309
000060 40 80 29 bd e4 2f 74 3d ec d0 0c 3e 24 1e be 3d
       -0.041382074 0.059615985 0.13751572 0.092830926
000070 27 ff ae 3b 3b 56 2e 3d 46 54 c1 bd ca 39 18 3e
       0.005340475 0.042562705 -0.09439902 0.14865795
000080 ed 87 a2 bd aa c3 f1 3b 90 fb 04 3e 61 8c 95 bd
       -0.07936082 0.0073780613 0.12986588 -0.07302166
000090 52 d5 d2 bd 95 5f 00 3e 18 ba 9e bd 96 3d db 3d
       -0.10294594 0.12536462 -0.07750338 0.10705106
0000a0 2f fa aa bd a3 38 51 3e ac 1a c5 3d ee 89 55 bc
       -0.083485 0.20431761 0.09624228 -0.013033373
0000b0 fd 61 96 3d c9 88 cb 3c 97 ba 9c 3d de 33 bd bd
       0.073429085 0.024845498 0.07652777 -0.092384085
0000c0 79 c2 8c 3b 79 73 42 3d 2a b2 40 3c 60 2f 0a 3e
       0.004295644 0.047473405 0.011761228 0.13494635
0000d0 5c e5 b9 bc 16 90 d6 bd 31 b0 e2 3d 26 80 3c 3e
       -0.022692375 -0.10476701 0.11068762 0.1840826
0000e0 d7 86 5b 3c e6 c9 cc 3d 43 f5 3d bd 70 d5 ca bd
       0.013398848 0.099994466 -0.046376478 -0.09903991
0000f0 3c f2 8f 3b 74 93 a0 3c f9 0e 3c bd 6a 3b ca 3d
       0.0043928903 0.019601561 -0.045912717 0.098746136
000100 92 24 fb 3d 1d 72 e3 bc 07 71 a9 bd 00 25 ab bd
       0.122628346 -0.027764374 -0.082735114 -0.083566666
000110 71 2d a0 3d d7 ae 48 3e 8c 43 13 3d aa 93 03 3e
       0.07821167 0.19597946 0.03595309 0.12849298
000120 c7 a5 00 3d 4d c9 77 bd 0c 6e 75 3d 27 ef 75 bc
       0.031408098 -0.06049471 0.059919402 -0.015010632
000130 e2 35 c2 3d 1b ec a7 3c 07 d5 b2 3d 33 b8 cf bd
       0.094829336 0.020498326 0.08732038 -0.10142555
000140 8d 89 2d bc 5e 92 de bd 8c f8 73 bd aa dc 20 3e
       -0.010591877 -0.10867761 -0.059563205 0.15709177
000150 c0 ce b1 bd 79 8b 1e 3e 98 d9 e8 3d 61 11 c6 3c
       -0.086820126 0.15482892 0.11369628 0.024178209
000160 99 7a 0c 3e 9b 22 12 bc c8 84 f8 3d 7a 29 54 3d
       0.13718642 -0.008919383 0.12134701 0.051797368
000170 16 fc da bd e6 37 e0 bd 6f ff 18 3c e5 8c 88 3d
       -0.10692613 -0.10948162 0.009338244 0.066674985
000180 12 99 0a 3d f3 4e 2d 3d f4 ad d2 3d 1f e6 b1 bd
       0.033837385 0.04231162 0.10287085 -0.0868647
000190 b6 02 cd 3d 49 b9 89 3d f4 99 b0 bc 37 d8 81 bd
       0.10010283 0.067247935 -0.021557786 -0.06340068
0001a0 b8 b0 f4 3d 2c c5 e9 bc dc ff c2 bd 83 c3 11 be
       0.11947769 -0.028536402 -0.095214576 -0.14234738
0001b0 9c 92 93 bc 11 23 68 3c 58 79 4a bd 5c e8 08 3e
       -0.018014245 0.014168517 -0.04943213 0.13369888
0001c0 63 5d 07 3e 3f 37 19 3e 25 99 58 3d fc f2 14 be
       0.13219218 0.14962481 0.052880425 -0.14545816
0001d0 e9 5f b0 bc 05 2e d9 bc 98 4d de 3d ec 7f ea bd
       -0.021530109 -0.026511202 0.108546436 -0.114501804
0001e0 d5 b8 65 3d cb 5f 21 bd a3 67 6f bd f1 89 68 bd
       0.056084473 -0.039397996 -0.058448445 -0.056772176
0001f0 ba be d3 bd 6d 73 d9 bd c1 4f 5b bd ef 8b c9 3d
       -0.103391126 -0.10617719 -0.053542856 0.09841143
000200 1c 8f 68 3d c4 d0 a0 3d c8 9d 1c be 3f 02 8c 3d
       0.056777105 0.07852319 -0.15294564 0.06836366
000210 e7 e5 c6 bc af 81 0c bc d7 45 e7 bd 13 30 d6 3d
       -0.024279548 -0.008575841 -0.11292618 0.10458388
000220 20 f2 68 3d a5 2a cf bd 01 01 f2 3d f0 67 95 bc
       0.056871533 -0.10115556 0.11816598 -0.018238038
000230 08 32 12 bd fa d1 c5 bd 81 ed 0a be 96 e7 08 bd
       -0.035692245 -0.096591905 -0.13567163 -0.033423983
000240 9e 7b 3e 3e 9e ea 04 3e ed f0 e0 3d fe 62 24 3e
       0.18601844 0.12980124 0.10983453 0.16053388
000250 d3 45 c6 bd fd 35 e3 3b ba 56 73 3d a2 c8 a6 3d
       -0.09681287 0.006933926 0.05940888 0.081437364
000260 9b 44 57 3d 6b 7c da 3d c5 93 ca bd a2 66 bf bc
       0.05255566 0.10668262 -0.09891466 -0.023364369
000270 b7 83 e6 3d 73 34 4a bd df 43 33 3e f0 32 30 3e
       0.11255591 -0.049366426 0.1750636 0.17206931
000280 b4 cd ba bc ab 5b 44 3e 32 dc 8c 3c 15 b5 9f bd
       -0.022803165 0.19175594 0.017194841 -0.077982105
000290 f7 f5 de 3d 26 0f 26 3e fb e9 dc 3d c6 b5 93 3c
       0.10886758 0.16216716 0.10786816 0.018031012
0002a0 c6 87 11 3d 4d fe 44 3e bf 44 16 3e a4 25 d8 bc
       0.035529874 0.19237633 0.14674662 -0.026385136
0002b0 ae 0d 0f bc 5a 6f b0 3b 32 a2 5e 3d cb 1a 4e 3e
       -0.008731289 0.005384368 0.0543539 0.20127408
0002c0 5e 83 43 bd 50 6a f5 3d 9f 8c 58 3e 80 ba 06 3d
       -0.047732703 0.11983168 0.21147393 0.032892704
0002d0 d3 a3 f8 3d e1 5c e5 3d 07 ef 47 3e 5b 04 4e bd
       0.12140622 0.11199356 0.19524775 -0.050297122
0002e0 48 db af 3c 49 04 87 3e 72 b5 7f 3d e6 e5 9a 3d
       0.021466866 0.26370457 0.0624289 0.07563381
0002f0 62 fd 83 bc 11 a6 0f bd e6 46 16 3e c5 e9 a3 3d
       -0.016112033 -0.035070483 0.14675483 0.080035724

lstm.bias_hh_l0 f4 [192]
000000 c2 5d be 3d b8 30 c3 3d 5f fc 60 3d 6b 23 38 bd
       0.09295227 0.09530777 0.05492818 -0.044955652
000010 00 e6 59 3d 5d ea 13 3e 4d 5e b6 3c 47 4f 32 bc
       0.05319786 0.14444871 0.022261763 -0.010883159
000020 a7 40 12 3e b0 22 df 3d 22 c1 1a 3d b4 f4 d7 3d
       0.14282475 0.10895288 0.037781842 0.1054472
000030 90 db 84 bd 4d 57 f9 3d ea 05 bc bd 48 34 f3 3c
       -0.06487191 0.121748544 -0.091808155 0.029688016
000040 04 45 b7 3d da ff 83 3b 87 93 f0 3d cc 00 a9 bd
       0.089487106 0.0040283026 0.117468886 -0.08252105
000050 05 34 b1 3d 32 e4 bf bd 1a 0b 08 3c b6 ab 21 bd
       0.086525 -0.09369697 0.008303428 -0.039470397
000060 a8 94 51 bd e3 f5 fa 3d f2 b2 02 bc be d7 21 bd
       -0.05116716 0.122539304 -0.007977234 -0.03951239
000070 b8 53 b4 3d 78 62 17 bd 05 a2 df bd 1b 25 d8 3d
       0.088050306 -0.03695914 -0.10919575 0.10553952
000080 6f 09 fb 3d 70 b8 8a 3d ff d7 33 3e 4e 19 0f 3e
       0.12257659 0.0677346 0.17562865 0.13974497
000090 67 86 c4 bd 0c 99 56 3b 06 ff bf 3d 25 3f 26 3d
       -0.09595948 0.0032745032 0.09374814 0.040587563
0000a0 15 c1 85 bb db 1f 24 3e 30 d8 30 3e 1b 3f 04 3c
       -0.004081855 0.16027777 0.17269969 0.008071686
0000b0 cb 7d 36 3e ad 16 7b 3d ca d3 a7 bd 43 17 01 3e
       0.17821424 0.061300922 -0.081946924 0.1260653
0000c0 bd 8f e2 3d 68 c3 cc bd 88 a0 d5 bd 1a 99 13 3c
       0.11062572 -0.09998208 -0.104310095 0.00900867
0000d0 98 20 2c 3d d5 08 f7 bd 9c 28 f8 3d a6 5f 13 3e
       0.04202327 -0.120622315 0.121171206 0.14391956
0000e0 f2 9a 95 3b 67 32 08 be bd 99 e7 bc 3b fb 94 3d
       0.00456559 -0.13300477 -0.02827155 0.07274481
0000f0 3e 16 34 3b 1b 37 ee 3d 50 34 83 3d 12 48 9d bd
       0.0027479078 0.11631604 0.06406462 -0.07679762
000100 56 17 11 bd 34 06 0f bc 39 5d 0d 3e ee 44 a7 bd
       -0.035422646 -0.008729506 0.13805093 -0.08167444
000110 4e fa b4 bd 3d 41 40 3e f6 76 b2 bc a3 a1 90 3d
       -0.08836804 0.18774886 -0.02178524 0.0706208
000120 e6 fa 0c bd 8f 4d 0a bd 6f c6 05 3e d2 62 07 3d
       -0.034418963 -0.033765372 0.13063978 0.033053227
000130 18 ba fe bd d3 44 a5 3d cc 6e 13 3b 41 98 d0 bd
       -0.12437838 0.08069768 0.002249646 -0.1018529
000140 ac 52 87 bd d1 be 95 3d 42 dd 86 bd ef 07 ad bc
       -0.06607565 0.07311786 -0.0658517 -0.021121947
000150 b6 1b 1b bd 08 ca 7f 3d 97 49 46 bd 8b d2 85 3c
       -0.037868224 0.06244853 -0.048410024 0.016335746
000160 8b dc 6a 3d b5 1c 00 3e 0b a4 a9 bd 2e 0c 7c 3d
       0.057339232 0.12510951 -0.08283242 0.061535053
000170 d9 43 02 be a7 87 db 3d ff 21 c8 bd f5 08 82 bc
       -0.12721194 0.10719233 -0.09772109 -0.015873412
000180 5c e6 90 3d 73 4c 0a bc eb 7c 9a bc 61 ca 11 be
       0.070751876 -0.0084410785 -0.018858394 -0.14237358
000190 6a da 74 bc 3f 3b 3a 3d 86 82 10 3d 7e 52 19 3d
       -0.014944652 0.045466658 0.035280727 0.037432186
0001a0 4a d2 3c bc c2 92 02 be 3b 53 40 3c fa 77 00 be
       -0.011524746 -0.12751296 0.011738594 -0.12545767
0001b0 c4 3a 9e bc a1 e2 64 bd 43 27 3a 3d 5a d0 c2 3d
       -0.019315131 -0.055880193 0.0454476 0.09512396
0001c0 ea e0 43 3d 49 9c e2 3d 98 5d 8c 3d 09 9d 69 3d
       0.047821917 0.11064965 0.06853789 0.057034526
0001d0 97 b6 01 be 2c 97 07 bc 76 8c d1 3d e7 e2 8d bd
       -0.12667309 -0.008275788 0.10231869 -0.06928044
0001e0 34 08 67 3d 3b 4d 19 be 38 7d 98 3d 04 87 c1 3d
       0.056404307 -0.14970867 0.074457586 0.0944958
0001f0 43 43 d4 bd ab 2b 79 3d fd ae 1d bd 1f 43 0f be
       -0.10364392 0.06083266 -0.03849696 -0.13990448
000200 01 60 7e ba 1b 48 a2 bd c5 b9 b3 3d 89 ec 0d ba
       -0.0009703637 -0.07923909 0.08775667 -0.00054139696
000210 a3 01 5e 3d a4 3a 15 3e 0d 8b 15 3e c3 dc 8b 3d
       0.05420078 0.14573151 0.14603825 0.06829216
000220 23 72 02 be 27 af 0c 3c 05 0a 8e bd 23 e1 4e bb
       -0.12738852 0.008586681 -0.06935505 -0.0031567297
000230 66 46 4a bb 99 cf 21 be c6 7d 96 3d 78 50 7d 3d
       -0.0030864715 -0.15801848 0.07348208 0.06184432
000240 5d ce 3f 3c 7e 91 80 bc 9c e8 11 3e d1 ed 32 3e
       0.011706916 -0.015694376 0.1424889 0.17473532
000250 48 a0 28 bd 5d 15 89 bc 67 39 da bb 09 83 7c 3d
       -0.04116848 -0.01673382 -0.006659675 0.061648402
000260 ca c0 30 3e 5b 5e e6 3c 1c 15 43 bc 62 04 0f 3e
       0.17261043 0.028121164 -0.011906888 0.13966516
000270 74 a9 90 3d 4e bc 9c bd 70 a6 d7 3d b9 8f 20 bd
       0.070635706 -0.07653104 0.10529792 -0.039199565
000280 ff 1f d0 3c bf 69 2f 3e fb 36 56 bd fc 2b f2 bb
       0.025405882 0.17130183 -0.052298527 -0.0073904973
000290 72 69 e3 3c 6d 3f 25 3e 3a 03 22 3e f9 ad c7 3c
       0.027760241 0.16137476 0.15821543 0.024374949
0002a0 73 ea ca bd c2 72 4b 3e 38 15 ec 3d 3c 07 dd 3d
       -0.09907999 0.19867995 0.11527485 0.107923955
0002b0 f4 9e 3a 3d d1 21 43 bd e7 d0 aa bd 7d 77 3a 3e
       0.045561746 -0.04763967 -0.08340626 0.18209644
0002c0 ca 98 ae bd 4f 0f b1 bd 47 ac 8d 3d 98 29 2f 3e
       -0.08525236 -0.08645498 0.06917625 0.1710571
0002d0 d9 47 9c bd 00 d2 87 bd b6 29 24 3e cd c6 42 3c
       -0.07630891 -0.06631851 0.16031536 0.011888218
0002e0 ef 25 04 3e 76 18 66 3e 05 7b db 3d 40 29 22 3e
       0.12905096 0.22470269 0.107168235 0.15836048
0002f0 ec e4 07 3e 8f 8e 9f bd 7b a4 0a 3e fb 35 49 bd
       0.1327092 -0.07790863 0.13539307 -0.049123745

mlp.0.weight f4 [256, 54]
000000 89 cb 54 bd 7b f5 c1 bd 51 b4 d0 3d cf 55 0d bc
       -0.05195192 -0.0947065 0.101906426 -0.008626415
000010 0d 0e 96 bc dc 61 74 3d 64 51 a9 3b 19 c5 4e bd
       -0.018317247 0.05966364 0.005167173 -0.050480936
000020 67 d1 02 be f9 13 40 bd 9a 5c b8 bc 6a b5 06 3e
       -0.12775193 -0.046894047 -0.022505093 0.13155141
000030 71 f1 5b bd 08 d7 bd 3d 79 2f e1 bd da a5 43 bd
       -0.053697053 0.092695296 -0.10995383 -0.04776559
000040 08 aa 74 3d 1b 12 b3 bc 1a e7 9a bd 68 f7 02 bd
       0.059732467 -0.02185922 -0.075636104 -0.031974226
000050 ab c1 00 be ca d6 0a 3e 3c 9d bd 3d 0e af 01 3e
       -0.12573878 0.13558498 0.09258506 0.12664434
000060 da ba 05 be 56 fb 44 3d 91 04 04 3d 3f ba d3 3c
       -0.1305956 0.048091255 0.032230917 0.025845645
000070 6c dd 02 be 42 3a 16 3e d0 7d c9 3d 13 e1 e9 bd
       -0.12779778 0.14670661 0.0983845 -0.114198826
000080 1f c1 ec 3c 10 54 b8 3d e8 b8 7a 3a 21 a9 f3 3d
       0.028900681 0.09000409 0.00095642963 0.11897493
000090 d2 f9 c2 bd be b6 05 3d ed 5d a3 3d 6f c8 d5 3d
       -0.09520306 0.03264498 0.07976899 0.1043862
0000a0 e3 6d 00 3e 4f 1a bd 3d 1a 45 af bd 19 e8 9b 3d
       0.12541918 0.092335336 -0.08558102 0.076126285
0000b0 92 42 11 bd 9e ad ab bd e8 e8 05 3d 08 4e 94 bc
       -0.035463877 -0.08382724 0.03269282 -0.018103614
0000c0 dd f8 ba bc ee 96 0a bd d7 50 b6 3c 4d c1 21 bd
       -0.022823745 -0.033835344 0.022255344 -0.039490987
0000d0 3e 99 e4 3d 5e 2f 11 3c b3 18 65 3d f6 37 c3 bd
       0.11162041 0.008861391 0.055931758 -0.09532158
0000e0 5d 8a 6f bd db e6 8d 3d e1 fd 69 3d e5 0e 0c 3d
       -0.058481563 0.06928798 0.057126883 0.034193892
0000f0 0e 4a 28 bc ed 5d 28 be a0 ad e4 bc a0 c1 8d 3d
       -0.010271562 -0.1644208 -0.027914822 0.06921697
000100 26 68 25 be 0f 5a 25 3d 2e 61 81 3d 0e f6 99 bd
       -0.1615301 0.04036909 0.06317364 -0.07517634
000110 0b 56 ff bd 4a fb ac 3d 20 1a bf 3d e1 a3 e0 bd
       -0.12467583 0.08446367 0.09331155 -0.109687574
000120 41 1b 4f 3c 6f 02 fd 3d 72 8b 36 3e d7 74 65 3d
       0.012640775 0.1235398 0.17826632 0.05601963
000130 03 6f 50 3c 63 7f f3 3c 83 d2 0b 3e 4d f8 af 3d
       0.01272178 0.029723829 0.13654523 0.085922815
000140 c1 14 dc bd 79 5f 12 3e 92 39 45 3e cc 65 96 bd
       -0.10746146 0.14294232 0.19260243 -0.07343635
000150 fd 3a b2 bd bc fa f6 3d fc 99 03 bc 20 35 09 be
       -0.08702657 0.120595425 -0.008032318 -0.13399172
000160 c5 42 44 bd bf 09 27 be 65 ea 15 3e 4c 4a 16 3e
       -0.04791524 -0.16312312 0.14640196 0.1467678
000170 43 86 90 bd 32 dd 2b bd 3c 60 c9 3d b2 44 95 3d
       -0.070568584 -0.041958995 0.098328084 0.07288493
000180 e4 83 76 bd cc 44 b5 3d 04 38 07 be 7b a5 59 3e
       -0.060184374 0.088510126 -0.13204962 0.21254532
000190 f9 80 b2 3d c4 0c 8d be cc c7 36 be 8f 80 95 3d
       0.08716006 -0.27548802 -0.17849654 0.07299911
0001a0 cc dd 19 3e 62 8c 32 be b9 3e 1c be 29 d3 c4 bd
       0.15026015 -0.17436364 -0.15258302 -0.09610588
0001b0 fe 29 cb bd f9 af 01 be ca ec b7 3d c8 a0 fd bd
       -0.09920119 -0.12664784 0.08980711 -0.12384182
0001c0 84 00 af 3d 5c c6 a7 3d ce cd 04 3e 34 0c 32 bd
       0.0854502 0.08192131 0.12969133 -0.04346867
0001d0 88 62 84 bd b9 0d af 3b f5 2a bc bd 44 07 63 bd
       -0.06464106 0.005342212 -0.09187881 -0.05542685
0001e0 13 d1 bb bd 45 fb 87 bb 9a 3d f8 bd a5 3f 77 3d
       -0.09170737 -0.0041498267 -0.121211246 0.06036343
0001f0 5b 2f 08 3e ab a7 3d bd e4 0d ed 3d cb 67 e3 bd
       0.13299315 -0.04630248 0.11574915 -0.11103781
000200 94 06 b8 3d a8 f3 06 be 11 86 dc bd a6 33 96 3b
       0.0898563 -0.13178885 -0.10767759 0.0045837937
000210 0a 3e 23 3e 52 89 0c 3e bc ef d7 bd 7c 1c 46 3d
       0.15941635 0.13724259 -0.105437726 0.04836701
000220 c7 40 b1 3d ff 0e b3 3d 47 61 b3 3d 94 43 17 3e
       0.086549334 0.08743095 0.087587886 0.14771873
000230 f7 91 46 bd aa ed 94 bd 60 37 0c be e2 31 75 3d
       -0.048479047 -0.07271893 -0.13692999 0.059862025
000240 77 87 e0 3d 38 04 a3 bc 6a 40 9d 3c 74 ea 9a bc
       0.10963338 -0.019899473 0.019195754 -0.018910624
000250 f8 ac 7d 3d 7c ac 81 3d da 98 6a bd d1 bc 08 be
       0.061932534 0.06331727 -0.057274677 -0.13353278
000260 ba 82 84 3c 94 b1 fa bc 46 50 81 bd 63 7c 1a bd
       0.016175617 -0.030602254 -0.06314139 -0.03771628
000270 fb 07 1c bc ed 71 e8 3d c1 ee 99 3c 46 33 1a be
       -0.009523387 0.113498546 0.018790605 -0.15058622
000280 d3 46 ea 3d 4e d5 a5 bd ed f0 7c bb 85 c5 d2 3a
       0.1143929 -0.08097325 -0.0038595751 0.0016080594
000290 b5 c4 87 bd 5b 45 74 bd 1f 0f ae bd 7c fe d6 bd
       -0.06629316 -0.059636455 -0.08498978 -0.10497758
0002a0 d8 20 af 3d 08 cf 2e be 58 47 0a 3e 7b 55 5d 3d
       0.08551186 -0.17071164 0.13503778 0.0540366
0002b0 70 c0 0f be b4 00 52 bd 47 48 dc bd e5 f0 59 be
       -0.14038253 -0.0512702 -0.10755973 -0.212833
0002c0 14 c0 9b bd 16 b3 86 bd 03 19 39 3e e1 fe 95 bd
       -0.07604995 -0.06577127 0.18075947 -0.07324005
0002d0 00 ca 17 3d d6 80 12 3e 71 50 8c bd 29 35 38 3c
       0.037057877 0.1430696 -0.068512805 0.011243143
0002e0 af 8b d2 b9 19 58 6b 3c e9 be a3 3d 2d ef e8 3d
       -0.00040158394 0.014364266 0.079953976 0.11373744
0002f0 eb 53 47 be b4 ca 56 3e ac 82 e6 3c 7e e3 21 bd
       -0.19465606 0.20975763 0.028138481 -0.039523594
000300 a4 e6 e4 bd fa d7 b9 bd 3f 77 d4 bd 8c d2 f1 bd
       -0.11176804 -0.090743974 -0.10374307 -0.11807737
000310 87 e3 9d bd 11 19 12 be b4 8f 80 3d 6f cb df 3d
       -0.07709413 -0.14267375 0.06277409 0.10927474
000320 0e 31 df 3d 05 89 42 3d 62 ca 34 3e 0b 82 d8 3b
       0.10898028 0.047493953 0.17655328 0.006607299
000330 f5 f7 c5 3c 95 95 0a be ad ae 24 bc 76 a9 0e 3e
       0.024166087 -0.13533624 -0.010051412 0.13931832
000340 cc 30 db 3d 1e 32 78 be 20 04 f0 bd f1 60 3b 3e
       0.10702667 -0.24237868 -0.11719537 0.18298699
000350 21 58 f4 3d 63 87 b2 3d 8d 6f dd bd 70 49 4b 3c
       0.11930872 0.08717229 -0.10812292 0.012407646
000360 fe 2d df 3c c9 09 51 bb 69 0d fb bd fe 09 d6 3d
       0.02724361 -0.0031896702 -0.12258417 0.104511246
000370 b2 a5 2c bd 13 98 17 3d 9a d1 87 bc e3 d5 e4 bd
       -0.042150207 0.037010264 -0.016579438 -0.11173608
000380 88 3a 86 bd d6 d6 35 ba bb b4 2b 3d c7 05 8b bd
       -0.06554133 -0.0006936615 0.041920405 -0.06788211
000390 f1 8f c1 bc f0 1a de bd 3d c3 bb bd a4 fd bf 3d
       -0.023628207 -0.10844982 -0.09168098 0.0937455
0003a0 86 f8 9a bd c1 5c a9 3d 9b 09 25 3e e1 63 f9 bb
       -0.07566933 0.082696445 0.16116945 -0.0076107834
0003b0 86 0f a2 3c fa 37 31 3d 0e 11 6b 3c 43 3a b9 3b
       0.019782793 0.043266274 0.014347328 0.0056526973
0003c0 16 d8 7d 3d 79 c0 30 3e a9 52 23 be 78 90 44 3e
       0.061973654 0.17260922 -0.15949501 0.19195735
0003d0 21 dd fa bc 02 fb a4 3d 7b ba 1d be 6d 38 86 bd
       -0.03062302 0.080556884 -0.15403168 -0.06553731
0003e0 43 2c 2f be 18 7f 3c 3d 08 4a d1 bd eb 0c 09 be
       -0.17106728 0.046019644 -0.102191985 -0.13383834
0003f0 30 e2 f2 3c 26 bf 25 3e 73 98 b1 bd ed 74 05 3e
       0.02964887 0.16186199 -0.086716555 0.13032885

mlp.0.bias f4 [256]
000000 6b 75 d0 3c b2 61 bc bd c3 5d a0 3d 7f 12 01 3e
       0.025446614 -0.091983214 0.07830384 0.12604712
000010 65 ad bc 3d bc 8b ec bd 62 07 be bd 86 82 26 3c
       0.0921276 -0.1155009 -0.09278752 0.010162955
000020 e5 9c 7a 3d b0 ad 0d be ec 36 d6 bd 01 45 e8 bd
       0.061184783 -0.13835788 -0.10459694 -0.113412865
000030 12 4e bc 3d da 02 0a 3e b9 cb 24 3b f7 d4 38 bc
       0.09194578 0.1347765 0.0025145842 -0.0112812435
000040 61 9e 81 3b fb b7 d1 bd 20 ee 49 3d a4 c6 fd 3c
       0.003955648 -0.102401696 0.04929936 0.030978508
000050 01 99 48 bc 38 12 95 bb 9b e9 45 bd d6 30 88 bd
       -0.01224351 -0.004549291 -0.048318487 -0.0664994
000060 09 e3 e2 bd 5c c1 f1 3d ab 3d f3 3c e2 03 bf bc
       -0.1107846 0.118044585 0.029692492 -0.023317281
000070 41 1d 61 3d 5d f8 3c 3d 3c e7 9c 3d e8 9a e8 3d
       0.05495954 0.046135295 0.07661292 0.11357671
000080 1c 60 0d be 5c 0d a7 bd 9c e0 c3 3c 86 d4 e7 bc
       -0.13806194 -0.08156845 0.023910813 -0.028299581
000090 35 c4 74 bd f2 e6 0d 3e 6a 5e 47 3d 06 01 fb 3c
       -0.05975743 0.1385763 0.048674025 0.030640136
0000a0 36 02 79 3c a3 d4 24 bd eb 0b 7e 3d ff 8c 1d 3c
       0.015198281 -0.04024185 0.062023085 0.009616136
0000b0 6c 3f 61 3b a1 11 70 3c ae 6a 3f 3b 51 8e 22 3d
       0.0034370078 0.014652641 0.0029207873 0.039686505
0000c0 e1 29 27 3e 01 49 98 bd 1f 1d aa bd 1f fc 06 3e
       0.1632457 -0.074357994 -0.08306336 0.13182114
0000d0 f5 23 aa bd 56 c8 ef bd 91 b3 bc bc fe ba 87 bd
       -0.083076395 -0.11708133 -0.023034843 -0.06627463
0000e0 61 fa 49 3c 4a be a1 bc 87 10 f1 3c c0 19 02 3e
       0.012327761 -0.019744057 0.029426826 0.12705135
0000f0 cc ca d3 bd fb fc 90 bd d4 59 62 bc ba 47 f0 bd
       -0.10341415 -0.07079502 -0.013815362 -0.11732431
000100 46 c5 bf 3b 2d 48 ad bd c1 d7 4c bd 72 8c 46 3d
       0.0058523742 -0.08461032 -0.050010446 0.048473783
000110 ef de d6 bd 88 ba fe bd 65 4b a1 3c 4e cb 96 3d
       -0.1049174 -0.12437922 0.019689271 0.07362996
000120 4b 5a 07 be 7d 08 85 bc 4f a7 38 3d db 5b 9a bc
       -0.13218038 -0.0162394 0.045081433 -0.018842628
000130 d6 6d ba bd 7c c6 ed 3c cb 2a 9d bc 9a d1 be bd
       -0.09102981 0.029025309 -0.019185444 -0.09317322
000140 8d ed 02 be 09 91 04 3e 30 03 c5 bd c0 60 dd bd
       -0.12785931 0.12945952 -0.096197486 -0.10809469
000150 7a 48 ec bd 55 70 53 3c cf 3f 3b bd 47 fa fa 3d
       -0.11537261 0.0129052 -0.04571515 0.12254768
000160 41 a6 a9 3c 42 e6 fc 3d 0b 96 91 3d 0a be 09 be
       0.020709159 0.12348606 0.071086966 -0.134514
000170 30 a6 a6 bd 40 d0 ba 3a 0f cb 97 3d 23 a3 17 3e
       -0.081371665 0.0014252737 0.07411777 0.14808325
000180 9a a3 8f 3d 59 fe e2 3d d1 f8 1c 3d e5 20 80 3d
       0.070136264 0.11083669 0.038323227 0.06256274
000190 88 34 ec 3d cb 66 51 bd fa 4b 02 3d 22 8f 96 bc
       0.11533457 -0.05112342 0.03181074 -0.018378798
0001a0 9a 3e 0e 3d 69 e5 5a bd 5a df a2 bd 1f 85 bd 3b
       0.03472767 -0.05344144 -0.07952757 0.0057836915
0001b0 cc 27 c5 bd 3d c9 8e 3d 4d d4 cc bc a2 eb fe 3d
       -0.09626731 0.06971977 -0.025003577 0.12447287
0001c0 d7 29 bf bd a1 c1 7f 3d 9a 40 06 3e fa 1b a2 bc
       -0.09334152 0.06244052 0.13110581 -0.01978873
0001d0 b2 70 a5 bd 82 cf 46 3c 31 3c 67 bd 03 7e 8c bc
       -0.080781356 0.012134435 -0.056453887 -0.01714993
0001e0 f0 ef 38 3d 6b 29 59 3d 1c 09 08 3e ec 33 3d bd
       0.045150697 0.053018015 0.13284725 -0.046192095
0001f0 8e 94 74 3d 9e c4 36 3d ec 1f 0a be 67 b7 03 be
       0.059711985 0.044621103 -0.1348874 -0.12862931
000200 f4 69 22 3d eb ff 0c be 13 a4 f6 3d f8 49 f3 3d
       0.039651826 -0.137695 0.120430134 0.11879343
000210 58 c7 63 3d b5 85 a7 3d c9 99 db bd dd c9 22 3d
       0.05561003 0.081797995 -0.107226916 0.039743293
000220 6e 99 81 3d e3 cf 86 3c f2 c0 e1 3d cb 2c 3f 3d
       0.063280925 0.01645655 0.110231295 0.046673577
000230 0c 68 00 3e 6e db 29 bd e6 eb ea 3d 67 6d 2c bd
       0.1253969 -0.04146903 0.11470775 -0.04209652
000240 1e e7 af bd 3c 0d a0 bd 55 49 fe bd 61 a0 bb bd
       -0.08589004 -0.07815024 -0.12416331 -0.09161449
000250 32 ca e3 3d a6 a3 6f bd d2 90 1c 3d 19 24 16 3e
       0.1112255 -0.058505677 0.03822405 0.14662208
000260 c5 52 80 3d 41 ab a2 bd 87 28 d9 bd 2a a7 18 3e
       0.06265787 -0.0794282 -0.10603433 0.14907518
000270 74 50 9a bb 0e 77 0f bd 53 b7 7c bd ed 4a cb bc
       -0.004709298 -0.03502565 -0.06169827 -0.024816
000280 23 35 6a 3d 0f a7 c6 bd a8 b8 ea bc 4a c3 36 bd
       0.05717958 -0.09699833 -0.028652504 -0.044619836
000290 38 07 7c bd 46 3f a1 3d 99 ca 13 3d 0b 34 88 bd
       -0.06153032 0.078733966 0.036081884 -0.066505514
0002a0 1f 25 71 3d d5 b0 ee bd a8 9b 1c 3d 25 32 20 3c
       0.058873292 -0.11654822 0.038234383 0.00977758
0002b0 fe f6 da bd 72 81 7f bd 11 cf 9e bd 41 ba f0 3d
       -0.10691641 -0.062379308 -0.077543385 0.11754275
0002c0 f3 30 0f 3e 88 60 03 be a6 9b 34 3e 18 33 df 3d
       0.13983516 -0.12829792 0.176375 0.10898417
0002d0 be 95 f8 bd 51 12 03 be cd 4a 13 3e 8d aa 02 3d
       -0.12137936 -0.12799956 0.14384003 0.03190093
0002e0 82 05 ce bd 09 f3 f6 3d 3d 97 ed bd 20 c3 56 bd
       -0.10059644 0.12058074 -0.11601112 -0.05243218
0002f0 18 89 37 3d 08 df b9 bd 0a 4b a8 bd ab d6 c7 3d
       0.044808477 -0.09075743 -0.082174376 0.097577415
000300 22 36 ef 3d 08 0b 19 3d 58 da f5 bd ab 40 2b ba
       0.11680247 0.037364036 -0.120045364 -0.00065327686
000310 2d 6d 30 3d ae 8b 88 bb 6a 6a a1 bd 17 1c e2 3c
       0.04307287 -0.0041670417 -0.07881625 0.027601285
000320 02 80 96 bb 9f d4 b9 bd 79 17 a2 3d 4c a4 00 be
       -0.0045928964 -0.090737574 0.07914633 -0.12562674
000330 63 0b b0 bd 12 bc 47 bc c0 43 75 bd 20 dd 1f 3d
       -0.08595922 -0.012190836 -0.059879065 0.03902924
000340 2a cf d8 bd 91 f4 b2 3d ee 87 47 3d 7c 9c a0 3d
       -0.105863884 0.087380536 0.048713617 0.07842347
000350 88 3b c5 ba 12 ef b6 bd 1f e2 0d bd 1d a9 a0 bc
       -0.0015047649 -0.08932318 -0.034639474 -0.01961189
000360 75 61 f6 3d 5e a5 90 3d 3e c4 2d 3d d5 71 65 3d
       0.12030307 0.07062791 0.04242348 0.05601676
000370 6a a7 be bd 44 0f e8 3d 25 cd b7 3c 4d 5f 65 bd
       -0.093092754 0.11331037 0.022436688 -0.05599909
000380 e5 34 14 3d 7f 59 b6 bd be ba 08 3e 47 43 c9 bd
       0.036183257 -0.08903789 0.13352486 -0.09827285
000390 90 27 03 bd 02 7f a7 bd e4 22 b0 3d bb 54 06 bd
       -0.03202015 -0.08178522 0.08600405 -0.03279565
0003a0 7d 12 9a bc 97 1b 03 be 66 5c 8f bc e3 a9 d1 3c
       -0.018807644 -0.12803493 -0.017500114 0.025593704
0003b0 34 a0 b7 bd 6e e3 a7 bc ba d0 71 3d ca 24 98 bc
       -0.08966103 -0.02049419 0.059036948 -0.01857223
0003c0 71 a1 3c 3b bb f3 b2 bc 3e d5 bb bd cc e0 9a bc
       0.002878275 -0.021844735 -0.09171532 -0.01890602
0003d0 ec fc eb 3d 8e 42 a5 bd ec e2 06 be ef b4 06 be
       0.115228504 -0.08069335 -0.13172501 -0.13154958
0003e0 02 d6 17 3d d8 bc 9c 3b 9c 72 94 bd d6 0c 17 bd
       0.037069328 0.004783254 -0.072484225 -0.036877476
0003f0 3f c0 fc bc a9 6e 47 3d 55 0a 58 3c 1f 15 c9 bd
       -0.030853389 0.048689518 0.013186057 -0.09818482

mlp.2.weight f4 [128, 256]
000000 77 70 b6 3c 14 3d b4 3c 07 5c 76 3d 83 8a 18 bd
       0.022270424 0.02200178 0.060146358 -0.03724147
000010 38 9f 3a bd e9 18 98 bc 7b 87 15 bd e0 24 40 3d
       -0.045562 -0.018566566 -0.036506157 0.046910167
000020 99 17 79 bd 46 8a 9f bc 68 1c 44 bd 04 e0 08 bd
       -0.06081352 -0.019475114 -0.047878653 -0.033416763
000030 a9 ff 74 3c bf 62 6a 3d 04 76 fe 3c 85 91 62 ba
       0.014953532 0.057223078 0.031062134 -0.00086429
000040 4a db 28 bc 8d 22 99 3c 26 17 25 bd c0 0c a5 3d
       -0.010306189 0.018693233 -0.04030528 0.080590725
000050 b8 3a 67 bd 58 33 6e bc 59 32 6d 39 e9 c5 37 3d
       -0.056452483 -0.0145386085 0.00022620837 0.044866476
000060 4d ae 0b bd 5e 40 39 bc 08 61 63 bd 48 17 11 3d
       -0.034101773 -0.01130685 -0.055512458 0.035422593
000070 67 ca 7e bc 56 59 a2 3c b0 59 28 3d 31 4a 03 bd
       -0.015551186 0.01981799 0.041101158 -0.032053176
000080 4d 80 2d 3d e2 f0 56 bd 41 85 89 bd 25 7d 7d 3d
       0.042358685 -0.052475818 -0.06714869 0.061886925
000090 27 17 aa 3c f8 ed 7a bc 72 7c d3 3c d2 0f 95 3b
       0.020762993 -0.015315525 0.025816176 0.004549005
0000a0 ad 8d 02 3c 17 3e ed 3c 1f af 65 3d 15 63 50 bd
       0.007968348 0.02896027 0.05607521 -0.050875742
0000b0 b4 45 5a bd 4f 4e 01 bb 81 6d 62 3d 55 10 0c 3c
       -0.05328913 -0.0019730513 0.055280212 0.008548816
0000c0 88 d7 01 3d 57 17 81 bd 01 59 1d bd 8b 68 ac bd
       0.031699687 -0.0630328 -0.03841496 -0.084183775
0000d0 72 b3 28 bc 15 2a b3 3d f6 7c 98 3c 03 ff 3e 3d
       -0.010296689 0.08748261 0.018614274 0.046629917
0000e0 ae 7c 7f bd 06 fb 2c 3d 6d c5 76 bd f3 39 1d 3d
       -0.062374763 0.042231582 -0.060246874 0.038385343
0000f0 74 6d 12 3d 80 7d 79 ba 27 d3 6c 3d 34 67 a3 bc
       0.035748914 -0.0009517297 0.057818558 -0.019946672
000100 b3 a4 81 bd 3e 9e d0 bb 90 5a ab 3b 76 a3 c1 ba
       -0.06330242 -0.00636652 0.0052293018 -0.0014773447
000110 1f 91 bd 3c d0 57 61 bd ef de f3 bc e0 f7 55 3c
       0.023140488 -0.055015385 -0.029769389 0.013059586
000120 43 17 1c bd b6 5f c3 bd 64 4f d9 3c 4c bd 38 bd
       -0.03810812 -0.0953974 0.026527114 -0.045102403
000130 f8 7d 4b 3c aa 7c de 3a 7b 38 97 bc f3 f7 30 3d
       0.01242017 0.0016974409 -0.01845955 0.043205213
000140 24 6e 97 3d ec 61 fc bc b0 a5 6b 3d cd 9e 35 bd
       0.073940545 -0.030808412 0.05753106 -0.044340897
000150 cb 0f 56 bd 67 a1 47 bd e5 f4 37 bd a2 e8 07 bd
       -0.052261155 -0.04873791 -0.044911284 -0.03318084
000160 2a 3f b0 bc 70 a7 48 3c 41 6a 89 3d f0 2e 2a 3d
       -0.021514494 0.012246951 0.067097194 0.04154867
000170 e9 30 26 3d 9a 0c 53 bd e6 62 c6 3c 76 49 cb bc
       0.040573988 -0.05152569 0.02421708 -0.024815302
000180 19 4a 28 3c 85 b0 ac 3d be e1 08 bd 5f 72 af 3c
       0.0102715725 0.08432106 -0.03341841 0.021416841
000190 38 b0 7e 3a c1 3f ea bb 2d 11 47 bd c2 87 3a 3c
       0.00097155897 -0.0071487133 -0.048600364 0.011384906
0001a0 6e f9 8d 3c 0c 6b 95 3d 69 05 d4 3c 41 d1 14 3d
       0.017330851 0.07295808 0.025881486 0.036332373
0001b0 e7 f2 07 3d c9 66 77 bc 09 18 a0 bb ac a3 46 3d
       0.033190634 -0.0151001895 -0.0048856777 0.048495933
0001c0 66 f3 76 bd b3 c4 96 bc 71 4e 14 3c a9 a4 a4 3c
       -0.060290717 -0.01840434 0.009051905 0.020098047
0001d0 cf 97 93 3c 54 b8 ad bc 74 e7 6f 3d 5f ec a2 bd
       0.018016724 -0.021206059 0.05857034 -0.079552405
0001e0 a8 91 43 bd df 0a e2 38 f4 68 60 3b 63 69 6a 3c
       -0.04774633 0.00010778545 0.0034242244 0.014307353
0001f0 06 54 73 bd ed c7 10 3d 36 2a 5b bd e3 1c 01 bd
       -0.059406303 0.035346914 -0.053507052 -0.03152169
000200 e0 83 43 bd 2a 28 4c bc 89 49 37 3d 79 18 52 3c
       -0.047733188 -0.012460748 0.044747863 0.012823218
000210 c3 79 b6 3c c8 c4 8d 3d 0e c7 7d 3c 46 77 96 3c
       0.022274857 0.06922299 0.015489353 0.01836742
000220 d8 b0 3a 3d 41 8b 4d bd 77 0c c3 bb 3a f7 b0 3d
       0.045578808 -0.05018163 -0.0059524137 0.08640905
000230 c3 57 f9 bb cb 46 bd bc 02 4a 1e 3d dc af 9f 3c
       -0.007609339 -0.023105046 0.038644798 0.019493036
000240 87 f7 2a bd cc 31 80 bd d7 60 cc 3b 93 f8 8f bd
       -0.041739967 -0.06259498 0.00623713 -0.07029834
000250 6a ba b8 bc 5c b6 f6 ba 96 78 28 bb 06 3b fe 3b
       -0.022549827 -0.0018822658 -0.002570664 0.007758501
000260 2a dc ff 3c b9 be 20 bd 7a 23 6e 3c 9b 88 36 bd
       0.031232912 -0.039244387 0.014534825 -0.04456387
000270 cc 37 7c 3d 87 b7 4d bd 39 5e 96 bd 4a 46 53 bd
       0.06157665 -0.050223853 -0.0734219 -0.051580705
000280 a8 1d f7 bc 90 60 71 3d ec 45 25 bd ed 50 43 bd
       -0.030165508 0.05892998 -0.040349886 -0.0476846
000290 9e 8a ed bb e5 82 0f bd f5 65 a8 bc 73 26 a3 bd
       -0.0072491905 -0.03503694 -0.02055643 -0.07966318
0002a0 71 ad 15 3d 5c e6 9a bd 62 6b 86 3c 38 2b ba bc
       0.03654236 -0.07563469 0.016408626 -0.022725686
0002b0 ca b3 91 3d 09 9a 3e 3d 8e 14 a6 3a 6e 0b 7a bd
       0.0711437 0.046533618 0.0012670921 -0.061046056
0002c0 38 d6 6d bd ef b1 49 bc f5 d6 5e 3c 66 4d f4 3c
       -0.058065623 -0.012310489 0.013601054 0.029822063
0002d0 be 89 00 3c 80 d5 e9 b9 4c c6 d2 bc 79 f2 99 3a
       0.00784534 -0.00044600293 -0.025729321 0.0011745236
0002e0 54 78 63 bd 8a 51 1a 3d 6c e0 82 3d c0 12 3b 32
       -0.055534676 0.037675418 0.06390461 1.0889096e-08
0002f0 9b 3e 1a bd 80 5f f9 bc 7a f2 10 bd 2d 7f 50 bd
       -0.03765736 -0.030441046 -0.035387494 -0.050902534
000300 39 90 3b 3d e6 03 63 3c 3d 61 57 bb 47 15 3d 3c
       0.04579184 0.01385591 -0.0032864355 0.011540717
000310 a3 77 f2 bc 92 78 a1 bc a0 49 fa bb 06 6c a8 3c
       -0.029598063 -0.019710813 -0.0076381713 0.020559322
000320 96 1f 35 3d 2c 84 a2 3d b1 ce 98 3d fb e0 c9 3c
       0.044219576 0.07935366 0.07461298 0.024643412
000330 66 c4 27 bd 3d f1 70 bd 06 d6 09 bb be e1 59 bd
       -0.040958785 -0.058823813 -0.002103211 -0.0531938
000340 60 f4 57 bd 83 f3 43 3d 56 34 58 3d fd 25 f7 b9
       -0.05272329 0.047839653 0.052784286 -0.00047139815
000350 58 67 d0 3d 34 94 24 bd cd 9e 62 bd 10 9c e6 3c
       0.10175961 -0.0401804 -0.055327225 0.028150588
000360 39 dd 31 3d 8c 25 8f 3b d4 05 0e bd 65 d5 45 3d
       0.043423865 0.0043684896 -0.034673527 0.048299212
000370 a2 f1 50 bd 31 d2 5f 3d 35 e1 dc 3d 5c 55 42 bd
       -0.05101169 0.054643814 0.10785142 -0.047444686
000380 83 00 4b bc a0 22 d2 3c 73 02 1d 3b ef 11 3f 3d
       -0.012390259 0.025651276 0.0023957759 0.046647962
000390 9b b2 38 3c 10 8f e5 3c b6 0c c3 3b f6 e3 3b bd
       0.011273052 0.02802232 0.005952443 -0.045871697
0003a0 34 3b 2b bc 2a 4e 00 bd 44 a5 9a 3c af a2 96 3d
       -0.010451127 -0.031324543 0.018877633 0.07355248
0003b0 21 f3 6d 3d 2c 78 66 3d 3f 7f 4c 3d d8 2b b2 b9
       0.058093194 0.05626695 0.04992604 -0.00033983472
0003c0 17 5f 9f bc a6 f1 15 3d 47 91 03 3a 21 26 08 bd
       -0.019454522 0.036607407 0.00050189014 -0.033239488
0003d0 b1 c8 90 bd 86 4f 43 3c 89 be 91 ba fd 20 2e bc
       -0.07069529 0.011920815 -0.0011119406 -0.010627982
0003e0 23 c1 f1 bc 77 b4 18 bd a5 02 3f 3d 2a b3 c1 3c
       -0.02951104 -0.03728148 0.04663338 0.023645002
0003f0 b1 51 b0 3c f1 e2 e1 bc 45 a4 6f 3c 18 43 03 3d
       0.021523328 -0.027574034 0.014626567 0.032046407

mlp.2.bias f4 [128]
000000 38 81 4e 3d 30 9d 10 3d 5b 2e 64 bd 9a 10 0a bc
       0.0504162 0.035306156 -0.05570827 -0.00842681
000010 65 ad 31 3c 12 39 a7 bc 2c 05 3e 3d 22 de 5d 3c
       0.010844563 -0.020412955 0.04639165 0.01354173
000020 75 92 8c 3b 44 9d f1 3c 2f 77 20 bd 07 3e 3a bd
       0.00428992 0.029493935 -0.039176162 -0.04546931
000030 7c 60 d6 bc e3 70 1d bd 84 90 7a 3c 2e d9 1f bd
       -0.026169054 -0.038437735 0.015293244 -0.039025478
000040 b9 b8 74 bd 8f e7 27 bd 58 a2 89 bc 40 f4 ae bc
       -0.059746478 -0.040992316 -0.016801044 -0.021356702
000050 a6 f6 3d b9 f1 ea b4 3b 65 cf 6a bd 9a 84 57 bc
       -0.00018116328 0.0055211713 -0.057326693 -0.013154173
000060 64 b8 f5 3c d0 b3 1f bc 6e 1c 9c bc b1 1a 89 3d
       0.02999515 -0.0097474605 -0.019056525 0.06694544
000070 ef 5f 3e bd da 40 a7 bc 94 58 b4 3d a4 ca df 3c
       -0.04647821 -0.020416666 0.088059574 0.027318306
000080 ac 97 88 bd 89 e7 3b 3d 15 20 c6 bc bc 59 db bc
       -0.06669554 0.045875106 -0.02418522 -0.026776187
000090 9c 6a 80 bc e4 ad da bc 95 65 0e 3d f5 9c 1e 3d
       -0.015675835 -0.026694246 0.034764845 0.038723905
0000a0 8f 7f 68 3d 73 60 36 bd 6a 58 8b 3d 33 19 10 bd
       0.056762274 -0.044525575 0.06803973 -0.03518028
0000b0 dc 9c 78 3d c4 9c 43 3d 94 16 43 3d 81 37 5a bd
       0.060696468 0.047756925 0.047628954 -0.05327559
0000c0 80 88 26 3c c3 91 7c 3d f0 70 bd bb 89 77 31 bd
       0.01016438 0.061662447 -0.0057812855 -0.04332689
0000d0 94 10 c9 3c 0e f1 38 3c 5a 03 6c bc 0f 7d 01 3d
       0.024544038 0.011287941 -0.014405096 0.031613406
0000e0 b3 43 4b 3d 5d 43 e2 3c b7 e2 5f bc 93 81 5d 3b
       0.04962511 0.027620012 -0.013664893 0.0033799156
0000f0 b4 55 36 bd f0 d9 79 3a 59 08 fb bc 06 d6 7f bd
       -0.044515327 0.00095310714 -0.030643629 -0.062459968
000100 95 e6 f5 3c 01 e2 a6 3c 58 60 04 bd ac a9 48 bd
       0.030017177 0.020371439 -0.032318443 -0.048989937
000110 1f e9 80 bd c5 f3 9e 3d a5 80 f0 bc 1d 2a 63 3b
       -0.06294464 0.07761339 -0.029358217 0.0034662553
000120 d0 d7 6f bd 62 6d 2b 3d 26 01 38 3d 17 5d 97 bc
       -0.058555424 0.041852362 0.04492297 -0.018477006
000130 2b 69 d9 3c 54 18 68 3d 51 28 4d 3d fa 32 72 3d
       0.026539406 0.056663826 0.050087277 0.059130646
000140 30 8b 43 bd 0b 42 af bb 43 e1 72 3d d1 38 07 bd
       -0.04774016 -0.005348449 0.059296858 -0.03301317
000150 24 9a fa bc cb c6 e3 3c f1 c8 2a 3d ac 52 02 bd
       -0.030591078 0.027804753 0.04169554 -0.031817123
000160 cf 20 90 bd ff ab 2f bd b9 5e 10 bd 24 1f f2 3a
       -0.07037508 -0.042888638 -0.035246585 0.0018472415
000170 1b b3 af bc 51 4b 6c 3c 11 d8 c9 3c c0 36 c6 bb
       -0.021447709 0.014422254 0.024639161 -0.006049007
000180 a0 ae 10 3d 98 b8 06 3c ed ce 5c 3c ee e2 09 3d
       0.035322785 0.0082227215 0.013477069 0.033663683
000190 c1 26 02 3d 98 0f 88 3d 73 17 50 3d 85 5a 8f 3d
       0.03177524 0.06643599 0.050803613 0.06999687
0001a0 8e 17 4d 3d f1 bc e5 3c 77 a2 64 bc 71 ae c5 3d
       0.05007129 0.028044196 -0.01395475 0.09652413
0001b0 f7 c4 68 3c 43 c2 51 3d d5 ba 85 3d 52 a0 b2 bc
       0.014207116 0.051210653 0.06529776 -0.021804962
0001c0 a8 7b a0 3c ee 5c c0 3c 39 7a eb bc 8c 33 a9 bc
       0.019590214 0.023481812 -0.028744804 -0.020654462
0001d0 7a 7b 99 3d 71 f5 51 3d 9c e0 0b 3b 10 8e 48 3d
       0.074942544 0.05125946 0.0021343594 0.048963606
0001e0 b6 5b 2a bd 08 7c 08 bd 1a 51 eb bb 9d af 36 bd
       -0.04159137 -0.03332141 -0.007181299 -0.04460107
0001f0 c6 fb 7f bd 8f c0 5b 3d 48 d1 3d bd 4c b1 05 3c
       -0.06249597 0.053650435 -0.046342164 0.008159947
