weights/steps_100001.pth (torch, 276355 bytes, 10 tensors)

lstm.weight_ih_l0 f4 [192, 7]
0	0xbdaba862	-0.08381726
1	0xbdb697c5	-0.089156665
2	0xbdd8dd86	-0.10589127
3	0xbd464e61	-0.04841459
4	0x3e22d62b	0.15902011
5	0xbda67dc1	-0.081294544
6	0xbd89b81e	-0.06724571
7	0xbdb93048	-0.09042412
8	0xbe09cac9	-0.13456263
9	0xbdd1a5bc	-0.102366894
10	0xbd41abd4	-0.04728301
11	0xbb5c7c64	-0.0033643479
12	0x3db9ee9b	0.090787135
13	0xbcf393f7	-0.029733641
14	0x3d70e970	0.058816373
15	0x3da0b27a	0.07846542
16	0xbb17c5bc	-0.002315863
17	0x3ca7ce3d	0.020484084
18	0x3d8b1488	0.067910254
19	0x3d38b62e	0.045095615
20	0x3d67be60	0.05657804
21	0xbdc9e02b	-0.0985721
22	0x3c5fb136	0.01365309
23	0x3d983208	0.07431418
24	0x3e0154ce	0.12630007
25	0x3e1a0ba8	0.15043509
26	0x3dba8648	0.09107643
27	0x3dc3fa1d	0.0956919
28	0x3d835b39	0.06413884
29	0x3ddd88d1	0.10817111
30	0xbd3e134a	-0.046405114
31	0xbd2d1106	-0.042252563
32	0x3aeb137a	0.0017934882
33	0x3deb3129	0.11483986
34	0xbd0902b5	-0.033449847
35	0xbca284c5	-0.0198387
36	0xbdb4156b	-0.08793148
37	0x3dbec36f	0.0931462
38	0xbdc1d850	-0.094650865
39	0x3dd7b536	0.1053261
40	0xbd02c2f3	-0.0319242
41	0x3dbed44f	0.093178384
42	0xbd5e9753	-0.054343533
43	0x3c817336	0.015802007
44	0x3d0f3b2a	0.034968533
45	0x3d88ccbf	0.06679677
46	0x3e15e291	0.1463721
47	0xbdcf6b47	-0.101278834
48	0xbd8f7e44	-0.07006505
49	0x3c8233f8	0.015893921
50	0xbd790e7c	-0.06080483
51	0xbdcfd11b	-0.101473056
52	0xbd106eb5	-0.03526183
53	0xbdb09447	-0.08622032
54	0xbdd06053	-0.101746224
55	0xbc871656	-0.016490143
56	0xbdb7daa6	-0.08977251
57	0x3d9a9985	0.07548813
58	0x3d1ec76e	0.03876441
59	0xbdc2cc8d	-0.09511671
60	0x3d7d1762	0.061789878
61	0xbd68c979	-0.056832764
62	0xbd19d7d3	-0.03755934
63	0x3e32beca	0.17455593
64	0x3c2d07d4	0.010560948
65	0x3d371534	0.044697955
66	0x3d0d290e	0.03446298
67	0xbc83ae89	-0.016074436
68	0x3e2e095d	0.1699576
69	0xbd6d2357	-0.05789503
70	0xbd55fa53	-0.05224068
71	0xbdac09f8	-0.08400339
72	0x3c177c89	0.009246
73	0x3e0335ce	0.12813494
74	0x3e23567a	0.15950957
75	0xbd7324f8	-0.059361428
76	0x3e17d985	0.14829071
77	0xbdd6ecc3	-0.104943775
78	0x3cfdbc1a	0.030973483
79	0x3dc01f66	0.09380989
80	0xbd1dac22	-0.038494237
81	0x3d58b59d	0.052907575
82	0x3dacdd94	0.084407
83	0xbb24b103	-0.0025129921
84	0xbd0a03ff	-0.033695217
85	0x3ca2c023	0.019867009
86	0xbe0f9866	-0.14022979
87	0xbc84ab1b	-0.01619487
88	0xbd4fbcf3	-0.050717305
89	0x3d540e8d	0.05177169
90	0xbde486cc	-0.11158523
91	0x3d8c6664	0.06855467
92	0x3cda333c	0.026635759
93	0x3cc9defa	0.024642456
94	0x3b2ddd39	0.0026529564
95	0xbdf3f5de	-0.1191213
96	0x3da935c5	0.08262209
97	0xbdecd92e	-0.11564861
98	0xbbabebb7	-0.0052466053
99	0xbd122bd0	-0.035686314
100	0x3db50bf8	0.088401735
101	0xbdcdbbc5	-0.1004558
102	0xbd8646f5	-0.06556503
103	0xbcd00c3e	-0.025396463
104	0x3e2e1e82	0.17003825
105	0xbe0983f0	-0.13429236
106	0xbe0f32a0	-0.13984156
107	0xbdca9741	-0.09892131
108	0x3d196a05	0.037454624
109	0xbdb3eaf9	-0.08785052
110	0x3e00937e	0.12556264
111	0xbd910f76	-0.07083027
112	0x3d94fe7b	0.07275101
113	0x3dddd23f	0.10831117
114	0x3d9af4cb	0.07566222
115	0xbd9bf16b	-0.07614406
116	0x3ca3be93	0.019988334
117	0x3b80832d	0.0039218874
118	0x3e1e180e	0.15438864
119	0xbdb2f398	-0.08737868
120	0xbdefc5c7	-0.11707645
121	0x3dcb38df	0.09922957
122	0x3d8a26fb	0.06745716
123	0x3dfa2cdc	0.122155875
124	0x3e10e34d	0.14149208
125	0x3e1699e3	0.1470714
126	0xbdaa78bc	-0.083238095
127	0x3d4e2a0f	0.05033308
128	0x3df1305f	0.11776804
129	0xbd949c16	-0.072563335
130	0x3e0220c5	0.12707813
131	0x3d6c2f3b	0.05766223
132	0x3c5aca71	0.01335393
133	0x3e058b72	0.13041475
134	0x3e1114ff	0.14168166
135	0x3d9ab8dd	0.07554791
136	0xbd323f37	-0.043517318
137	0xbd42ba36	-0.047540866
138	0x3e10df4d	0.14147682
139	0x3e309eef	0.17248128
140	0xbd7e241e	-0.062046163
141	0x3d67d6e7	0.05660143
142	0x3d4e632f	0.050387558
143	0x3d302598	0.043004602
144	0x3d80b6c4	0.0628486
145	0xbdcbc26d	-0.09949193
146	0x3d93c655	0.07215563
147	0xbd518d42	-0.051160105
148	0xbd7ef0e4	-0.06224145
149	0x3c650b88	0.0139798
150	0xbd3f867b	-0.04675911
151	0x3bce9e02	0.006305457
152	0xbd494493	-0.049137663
153	0xbcea0b75	-0.028569916
154	0xbddf3c63	-0.1090019
155	0xbdc0bcf7	-0.09411042
156	0xbde19066	-0.1101387
157	0xbdadeec3	-0.08492806
158	0x3d9d035d	0.07666657
159	0xbda2d161	-0.07950092
160	0x3bbbd69e	0.0057323715
161	0x3ca77982	0.020443682
162	0xbc6ee3d1	-0.014580683
163	0xbc1f4e87	-0.009723312
164	0x3c937ae1	0.01800293
165	0x3e09f25c	0.13471359
166	0xbd04e6ca	-0.03244666
167	0x3e08e575	0.13368781
168	0x3e1996bc	0.14998907
169	0x3daf5696	0.08561437
170	0x3d76d658	0.060263008
171	0xbdc3def2	-0.09564008
172	0x3d012268	0.031526953
173	0x3e0b7916	0.1362041
174	0xbd8eee73	-0.06979074
175	0x3ded86a2	0.11597945
176	0x3e1d6955	0.15372212
177	0x3d4f2773	0.05057473
178	0x3e08c28a	0.13355461
179	0x3cdcaf10	0.026938945
180	0xbded0b32	-0.11574401
181	0x3bcc5b60	0.0062364787
182	0x3e0c9677	0.13729273
183	0xbd5ea876	-0.054359876
184	0x3d95c378	0.07312673
185	0x3dcc3371	0.09970749
186	0x3df1c0ec	0.11804375
187	0x3dbe34b2	0.092873946
188	0x3e032374	0.12806493
189	0xbcd4d9cc	-0.02598276
190	0x3dfe7935	0.12425462
191	0x3c7e5cec	0.015525084
192	0x3d71ad80	0.059003353
193	0xbd24869b	-0.040167432
194	0x3e06b05d	0.13153215
195	0x3d8a5a85	0.067555465
196	0x3db3708a	0.087616995
197	0xbc06f9de	-0.008238284
198	0xbd9345af	-0.071910255
199	0xbd5a60c5	-0.053314943
200	0x3deea864	0.11653212
201	0x3c89cf87	0.01682259
202	0x3e162445	0.14662273
203	0x3e05a971	0.13052918
204	0x3d8401fe	0.064456925
205	0x3d6f983a	0.058494784
206	0x3bc82c26	0.0061087785
207	0x3cb56664	0.02214355
208	0x3e18bc6b	0.14915626
209	0xbdc69dd2	-0.096980706
210	0x3c7c721a	0.015408063
211	0xbde5bd78	-0.11217779
212	0x3dd84b28	0.1056121
213	0xbcb9f76a	-0.022700984
214	0x3da19745	0.078901805
215	0x3d72bcd1	0.0592621
216	0x3e215e12	0.15758541
217	0xbd91e336	-0.07123415
218	0xbcceabf0	-0.02522847
219	0xbbb9f9d7	-0.005675535
220	0x3d98f1ce	0.074679956
221	0x3d4d0bcb	0.050060075
222	0xbdc09da7	-0.0940507
223	0x3e1aa0a1	0.15100338
224	0x3d4cfdee	0.050046854
225	0x3e06d743	0.13168053
226	0x3b890e06	0.00418258
227	0x3bd282dd	0.0064242915
228	0x3e2c4a63	0.16825251
229	0xbd5a12c8	-0.053240567
230	0xbd2e1eb7	-0.04250976
231	0x3d66a70c	0.056311652
232	0xbacde4f1	-0.0015708489
233	0xbd6b63b3	-0.057468127
234	0x3d258dea	0.040418543
235	0xbdae7be5	-0.08519725
236	0x3c995b4b	0.01872029
237	0x3dd28470	0.10279167
238	0xbd155ea7	-0.03646722
239	0xbda29b27	-0.07939749
240	0xbd18210a	-0.037140884
241	0xbc2846b7	-0.010270766
242	0xbcb7045f	-0.022340951
243	0xbe04a32d	-0.12952872
244	0xbc3aa1ba	-0.011391098
245	0xbdd7eec0	-0.10543585
246	0x3dcf255f	0.1011455
247	0x3c8d7004	0.017265327
248	0xbd23a4f0	-0.03995222
249	0x3e1e2651	0.15444304
250	0x3def0ec0	0.11672735
251	0xbce9375d	-0.028468782
252	0xbdd27bfd	-0.10277555
253	0xbd826573	-0.06367006
254	0x3dff3f6c	0.12463269
255	0x3ce724d7	0.028215809

lstm.weight_hh_l0 f4 [192, 48]
0	0x3dd4d5b7	0.10392325
1	0x3dbbbe30	0.09167135
2	0xbdd8ded7	-0.10589378
3	0x3d40cde5	0.047071356
4	0x3d30d2db	0.043169837
5	0xbdfd2dc9	-0.123622485
6	0xbe1c9506	-0.15291223
7	0x3cbe2f6f	0.023215977
8	0xbd0c3f39	-0.03423998
9	0x3d148f52	0.036269493
10	0xbc9dc596	-0.019259255
11	0x3d4e319d	0.050340284
12	0x3dcd64c4	0.10028985
13	0x3d3cc4bc	0.046086058
14	0xbd938bbe	-0.07204388
15	0x3de37a22	0.11107279
16	0xbd20b376	-0.039233647
17	0x3dcec714	0.10096565
18	0xbd2bc5c4	-0.04193665
19	0xbdeb0079	-0.114746995
20	0x3d14cafb	0.03632639
21	0x3dd457cc	0.103683084
22	0x3d05e674	0.03269048
23	0xbd3231ea	-0.043504633
24	0x3cadc023	0.021209782
25	0x3d595edd	0.053068984
26	0xbd8b77cd	-0.068099596
27	0xbb15fa0e	-0.002288464
28	0xbe158fac	-0.14605588
29	0xbdfdad32	-0.1238655
30	0xbcdf5e2f	-0.02726659
31	0xbdbd1c8a	-0.09233959
32	0xbd060dfd	-0.032728184
33	0xbd75cb5c	-0.06000839
34	0xbdd1d63a	-0.102459386
35	0xbcb8dfd6	-0.02256767
36	0x3dc2bd76	0.09508793
37	0xbdc719ec	-0.09721741
38	0xbe1e5d33	-0.1546524
39	0xbcaad444	-0.02085317
40	0xbdae7489	-0.08518321
41	0xbbcfad6c	-0.006337812
42	0xbe4479b8	-0.19187057
43	0xbd56698c	-0.05234675
44	0x3d34365e	0.04399716
45	0xbdac9ab8	-0.08427948
46	0x3b8b421a	0.0042498233
47	0x3dc23b54	0.09483972
48	0xbdc36af9	-0.09541888
49	0xbd074f8c	-0.033034846
50	0xbd94093a	-0.07228322
51	0x3d9c2eb0	0.076260924
52	0xbdac0e58	-0.08401173
53	0xbb22fbb0	-0.0024869256
54	0x3de26615	0.11054627
55	0xbe2831df	-0.16425274
56	0x3c99669f	0.018725691
57	0xbd02350a	-0.031788863
58	0x3e0284f9	0.12746038
59	0xbd0f5d67	-0.035001185
60	0x3dd5ef5b	0.10446044
61	0xbd8f2939	-0.069902845
62	0x3dbbde8b	0.09173306
63	0xbd6e5c5a	-0.058193542
64	0x3e046a11	0.12931086
65	0x3dd3bc54	0.10338655
66	0x3c5b4bd7	0.013384781
67	0xbde6cc44	-0.11269429
68	0x3db202b3	0.08691921
69	0x3e34ba5f	0.1764922
70	0x3d0b7c3d	0.03405403
71	0xbddad5fe	-0.10685347
72	0x3bac8f80	0.00526613
73	0xbdf56f21	-0.11984087
74	0xbd891ed1	-0.06695331
75	0xbdfb1a22	-0.12260844
76	0xbe013db5	-0.12621196
77	0xbd8eeb1a	-0.06978436
78	0xbd2bc0bd	-0.041931856
79	0x3d8c5c14	0.068535
80	0xbde8f16f	-0.11374175
81	0xbd676ca9	-0.05650011
82	0x3d5e798b	0.05431513
83	0x3c0644bb	0.008195098
84	0xbda603fe	-0.0810623
85	0xbb28aaf9	-0.0025736673
86	0x3d8b14ea	0.067910984
87	0x3e128359	0.14307918
88	0x3c57f527	0.0131810075
89	0x3ccafa3a	0.02477752
90	0x3b441bec	0.002992387
91	0xbd804bde	-0.062644705
92	0x3d45df70	0.04830879
93	0xbd8c5bfc	-0.06853482
94	0xbe275849	-0.16342272
95	0xbd384a8c	-0.04499297
96	0xbc76e2ec	-0.015068751
97	0xbdaf47d8	-0.08558625
98	0x3db99ee5	0.0906351
99	0xbd738b26	-0.059458874
100	0xbdbdeec1	-0.09274054
101	0xbdfe8e0a	-0.124294356
102	0xbd5992c7	-0.053118493
103	0x3cb5d8cc	0.022198103
104	0x3d4bf603	0.049795162
105	0xbc4fe968	-0.012689926
106	0x3e17fbb2	0.14842108
107	0xba8bbc63	-0.0010661002
108	0x3d62817c	0.055299267
109	0x3c6b64d2	0.014367299
110	0xbcc75e5b	-0.024336984
111	0xbdf14954	-0.11781564
112	0x3d6b39a5	0.05742802
113	0xbe03849e	-0.12843558
114	0xbdbb8db0	-0.09157884
115	0xbd1f10aa	-0.03883425
116	0xbdc75be7	-0.09734326
117	0x3d0ab711	0.033865992
118	0xbbdf3b8c	-0.0068125185
119	0xbe032038	-0.12805259
120	0xbd837956	-0.06419627
121	0xbbc0287f	-0.0058642025
122	0xbe11e573	-0.14247684
123	0xbe4475fa	-0.1918563
124	0xbdf5954b	-0.11991366
125	0xbdd0c60c	-0.101940244
126	0x3d9f825e	0.077885374
127	0x3c64f2ce	0.013973905
128	0x3e0fa1d8	0.14026582
129	0x3e0fdc54	0.14048892
130	0xbd566267	-0.052339938
131	0xbd814008	-0.06311041
132	0x3da01ed1	0.07818378
133	0x3d4a1b54	0.04934247
134	0x3cd2502a	0.02567299
135	0x3dde4a3f	0.10854005
136	0xbbc56d3e	-0.0060249856
137	0x3e0832b8	0.13300598
138	0x3d9ec3b5	0.07752172
139	0x3e2e5004	0.17022711
140	0xbb4e09ac	-0.003143887
141	0xbd2c7593	-0.042104315
142	0xbde85c12	-0.11345686
143	0xbd2e4df5	-0.042554814
144	0x3c938eb0	0.018012375
145	0x3c7685b9	0.01504653
146	0xbd3edacb	-0.046595376
147	0x3ccbc529	0.024874287
148	0xbe2b6069	-0.16735996
149	0xbe4411ec	-0.19147462
150	0xbd6ca95d	-0.057778705
151	0xbe1f76d6	-0.15572676
152	0xbc8ce2f0	-0.017198056
153	0x3e258591	0.16164233
154	0x3d3923e1	0.045200232
155	0xbe214750	-0.1574986
156	0x3dcbe6c4	0.099561244
157	0x3cf5cf4d	0.030006075
158	0x3d3a3b2f	0.045466598
159	0xbc3845c6	-0.011247104
160	0x3d28227b	0.04104851
161	0xbe0655d5	-0.1311868
162	0x3e163ba8	0.14671195
163	0xbd26350e	-0.04057794
164	0x3d2a3789	0.04155687
165	0x3e212dfe	0.15740201
166	0xbda1271d	-0.078687884
167	0xbe1e590b	-0.15463655
168	0xbdd1327c	-0.10214707
169	0xbab2259c	-0.0013591531
170	0xbbded486	-0.006800237
171	0x3ca20323	0.019776886
172	0xbd9380cd	-0.07202301
173	0xbe268681	-0.16262247
174	0x3d44e7e2	0.048072703
175	0x3e0c7d37	0.1371964
176	0x3daa0dfe	0.0830345
177	0x3d091ee1	0.033476714
178	0xbc2a7fa9	-0.010406413
179	0x3d09ccd0	0.03364259
180	0x3d1b34b4	0.03789206
181	0xbe1feb97	-0.15617214
182	0x3ca727fd	0.02040481
183	0x3df36352	0.11884178
184	0x3e3a8643	0.1821528
185	0xbd9938ae	-0.07481514
186	0x3cdf98b1	0.027294489
187	0xbdb0b1da	-0.086276725
188	0x3b849cbe	0.0040470054
189	0xbdaf472c	-0.08558497
190	0xbe1f141b	-0.15535013
191	0x3e11a28c	0.14222163
192	0x3e43dd9b	0.19127505
193	0xbd2c746d	-0.04210322
194	0x3e00cadb	0.12577383
195	0xbd500c7d	-0.05079316
196	0xbdc3159a	-0.095256045
197	0xbdcb9943	-0.09941342
198	0xbe0b0113	-0.13574629
199	0xbda31011	-0.07962049
200	0x3da22571	0.07917298
201	0x3d899ef2	0.067197695
202	0x3e303513	0.17207746
203	0x3d51ae38	0.05119154
204	0xbd94e398	-0.072699726
205	0x3c8495d1	0.01618472
206	0x3e41f56b	0.18941276
207	0xbe40dec2	-0.18834975
208	0x3da4dadb	0.08049556
209	0xbe47fa37	-0.19529043
210	0x3e26b544	0.16280085
211	0xbd470b3f	-0.04859471
212	0xbdd2cbf9	-0.10292811
213	0xbd8ec300	-0.06970787
214	0x3e067d84	0.13133818
215	0xbe03cf8e	-0.12872145
216	0xbd92f465	-0.07175521
217	0x3e36c6d0	0.17849278
218	0xbe181066	-0.14850006
219	0xbe295811	-0.16537501
220	0x3d92ce30	0.071682334
221	0xbd30fd21	-0.043210153
222	0xbd450ecb	-0.04810981
223	0x3d6fcf28	0.05854717
224	0xbd303e1e	-0.04302799
225	0xbd8532d0	-0.06503832
226	0xb96721f2	-0.00022042522
227	0x3e26fd65	0.163076
228	0x3d026df2	0.031843133
229	0xbd765941	-0.060143713
230	0x3d866df9	0.06563944
231	0xbdbf028d	-0.093266584
232	0x3dbbaa10	0.09163296
233	0xbd7a7931	-0.061150733
234	0xbdea3dcb	-0.11437567
235	0x3d46a4c1	0.048496965
236	0x3c833d97	0.01602058
237	0x3dac8058	0.08422917
238	0xbe41a77d	-0.18911548
239	0xbd092960	-0.033486724
240	0x3c76e87f	0.01507008
241	0xbe355972	-0.17709902
242	0x3db187a8	0.086684525
243	0xbcf7d7fd	-0.030254358
244	0x3b4421aa	0.0029927292
245	0xbe1ad584	-0.15120512
246	0x3d0004ad	0.03125446
247	0x3d516990	0.051126063
248	0xbe232fc1	-0.15936185
249	0x3d9a1610	0.07523739
250	0x3e38a4ca	0.18031612
251	0x3da66799	0.081252284
252	0x3d83733b	0.06418463
253	0xbcf82b54	-0.030294098
254	0xbdb9f391	-0.0907966
255	0xbdb5888f	-0.08863937

lstm.bias_ih_l0 f4 [192]
0	0x3d87239e	0.0659859
1	0x3d81b47f	0.06333255
2	0xbd72c972	-0.059274144
3	0xbd70fe1b	-0.058836084
4	0xbd4ad62a	-0.04952065
5	0xbd5ba134	-0.053620532
6	0x3db505c8	0.08838993
7	0x3d191706	0.037375472
8	0x3d987fbf	0.07446241
9	0x3dd239b2	0.10264911
10	0x3d0849a2	0.033273347
11	0xbdfbe0d6	-0.122987434
12	0xbd95d40c	-0.07315835
13	0x3d9c6e9c	0.076382846
14	0xbd7fb2a3	-0.06242622
15	0x3d251ae8	0.040308863
16	0xbd9973a4	-0.0749276
17	0x3d739931	0.059472267
18	0x3ded466e	0.11585699
19	0xbb819f6a	-0.003955771
20	0x3e1c01db	0.15235083
21	0x3d860871	0.06544579
22	0x3e0339b6	0.12814984
23	0x3da7f24b	0.082005106
24	0xbd6c9cde	-0.057766788
25	0x3cf26b7b	0.029592266
26	0x3e05e9f2	0.13077524
27	0x3dd66976	0.10469334
28	0xbb0f729b	-0.0021888379
29	0x3c742a54	0.01490267
30	0xbdce337d	-0.10068414
31	0x3e02c3a0	0.12769938
32	0xbdb78f25	-0.089628495
33	0x3ab64365	0.0013905583
34	0x3de15709	0.11002929
35	0xbd4838c0	-0.048882246
36	0xbddbac33	-0.10726204
37	0x3dbf0d3a	0.09328695
38	0xbd8368cd	-0.064164735
39	0x3da31dbf	0.07964658
40	0xbda5c7cd	-0.080947496
41	0x3e348e51	0.17632414
42	0x3dbbf363	0.09177282
43	0xbcde2556	-0.027117413
44	0x3d529a9d	0.051416982
45	0x3d3937e5	0.04521932
46	0x3d7f642b	0.062351387
47	0xbdbb66f1	-0.09150494
48	0x3cf20d36	0.029547315
49	0x3d739e65	0.05947723
50	0x3d12d1ed	0.035844732
51	0x3e122f99	0.1427597
52	0xbc9800ae	-0.018555012
53	0xbdc74b89	-0.09731204
54	0x3df019f1	0.11723698
55	0x3e0b7b6a	0.13621297
56	0x3c262187	0.0101398295
57	0x3e18ca16	0.1492084
58	0xbc20f8c8	-0.009824939
59	0xbdca2db0	-0.098719954
60	0x3d5b3164	0.0535139
61	0x3d04ccbd	0.032421816
62	0xbcbbcc2f	-0.02292451
63	0x3dd106f4	0.10206404
64	0x3ddd0204	0.107914
65	0xbce08a86	-0.027409803
66	0xbd9fff09	-0.07812316
67	0xbdb8c930	-0.090227485
68	0x3d6c2237	0.057649817
69	0x3e3096d9	0.17245044
70	0x3ced5e15	0.028975526
71	0x3e243af5	0.16038115
72	0x3d1d0bb1	0.038341228
73	0xbd6fc3b7	-0.058536258
74	0x3da5a776	0.08088581
75	0xbd19c804	-0.037544265
76	0x3e0c0597	0.13674007
77	0x3c4b6375	0.012413849
78	0x3db483bc	0.08814189
79	0xbdd182da	-0.10230036
80	0xbbe9a6a7	-0.007130462
81	0xbdb9338f	-0.09043037
82	0xbd8e5ccc	-0.06951293
83	0x3e00859a	0.12550965
84	0xbd98df05	-0.074644126
85	0x3e30ff8d	0.17284985
86	0x3e0be6e7	0.13662301
87	0xbd16173e	-0.03664326
88	0x3e256a51	0.16153838
89	0xbda702c0	-0.081548214
90	0x3df0328f	0.11728393
91	0x3d2c8d63	0.042127024
92	0xbd95b0e3	-0.07309129
93	0xbdc167e0	-0.09443641
94	0x3bded08f	0.0067997645
95	0x3dbb1861	0.09135509
96	0x3cf365d0	0.029711634
97	0x3d05f473	0.032703828
98	0x3df92acb	0.12166365
99	0xbd9d372c	-0.07676539
100	0x3dcc0b92	0.09963144
101	0x3d5089d2	0.050912686
102	0xbcd592cd	-0.026070977
103	0xbd96c0ed	-0.073610164
104	0x3df2142a	0.11820252
105	0xbd013fc2	-0.031554945
106	0xbd81bee2	-0.06335236
107	0xbe133273	-0.14374714
108	0xbc11e9c6	-0.008905834
109	0x3d205e76	0.039152585
110	0xbd140c4a	-0.036144532
111	0x3e06e0f0	0.13171744
112	0x3e1213d9	0.14265384
113	0x3e12a769	0.14321674
114	0x3d69c787	0.05707505
115	0xbdeb517e	-0.11490153
116	0xbcd4b95a	-0.025967289
117	0xbcce8f56	-0.025214832
118	0x3dcb4b0f	0.09926426
119	0xbe064491	-0.13112094
120	0x3d47beb5	0.048765857
121	0xbce47444	-0.027887471
122	0xbdbd64ac	-0.09247717
123	0xbd85a68b	-0.06525906
124	0xbe05ae53	-0.1305478
125	0xbdcc9b6d	-0.099905826
126	0xbd49ab85	-0.04923584
127	0x3e08de2a	0.13365999
128	0x3d9f1d91	0.07769311
129	0x3d9103b0	0.070807815
130	0xbe042628	-0.1290518
131	0x3d86a0a7	0.06573611
132	0xbcfa6ddd	-0.030569965
133	0xbd1e31b4	-0.03862162
134	0xbe04b697	-0.12960277
135	0x3de816ec	0.11332497
136	0x3d7b54f4	0.061360314
137	0xbdb91616	-0.09037416
138	0x3ded27c2	0.11579849
139	0xbcb03a06	-0.021512043
140	0xbcbd0f66	-0.023078632
141	0xbdd6ebef	-0.104942195
142	0xbe0560eb	-0.13025253
143	0xbc161228	-0.009159602
144	0x3e3a8b41	0.18217184
145	0x3decf3af	0.115699165
146	0x3deb2663	0.11481931
147	0x3e204478	0.15651119
148	0xbddaac1e	-0.1067736
149	0xbc967c18	-0.01836972
150	0x3d20acf5	0.039227445
151	0x3d19ac67	0.03751793
152	0x3ce0a2a8	0.02742131
153	0x3dd10e8e	0.10207854
154	0xbde55c00	-0.11199188
155	0xbd23ebf0	-0.04001993
156	0x3db59f01	0.08868218
157	0xbd1f33b6	-0.038867675
158	0x3e3902a1	0.18067409
159	0x3e2f24c3	0.17103867
160	0xbd8e6914	-0.06953636
161	0x3e358165	0.17725141
162	0xbbc3eee9	-0.005979408
163	0xbdc42490	-0.09577286
164	0x3d945cf8	0.07244295
165	0x3df57e4f	0.11986982
166	0x3da9c9c3	0.08290436
167	0x3cb576e2	0.022151414
168	0x3cd6508d	0.026161456
169	0x3e301672	0.17196062
170	0x3de26959	0.1105525
171	0xbd04a715	-0.032385904
172	0xbd12eb15	-0.035868723
173	0xba5b4bd8	-0.00083654886
174	0x3d1dd13f	0.03852963
175	0x3e09292d	0.13394614
176	0xbd422bb6	-0.047404967
177	0x3df9ea04	0.12202838
178	0x3e2cee7a	0.16887847
179	0xbb8fd417	-0.0043892968
180	0x3ddfd976	0.10930149
181	0x3dd2b8fb	0.102891885
182	0x3e1c41dd	0.152595
183	0xbdb94413	-0.09046187
184	0x3c8288f4	0.015934445
185	0x3e56d89a	0.20981064
186	0x3d47a8a8	0.048744828
187	0x3d929108	0.07156569
188	0xbcf56680	-0.029956102
189	0xbd7330ff	-0.0593729
190	0x3e0e7556	0.13911948
191	0x3d848460	0.06470561

lstm.bias_hh_l0 f4 [192]
0	0x3dbb14a2	0.09134795
1	0x3dc8c71e	0.098036036
2	0x3d4b0ab1	0.049570743
3	0xbd2c9811	-0.04213721
4	0x3cfd73c1	0.030938985
5	0x3e0ee0f6	0.13953003
6	0x3ca10d15	0.019659558
7	0xbd2364f9	-0.039891217
8	0x3e0cec63	0.1376205
9	0x3db2aa57	0.08723896
10	0x3d1991bc	0.0374925
11	0x3dca3bab	0.09874662
12	0xbdce14b2	-0.10062541
13	0x3e02d8e6	0.12778053
14	0xbd9d48fb	-0.076799355
15	0x3d3c22c6	0.0459316
16	0x3d548440	0.051883936
17	0xbc012a25	-0.007883583
18	0x3d2a7e52	0.041624375
19	0xbd182c41	-0.03715158
20	0x3d953020	0.0728457
21	0xbde82e2b	-0.11336931
22	0x3c02180a	0.007940302
23	0xbd4b711e	-0.049668424
24	0xbd8a5885	-0.06755165
25	0x3dbd786e	0.09251486
26	0xbc712108	-0.014717348
27	0xbce28523	-0.027651375
28	0x3da4e8b7	0.08052199
29	0xbd84570b	-0.06461915
30	0xbdec813b	-0.11548086
31	0x3dad394d	0.08458195
32	0x3de60236	0.112308905
33	0x3d7ceb56	0.06174787
34	0x3e1f87c3	0.15579133
35	0x3e27d135	0.163884
36	0xbdcd5d49	-0.10027558
37	0xbcebf210	-0.028801948
38	0x3ddb5053	0.1070868
39	0x3c5801e4	0.0131840445
40	0xbaca5eac	-0.0015439591
41	0x3e077589	0.1322843
42	0x3e2c44b5	0.16823085
43	0xbbc504fd	-0.0060125575
44	0x3e1ff3ae	0.156203
45	0x3da74511	0.0816747
46	0xbdc4dc9f	-0.09612393
47	0x3e01fd7d	0.12694354
48	0x3e0b235a	0.13587704
49	0xbdb42e02	-0.08797838
50	0xbda44e43	-0.0802274
51	0x3c89cd4a	0.016821522
52	0x3d3d1269	0.046160135
53	0xbde7c44a	-0.11316736
54	0x3e02c942	0.12772086
55	0x3dc4b5b7	0.09604972
56	0x3aab4074	0.0013065473
57	0xbdab9b20	-0.08379197
58	0x3c07a6b1	0.008279488
59	0x3d95a2fb	0.07306477
60	0x3d54746c	0.05186884
61	0x3e043c1f	0.1291356
62	0x3db248e2	0.087053075
63	0xbd967c8a	-0.07347973
64	0xbd4d5cc5	-0.0501373
65	0xbc093604	-0.008374695
66	0x3e12166f	0.1426637
67	0xbdb4e91c	-0.088335246
68	0xbddf16b3	-0.108930014
69	0x3e28293e	0.16421983
70	0xbceba02a	-0.028762896
71	0x3dd1f0e9	0.10251028
72	0xbce12981	-0.02748561
73	0xbd0247e4	-0.03180684
74	0x3e1b3f44	0.15160853
75	0x3c2c5b95	0.010519882
76	0xbda8e55d	-0.082468726
77	0x3d94b64b	0.07261332
78	0x3b494519	0.0030711351
79	0xbdd262e9	-0.10272772
80	0xbd803c2d	-0.062614776
81	0x3dbb1da1	0.09136511
82	0xbd9b3dc2	-0.07580139
83	0xbd57e144	-0.052705064
84	0xbcd278c1	-0.025692346
85	0x3da4ccb1	0.08046854
86	0xbcd0c196	-0.025482934
87	0xbd3636c6	-0.04448583
88	0x3da74e04	0.08169177
89	0x3d56f65c	0.05248104
90	0xbdb1f645	-0.0868955
91	0x3d547018	0.051864713
92	0xbdbf3bac	-0.093375534
93	0x3dfa57c7	0.122237734
94	0xbdcd5510	-0.1002599
95	0x3c104bea	0.008807162
96	0x3d88732b	0.066625915
97	0xbc93dc2a	-0.018049318
98	0xb888fbaf	-6.531865e-05
99	0xbe077293	-0.132273
100	0xbc7c9366	-0.015416002
101	0x3ceea30f	0.029130487
102	0x3cfc0cc0	0.030767798
103	0x3cdf020e	0.02722266
104	0xbc51baff	-0.012800931
105	0xbe05a9f7	-0.13053118
106	0x3d329816	0.04360207
107	0xbe01e691	-0.1268561
108	0xbc273a58	-0.010206781
109	0xbcfd1a07	-0.0308962
110	0x3d709451	0.058735196
111	0x3dbec275	0.093144335
112	0x3d6ebcaf	0.05828541
113	0x3dd57bf1	0.104240306
114	0x3d94f4ac	0.0727323
115	0x3db362e1	0.08759094
116	0xbe0641a9	-0.13110985
117	0xbbe4ad01	-0.0069786315
118	0x3dbe89ef	0.093036525
119	0xbdafec76	-0.08590023
120	0x3d490e25	0.049085755
121	0xbe0d83ff	-0.13819884
122	0x3d2598db	0.040428977
123	0x3db0252e	0.086008415
124	0xbe05f09d	-0.13080068
125	0x3d896ded	0.0671042
126	0xbd0c0aef	-0.034190115
127	0xbdd65491	-0.104653485
128	0x3ca3663e	0.019946214
129	0xbdb2152f	-0.08695447
130	0x3de4a90f	0.11165058
131	0xbb4fa9cd	-0.0031686903
132	0x3d443ea5	0.047911305
133	0x3deced0a	0.11568649
134	0x3e0476f4	0.12936002
135	0x3d9dc374	0.07703295
136	0xbdfbb1a6	-0.12289743
137	0x3c9eaa42	0.019368295
138	0xbd92e378	-0.071722925
139	0xbbd2bcbf	-0.0064311917
140	0x3c1c1ac2	0.009527864
141	0xbe2a5d22	-0.1663709
142	0x3da19664	0.07890013
143	0x3db059bb	0.08610865
144	0x3c00d0cf	0.007862284
145	0xbcf41923	-0.029797142
146	0x3e1701fe	0.14746854
147	0x3e2ecf4a	0.17071262
148	0xbd516c41	-0.05112863
149	0xbd2c2f96	-0.04203757
150	0xbcdbe255	-0.026841322
151	0x3c913a7e	0.017728087
152	0x3e1703ad	0.14747496
153	0x3cc0a4ff	0.023516176
154	0xbccca91c	-0.024982981
155	0x3dfbecba	0.123010114
156	0x3d3f89a3	0.04676212
157	0xbd873cd0	-0.06603396
158	0x3de32251	0.1109053
159	0xbd24c5ff	-0.040227886
160	0xbcaeb67b	-0.021327248
161	0x3e208f7a	0.15679732
162	0xbd9a91fd	-0.07547376
163	0xbcce4a41	-0.025181891
164	0xbc0df324	-0.008663926
165	0x3df3dec8	0.119077265
166	0x3e087319	0.13325156
167	0x3ce96f04	0.02849532
168	0xbdde1a27	-0.10844832
169	0x3e368ae8	0.17826426
170	0x3da1f46f	0.0790795
171	0x3dd0bd65	0.10192374
172	0x3c96ee43	0.018424159
173	0xbd5c9c68	-0.053860098
174	0xbdcb3a58	-0.099232376
175	0x3deb0b15	0.11476723
176	0xbdadecb4	-0.08492413
177	0xbdac8f9a	-0.08425827
178	0x3cd9c1bf	0.026581643
179	0x3e08fc1c	0.13377422
180	0xbdb51238	-0.088413656
181	0xbd9a75e5	-0.07542018
182	0x3df0f90f	0.11766254
183	0xbce7a46a	-0.02827664
184	0x3dfcf5ce	0.12351571
185	0x3e2ee922	0.1708112
186	0x3dbf750d	0.093484975
187	0x3e1dff1d	0.15429349
188	0x3df36f9e	0.11886524
189	0xbdd15425	-0.102211274
190	0x3e02d2e9	0.12775768
191	0xbd83fff5	-0.06445304

mlp.0.weight f4 [256, 54]
0	0xbd370e6b	-0.044691484
1	0xbdc05d75	-0.093928255
2	0x3ddd8238	0.10815853
3	0xbc868c9b	-0.016424468
4	0xbc4e7cf3	-0.012603032
5	0x3d85eae1	0.0653894
6	0x3c2e7321	0.010647566
7	0xbd886b11	-0.06661046
8	0xbdf8d76d	-0.12150464
9	0xbd495844	-0.049156442
10	0xbcbbc3af	-0.022920458
11	0x3e060d53	0.1309102
12	0xbd7de506	-0.061985992
13	0x3dc1a462	0.09455182
14	0xbdf8921c	-0.12137243
15	0xbd1ed0d7	-0.038773384
16	0x3d588ccc	0.05286865
17	0xbd0814cd	-0.033222962
18	0xbd7928fd	-0.060830105
19	0xbd1ebd0d	-0.03875451
20	0xbdf19014	-0.11795059
21	0x3e027d91	0.12743212
22	0x3dcdfd50	0.10058081
23	0x3e0587bc	0.1304006
24	0xbdff64e0	-0.12470412
25	0x3d31fae9	0.043452177
26	0x3c9ea2e2	0.019364778
27	0x3d26996a	0.04067365
28	0xbde9e096	-0.114197895
29	0x3e0ec471	0.13942124
30	0x3daeb089	0.08529765
31	0xbddf11f2	-0.10892095
32	0x3caa39d1	0.020779522
33	0x3dba8637	0.09107631
34	0xbc6261c4	-0.013817254
35	0x3dd27e27	0.10277968
36	0xbdd28422	-0.102791086
37	0x3d2b1859	0.041771267
38	0x3d9d956d	0.07694516
39	0x3dd52799	0.10407943
40	0x3e095d2b	0.13414447
41	0x3da50f4f	0.080595605
42	0xbdcb1d21	-0.09917665
43	0x3d92a58f	0.07160484
44	0xbd365237	-0.044512
45	0xbd8d1e6d	-0.06890569
46	0x3d14288f	0.036171492
47	0xbd35fabe	-0.04442858
48	0xbd135b83	-0.035975944
49	0xbc8817a4	-0.016612835
50	0x3d047aab	0.032343548
51	0xbd35a47d	-0.04434632
52	0x3dd3f49a	0.103493884
53	0x3c83911a	0.0160604
54	0x3da2f33f	0.07956552
55	0xbd8deec1	-0.06930304
56	0xbd8e17f6	-0.06938164
57	0x3da516d8	0.08060998
58	0x3d8d33c6	0.068946406
59	0x3d3c7879	0.04601333
60	0xbd14d20b	-0.036333125
61	0xbe002dc6	-0.12517461
62	0xbce83727	-0.028346611
63	0x3da40750	0.08009207
64	0xbe137d93	-0.14403372
65	0x3dbc9f60	0.09210086
66	0x3dc01316	0.0937864
67	0xbcc871c0	-0.024468303
68	0xbdd6e438	-0.10492748
69	0x3d5c8c68	0.05384484
70	0x3d7ecc04	0.062206283
71	0xbdb189f9	-0.08668894
72	0xbd0f7b28	-0.03502956
73	0x3df8114e	0.121126756
74	0x3e1fde62	0.15612176
75	0x3dc5cc8f	0.09658157
76	0x3c0ff2f9	0.008785957
77	0x3d10b159	0.035325382
78	0x3dc031e9	0.093845196
79	0x3d4cd640	0.050009012
80	0xbd8e3b03	-0.06944849
81	0x3d9cfb76	0.0766515
82	0x3e292798	0.1651901
83	0xbd7cb400	-0.0616951
84	0xbd832336	-0.064032
85	0x3dd738ea	0.10508902
86	0x3c301c9a	0.010749007
87	0xbde08d4c	-0.1096445
88	0x3ad04ed3	0.0015892632
89	0xbe0e87d5	-0.13919003
90	0x3dc7ef7b	0.09762474
91	0x3dab4672	0.08363046
92	0xbd991bc2	-0.074759975
93	0xbd3e8b7d	-0.046519745
94	0x3d6eeb68	0.05832997
95	0x3cdab98e	0.026699807
96	0xbccb231c	-0.024797015
97	0x3dd7d007	0.10537725
98	0xbdb939a1	-0.09044195
99	0x3e1bf36f	0.15229581
100	0x3d432b53	0.04764874
101	0xbe0f8e30	-0.14019084
102	0xbe0f624d	-0.14002343
103	0x3d2bee1e	0.041975133
104	0x3e05b361	0.13056709
105	0xbe1be0a1	-0.15222408
106	0xbdfd1173	-0.12356844
107	0xbddb347a	-0.107033685
108	0xbde81bd9	-0.113334365
109	0xbe0408ba	-0.12893954
110	0x3d8343e7	0.06409436
111	0xbd9e2973	-0.077227496
112	0x3d916820	0.070999384
113	0x3d8a2e3e	0.06747101
114	0x3dc111f1	0.0942725
115	0xbb29b88f	-0.002589736
116	0xbdb0e4d2	-0.08637394
117	0x3cdd7a5e	0.027035888
118	0xbd823839	-0.0635838
119	0xbb138db9	-0.0022514893
120	0xbd6d0981	-0.05787039
121	0x3d033cd4	0.032040432
122	0xbdb62ac2	-0.08894874
123	0x3cd785ae	0.02630886
124	0x3dba80f1	0.09106625
125	0xbc38a9c1	-0.011270941
126	0x3d6c2adf	0.057658073
127	0xbe0cec8a	-0.13762107
128	0x3d46e760	0.0485605
129	0xbdbe2844	-0.09285024
130	0xbe03b635	-0.12862475
131	0x3cdc4c4a	0.026891846
132	0x3db023a0	0.08600545
133	0x3dbfb9b7	0.09361594
134	0xbd91c664	-0.07117918
135	0xb95f0ec8	-0.00021272444
136	0x3d712c88	0.05888036
137	0x3df5dde2	0.120052114
138	0x3df0dc3e	0.11760758
139	0x3de766a0	0.11298871
140	0xbbdcff01	-0.006744266
141	0xbd232d9d	-0.039838422
142	0xbda7e168	-0.0819729
143	0x3db53f4f	0.08849966
144	0x3d8476c8	0.06467968
145	0xbdc4dc4f	-0.09612333
146	0xbbb3d1d2	-0.005487659
147	0xbd224bd9	-0.039623115
148	0x3c7dfabf	0.015501677
149	0x3cc0d519	0.023539113
150	0xbc3115c3	-0.010808411
151	0xbdd78e40	-0.10525179
152	0x3d4bb3fd	0.049732197
153	0xbd855308	-0.065099776
154	0xbdc5a36b	-0.0965031
155	0xbc2ec06a	-0.010665992
156	0x3cec0d8f	0.028815059
157	0x3da9b6b1	0.08286799
158	0xbc81e51a	-0.015856314
159	0xbe0081e5	-0.12549551
160	0x3e0d9ef2	0.13830164
161	0xbdeb724c	-0.1149641
162	0x3c7b4db2	0.015338348
163	0x3cd3e96a	0.025868136
164	0xbd902ebb	-0.07040163
165	0xbd5c00aa	-0.05371157
166	0xbda31276	-0.079625055
167	0xbdcc01dd	-0.09961293
168	0x3d8359fc	0.064136475
169	0xbe06f975	-0.13181098
170	0x3e050979	0.12991895
171	0x3d85bd0e	0.065302
172	0xbdf881e8	-0.12134153
173	0xbb9e2364	-0.0048259962
174	0xbdab458c	-0.083628744
175	0xbe26b4d1	-0.16279913
176	0xbd68a1ea	-0.05679504
177	0xbdc2420a	-0.09485252
178	0x3e1d69d7	0.15372406
179	0xbd497d04	-0.04919149
180	0xbb98c03a	-0.004661587
181	0x3e0d9dba	0.13829699
182	0xbdaefcbf	-0.08544301
183	0x3d48ac9b	0.048992734
184	0xbc037980	-0.008024573
185	0x3ce66afa	0.028127182
186	0x3d20e23d	0.039278258
187	0x3db03a25	0.0860484
188	0xbe25c9cd	-0.16190262
189	0x3e179ffa	0.1480712
190	0x39dfd09d	0.00042689304
191	0xbd0102ef	-0.03149694
192	0xbdb9b23a	-0.09067197
193	0xbddb650f	-0.10712635
194	0xbdaea9e3	-0.08528497
195	0xbdc7386d	-0.09727559
196	0xbd0b0d08	-0.033947974
197	0xbdf5a552	-0.11994423
198	0x3c804f13	0.015662706
199	0x3d552464	0.052036658
200	0x3dd124a1	0.102120645
201	0x3d255a7a	0.04036949
202	0x3e0dd883	0.13852124
203	0xbd0a90d8	-0.03382954
204	0x3d6a5125	0.05720629
205	0xbdf6388e	-0.12022506
206	0x3cb63fa3	0.022247141
207	0x3da17483	0.07883551
208	0x3d8f9970	0.07011688
209	0xbdff3ee7	-0.124631695
210	0xbdad46fb	-0.08460804
211	0x3e1a9bd3	0.15098505
212	0x3dc7b4f3	0.0975131
213	0x3dd52340	0.10407114
214	0xbda3e42d	-0.080025055
215	0xba692b1f	-0.000889467
216	0x3d236d96	0.03989943
217	0x3c9b7922	0.018978659
218	0xbdf67b34	-0.12035218
219	0x3dc56073	0.09637537
220	0xbd314e7e	-0.043287747
221	0x3d12ef4a	0.035872735
222	0xbcfb79b6	-0.030697685
223	0xbda16fbe	-0.07882641
224	0xbd96f754	-0.07371393
225	0x3c73a0c2	0.014869871
226	0x3d7a068c	0.0610414
227	0xbcee48aa	-0.029087383
228	0xbbc4d0ca	-0.006006335
229	0xbd8058b1	-0.062669165
230	0xbd99973a	-0.07499547
231	0x3d856a4d	0.06514416
232	0xbdbcaba1	-0.09212423
233	0x3dda131f	0.10648178
234	0x3e014a96	0.12626109
235	0xbc45a4ed	-0.012063247
236	0x3c5c0b96	0.013430497
237	0x3da5a5b9	0.0808825
238	0x3b55cf81	0.0032624903
239	0x3ce782d6	0.02826063
240	0x3ced5dc9	0.028975384
241	0x3e161405	0.14656074
242	0xbe089603	-0.13338475
243	0x3e0efddb	0.13964026
244	0xbd6f57b1	-0.05843324
245	0x3da694dc	0.081338614
246	0xbe0c1be0	-0.13682508
247	0xbd9d806f	-0.076905124
248	0xbe19da35	-0.15024646
249	0x3d8e04b6	0.06934492
250	0xbd869262	-0.06570889
251	0xbde4fe2d	-0.11181293
252	0xbbac6d7f	-0.0052620764
253	0x3dd479ca	0.10374792
254	0xbdcf2cf6	-0.101159975
255	0x3df6d3da	0.12052126

mlp.0.bias f4 [256]
0	0x3cff44c6	0.031160723
1	0xbda42cfc	-0.080163926
2	0x3d82c55e	0.06385301
3	0x3e06909c	0.13141102
4	0x3dba58f9	0.090990014
5	0xbdd1cfa6	-0.10244684
6	0xbdfbc2cd	-0.12293015
7	0x3c69a683	0.014260891
8	0x3d8124e2	0.06305863
9	0xbe0304b1	-0.12794758
10	0xbdc11793	-0.094283246
11	0xbdea73dc	-0.1144788
12	0x3ddbda61	0.10735012
13	0x3e08f3b6	0.13374218
14	0xbd0c2843	-0.034218084
15	0xbd108785	-0.03528549
16	0x3c339eff	0.010963201
17	0xbe03f371	-0.12885834
18	0x3d3269dc	0.043557987
19	0x3c6c82bd	0.014435467
20	0xbcfde021	-0.030990662
21	0x39a8603d	0.0003211516
22	0xbd1c18f8	-0.03810975
23	0xbd7592e3	-0.059954535
24	0xbdcc4195	-0.09973446
25	0x3e0008bf	0.12503336
26	0x3d056239	0.032564376
27	0xbbf6d2c7	-0.007532451
28	0x3d8f67d6	0.07002227
29	0x3d5e07a0	0.05420649
30	0x3db26437	0.08710521
31	0x3dfad4e1	0.12247635
32	0xbe0b3135	-0.1359299
33	0xbd9d863a	-0.07691617
34	0x3c981290	0.018563539
35	0xbd58b476	-0.052906476
36	0xbd3ee0b3	-0.04660101
37	0x3df59934	0.11992112
38	0x3d79b174	0.060960248
39	0x3d2b83cb	0.041873734
40	0x3ccbfa7c	0.024899714
41	0xbd2da66b	-0.042395037
42	0x3d8cd806	0.06877141
43	0x3c854bcd	0.016271496
44	0x3cc50044	0.024047978
45	0x3c8fca7e	0.01755261
46	0x3c3a9f86	0.011390572
47	0x3d4b13c2	0.04957939
48	0x3e01373b	0.12618725
49	0xbd83a338	-0.06427616
50	0xbd953d7b	-0.07287117
51	0x3df8d7b6	0.121505186
52	0xbd86ae60	-0.06576228
53	0xbdf90cdf	-0.12160658
54	0xbc9d4ad9	-0.01920073
55	0xbd740cc8	-0.0595825
56	0xbc97d109	-0.018532293
57	0xbd4acf17	-0.049513903
58	0x38475258	4.7521986e-05
59	0x3e081521	0.1328931
60	0xbdb97ca8	-0.090569794
61	0xbd9aa293	-0.0755054
62	0xbc956497	-0.018236442
63	0xbded7256	-0.115940735
64	0x3c0e50c8	0.008686252
65	0xbdc18ac0	-0.094502926
66	0xbcff42c5	-0.031159768
67	0x3d0e5bca	0.034755506
68	0xbdc1d11c	-0.094637126
69	0xbdf3f110	-0.119112134
70	0x3cef7265	0.029229352
71	0x3d874c63	0.066063665
72	0xbdf1765b	-0.11790153
73	0xbd651a41	-0.05593324
74	0x3d38a74f	0.045081433
75	0xbc1b4c7b	-0.009478684
76	0xbdba6dd6	-0.09102981
77	0x3cb5cad2	0.022191439
78	0xbc8746ed	-0.016513312
79	0xbdbdb81c	-0.09263632
80	0xbdfab70b	-0.12241944
81	0x3dd4f9e9	0.10399229
82	0xbdb4cbae	-0.08827911
83	0xbddfe512	-0.109323636
84	0xbdd66149	-0.104677744
85	0x3cd112ac	0.025521599
86	0xbd00cdfa	-0.031446435
87	0x3e0368fd	0.12833019
88	0x3cb68405	0.022279749
89	0x3db3cda4	0.08779457
90	0x3d430a3c	0.047617182
91	0xbe08708e	-0.13324186
92	0xbdb83e99	-0.089963146
93	0x3bd43fe0	0.006477341
94	0x3d26815b	0.040650707
95	0x3dfcb258	0.12338704
96	0x3d819756	0.06327693
97	0x3dd71aa8	0.10503131
98	0x3d22d854	0.039757088
99	0x3d84b505	0.06479839
100	0x3e004d46	0.12529477
101	0xbd2f0b66	-0.04273548
102	0x3d278176	0.040894948
103	0x3ac3dd52	0.0014943278
104	0x3d08a407	0.033359554
105	0xbd802d9f	-0.062587015
106	0xbd9cdb90	-0.07659066
107	0x3ceedc2a	0.029157717
108	0xbdabcf82	-0.08389188
109	0x3db0779c	0.08616564
110	0xbc2f2385	-0.010689621
111	0x3da3a2fc	0.07990071
112	0xbdbf29d7	-0.09334152
113	0x3d8f3b7c	0.069937676
114	0x3df4733d	0.119360425
115	0xbc55ab8f	-0.013041391
116	0xbdbede6e	-0.09319769
117	0x3be3d22c	0.0069525447
118	0xbd3d3d6c	-0.046201155
119	0xbc9b36f9	-0.018947111
120	0x3cb192d3	0.021676457
121	0x3d61fe79	0.055174325
122	0x3e108087	0.1411153
123	0xbd29a6ab	-0.041418713
124	0x3d3f21d1	0.04666311
125	0x3d4c07e7	0.049812224
126	0xbe045edc	-0.12926811
127	0xbdf2a94a	-0.118486956
128	0x3d34fbcf	0.044185456
129	0xbdfc4189	-0.12317187
130	0x3dfbb33c	0.122900456
131	0x3e00b8b5	0.1257046
132	0x3d8c2d42	0.0684457
133	0x3da7ae91	0.08187593
134	0xbde71b0d	-0.112844564
135	0x3d50d6d6	0.050986134
136	0x3d23a538	0.039952487
137	0x3d15f5b8	0.03661129
138	0x3d8ba6a4	0.068188936
139	0x3d52295e	0.051308982
140	0x3dc48863	0.09596326
141	0xbcc45ad9	-0.0239691
142	0x3de4e31c	0.1117613
143	0xbd28e97b	-0.04123829
144	0xbd97b70d	-0.07407961
145	0xbd84b871	-0.06480492
146	0xbe07281a	-0.13198891
147	0xbdb51a28	-0.088428795
148	0x3df7a26f	0.120915286
149	0xbd4a53a0	-0.049396157
150	0x3d4db8d6	0.0502251
151	0x3e0ec5a8	0.13942587
152	0x3d9cb9b9	0.07652611
153	0xbd9a0ac9	-0.07521588
154	0xbdeadd48	-0.11467987
155	0x3e05cd2b	0.13066547
156	0xbbc0fe7b	-0.0058897114
157	0xbd55eed1	-0.052229706
158	0xbd4af3d1	-0.049548928
159	0xbce4a1d8	-0.027909204
160	0x3d859e71	0.06524361
161	0xbe05a859	-0.13052501
162	0xbcfc57c2	-0.030803565
163	0xbda4f5a3	-0.08054664
164	0xbd9daba4	-0.076987535
165	0x3da8f876	0.08250515
166	0x3d4e100d	0.050308276
167	0xbd868d01	-0.06569863
168	0x3d86b3e5	0.06577281
169	0xbde4f785	-0.11180023
170	0x3d304618	0.043035597
171	0xbc8e66e7	-0.017383052
172	0xbddff7c1	-0.10935927
173	0xbd3caa80	-0.04606104
174	0xbdcadcc7	-0.09905391
175	0x3dfad551	0.12247718
176	0x3e138237	0.14405142
177	0xbdf1eb07	-0.11812406
178	0x3e0cef3d	0.13763137
179	0x3df3c8f8	0.11903566
180	0xbe04a5e4	-0.12953907
181	0xbe031251	-0.12799956
182	0x3e095caa	0.13414255
183	0x3d34f1b3	0.044175815
184	0xbdce8949	-0.10084779
185	0x3e020fab	0.1270129
186	0xbdc7b735	-0.09751741
187	0xbd4a86f2	-0.0494451
188	0x3d496436	0.049167834
189	0xbdb9df08	-0.09075743
190	0xbdaa0e96	-0.08303563
191	0x3de4854f	0.11158239
192	0x3dbb0e1d	0.09133551
193	0x3d458896	0.04822596
194	0xbde693d9	-0.112586685
195	0x3ad78b8e	0.0016444789
196	0x3d4ae9d5	0.049539406
197	0xbd32ee75	-0.04368444
198	0xbdf2b566	-0.11851005
199	0x3cff89ef	0.031193702
200	0xbba82406	-0.0051312475
201	0xbdea6253	-0.11444535
202	0x3da24397	0.07923048
203	0xbdeb07aa	-0.11476071
204	0xbdee7539	-0.11643452
205	0xbc02c6d4	-0.007981975
206	0xbd55bf91	-0.052184645
207	0x3d475f45	0.04867484
208	0xbdb4a3ca	-0.08820303
209	0x3dcafabe	0.099111065
210	0x3d6c9026	0.05775466
211	0x3db800cf	0.08984529
212	0xbc2ed837	-0.010671667
213	0xbdb7bfb4	-0.08972111
214	0xbd018463	-0.031620394
215	0xbca0a91d	-0.01961189
216	0x3de28042	0.110596195
217	0x3d98c080	0.074585915
218	0x3d5702be	0.05249285
219	0x3d077d96	0.033078752
220	0xbd9ada0d	-0.07561121
221	0x3decb6ad	0.1155828
222	0x3c9585e8	0.018252328
223	0xbdacad1e	-0.08431457
224	0x3af0f10f	0.0018382388
225	0xbda6a426	-0.081367776
226	0x3e03cdd3	0.12871484
227	0xbdb734eb	-0.0894564
228	0xbcd3a714	-0.025836505
229	0xbd870930	-0.06593549
230	0x3dba3a2e	0.09093128
231	0xbcdfceb7	-0.027320249
232	0xbc4a6cd2	-0.012355046
233	0xbdeeafdd	-0.11654637
234	0xbc3aa241	-0.011391223
235	0x3c840bc8	0.016118899
236	0xbd96d123	-0.073641084
237	0xbca7e36e	-0.02049419
238	0x3d905665	0.070477284
239	0xbc2523ba	-0.010079319
240	0xbc3a6c55	-0.011378367
241	0xbd3332f6	-0.043749772
242	0xbde9af27	-0.11410361
243	0xbc0161b8	-0.007896833
244	0x3dee3c0f	0.11632549
245	0xbd9134db	-0.070901595
246	0xbdfbd662	-0.1229675
247	0xbdfc5b07	-0.123220496
248	0xbbcd259b	-0.0062605864
249	0x3c23f04e	0.010006024
250	0xbd7052b6	-0.05867263
251	0xbcec1f1a	-0.028823424
252	0xbd04e045	-0.032440443
253	0x3d842912	0.06453146
254	0x3cdd0cc5	0.026983628
255	0xbdb937f2	-0.09043874

mlp.2.weight f4 [128, 256]
0	0x3c609718	0.013707899
1	0x3ce857b0	0.028362125
2	0x3d416083	0.04721118
3	0xbd11292e	-0.035439663
4	0xbd04bc2f	-0.03240603
5	0xbb9e01f6	-0.004822011
6	0xbd48feff	-0.04907131
7	0x3d058dca	0.032605924
8	0xbd2ddc5a	-0.04244647
9	0xbd5083d4	-0.05090697
10	0xbd23e3b5	-0.04001208
11	0xbd08e004	-0.033416763
12	0x3c65e324	0.014031205
13	0x3d73f615	0.059560854
14	0x3c62c3b8	0.013840608
15	0xbc550e01	-0.013003827
16	0x3b857505	0.0040727877
17	0x3ccee744	0.02525676
18	0xbaeb53d6	-0.0017954062
19	0x3d941648	0.07230812
20	0xbd672afd	-0.05643748
21	0xbbdd67d9	-0.0067567644
22	0x3c0808e0	0.008302897
23	0x3d4f16c0	0.050558805
24	0xbd0fb2c4	-0.035082594
25	0xbc12a8c5	-0.008951371
26	0xbd473b73	-0.04864068
27	0x3d0b10ad	0.03395145
28	0xbc5918c7	-0.013250536
29	0x3d0db06a	0.03459207
30	0x3d2ac26b	0.041689318
31	0xbcd860c4	-0.026413329
32	0x3d56357c	0.0522971
33	0xbd43767a	-0.04772041
34	0xbd6e592e	-0.058190517
35	0x3d033fbc	0.032043204
36	0x3c8bf616	0.017085116
37	0xbcdb8cf7	-0.026800616
38	0x3d11bc75	0.035580117
39	0x3c304095	0.010757585
40	0x3c3373d1	0.010952906
41	0xbca72b40	-0.020406365
42	0x3d6b7d61	0.057492618
43	0xbd2cbb7b	-0.042170983
44	0xbd44e057	-0.04806551
45	0x3beb9a73	0.0071900426
46	0x3d801acb	0.0625511
47	0x3c2448eb	0.010027151
48	0x3d459bb0	0.04824418
49	0xbd6e4877	-0.058174577
50	0xbd56f6c9	-0.052481446
51	0xbd779e7c	-0.060453877
52	0xbb86bb37	-0.004111673
53	0x3d13364a	0.035940446
54	0x3bf8f072	0.0075970227
55	0x3d37dfe5	0.044891257
56	0xbd5fdbf0	-0.054653108
57	0x3d3a644a	0.0455058
58	0xbd6fc7a4	-0.05854
59	0x3d314be4	0.043285266
60	0x3d15699d	0.036477674
61	0xbc6587ea	-0.014009455
62	0x3d227b58	0.03966841
63	0xbca36734	-0.019946672
64	0xbd6c9019	-0.05775461
65	0xbc911d49	-0.01771416
66	0x3c1ed41a	0.009694124
67	0x3b9ef65d	0.004851146
68	0x3d0698d4	0.032860592
69	0xbce5f14f	-0.028069166
70	0xbcdf6454	-0.02726952
71	0x3c55f7e0	0.013059586
72	0xbca67d92	-0.020323548
73	0xbcb2abf2	-0.021810506
74	0x3cd94f64	0.026527114
75	0xbd0eb027	-0.03483596
76	0x3c4b7df8	0.01242017
77	0xbb736d53	-0.003714402
78	0xbc837d98	-0.016051099
79	0x3d5b797b	0.05358265
80	0x3d780ef4	0.060561135
81	0x3d07d1b1	0.03315896
82	0x3d7fb25f	0.062425967
83	0xbc7f903c	-0.015598353
84	0xbd4f8133	-0.050660323
85	0xbd25f2f9	-0.04051492
86	0xbd18e0d5	-0.03732379
87	0xbd00ae58	-0.031416267
88	0xbcb978d8	-0.02264063
89	0x3c48a770	0.012246951
90	0x3d50f28b	0.051012557
91	0x3d2a2ef0	0.04154867
92	0x3c79608c	0.0152207725
93	0xbd3bd9e1	-0.045862082
94	0x3c4b51c7	0.012409634
95	0xbd010d60	-0.031506896
96	0x3c9e9414	0.019357719
97	0x3d47350e	0.04863458
98	0xbcfe0ff0	-0.031013459
99	0x3c3c1e31	0.011481808
100	0x3b6b47cd	0.003590095
101	0xbc2b7821	-0.010465653
102	0xbd166110	-0.03671366
103	0xbcd72925	-0.026264736
104	0x3d38c84f	0.045112904
105	0x3d756438	0.05991003
106	0x3d4c42f2	0.04986853
107	0x3d2fa543	0.042882215
108	0x3d291cb2	0.04128713
109	0xbd09b284	-0.03361751
110	0xbb6ec8a6	-0.0036435514
111	0x3d587210	0.052843153
112	0xbd76f366	-0.060290717
113	0xbc9d639c	-0.019212537
114	0x3c8053c4	0.015664943
115	0x3cc90e46	0.024542939
116	0xbb8d9149	-0.004320298
117	0xbcadb854	-0.021206059
118	0x3d80c846	0.06288199
119	0xbd120b36	-0.035655223
120	0xbc721454	-0.014775354
121	0xbca0bc38	-0.019621
122	0xbc03636d	-0.00801931
123	0xbb08644e	-0.002081174
124	0xbd44b430	-0.048023403
125	0x3d2d2061	0.042267207
126	0xbd030b4c	-0.031993195
127	0xbcea4f37	-0.028602226
128	0xbd08a82d	-0.03336351
129	0xbc65c8da	-0.0140249375
130	0x3d390409	0.045169864
131	0x3c5c398d	0.013441456
132	0x3d2f3b7a	0.04278133
133	0x3d68d24a	0.056841172
134	0xbc1f2d04	-0.009715322
135	0x3cbbe24e	0.022935059
136	0x3d03127e	0.032000057
137	0xbd47eda6	-0.048810624
138	0xbced5ce8	-0.028974965
139	0x3d85a5fe	0.06525801
140	0xba4da0ad	-0.0007844072
141	0xbca77273	-0.020440316
142	0x3c6146b9	0.013749772
143	0x3ce2bb95	0.027677337
144	0xbd191f74	-0.03738351
145	0xbd687160	-0.056748748
146	0xbd2c601e	-0.042083852
147	0xbd08849c	-0.03332959
148	0xbd4b6a8e	-0.049662165
149	0x3c186414	0.009301204
150	0x3b37cfcb	0.0028047438
151	0x3c85e97d	0.016346687
152	0x3cf2c045	0.029632697
153	0xbd54307a	-0.051804043
154	0x3cfc6d8b	0.030813953
155	0xbd5857a6	-0.052817963
156	0x3d7c37cc	0.06157665
157	0xbd298a06	-0.041391395
158	0xbd754698	-0.059881777
159	0xbd12954f	-0.035786923
160	0xbcda2dfe	-0.026633259
161	0x3d716090	0.05892998
162	0xbd0b9e22	-0.034086354
163	0xbd5c83da	-0.05383668
164	0x3c5c7f5d	0.0134581
165	0xbd51ae13	-0.0511914
166	0xbcb8e8f4	-0.022572018
167	0xbd7b1a94	-0.061304644
168	0x3d284f1d	0.041091073
169	0xbd7263be	-0.059177153
170	0x3cd892b6	0.026437145
171	0xbcba2b38	-0.022725686
172	0xbc892bf1	-0.016744586
173	0x3d583bb4	0.052791312
174	0xbc90eae8	-0.017690137
175	0xbd67d52b	-0.056599777
176	0xbd69dbf8	-0.057094544
177	0xb9788a8f	-0.0002370274
178	0x3cbde54e	0.02318063
179	0x3d05719f	0.03257906
180	0xbbaaa133	-0.0052072047
181	0xb9e9d580	-0.00044600293
182	0xbc8bc490	-0.017061502
183	0x3c194b62	0.009356352
184	0xbd2c2ee6	-0.042036913
185	0x3d1a928e	0.03773742
186	0x3d7e42f0	0.062075555
187	0x3b813cb2	0.003944003
188	0xbd0fe3a8	-0.03512922
189	0xbcf95f80	-0.030441046
190	0xbc6d5cc4	-0.014487449
191	0xbd10e5cd	-0.035375405
192	0x3d796e81	0.0608964
193	0xbbd907d1	-0.0066232462
194	0xbcc1030b	-0.023561021
195	0xbb8456c5	-0.004038664
196	0xbcc4bcb7	-0.024015767
197	0xbcacb6dc	-0.021083288
198	0xbbfa49a0	-0.0076381713
199	0x3d13f3a5	0.03612103
200	0x3d36f247	0.044664647
201	0x3d82aeb0	0.06380975
202	0x3d6d48c9	0.05793074
203	0x3cc53198	0.0240715
204	0xbd3d7303	-0.04625226
205	0xbd4353b8	-0.047687262
206	0xbc2ccc4a	-0.010546753
207	0xbd39fb07	-0.045405414
208	0xbd59565c	-0.053060874
209	0x3d4a1269	0.049333964
210	0x3d60bb44	0.05486609
211	0x3b4ae306	0.003095807
212	0x3d03d36b	0.032184046
213	0xbd0a6137	-0.033784118
214	0xbd06ff77	-0.032958474
215	0x3ce69c10	0.028150588
216	0x3cc1adb9	0.023642408
217	0x3c23c6a0	0.009996086
218	0xbca1e5e6	-0.019762944
219	0x3d5d9fb7	0.054107394
220	0xbd3c427d	-0.045961846
221	0x3d6c32f1	0.05766577
222	0x3d238920	0.039925694
223	0xbd42555c	-0.047444686
224	0xbc33d71d	-0.01097658
225	0x3d17c440	0.037052393
226	0x3c719f44	0.014747445
227	0x3d528d89	0.05140451
228	0x3c164138	0.009170823
229	0x3d2e346f	0.042530473
230	0x3bca756d	0.006178549
231	0xbd3c3070	-0.04594463
232	0xbb3fedbb	-0.0029285986
233	0xbcadc28c	-0.021210931
234	0x3c912ed7	0.01772253
235	0x3d813ada	0.06310053
236	0x3d6ea34e	0.05826121
237	0x3d66782c	0.05626695
238	0x3d64d5f2	0.055868097
239	0x3c0a60af	0.008445903
240	0xbc82c2e9	-0.015962081
241	0x3d15f1a6	0.036607407
242	0xbbaa1e59	-0.005191606
243	0xbcfd699b	-0.030934146
244	0xbd6ccc74	-0.05781217
245	0x3ce718b3	0.02821002
246	0x3ca09b47	0.019605292
247	0xbbe3e1dc	-0.006954415
248	0xbba692c0	-0.005083412
249	0xbcb6287d	-0.022236103
250	0x3d07f5ad	0.03319328
251	0x3ca7f01a	0.020500232
252	0xbd395697	-0.045248594
253	0xbcbdf624	-0.023188658
254	0xbcdc52f2	-0.02689502
255	0x3d12c122	0.035828717

mlp.2.bias f4 [128]
0	0x3d495361	0.049151782
1	0x3d52df28	0.05148235
2	0xbd5e26ff	-0.05423641
3	0xbbec94ea	-0.0072199004
4	0xbca4dd1b	-0.020124963
5	0xbcc92f9a	-0.024558831
6	0x3d5544b9	0.052067492
7	0x3ce028e0	0.02736324
8	0x3c7b8bad	0.0153531255
9	0x3cf19d44	0.029493935
10	0xbd0da1ad	-0.034578014
11	0xbcf9911c	-0.030464701
12	0xbcd67862	-0.02618045
13	0xbd436086	-0.047699474
14	0x3cd2acf4	0.025717236
15	0xbcc7e61a	-0.024401713
16	0xbd7075b8	-0.058706015
17	0xbd279562	-0.040913947
18	0xbc89a258	-0.016801044
19	0xbcbd84fc	-0.023134701
20	0xbb7068e8	-0.0036683623
21	0xbb56b352	-0.0032760692
22	0xbd683617	-0.05669221
23	0xbc3f721c	-0.011684921
24	0x3cdb9586	0.026804697
25	0xbc1fb3d0	-0.0097474605
26	0xbc972f13	-0.018455064
27	0x3ce6f13c	0.028191201
28	0xbd10822d	-0.035280395
29	0xbc65338c	-0.0139893405
30	0x3d80d286	0.06290154
31	0x3d2233b3	0.039600085
32	0xbd5435c5	-0.05180909
33	0x3d58bb64	0.052913085
34	0xbc383fe2	-0.0112457
35	0x3939267c	0.00017657311
36	0xbc0ad244	-0.008472983
37	0xbd332a8a	-0.04374174
38	0x3d343f61	0.044005755
39	0x3bf6ca8a	0.0075314688
40	0x3d35fdb7	0.044431414
41	0xbd2962cb	-0.041353982
42	0x3d812104	0.06305125
43	0xbd0db8e8	-0.03460017
44	0x3d7854fa	0.060627915
45	0x3d417dd6	0.047239147
46	0x3d431694	0.047628954
47	0xbd5a3ac3	-0.053278696
48	0x3c268880	0.01016438
49	0x3d645257	0.055742588
50	0xbbbd70f0	-0.0057812855
51	0xbd35a8a9	-0.0443503
52	0x3c2fa22b	0.010719816
53	0x3c36f1d1	0.011166052
54	0xbaacb630	-0.0013176855
55	0x3cf77f6a	0.030212123
56	0x3d62f981	0.055413727
57	0x3cb2d806	0.021831524
58	0xbc56648c	-0.013085496
59	0x3b7b8008	0.0038375873
60	0xbd3655b4	-0.044515327
61	0x3aa1eef1	0.0012354535
62	0xbcfb0859	-0.030643629
63	0xbd7fd606	-0.062459968
64	0x3d12a1ab	0.03579871
65	0x3c8cc916	0.017185729
66	0xbd046058	-0.032318443
67	0xbceb5fd0	-0.02873221
68	0xbd8012fd	-0.06253622
69	0x3d83914f	0.064242
70	0xbc1ba1cf	-0.009499027
71	0x3c5e4408	0.013566025
72	0xbd6fd7d0	-0.058555424
73	0x3d577cd8	0.052609295
74	0x3d3ad28e	0.045610957
75	0xbcd20be2	-0.025640432
76	0x3d2a30a9	0.041550312
77	0x3d6e3b84	0.058162227
78	0x3d5877b1	0.05284852
79	0x3d600490	0.05469185
80	0xbd48b915	-0.049004633
81	0x3c2c8db5	0.010531832
82	0x3d6a786b	0.057243746
83	0xbd1d1e50	-0.038358986
84	0xbd3ea5e4	-0.046544924
85	0x3d413bc2	0.04717613
86	0x3d3675de	0.044546
87	0xbcd59a3a	-0.026074518
88	0xbd73a8ee	-0.059487276
89	0xbd2fabff	-0.042888638
90	0xbce2149a	-0.027597714
91	0x3b35e792	0.0027756435
92	0xbcee008f	-0.029053
93	0x3d13e5d5	0.036107857
94	0x3cfe64d2	0.031053934
95	0xbbc636c0	-0.006049007
96	0x3d0e57b3	0.034751605
97	0x3c06b898	0.0082227215
98	0x3cab1465	0.020883748
99	0x3d0b4255	0.033998806
100	0x3d202b3e	0.03910374
101	0x3d714bb8	0.0589101
102	0x3d5fa8ce	0.054604344
103	0x3d83e296	0.06439702
104	0x3d4fcc0e	0.05073171
105	0x3b9fd933	0.004878187
106	0xbbe67ff7	-0.0070342976
107	0x3da72f45	0.08163313
108	0x3c4c9bc9	0.012488314
109	0x3d5079c6	0.050897382
110	0x3d9129d7	0.070880584
111	0xbc982551	-0.018572481
112	0x3cc214fb	0.023691645
113	0x3cf18734	0.029483415
114	0xbd289e2d	-0.041166473
115	0xbcd4229e	-0.025895413
116	0x3d8bd932	0.06828536
117	0x3d17ba36	0.03704282
118	0x3c94bd85	0.018156776
119	0x3d488e10	0.048963606
120	0xbd352f0c	-0.04423432
121	0xbcc98c4d	-0.024603033
122	0x3a38b85d	0.0007046515
123	0xbd43a5df	-0.04776561
124	0xbd7ffbc6	-0.06249597
125	0x3d2cffd5	0.042236168
126	0xbd3dd148	-0.046342164
127	0x3c78beb1	0.015182183
