weights/steps_50001.pth (torch, 276343 bytes, 10 tensors)

lstm.weight_ih_l0 f4 [192, 7]
00000000: a6f6 93bd 2bd3 90bd e007 e6bd 6089 49bd
00000010: 9626 1f3e eb3d 94bd 2717 91bd ed97 8fbd
00000020: ffa0 d2bd 3cec dbbd f00a 53bd 1add c13a
00000030: 4639 e93d 72e6 cbbc de45 613d fb47 433d
00000040: 99a5 cabb 0a6c 243c 6b7b 8f3d 2fcc 163d
00000050: 278c 703d 41d6 cebd 9da3 373c 1f49 8e3d
00000060: a607 f73d 741e 113e 41a7 af3d 3e20 b23d
00000070: 0593 733d 9285 ad3d e0b5 3ebd 443b 5bbd
00000080: 54a6 67bc acb5 ba3d 5845 4abd 918a 0d3a
00000090: 966f b2bd 94a7 ba3d ca6b cebd d50d c63d
000000a0: 2498 06bd e12c ad3d c42a 51bd 7cd2 3b3d
000000b0: 8b24 013d 6ff6 793d 6367 173e abe2 a4bd
000000c0: 7974 8cbd 88a9 273d 10c9 3ebd 3f45 d7bd
000000d0: c79e 26bd 2f6a b8bd ce13 bfbd 5d6d a6bc
000000e0: 6308 9abd 71ae bd3d 01ea 1d3d 2449 cabd
000000f0: 7987 733d 8565 32bd c567 23bd dcec 1e3e
00000100: 40b5 15bb f6d9 333d 492f 043d cc88 17bd
00000110: fd1b 143e 7f6a a1bd 005a 13bd 0e68 9abd
00000120: 3a51 a33b 7371 013e 105b 223e 2631 50bd
00000130: 16de 163e c9c7 bbbd bcbe 3d3d 0a33 ba3d
00000140: f7d5 36bd de64 613d 3cd2 c73d 55c9 cdb9
00000150: f9fd 1dbd ea50 73bb 0211 10be 8981 c7bc
00000160: 864e 82bd 4069 3a3d f3f6 febd 74ce 863d
00000170: ca77 77ba b82c b83c 0c1a fcbb d392 f7bd
00000180: 81ba 883d 2076 f0bd 885c bb3c fe18 39bc
00000190: b801 aa3d b3c9 d8bd 2bcf 93bd f7b9 75bc
000001a0: 605a 273e dde5 e7bd 48fd c5bd b6d8 cebd
000001b0: 09eb 2a3d bafd babd d4cb 183e 3922 98bd
000001c0: 67ab a43d af97 b03d 6e41 953d a51b acbd
000001d0: b9b3 913c 1a4f 17bb c2d6 1b3e e67b b2bd
000001e0: 8e0f e4bd 50b9 cd3d bf82 7d3d b0cd d93d
000001f0: 0e43 0f3e 676a 063e 7a31 9abd 118e 5a3d
00000200: 1891 e83d 5296 a2bd 329d f43d a2c5 653d
00000210: 6f4a bb3b b292 053e 8a21 033e c208 913d
00000220: 6883 52bd 75dd 77bd d0f4 d13d 0856 233e
00000230: 9968 49bd db0f 693d d15c 4b3d efaf 213d
00000240: 430a 8a3d 4dda bcbd db19 9d3d cf0d cbbc
00000250: 4cad 42bd 12e4 753c 1dd9 57bd 7daa 563a
00000260: 40a2 27bd f77e 0bbd 8694 a1bd c23b 97bd
00000270: 3680 e6bd 7e84 b7bd 2703 a93d 33b3 77bd
00000280: 3ae8 3d3c 8bac e23c ce54 79bb 16e1 3fbc
00000290: 1561 653c ce9e fd3d 533b 09bd f684 fb3d
000002a0: 5661 0d3e 69a7 593d 1b27 6f3d a9b7 d7bd
000002b0: 836d 0c3d 8823 023e 0b49 89bd 082d f03d
000002c0: 241f fe3d 0465 523d 825f fd3d cead b93c
000002d0: abc4 f9bd cfab 003b c17e 013e d66b a4bd
000002e0: 63e6 8f3d 1b51 c13d c6f0 f23d ceb1 a93d
000002f0: 53bb 033e 6c93 ffbc c231 e13d bf15 273c
00000300: 4fcd 573d e737 5dbd 0276 d93d bd03 5c3d
00000310: a79e a73d f51b 09bd 9b09 99bd f7a5 83bd
00000320: c6ca ea3d fa2c eb3b c135 143e cd99 f63d
00000330: a99a 0d3d 2eb0 5f3d 5191 f1ba b866 893c
00000340: bfab 073e f09d d1bd 730d a53c 8569 d2bd
00000350: ba78 d33d 2c30 fbbc 367a 893d 4bf3 693d
00000360: 3f4f 153e 2248 33bd f978 d2bb 80b5 9dbb
00000370: 6773 983d ddb5 543d c0ed 9dbd 3b8b 1c3e
00000380: 93c7 563d bb24 df3d 7d8f 4d3a c84a a8ba
00000390: 4e80 1f3e fbef 93bd 1247 61bd d5cf 6e3d
000003a0: 79d5 d4bc 431c 72bd 98e8 103d da13 cabd
000003b0: 6f89 21ba 6dec b63d cd93 12bc 48eb 85bd
000003c0: 9e98 23bd 49e8 7ebc 99c6 95bc 3f70 e8bd
000003d0: f64b f0bb 9ec0 d4bd 2f71 ce3d 9dcf 4f3c
000003e0: e7ca 3cbd 7b5c 1a3e c67f e93d e9c2 03bd
000003f0: 681e b7bd 56fd 5ebd b381 003e 766f d53c
-0.07224779 -0.07071527 -0.11231971 -0.049203277 0.15542063 -0.072383724 -0.07084494 -0.070113994
-0.10284614 -0.107384175 -0.051524103 0.0014790625 0.11387877 -0.024890158 0.05499827 0.047676068
-0.0061842916 0.010035524 0.07005962 0.03681582 0.05872741 -0.100994594 0.011208442 0.069475405
0.12062006 0.14171773 0.08576823 0.08697556 0.05946638 0.08472742 -0.04656017 -0.053523317
-0.014138777 0.091166824 -0.049382538 0.0005399371 -0.087126896 0.09113994 -0.10079153 0.09670607
-0.032859936 0.084558256 -0.051066175 0.04585503 0.03152899 0.061026033 0.14785533 -0.08051046
-0.06858153 0.040933162 -0.046578467 -0.105112545 -0.040678766 -0.09004628 -0.09329949 -0.02031582
-0.07521131 0.09261788 0.03855324 -0.09877232 0.05945537 -0.043553848 -0.039893884 0.15520042
-0.002284363 0.043909036 0.032271657 -0.036995694 0.14463802 -0.07881641 -0.035974503 -0.07539378
0.004984048 0.12640934 0.1585505 -0.05082812 0.14733157 -0.09168965 0.046324477 0.09091766
-0.044637647 0.055027835 0.09756896 -0.0003925065 -0.038572285 -0.0037127086 -0.14068988 -0.02435376
-0.063626334 0.04551053 -0.124494456 0.065823466 -0.0009440152 0.022482261 -0.0076935347 -0.12088551
0.06676198 -0.117412806 0.02287127 -0.0112974625 0.08301109 -0.10585346 -0.072172485 -0.014997951
0.16343069 -0.1132314 -0.0966745 -0.10099928 0.041728053 -0.09130426 0.14921504 -0.074284025
0.08040505 0.08622681 0.0728787 -0.0840371 0.017785894 -0.002308792 0.15218642 -0.08715038
-0.11135779 0.10045111 0.061892267 0.10634935 0.13990423 0.13126527 -0.07528968 0.05335814
0.113557994 -0.079388276 0.11944045 0.05609668 0.0057156603 0.13044241 0.12805763 0.070817485
-0.05139485 -0.060513932 0.102517724 0.15950787 -0.049172018 0.056899887 0.049649063 0.039474424
0.067402385 -0.09221325 0.07670947 -0.024786858 -0.04752855 0.0150079895 -0.05269729 0.0008188857
-0.040926218 -0.03405663 -0.07889657 -0.07384445 -0.11254923 -0.08960818 0.082525544 -0.060473632
0.011591012 0.027670166 -0.0038044932 -0.0117113795 0.014000197 0.12383805 -0.03350384 0.1228122
0.13806662 0.05313817 0.058386903 -0.10533077 0.034284126 0.12708867 -0.06703385 0.11727339
0.12408283 0.051365867 0.12371732 0.022665884 -0.121957146 0.0019633656 0.12646009 -0.080283806
0.07026365 0.09439298 0.1186233 0.08285867 0.12864427 -0.031198226 0.10995819 0.010198056
0.052686032 -0.05400839 0.10618211 0.053714503 0.081845574 -0.033473928 -0.07472535 -0.0642814
0.11464457 0.0071769925 0.1447363 0.12041054 0.034571324 0.054611377 -0.0018430148 0.016772613
0.1324911 -0.10235202 0.020148015 -0.102740325 0.10325761 -0.030662619 0.06712763 0.057116788
0.14581011 -0.043769963 -0.0064231125 -0.0048128963 0.07443886 0.05193125 -0.07711363 0.15287487
0.052436423 0.10895678 0.0007841511 -0.0012839669 0.15576288 -0.07223507 -0.05499942 0.058303673
-0.025980698 -0.059108984 0.03537807 -0.09867068 -0.0006162142 0.089318134 -0.008946371 -0.06539017
-0.03994047 -0.015558311 -0.018283175 -0.11349534 -0.007333274 -0.10388301 0.10080182 0.012683776
-0.04609194 0.15074341 0.11401324 -0.032168303 -0.089413464 -0.05444082 0.12549476 0.026054125

lstm.weight_hh_l0 f4 [192, 48]
00000000: be09 c73d 3b3d b93d 5757 cebd e71a 293d
00000010: a57c 323d 36d7 e6bd 2657 1dbe 2f3c 0b3d
00000020: 668b 03bd 06f0 8c3c d261 bcbc 6265 553d
00000030: 7169 9b3d 1e95 503d 36eb 8cbd 4f03 e23d
00000040: 6d2b 0bbd 57dd cd3d 7f31 23bd 56b9 cebd
00000050: 0b23 5d3d b0eb b33d aa46 d63c 5591 4ebd
00000060: 40b5 f73c a980 723d a645 92bd 8185 3cbc
00000070: 3f2b 02be a73a ecbd 9281 e7bc f15c ccbd
00000080: 9b7c dfbc e470 58bd 4603 dabd aecf 99bc
00000090: b4b5 ce3d 3c1f ccbd a9cf 17be ece0 eebc
000000a0: 2407 b9bd 621f 373d e7cc 36be 9b1f 6ebd
000000b0: 4aa6 413d f1f2 a3bd c444 c63c 6a3a d23d
000000c0: 874d bcbd 6227 2fbd 5029 6bbd d5dc 763d
000000d0: 0dbb bcbd c612 a3b9 6e97 c03d c60b 26be
000000e0: 24e7 363c 025e 2ebd 7247 0c3e e399 35bd
000000f0: e989 ba3d a202 68bd 42d4 db3d 3966 8dbd
00000100: 61df 133e 1e67 c33d f41d f53c fa73 b8bd
00000110: bed1 bc3d 2126 2d3e 3164 1a3d 9c7b 01be
00000120: 6aa7 963b ea94 d6bd 2e4c a4bd 2e08 12be
00000130: 2a4a f0bd fd28 94bd 2413 1fbd 7480 963d
00000140: 784e c9bd 5d1f 1dbd e4a4 7a3d 6f77 cf3c
00000150: 52bf b2bd 0057 87bc 6e49 853d 752e 0f3e
00000160: f8a2 a03c 9ad7 953d e0c6 bf3b 4c98 67bd
00000170: 5b52 803d 14e9 9dbd 9754 1bbe 7b87 debc
00000180: dec7 f8bc 0165 9bbd ba42 af3d 7297 41bd
00000190: db88 91bd aeb3 e1bd fdc8 4ebd f50c fc3c
000001a0: 0c92 863d ba3c 31bd 5dbf 0a3e f91c 843b
000001b0: ec7c 283d 12cd 503a 1a0b 47bd fef5 9dbd
000001c0: e936 623d a836 d1bd b6e4 d4bd e356 5ebd
000001d0: fa93 c6bd f54c 993c dd0f 49bc d435 e7bd
000001e0: 9384 5dbd 7bd2 91bc ee06 07be 5e97 2ebe
000001f0: 23d1 ebbd 65c6 b0bd eb15 823d 143d 313a
00000200: f1b2 fc3d 9b71 033e 6cfb 69bd 3bfb 8fbd
00000210: 5174 ac3d 375b 833d 1c0d 043d 092a db3d
00000220: d74a b3bc e5e6 da3d 926f b53d fc70 233e
00000230: 12c5 3abc 3f81 d8bc ead4 c7bd fd89 4dbd
00000240: 7240 9b3a b814 c03c 2704 54bd ff1a 003d
00000250: 3d2d 1ebe 7d57 33be d5a1 5cbd 2038 11be
00000260: fed1 0abb de15 073e edc8 013d 731e 14be
00000270: 4935 993d bc29 ac3c 5e9a f43c 6aa8 0f3c
00000280: a38b 1a3d 2ee4 ebbd 7c33 063e 85ad 2abd
00000290: f280 633d 1e9d 0d3e b8b8 b6bd cb3f 14be
000002a0: cf4a b3bd 14c2 b9bb 67bf 4a3b f105 d03c
000002b0: d412 5dbd 2333 13be 4235 253d b3e9 f23d
000002c0: 6931 953d cfa5 e53c 7d1c 9bbc 75e5 023d
000002d0: 86dd 453d 6f81 13be 21b8 da3c a4c1 e53d
000002e0: e4a2 2d3e f769 61bd 675a 313d 90cb cdbd
000002f0: 9775 b8bb e003 8abd a5c7 07be 7ae8 0c3e
00000300: 1385 293e 8f9c afbc 9af6 dc3d 7517 dabc
00000310: 840e 83bd d327 9bbd b477 00be 6a56 6fbd
00000320: 416d db3d 1b87 f63c dbc7 1a3e 60a5 8f3d
00000330: 1bb7 c8bd 29a9 14bc 1d61 203e 5ab2 13be
00000340: 0a2e 853d 6513 24be f6be 0a3e 5172 9dbd
00000350: 4a70 b5bd 64d3 c1bd 42fe ea3d 2270 d0bd
00000360: 44f0 51bd 9cf4 1e3e 6799 fdbd 952f 09be
00000370: 7292 b83d 8469 95bc 7dd6 9abd ece7 033d
00000380: 439b 91bd c44b b3bd fdcd 8abc 1bd8 173e
00000390: e64e 473d c5e4 17bd a0bd a63d 191b dfbd
000003a0: a658 8e3d eef6 bebd 3ccc c5bd 6be1 d13c
000003b0: 0d38 59bb db8e e03d b0ea 28be ea24 5ebd
000003c0: b313 a0bb 4370 29be 9f02 a13d 7da3 aebc
000003d0: dd13 963c e869 04be 4d37 1e3d 0809 943d
000003e0: 5355 11be 009e 3f3d 9f28 293e b09f c03d
000003f0: d546 0e3d 2bed 27bd 9d22 d5bd 0bec 91bd
0.09718655 0.09044882 -0.100752525 0.04128542 0.0435759 -0.11271517 -0.15365276 0.033992942
-0.032115363 0.017204296 -0.022995863 0.05209864 0.07588471 0.05092346 -0.068808004 0.11035787
-0.03397696 0.10051983 -0.039842125 -0.10093944 0.053988498 0.08785188 0.026156742 -0.05043157
0.030237794 0.05920473 -0.07142191 -0.011506439 -0.1271181 -0.115346245 -0.028260026 -0.09978665
-0.027281096 -0.052842036 -0.106451556 -0.018775787 0.10093251 -0.09966895 -0.1482531 -0.029159985
-0.09034565 0.044707663 -0.17851602 -0.05813561 0.047277726 -0.08005322 0.024202712 0.10265048
-0.09194475 -0.042762168 -0.057412446 0.060269196 -0.092153646 -0.0003110377 0.09403883 -0.16215429
0.011163507 -0.04257012 0.13699129 -0.04433621 0.091083355 -0.056643136 0.10733844 -0.06904263
0.14440681 0.095411524 0.02992151 -0.09006496 0.09219693 0.16909076 0.037693206 -0.1264481
0.004597594 -0.10477622 -0.080223426 -0.14260933 -0.11732896 -0.072343804 -0.038836613 0.07348719
-0.0982942 -0.03835999 0.06119241 0.025325505 -0.08727898 -0.016520977 0.06508146 0.13982566
0.01960896 0.07316513 0.005852565 -0.056541726 0.06265708 -0.07710472 -0.15168987 -0.027164211
-0.030368742 -0.07587624 0.08557649 -0.04726357 -0.07106181 -0.11020599 -0.050484646 0.030767897
0.06570825 -0.043270804 0.13549562 0.004031774 0.04113476 0.0007965128 -0.04859457 -0.07712935
0.055228148 -0.10215503 -0.10395186 -0.05428208 -0.09696193 0.018713454 -0.0122718485 -0.11289564
-0.05408151 -0.01780056 -0.13186237 -0.1704993 -0.11514499 -0.08631591 0.06351837 0.00067611155
0.12338818 0.12836306 -0.05712454 -0.0703034 0.08420623 0.06413882 0.032239065 0.10701377
-0.021886272 0.10688571 0.08859171 0.15961069 -0.011399524 -0.026428817 -0.09757407 -0.050180424
0.0011844768 0.02344738 -0.051761772 0.031275745 -0.15446945 -0.17513843 -0.053865273 -0.14181566
-0.0021182294 0.13191935 0.03168576 -0.1446474 0.074808665 0.021015994 0.029858764 0.00876818
0.037730824 -0.11518131 0.13105577 -0.041669387 0.055542894 0.13829467 -0.08921951 -0.1447746
-0.08754503 -0.005668888 0.0030936839 0.025393458 -0.053973034 -0.14374976 0.040333994 0.11860981
0.07284815 0.028033165 -0.018934483 0.03195711 0.048306964 -0.14404844 0.026699128 0.11218575
0.16956669 -0.055032697 0.043299105 -0.10048592 -0.005629252 -0.0673902 -0.13259752 0.13760558
0.1655467 -0.021436958 0.10789223 -0.026622513 -0.06399253 -0.07575955 -0.12545663 -0.05843202
0.10714198 0.03009372 0.15115301 0.07013965 -0.098005496 -0.009073534 0.15662046 -0.14423504
0.06502922 -0.16023023 0.13549408 -0.0768782 -0.08859308 -0.09464148 0.11474277 -0.10177638
-0.051254526 0.15522999 -0.12382775 -0.13397057 0.09012307 -0.01823879 -0.07560442 0.0322036
-0.07109692 -0.087546855 -0.016943926 0.14828531 0.048659228 -0.037083406 0.08141637 -0.1089384
0.06950502 -0.09324442 -0.09658095 0.025620183 -0.003314498 0.109647475 -0.16495776 -0.054234423
-0.004885161 -0.1654673 0.07861828 -0.021318192 0.018320018 -0.12931025 0.038626958 0.07228285
-0.14192705 0.04678154 0.16519402 0.09405458 0.03473552 -0.040997665 -0.104069926 -0.071251

lstm.bias_ih_l0 f4 [192]
00000000: f488 7f3d cd9f 8b3d abfb 69bd f258 8abd
00000010: 670c 86bd dbef 7ebd 950f b83d 386b 093d
00000020: c4b7 933d cb60 a73d e95b 043d 0c89 f7bd
00000030: 3744 b0bd a4d1 983d 9561 8dbd 84f4 163d
00000040: 40f6 9dbd feda 323d f1a1 dd3d e4ae 8abc
00000050: a6ab 203e b797 753d 8b39 093e 4eac 913d
00000060: ba51 61bd 216a cf3c d181 063e d810 ba3d
00000070: 3e8f 85bb d82a 1c3c b450 e6bd 3eae 043e
00000080: 4723 d1bd 93f7 45bc bea6 e93d f15f 57bd
00000090: 57e3 debd 7f40 b33d ef8b 9fbd 66a2 a13d
000000a0: 0077 a7bd 38d2 f03d f174 9e3d ee02 0fbd
000000b0: f4dc 573d 34e9 113d 618e 793d 9ff6 c5bd
000000c0: b546 9d3c 0c3b 843d fbbe 113d 4b0b 063e
000000d0: 501c 07bd 0291 e2bd 91c0 f13d 6323 063e
000000e0: f8b1 7e3b f5d6 0e3e 11fe 18bc a75a cabd
000000f0: 0b1b 4b3d 8ec1 093d 6bf2 e6bc 5b26 aa3d
00000100: a57a dc3d e79c 2fbd 0e05 bbbd 90f2 e1bd
00000110: 82ee 773d 46f4 243e ac40 c53c 3b8e 1d3e
00000120: b33d 0e3d 6dc1 81bd 370c ae3d 45b4 6fbd
00000130: eb32 0e3e 5aa1 e23a 1814 943d 4cdd d9bd
00000140: da4e c8bc 89ad cabd 716e 84bd ec9e f83d
00000150: e2a1 9ebd 7707 2b3e fed5 003e 1c95 1abd
00000160: e871 223e 108e 11be 6f7f db3d 7fb1 193d
00000170: 15f3 7bbd 8590 d7bd 74fc b1bb 7d83 b73d
00000180: 57e0 253d 0c1a 933c 921a 0e3e d60a 99bd
00000190: 8285 b13d e1aa 053d 9e5e c5bc 5ecc afbd
000001a0: 59d2 de3d 2fda 44bc 84a4 3ebd 2347 1ebe
000001b0: 7e73 3e3a da53 783d 29fe cdbc 312b ff3d
000001c0: 9979 163e 4450 003e 973b 6e3d 611e dcbd
000001d0: ff79 22bd 6697 16bc 8b72 e03d f79d 08be
000001e0: 2c76 013d 7195 51bc a3c0 e6bd b9c8 8fbd
000001f0: 911f 16be 0496 f1bd d986 1cbd f516 173e
00000200: 0009 af3d 8dcd a63d 5f9a febd 6e05 903d
00000210: 60df 2abd f6e5 51bd b829 06be a56d 0b3e
00000220: 153a 963d 159d 9cbd 7e8b d73d 8f1d 01bc
00000230: 3b50 d8bb 88d9 d2bd 3e0c 19be 471d 2c3c
00000240: 1061 2d3e e3cd d93d a6ab e33d 66a8 153e
00000250: 2eeb f2bd 4517 debc 05bc 1e3d aa72 fd3c
00000260: 5954 893c cfb6 ad3d 6143 f0bd a4a9 41bd
00000270: 1e39 943d c060 25bd 84d5 223e ba92 0d3e
00000280: 5eef 99bd 0c9a 1d3e 4b09 f6bb 4610 dbbd
00000290: 9e50 8b3d 6c3f da3d 8b0c 933d 4361 173c
000002a0: 40d1 c23c fc94 293e 6309 d23d daed 36bd
000002b0: aa64 35bd 18ba a2bb 48ad eb3c 783c fe3d
000002c0: 0651 6ebd a8ef eb3d 20d5 213e 193f 49bc
000002d0: 577e d53d ae19 ca3d d5fd 1b3e f52a d0bd
000002e0: 1b9c 473c c725 0f3e 2ba3 283d 6161 8f3d
000002f0: 33fb 03bd 78e7 84bd 5fc1 063e 9206 613d
0.062386468 0.06817589 -0.057124775 -0.06755246 -0.06545334 -0.062240463 0.08987347 0.033549517
0.07212785 0.08172759 0.032314215 -0.120866865 -0.08606761 0.07461861 -0.06903378 0.036854282
-0.07712984 0.04366588 0.108219035 -0.016929097 0.15690479 0.05995914 0.13400857 0.07112943
-0.05500958 0.02531916 0.13135459 0.09085244 -0.0040759137 0.009531699 -0.11245862 0.12957093
-0.10211807 -0.012082952 0.11408757 -0.05258173 -0.108832054 0.08752536 -0.07790362 0.07892303
-0.08176994 0.11758846 0.077371486 -0.034914903 0.05270095 0.03562279 0.0609268 -0.0966618
0.019198755 0.06456575 0.035582524 0.13090245 -0.032985985 -0.11062814 0.11804307 0.13099436
0.0038863402 0.13949187 -0.009337918 -0.09880572 0.049586337 0.033631854 -0.028191766 0.08308097
0.1076558 -0.042874243 -0.091318235 -0.11032593 0.060530193 0.16108808 0.02407869 0.15386288
0.03472681 -0.06335721 0.084984235 -0.058521528 0.13886611 0.0017290518 0.07230395 -0.10637912
-0.024451662 -0.098963805 -0.064663775 0.12139687 -0.077457204 0.16702066 0.12581632 -0.037739858
0.15863764 -0.14214349 0.107176654 0.03752279 -0.061511118 -0.10525612 -0.005431706 0.08960626
0.04049715 0.017956756 0.13877323 -0.0747277 0.08668043 0.032633666 -0.024092969 -0.08583902
0.108799644 -0.01201491 -0.046543613 -0.15456824 0.00072651345 0.060626842 -0.025145607 0.1245941
0.14694823 0.12530619 0.058162298 -0.10747982 -0.039667126 -0.00919137 0.10959347 -0.13341509
0.031606838 -0.012791977 -0.11267211 -0.07020707 -0.14660479 -0.11796191 -0.03821454 0.14754851
0.085466385 0.081446745 -0.12431788 0.07032286 -0.041716933 -0.0512447 -0.13101852 0.13616045
0.07335297 -0.076471485 0.10524653 -0.0078805825 -0.006601361 -0.10295397 -0.14946076 0.010505027
0.16931558 0.10634973 0.11116724 0.1461502 -0.11861263 -0.027110705 0.03875353 0.030938465
0.016763853 0.084821336 -0.117316015 -0.047280923 0.07237457 -0.04037547 0.15901762 0.13825503
-0.07516359 0.15390795 -0.007508432 -0.10696463 0.06802486 0.10656628 0.07180127 0.009239498
0.023781419 0.1656074 0.102556966 -0.044660427 -0.044285454 -0.0049660318 0.02876915 0.12413877
-0.05818274 0.1152032 0.15803957 -0.01228311 0.10424488 0.09868179 0.15233548 -0.101644434
0.012183215 0.13979255 0.041171234 0.070009954 -0.032221984 -0.06489462 0.13159703 0.054937907

lstm.bias_hh_l0 f4 [192]
00000000: 9ab5 b33d 6cb2 d23d 78d8 533d 6f4c 50bd
00000010: 05dd 753c 120d 063e 5c34 ad3c c710 33bd
00000020: 6388 0a3e 70d1 873d fba3 153d 7493 ce3d
00000030: dd84 e8bd 330a 013e 3cd1 aabd 62fc 2d3d
00000040: 9e7e 4b3d be11 c2bc 1f35 0b3d bd4f 4dbd
00000050: ad83 9e3d ab6a f3bd e314 623c 1ffd 77bd
00000060: 1eb3 84bd e3b7 b43d e1a1 67bc e3f3 29bd
00000070: 0b0b a13d 2757 8fbd 664f 02be 610e b13d
00000080: 146e cc3d 39bb 453d 78af 233e 5f07 243e
00000090: 6d94 d0bd 7492 0dbd 322d bf3d 7c26 4c3c
000000a0: 0015 1bbb e3a0 963d 6085 1d3e 5f43 62bc
000000b0: 4f44 213e 1f9e 933d 95c7 c7bd 356b f93d
000000c0: ad8a 003e 61c2 a9bd efd7 a4bd 60ac a23b
000000d0: 40f6 013d d884 01be ba9c 033e fb05 ba3d
000000e0: 331a a2bb 3581 bfbd 7ba1 0f3c 0376 953d
000000f0: 135e 443d 2b79 053e 7c7f a73d 235d bdbd
00000100: 836b 4ebd 634a c3bc 3693 043e 7c12 debd
00000110: 6330 d9bd ab86 1c3e f0de 09bd 8697 c43d
00000120: 95c5 febc fa06 16bd c471 1f3e df55 2bbc
00000130: a48a a4bd c6a8 7d3d c52c 51bc 5bbd dabd
00000140: 69b5 a3bd a9a3 a93d 674f 91bd b7b9 68bd
00000150: 5984 e9bc 48dc 983d 64a4 14bd a4b4 3abd
00000160: 215d a13d 4bf1 04bc 65a9 c6bd 3394 413d
00000170: 5384 a7bd 222f e43d f361 e6bd d647 e73b
00000180: df89 9e3d 8855 06bd 0da1 8b3c 8b5c 05be
00000190: 0f62 e8bc 56ca 313c 6a20 063d 37a9 753c
000001a0: 3ce4 b5bc 564f e3bd 5471 773d 40fb 0cbe
000001b0: 3694 16ba c15e 1abc a2d0 8e3d 632c b03d
000001c0: 152a 803d 92cd b03d d12e 973d ff95 c23d
000001d0: 1a49 14be 9330 143c 6bb1 d33d d89e b4bd
000001e0: 9cc5 023d 4c1d fcbd 8ec2 a53c 0103 a63d
000001f0: db61 16be f5e6 483d 36cc bdbc 9ae2 b9bd
00000200: e715 e33c 524b 9cbd 7f5b ee3d 4cde b93a
00000210: 3b96 163d df12 d33d d303 033e f587 cc3d
00000220: 1d22 e3bd 2747 083d bc7f a8bd 26f1 eb3b
00000230: a908 d53c 0c54 28be 5780 743d b19f d83d
00000240: 31a6 a3bb 8d58 20bd c344 133e 3833 243e
00000250: 45f5 80bd 21fd 4fbd c4c4 dfbc fca8 363c
00000260: ea19 0c3e 8117 cd3b ba46 f8bc e30d ed3d
00000270: d87b f93c 8d53 8abd 60c8 b63d 0687 95bd
00000280: e2cf dcbc 21a8 083e adb3 9dbd 3cfc 14bd
00000290: 4354 56bc e49f d83d e628 fa3d 9451 7f3c
000002a0: 0ffa e2bd 7209 303e 7994 913d f599 b73d
000002b0: 91f6 233c 8486 6dbd 8d37 dfbd adf5 d63d
000002c0: 9bff c3bd f689 babd b1f6 803c c5e6 003e
000002d0: 576d bfbd 3215 a3bd e370 f03d b59f 21bd
000002e0: fc46 f53d 6f6c ce3d 41f2 af3d 2467 1c3e
000002f0: 6bcb ee3d 42a3 dcbd d83d f63d ab00 98bd
0.08774872 0.102879375 0.051720113 -0.050854143 0.015006308 0.13090923 0.021143131 -0.043717172
0.1352859 0.06631744 0.036533337 0.10086718 -0.11353467 0.12601547 -0.083406895 0.04247702
0.0496813 -0.0236901 0.033986207 -0.050124872 0.07739959 -0.1188558 0.013798925 -0.06054413
-0.064794764 0.08824136 -0.014137716 -0.041492354 0.078634344 -0.06999045 -0.127256 0.08645321
0.09981933 0.048274253 0.15984905 0.16018437 -0.1018456 -0.034563497 0.09334792 0.012460347
-0.002366364 0.073549055 0.1538291 -0.013810008 0.15748714 0.072078936 -0.09754864 0.12178651
0.125529 -0.08289028 -0.080489986 0.0049643964 0.031728983 -0.12648332 0.12852755 0.09083172
-0.004946971 -0.09350816 0.008766527 0.072978996 0.04794128 0.13034503 0.081786126 -0.0924628
-0.0503955 -0.023839181 0.12946782 -0.10843369 -0.10604932 0.15285747 -0.033659875 0.09599213
-0.031100074 -0.036627747 0.15570742 -0.010457485 -0.08034256 0.061928533 -0.012767022 -0.10680648
-0.079935856 0.08283169 -0.07095223 -0.056817736 -0.028505491 0.0746389 -0.036289588 -0.04558243
0.07879091 -0.008114169 -0.09700278 0.047260474 -0.08179536 0.11141802 -0.11249151 0.007058124
0.077411406 -0.032796413 0.017044568 -0.13023584 -0.02836707 0.010851463 0.032745756 0.014993957
-0.022203557 -0.110991165 0.060410812 -0.1376772 -0.0005744131 -0.009422005 0.06973387 0.08602216
0.062580265 0.086329594 0.073819764 0.09501266 -0.14481011 0.009044784 0.10336574 -0.088193595
0.031926736 -0.123102754 0.020234372 0.08106042 -0.14685766 0.049048383 -0.023168664 -0.09076424
0.027720405 -0.07631554 0.11638545 0.001418063 0.036764365 0.10306334 0.12794428 0.09986869
-0.11090491 0.03327098 -0.082274884 0.007200378 0.026005106 -0.16438311 0.059692707 0.10577334
-0.004994177 -0.03914695 0.143817 0.16035163 -0.062967815 -0.050778512 -0.027315505 0.011148687
0.1368176 0.0062589054 -0.030307163 0.11574914 0.030454561 -0.06754217 0.08924937 -0.07301144
-0.026954595 0.13345386 -0.07700286 -0.036373362 -0.013081613 0.10577372 0.12214832 0.015583415
-0.11082851 0.17191103 0.07108397 0.08964912 0.0100075165 -0.057989612 -0.10899267 0.10496078
-0.09570237 -0.09108345 0.015742632 0.12588032 -0.09347027 -0.07963027 0.117402814 -0.03945895
0.1197643 0.10079276 0.08591128 0.1527372 0.11659893 -0.107733265 0.120235145 -0.074220024

mlp.0.weight f4 [256, 54]
00000000: 1a46 45bd ff5e c8bd a3b4 d63d cb71 a0bc
00000010: 2214 82bc 3b77 7e3d 7b70 703c 3b45 90bd
00000020: 99bd fcbd ce7d 59bd 74f7 dabc 3205 023e
00000030: 6349 7ebd 1fa6 c63d 14f0 f3bd 8437 0ebd
00000040: 91e1 673d 3cf0 f7bc b36e 81bd 72b9 0fbd
00000050: 87ab e9bd 05d2 fc3d 470b c93d 7b70 013e
00000060: c992 02be 72fc 413d b822 b63c c7f5 203d
00000070: 3a94 e4bd 8ebf 0a3e 0572 b33d 4afb dfbd
00000080: 38a4 bf3c fa80 b23d aa67 33bc 0aa6 d53d
00000090: f75e cabd 5150 203d 5ede a43d 8cd6 dc3d
000000a0: b67d 063e f330 ad3d c19a c5bd 7fb2 8f3d
000000b0: 670f 46bd edee 84bd 6f99 243d 1fdb 26bd
000000c0: 5536 12bd 58a0 90bc a22c f43c fa09 46bd
000000d0: e7ca cb3d 1abb 9f3c ee57 9f3d 0d06 8ebd
000000e0: 1d0f a1bd 876b ba3d c893 9b3d 2f39 593d
000000f0: 2b08 2bbd 129f fabd 9433 dcbc 8945 a13d
00000100: e0c7 0ebe 06df c53d 28b4 bb3d 33f2 8dbc
00000110: e6f7 d1bd 721b 313d ae62 793d 98e2 b5bd
00000120: 500a 2fbd 2fab f73d 655b 1c3e bc7d de3d
00000130: 3524 233c cac4 233d 8d96 be3d 217d 463d
00000140: 0647 83bd bc52 843d c169 253e b5d7 7dbd
00000150: 4912 7bbd c0ef d03d 8d7f 1f3c b95b e0bd
00000160: a4da dd3b 79fa 0cbe 26d3 b53d 575c a23d
00000170: 0ecf 96bd 830a 45bd 8aad 603d 503d d23c
00000180: dbd7 abbc 3469 d83d 525f b8bd cf43 123e
00000190: ab0c 2b3d 667a c0bd 47d2 09be 5fac 243d
000001a0: 31af 053e f835 1cbe fa2d efbd 19d0 d9bd
000001b0: 98db e2bd c57a 04be bdfe 7e3d 0f7e 9fbd
000001c0: 9843 923d 8109 8b3d a133 c23d f3e0 4abb
000001d0: 3553 b0bd c79e d93c 8632 83bd c8f1 44bb
000001e0: 482e 71bd 0bcd 013d 7ff1 b6bd 3786 de3c
000001f0: e9c0 bb3d 14de 40bc b98b 703d 729b 0cbe
00000200: 7b41 493d 7d10 bfbd b58c 03be 0599 d93c
00000210: f801 b13d f5fb bf3d cad8 93bd 7e4e 183a
00000220: a040 733d 8932 f53d ff5d ef3d ed10 e83d
00000230: bd19 e8bb 3632 25bd 28f1 a9bd 58bc b33d
00000240: 0a60 843d 39db c3bd 06b8 a8bb 8f26 21bd
00000250: 8346 823c 8ef5 c53c 9360 39bc 79b0 d8bd
00000260: 0fec 473d 1d9a 84bd bda4 c4bd 6006 73bc
00000270: 53df e33c 1ddd aa3d a469 7bbc 1849 01be
00000280: 8089 0c3e d10c ebbd 036c 583c e791 d13c
00000290: ca01 abbd 2d48 3ebd ce72 98bd 3662 c1bd
000002a0: 8ff7 783d 0f45 04be 2961 063e 84cb 7d3d
000002b0: 3156 f1bd e64e eaba dbfc b2bd cd45 20be
000002c0: b793 61bd 14d1 d4bd 46b8 1d3e 74bf 52bd
000002d0: 5060 4fbc 79d8 0d3e 6dcc b0bd d0b3 6f3d
000002e0: a12e e6bb 0ccb 003d 5642 253d 4063 b03d
000002f0: 3992 1fbe 1d6f 0b3e d604 5fbb b608 0ebd
00000300: 77a1 b4bd 36de e0bd 77ff b0bd 7bd7 cbbd
00000310: 676c e2bc ebed f3bd 906d f53b bc12 463d
00000320: 99b4 d63d 977a 223d 8e33 0a3e 7fa4 0abd
00000330: f1e8 783d 2b48 f8bd fdc6 b03c 1a91 8a3d
00000340: bc85 853d 3efc 97bd 34c2 a3bd 2f2a 193e
00000350: 13b9 c83d 9e73 cf3d 64e9 95bd ed12 6339
00000360: 8107 1c3d 2c98 893c c742 04be a6f5 c83d
00000370: 41bb 23bd 8582 203d 8cbf 12bd b6bd 9cbd
00000380: 815b 93bd 7ac5 3e3c 8e47 813d d5af dabc
00000390: f67c 0bbc ef71 65bd 1e7b 96bd 034b 653d
000003a0: 99ff bcbd 4244 d73d da36 ef3d 9cae 2dbc
000003b0: 5fdc 383c 9b91 b93d 4fad 973b 2d9d f23c
000003c0: c444 d93c 13fe 163e f8d5 00be 495f 023e
000003d0: d4cf 80bd e7e0 a13d 0376 09be 2516 a0bd
000003e0: fe2f 1bbe 8d62 883d 55c4 6ebd 4bc5 e2bd
000003f0: a3f6 44bc 4972 c93d 3fda c8bd 3b60 f73d
-0.048162557 -0.09783744 0.104836725 -0.01958551 -0.01587874 0.062125426 0.014675255 -0.07044455
-0.123408504 -0.053098492 -0.026729323 0.12697294 -0.062081706 0.09699654 -0.11911026 -0.034720913
0.0566116 -0.03026592 -0.06319942 -0.035088964 -0.11409669 0.123447455 0.09816604 0.12640564
-0.12751307 0.04735989 0.022233352 0.03929689 -0.111610845 0.13549635 0.08761982 -0.109366015
0.023393735 0.087160066 -0.010950008 0.1043206 -0.09881394 0.039139096 0.08050226 0.10783109
0.13133892 0.08456602 -0.096486576 0.07016467 -0.048354533 -0.06490884 0.04018539 -0.040736314
-0.035696346 -0.017654583 0.029806439 -0.04834936 0.0995081 0.019498397 0.07780443 -0.06934748
-0.07864211 0.091025405 0.075965464 0.05303305 -0.041755836 -0.122373715 -0.026880063 0.07874591
-0.13943434 0.09661679 0.091652215 -0.017327404 -0.10252361 0.043239065 0.060885124 -0.0888111
-0.042734444 0.120931976 0.15269239 0.10863826 0.009957363 0.039982595 0.09306059 0.048459176
-0.06410031 0.06461093 0.16153623 -0.061973292 -0.061296735 0.10201979 0.009735 -0.10954995
0.0067704488 -0.13767423 0.08878164 0.07927769 -0.07363711 -0.048105728 0.054853 0.025664002
-0.020976951 0.10566941 -0.09002556 0.1428368 0.041760128 -0.09398346 -0.1345912 0.04020345
0.13055111 -0.15254962 -0.11678691 -0.106353946 -0.110770404 -0.12937458 0.062254656 -0.07787716
0.07141799 0.06788922 0.09482504 -0.0030956834 -0.086096205 0.026564969 -0.06406121 -0.003005134
-0.058882028 0.031689685 -0.089327805 0.027163608 0.09167654 -0.011771698 0.058727 -0.13731173
0.049134713 -0.09329317 -0.12846644 0.026562223 0.08642954 0.09374229 -0.072190836 0.0005810036
0.059387803 0.119725294 0.1168785 0.11331353 -0.0070831464 -0.040331088 -0.0829795 0.08776158
0.064636305 -0.09563298 -0.0051488904 -0.039343413 0.015902763 0.024164941 -0.011314529 -0.105805345
0.048809107 -0.06474707 -0.09601734 -0.014833063 0.02781645 0.08342955 -0.015345011 -0.1262554
0.13724327 -0.11477054 0.013209346 0.025582267 -0.083499506 -0.04645555 -0.07443772 -0.094425604
0.060782965 -0.12916969 0.13123001 0.061961666 -0.11784018 -0.0017876297 -0.087396346 -0.15651627
-0.055072512 -0.10391441 0.15402326 -0.051452115 -0.01265724 0.13852109 -0.08632741 0.058521092
-0.0070246016 0.03144364 0.040346466 0.086126804 -0.15583123 0.13616605 -0.0034029982 -0.034676276
-0.088198595 -0.109798834 -0.08642476 -0.09953209 -0.02763958 -0.119106136 0.0074898675 0.04835771
0.10483665 0.039667692 0.13496229 -0.033848282 0.060769025 -0.1212314 0.02157926 0.06765957
0.065196484 -0.07421158 -0.07996026 0.14957498 0.09800925 0.10129474 -0.07319906 0.00021655457
0.038093094 0.016796194 -0.12916099 0.09812479 -0.0399735 0.039186973 -0.035827205 -0.07653372
-0.07195187 0.011643762 0.06312476 -0.026695171 -0.00851368 -0.05601686 -0.073477015 0.05597974
-0.09228439 0.10511066 0.11680384 -0.010600712 0.011283009 0.09060975 0.0046288143 0.029615963
0.026522048 0.14745359 -0.12581623 0.12731661 -0.0628964 0.07904225 -0.13423924 -0.07816724
-0.15155026 0.06659422 -0.058292706 -0.11072787 -0.012021693 0.09836251 -0.09807252 0.120789014

mlp.0.bias f4 [256]
00000000: 306f e43c f9cc 95bd d4a0 833d 1de0 0b3e
00000010: 5c22 c13d 7992 c3bd fd9b fabd 302c 1a3c
00000020: e79e 8c3d 0b8e 03be 6f01 b3bd dc73 eabd
00000030: 016b eb3d e9a5 0d3e 78ae 05bd 4c79 0bbd
00000040: 65b6 8d3c 71f3 03be 3588 2e3d 11d7 753c
00000050: 0562 15bd 5203 533b d351 fbbc aa89 5dbd
00000060: 3e8b c5bd 6baa 083e ead1 1d3d 3167 57bb
00000070: b785 9d3d 4d54 773d a21b c03d 2852 023e
00000080: 5d59 05be b2d4 8fbd 2b2d b63c 14e7 55bd
00000090: 7bc9 5cbd fc52 da3d ebdb 893d f0de 4c3d
000000a0: 7c46 043d 0f7c 42bd ca37 9a3d 29f5 b73c
000000b0: 4215 083d 0556 b23c 46fd 723c 8236 673d
000000c0: c49b f83d 883a 70bd 53ba 99bd 109c fa3d
000000d0: 9453 91bd df0c f9bd e9ad 03bd b7d1 80bd
000000e0: 09d1 97bc 1598 4fbd c143 543b 1fcd 093e
000000f0: 7be6 aabd 0865 a2bd 4fb8 e1bc 5672 edbd
00000100: 3ac0 593c 8a02 d7bd f984 bfbc c253 e23c
00000110: 33e5 afbd 3882 f5bd 5fd2 0d3d f2e0 863d
00000120: 28ca e4bd 6e92 95bd 4fa7 383d 8b23 11bb
00000130: d66d babd f7db 8b3c 28e8 2bbc f90e b2bd
00000140: b884 04be 6c17 d33d 0a8b a7bd 479e debd
00000150: 3ad7 cebd 793e 0b3d 91bd ccbc 7b02 0b3e
00000160: 0584 b63c 94a8 b23d b18c 3b3d 8e70 08be
00000170: 5305 b3bd 0bf7 333c 3c82 263d 560f ff3d
00000180: 8259 8e3d 8f42 e43d 704a 323d 9812 843d
00000190: 01f8 063e ae7b 1abd efc4 443d 462b a9bb
000001a0: 51bf f53c e48c a1bd 0da7 97bd 49ca 173d
000001b0: 33be 9cbd 3ae1 9d3d 67fa 4cbb 6645 ad3d
000001c0: d729 bfbd 5ef9 9a3d 6e44 fa3d 2cee 06bc
000001d0: b6db c8bd 0420 633c ea92 22bd f198 d8bc
000001e0: eaf8 993c 1bde 3d3d f777 0f3e 91a8 85bd
000001f0: d121 3f3d c159 593d d087 f9bd 3111 e8bd
00000200: 3ad6 4e3d be8a ecbd f89f 013e 0994 053e
00000210: ebe2 9a3d 2301 8b3d 845a fdbd d38f 6b3d
00000220: c65f 223d 0124 313d ff61 8c3d 2a7f 3f3d
00000230: dda5 c53d 046b 84bc 01ad e53d 0649 1fbd
00000240: 4f5f 8bbd 6a69 6dbd 82ac 0bbe 22cf adbd
00000250: 3093 f63d 22a0 3dbd a616 693d 8750 133e
00000260: e060 ae3d 349f a7bd c605 fabd b4ad 023e
00000270: 7bfe c0bb 4b15 86bd cee2 29bd 9fa7 b5bc
00000280: 9512 943d 59a8 05be d3ef d6bc 8f4f abbd
00000290: 7e0c a3bd 8135 a43d d8dc 723d 5ac8 85bd
000002a0: 305b 8e3d 152f dabd 1aac 483d 4dc8 8dbc
000002b0: c596 dfbd a1a6 1bbd 3abf d8bd e422 033e
000002c0: d153 193e 8dc9 e3bd d36a ed3d 9120 ff3d
000002d0: ccbb 0abe 406f 01be 699d fe3d 5a53 503d
000002e0: c7cc bebd 1b5e 093e 8302 b8bd 7ba3 36bd
000002f0: a8b2 5c3d 08df b9bd 7c7c b0bd 2105 f33d
00000300: 5b90 b23d 1ad9 2d3d b5a1 01be fa2c 16bc
00000310: ee5c 643d d5ea 5fbd 66b5 f2bd 2598 163d
00000320: 7ad1 a8ba c08d f6bd 18c4 8a3d 6f46 dcbd
00000330: cb87 fcbd 7999 2abb 0682 80bd 4c1d 663d
00000340: 6253 a3bd f04d d93d 53c9 7e3d 5e8e bf3d
00000350: 8cfd a0bc d5ab b0bd f707 02bd 1da9 a0bc
00000360: 9e1f e43d 407b a63d 383c 6f3d 417a 673c
00000370: b20b 8cbd 8820 f93d e885 953c 1ead acbd
00000380: 0041 8db7 a861 9dbd 412f 083e b4e4 adbd
00000390: 4df8 b4bc c2f6 73bd f0cd c63d 6f21 a9bc
000003a0: 5dcd d1bb 3946 e2bd 2d54 ddbb 25a1 7e3c
000003b0: c218 86bd 6ee3 a7bc e4b3 9f3d 87d1 87bb
000003c0: 1633 07bc 4fa7 3dbd b9f2 f2bd 0728 a0ba
000003d0: 05ba f53d 161e 85bd 01ca f1bd 3664 f1bd
000003e0: 9b25 cdbb 3b8e 6b3c 34c9 70bd 688f c9bc
000003f0: c35d 43bd 8ab9 8d3d 9d32 d23c 4d4f b5bd
0.02788505 -0.07314486 0.0642716 0.13659711 0.09430382 -0.09549422 -0.12236784 0.009409949
0.06866246 -0.12847154 -0.08740508 -0.1144788 0.11495019 0.13832821 -0.03263709 -0.034051225
0.017298887 -0.12885834 0.042610366 0.015004889 -0.03647043 0.0032198024 -0.030678665 -0.054086365
-0.09645699 0.1334626 0.038530268 -0.0032867903 0.0769152 0.06038313 0.093802705 0.12726653
-0.1302237 -0.0702299 0.022238335 -0.052222326 -0.053903084 0.10660359 0.06731399 0.050017297
0.03229378 -0.047481593 0.07530172 0.022455769 0.033223398 0.021769533 0.014830893 0.056448467
0.12139085 -0.05864957 -0.07506242 0.12236798 -0.070960194 -0.12160658 -0.032148276 -0.0629
-0.018532293 -0.050682146 0.0032389017 0.13457154 -0.08344742 -0.079294264 -0.027553705 -0.115940735
0.013290459 -0.10498531 -0.023378836 0.02762783 -0.08588638 -0.11987728 0.034624454 0.06585874
-0.11171371 -0.0730332 0.045081433 -0.002214643 -0.09102981 0.01707266 -0.010492362 -0.08694262
-0.12941253 0.10307202 -0.081808165 -0.10870033 -0.10099645 0.033995125 -0.024992736 0.13575165
0.022279749 0.0872356 0.04578847 -0.13324186 -0.0874125 0.010984193 0.040651545 0.12454097
0.06950666 0.111455075 0.04352802 0.06448859 0.13180543 -0.037715606 0.048039373 -0.0051626293
0.029998453 -0.07888201 -0.07404909 0.03705815 -0.07653465 0.07708974 -0.003127718 0.08460502
-0.09334152 0.07567094 0.12220083 -0.008235496 -0.098075315 0.013862614 -0.03969089 -0.026440116
0.01879545 0.046354394 0.14010607 -0.06526292 0.04666311 0.05306411 -0.12184107 -0.11331404
0.05049727 -0.115499005 0.1265868 0.13044752 0.075628124 0.06787326 -0.1237078 0.05751021
0.039642118 0.043247227 0.06854629 0.046752132 0.096507765 -0.01616431 0.112146385 -0.038888
-0.06805288 -0.05796186 -0.13640025 -0.08486773 0.120397925 -0.046295293 0.056906365 0.14386187
0.08514571 -0.081846625 -0.122081324 0.12761575 -0.0058897114 -0.0654703 -0.041476063 -0.022174655
0.07230107 -0.13052501 -0.026237404 -0.08364784 -0.07961367 0.080180176 0.059292644 -0.06532355
0.069509864 -0.106535114 0.048992254 -0.017307425 -0.10917429 -0.038000707 -0.105833486 0.12806278
0.1497338 -0.11122427 0.11592641 0.124573834 -0.13548201 -0.12640095 0.12432367 0.05086074
-0.09316402 0.13414805 -0.08984854 -0.0445895 0.053881317 -0.09075743 -0.086174935 0.11866213
0.0871894 0.042443372 -0.12659343 -0.009165997 0.055752687 -0.054667313 -0.11851005 0.03676619
-0.0012879812 -0.120387554 0.06775683 -0.10755622 -0.12330588 -0.0026031418 -0.062748 0.056180283
-0.079748884 0.106105685 0.062203716 0.09353326 -0.01965215 -0.08626524 -0.031745877 -0.01961189
0.11138843 0.08128977 0.05840704 0.014128269 -0.06838168 0.12164408 0.018252328 -0.08431457
-1.6838778e-05 -0.07684642 0.13299276 -0.08490887 -0.022091055 -0.0595615 0.09707248 -0.020645825
-0.006402655 -0.1104855 -0.0067544193 0.01554135 -0.06547691 -0.02049419 0.07797983 -0.0041448507
-0.008251926 -0.046302136 -0.11862702 -0.001221896 0.11998371 -0.06499879 -0.11806107 -0.11786692
-0.0062605864 0.014377172 -0.058785632 -0.024604514 -0.04769684 0.069201544 0.0256589 -0.08853016

mlp.2.weight f4 [128, 256]
00000000: b80e 553c 8ddc e83c 9bce 163d eeab 13bd
00000010: f508 00bd 9b20 84bb fa24 68bd 33fc ef3c
00000020: f776 2abd ed13 6cbd 0133 19bd 04e0 08bd
00000030: 8820 603c 0a66 6e3d b8c3 623c 0015 9abc
00000040: ada4 fe3b 44e7 ce3c 80ad b8ba 7b14 7d3d
00000050: e1fa 65bd 73b6 bbbb 0bba 163c 9e3d 433d
00000060: 88a0 0dbd ba1b 1cbc 4907 43bd de21 063d
00000070: 6fcd 5cbc c42a 183d 9f15 2c3d 6759 c2bc
00000080: 458d 5a3d a3e1 3fbd 2425 67bd f87c fc3c
00000090: b81c 953c 02c0 14bd cec3 163d 590b 433c
000000a0: c552 263c 7c90 dcbc d068 6a3d 1096 25bd
000000b0: 64ac 40bd 67d1 013c 6e00 803d 88f0 1c3c
000000c0: b09b 453d 54d5 6cbd 7146 6dbd bfba 67bd
000000d0: d90f 9dbb 4a36 133d e740 8b3b 55a1 303d
000000e0: f0db 5fbd 4a64 3a3d a4c7 6fbd 71a8 343d
000000f0: eaae 133d 2bba d9bc fb48 133d 3467 a3bc
00000100: 21a9 68bd 7da1 afbc 7459 3d3c 47c2 3b3b
00000110: 4e31 0c3d 1301 b8bc 231e debc e0f7 553c
00000120: 3b5d 8fbc 0b57 eabc 644f d93c d210 0dbd
00000130: f87d 4b3c 45b9 e7bb 8bda 7abc 2f28 613d
00000140: 2062 6d3d 1292 093d 4d25 7e3d a0b2 7abc
00000150: 783e 4fbd 6870 23bd 56ab 14bd 6831 02bd
00000160: d878 b9bc 70a7 483c 9114 283d f02e 2a3d
00000170: e89b 673c e93c 38bd 6e05 1f3b bcff 1dbd
00000180: b24c a83c 8bdb 3b3d 1147 04bd c59c c53b
00000190: 13e4 323b 8e4c 35bc 6e45 12bd 7225 fbbc
000001a0: 2041 2e3d ffd3 593d da96 573d 9e3c 323d
000001b0: d7fc 2c3d 9dee 1bbd af31 3ebb 1072 583d
000001c0: 66f3 76bd 5685 a3bc 70b8 5d3c f911 c33c
000001d0: 2cb5 b9bb 54b8 adbc 2cef 803d e798 08bd
000001e0: 09fd 78bc 1dc9 c1bc a942 49bc c7b4 0bbc
000001f0: 30b4 44bd 5f8c 313d 657e d8bc c719 00bd
00000200: 745a 00bd 8f1f 61bc 6791 393d ca41 583c
00000210: 5002 383d 2d32 453d 4902 46bc db9a bc3c
00000220: 76d8 013d 48d5 40bd e85c edbc 27b1 7d3d
00000230: 2c19 a4ba 8fe6 a5bc 2293 2e3c 0dd4 f13c
00000240: 1a22 1abd c54b 65bd 4553 22bd 8693 e6bc
00000250: a3c0 57bd dd48 263c 7dfd 593b c03d 993c
00000260: 7f99 f73c 3284 4dbd 88a3 053d 66c6 71bd
00000270: cc37 7c3d 9212 27bd b1a3 6ebd 8a0f 07bd
00000280: 2e9e dfbc 9060 713d 8b41 09bd 9b4e 7cbd
00000290: 8799 4b3c c087 67bd 6da3 bfbc 38ed 6cbd
000002a0: 7098 273d 184f 66bd 6bfd c53c 382b babc
000002b0: a834 a0bc 6439 593d 3b33 debc ff27 6abd
000002c0: 8a23 6ebd 47e8 473a b9a4 b13c 5385 033d
000002d0: 032a 4dbc c0b0 02bb ef78 95bc 4a21 213c
000002e0: 31c3 22bd 44aa 193d 412b 793d 1804 883b
000002f0: 0ba9 0dbd 805f f9bc fd9e 42bc e11e 09bd
00000300: e22d 793d 630f 64bc 74cb 08bd 1220 f8bb
00000310: d369 c5bc dcb6 acbc a049 fabb 0bcc 1b3d
00000320: 71b2 373d d8a8 663d b2b0 523d 39b5 c03c
00000330: bc37 53bd 4e5c 40bd 707c b7bb 72d4 35bd
00000340: c7c2 58bd 4774 4b3d 0680 603d 1155 923b
00000350: db6b fd3c 2229 03bd c88b 05bd 109c e63c
00000360: 6df9 b13c 6770 293c 028d 92bc 521b 633d
00000370: 0cbe 38bd cd8c 6d3d 2089 233d 5c55 42bd
00000380: 7884 30bc de1e 1f3d a49b 893c d8ce 543d
00000390: 6604 1b3c 717e 3a3d e78b a13b 613f 3ebd
000003a0: cb72 dfba ec3b a5bc 76af 973c 226c 7b3d
000003b0: ff8a 6d3d 2c78 663d 9f7b 693d 9dd8 1c3c
000003c0: 5d90 6cbc a6f1 153d 53ad 57bc cdc3 04bd
000003d0: 5d77 64bd 32a7 f23c c616 c43c e433 e4bb
000003e0: c092 a6bb a2da a5bc fa81 ef3c 49f5 9f3c
000003f0: 9667 52bd 0e71 b3bc f654 00bd cc09 123d
0.0130039975 0.02842548 0.036818128 -0.036052637 -0.031258542 -0.004032207 -0.05667589 0.029295063
-0.04161736 -0.05763619 -0.037402157 -0.033416763 0.013679631 0.05820278 0.013840608 -0.018808842
0.0077710957 0.02525676 -0.0014089793 0.06178711 -0.05614746 -0.0057285368 0.00919963 0.047666185
-0.034576923 -0.009528095 -0.04761437 0.032747142 -0.013476714 0.03715016 0.042012807 -0.023724271
0.05335738 -0.046846043 -0.056431904 0.030821308 0.01820217 -0.036315925 0.036807828 0.011904561
0.01015157 -0.026924364 0.057228863 -0.040426314 -0.047039405 0.007923461 0.06250082 0.0095788315
0.04824418 -0.057820633 -0.057928506 -0.05657458 -0.004793149 0.035940446 0.0042496803 0.04312261
-0.054653108 0.0455058 -0.05854 0.04410595 0.036055483 -0.02657803 0.03595827 -0.019946672
-0.05680192 -0.021439308 0.011556972 0.0028649734 0.034226708 -0.02246145 -0.02711398 0.013059586
-0.01750051 -0.028605958 0.026527114 -0.03443987 0.01242017 -0.0070716464 -0.015310894 0.054969963
0.057954907 0.03358657 0.06204729 -0.015301377 -0.050596684 -0.03990212 -0.03629621 -0.0317854
-0.02264063 0.012246951 0.04103524 0.04154867 0.014136292 -0.044979963 0.002426471 -0.038573965
0.020544384 0.04586367 -0.032294337 0.0060306513 0.0027296587 -0.011065615 -0.035710745 -0.030657504
0.042542577 0.05318069 0.052634098 0.04351484 0.042233314 -0.038069356 -0.0029021313 0.052843153
-0.060290717 -0.01996104 0.013532743 0.023812281 -0.0056673493 -0.021206059 0.062956184 -0.033348944
-0.015197047 -0.023655469 -0.012283959 -0.008526987 -0.048023403 0.04334676 -0.026427457 -0.031274583
-0.031336263 -0.013740434 0.045304682 0.013199279 0.04492408 0.048143554 -0.012085506 0.02302306
0.031700574 -0.0470784 -0.028974965 0.061936524 -0.0012519709 -0.02025154 0.010655196 0.029520059
-0.037630178 -0.055980463 -0.039630193 -0.028146517 -0.052673947 0.010149208 0.0033262663 0.018706203
0.03022456 -0.0501749 0.03262666 -0.059027098 0.06157665 -0.040789194 -0.058261577 -0.032973804
-0.027297106 0.05892998 -0.033509772 -0.0615984 0.0124267405 -0.056525946 -0.023393357 -0.057843417
0.04091686 -0.056227773 0.02416869 -0.022725686 -0.019556358 0.053033248 -0.027124038 -0.05716705
-0.05813936 0.00076258596 0.021684991 0.03210957 -0.012522223 -0.0019941777 -0.018246142 0.009834597
-0.03973693 0.037515894 0.060832266 0.0041508786 -0.03458504 -0.030441046 -0.011878726 -0.033476714
0.060834773 -0.013919684 -0.033397153 -0.0075721825 -0.024098312 -0.021083288 -0.0076381713 0.038036387
0.04484791 0.056313366 0.05143804 0.023523914 -0.051566824 -0.04696303 -0.005599551 -0.044392057
-0.05292013 0.049671438 0.054809593 0.004465707 0.030935219 -0.03202165 -0.03260401 0.028150588
0.02172538 0.01034174 -0.017889503 0.055445977 -0.045103118 0.057995606 0.039925694 -0.047444686
-0.0107737705 0.038847797 0.016797848 0.051955074 0.009461498 0.04553074 0.0049300077 -0.04644716
-0.0017047761 -0.020170175 0.018516283 0.06138242 0.057993885 0.05626695 0.05700266 0.009573129
-0.014438716 0.036607407 -0.013163882 -0.032413293 -0.055777896 0.02962074 0.02393664 -0.0069641937
-0.005083412 -0.020245854 0.029236782 0.01952614 -0.05136832 -0.021904495 -0.031331025 0.035653874

mlp.2.bias f4 [128]
00000000: 1d56 463d 245d 633d 13cf 5cbd 698d 99bb
00000010: b709 f6bc 530a c8bc 1068 6c3d 5730 db3c
00000020: f803 b03c 449d f13c 1e18 14bd 7b88 f9bc
00000030: bea1 c1bc a057 46bd 766d d23c 4bef b2bc
00000040: b995 73bd 3cf1 23bd 58a2 89bc dbd4 adbc
00000050: 42a8 a5bb 3b28 8dbb 09e0 66bd 78ca 4cbc
00000060: 24a1 d53c d0b3 1fbc 62ea 8ebc b608 cc3c
00000070: 5667 01bd 4880 60bc d8de 7b3d e2d1 273d
00000080: 17b5 3abd 4dfa 5a3d 418d 75bb 740d 2b3c
00000090: dafa c2bb 9e9d 44bd bd32 473d 2e52 003c
000000a0: 79f5 283d ea6f 24bd ad0e 823d 166c 0cbd
000000b0: fa54 783d 405f 443d 9416 433d 8960 4dbd
000000c0: 8088 263c a6b0 6a3d f070 bdbb 795d 38bd
000000d0: 4080 263c 5634 2f3c 14fe e5ba b525 0a3d
000000e0: c3bb 783d 11aa d23c a7db 2abc 10c5 913b
000000f0: b455 36bd adc4 923a 237a f8bc 06d6 7fbd
00000100: 8043 103d 5f73 813c 5860 04bd 74f6 d0bc
00000110: fd12 80bd 6ea0 853d 3818 3cbc 8344 643c
00000120: e5c0 6dbd 4702 663d c215 3d3d 740c e8bc
00000130: 45c1 3e3d 843b 6e3d 94c4 593d 9004 603d
00000140: de08 4cbd 4b7b 9a3c 57fd 683d 1c41 1bbd
00000150: c120 4bbd 3dac 643d 2aa5 3a3d e6f5 c2bc
00000160: fc63 59bd cba5 2bbd 1083 e0bc 513d 713b
00000170: 273a 10bd a5cb 113d 10c7 013d c036 c6bb
00000180: a410 0d3d 98b8 063c d917 973c e68c 103d
00000190: e14b 243d 2c21 693d f462 5d3d 08e3 8d3d
000001a0: f175 663d 592e 8239 914e 86bb c7b0 a53d
000001b0: d439 2e3c 8f93 453d a2a1 9b3d 6c7e 83bc
000001c0: 4ba9 c23c 350d 063d 3d79 2abd 6c8a d1bc
000001d0: 9b9f 8c3d 36ba 173d 41ac ac3c 108e 483d
000001e0: 8407 22bd bda0 cfbc a789 6f3b 166f 3ebd
000001f0: c6fb 7fbd 654d 1e3d 48d1 3dbd d6eb 623c
0.048421968 0.055508748 -0.05390842 -0.004686047 -0.03003393 -0.024418985 0.05771643 0.026756449
0.021486267 0.029493935 -0.036155812 -0.030460587 -0.023636695 -0.04842341 0.02568696 -0.02184262
-0.05946896 -0.04002498 -0.016801044 -0.021219661 -0.0050554583 -0.0043077744 -0.056366 -0.012499444
0.026077814 -0.0097474605 -0.017445747 0.024906497 -0.03159269 -0.01370246 0.061491817 0.040971644
-0.045582857 0.05346136 -0.0037468227 0.010440219 -0.005950314 -0.048001878 0.048632372 0.007832093
0.041249726 -0.040145792 0.063504554 -0.034282766 0.060627915 0.0479424 0.047628954 -0.05014089
0.01016438 0.05729737 -0.0057812855 -0.045011017 0.010162413 0.01069363 -0.0017547035 0.033727366
0.06072594 0.02571586 -0.010428346 0.0044485405 -0.044515327 0.001119753 -0.030331677 -0.062459968
0.035220623 0.015802084 -0.032318443 -0.025508143 -0.06253622 0.0652474 -0.011480384 0.01393235
-0.058045287 0.056154516 0.046163328 -0.02832625 0.046571035 0.058162227 0.053165987 0.05469185
-0.049813144 0.018857619 0.05688223 -0.03790389 -0.049591783 0.05582832 0.04556767 -0.023798894
-0.05307387 -0.04190616 -0.027406245 0.003681023 -0.03521171 0.0355946 0.03168398 -0.006049007
0.034439698 0.0082227215 0.018443989 0.03529062 0.040111426 0.0569164 0.054049447 0.069280684
0.05626482 0.00024830064 -0.0040987213 0.08090358 0.0106339045 0.048236426 0.075991884 -0.016051494
0.023762366 0.03272744 -0.041619528 -0.0255787 0.0686638 0.03704282 0.02107823 0.048963606
-0.03955795 -0.0253452 0.0036550553 -0.04649266 -0.06249597 0.038648028 -0.046342164 0.013850173
