weights/steps_620001.pth (torch, 276355 bytes, 10 tensors)

lstm.weight_ih_l0 f4 [192, 7]
000000 1b a1 d4 bd dd 7a c8 bd 45 95 77 bd 2d 6d 22 3d
       -0.10382291 -0.09789059 -0.06044509 0.0396549
000010 5a 04 29 3e de 6f c2 bd 14 b7 7a bd 0c 6f d5 bd
       0.16505566 -0.09493993 -0.061209753 -0.10421571
000020 a9 23 36 be 53 96 9d bd a1 cf f2 bb 42 2b 3f bb
       -0.17787041 -0.07694688 -0.007410005 -0.002917007
000030 a7 0b 74 3d 78 e9 ef bc 28 a5 c1 3d 9c 2f 8f 3d
       0.059581425 -0.029286131 0.09455329 0.06991503
000040 36 87 a2 3d e2 b8 03 3e 6a ab b5 3d ed ee 97 3d
       0.07935946 0.12863496 0.08870585 0.07418618
000050 b8 75 9e 3d d3 f6 e2 bd 7b d3 27 3c 85 7b 04 3e
       0.07737297 -0.11082234 0.010243292 0.12937744
000060 95 cf 6e 3e 73 52 21 3e 85 69 a5 3d c1 86 d2 3d
       0.23321374 0.15754108 0.08076767 0.102796085
000070 8b 02 da 3d 5d b5 79 3d ec fe 03 3d f1 26 3e 3d
       0.10645016 0.060963977 0.032225534 0.046423856
000080 5a 56 37 3d 7d 3a 0e 3e e7 ee 1b 3c 01 98 80 bc
       0.044760086 0.13889499 0.009517408 -0.015697481
000090 16 cb eb bd 26 c9 fb 3d 4e 37 30 bd 93 d5 e9 3d
       -0.11513345 0.122942254 -0.043021493 0.11417689
0000a0 49 4c 56 bd a1 f4 d0 3d 4a 52 f8 bd 1e f7 48 3c
       -0.052318845 0.10202909 -0.121250704 0.012265949
0000b0 12 34 8d 3d 7a 40 16 3e 4f 51 1e 3e 4d 23 d2 bd
       0.06894697 0.14673033 0.15460704 -0.10260639
0000c0 03 42 7d bd b3 c6 03 bd c8 74 82 bd 2f 25 8b bd
       -0.06183053 -0.032171916 -0.063699305 -0.067942016
0000d0 81 74 10 3d ff c6 4b bd b0 0a b1 bd 52 ae a3 3c
       0.035267357 -0.049750324 -0.086446166 0.019980583
0000e0 99 4e d4 bd 1c b4 bd 3c 8b 8d 69 3d 06 23 c3 bc
       -0.10366554 0.023157172 0.05701975 -0.023820411
0000f0 65 d7 9a 3d 2b ea ad bd 37 81 c2 bc d3 07 5c 3e
       0.075606145 -0.084919296 -0.023743255 0.2148736
000100 7d d2 27 bd 94 cc a5 3d c1 2b ce 3d 7d c5 f8 3b
       -0.04097222 0.08095661 0.10066939 0.007591902
000110 0d c3 02 3e a5 32 0c bd a7 41 9a bd 62 87 cc bd
       0.12769718 -0.034227986 -0.075320534 -0.0998676
000120 4a 8a 3c 3d a6 60 42 3e 8f cb 2f 3e 2f 7b 97 bd
       0.04603032 0.18982181 0.17167495 -0.07396542
000130 a1 4e 24 3e 5f 43 0f be 43 b7 d9 bc 3d b3 fa 3d
       0.1604562 -0.13990544 -0.026576644 0.12241218
000140 66 dd 45 3d 7f 17 55 3d bf bc 10 3d 7c 9c 5e bb
       0.048306845 0.05202436 0.035336252 -0.0033967784
000150 b7 34 54 ba 05 81 04 bc fd a2 ef bd 93 11 67 3d
       -0.00080950133 -0.008087401 -0.117010094 0.056413244
000160 3e 50 26 bc 02 d9 d7 3c 45 72 91 bd da dc a5 3d
       -0.010150967 0.026348595 -0.07101873 0.08098765
000170 d1 78 0c bd 36 18 86 3d 37 36 38 3d 51 aa f8 bd
       -0.034294907 0.065475866 0.04497358 -0.1214186
000180 3e 6d e2 3d 48 8e f1 bd 7b 59 2e bd 07 fd 72 bd
       0.110559925 -0.11794716 -0.042565804 -0.059323337
000190 ed b0 c6 3d 8e 43 23 bd 59 84 9e bd 75 f8 6b bd
       0.09701715 -0.039859347 -0.07740087 -0.057609994
0001a0 66 ff 21 3e 09 36 2c be 11 cb 28 be 7a 05 b7 bd
       0.15820083 -0.16817488 -0.16483714 -0.089365914
0001b0 79 7c d7 3d 3e f4 db bd 9f b7 c7 3d b9 18 b9 bd
       0.10521788 -0.10739945 0.0975182 -0.090379186
0001c0 12 a7 b5 3d 35 47 09 3e 05 60 44 3d ad 45 c1 bd
       0.08869757 0.1340607 0.047943134 -0.09437118
0001d0 6c fc 4a 3d 81 8f 77 3d da 5e 3c 3e 09 dd 90 bd
       0.049557135 0.06043959 0.18395558 -0.07073409
0001e0 e1 87 2b be 91 02 03 3e 31 fe 03 3e e9 a7 04 3e
       -0.16751052 0.12793948 0.12889935 0.12954678
0001f0 6a ea e7 3d 61 2b 1e 3e 61 03 88 3c c4 f7 18 bd
       0.11324008 0.15446235 0.016603174 -0.037345663
000200 b6 96 cd 3d 71 95 2a bd df 1b 55 3e a9 f9 e7 3d
       0.100385115 -0.041646425 0.20811413 0.11326916
000210 d1 4f c1 3d 91 35 05 3e f1 be 4e 3e 26 16 ff 3d
       0.09439052 0.13008715 0.20190026 0.12455396
000220 43 96 75 3d ab c6 b3 bd e4 5a 49 3e 77 6a 07 3e
       0.059957754 -0.08778127 0.19663578 0.13224207
000230 9c 55 30 bd 37 30 bd 3c 2b 72 bc 3d 3e 10 04 3e
       -0.043050393 0.02309428 0.09201463 0.12896821
000240 a2 78 b2 3d f3 85 ec bd 60 87 c5 3d 3c 15 45 bd
       0.08714415 -0.11548986 0.09644961 -0.048115954
000250 eb b7 b0 bd 90 06 09 3d 6e 25 86 3c 3b d9 f1 3c
       -0.086288296 0.033453524 0.01637527 0.029522529
000260 b1 e6 78 bd 7e 65 af bb 7a 00 10 be 30 63 f9 bd
       -0.06076688 -0.005352675 -0.14062682 -0.12177122
000270 35 45 87 bd 94 0c c8 3a bb a9 9c 3d 2e d6 dd bd
       -0.06604997 0.0015262538 0.07649561 -0.10831867
000280 2e 42 b6 3b a7 29 36 bd 9e 2b 72 bc b7 27 1b 3d
       0.0055620885 -0.044473317 -0.014780907 0.037879672
000290 50 60 e8 3d aa cd 1c 3e 5f 02 cb bc d1 c0 1b 3e
       0.11346495 0.1531283 -0.024781404 0.15210272
0002a0 dd 13 46 3e cd 27 49 3d cd ad 02 3e 7b 41 1d 3b
       0.19343515 0.049110223 0.12761612 0.0023995328
0002b0 6a a9 69 3d 23 f0 00 3e 99 56 35 bd f6 d7 34 3e
       0.05704633 0.12591605 -0.04427204 0.17660508
0002c0 ff de fa 3d 0a 39 d8 3d 65 6a 64 3e 7c e0 97 3d
       0.122495644 0.10557754 0.22306211 0.07415864
0002d0 20 a7 dc bd 32 f5 5a 3d 01 3b 18 3e 11 11 af bd
       -0.10774064 0.053456493 0.14866258 -0.08548177
0002e0 f7 4b c1 3d a0 30 25 3e 2c 6c f7 3d 28 fc 86 3d
       0.09438317 0.1613183 0.12081179 0.06591064
0002f0 6c f9 05 3e cf 92 8d 3a e0 12 3a 3e c1 2d c4 3d
       0.13083428 0.0010801199 0.18171263 0.09579039
000300 d5 cf 34 3e ee 65 25 bd 6a ec 2a 3e 2f eb 89 3d
       0.17657407 -0.04038041 0.16691747 0.06734311
000310 4b 73 8f 3d 89 c2 05 bc 90 63 16 bd f6 f6 aa 3c
       0.07004412 -0.008164057 -0.036716044 0.020869713
000320 10 85 08 3e fc eb 90 3c 51 55 27 3e 04 19 2c 3e
       0.1333201 0.017690651 0.1634114 0.16806418
000330 b4 5e c9 3c ee b9 ff 3d 94 8a ca 3d db 4c 6e 3d
       0.02458129 0.12486635 0.09889713 0.058178764
000340 e9 ee 10 3e f6 a0 79 bd d3 e1 df 3c 8a 1e 13 be
       0.14153637 -0.06094452 0.027329361 -0.14367118
000350 69 81 13 3e f7 95 82 3d 77 f4 b5 3d a7 48 3f 3d
       0.14404835 0.0637626 0.088845186 0.046700146
000360 7c 8c 2b 3e 32 34 e4 bd d9 1a 86 bd 2e 39 af bc
       0.1675281 -0.11142768 -0.065480895 -0.02138957
000370 33 ae e9 3d 8d c1 91 3d 2d 3f 02 be d8 3e 30 3e
       0.11410179 0.07116995 -0.12719412 0.17211473
000380 06 0b 71 3d 56 9f 15 3e 8b c0 51 3d 84 91 cc 3d
       0.058848403 0.14611563 0.051209014 0.099886924
000390 1a 99 3a 3e 12 ce 4c bc 91 cd e9 bc 67 c9 5e 3d
       0.18222466 -0.012500303 -0.028540405 0.05439129
0003a0 74 74 61 ba d1 aa 2a 3b e8 61 04 3e 39 6d 98 bd
       -0.0008600422 0.0026041756 0.12927973 -0.074427076
0003b0 16 8d 38 3d 1e 93 e8 3d c4 0a e7 bd b0 7d ad bd
       0.045056425 0.113561854 -0.1128135 -0.084712386
0003c0 e9 94 0c bc 99 ee 76 3d ff 5b e4 b9 af 20 f9 bd
       -0.008580425 0.06028614 -0.0004355609 -0.12164437
0003d0 90 44 2c 3c c3 76 0c be 7b 4c dc 3d b8 99 a4 3d
       0.010514393 -0.13717179 0.10756775 0.08037132
0003e0 d3 b7 65 3d 20 29 15 3e dc dc ca 3d d8 91 18 bd
       0.05608351 0.14566469 0.09905407 -0.037248462
0003f0 98 62 0d be 22 67 d2 bd 48 21 17 3e 0e 15 c7 3d
       -0.13807142 -0.10273577 0.1475879 0.09720813

lstm.weight_hh_l0 f4 [192, 48]
000000 52 00 f2 3d c0 8e a8 3d 2a de e2 bd b3 66 33 3d
       0.11816467 0.082303524 -0.11077531 0.043799113
000010 1d 1f 66 3d 0d 34 17 be 69 63 39 be 84 34 2b 3b
       0.056182016 -0.1476595 -0.18104328 0.002612383
000020 86 ea 40 bd 7b 95 72 3d 1b 6e 83 bc 9d 41 08 3d
       -0.04709866 0.059224587 -0.016043713 0.0332657
000030 71 19 1b 3e ba 20 22 3d df 59 80 bd f9 69 d0 3d
       0.15146424 0.03958199 -0.062671416 0.10176463
000040 4a 5a 29 bd 9f 10 e4 3d 73 53 34 3c e0 73 0e be
       -0.041345872 0.11135983 0.011006224 -0.1391139
000050 f8 bf 0f 3c ca c2 09 3e 34 18 74 3d f5 eb 44 bd
       0.008773796 0.13453212 0.059593394 -0.04807659
000060 e4 a3 1e 3c 7d 74 09 3d a7 4e 9d bd 42 1f 99 bb
       0.009682629 0.033558358 -0.07681017 -0.0046729157
000070 4b 9b 4b be 6d 4e 0e be 88 32 63 bd 89 bb c6 bc
       -0.19883458 -0.13897105 -0.055468112 -0.024259346
000080 9e 5a 22 bd c9 23 9a bd 95 34 8a bd 61 82 9b bb
       -0.0396372 -0.07526357 -0.067483105 -0.004745767
000090 5e ed 85 3d 51 f2 bd bd e1 90 27 be 76 06 c7 bb
       0.06539415 -0.09274734 -0.1636386 -0.0060737683
0000a0 0f 1b 8d bd f1 61 a3 bd 28 5b 5a be 02 94 de bc
       -0.06889927 -0.07977665 -0.21323836 -0.027170185
0000b0 d4 38 2d 3d c5 2e d5 bd b4 de 74 bc 5c f5 b7 3d
       0.042290524 -0.10409311 -0.014945675 0.089823455
0000c0 87 6c e3 bd de 1e 42 bd 61 c3 b5 bd 70 00 c3 3d
       -0.11104684 -0.04739272 -0.08875156 0.09521568
0000d0 9f e5 5e bd e8 95 c6 3b 64 20 f1 3d 17 1e 1f be
       -0.054418202 0.0060603507 0.11773756 -0.15538822
0000e0 be eb fb 3c 46 e2 1d bd 24 65 da 3d 97 9c 10 bd
       0.03075206 -0.03854587 0.10663822 -0.035305586
0000f0 78 ca e9 3d dd b6 ab bd 25 36 7b 3d ec d1 59 bd
       0.11415571 -0.08384488 0.061330933 -0.053178713
000100 e2 1d ef 3d 22 1c 01 3e 8f dc da 3b b2 aa 32 be
       0.116756216 0.12608388 0.0066791247 -0.17447928
000110 2b 04 ce 3d 0f ce 34 3e b8 71 38 3d 94 3d 89 bd
       0.10059389 0.1765673 0.045030326 -0.06701198
000120 82 24 9d 3c 06 88 25 be a6 ad 43 bd b1 eb 9e bd
       0.019182447 -0.1616517 -0.047773026 -0.07759798
000130 c1 75 17 be 83 d7 90 bd 0e 72 a6 bd 80 de b5 3d
       -0.14791013 -0.070723556 -0.08127223 0.08880329
000140 61 4d 10 be e7 19 b0 bd ab c9 85 3d 77 8f f5 bc
       -0.14092018 -0.085986905 0.06532606 -0.029975636
000150 5e 21 b9 bd 35 14 9e 3c 59 4c b1 3d d4 68 0a 3e
       -0.090395674 0.019296745 0.0865714 0.13516551
000160 f1 be b8 3c 09 77 00 bd 95 72 e8 3a e0 22 70 bd
       0.022551985 -0.03136352 0.0017734343 -0.05862701
000170 db 7e df 3c 75 f8 62 bd 15 fb 27 be ab c8 9a bd
       0.02728217 -0.05541273 -0.16404374 -0.07557806
000180 6a e1 97 3c 94 44 04 be 45 e1 15 3e a1 82 bb bd
       0.018540103 -0.12916785 0.14636715 -0.09155775
000190 4c 93 28 be 29 01 50 be a5 2f fd bd 1e 50 38 bd
       -0.1646244 -0.20312943 -0.12362603 -0.04499828
0001a0 a4 7c b3 3b 8e a2 e8 3c b1 00 46 3e 88 02 01 bd
       0.005477505 0.028397825 0.19336201 -0.031496555
0001b0 e1 8d c9 3d 53 83 a9 3d 66 7a 9f bc a6 ad c9 bd
       0.098415144 0.08277001 -0.019467544 -0.09847574
0001c0 55 50 cd 3d bd 09 3f be 2a fd b2 bd 45 84 76 3c
       0.10025088 -0.18656059 -0.087396935 0.015046184
0001d0 a7 a9 21 be 65 6a e1 3d 3c d3 53 3d 06 de 0b be
       -0.15787373 0.11006621 0.05171512 -0.13658914
0001e0 aa 55 fd bd 87 1a 91 3d 34 6d 41 be 4e 01 74 be
       -0.12369855 0.07085138 -0.18889314 -0.23828623
0001f0 1b 39 31 be 58 ec 16 be e3 a1 1d 3e fd d9 80 3d
       -0.1730694 -0.14738595 0.15393786 0.06291578
000200 24 70 33 3e fb f4 40 3e 69 4b 7a ba 6a 76 33 3d
       0.17523247 0.18843453 -0.000954798 0.0438141
000210 da 58 c1 3c 2f 95 12 3c 80 0b 10 bd 6c 62 5a 3e
       0.023601938 0.008946701 -0.035167217 0.21326607
000220 12 c4 53 3d 83 ea b9 3d 31 06 c7 3c 7b 73 68 3e
       0.05170066 0.09077933 0.024294944 0.22700302
000230 50 88 0e 3d d0 f1 78 bd 3e 7d 2e be 12 aa 65 3c
       0.034797966 -0.060777485 -0.17039964 0.014017599
000240 e2 18 1a 3d 63 ca 63 3c 2b 7a 3c bd de f3 13 bb
       0.037621386 0.013903233 -0.046014946 -0.0022575776
000250 59 62 44 be 82 44 73 be cb 10 ce bd b2 fc 5d be
       -0.19178142 -0.23756602 -0.10061797 -0.21678427
000260 64 82 db bc 23 c7 3f 3e c2 eb 35 3d f0 5c 19 be
       -0.026795574 0.18728308 0.04441429 -0.14976859
000270 7f 18 0b 3e 42 a6 3f 3d 53 2a eb 3c be 0a 56 bb
       0.13583563 0.046789415 0.028706705 -0.0032660211
000280 72 b5 1a 3d 8c 5c f0 bd e4 56 25 3e 6a b5 fa bc
       0.037770696 -0.11736402 0.16146427 -0.030604083
000290 ff f5 bd bc 25 aa 58 3e b0 df 3d bd 1d 79 0b be
       -0.02318859 0.21158655 -0.046355903 -0.1362042
0002a0 47 d0 0d be 0a ce cc 3c e4 45 41 bc c5 70 0d bd
       -0.13848983 0.02500059 -0.011796448 -0.034531374
0002b0 88 81 08 be 1a eb 23 be 83 d6 c1 3d 88 e2 54 3e
       -0.13330662 -0.16007653 0.09464743 0.2078954
0002c0 c5 16 b6 3d 1e 94 e7 3b 0f c7 08 3d ff 7b 15 3e
       0.08891062 0.0070672175 0.033392962 0.14598082
0002d0 74 6a 8a 3c 54 8d 00 be d2 09 25 bd 5c bb 4f 3e
       0.016896464 -0.12553912 -0.04029257 0.20286316
0002e0 b8 8f 3d 3e 41 01 1c be ca d8 b7 3b 6e f4 5b bd
       0.18511856 -0.15234853 0.00561056 -0.053699903
0002f0 f4 c9 92 bc 9a 9c c9 bd 91 54 46 be 75 fd 12 3e
       -0.017918564 -0.098443225 -0.19368197 0.14354499
000300 25 c5 a0 3e 3f a3 13 be 3a 44 87 3e 5e 7a 3f be
       0.3140041 -0.14417742 0.2641924 -0.18699023
000310 02 0d 86 be 06 7a 7d be 63 69 7d be 02 f7 66 be
       -0.261818 -0.2475358 -0.24747233 -0.22555164
000320 6b 00 6a bc 5c 23 24 3e d5 3b 97 3e 27 2b ce bc
       -0.014282326 0.16029114 0.29537836 -0.025167061
000330 b9 92 cc 3c 7b 1b 2e 3e 37 3f 79 3e 13 03 2f be
       0.024972307 0.1700267 0.24340521 -0.17091016
000340 f9 d5 42 3e 7f 41 a4 be ea 92 78 3e 61 7b c3 3d
       0.19026937 -0.3208122 0.24274793 0.09545017
000350 e5 91 6f be 12 91 67 3d a8 4d 86 3e 27 b9 5f be
       -0.23395498 0.056534834 0.26231122 -0.21847974
000360 a1 8c 48 be cb b1 aa 3e 23 7f 85 be 1d bb 95 be
       -0.19584896 0.3333877 -0.2607356 -0.2924432
000370 81 56 72 bd c0 91 14 be 52 f7 0a 3e 53 e4 23 3e
       -0.059164528 -0.14508724 0.13570908 0.16005068
000380 27 87 9b 3d 80 2b 16 3d 5d 5f ef 3d a5 c4 c2 3e
       0.07594138 0.03666258 0.11688111 0.38040653
000390 1f 8b 86 bd a6 d3 2b be e1 6a b4 bd 6f 47 f2 3d
       -0.06569504 -0.16779956 -0.08809448 0.11830031
0003a0 be 9c 4d 3e 25 24 3c bd 2d e7 55 be 05 68 2f 3e
       0.20079324 -0.045932908 -0.20888968 0.17129524
0003b0 1b 4f be 3d 97 28 1f bd 42 1b ac be cc 9d d4 3d
       0.09292432 -0.03885707 -0.33614546 0.1038166
0003c0 b4 57 64 3d d9 8a 56 be 6a 55 dc 3d 20 59 72 bd
       0.055747703 -0.20951404 0.10758479 -0.059167027
0003d0 ce 46 b9 bc 29 2e 6b be 7b 49 de bc fa 94 c5 bb
       -0.02261677 -0.22966827 -0.027134648 -0.0060297223
0003e0 15 ea 5a be 0f af 04 3e 7b 70 64 3e 1a 40 1d 3d
       -0.21378358 0.12957405 0.22308533 0.03839121
0003f0 a3 bb 18 3e 6e 47 35 3b a9 ca 70 bd 5f 57 00 be
       0.14915328 0.0027660984 -0.05878702 -0.1253333

lstm.bias_ih_l0 f4 [192]
000000 20 80 93 3d 20 9f 82 3d 25 9c 1d bd 1a e5 53 bd
       0.07202172 0.06378007 -0.03847899 -0.05173216
000010 0c ba d6 bb d6 60 37 bd 0c e3 c5 3d e8 3c 97 3d
       -0.0065529402 -0.044770084 0.096624464 0.07384664
000020 77 cb b4 3d 8f 58 01 3e f1 21 3a 3d 91 af fd bd
       0.0882787 0.12631439 0.045442525 -0.12387002
000030 1b 7f 05 bd f2 b9 97 3d 9d 16 98 bd 1e 15 aa 3c
       -0.03259192 0.07408513 -0.07426188 0.020762023
000040 46 c9 39 bd 1c ef 88 3d 76 9e 49 3e 53 07 35 bd
       -0.045357965 0.066862315 0.19689354 -0.044196438
000050 2e e3 34 3e 5d 95 b5 3d 04 0d 03 3e 23 aa cd 3d
       0.17664787 0.088663794 0.12797934 0.10042217
000060 3a 16 04 bd e1 4f 9d 3d f8 bf 08 3e f1 f9 d5 3d
       -0.03224776 0.07681251 0.1335448 0.10448063
000070 13 36 6f 3c 9e a4 50 3d 54 d6 b9 bd d7 61 18 3e
       0.014600295 0.05093824 -0.09074083 0.14881073
000080 05 f3 9a bd 15 42 47 3c e4 19 07 3e 5c 2f 6c bd
       -0.075658835 0.012161751 0.1319347 -0.057662353
000090 1e d8 d9 bd 4f e5 05 3e 0e b3 8e bd f5 3b f6 3d
       -0.10636924 0.13075756 -0.06967746 0.12023155
0000a0 f2 c4 a4 bd ef be 59 3e 6a b9 d1 3d 71 93 ee bb
       -0.08045377 0.21264242 0.10240443 -0.00728076
0000b0 c3 4f 9b 3d 6b f7 7d 3d 67 57 bd 3d 78 fb b3 bd
       0.07583573 0.062003534 0.09245186 -0.08788198
0000c0 7e 3b 6c 3c cd e1 5a 3d bc 4f c3 3c 4e a8 0b 3e
       0.014418481 0.053437997 0.023841731 0.13638422
0000d0 0d 95 39 bc 36 85 cb bd 3a 1c 0e 3e 3e b7 43 3e
       -0.01132704 -0.09937517 0.13877955 0.1911287
0000e0 c5 31 ee 3b 65 40 be 3d bb 6f e1 bc 3f 9a cf bd
       0.0072691166 0.09289626 -0.027519098 -0.10136842
0000f0 2b a3 c7 3a 5f f2 1e 3d 10 be 3f bd f3 b3 b4 3d
       0.0015231123 0.03880536 -0.046812117 0.08823385
000100 f2 02 10 3e 5f 04 e2 bc 24 c3 90 bd b0 98 9c bd
       0.14063624 -0.027589975 -0.0706847 -0.0764631
000110 03 5c b1 3d b4 2a 46 3e 23 39 29 3d a1 b3 0f 3e
       0.08660128 0.19352227 0.041314255 0.14033367
000120 d8 41 19 3d 07 bf 35 bd 06 af 75 3d e9 5e 9b bc
       0.03741631 -0.04437163 0.05998137 -0.018966155
000130 e8 28 b7 3d 07 87 5a 3d 8e 80 ad 3d 13 9f db bd
       0.08943349 0.05335143 0.084717855 -0.107237004
000140 4f 9c c5 bb 20 d2 b9 bd 4d 40 7c bd 31 81 20 3e
       -0.0060305963 -0.09073281 -0.06158476 0.15674283
000150 20 be b4 bd c8 82 28 3e 5e e6 f9 3d 69 fa 2e 3d
       -0.08825326 0.16456139 0.12202142 0.04271928
000160 e5 4d 0d 3e e1 83 14 bc c1 d5 01 3e 9a 26 66 3d
       0.13799246 -0.0090646455 0.12679197 0.056189157
000170 07 f5 d6 bd b1 56 aa bd 80 79 03 3d 1e 24 8f 3d
       -0.10495954 -0.08317316 0.032098293 0.06989311
000180 4e 61 54 3d 86 d8 e3 3c 5f 72 ec 3d e6 d2 b6 bd
       0.05185061 0.027813207 0.11545252 -0.089269444
000190 35 bc 9f 3d ae 4d 46 3d d7 a4 9c bc 02 02 b3 bd
       0.077995695 0.048413925 -0.01912157 -0.08740617
0001a0 5e e1 c7 3d c6 d0 d5 bb 6b c3 a0 bd 6b ec 24 be
       0.09759782 -0.006525132 -0.07849773 -0.16105811
0001b0 69 6c 35 bb 89 8b e0 3b ac 85 bb bc 4c cf 01 3e
       -0.0027683026 0.0068525714 -0.022890888 0.12676734
0001c0 48 aa d5 3d 28 57 04 3e 6b 70 65 3d 8c 7b 18 be
       0.10432869 0.12923872 0.056015413 -0.1489088
0001d0 a7 a8 3d bd 23 56 a9 bb f1 f9 f0 3d 07 da fd bd
       -0.046303418 -0.005167739 0.117664225 -0.12395101
0001e0 65 94 0c 3d dd ef 95 bb ab 6c a5 bd 4d 2b 6d bd
       0.034321208 -0.004575713 -0.080773674 -0.057902623
0001f0 5c e9 ed bd 4a f1 13 be 30 36 0b bd da 5b f7 3d
       -0.116167754 -0.14447513 -0.033987224 0.12078066
000200 d7 f3 74 3d b6 16 b7 3d df f4 0c be 61 76 94 3d
       0.059802856 0.08939879 -0.13765286 0.072491415
000210 57 f9 2d bd b9 13 2a bc 75 bd f4 bd d9 8f f2 3d
       -0.042474117 -0.010380679 -0.119501986 0.11843843
000220 f6 45 96 3d aa 42 c5 bd e1 c2 c8 3d 33 03 72 3b
       0.07337563 -0.09631856 0.09802795 0.0036928176
000230 32 0c 98 bc fe ee ea bd 5d fa 25 be 38 41 85 bc
       -0.018560503 -0.114713654 -0.16208787 -0.01626645
000240 8d ad 47 3e d3 b7 0a 3e 5c c1 ee 3d a4 34 29 3e
       0.19499798 0.13546686 0.11657974 0.16523987
000250 8d ec b6 bd 66 2c a9 3c 55 1c 9d 3d b6 d6 cc 3d
       -0.08931837 0.020651054 0.076714195 0.1000189
000260 43 86 91 3d a2 48 d9 3d ed 10 9c bd fe f8 0d bc
       0.071056865 0.10609557 -0.07620416 -0.008665321
000270 68 08 ec 3d 62 e1 d4 bc 37 64 43 3e 73 9b 39 3e
       0.11525041 -0.025986377 0.19081198 0.18125705
000280 a3 b2 bd bc 29 c9 41 3e 6d 72 ed 3c 70 34 f5 bc
       -0.02315647 0.18924393 0.028985227 -0.02993223
000290 80 17 f1 3d 6a 5d 31 3e 1e 81 f0 3d 1d ec e7 3c
       0.117720604 0.17320791 0.11743377 0.02831083
0002a0 11 a6 17 3d c3 56 4f 3e 23 5d 1a 3e 47 ee 90 bb
       0.037023608 0.2024794 0.15074591 -0.004422936
0002b0 14 89 79 ba 4f e1 51 3c 82 ac 61 3d 6e 6c 5f 3e
       -0.00095190224 0.012810065 0.055096157 0.21818706
0002c0 82 4f fb bc 02 9a 01 3e 40 d8 6a 3e 81 ff 54 3d
       -0.03067756 0.12656406 0.22934055 0.05200148
0002d0 a1 db ff 3d fc a3 0c 3e f1 a3 52 3e 85 61 43 bd
       0.12493063 0.1373443 0.20570351 -0.047700424
0002e0 13 d9 a6 3c 5c d7 89 3e 57 ae 82 3d f6 5a 94 3d
       0.02036718 0.2692212 0.06380909 0.07243912
0002f0 e4 7f 46 bb bd a8 e3 bc 03 b3 17 3e 70 43 b3 3d
       -0.003028863 -0.027790422 0.14814381 0.08753097

lstm.bias_hh_l0 f4 [192]
000000 23 71 c7 3d 1a b2 c9 3d a2 1b 90 3d d8 7e 0f bd
       0.09738376 0.09848423 0.070365205 -0.035033077
000010 46 5c 97 3d db ef 17 3e 4a 82 e4 3c 81 25 60 bb
       0.07390647 0.14837591 0.027894158 -0.0034202042
000020 ec 12 1b 3e 2f 22 e3 3d d0 69 4b 3d 0f 6d c8 3d
       0.15143937 0.110905044 0.049661458 0.09786426
000030 a5 00 76 bd a6 7e 00 3e 5b 86 b5 bd fd 24 d8 3c
       -0.06005921 0.12548313 -0.08863517 0.026384825
000040 26 d1 a6 3d d9 c7 01 ba a8 35 fb 3d 9c 7f 9e bd
       0.08145361 -0.0004950739 0.122660935 -0.07739183
000050 2d f1 c6 3d 3f a1 b8 bd 75 99 fe 3b 69 01 00 bd
       0.097139694 -0.0901513 0.0077697583 -0.031251345
000060 a2 2a 2c bd 08 17 0f 3e 33 c5 43 bc ae 42 e4 bc
       -0.042032845 0.1397363 -0.011948871 -0.027863827
000070 8d 4a c7 3d 79 28 ea bc 14 24 d8 bd c0 74 d8 3d
       0.09731016 -0.028583752 -0.10553756 0.10569143
000080 19 4f 01 3e 90 84 94 3d 53 f6 35 3e e9 d3 1e 3e
       0.1262783 0.07251847 0.17769746 0.15510525
000090 33 89 cb bd f4 fe 0d 3c 11 06 d0 3d 2f 3c 5c 3d
       -0.09938278 0.008666743 0.10157407 0.053768333
0000a0 41 bf 89 ba 27 a6 2c 3e 01 28 37 3e 46 7f 62 3c
       -0.0010509269 0.16860257 0.17886354 0.01382429
0000b0 15 f5 38 3e b3 a4 c9 3d fa 36 87 bd 77 b3 05 3e
       0.18062241 0.09845867 -0.06602283 0.13056742
0000c0 ef 4a f7 3d 1b 8c c0 bd 49 e3 bc bd d5 24 2b 3c
       0.12074839 -0.09401723 -0.09223039 0.010445793
0000d0 06 ae 5a 3d f4 fd eb bd 65 d8 18 3e be 96 1a 3e
       0.053388618 -0.11523047 0.14926298 0.15096566
0000e0 e9 ff cc ba 1c 77 0f be 35 3d 1a bc 6c 36 90 3d
       -0.0015640232 -0.1401028 -0.009414007 0.0704163
0000f0 1c 8f ff b8 8d c5 0a 3e 56 5c 81 3d 89 cf b2 bd
       -0.00012186004 0.13551922 0.0631644 -0.087309904
000100 5e ab 8e bc 03 2b 0c bc eb b3 19 3e 9c b8 98 bd
       -0.017415699 -0.008555177 0.1501004 -0.074570864
000110 bb cb a3 bd 1a bd 3d 3e c9 8b 86 bc 8f e1 a8 3d
       -0.07997843 0.18529168 -0.016424077 0.08246147
000120 34 bd e8 bc 6a 86 90 bc 63 d6 05 3e f3 5d ee 3c
       -0.028410532 -0.017642219 0.13070063 0.029097533
000130 a2 e3 04 be 46 8d e8 3d d2 13 b9 b9 21 7f dc bd
       -0.1297746 0.11355071 -0.00035300717 -0.107664354
000140 f3 f6 7b bd 0f 7f ba 3d 05 01 8b bd 9c e3 af bc
       -0.061514806 0.09106266 -0.06787304 -0.021470837
000150 ee fa 20 bd 02 d4 93 3d 29 30 24 bd c9 da 0e 3d
       -0.039301805 0.07218172 -0.04008499 0.03487662
000160 01 2a 6e 3d 40 ed ff 3d 95 7d 9e bd 05 05 87 3d
       0.058145527 0.12496424 -0.077387966 0.06592754
000170 5c 40 00 be 5f b4 08 3e 0f 85 99 bd 88 5a 4f bc
       -0.12524551 0.13350056 -0.07496082 -0.012655862
000180 9f ca b5 3d c6 eb bb bc 70 a7 cd bb ed 40 14 be
       0.088765375 -0.022939574 -0.0062760636 -0.14477892
000190 c7 c4 17 bd 55 2d da 3c 4a 7d 1a 3d bd f8 5b 3c
       -0.037052896 0.026632944 0.03771714 0.013426003
0001a0 4d d3 08 bd 3c 11 d8 bd 17 1c e9 3c e1 a0 13 be
       -0.033404637 -0.10550162 0.028455777 -0.14416839
0001b0 fd 56 85 bb 9d 6c 81 bd a7 6e 93 3d 82 9d b4 3d
       -0.0040692077 -0.063195445 0.0719884 0.08819105
0001c0 42 80 a3 3c bb db b8 3d 7d c9 92 3d c5 78 5b 3d
       0.019958619 0.09026285 0.07167337 0.05358197
0001d0 6c 14 1b be 14 1a 56 3c cf 38 e4 3d 04 3d a1 bd
       -0.15144509 0.013067741 0.11143648 -0.07872966
0001e0 c4 e3 0d 3d fa 48 eb bd 4c 88 55 3d 21 36 bf 3d
       0.034641042 -0.114885285 0.052131936 0.09336496
0001f0 e7 6d ee bd 22 9b b8 3c a1 2a 9b bc 04 b6 f0 bd
       -0.11642056 0.02253491 -0.018941225 -0.11753467
000200 df ad 06 3b 28 02 8c bd d6 0b d3 3d 13 0a 6b 3b
       0.0020550413 -0.06836349 0.10304992 0.003586416
000210 54 7b 13 3d 97 61 13 3e f1 ce 0e 3e 89 3c a8 3d
       0.036006287 0.14392696 0.1394613 0.08214671
000220 f2 16 e3 bd e6 ee 5b 3c 25 48 b7 bd 36 cc 99 3c
       -0.11088361 0.013423657 -0.08949307 0.018774133
000230 9f 1d 66 3c 75 5d 34 be 3f c8 40 3d af cb a1 3d
       0.014045148 -0.17613776 0.04706597 0.07900178
000240 e9 76 a9 3c 16 4a 24 bc 09 d1 18 3e 77 bf 37 3e
       0.020686584 -0.010027429 0.1492349 0.17944132
000250 7d ed 09 bd 15 b4 45 bb 4b 6c 2e 3c 8b 4f a4 3d
       -0.033673752 -0.0030167152 0.010645936 0.08022984
000260 0b b3 43 3e 69 8f e1 3c 74 ff 30 3c d0 11 1e 3e
       0.19111268 0.027534204 0.010803092 0.15436482
000270 26 2e 96 3d 74 b5 59 bd 66 e7 f7 3d 02 da f5 bc
       0.07333021 -0.053151563 0.121046826 -0.03001118
000280 0d 3b cd 3c 3d d7 2c 3e f8 eb 25 bd 6e 8a 26 3d
       0.025052572 0.16878982 -0.04050824 0.04065936
000290 8f f7 15 3d b1 8d 30 3e 6c ce 2b 3e ef f1 0d 3d
       0.036613043 0.17241551 0.16777962 0.034654554
0002a0 8c db c7 bd 37 cb 55 3e d7 45 f4 3d c2 00 05 3e
       -0.09758672 0.20878302 0.119273834 0.1298857
0002b0 40 7c 5a 3d 88 b7 24 bd de 4b a9 bd 20 c9 4b 3e
       0.05334115 -0.04021409 -0.08266424 0.19900942
0002c0 0b ab 8b bd 83 45 a3 bd 01 44 b2 3d cc ba 42 3e
       -0.06819733 -0.07972243 0.08704377 0.1901657
0002d0 0a 10 95 bd b7 ce 27 bd a0 de 2e 3e 1c 51 6d 3c
       -0.0727845 -0.040968623 0.17077112 0.01448467
0002e0 c2 05 03 3e d1 be 6b 3e b4 4e de 3d 9a e3 1e 3e
       0.12795165 0.2302201 0.10854855 0.1551651
0002f0 99 4a 15 3e 71 a5 90 bd 99 10 0c 3e ff 83 2a bd
       0.14579238 -0.070628054 0.13678207 -0.041629788

mlp.0.weight f4 [256, 54]
000000 96 3e 55 bd a5 b2 c1 bd a5 71 d0 3d 8c 31 0b bc
       -0.05206164 -0.09457902 0.10177926 -0.0084957
000010 50 1a 97 bc b3 db 73 3d 45 46 a5 3b 01 22 4e bd
       -0.018445164 0.059535693 0.005043777 -0.050325397
000020 d5 ee 02 be 75 8f 3f bd db 45 b7 bc d9 cf 06 3e
       -0.1278642 -0.04676767 -0.022372177 0.13165225
000030 30 7b 5b bd 4f 07 be 3d 98 e4 e0 bd 8a 48 44 bd
       -0.053584278 0.09278738 -0.10981101 -0.04792074
000040 70 87 74 3d 20 e0 b1 bc 78 35 9b bd 35 2c 03 bd
       0.059699476 -0.021713316 -0.07578558 -0.03202458
000050 f7 e6 00 be 1a ff 0a 3e 9d 5e bd 3d 6f c9 01 3e
       -0.12588106 0.13573876 0.09246562 0.12674497
000060 d2 db 05 be fd 8a 44 3d 2a 94 04 3d 14 7e d2 3c
       -0.13072136 0.047984112 0.032367863 0.025694884
000070 8a 00 03 be f1 57 16 3e c1 c6 c9 3d 0d 22 ea bd
       -0.12793174 0.14681984 0.098523624 -0.11432276
000080 9d c3 ed 3c 4f 90 b8 3d cd 20 91 3a 48 f7 f3 3d
       0.02902394 0.090119 0.0011072397 0.119123995
000090 c1 2e c3 bd e9 31 05 3d f3 1e a3 3d 11 8d d5 3d
       -0.09530402 0.0325183 0.079648875 0.10427297
0000a0 2e 4c 00 3e 72 92 bd 3d bd f6 ae bd 69 13 9c 3d
       0.1252906 0.09256448 -0.08543155 0.0762089
0000b0 1e ae 10 bd 17 eb ab bd 92 66 05 3d ee 57 94 bc
       -0.0353223 -0.08394449 0.03256852 -0.018108334
0000c0 ec c0 b9 bc d1 2e 0b bd c9 5b b5 3c 3c 33 21 bd
       -0.022675 -0.033980194 0.022138493 -0.0393555
0000d0 0e ef e4 3d be 87 0f 3c 36 15 5f 3d 42 4b b4 bd
       0.111784086 0.008760391 0.054463588 -0.08803417
0000e0 82 bd 70 bd 1b 0f 9a 3d 95 63 68 3d a2 74 0a 3d
       -0.05877448 0.075224124 0.056735594 0.033802636
0000f0 86 6a 48 bc f5 0f 2a be 6e 5a f3 bc 50 5c 93 3d
       -0.012232428 -0.1660765 -0.029706206 0.071953416
000100 91 8a 21 be 07 1e 44 3d 98 7b 8f 3d c9 81 8a bd
       -0.15775515 0.0478802 0.070059955 -0.06763036
000110 99 fd f3 bd 55 11 a3 3d 9a 24 b0 3d 3f f8 e3 bd
       -0.11913604 0.0796229 0.08600731 -0.111313336
000120 bf f0 64 3c cf fa 02 3e 7d f7 2d 3e b1 35 64 3d
       0.013973414 0.12790988 0.1698894 0.055715267
000130 69 9c 9f 3c 36 c2 06 3d 03 74 28 3e 3f c0 c7 3d
       0.019483762 0.032900058 0.16450505 0.09753465
000140 ea b3 d4 bd 22 b1 07 3e e3 57 47 3e b8 15 8d bd
       -0.103858784 0.13251165 0.1946712 -0.06888908
000150 18 0f ab bd f9 f9 f1 3d de ad c8 bb de 6c 06 be
       -0.08352488 0.118152566 -0.006124242 -0.13127467
000160 76 cd 33 bd 60 31 24 be e2 c5 10 3e 5c 84 14 3e
       -0.043897115 -0.1603446 0.14137986 0.14503616
000170 46 78 98 bd f1 9c 2a bd 2f dd c6 3d b8 e3 68 3d
       -0.07444815 -0.041653577 0.09710156 0.056857795
000180 57 b0 74 bd 05 7b bc 3d 78 6a 06 be 05 45 5a 3e
       -0.059738483 0.092031516 -0.13126552 0.21315391
000190 ec ea a4 3d 35 06 8d be 73 00 33 be 7f 51 8d 3d
       0.0805262 -0.27543798 -0.1748064 0.0690031
0001a0 db 54 12 3e a7 91 2b be 36 87 19 be 58 dc cb bd
       0.14290182 -0.1675478 -0.14992985 -0.099541366
0001b0 73 cd bf bd 31 94 e9 bd d4 fc b4 3d b6 0a 07 be
       -0.09365358 -0.114052184 0.08837286 -0.1318768
0001c0 f9 ed b4 3d d7 b3 ad 3d b5 71 07 3e 3e 2c 29 bd
       0.08834452 0.08481567 0.1322697 -0.04130196
0001d0 14 ad 7e bd 4b 2a 93 3b 0a d9 ba bd 83 5e 4c bd
       -0.06217678 0.0044911257 -0.09123428 -0.04989482
0001e0 61 51 b4 bd cd 0e be 3b b4 f9 f8 bd 91 af 7d 3d
       -0.08804584 0.0058001042 -0.12157002 0.06193501
0001f0 bd 67 07 3e 5b dc 56 bd 55 67 07 3e 13 af c3 bd
       0.13223167 -0.05245624 0.13223012 -0.09554877
000200 bf fb ac 3d 1a 5d 04 be 07 b6 d3 bd 52 e4 49 3b
       0.08446454 -0.1292614 -0.10337453 0.0030806256
000210 eb ca 46 3e b8 d1 20 3e c9 d2 ce bd bc ea 09 3d
       0.19413345 0.15705001 -0.10098798 0.033671126
000220 31 35 bb 3d 33 12 b2 3d fa e2 b4 3d 53 bf 18 3e
       0.09141005 0.086948775 0.08832355 0.14916734
000230 3a a4 5c bd 68 83 a3 bd b1 62 16 be 7f 84 72 3d
       -0.053867556 -0.07984048 -0.14686085 0.05920839
000240 8b 17 c7 3d d2 59 82 bb 2d 86 c6 3c f5 93 8f bc
       0.09721287 -0.0039779926 0.024233902 -0.017526606
000250 2d 80 95 3d 62 92 38 3d 59 85 7d bd f8 ac 07 be
       0.07299838 0.045061477 -0.06189475 -0.13249576
000260 7e 21 93 3c e1 20 0b bd 44 9b 97 bd 04 ae f7 bc
       0.017960306 -0.033966903 -0.074026614 -0.030234344
000270 a2 8b 46 bc bd 9d de 3d 74 98 ae 3c f3 a6 16 be
       -0.012118252 0.1086993 0.02131293 -0.14712124
000280 a6 91 f1 3d 32 69 a0 bd 5a 9d a8 bb db 96 21 3c
       0.11795358 -0.078325644 -0.005145711 0.009862627
000290 76 23 83 bd 5d d7 68 bd 81 0d ab bd d5 fc d3 bd
       -0.06403248 -0.05684601 -0.08352185 -0.10350958
0002a0 c2 c8 ab 3d 4b 48 34 be 13 04 0a 3e 46 bd 6a 3d
       0.08387901 -0.17605703 0.13478117 0.05730941
0002b0 ce 33 0e be 7a da 36 bd 9d 14 d2 bd 3f 86 55 be
       -0.1388695 -0.04464195 -0.10257838 -0.20851992
0002c0 39 70 91 bd 68 94 90 bd 84 01 32 3e 13 0f 9a bd
       -0.07101483 -0.07059556 0.1738339 -0.075224064
0002d0 0e e6 12 3d 6f 10 14 3e a5 3b 9a bd b7 66 5a 3c
       0.03586393 0.14459394 -0.075309075 0.013330153
0002e0 1a 79 c7 3b 1d 58 86 3c cf 00 d8 3d ef 30 f4 3d
       0.0060874345 0.016399438 0.10547029 0.11923396
0002f0 e3 54 45 be 9d 41 50 3e d4 c4 01 3d 29 c0 04 bd
       -0.19270663 0.2033753 0.03168185 -0.03240982
000300 05 28 e0 bd 9b 94 bb bd c0 52 cf bd 3f 12 e9 bd
       -0.10945133 -0.091592036 -0.10123205 -0.11380433
000310 96 6e 90 bd 64 8e 10 be 8a c1 7c 3d 29 97 d1 3d
       -0.070523426 -0.14116818 0.06170801 0.1023391
000320 40 7c d1 3d 1e d1 42 3d 10 39 33 3e 0f 5f b7 bb
       0.10228777 0.04756271 0.17502236 -0.0055960487
000330 92 2e c5 3c b8 d1 08 be d2 6a 08 bc b4 f5 11 3e
       0.024070058 -0.13361251 -0.008326249 0.14253885
000340 88 90 d3 3d 0e ae 75 be 79 ed e8 bd 76 39 39 3e
       0.103303015 -0.23992178 -0.11373419 0.18088326
000350 49 30 e6 3d cd 6a c1 3d 36 3d d9 bd 7e bc 13 3c
       0.112396784 0.09444199 -0.10607378 0.009017108
000360 c8 c0 c8 3c 7e 4b 27 3b 29 5d fb bd c9 eb d8 3d
       0.024505988 0.0025527175 -0.12273628 0.105918474
000370 4d 93 27 bd 73 aa 1c 3d 53 52 9a bc f4 b0 ef bd
       -0.04091196 0.03824849 -0.018838083 -0.11703673
000380 86 8b 87 bd e1 a9 2a 39 76 72 2e 3d cb cd 81 bd
       -0.06618409 0.00016275748 0.042589627 -0.0633808
000390 e5 f9 b9 bc df 6c df bd df dd b1 bd b0 c2 b5 3d
       -0.022702167 -0.109094374 -0.08684897 0.08875024
0003a0 06 7f a7 bd fd 69 a9 3d 76 38 21 3e 5e 2f 13 bc
       -0.08178525 0.08272169 0.15744194 -0.008983461
0003b0 4e 8d 67 3c 51 69 33 3d b0 08 c7 3c 0d 59 03 3c
       0.014132811 0.04380161 0.024296135 0.008016837
0003c0 b5 eb 9c 3d 30 4f 39 3e 97 69 24 be 08 91 42 3e
       0.07662145 0.18096614 -0.16055904 0.19000638
0003d0 94 22 de bc 17 ce b2 3d f4 a7 1c be 55 cb 87 bd
       -0.027116098 0.08730715 -0.15298444 -0.066305794
0003e0 b7 d3 2b be 55 81 41 3d b4 8e c5 bd 0b ae 07 be
       -0.16779982 0.04724248 -0.09646359 -0.13249986
0003f0 ca 7a 03 3d cd 0e 1c 3e 92 73 ba bd c3 14 08 3e
       0.032099523 0.15240021 -0.091040745 0.1328917

mlp.0.bias f4 [256]
000000 28 69 cf 3c e3 2e bd bd 37 4b a6 3d de 92 02 3e
       0.025318697 -0.092374586 0.08119815 0.12751338
000010 7c 36 bf 3d e4 ea ed bd 57 59 bf bd de f6 3e 3c
       0.09336564 -0.116170675 -0.09343212 0.011655537
000020 96 0a 80 3d d3 db 04 be 4e 16 d4 bd d5 93 ea bd
       0.06252019 -0.12974481 -0.10355817 -0.11453978
000030 ba 6a c3 3d 80 60 0a 3e ca 13 3d 3c 8d 03 f9 bb
       0.09541841 0.13513374 0.011540363 -0.0075993002
000040 49 27 ab 3b f3 ee cf bd cd 98 5b 3d 21 04 0f 3d
       0.005223189 -0.10152998 0.05361252 0.034916047
000050 21 14 25 bc d6 d2 63 bb 1b e1 48 bd 23 65 83 bd
       -0.0100756 -0.003476312 -0.049042802 -0.06415775
000060 22 09 e5 bd 48 fc f5 3d b3 b4 fb 3c a9 b8 c1 bc
       -0.111833826 0.120110095 0.030725813 -0.023647623
000070 fd b6 5e 3d 6b bc 45 3d a6 a5 a0 3d 2b 80 e2 3d
       0.05437373 0.048275393 0.07844095 0.11059602
000080 fd 4b 0b be 68 46 a5 bd c8 61 d5 3c e7 ab cb bc
       -0.13603206 -0.080700696 0.026047602 -0.024862243
000090 c2 7f 82 bd 70 59 0c 3e ec bf 44 3d d4 7a 03 3d
       -0.06372024 0.13705993 0.048034593 0.03209956
0000a0 94 59 81 3c ab 9d 04 bd e2 f2 80 3d 7f 60 1e 3c
       0.015789784 -0.032376926 0.06296326 0.009666561
0000b0 7a 38 44 3b 4e 81 71 3c 2e 6c 8e 3b d9 5e 23 3d
       0.002994089 0.014740301 0.004346392 0.039885376
0000c0 eb 11 2a 3e 21 e9 95 bd 08 fa b2 bd 7f 93 08 3e
       0.16608398 -0.073198564 -0.08739096 0.13337515
0000d0 a7 75 b5 bd d3 10 dd bd 33 81 df bc a7 74 89 bd
       -0.08860331 -0.107942246 -0.027283287 -0.06711703
0000e0 48 ac 70 3c b4 e2 d3 bc 11 f7 dc 3c 29 f6 02 3e
       0.014689513 -0.025864936 0.02697328 0.12789215
0000f0 67 cf d1 bd 73 cb 8b bd 1c f6 35 bc 19 a0 f0 bd
       -0.10244637 -0.06825914 -0.01110604 -0.11749286
000100 05 47 00 3c ee 4e bd bd 7b 68 50 bd d0 2b 64 3d
       0.007829432 -0.0924357 -0.05088089 0.055705845
000110 74 a8 d7 bd f8 98 01 be 36 d1 9d 3c a2 09 a6 3d
       -0.10530177 -0.12656009 0.019264799 0.08107306
000120 31 f6 05 be 3e 49 7a bc 4f a7 38 3d 89 0e 95 bc
       -0.13082196 -0.015276251 0.045081433 -0.018195407
000130 d6 6d ba bd 86 f9 f0 3c 37 4d 8a bc e0 c9 b9 bd
       -0.09102981 0.029415857 -0.016882522 -0.09071708
000140 7d 46 04 be 5d d3 07 3e 3e eb c2 bd 81 63 d7 bd
       -0.12917514 0.13264222 -0.09517525 -0.10517026
000150 c0 03 ed bd 7a 6b 62 3c 76 cf 38 bd 64 4e fb 3d
       -0.11572981 0.01381957 -0.045119725 0.12270811
000160 41 a6 a9 3c fa e1 f2 3d e0 06 92 3d 0a be 09 be
       0.020709159 0.11859508 0.071302176 -0.134514
000170 e1 01 a2 bd 76 ba 19 ba 62 3e 99 3d 48 44 19 3e
       -0.079105146 -0.00058642717 0.07482602 0.14967453
000180 5a e2 91 3d 75 b5 cc 3d 41 22 27 3d 49 8e 6c 3d
       0.07123251 0.09995548 0.04080415 0.05775288
000190 f9 cf ea 3d f2 55 56 bd e6 6b 08 3d f0 45 db bc
       0.11465449 -0.052328058 0.033306025 -0.026766747
0001a0 d8 5e 1a 3d 84 8c 52 bd d9 cc a6 bd 3d 94 8f 3b
       0.037688106 -0.051403537 -0.0814454 0.004381685
0001b0 31 6a c5 bd 20 be 72 3d 0c 89 c6 bc de 2f f8 3d
       -0.09639395 0.05926335 -0.02423527 0.12118505
0001c0 d7 29 bf bd 50 c2 7f 3d 9f 48 04 3e f2 ba ab bc
       -0.09334152 0.06244117 0.12918328 -0.020963166
0001d0 cb 18 aa bd 82 cf 46 3c 17 08 62 bd 30 61 62 bc
       -0.0830551 0.012134435 -0.055183496 -0.013817117
0001e0 ef 5c 58 3d 4b 03 4b 3d 83 ba 08 3e 63 81 3e bd
       0.052823003 0.049563687 0.13352399 -0.04651011
0001f0 f1 38 54 3d 67 79 38 3d 84 9f 09 be 89 0a 03 be
       0.051812116 0.045037653 -0.13439757 -0.12796988
000200 a9 37 2d 3d b1 67 0f be 19 5e f8 3d 2e 57 f8 3d
       0.04228941 -0.14004399 0.12127323 0.12126003
000210 a9 3f 65 3d 19 d2 af 3d e1 79 df bd 88 84 27 3d
       0.055968914 0.08584995 -0.109119184 0.040897876
000220 1e 9d 88 3d b6 f6 7e 3c ea d9 ea 3d 10 ec 2d 3d
       0.06670593 0.01556175 0.11467345 0.042461455
000230 b9 bd 03 3e 14 e0 28 bd 28 61 e8 3d 62 ba 2d bd
       0.12865342 -0.041229323 0.11346656 -0.042414077
000240 4a 27 ac bd 95 df a1 bd e4 dd fb bd 35 47 b8 bd
       -0.08405931 -0.07903973 -0.12298182 -0.08997957
000250 c3 e7 dd 3d 06 20 72 bd 24 7b 19 3d 34 3e 18 3e
       0.10835221 -0.05911257 0.03747095 0.14867479
000260 2f 9d 82 3d 3c eb a7 bd c8 3a d5 bd f7 e9 17 3e
       0.06377637 -0.08199164 -0.10411602 0.14835344
000270 48 c9 ac 3a 37 7a f8 bc 53 78 80 bd 17 bc af bc
       0.0013182545 -0.030331714 -0.0627295 -0.021451993
000280 12 ec 69 3d b0 23 bb bd 91 a1 dc bc 73 f4 49 bd
       0.0571099 -0.09137666 -0.02693251 -0.04930539
000290 15 cf 69 bd e9 98 a1 3d 82 52 14 3d e7 59 8a bd
       -0.057082254 0.078904934 0.036211498 -0.06755429
0002a0 46 7b 6f 3d 53 97 e7 bd ae bc 1c 3d a0 6e 80 3c
       0.058467172 -0.1130816 0.038265876 0.01567775
0002b0 2d 8f df bd f2 25 7a bd be 2c a5 bd 45 7c f0 3d
       -0.109159805 -0.061071344 -0.080651745 0.117424525
0002c0 4d 18 11 3e a8 48 03 be fb c5 3e 3e 42 0e e3 3d
       0.14169426 -0.12820685 0.18630211 0.11086704
0002d0 3a 15 00 be 51 12 03 be 5b 16 0e 3e 01 9d f9 3c
       -0.12508097 -0.12799956 0.13875715 0.030470373
0002e0 eb ea c6 bd b5 03 f7 3d 28 06 f0 bd 13 7d 4b bd
       -0.09712776 0.12061254 -0.11719924 -0.049679827
0002f0 fb c5 39 3d 08 df b9 bd 49 c6 a6 bd 42 88 ca 3d
       0.045354825 -0.09075743 -0.08143289 0.0988927
000300 82 55 f4 3d fd e1 3b 3d 19 47 00 be 60 55 db bb
       0.11930372 0.045869816 -0.12527122 -0.006693527
000310 87 19 34 3d 0c 5f e6 bb 2b d8 a0 bd 47 88 f2 3c
       0.043969657 -0.0070303734 -0.07853731 0.029605998
000320 5a f5 75 bb ce 01 c1 bd 53 5c 9f 3d 8d 27 00 be
       -0.0037530274 -0.09424172 0.07781281 -0.12515087
000330 c3 8f b0 bd 0c 01 34 bc 3c fc 40 bd 45 ee 21 3d
       -0.0862117 -0.010986578 -0.04711555 0.039533872
000340 1b ac d9 bd f2 fa b5 3d ed 40 4b 3d 7f f2 a2 3d
       -0.1062853 0.08885755 0.049622465 0.07956409
000350 1a bf 0a bc bc b7 b6 bd bd 7a 04 bd 1d a9 a0 bc
       -0.008468414 -0.08921763 -0.032343615 -0.01961189
000360 97 d3 f6 3d dc 8d 90 3d 56 10 38 3d 44 1e 5b 3d
       0.12052076 0.070583075 0.044937454 0.05349566
000370 03 89 be bd c0 ac ee 3d 58 c7 c8 3c 74 38 70 bd
       -0.09303477 0.11654043 0.024509117 -0.058647588
000380 0b 57 1d 3d c6 e4 b4 bd e6 73 09 3e 4d 64 c7 bd
       0.03841309 -0.088326976 0.13423118 -0.09735928
000390 1e 2e 08 bd d5 43 a9 bd fc 28 b1 3d 05 84 04 bd
       -0.033247106 -0.08264891 0.08650395 -0.032352466
0003a0 97 db 91 bc a3 40 04 be d3 46 80 bc 42 f3 d0 3c
       -0.017804904 -0.12915282 -0.015658772 0.02550662
0003b0 04 fc b5 bd 6e e3 a7 bc 2b 59 77 3d dd da 93 bc
       -0.08885959 -0.02049419 0.06038777 -0.018048698
0003c0 70 c8 94 3a cb 84 11 bc a3 f6 b6 bd 4f 9b 95 bc
       0.0011351239 -0.008881758 -0.08933761 -0.018262533
0003d0 fb 3b f0 3d ca 25 a8 bd f7 25 09 be 43 7f 06 be
       0.1173019 -0.08210333 -0.13393389 -0.13134484
0003e0 e8 32 3b 3d ca c9 d9 3b 13 6f 8f bd b4 92 17 bd
       0.045702845 0.0066463696 -0.070036076 -0.03700514
0003f0 25 fe 1c bd 83 f7 41 3d af 9a 99 3c ee 6e ca bd
       -0.03832831 0.047355186 0.018750517 -0.098844394

mlp.2.weight f4 [128, 256]
000000 b8 e3 b6 3c f8 2b d2 3c f0 d5 83 3d 14 fa 05 bd
       0.022325382 0.025655732 0.0643729 -0.032709196
000010 e4 de 2f bd 3f c6 8e bc 06 4a 01 bd ad 19 50 3d
       -0.042937174 -0.017428515 -0.031564735 0.050805736
000020 95 77 74 bd 89 a2 0a bc 9e 28 36 bd 04 e0 08 bd
       -0.059684355 -0.008461603 -0.04447233 -0.033416763
000030 8c ed 9b 3c b3 48 7a 3d 32 2f f6 3c a7 16 5b ba
       0.01903417 0.061104488 0.030051801 -0.00083575625
000040 8b e9 27 bc 57 9a ba 3c 1d b0 4d bd d6 ef a8 3d
       -0.010248552 0.022778673 -0.050216783 0.0824887
000050 f3 1c 72 bd 77 8e 41 bc f1 94 06 3b af f6 43 3d
       -0.05910964 -0.011813751 0.0020535553 0.047842678
000060 10 16 df bc 6b c8 f1 bb 2c d8 53 bd 52 f6 21 3d
       -0.0272322 -0.007378628 -0.05171983 0.03954155
000070 8f 94 2d bc 92 d6 b2 3c 54 17 41 3d 65 e5 cd bc
       -0.010594501 0.02183083 0.047141388 -0.025133798
000080 e5 e1 38 3d 6d e1 47 bd 9b 56 81 bd a5 5e 89 3d
       0.045137305 -0.048798967 -0.06315347 0.06707505
000090 11 7e d9 3c 9e 1f 1d bc df 3f f1 3c 3c 58 0e 3c
       0.026549371 -0.009590058 0.029449401 0.008688029
0000a0 28 14 41 3c 6c 7c 37 3d e0 e4 76 3d b6 2c 43 bd
       0.011784591 0.044796392 0.060276866 -0.04765006
0000b0 44 da 4b bd 5f 02 03 3a d5 d0 68 3d aa 1e 54 3c
       -0.0497687 0.0004997607 0.056839783 0.012946764
0000c0 a4 b8 fd 3c 8a 1b 70 bd 90 73 04 bd 1e 7b ae bd
       0.030971833 -0.058620013 -0.03233677 -0.085195765
0000d0 e0 74 c3 bb ef c1 d3 3d c6 56 ce 3c cf 99 52 3d
       -0.0059648603 0.10339724 0.025187861 0.051416215
0000e0 ae 7c 7f bd 06 fb 2c 3d 6d c5 76 bd 9f 3f 2e 3d
       -0.062374763 0.042231582 -0.060246874 0.042541143
0000f0 17 f5 26 3d 6e f3 17 3b d4 8d 7a 3d 34 67 a3 bc
       0.04076108 0.0023185867 0.061170414 -0.019946672
000100 87 1f 73 bd 0b b2 b8 ba 3e 7b 1f 3c a5 4d 3e bb
       -0.05935624 -0.0014091147 0.009733973 -0.002903798
000110 ef 06 d2 3c 23 be 5c bd 8c 2f d5 bc e0 f7 55 3c
       0.025638072 -0.053892266 -0.026023649 0.013059586
000120 e6 6d 10 bd e6 59 e9 bd 64 4f d9 3c 51 55 2e bd
       -0.035261057 -0.113941 0.026527114 -0.042561833
000130 f8 7d 4b 3c d5 bc 9b 3b 36 82 66 bc 67 96 3b 3d
       0.01242017 0.004752735 -0.014069131 0.04579773
000140 35 3c a4 3d 19 95 32 bd 17 b9 7a 3d 53 9c 51 bd
       0.08019296 -0.04359922 0.06121167 -0.051174473
000150 1c a1 42 bd 4c 54 3d bd a2 be 2c bd 04 c7 ef bc
       -0.047516927 -0.04622297 -0.04217399 -0.029269703
000160 2a 3f b0 bc 70 a7 48 3c cf fc 90 3d f0 2e 2a 3d
       -0.021514494 0.012246951 0.070794694 0.04154867
000170 75 81 48 3d 7d 6e 3f bd 23 ad ec 3c 70 b4 9e bc
       0.048951585 -0.04673623 0.028891152 -0.019373149
000180 5f 42 5a 3c c6 1a c1 3d f2 14 ef bc 3e 88 d2 3c
       0.013321488 0.09428935 -0.029184792 0.025699731
000190 20 17 ba 3b 52 d3 dd ba 77 31 42 bd f1 52 bb 3c
       0.0056790262 -0.001692394 -0.047410455 0.022866698
0001a0 45 78 bb 3b 87 f9 9d 3d 85 9d c1 3c 4f 07 25 3d
       0.0057211244 0.07713609 0.023634681 0.040290173
0001b0 10 25 14 3d 36 ba 09 bc d7 6d 44 b9 de 19 39 3d
       0.036168158 -0.008406213 -0.00018732935 0.045190684
0001c0 66 f3 76 bd bb 32 5d bc 88 63 4f 3c 40 14 b1 3c
       -0.060290717 -0.013500865 0.012658007 0.021616101
0001d0 e9 e7 fa 3c 54 b8 ad bc 1a f2 7f 3d 87 1e a8 bd
       0.030628162 -0.021206059 0.062486745 -0.08208948
0001e0 b8 3c 51 bd 3a b5 29 3c ea bb ec 3b 93 62 b1 3c
       -0.051083297 0.010358149 0.0072245495 0.02165345
0001f0 0a cf 5f bd 39 e9 1e 3d be c2 58 bd 8e 67 ef bc
       -0.054640807 0.038796637 -0.052920096 -0.029224183
000200 93 92 3b bd 9a 30 d2 bb 9b e0 4f 3d c7 36 8d 3c
       -0.04579408 -0.006414485 0.05075131 0.017238034
000210 e0 97 aa 3c d7 4f 96 3d 2d 02 f4 3c 6b 87 b6 3c
       0.020824373 0.07339447 0.029786194 0.02228137
000220 36 bf 49 3d 55 37 3a bd 85 d1 b2 3b ce 49 be 3d
       0.04925462 -0.045462925 0.0054571056 0.09291421
000230 54 e3 e1 bb f0 f5 a0 bc 34 5f 42 3d dc af 9f 3c
       -0.0068935547 -0.019648522 0.047454074 0.019493036
000240 a1 b7 1c bd e0 f7 6b bd 87 5e c3 3c 42 22 9a bd
       -0.03826106 -0.05760944 0.023848785 -0.075260654
000250 d9 b9 77 bc 0d 57 7a ba f2 6a 88 3a dd 98 41 3c
       -0.015119993 -0.0009549715 0.0010407849 0.011816231
000260 67 b1 15 3d f9 67 4f bd 93 ff 55 3c 90 7c 22 bd
       0.036546137 -0.050636265 0.013061422 -0.039669573
000270 c8 bf 82 3d 95 b2 3f bd ae 9e 93 bd dd 2d 54 bd
       0.063842356 -0.04680117 -0.07208 -0.05180155
000280 f3 02 e0 bc e7 9b 6d 3d 7e aa 12 bd d0 fe 4e bd
       -0.027345156 0.05801001 -0.035807125 -0.050535977
000290 15 5f 37 bc 50 72 fc bc c6 8b 79 bc 40 f7 9a bd
       -0.011192103 -0.030816227 -0.0152310785 -0.075666904
0002a0 f6 ae 25 3d e6 b7 9a bd d5 73 90 3c 43 7b ca bc
       0.04045006 -0.07554607 0.017633358 -0.024716979
0002b0 4f 1b bf 3d 55 d8 4f 3d f2 9b f2 3b cb 93 6a bd
       0.093313806 0.05074342 0.007403844 -0.057269853
0002c0 e9 01 5b bd 2d 1a 2b bc d4 c2 92 3c a3 2c 0a 3d
       -0.05346862 -0.0104432525 0.017915167 0.033733975
0002d0 08 4c 44 3c 80 d5 e9 b9 ae 5a d6 bc d2 dd 8b 3b
       0.011981018 -0.00044600293 -0.026166286 0.0042683864
0002e0 5f b4 57 bd 46 99 2b 3d 6f cf 8c 3d 87 e0 60 3b
       -0.05266225 0.04189422 0.06875502 0.0034313516
0002f0 c4 e2 08 bd 80 5f f9 bc 2f 63 0f bd cf b2 4e bd
       -0.033419386 -0.030441046 -0.0350067 -0.050463494
000300 09 94 38 3d ba 2c d9 3c 05 75 8d 3a 5d 99 8e 3c
       0.045063052 0.026510585 0.0010792321 0.017407114
000310 da 12 d5 bc 8e 9c a2 bc a0 49 fa bb 12 bd b8 3c
       -0.026009966 -0.019850042 -0.0076381713 0.022551093
000320 7d 79 4e 3d e5 a4 ac 3d 89 01 a8 3d b5 ae f0 3c
       0.05040883 0.08429889 0.08203418 0.029380182
000330 23 4a 18 bd 5c 4c 65 bd 64 d5 a1 3c 8f fc 4c bd
       -0.037180077 -0.055981025 0.019755073 -0.050045546
000340 01 96 40 bd 38 80 59 3d 41 96 6b 3d 90 5f 75 3b
       -0.047018055 0.053100795 0.05751634 0.0037440993
000350 93 05 e7 3d 26 83 12 bd 19 1f 6d bd 10 9c e6 3c
       0.1128036 -0.035769604 -0.057890985 0.028150588
000360 b4 cf 53 3d f9 56 08 3c 8a e8 03 bd 88 55 48 3d
       0.051711753 0.008321517 -0.03220419 0.048909694
000370 5b f0 42 bd 3e ca 70 3d 68 eb f3 3d 5c 55 42 bd
       -0.047592502 0.058786623 0.119101346 -0.047444686
000380 72 90 4b bc 70 6b da 3c 8c f6 b2 3b a4 29 52 3d
       -0.012424575 0.026662558 0.0054615196 0.051309243
000390 23 3b 90 3c 99 0a 01 3d 3c 64 2d 3c 04 e9 2b bd
       0.017606324 0.031504247 0.01058298 -0.041970268
0003a0 1b a0 b4 bb 1f 44 e7 bc 00 a7 ce 3c 4b d2 a5 3d
       -0.00551225 -0.028230725 0.025226116 0.08096751
0003b0 30 40 7f 3d 2c 78 66 3d 2c 9a 60 3d 87 00 3a 3b
       0.062317073 0.05626695 0.05483453 0.0028381662
0003c0 d2 47 62 bc e5 ab 11 3d 97 57 3f 3b b5 f0 f1 bc
       -0.013811069 0.035564322 0.0029196495 -0.029533723
0003d0 26 e7 88 bd df 10 40 3c 2b 65 09 bb f3 27 dc bb
       -0.06684713 0.011722772 -0.0020964842 -0.0067186295
0003e0 24 10 1c bd e6 30 12 bd 63 19 58 3d 57 6c ec 3c
       -0.03810133 -0.035691164 0.052758586 0.028860254
0003f0 a4 bc 18 3d 05 9b b5 bc e2 62 e7 3c 1c ba 0f 3d
       0.037289277 -0.022168646 0.028245393 0.035089597

mlp.2.bias f4 [128]
000000 92 da 65 3d 1e 36 1f 3d 49 76 5e bd d0 fb 3b bb
       0.056116648 0.03886997 -0.054312024 -0.0028684027
000010 f3 1e 50 3c d3 04 88 bc 9c 4a 3c 3d 29 03 71 3c
       0.012702691 -0.016603863 0.04596959 0.014710226
000020 fe 15 b8 3b 44 9d f1 3c 5f 1e 1b bd 51 06 34 bd
       0.005617856 0.029493935 -0.03787076 -0.043951336
000030 7c 60 d6 bc 25 44 1b bd 9c 5e 35 3c a2 e7 1e bd
       -0.026169054 -0.037906785 0.01106992 -0.03879512
000040 b9 b8 74 bd 2d 07 23 bd 58 a2 89 bc c4 1d a5 bc
       -0.059746478 -0.039801765 -0.016801044 -0.020155795
000050 75 e0 21 3a 43 67 94 3b 65 cf 6a bd 9a 84 57 bc
       0.00061751093 0.0045289113 -0.057326693 -0.013154173
000060 ce 9c f8 3c d0 b3 1f bc 73 92 92 bc 44 ed 8d 3d
       0.030348208 -0.0097474605 -0.017892098 0.069300205
000070 c8 46 4f bd 58 54 a7 bc 1c 4d bd 3d d8 15 d4 3c
       -0.05060461 -0.02042596 0.09243223 0.025889322
000080 6f b1 8c bd 68 81 34 3d 7b b2 be bc 8a aa d5 bc
       -0.0686978 0.044068724 -0.023278465 -0.026082296
000090 c8 0a a0 bc 1f 50 e1 bc 66 aa 1f 3d c2 d2 36 3d
       -0.01953639 -0.027504025 0.038980864 0.044634588
0000a0 53 e5 5a 3d 99 61 31 bd 65 6e 86 3d 33 19 10 bd
       0.053441357 -0.043305967 0.06564025 -0.03518028
0000b0 dc 9c 78 3d c4 9c 43 3d 94 16 43 3d c7 7c 5e bd
       0.060696468 0.047756925 0.047628954 -0.054318216
0000c0 80 88 26 3c f2 36 74 3d f0 70 bd bb d8 b2 32 bd
       0.01016438 0.059622712 -0.0057812855 -0.04362759
0000d0 10 e5 ce 3c 0e f1 38 3c b9 73 78 bc 4a c9 08 3d
       0.02525571 0.011287941 -0.015164309 0.03339509
0000e0 20 4b 51 3d 6f 0c f0 3c 24 a3 30 bc 93 81 5d 3b
       0.051097035 0.029302804 -0.010781083 0.0033799156
0000f0 b4 55 36 bd e7 a1 26 3a 59 08 fb bc 06 d6 7f bd
       -0.044515327 0.0006356523 -0.030643629 -0.062459968
000100 a0 47 05 3d 4b ad c2 3c 58 60 04 bd d8 4c 4f bd
       0.03253901 0.023764273 -0.032318443 -0.050610393
000110 1a c8 85 bd ae 70 a1 3d df a2 01 bd e0 e8 56 3b
       -0.06532307 0.0788282 -0.031649467 0.0032792613
000120 d0 d7 6f bd da 33 2f 3d 26 01 38 3d 20 f3 8a bc
       -0.058555424 0.04277406 0.04492297 -0.016961634
000130 18 70 e0 3c 54 18 68 3d 51 28 4d 3d fa 32 72 3d
       0.0273972 0.056663826 0.050087277 0.059130646
000140 30 8b 43 bd a5 b2 f8 bb ad 32 6d 3d d2 94 04 bd
       -0.04774016 -0.0075896555 0.057909656 -0.03236849
000150 cf 4a f6 bc 67 a0 df 3c 34 a2 1c 3d 4c 02 00 bd
       -0.030064968 0.027298165 0.038240626 -0.03125219
000160 01 51 8f bd ff ab 2f bd e8 be 17 bd b1 43 8a 3b
       -0.06997872 -0.042888638 -0.037047297 0.004219495
000170 b8 df 97 bc 27 21 42 3c b4 54 ce 3c c0 36 c6 bb
       -0.018539295 0.011848724 0.025186874 -0.006049007
000180 a0 ae 10 3d 98 b8 06 3c ba ab 60 3c a6 6d 13 3d
       0.035322785 0.0082227215 0.013712818 0.03599324
000190 47 0f 00 3d c9 86 8a 3d 73 17 50 3d 64 96 95 3d
       0.03126457 0.067639895 0.050803613 0.07304075
0001a0 12 71 56 3d 70 e9 c4 3c 4a ed 75 bc b3 a8 c9 3d
       0.052353926 0.024037093 -0.015010187 0.0984663
0001b0 98 63 63 3c ff ec 4d 3d d1 a4 84 3d f2 66 b9 bc
       0.0138787255 0.050274845 0.06476749 -0.022632096
0001c0 bb ae a6 3c 80 67 ba 3c 08 7b c5 bc 3c 53 b1 bc
       0.02034699 0.02275443 -0.024106517 -0.021646135
0001d0 e6 53 9d 3d 72 13 59 3d 3a ce 2a 3b 10 8e 48 3d
       0.07682018 0.05299706 0.0026062862 0.048963606
0001e0 bf 5a 27 bd 9f ae 19 bd 8e 9a 09 bc 49 c8 35 bd
       -0.040858027 -0.037520047 -0.008398665 -0.04438046
0001f0 c6 fb 7f bd 0b 7a 61 3d 48 d1 3d bd 29 a7 4f 3c
       -0.06249597 0.05504803 -0.046342164 0.012674131
